…
I0505 14:44:20.827917 27066 net.cpp:53] Initializing net from parameters: 
name: "vehicle_captcha_train"
state {
  phase: TRAIN
  level: 0
  stage: ""
}
layer {
  name: "data"
  type: "Python"
  top: "data"
  top: "label"
  python_param {
    module: "pythonLayer"
    layer: "WarpctcDataLayer"
    param_str: "{\'width\': 80, \'label_txt\': \'data/captcha/trainval.txt\', \'train\': True, \'batch_size\': 512, \'height\': 30}"
  }
}
layer {
  name: "indicator"
  type: "ContinuationIndicator"
  top: "indicator"
  continuation_indicator_param {
    time_step: 80
    batch_size: 512
  }
}
layer {
  name: "permuted_data"
  type: "Permute"
  bottom: "data"
  top: "permuted_data"
  permute_param {
    order: 3
    order: 0
    order: 1
    order: 2
  }
}
layer {
  name: "lstm1"
  type: "LSTM"
  bottom: "permuted_data"
  bottom: "indicator"
  top: "lstm1"
  recurrent_param {
    num_output: 100
    weight_filler {
      type: "xavier"
    }
    bias_filler {
      type: "constant"
      value: 0
    }
  }
}
layer {
  name: "lstm2"
  type: "LSTM"
  bottom: "lstm1"
  bottom: "indicator"
  top: "lstm2"
  recurrent_param {
    num_output: 100
    weight_filler {
      type: "xavier"
    }
    bias_filler {
      type: "constant"
      value: 0
    }
  }
}
layer {
  name: "fc1"
  type: "InnerProduct"
  bottom: "lstm2"
  top: "fc1"
  param {
    lr_mult: 1
    decay_mult: 1
  }
  param {
    lr_mult: 2
    decay_mult: 0
  }
  inner_product_param {
    num_output: 11
    weight_filler {
      type: "xavier"
    }
    bias_filler {
      type: "constant"
      value: 0
    }
    axis: 2
  }
}
layer {
  name: "ctc_loss"
  type: "CtcLoss"
  bottom: "fc1"
  bottom: "label"
  top: "ctc_loss"
  loss_weight: 1
  ctc_loss_param {
    alphabet_size: 11
    time_step: 80
    blank_label: 10
  }
}
I0505 14:44:20.828188 27066 layer_factory.hpp:77] Creating layer data
I0505 14:44:21.471164 27066 net.cpp:86] Creating Layer data
I0505 14:44:21.471192 27066 net.cpp:382] data -> data
I0505 14:44:21.471212 27066 net.cpp:382] data -> label
I0505 14:44:21.508074 27066 net.cpp:124] Setting up data
I0505 14:44:21.508096 27066 net.cpp:131] Top shape: 512 3 30 80 (3686400)
I0505 14:44:21.508106 27066 net.cpp:131] Top shape: 512 5 (2560)
I0505 14:44:21.508110 27066 net.cpp:139] Memory required for data: 14755840
I0505 14:44:21.508119 27066 layer_factory.hpp:77] Creating layer indicator
I0505 14:44:21.508136 27066 net.cpp:86] Creating Layer indicator
I0505 14:44:21.508139 27066 net.cpp:382] indicator -> indicator
I0505 14:44:21.508167 27066 net.cpp:124] Setting up indicator
I0505 14:44:21.508172 27066 net.cpp:131] Top shape: 80 512 (40960)
I0505 14:44:21.508173 27066 net.cpp:139] Memory required for data: 14919680
I0505 14:44:21.508177 27066 layer_factory.hpp:77] Creating layer indicator_indicator_0_split
I0505 14:44:21.508184 27066 net.cpp:86] Creating Layer indicator_indicator_0_split
I0505 14:44:21.508189 27066 net.cpp:408] indicator_indicator_0_split <- indicator
I0505 14:44:21.508199 27066 net.cpp:382] indicator_indicator_0_split -> indicator_indicator_0_split_0
I0505 14:44:21.508204 27066 net.cpp:382] indicator_indicator_0_split -> indicator_indicator_0_split_1
I0505 14:44:21.508232 27066 net.cpp:124] Setting up indicator_indicator_0_split
I0505 14:44:21.508235 27066 net.cpp:131] Top shape: 80 512 (40960)
I0505 14:44:21.508239 27066 net.cpp:131] Top shape: 80 512 (40960)
I0505 14:44:21.508241 27066 net.cpp:139] Memory required for data: 15247360
I0505 14:44:21.508268 27066 layer_factory.hpp:77] Creating layer permuted_data
I0505 14:44:21.508275 27066 net.cpp:86] Creating Layer permuted_data
I0505 14:44:21.508278 27066 net.cpp:408] permuted_data <- data
I0505 14:44:21.508281 27066 net.cpp:382] permuted_data -> permuted_data
I0505 14:44:21.508357 27066 net.cpp:124] Setting up permuted_data
I0505 14:44:21.508360 27066 net.cpp:131] Top shape: 80 512 3 30 (3686400)
I0505 14:44:21.508363 27066 net.cpp:139] Memory required for data: 29992960
I0505 14:44:21.508366 27066 layer_factory.hpp:77] Creating layer lstm1
I0505 14:44:21.508374 27066 net.cpp:86] Creating Layer lstm1
I0505 14:44:21.508378 27066 net.cpp:408] lstm1 <- permuted_data
I0505 14:44:21.508379 27066 net.cpp:408] lstm1 <- indicator_indicator_0_split_0
I0505 14:44:21.508383 27066 net.cpp:382] lstm1 -> lstm1
I0505 14:44:21.508391 27066 recurrent_layer.cpp:20] Initializing recurrent layer: assuming input batch contains 80 timesteps of 512 independent streams.
I0505 14:44:21.508939 27066 net.cpp:53] Initializing net from parameters: 
layer {
  name: "lstm1_"
  type: "Input"
  top: "x"
  top: "cont"
  input_param {
    shape {
      dim: 80
      dim: 512
      dim: 3
      dim: 30
    }
    shape {
      dim: 80
      dim: 512
    }
  }
}
layer {
  name: "lstm1_"
  type: "Input"
  top: "c_0"
  top: "h_0"
  input_param {
    shape {
      dim: 1
      dim: 512
      dim: 100
    }
    shape {
      dim: 1
      dim: 512
      dim: 100
    }
  }
}
layer {
  name: "lstm1_cont_slice"
  type: "Slice"
  bottom: "cont"
  top: "cont_1"
  top: "cont_2"
  top: "cont_3"
  top: "cont_4"
  top: "cont_5"
  top: "cont_6"
  top: "cont_7"
  top: "cont_8"
  top: "cont_9"
  top: "cont_10"
  top: "cont_11"
  top: "cont_12"
  top: "cont_13"
  top: "cont_14"
  top: "cont_15"
  top: "cont_16"
  top: "cont_17"
  top: "cont_18"
  top: "cont_19"
  top: "cont_20"
  top: "cont_21"
  top: "cont_22"
  top: "cont_23"
  top: "cont_24"
  top: "cont_25"
  top: "cont_26"
  top: "cont_27"
  top: "cont_28"
  top: "cont_29"
  top: "cont_30"
  top: "cont_31"
  top: "cont_32"
  top: "cont_33"
  top: "cont_34"
  top: "cont_35"
  top: "cont_36"
  top: "cont_37"
  top: "cont_38"
  top: "cont_39"
  top: "cont_40"
  top: "cont_41"
  top: "cont_42"
  top: "cont_43"
  top: "cont_44"
  top: "cont_45"
  top: "cont_46"
  top: "cont_47"
  top: "cont_48"
  top: "cont_49"
  top: "cont_50"
  top: "cont_51"
  top: "cont_52"
  top: "cont_53"
  top: "cont_54"
  top: "cont_55"
  top: "cont_56"
  top: "cont_57"
  top: "cont_58"
  top: "cont_59"
  top: "cont_60"
  top: "cont_61"
  top: "cont_62"
  top: "cont_63"
  top: "cont_64"
  top: "cont_65"
  top: "cont_66"
  top: "cont_67"
  top: "cont_68"
  top: "cont_69"
  top: "cont_70"
  top: "cont_71"
  top: "cont_72"
  top: "cont_73"
  top: "cont_74"
  top: "cont_75"
  top: "cont_76"
  top: "cont_77"
  top: "cont_78"
  top: "cont_79"
  top: "cont_80"
  slice_param {
    axis: 0
  }
}
layer {
  name: "lstm1_x_transform"
  type: "InnerProduct"
  bottom: "x"
  top: "W_xc_x"
  param {
    name: "W_xc"
  }
  param {
    name: "b_c"
  }
  propagate_down: true
  inner_product_param {
    num_output: 400
    bias_term: true
    weight_filler {
      type: "xavier"
    }
    bias_filler {
      type: "constant"
      value: 0
    }
    axis: 2
  }
}
layer {
  name: "lstm1_W_xc_x_slice"
  type: "Slice"
  bottom: "W_xc_x"
  top: "W_xc_x_1"
  top: "W_xc_x_2"
  top: "W_xc_x_3"
  top: "W_xc_x_4"
  top: "W_xc_x_5"
  top: "W_xc_x_6"
  top: "W_xc_x_7"
  top: "W_xc_x_8"
  top: "W_xc_x_9"
  top: "W_xc_x_10"
  top: "W_xc_x_11"
  top: "W_xc_x_12"
  top: "W_xc_x_13"
  top: "W_xc_x_14"
  top: "W_xc_x_15"
  top: "W_xc_x_16"
  top: "W_xc_x_17"
  top: "W_xc_x_18"
  top: "W_xc_x_19"
  top: "W_xc_x_20"
  top: "W_xc_x_21"
  top: "W_xc_x_22"
…
  top: "W_xc_x_53"
  top: "W_xc_x_54"
  top: "W_xc_x_55"
  top: "W_xc_x_56"
  top: "W_xc_x_57"
  top: "W_xc_x_58"
  top: "W_xc_x_59"
  top: "W_xc_x_60"
  top: "W_xc_x_61"
  top: "W_xc_x_62"
  top: "W_xc_x_63"
  top: "W_xc_x_64"
  top: "W_xc_x_65"
  top: "W_xc_x_66"
  top: "W_xc_x_67"
  top: "W_xc_x_68"
  top: "W_xc_x_69"
  top: "W_xc_x_70"
  top: "W_xc_x_71"
  top: "W_xc_x_72"
  top: "W_xc_x_73"
  top: "W_xc_x_74"
  top: "W_xc_x_75"
  top: "W_xc_x_76"
  top: "W_xc_x_77"
  top: "W_xc_x_78"
  top: "W_xc_x_79"
  top: "W_xc_x_80"
  slice_param {
    axis: 0
  }
}
layer {
  name: "lstm1_h_conted_0"
  type: "Scale"
  bottom: "h_0"
  bottom: "cont_1"
  top: "h_conted_0"
  scale_param {
    axis: 0
  }
}
layer {
  name: "lstm1_transform_1"
  type: "InnerProduct"
  bottom: "h_conted_0"
  top: "W_hc_h_0"
  param {
    name: "W_hc"
  }
  inner_product_param {
    num_output: 400
    bias_term: false
    weight_filler {
      type: "xavier"
    }
    axis: 2
  }
}
layer {
  name: "lstm1_gate_input_1"
  type: "Eltwise"
  bottom: "W_hc_h_0"
  bottom: "W_xc_x_1"
  top: "gate_input_1"
  eltwise_param {
    operation: SUM
  }
}
layer {
  name: "lstm1_unit_1"
  type: "LSTMUnit"
  bottom: "c_0"
  bottom: "gate_input_1"
  bottom: "cont_1"
  top: "c_1"
  top: "h_1"
}
layer {
  name: "lstm1_h_conted_1"
  type: "Scale"
  bottom: "h_1"
  bottom: "cont_2"
  top: "h_conted_1"
  scale_param {
    axis: 0
  }
}
layer {
  name: "lstm1_transform_2"
  type: "InnerProduct"
  bottom: "h_conted_1"
  top: "W_hc_h_1"
  param {
    name: "W_hc"
  }
  inner_product_param {
    num_output: 400
    bias_term: false
    weight_filler {
      type: "xavier"
    }
    axis: 2
  }
}
layer {
  name: "lstm1_gate_input_2"
  type: "Eltwise"
  bottom: "W_hc_h_1"
  bottom: "W_xc_x_2"
  top: "gate_input_2"
  eltwise_param {
    operation: SUM
  }
}
layer {
  name: "lstm1_unit_2"
  type: "LSTMUnit"
  bottom: "c_1"
  bottom: "gate_input_2"
  bottom: "cont_2"
  top: "c_2"
  top: "h_2"
}
layer {
  name: "lstm1_h_conted_2"
  type: "Scale"
  bottom: "h_2"
  bottom: "cont_3"
  top: "h_conted_2"
  scale_param {
    axis: 0
  }
}
layer {
  name: "lstm1_transform_3"
  type: "InnerProduct"
  bottom: "h_conted_2"
  top: "W_hc_h_2"
  param {
    name: "W_hc"
  }
  inner_product_param {
    num_output: 400
    bias_term: false
    weight_filler {
      type: "xavier"
    }
    axis: 2
  }
}
layer {
  name: "lstm1_gate_input_3"
  type: "Eltwise"
  bottom: "W_hc_h_2"
  bottom: "W_xc_x_3"
  top: "gate_input_3"
  eltwise_param {
    operation: SUM
  }
}
layer {
  name: "lstm1_unit_3"
  type: "LSTMUnit"
  bottom: "c_2"
  bottom: "gate_input_3"
  bottom: "cont_3"
  top: "c_3"
  top: "h_3"
}
layer {
  name: "lstm1_h_conted_3"
  type: "Scale"
  bottom: "h_3"
  bottom: "cont_4"
  top: "h_conted_3"
  scale_param {
    axis: 0
  }
}
layer {
  name: "lstm1_transform_4"
  type: "InnerProduct"
  bottom: "h_conted_3"
  top: "W_hc_h_3"
  param {
    name: "W_hc"
  }
  inner_product_param {
    num_output: 400
    bias_term: false
    weight_filler {
      type: "xavier"
    }
    axis: 2
  }
}
layer {
  name: "lstm1_gate_input_4"
  type: "Eltwise"
  bottom: "W_hc_h_3"
  bottom: "W_xc_x_4"
  top: "gate_input_4"
  eltwise_param {
    operation: SUM
  }
}
layer {
  name: "lstm1_unit_4"
  type: "LSTMUnit"
  bottom: "c_3"
  bottom: "gate_input_4"
  bottom: "cont_4"
  top: "c_4"
  top: "h_4"
}
layer {
  name: "lstm1_h_conted_4"
  type: "Scale"
  bottom: "h_4"
  bottom: "cont_5"
  top: "h_conted_4"
  scale_param {
    axis: 0
  }
}
layer {
  name: "lstm1_transform_5"
  type: "InnerProduct"
  bottom: "h_conted_4"
  top: "W_hc_h_4"
  param {
    name: "W_hc"
  }
  inner_product_param {
    num_output: 400
    bias_term: false
    weight_filler {
      type: "xavier"
    }
    axis: 2
  }
}
layer {
  name: "lstm1_gate_input_5"
  type: "Eltwise"
  bottom: "W_hc_h_4"
  bottom: "W_xc_x_5"
  top: "gate_input_5"
  eltwise_param {
    operation: SUM
  }
}
layer {
  name: "lstm1_unit_5"
  type: "LSTMUnit"
  bottom: "c_4"
  bottom: "gate_input_5"
  bottom: "cont_5"
  top: "c_5"
  top: "h_5"
}
layer {
  name: "lstm1_h_conted_5"
  type: "Scale"
  bottom: "h_5"
  bottom: "cont_6"
  top: "h_conted_5"
  scale_param {
    axis: 0
  }
}
layer {
  name: "lstm1_transform_6"
  type: "InnerProduct"
  bottom: "h_conted_5"
  top: "W_hc_h_5"
  param {
    name: "W_hc"
  }
  inner_product_param {
    num_output: 400
    bias_term: false
    weight_filler {
      type: "xavier"
    }
    axis: 2
  }
}
layer {
  name: "lstm1_gate_input_6"
  type: "Eltwise"
  bottom: "W_hc_h_5"
  bottom: "W_xc_x_6"
  top: "gate_input_6"
  eltwise_param {
    operation: SUM
  }
}
layer {
  name: "lstm1_unit_6"
  type: "LSTMUnit"
  bottom: "c_5"
  bottom: "gate_input_6"
  bottom: "cont_6"
  top: "c_6"
  top: "h_6"
}
layer {
  name: "lstm1_h_conted_6"
  type: "Scale"
  bottom: "h_6"
  bottom: "cont_7"
  top: "h_conted_6"
  scale_param {
    axis: 0
  }
}
layer {
  name: "lstm1_transform_7"
  type: "InnerProduct"
  bottom: "h_conted_6"
  top: "W_hc_h_6"
  param {
    name: "W_hc"
  }
  inner_product_param {
    num_output: 400
    bias_term: false
    weight_filler {
      type: "xavier"
    }
    axis: 2
  }
}
layer {
  name: "lstm1_gate_input_7"
  type: "Eltwise"
  bottom: "W_hc_h_6"
  bottom: "W_xc_x_7"
  top: "gate_input_7"
  eltwise_param {
    operation: SUM
  }
}
layer {
  name: "lstm1_unit_7"
  type: "LSTMUnit"
  bottom: "c_6"
  bottom: "gate_input_7"
  bottom: "cont_7"
  top: "c_7"
  top: "h_7"
}
layer {
  name: "lstm1_h_conted_7"
  type: "Scale"
  bottom: "h_7"
  bottom: "cont_8"
  top: "h_conted_7"
  scale_param {
    axis: 0
  }
}
layer {
  name: "lstm1_transform_8"
  type: "InnerProduct"
  bottom: "h_conted_7"
  top: "W_hc_h_7"
  param {
    name: "W_hc"
  }
  inner_product_param {
    num_output: 400
    bias_term: false
    weight_filler {
      type: "xavier"
    }
    axis: 2
  }
}
layer {
  name: "lstm1_gate_input_8"
  type: "Eltwise"
  bottom: "W_hc_h_7"
  bottom: "W_xc_x_8"
  top: "gate_input_8"
  eltwise_param {
    operation: SUM
  }
}
layer {
  name: "lstm1_unit_8"
  type: "LSTMUnit"
  bottom: "c_7"
  bottom: "gate_input_8"
  bottom: "cont_8"
  top: "c_8"
  top: "h_8"
}
layer {
  name: "lstm1_h_conted_8"
  type: "Scale"
  bottom: "h_8"
  bottom: "cont_9"
  top: "h_conted_8"
  scale_param {
    axis: 0
  }
}
layer {
  name: "lstm1_transform_9"
  type: "InnerProduct"
  bottom: "h_conted_8"
  top: "W_hc_h_8"
  param {
    name: "W_hc"
  }
  inner_product_param {
    num_output: 400
    bias_term: false
    weight_filler {
      type: "xavier"
    }
    axis: 2
  }
}
layer {
  name: "lstm1_gate_input_9"
  type: "Eltwise"
  bottom: "W_hc_h_8"
  bottom: "W_xc_x_9"
  top: "gate_input_9"
  eltwise_param {
    operation: SUM
  }
}
layer {
  name: "lstm1_unit_9"
  type: "LSTMUnit"
  bottom: "c_8"
  bottom: "gate_input_9"
  bottom: "cont_9"
  top: "c_9"
  top: "h_9"
}
layer {
  name: "lstm1_h_conted_9"
  type: "Scale"
  bottom: "h_9"
  bottom: "cont_10"
  top: "h_conted_9"
  scale_param {
    axis: 0
  }
}
layer {
  name: "lstm1_transform_10"
  type: "InnerProduct"
  bottom: "h_conted_9"
  top: "W_hc_h_9"
  param {
    name: "W_hc"
  }
  inner_product_param {
    num_output: 400
    bias_term: false
    weight_filler {
      type: "xavier"
    }
    axis: 2
  }
}
layer {
  name: "lstm1_gate_input_10"
  type: "Eltwise"
  bottom: "W_hc_h_9"
  bottom: "W_xc_x_10"
  top: "gate_input_10"
  eltwise_param {
    operation: SUM
  }
}
layer {
  name: "lstm1_unit_10"
  type: "LSTMUnit"
  bottom: "c_9"
  bottom: "gate_input_10"
  bottom: "cont_10"
  top: "c_10"
  top: "h_10"
}
layer {
  name: "lstm1_h_conted_10"
  type: "Scale"
  bottom: "h_10"
  bottom: "cont_11"
  top: "h_conted_10"
  scale_param {
    axis: 0
  }
}
layer {
  name: "lstm1_transform_11"
  type: "InnerProduct"
  bottom: "h_conted_10"
  top: "W_hc_h_10"
  param {
    name: "W_hc"
  }
  inner_product_param {
    num_output: 400
    bias_term: false
    weight_filler {
      type: "xavier"
    }
    axis: 2
  }
}
layer {
  name: "lstm1_gate_input_11"
  type: "Eltwise"
  bottom: "W_hc_h_10"
  bottom: "W_xc_x_11"
  top: "gate_input_11"
  eltwise_param {
    operation: SUM
  }
}
layer {
  name: "lstm1_unit_11"
  type: "LSTMUnit"
  bottom: "c_10"
  bottom: "gate_input_11"
  bottom: "cont_11"
  top: "c_11"
  top: "h_11"
}
layer {
  name: "lstm1_h_conted_11"
  type: "Scale"
  bottom: "h_11"
  bottom: "cont_12"
  top: "h_conted_11"
  scale_param {
    axis: 0
  }
}
layer {
  name: "lstm1_transform_12"
  type: "InnerProduct"
  bottom: "h_conted_11"
  top: "W_hc_h_11"
  param {
    name: "W_hc"
  }
  inner_product_param {
    num_output: 400
    bias_term: false
    weight_filler {
      type: "xavier"
    }
    axis: 2
  }
}
layer {
  name: "lstm1_gate_input_12"
  type: "Eltwise"
  bottom: "W_hc_h_11"
  bottom: "W_xc_x_12"
  top: "gate_input_12"
  eltwise_param {
    operation: SUM
  }
}
layer {
  name: "lstm1_unit_12"
  type: "LSTMUnit"
  bottom: "c_11"
  bottom: "gate_input_12"
  bottom: "cont_12"
  top: "c_12"
  top: "h_12"
}
layer {
  name: "lstm1_h_conted_12"
  type: "Scale"
  bottom: "h_12"
  bottom: "cont_13"
  top: "h_conted_12"
  scale_param {
    axis: 0
  }
}
layer {
  name: "lstm1_transform_13"
  type: "InnerProduct"
  bottom: "h_conted_12"
  top: "W_hc_h_12"
  param {
    name: "W_hc"
  }
  inner_product_param {
    num_output: 400
    bias_term: false
    weight_filler {
      type: "xavier"
    }
    axis: 2
  }
}
layer {
  name: "lstm1_gate_input_13"
  type: "Eltwise"
  bottom: "W_hc_h_12"
  bottom: "W_xc_x_13"
  top: "gate_input_13"
  eltwise_param {
    operation: SUM
  }
}
layer {
  name: "lstm1_unit_13"
  type: "LSTMUnit"
  bottom: "c_12"
  bottom: "gate_input_13"
  bottom: "cont_13"
  top: "c_13"
  top: "h_13"
}
layer {
  name: "lstm1_h_conted_13"
  type: "Scale"
  bottom: "h_13"
  bottom: "cont_14"
  top: "h_conted_13"
  scale_param {
    axis: 0
  }
}
layer {
  name: "lstm1_transform_14"
  type: "InnerProduct"
  bottom: "h_conted_13"
  top: "W_hc_h_13"
  param {
    name: "W_hc"
  }
  inner_product_param {
    num_output: 400
    bias_term: false
    weight_filler {
      type: "xavier"
    }
    axis: 2
  }
}
layer {
  name: "lstm1_gate_input_14"
  type: "Eltwise"
  bottom: "W_hc_h_13"
  bottom: "W_xc_x_14"
  top: "gate_input_14"
  eltwise_param {
    operation: SUM
  }
}
layer {
  name: "lstm1_unit_14"
  type: "LSTMUnit"
  bottom: "c_13"
  bottom: "gate_input_14"
  bottom: "cont_14"
  top: "c_14"
  top: "h_14"
}
layer {
  name: "lstm1_h_conted_14"
  type: "Scale"
  bottom: "h_14"
  bottom: "cont_15"
  top: "h_conted_14"
  scale_param {
    axis: 0
  }
}
layer {
  name: "lstm1_transform_15"
  type: "InnerProduct"
  bottom: "h_conted_14"
  top: "W_hc_h_14"
  param {
    name: "W_hc"
  }
  inner_product_param {
    num_output: 400
    bias_term: false
    weight_filler {
      type: "xavier"
    }
    axis: 2
  }
}
layer {
  name: "lstm1_gate_input_15"
  type: "Eltwise"
  bottom: "W_hc_h_14"
  bottom: "W_xc_x_15"
  top: "gate_input_15"
  eltwise_param {
    operation: SUM
  }
}
layer {
  name: "lstm1_unit_15"
  type: "LSTMUnit"
  bottom: "c_14"
  bottom: "gate_input_15"
  bottom: "cont_15"
  top: "c_15"
  top: "h_15"
}
layer {
  name: "lstm1_h_conted_15"
  type: "Scale"
  bottom: "h_15"
  bottom: "cont_16"
  top: "h_conted_15"
  scale_param {
    axis: 0
  }
}
layer {
  name: "lstm1_transform_16"
  type: "InnerProduct"
  bottom: "h_conted_15"
  top: "W_hc_h_15"
  param {
    name: "W_hc"
  }
  inner_product_param {
    num_output: 400
    bias_term: false
    weight_filler {
      type: "xavier"
    }
    axis: 2
  }
}
layer {
  name: "lstm1_gate_input_16"
  type: "Eltwise"
  bottom: "W_hc_h_15"
  bottom: "W_xc_x_16"
  top: "gate_input_16"
  eltwise_param {
    operation: SUM
  }
}
layer {
  name: "lstm1_unit_16"
  type: "LSTMUnit"
  bottom: "c_15"
  bottom: "gate_input_16"
  bottom: "cont_16"
  top: "c_16"
  top: "h_16"
}
layer {
  name: "lstm1_h_conted_16"
  type: "Scale"
  bottom: "h_16"
  bottom: "cont_17"
  top: "h_conted_16"
  scale_param {
    axis: 0
  }
}
layer {
  name: "lstm1_transform_17"
  type: "InnerProduct"
  bottom: "h_conted_16"
  top: "W_hc_h_16"
  param {
    name: "W_hc"
  }
  inner_product_param {
    num_output: 400
    bias_term: false
    weight_filler {
      type: "xavier"
    }
    axis: 2
  }
}
layer {
  name: "lstm1_gate_input_17"
  type: "Eltwise"
  bottom: "W_hc_h_16"
  bottom: "W_xc_x_17"
  top: "gate_input_17"
  eltwise_param {
    operation: SUM
  }
}
layer {
  name: "lstm1_unit_17"
  type: "LSTMUnit"
  bottom: "c_16"
  bottom: "gate_input_17"
  bottom: "cont_17"
  top: "c_17"
  top: "h_17"
}
layer {
  name: "lstm1_h_conted_17"
  type: "Scale"
  bottom: "h_17"
  bottom: "cont_18"
  top: "h_conted_17"
  scale_param {
    axis: 0
  }
}
layer {
  name: "lstm1_transform_18"
  type: "InnerProduct"
  bottom: "h_conted_17"
  top: "W_hc_h_17"
  param {
    name: "W_hc"
  }
  inner_product_param {
    num_output: 400
    bias_term: false
    weight_filler {
      type: "xavier"
    }
    axis: 2
  }
}
layer {
  name: "lstm1_gate_input_18"
  type: "Eltwise"
  bottom: "W_hc_h_17"
  bottom: "W_xc_x_18"
  top: "gate_input_18"
  eltwise_param {
    operation: SUM
  }
}
layer {
  name: "lstm1_unit_18"
  type: "LSTMUnit"
  bottom: "c_17"
  bottom: "gate_input_18"
  bottom: "cont_18"
  top: "c_18"
  top: "h_18"
}
layer {
  name: "lstm1_h_conted_18"
  type: "Scale"
  bottom: "h_18"
  bottom: "cont_19"
  top: "h_conted_18"
  scale_param {
    axis: 0
  }
}
layer {
  name: "lstm1_transform_19"
  type: "InnerProduct"
  bottom: "h_conted_18"
  top: "W_hc_h_18"
  param {
    name: "W_hc"
  }
  inner_product_param {
    num_output: 400
    bias_term: false
    weight_filler {
      type: "xavier"
    }
    axis: 2
  }
}
layer {
  name: "lstm1_gate_input_19"
  type: "Eltwise"
  bottom: "W_hc_h_18"
  bottom: "W_xc_x_19"
  top: "gate_input_19"
  eltwise_param {
    operation: SUM
  }
}
layer {
  name: "lstm1_unit_19"
  type: "LSTMUnit"
  bottom: "c_18"
  bottom: "gate_input_19"
  bottom: "cont_19"
  top: "c_19"
  top: "h_19"
}
layer {
  name: "lstm1_h_conted_19"
  type: "Scale"
  bottom: "h_19"
  bottom: "cont_20"
  top: "h_conted_19"
  scale_param {
    axis: 0
  }
}
layer {
  name: "lstm1_transform_20"
  type: "InnerProduct"
  bottom: "h_conted_19"
  top: "W_hc_h_19"
  param {
    name: "W_hc"
  }
  inner_product_param {
    num_output: 400
    bias_term: false
    weight_filler {
      type: "xavier"
    }
    axis: 2
  }
}
layer {
  name: "lstm1_gate_input_20"
  type: "Eltwise"
  bottom: "W_hc_h_19"
  bottom: "W_xc_x_20"
  top: "gate_input_20"
  eltwise_param {
    operation: SUM
  }
}
layer {
  name: "lstm1_unit_20"
  type: "LSTMUnit"
  bottom: "c_19"
  bottom: "gate_input_20"
  bottom: "cont_20"
  top: "c_20"
  top: "h_20"
}
layer {
  name: "lstm1_h_conted_20"
  type: "Scale"
  bottom: "h_20"
  bottom: "cont_21"
  top: "h_conted_20"
  scale_param {
    axis: 0
  }
}
layer {
  name: "lstm1_transform_21"
  type: "InnerProduct"
  bottom: "h_conted_20"
  top: "W_hc_h_20"
  param {
    name: "W_hc"
  }
  inner_product_param {
    num_output: 400
    bias_term: false
    weight_filler {
      type: "xavier"
    }
    axis: 2
  }
}
layer {
  name: "lstm1_gate_input_21"
  type: "Eltwise"
  bottom: "W_hc_h_20"
  bottom: "W_xc_x_21"
  top: "gate_input_21"
  eltwise_param {
    operation: SUM
  }
}
layer {
  name: "lstm1_unit_21"
  type: "LSTMUnit"
  bottom: "c_20"
  bottom: "gate_input_21"
  bottom: "cont_21"
  top: "c_21"
  top: "h_21"
}
layer {
  name: "lstm1_h_conted_21"
  type: "Scale"
  bottom: "h_21"
  bottom: "cont_22"
  top: "h_conted_21"
  scale_param {
    axis: 0
  }
}
layer {
  name: "lstm1_transform_22"
  type: "InnerProduct"
  bottom: "h_conted_21"
  top: "W_hc_h_21"
  param {
    name: "W_hc"
  }
  inner_product_param {
    num_output: 400
    bias_term: false
    weight_filler {
      type: "xavier"
    }
    axis: 2
  }
}
layer {
  name: "lstm1_gate_input_22"
  type: "Eltwise"
  bottom: "W_hc_h_21"
  bottom: "W_xc_x_22"
  top: "gate_input_22"
  eltwise_param {
    operation: SUM
  }
}
layer {
  name: "lstm1_unit_22"
  type: "LSTMUnit"
  bottom: "c_21"
  bottom: "gate_input_22"
  bottom: "cont_22"
  top: "c_22"
  top: "h_22"
}
layer {
  name: "lstm1_h_conted_22"
  type: "Scale"
  bottom: "h_22"
  bottom: "cont_23"
  top: "h_conted_22"
  scale_param {
    axis: 0
  }
}
layer {
  name: "lstm1_transform_23"
  type: "InnerProduct"
  bottom: "h_conted_22"
  top: "W_hc_h_22"
  param {
    name: "W_hc"
  }
  inner_product_param {
    num_output: 400
    bias_term: false
    weight_filler {
      type: "xavier"
    }
    axis: 2
  }
}
layer {
  name: "lstm1_gate_input_23"
  type: "Eltwise"
  bottom: "W_hc_h_22"
  bottom: "W_xc_x_23"
  top: "gate_input_23"
  eltwise_param {
    operation: SUM
  }
}
layer {
  name: "lstm1_unit_23"
  type: "LSTMUnit"
  bottom: "c_22"
  bottom: "gate_input_23"
  bottom: "cont_23"
  top: "c_23"
  top: "h_23"
}
layer {
  name: "lstm1_h_conted_23"
  type: "Scale"
  bottom: "h_23"
  bottom: "cont_24"
  top: "h_conted_23"
  scale_param {
    axis: 0
  }
}
layer {
  name: "lstm1_transform_24"
  type: "InnerProduct"
  bottom: "h_conted_23"
  top: "W_hc_h_23"
  param {
    name: "W_hc"
  }
  inner_product_param {
    num_output: 400
    bias_term: false
    weight_filler {
      type: "xavier"
    }
    axis: 2
  }
}
layer {
  name: "lstm1_gate_input_24"
  type: "Eltwise"
  bottom: "W_hc_h_23"
  bottom: "W_xc_x_24"
  top: "gate_input_24"
  eltwise_param {
    operation: SUM
  }
}
layer {
  name: "lstm1_unit_24"
  type: "LSTMUnit"
  bottom: "c_23"
  bottom: "gate_input_24"
  bottom: "cont_24"
  top: "c_24"
  top: "h_24"
}
layer {
  name: "lstm1_h_conted_24"
  type: "Scale"
  bottom: "h_24"
  bottom: "cont_25"
  top: "h_conted_24"
  scale_param {
    axis: 0
  }
}
layer {
  name: "lstm1_transform_25"
  type: "InnerProduct"
  bottom: "h_conted_24"
  top: "W_hc_h_24"
  param {
    name: "W_hc"
  }
  inner_product_param {
    num_output: 400
    bias_term: false
    weight_filler {
      type: "xavier"
    }
    axis: 2
  }
}
layer {
  name: "lstm1_gate_input_25"
  type: "Eltwise"
  bottom: "W_hc_h_24"
  bottom: "W_xc_x_25"
  top: "gate_input_25"
  eltwise_param {
    operation: SUM
  }
}
layer {
  name: "lstm1_unit_25"
  type: "LSTMUnit"
  bottom: "c_24"
  bottom: "gate_input_25"
  bottom: "cont_25"
  top: "c_25"
  top: "h_25"
}
layer {
  name: "lstm1_h_conted_25"
  type: "Scale"
  bottom: "h_25"
  bottom: "cont_26"
  top: "h_conted_25"
  scale_param {
    axis: 0
  }
}
layer {
  name: "lstm1_transform_26"
  type: "InnerProduct"
  bottom: "h_conted_25"
  top: "W_hc_h_25"
  param {
    name: "W_hc"
  }
  inner_product_param {
    num_output: 400
    bias_term: false
    weight_filler {
      type: "xavier"
    }
    axis: 2
  }
}
layer {
  name: "lstm1_gate_input_26"
  type: "Eltwise"
  bottom: "W_hc_h_25"
  bottom: "W_xc_x_26"
  top: "gate_input_26"
  eltwise_param {
    operation: SUM
  }
}
layer {
  name: "lstm1_unit_26"
  type: "LSTMUnit"
  bottom: "c_25"
  bottom: "gate_input_26"
  bottom: "cont_26"
  top: "c_26"
  top: "h_26"
}
layer {
  name: "lstm1_h_conted_26"
  type: "Scale"
  bottom: "h_26"
  bottom: "cont_27"
  top: "h_conted_26"
  scale_param {
    axis: 0
  }
}
layer {
  name: "lstm1_transform_27"
  type: "InnerProduct"
  bottom: "h_conted_26"
  top: "W_hc_h_26"
  param {
    name: "W_hc"
  }
  inner_product_param {
    num_output: 400
    bias_term: false
    weight_filler {
      type: "xavier"
    }
    axis: 2
  }
}
layer {
  name: "lstm1_gate_input_27"
  type: "Eltwise"
  bottom: "W_hc_h_26"
  bottom: "W_xc_x_27"
  top: "gate_input_27"
  eltwise_param {
    operation: SUM
  }
}
layer {
  name: "lstm1_unit_27"
  type: "LSTMUnit"
  bottom: "c_26"
  bottom: "gate_input_27"
  bottom: "cont_27"
  top: "c_27"
  top: "h_27"
}
layer {
  name: "lstm1_h_conted_27"
  type: "Scale"
  bottom: "h_27"
  bottom: "cont_28"
  top: "h_conted_27"
  scale_param {
    axis: 0
  }
}
layer {
  name: "lstm1_transform_28"
  type: "InnerProduct"
  bottom: "h_conted_27"
  top: "W_hc_h_27"
  param {
    name: "W_hc"
  }
  inner_product_param {
    num_output: 400
    bias_term: false
    weight_filler {
      type: "xavier"
    }
    axis: 2
  }
}
layer {
  name: "lstm1_gate_input_28"
  type: "Eltwise"
  bottom: "W_hc_h_27"
  bottom: "W_xc_x_28"
  top: "gate_input_28"
  eltwise_param {
    operation: SUM
  }
}
layer {
  name: "lstm1_unit_28"
  type: "LSTMUnit"
  bottom: "c_27"
  bottom: "gate_input_28"
  bottom: "cont_28"
  top: "c_28"
  top: "h_28"
}
layer {
  name: "lstm1_h_conted_28"
  type: "Scale"
  bottom: "h_28"
  bottom: "cont_29"
  top: "h_conted_28"
  scale_param {
    axis: 0
  }
}
layer {
  name: "lstm1_transform_29"
  type: "InnerProduct"
  bottom: "h_conted_28"
  top: "W_hc_h_28"
  param {
    name: "W_hc"
  }
  inner_product_param {
    num_output: 400
    bias_term: false
    weight_filler {
      type: "xavier"
    }
    axis: 2
  }
}
layer {
  name: "lstm1_gate_input_29"
  type: "Eltwise"
  bottom: "W_hc_h_28"
  bottom: "W_xc_x_29"
  top: "gate_input_29"
  eltwise_param {
    operation: SUM
  }
}
layer {
  name: "lstm1_unit_29"
  type: "LSTMUnit"
  bottom: "c_28"
  bottom: "gate_input_29"
  bottom: "cont_29"
  top: "c_29"
  top: "h_29"
}
layer {
  name: "lstm1_h_conted_29"
  type: "Scale"
  bottom: "h_29"
  bottom: "cont_30"
  top: "h_conted_29"
  scale_param {
    axis: 0
  }
}
layer {
  name: "lstm1_transform_30"
  type: "InnerProduct"
  bottom: "h_conted_29"
  top: "W_hc_h_29"
  param {
    name: "W_hc"
  }
  inner_product_param {
    num_output: 400
    bias_term: false
    weight_filler {
      type: "xavier"
    }
    axis: 2
  }
}
layer {
  name: "lstm1_gate_input_30"
  type: "Eltwise"
  bottom: "W_hc_h_29"
  bottom: "W_xc_x_30"
  top: "gate_input_30"
  eltwise_param {
    operation: SUM
  }
}
layer {
  name: "lstm1_unit_30"
  type: "LSTMUnit"
  bottom: "c_29"
  bottom: "gate_input_30"
  bottom: "cont_30"
  top: "c_30"
  top: "h_30"
}
layer {
  name: "lstm1_h_conted_30"
  type: "Scale"
  bottom: "h_30"
  bottom: "cont_31"
  top: "h_conted_30"
  scale_param {
    axis: 0
  }
}
layer {
  name: "lstm1_transform_31"
  type: "InnerProduct"
  bottom: "h_conted_30"
  top: "W_hc_h_30"
  param {
    name: "W_hc"
  }
  inner_product_param {
    num_output: 400
    bias_term: false
    weight_filler {
      type: "xavier"
    }
    axis: 2
  }
}
layer {
  name: "lstm1_gate_input_31"
  type: "Eltwise"
  bottom: "W_hc_h_30"
  bottom: "W_xc_x_31"
  top: "gate_input_31"
  eltwise_param {
    operation: SUM
  }
}
layer {
  name: "lstm1_unit_31"
  type: "LSTMUnit"
  bottom: "c_30"
  bottom: "gate_input_31"
  bottom: "cont_31"
  top: "c_31"
  top: "h_31"
}
layer {
  name: "lstm1_h_conted_31"
  type: "Scale"
  bottom: "h_31"
  bottom: "cont_32"
  top: "h_conted_31"
  scale_param {
    axis: 0
  }
}
layer {
  name: "lstm1_transform_32"
  type: "InnerProduct"
  bottom: "h_conted_31"
  top: "W_hc_h_31"
  param {
    name: "W_hc"
  }
  inner_product_param {
    num_output: 400
    bias_term: false
    weight_filler {
      type: "xavier"
    }
    axis: 2
  }
}
layer {
  name: "lstm1_gate_input_32"
  type: "Eltwise"
  bottom: "W_hc_h_31"
  bottom: "W_xc_x_32"
  top: "gate_input_32"
  eltwise_param {
    operation: SUM
  }
}
layer {
  name: "lstm1_unit_32"
  type: "LSTMUnit"
  bottom: "c_31"
  bottom: "gate_input_32"
  bottom: "cont_32"
  top: "c_32"
  top: "h_32"
}
layer {
  name: "lstm1_h_conted_32"
  type: "Scale"
  bottom: "h_32"
  bottom: "cont_33"
  top: "h_conted_32"
  scale_param {
    axis: 0
  }
}
layer {
  name: "lstm1_transform_33"
  type: "InnerProduct"
  bottom: "h_conted_32"
  top: "W_hc_h_32"
  param {
    name: "W_hc"
  }
  inner_product_param {
    num_output: 400
    bias_term: false
    weight_filler {
      type: "xavier"
    }
    axis: 2
  }
}
layer {
  name: "lstm1_gate_input_33"
  type: "Eltwise"
  bottom: "W_hc_h_32"
  bottom: "W_xc_x_33"
  top: "gate_input_33"
  eltwise_param {
    operation: SUM
  }
}
layer {
  name: "lstm1_unit_33"
  type: "LSTMUnit"
  bottom: "c_32"
  bottom: "gate_input_33"
  bottom: "cont_33"
  top: "c_33"
  top: "h_33"
}
layer {
  name: "lstm1_h_conted_33"
  type: "Scale"
  bottom: "h_33"
  bottom: "cont_34"
  top: "h_conted_33"
  scale_param {
    axis: 0
  }
}
layer {
  name: "lstm1_transform_34"
  type: "InnerProduct"
  bottom: "h_conted_33"
  top: "W_hc_h_33"
  param {
    name: "W_hc"
  }
  inner_product_param {
    num_output: 400
    bias_term: false
    weight_filler {
      type: "xavier"
    }
    axis: 2
  }
}
layer {
  name: "lstm1_gate_input_34"
  type: "Eltwise"
  bottom: "W_hc_h_33"
  bottom: "W_xc_x_34"
  top: "gate_input_34"
  eltwise_param {
    operation: SUM
  }
}
layer {
  name: "lstm1_unit_34"
  type: "LSTMUnit"
  bottom: "c_33"
  bottom: "gate_input_34"
  bottom: "cont_34"
  top: "c_34"
  top: "h_34"
}
layer {
  name: "lstm1_h_conted_34"
  type: "Scale"
  bottom: "h_34"
  bottom: "cont_35"
  top: "h_conted_34"
  scale_param {
    axis: 0
  }
}
layer {
  name: "lstm1_transform_35"
  type: "InnerProduct"
  bottom: "h_conted_34"
  top: "W_hc_h_34"
  param {
    name: "W_hc"
  }
  inner_product_param {
    num_output: 400
    bias_term: false
    weight_filler {
      type: "xavier"
    }
    axis: 2
  }
}
layer {
  name: "lstm1_gate_input_35"
  type: "Eltwise"
  bottom: "W_hc_h_34"
  bottom: "W_xc_x_35"
  top: "gate_input_35"
  eltwise_param {
    operation: SUM
  }
}
layer {
  name: "lstm1_unit_35"
  type: "LSTMUnit"
  bottom: "c_34"
  bottom: "gate_input_35"
  bottom: "cont_35"
  top: "c_35"
  top: "h_35"
}
layer {
  name: "lstm1_h_conted_35"
  type: "Scale"
  bottom: "h_35"
  bottom: "cont_36"
  top: "h_conted_35"
  scale_param {
    axis: 0
  }
}
layer {
  name: "lstm1_transform_36"
  type: "InnerProduct"
  bottom: "h_conted_35"
  top: "W_hc_h_35"
  param {
    name: "W_hc"
  }
  inner_product_param {
    num_output: 400
    bias_term: false
    weight_filler {
      type: "xavier"
    }
    axis: 2
  }
}
layer {
  name: "lstm1_gate_input_36"
  type: "Eltwise"
  bottom: "W_hc_h_35"
  bottom: "W_xc_x_36"
  top: "gate_input_36"
  eltwise_param {
    operation: SUM
  }
}
layer {
  name: "lstm1_unit_36"
  type: "LSTMUnit"
  bottom: "c_35"
  bottom: "gate_input_36"
  bottom: "cont_36"
  top: "c_36"
  top: "h_36"
}
layer {
  name: "lstm1_h_conted_36"
  type: "Scale"
  bottom: "h_36"
  bottom: "cont_37"
  top: "h_conted_36"
  scale_param {
    axis: 0
  }
}
layer {
  name: "lstm1_transform_37"
  type: "InnerProduct"
  bottom: "h_conted_36"
  top: "W_hc_h_36"
  param {
    name: "W_hc"
  }
  inner_product_param {
    num_output: 400
    bias_term: false
    weight_filler {
      type: "xavie
I0505 14:44:21.511128 27066 layer_factory.hpp:77] Creating layer lstm1_
I0505 14:44:21.511134 27066 net.cpp:86] Creating Layer lstm1_
I0505 14:44:21.511137 27066 net.cpp:382] lstm1_ -> x
I0505 14:44:21.511145 27066 net.cpp:382] lstm1_ -> cont
I0505 14:44:21.511174 27066 net.cpp:124] Setting up lstm1_
I0505 14:44:21.511176 27066 net.cpp:131] Top shape: 80 512 3 30 (3686400)
I0505 14:44:21.511179 27066 net.cpp:131] Top shape: 80 512 (40960)
I0505 14:44:21.511183 27066 net.cpp:139] Memory required for data: 14909440
I0505 14:44:21.511184 27066 layer_factory.hpp:77] Creating layer lstm1_
I0505 14:44:21.511188 27066 net.cpp:86] Creating Layer lstm1_
I0505 14:44:21.511190 27066 net.cpp:382] lstm1_ -> c_0
I0505 14:44:21.511194 27066 net.cpp:382] lstm1_ -> h_0
I0505 14:44:21.511217 27066 net.cpp:124] Setting up lstm1_
I0505 14:44:21.511219 27066 net.cpp:131] Top shape: 1 512 100 (51200)
I0505 14:44:21.511222 27066 net.cpp:131] Top shape: 1 512 100 (51200)
I0505 14:44:21.511225 27066 net.cpp:139] Memory required for data: 15319040
I0505 14:44:21.511227 27066 layer_factory.hpp:77] Creating layer lstm1_cont_slice
I0505 14:44:21.511235 27066 net.cpp:86] Creating Layer lstm1_cont_slice
I0505 14:44:21.511238 27066 net.cpp:408] lstm1_cont_slice <- cont
I0505 14:44:21.511243 27066 net.cpp:382] lstm1_cont_slice -> cont_1
I0505 14:44:21.511251 27066 net.cpp:382] lstm1_cont_slice -> cont_2
…
I0505 14:44:21.511672 27066 net.cpp:382] lstm1_cont_slice -> cont_73
I0505 14:44:21.511677 27066 net.cpp:382] lstm1_cont_slice -> cont_74
I0505 14:44:21.511682 27066 net.cpp:382] lstm1_cont_slice -> cont_75
I0505 14:44:21.511688 27066 net.cpp:382] lstm1_cont_slice -> cont_76
I0505 14:44:21.511694 27066 net.cpp:382] lstm1_cont_slice -> cont_77
I0505 14:44:21.511699 27066 net.cpp:382] lstm1_cont_slice -> cont_78
I0505 14:44:21.511704 27066 net.cpp:382] lstm1_cont_slice -> cont_79
I0505 14:44:21.511711 27066 net.cpp:382] lstm1_cont_slice -> cont_80
I0505 14:44:21.512248 27066 net.cpp:124] Setting up lstm1_cont_slice
I0505 14:44:21.512253 27066 net.cpp:131] Top shape: 1 512 (512)
I0505 14:44:21.512254 27066 net.cpp:131] Top shape: 1 512 (512)
I0505 14:44:21.512257 27066 net.cpp:131] Top shape: 1 512 (512)
I0505 14:44:21.512259 27066 net.cpp:131] Top shape: 1 512 (512)
I0505 14:44:21.512262 27066 net.cpp:131] Top shape: 1 512 (512)
I0505 14:44:21.512264 27066 net.cpp:131] Top shape: 1 512 (512)
I0505 14:44:21.512266 27066 net.cpp:131] Top shape: 1 512 (512)
I0505 14:44:21.512269 27066 net.cpp:131] Top shape: 1 512 (512)
I0505 14:44:21.512271 27066 net.cpp:131] Top shape: 1 512 (512)
I0505 14:44:21.512274 27066 net.cpp:131] Top shape: 1 512 (512)
I0505 14:44:21.512276 27066 net.cpp:131] Top shape: 1 512 (512)
I0505 14:44:21.512279 27066 net.cpp:131] Top shape: 1 512 (512)
I0505 14:44:21.512281 27066 net.cpp:131] Top shape: 1 512 (512)
I0505 14:44:21.512284 27066 net.cpp:131] Top shape: 1 512 (512)
I0505 14:44:21.512285 27066 net.cpp:131] Top shape: 1 512 (512)
I0505 14:44:21.512289 27066 net.cpp:131] Top shape: 1 512 (512)
I0505 14:44:21.512290 27066 net.cpp:131] Top shape: 1 512 (512)
I0505 14:44:21.512292 27066 net.cpp:131] Top shape: 1 512 (512)
I0505 14:44:21.512295 27066 net.cpp:131] Top shape: 1 512 (512)
I0505 14:44:21.512297 27066 net.cpp:131] Top shape: 1 512 (512)
I0505 14:44:21.512300 27066 net.cpp:131] Top shape: 1 512 (512)
I0505 14:44:21.512302 27066 net.cpp:131] Top shape: 1 512 (512)
I0505 14:44:21.512305 27066 net.cpp:131] Top shape: 1 512 (512)
I0505 14:44:21.512306 27066 net.cpp:131] Top shape: 1 512 (512)
I0505 14:44:21.512310 27066 net.cpp:131] Top shape: 1 512 (512)
I0505 14:44:21.512311 27066 net.cpp:131] Top shape: 1 512 (512)
I0505 14:44:21.512313 27066 net.cpp:131] Top shape: 1 512 (512)
I0505 14:44:21.512316 27066 net.cpp:131] Top shape: 1 512 (512)
I0505 14:44:21.512318 27066 net.cpp:131] Top shape: 1 512 (512)
I0505 14:44:21.512320 27066 net.cpp:131] Top shape: 1 512 (512)
I0505 14:44:21.512323 27066 net.cpp:131] Top shape: 1 512 (512)
I0505 14:44:21.512326 27066 net.cpp:131] Top shape: 1 512 (512)
I0505 14:44:21.512327 27066 net.cpp:131] Top shape: 1 512 (512)
I0505 14:44:21.512331 27066 net.cpp:131] Top shape: 1 512 (512)
I0505 14:44:21.512332 27066 net.cpp:131] Top shape: 1 512 (512)
I0505 14:44:21.512334 27066 net.cpp:131] Top shape: 1 512 (512)
I0505 14:44:21.512337 27066 net.cpp:131] Top shape: 1 512 (512)
I0505 14:44:21.512339 27066 net.cpp:131] Top shape: 1 512 (512)
I0505 14:44:21.512341 27066 net.cpp:131] Top shape: 1 512 (512)
I0505 14:44:21.512344 27066 net.cpp:131] Top shape: 1 512 (512)
I0505 14:44:21.512346 27066 net.cpp:131] Top shape: 1 512 (512)
I0505 14:44:21.512348 27066 net.cpp:131] Top shape: 1 512 (512)
I0505 14:44:21.512351 27066 net.cpp:131] Top shape: 1 512 (512)
I0505 14:44:21.512353 27066 net.cpp:131] Top shape: 1 512 (512)
I0505 14:44:21.512356 27066 net.cpp:131] Top shape: 1 512 (512)
I0505 14:44:21.512358 27066 net.cpp:131] Top shape: 1 512 (512)
I0505 14:44:21.512360 27066 net.cpp:131] Top shape: 1 512 (512)
I0505 14:44:21.512362 27066 net.cpp:131] Top shape: 1 512 (512)
I0505 14:44:21.512365 27066 net.cpp:131] Top shape: 1 512 (512)
I0505 14:44:21.512373 27066 net.cpp:131] Top shape: 1 512 (512)
I0505 14:44:21.512377 27066 net.cpp:131] Top shape: 1 512 (512)
I0505 14:44:21.512378 27066 net.cpp:131] Top shape: 1 512 (512)
I0505 14:44:21.512380 27066 net.cpp:131] Top shape: 1 512 (512)
I0505 14:44:21.512383 27066 net.cpp:131] Top shape: 1 512 (512)
I0505 14:44:21.512385 27066 net.cpp:131] Top shape: 1 512 (512)
I0505 14:44:21.512387 27066 net.cpp:131] Top shape: 1 512 (512)
I0505 14:44:21.512390 27066 net.cpp:131] Top shape: 1 512 (512)
I0505 14:44:21.512392 27066 net.cpp:131] Top shape: 1 512 (512)
I0505 14:44:21.512394 27066 net.cpp:131] Top shape: 1 512 (512)
I0505 14:44:21.512396 27066 net.cpp:131] Top shape: 1 512 (512)
I0505 14:44:21.512399 27066 net.cpp:131] Top shape: 1 512 (512)
I0505 14:44:21.512401 27066 net.cpp:131] Top shape: 1 512 (512)
I0505 14:44:21.512404 27066 net.cpp:131] Top shape: 1 512 (512)
I0505 14:44:21.512406 27066 net.cpp:131] Top shape: 1 512 (512)
I0505 14:44:21.512408 27066 net.cpp:131] Top shape: 1 512 (512)
I0505 14:44:21.512411 27066 net.cpp:131] Top shape: 1 512 (512)
I0505 14:44:21.512413 27066 net.cpp:131] Top shape: 1 512 (512)
I0505 14:44:21.512415 27066 net.cpp:131] Top shape: 1 512 (512)
I0505 14:44:21.512418 27066 net.cpp:131] Top shape: 1 512 (512)
I0505 14:44:21.512420 27066 net.cpp:131] Top shape: 1 512 (512)
I0505 14:44:21.512423 27066 net.cpp:131] Top shape: 1 512 (512)
I0505 14:44:21.512425 27066 net.cpp:131] Top shape: 1 512 (512)
I0505 14:44:21.512428 27066 net.cpp:131] Top shape: 1 512 (512)
I0505 14:44:21.512429 27066 net.cpp:131] Top shape: 1 512 (512)
I0505 14:44:21.512432 27066 net.cpp:131] Top shape: 1 512 (512)
I0505 14:44:21.512434 27066 net.cpp:131] Top shape: 1 512 (512)
I0505 14:44:21.512436 27066 net.cpp:131] Top shape: 1 512 (512)
I0505 14:44:21.512439 27066 net.cpp:131] Top shape: 1 512 (512)
I0505 14:44:21.512441 27066 net.cpp:131] Top shape: 1 512 (512)
I0505 14:44:21.512444 27066 net.cpp:131] Top shape: 1 512 (512)
I0505 14:44:21.512446 27066 net.cpp:139] Memory required for data: 15482880
I0505 14:44:21.512449 27066 layer_factory.hpp:77] Creating layer cont_1_lstm1_cont_slice_0_split
I0505 14:44:21.512451 27066 net.cpp:86] Creating Layer cont_1_lstm1_cont_slice_0_split
I0505 14:44:21.512454 27066 net.cpp:408] cont_1_lstm1_cont_slice_0_split <- cont_1
I0505 14:44:21.512457 27066 net.cpp:382] cont_1_lstm1_cont_slice_0_split -> cont_1_lstm1_cont_slice_0_split_0
I0505 14:44:21.512461 27066 net.cpp:382] cont_1_lstm1_cont_slice_0_split -> cont_1_lstm1_cont_slice_0_split_1
I0505 14:44:21.512480 27066 net.cpp:124] Setting up cont_1_lstm1_cont_slice_0_split
I0505 14:44:21.512482 27066 net.cpp:131] Top shape: 1 512 (512)
I0505 14:44:21.512485 27066 net.cpp:131] Top shape: 1 512 (512)
I0505 14:44:21.512486 27066 net.cpp:139] Memory required for data: 15486976
I0505 14:44:21.512488 27066 layer_factory.hpp:77] Creating layer cont_2_lstm1_cont_slice_1_split
I0505 14:44:21.512492 27066 net.cpp:86] Creating Layer cont_2_lstm1_cont_slice_1_split
I0505 14:44:21.512495 27066 net.cpp:408] cont_2_lstm1_cont_slice_1_split <- cont_2
I0505 14:44:21.512497 27066 net.cpp:382] cont_2_lstm1_cont_slice_1_split -> cont_2_lstm1_cont_slice_1_split_0
I0505 14:44:21.512501 27066 net.cpp:382] cont_2_lstm1_cont_slice_1_split -> cont_2_lstm1_cont_slice_1_split_1
I0505 14:44:21.512518 27066 net.cpp:124] Setting up cont_2_lstm1_cont_slice_1_split
I0505 14:44:21.512521 27066 net.cpp:131] Top shape: 1 512 (512)
I0505 14:44:21.512522 27066 net.cpp:131] Top shape: 1 512 (512)
I0505 14:44:21.512526 27066 net.cpp:139] Memory required for data: 15491072
I0505 14:44:21.512527 27066 layer_factory.hpp:77] Creating layer cont_3_lstm1_cont_slice_2_split
I0505 14:44:21.512531 27066 net.cpp:86] Creating Layer cont_3_lstm1_cont_slice_2_split
I0505 14:44:21.512532 27066 net.cpp:408] cont_3_lstm1_cont_slice_2_split <- cont_3
I0505 14:44:21.512535 27066 net.cpp:382] cont_3_lstm1_cont_slice_2_split -> cont_3_lstm1_cont_slice_2_split_0
I0505 14:44:21.512539 27066 net.cpp:382] cont_3_lstm1_cont_slice_2_split -> cont_3_lstm1_cont_slice_2_split_1
I0505 14:44:21.512563 27066 net.cpp:124] Setting up cont_3_lstm1_cont_slice_2_split
I0505 14:44:21.512567 27066 net.cpp:131] Top shape: 1 512 (512)
I0505 14:44:21.512568 27066 net.cpp:131] Top shape: 1 512 (512)
I0505 14:44:21.512571 27066 net.cpp:139] Memory required for data: 15495168
I0505 14:44:21.512573 27066 layer_factory.hpp:77] Creating layer cont_4_lstm1_cont_slice_3_split
I0505 14:44:21.512576 27066 net.cpp:86] Creating Layer cont_4_lstm1_cont_slice_3_split
I0505 14:44:21.512578 27066 net.cpp:408] cont_4_lstm1_cont_slice_3_split <- cont_4
I0505 14:44:21.512581 27066 net.cpp:382] cont_4_lstm1_cont_slice_3_split -> cont_4_lstm1_cont_slice_3_split_0
I0505 14:44:21.512585 27066 net.cpp:382] cont_4_lstm1_cont_slice_3_split -> cont_4_lstm1_cont_slice_3_split_1
I0505 14:44:21.512601 27066 net.cpp:124] Setting up cont_4_lstm1_cont_slice_3_split
I0505 14:44:21.512604 27066 net.cpp:131] Top shape: 1 512 (512)
I0505 14:44:21.512606 27066 net.cpp:131] Top shape: 1 512 (512)
I0505 14:44:21.512609 27066 net.cpp:139] Memory required for data: 15499264
I0505 14:44:21.512611 27066 layer_factory.hpp:77] Creating layer cont_5_lstm1_cont_slice_4_split
I0505 14:44:21.512614 27066 net.cpp:86] Creating Layer cont_5_lstm1_cont_slice_4_split
I0505 14:44:21.512616 27066 net.cpp:408] cont_5_lstm1_cont_slice_4_split <- cont_5
I0505 14:44:21.512619 27066 net.cpp:382] cont_5_lstm1_cont_slice_4_split -> cont_5_lstm1_cont_slice_4_split_0
I0505 14:44:21.512624 27066 net.cpp:382] cont_5_lstm1_cont_slice_4_split -> cont_5_lstm1_cont_slice_4_split_1
I0505 14:44:21.512640 27066 net.cpp:124] Setting up cont_5_lstm1_cont_slice_4_split
I0505 14:44:21.512642 27066 net.cpp:131] Top shape: 1 512 (512)
I0505 14:44:21.512645 27066 net.cpp:131] Top shape: 1 512 (512)
I0505 14:44:21.512647 27066 net.cpp:139] Memory required for data: 15503360
I0505 14:44:21.512650 27066 layer_factory.hpp:77] Creating layer cont_6_lstm1_cont_slice_5_split
I0505 14:44:21.512652 27066 net.cpp:86] Creating Layer cont_6_lstm1_cont_slice_5_split
I0505 14:44:21.512655 27066 net.cpp:408] cont_6_lstm1_cont_slice_5_split <- cont_6
I0505 14:44:21.512657 27066 net.cpp:382] cont_6_lstm1_cont_slice_5_split -> cont_6_lstm1_cont_slice_5_split_0
I0505 14:44:21.512661 27066 net.cpp:382] cont_6_lstm1_cont_slice_5_split -> cont_6_lstm1_cont_slice_5_split_1
I0505 14:44:21.512677 27066 net.cpp:124] Setting up cont_6_lstm1_cont_slice_5_split
I0505 14:44:21.512679 27066 net.cpp:131] Top shape: 1 512 (512)
I0505 14:44:21.512681 27066 net.cpp:131] Top shape: 1 512 (512)
I0505 14:44:21.512684 27066 net.cpp:139] Memory required for data: 15507456
I0505 14:44:21.512686 27066 layer_factory.hpp:77] Creating layer cont_7_lstm1_cont_slice_6_split
I0505 14:44:21.512689 27066 net.cpp:86] Creating Layer cont_7_lstm1_cont_slice_6_split
I0505 14:44:21.512691 27066 net.cpp:408] cont_7_lstm1_cont_slice_6_split <- cont_7
I0505 14:44:21.512694 27066 net.cpp:382] cont_7_lstm1_cont_slice_6_split -> cont_7_lstm1_cont_slice_6_split_0
I0505 14:44:21.512697 27066 net.cpp:382] cont_7_lstm1_cont_slice_6_split -> cont_7_lstm1_cont_slice_6_split_1
I0505 14:44:21.512714 27066 net.cpp:124] Setting up cont_7_lstm1_cont_slice_6_split
I0505 14:44:21.512717 27066 net.cpp:131] Top shape: 1 512 (512)
I0505 14:44:21.512718 27066 net.cpp:131] Top shape: 1 512 (512)
I0505 14:44:21.512722 27066 net.cpp:139] Memory required for data: 15511552
I0505 14:44:21.512723 27066 layer_factory.hpp:77] Creating layer cont_8_lstm1_cont_slice_7_split
I0505 14:44:21.512725 27066 net.cpp:86] Creating Layer cont_8_lstm1_cont_slice_7_split
I0505 14:44:21.512727 27066 net.cpp:408] cont_8_lstm1_cont_slice_7_split <- cont_8
I0505 14:44:21.512730 27066 net.cpp:382] cont_8_lstm1_cont_slice_7_split -> cont_8_lstm1_cont_slice_7_split_0
I0505 14:44:21.512734 27066 net.cpp:382] cont_8_lstm1_cont_slice_7_split -> cont_8_lstm1_cont_slice_7_split_1
I0505 14:44:21.512751 27066 net.cpp:124] Setting up cont_8_lstm1_cont_slice_7_split
I0505 14:44:21.512753 27066 net.cpp:131] Top shape: 1 512 (512)
I0505 14:44:21.512755 27066 net.cpp:131] Top shape: 1 512 (512)
I0505 14:44:21.512765 27066 net.cpp:139] Memory required for data: 15515648
I0505 14:44:21.512768 27066 layer_factory.hpp:77] Creating layer cont_9_lstm1_cont_slice_8_split
I0505 14:44:21.512771 27066 net.cpp:86] Creating Layer cont_9_lstm1_cont_slice_8_split
I0505 14:44:21.512773 27066 net.cpp:408] cont_9_lstm1_cont_slice_8_split <- cont_9
I0505 14:44:21.512776 27066 net.cpp:382] cont_9_lstm1_cont_slice_8_split -> cont_9_lstm1_cont_slice_8_split_0
I0505 14:44:21.512780 27066 net.cpp:382] cont_9_lstm1_cont_slice_8_split -> cont_9_lstm1_cont_slice_8_split_1
I0505 14:44:21.512799 27066 net.cpp:124] Setting up cont_9_lstm1_cont_slice_8_split
I0505 14:44:21.512800 27066 net.cpp:131] Top shape: 1 512 (512)
I0505 14:44:21.512804 27066 net.cpp:131] Top shape: 1 512 (512)
I0505 14:44:21.512805 27066 net.cpp:139] Memory required for data: 15519744
I0505 14:44:21.512807 27066 layer_factory.hpp:77] Creating layer cont_10_lstm1_cont_slice_9_split
I0505 14:44:21.512810 27066 net.cpp:86] Creating Layer cont_10_lstm1_cont_slice_9_split
I0505 14:44:21.512812 27066 net.cpp:408] cont_10_lstm1_cont_slice_9_split <- cont_10
I0505 14:44:21.512815 27066 net.cpp:382] cont_10_lstm1_cont_slice_9_split -> cont_10_lstm1_cont_slice_9_split_0
I0505 14:44:21.512820 27066 net.cpp:382] cont_10_lstm1_cont_slice_9_split -> cont_10_lstm1_cont_slice_9_split_1
I0505 14:44:21.512835 27066 net.cpp:124] Setting up cont_10_lstm1_cont_slice_9_split
I0505 14:44:21.512837 27066 net.cpp:131] Top shape: 1 512 (512)
I0505 14:44:21.512840 27066 net.cpp:131] Top shape: 1 512 (512)
I0505 14:44:21.512842 27066 net.cpp:139] Memory required for data: 15523840
I0505 14:44:21.512845 27066 layer_factory.hpp:77] Creating layer cont_11_lstm1_cont_slice_10_split
I0505 14:44:21.512847 27066 net.cpp:86] Creating Layer cont_11_lstm1_cont_slice_10_split
I0505 14:44:21.512850 27066 net.cpp:408] cont_11_lstm1_cont_slice_10_split <- cont_11
I0505 14:44:21.512852 27066 net.cpp:382] cont_11_lstm1_cont_slice_10_split -> cont_11_lstm1_cont_slice_10_split_0
I0505 14:44:21.512856 27066 net.cpp:382] cont_11_lstm1_cont_slice_10_split -> cont_11_lstm1_cont_slice_10_split_1
I0505 14:44:21.512873 27066 net.cpp:124] Setting up cont_11_lstm1_cont_slice_10_split
I0505 14:44:21.512876 27066 net.cpp:131] Top shape: 1 512 (512)
I0505 14:44:21.512878 27066 net.cpp:131] Top shape: 1 512 (512)
I0505 14:44:21.512881 27066 net.cpp:139] Memory required for data: 15527936
I0505 14:44:21.512882 27066 layer_factory.hpp:77] Creating layer cont_12_lstm1_cont_slice_11_split
I0505 14:44:21.512886 27066 net.cpp:86] Creating Layer cont_12_lstm1_cont_slice_11_split
I0505 14:44:21.512887 27066 net.cpp:408] cont_12_lstm1_cont_slice_11_split <- cont_12
I0505 14:44:21.512890 27066 net.cpp:382] cont_12_lstm1_cont_slice_11_split -> cont_12_lstm1_cont_slice_11_split_0
I0505 14:44:21.512893 27066 net.cpp:382] cont_12_lstm1_cont_slice_11_split -> cont_12_lstm1_cont_slice_11_split_1
I0505 14:44:21.512910 27066 net.cpp:124] Setting up cont_12_lstm1_cont_slice_11_split
I0505 14:44:21.512912 27066 net.cpp:131] Top shape: 1 512 (512)
I0505 14:44:21.512915 27066 net.cpp:131] Top shape: 1 512 (512)
I0505 14:44:21.512917 27066 net.cpp:139] Memory required for data: 15532032
I0505 14:44:21.512919 27066 layer_factory.hpp:77] Creating layer cont_13_lstm1_cont_slice_12_split
I0505 14:44:21.512923 27066 net.cpp:86] Creating Layer cont_13_lstm1_cont_slice_12_split
I0505 14:44:21.512924 27066 net.cpp:408] cont_13_lstm1_cont_slice_12_split <- cont_13
I0505 14:44:21.512928 27066 net.cpp:382] cont_13_lstm1_cont_slice_12_split -> cont_13_lstm1_cont_slice_12_split_0
I0505 14:44:21.512931 27066 net.cpp:382] cont_13_lstm1_cont_slice_12_split -> cont_13_lstm1_cont_slice_12_split_1
I0505 14:44:21.512948 27066 net.cpp:124] Setting up cont_13_lstm1_cont_slice_12_split
I0505 14:44:21.512950 27066 net.cpp:131] Top shape: 1 512 (512)
I0505 14:44:21.512953 27066 net.cpp:131] Top shape: 1 512 (512)
I0505 14:44:21.512955 27066 net.cpp:139] Memory required for data: 15536128
I0505 14:44:21.512956 27066 layer_factory.hpp:77] Creating layer cont_14_lstm1_cont_slice_13_split
I0505 14:44:21.512966 27066 net.cpp:86] Creating Layer cont_14_lstm1_cont_slice_13_split
I0505 14:44:21.512969 27066 net.cpp:408] cont_14_lstm1_cont_slice_13_split <- cont_14
I0505 14:44:21.512971 27066 net.cpp:382] cont_14_lstm1_cont_slice_13_split -> cont_14_lstm1_cont_slice_13_split_0
I0505 14:44:21.512975 27066 net.cpp:382] cont_14_lstm1_cont_slice_13_split -> cont_14_lstm1_cont_slice_13_split_1
I0505 14:44:21.512993 27066 net.cpp:124] Setting up cont_14_lstm1_cont_slice_13_split
I0505 14:44:21.512995 27066 net.cpp:131] Top shape: 1 512 (512)
I0505 14:44:21.512997 27066 net.cpp:131] Top shape: 1 512 (512)
I0505 14:44:21.513000 27066 net.cpp:139] Memory required for data: 15540224
I0505 14:44:21.513002 27066 layer_factory.hpp:77] Creating layer cont_15_lstm1_cont_slice_14_split
I0505 14:44:21.513005 27066 net.cpp:86] Creating Layer cont_15_lstm1_cont_slice_14_split
I0505 14:44:21.513007 27066 net.cpp:408] cont_15_lstm1_cont_slice_14_split <- cont_15
I0505 14:44:21.513010 27066 net.cpp:382] cont_15_lstm1_cont_slice_14_split -> cont_15_lstm1_cont_slice_14_split_0
I0505 14:44:21.513015 27066 net.cpp:382] cont_15_lstm1_cont_slice_14_split -> cont_15_lstm1_cont_slice_14_split_1
I0505 14:44:21.513031 27066 net.cpp:124] Setting up cont_15_lstm1_cont_slice_14_split
I0505 14:44:21.513034 27066 net.cpp:131] Top shape: 1 512 (512)
I0505 14:44:21.513036 27066 net.cpp:131] Top shape: 1 512 (512)
I0505 14:44:21.513038 27066 net.cpp:139] Memory required for data: 15544320
I0505 14:44:21.513041 27066 layer_factory.hpp:77] Creating layer cont_16_lstm1_cont_slice_15_split
I0505 14:44:21.513043 27066 net.cpp:86] Creating Layer cont_16_lstm1_cont_slice_15_split
I0505 14:44:21.513046 27066 net.cpp:408] cont_16_lstm1_cont_slice_15_split <- cont_16
I0505 14:44:21.513048 27066 net.cpp:382] cont_16_lstm1_cont_slice_15_split -> cont_16_lstm1_cont_slice_15_split_0
I0505 14:44:21.513052 27066 net.cpp:382] cont_16_lstm1_cont_slice_15_split -> cont_16_lstm1_cont_slice_15_split_1
I0505 14:44:21.513068 27066 net.cpp:124] Setting up cont_16_lstm1_cont_slice_15_split
I0505 14:44:21.513072 27066 net.cpp:131] Top shape: 1 512 (512)
I0505 14:44:21.513073 27066 net.cpp:131] Top shape: 1 512 (512)
I0505 14:44:21.513075 27066 net.cpp:139] Memory required for data: 15548416
I0505 14:44:21.513077 27066 layer_factory.hpp:77] Creating layer cont_17_lstm1_cont_slice_16_split
I0505 14:44:21.513080 27066 net.cpp:86] Creating Layer cont_17_lstm1_cont_slice_16_split
I0505 14:44:21.513082 27066 net.cpp:408] cont_17_lstm1_cont_slice_16_split <- cont_17
I0505 14:44:21.513085 27066 net.cpp:382] cont_17_lstm1_cont_slice_16_split -> cont_17_lstm1_cont_slice_16_split_0
I0505 14:44:21.513089 27066 net.cpp:382] cont_17_lstm1_cont_slice_16_split -> cont_17_lstm1_cont_slice_16_split_1
I0505 14:44:21.513106 27066 net.cpp:124] Setting up cont_17_lstm1_cont_slice_16_split
I0505 14:44:21.513108 27066 net.cpp:131] Top shape: 1 512 (512)
I0505 14:44:21.513111 27066 net.cpp:131] Top shape: 1 512 (512)
I0505 14:44:21.513113 27066 net.cpp:139] Memory required for data: 15552512
I0505 14:44:21.513115 27066 layer_factory.hpp:77] Creating layer cont_18_lstm1_cont_slice_17_split
I0505 14:44:21.513118 27066 net.cpp:86] Creating Layer cont_18_lstm1_cont_slice_17_split
I0505 14:44:21.513120 27066 net.cpp:408] cont_18_lstm1_cont_slice_17_split <- cont_18
I0505 14:44:21.513123 27066 net.cpp:382] cont_18_lstm1_cont_slice_17_split -> cont_18_lstm1_cont_slice_17_split_0
I0505 14:44:21.513126 27066 net.cpp:382] cont_18_lstm1_cont_slice_17_split -> cont_18_lstm1_cont_slice_17_split_1
I0505 14:44:21.513144 27066 net.cpp:124] Setting up cont_18_lstm1_cont_slice_17_split
I0505 14:44:21.513145 27066 net.cpp:131] Top shape: 1 512 (512)
I0505 14:44:21.513149 27066 net.cpp:131] Top shape: 1 512 (512)
I0505 14:44:21.513150 27066 net.cpp:139] Memory required for data: 15556608
I0505 14:44:21.513152 27066 layer_factory.hpp:77] Creating layer cont_19_lstm1_cont_slice_18_split
I0505 14:44:21.513155 27066 net.cpp:86] Creating Layer cont_19_lstm1_cont_slice_18_split
I0505 14:44:21.513164 27066 net.cpp:408] cont_19_lstm1_cont_slice_18_split <- cont_19
I0505 14:44:21.513166 27066 net.cpp:382] cont_19_lstm1_cont_slice_18_split -> cont_19_lstm1_cont_slice_18_split_0
I0505 14:44:21.513170 27066 net.cpp:382] cont_19_lstm1_cont_slice_18_split -> cont_19_lstm1_cont_slice_18_split_1
I0505 14:44:21.513188 27066 net.cpp:124] Setting up cont_19_lstm1_cont_slice_18_split
I0505 14:44:21.513190 27066 net.cpp:131] Top shape: 1 512 (512)
I0505 14:44:21.513193 27066 net.cpp:131] Top shape: 1 512 (512)
I0505 14:44:21.513195 27066 net.cpp:139] Memory required for data: 15560704
I0505 14:44:21.513197 27066 layer_factory.hpp:77] Creating layer cont_20_lstm1_cont_slice_19_split
I0505 14:44:21.513200 27066 net.cpp:86] Creating Layer cont_20_lstm1_cont_slice_19_split
I0505 14:44:21.513202 27066 net.cpp:408] cont_20_lstm1_cont_slice_19_split <- cont_20
I0505 14:44:21.513206 27066 net.cpp:382] cont_20_lstm1_cont_slice_19_split -> cont_20_lstm1_cont_slice_19_split_0
I0505 14:44:21.513209 27066 net.cpp:382] cont_20_lstm1_cont_slice_19_split -> cont_20_lstm1_cont_slice_19_split_1
I0505 14:44:21.513226 27066 net.cpp:124] Setting up cont_20_lstm1_cont_slice_19_split
I0505 14:44:21.513229 27066 net.cpp:131] Top shape: 1 512 (512)
I0505 14:44:21.513231 27066 net.cpp:131] Top shape: 1 512 (512)
I0505 14:44:21.513233 27066 net.cpp:139] Memory required for data: 15564800
I0505 14:44:21.513236 27066 layer_factory.hpp:77] Creating layer cont_21_lstm1_cont_slice_20_split
I0505 14:44:21.513238 27066 net.cpp:86] Creating Layer cont_21_lstm1_cont_slice_20_split
I0505 14:44:21.513240 27066 net.cpp:408] cont_21_lstm1_cont_slice_20_split <- cont_21
I0505 14:44:21.513243 27066 net.cpp:382] cont_21_lstm1_cont_slice_20_split -> cont_21_lstm1_cont_slice_20_split_0
I0505 14:44:21.513247 27066 net.cpp:382] cont_21_lstm1_cont_slice_20_split -> cont_21_lstm1_cont_slice_20_split_1
I0505 14:44:21.513263 27066 net.cpp:124] Setting up cont_21_lstm1_cont_slice_20_split
I0505 14:44:21.513267 27066 net.cpp:131] Top shape: 1 512 (512)
I0505 14:44:21.513268 27066 net.cpp:131] Top shape: 1 512 (512)
I0505 14:44:21.513270 27066 net.cpp:139] Memory required for data: 15568896
I0505 14:44:21.513273 27066 layer_factory.hpp:77] Creating layer cont_22_lstm1_cont_slice_21_split
I0505 14:44:21.513275 27066 net.cpp:86] Creating Layer cont_22_lstm1_cont_slice_21_split
I0505 14:44:21.513278 27066 net.cpp:408] cont_22_lstm1_cont_slice_21_split <- cont_22
I0505 14:44:21.513281 27066 net.cpp:382] cont_22_lstm1_cont_slice_21_split -> cont_22_lstm1_cont_slice_21_split_0
I0505 14:44:21.513284 27066 net.cpp:382] cont_22_lstm1_cont_slice_21_split -> cont_22_lstm1_cont_slice_21_split_1
I0505 14:44:21.513301 27066 net.cpp:124] Setting up cont_22_lstm1_cont_slice_21_split
I0505 14:44:21.513303 27066 net.cpp:131] Top shape: 1 512 (512)
I0505 14:44:21.513305 27066 net.cpp:131] Top shape: 1 512 (512)
I0505 14:44:21.513309 27066 net.cpp:139] Memory required for data: 15572992
I0505 14:44:21.513310 27066 layer_factory.hpp:77] Creating layer cont_23_lstm1_cont_slice_22_split
I0505 14:44:21.513312 27066 net.cpp:86] Creating Layer cont_23_lstm1_cont_slice_22_split
I0505 14:44:21.513315 27066 net.cpp:408] cont_23_lstm1_cont_slice_22_split <- cont_23
I0505 14:44:21.513319 27066 net.cpp:382] cont_23_lstm1_cont_slice_22_split -> cont_23_lstm1_cont_slice_22_split_0
I0505 14:44:21.513324 27066 net.cpp:382] cont_23_lstm1_cont_slice_22_split -> cont_23_lstm1_cont_slice_22_split_1
I0505 14:44:21.513340 27066 net.cpp:124] Setting up cont_23_lstm1_cont_slice_22_split
I0505 14:44:21.513343 27066 net.cpp:131] Top shape: 1 512 (512)
I0505 14:44:21.513345 27066 net.cpp:131] Top shape: 1 512 (512)
I0505 14:44:21.513348 27066 net.cpp:139] Memory required for data: 15577088
I0505 14:44:21.513350 27066 layer_factory.hpp:77] Creating layer cont_24_lstm1_cont_slice_23_split
I0505 14:44:21.513352 27066 net.cpp:86] Creating Layer cont_24_lstm1_cont_slice_23_split
I0505 14:44:21.513355 27066 net.cpp:408] cont_24_lstm1_cont_slice_23_split <- cont_24
I0505 14:44:21.513358 27066 net.cpp:382] cont_24_lstm1_cont_slice_23_split -> cont_24_lstm1_cont_slice_23_split_0
I0505 14:44:21.513368 27066 net.cpp:382] cont_24_lstm1_cont_slice_23_split -> cont_24_lstm1_cont_slice_23_split_1
I0505 14:44:21.513387 27066 net.cpp:124] Setting up cont_24_lstm1_cont_slice_23_split
I0505 14:44:21.513389 27066 net.cpp:131] Top shape: 1 512 (512)
I0505 14:44:21.513392 27066 net.cpp:131] Top shape: 1 512 (512)
I0505 14:44:21.513394 27066 net.cpp:139] Memory required for data: 15581184
I0505 14:44:21.513396 27066 layer_factory.hpp:77] Creating layer cont_25_lstm1_cont_slice_24_split
I0505 14:44:21.513399 27066 net.cpp:86] Creating Layer cont_25_lstm1_cont_slice_24_split
I0505 14:44:21.513402 27066 net.cpp:408] cont_25_lstm1_cont_slice_24_split <- cont_25
I0505 14:44:21.513406 27066 net.cpp:382] cont_25_lstm1_cont_slice_24_split -> cont_25_lstm1_cont_slice_24_split_0
I0505 14:44:21.513408 27066 net.cpp:382] cont_25_lstm1_cont_slice_24_split -> cont_25_lstm1_cont_slice_24_split_1
I0505 14:44:21.513425 27066 net.cpp:124] Setting up cont_25_lstm1_cont_slice_24_split
I0505 14:44:21.513427 27066 net.cpp:131] Top shape: 1 512 (512)
I0505 14:44:21.513430 27066 net.cpp:131] Top shape: 1 512 (512)
I0505 14:44:21.513432 27066 net.cpp:139] Memory required for data: 15585280
I0505 14:44:21.513434 27066 layer_factory.hpp:77] Creating layer cont_26_lstm1_cont_slice_25_split
I0505 14:44:21.513437 27066 net.cpp:86] Creating Layer cont_26_lstm1_cont_slice_25_split
I0505 14:44:21.513439 27066 net.cpp:408] cont_26_lstm1_cont_slice_25_split <- cont_26
I0505 14:44:21.513442 27066 net.cpp:382] cont_26_lstm1_cont_slice_25_split -> cont_26_lstm1_cont_slice_25_split_0
I0505 14:44:21.513447 27066 net.cpp:382] cont_26_lstm1_cont_slice_25_split -> cont_26_lstm1_cont_slice_25_split_1
I0505 14:44:21.513463 27066 net.cpp:124] Setting up cont_26_lstm1_cont_slice_25_split
I0505 14:44:21.513465 27066 net.cpp:131] Top shape: 1 512 (512)
I0505 14:44:21.513468 27066 net.cpp:131] Top shape: 1 512 (512)
I0505 14:44:21.513470 27066 net.cpp:139] Memory required for data: 15589376
I0505 14:44:21.513473 27066 layer_factory.hpp:77] Creating layer cont_27_lstm1_cont_slice_26_split
I0505 14:44:21.513475 27066 net.cpp:86] Creating Layer cont_27_lstm1_cont_slice_26_split
I0505 14:44:21.513478 27066 net.cpp:408] cont_27_lstm1_cont_slice_26_split <- cont_27
I0505 14:44:21.513480 27066 net.cpp:382] cont_27_lstm1_cont_slice_26_split -> cont_27_lstm1_cont_slice_26_split_0
I0505 14:44:21.513484 27066 net.cpp:382] cont_27_lstm1_cont_slice_26_split -> cont_27_lstm1_cont_slice_26_split_1
I0505 14:44:21.513501 27066 net.cpp:124] Setting up cont_27_lstm1_cont_slice_26_split
I0505 14:44:21.513504 27066 net.cpp:131] Top shape: 1 512 (512)
I0505 14:44:21.513505 27066 net.cpp:131] Top shape: 1 512 (512)
I0505 14:44:21.513509 27066 net.cpp:139] Memory required for data: 15593472
I0505 14:44:21.513509 27066 layer_factory.hpp:77] Creating layer cont_28_lstm1_cont_slice_27_split
I0505 14:44:21.513512 27066 net.cpp:86] Creating Layer cont_28_lstm1_cont_slice_27_split
I0505 14:44:21.513515 27066 net.cpp:408] cont_28_lstm1_cont_slice_27_split <- cont_28
I0505 14:44:21.513519 27066 net.cpp:382] cont_28_lstm1_cont_slice_27_split -> cont_28_lstm1_cont_slice_27_split_0
I0505 14:44:21.513521 27066 net.cpp:382] cont_28_lstm1_cont_slice_27_split -> cont_28_lstm1_cont_slice_27_split_1
I0505 14:44:21.513540 27066 net.cpp:124] Setting up cont_28_lstm1_cont_slice_27_split
I0505 14:44:21.513541 27066 net.cpp:131] Top shape: 1 512 (512)
I0505 14:44:21.513543 27066 net.cpp:131] Top shape: 1 512 (512)
I0505 14:44:21.513546 27066 net.cpp:139] Memory required for data: 15597568
I0505 14:44:21.513547 27066 layer_factory.hpp:77] Creating layer cont_29_lstm1_cont_slice_28_split
I0505 14:44:21.513551 27066 net.cpp:86] Creating Layer cont_29_lstm1_cont_slice_28_split
I0505 14:44:21.513553 27066 net.cpp:408] cont_29_lstm1_cont_slice_28_split <- cont_29
I0505 14:44:21.513556 27066 net.cpp:382] cont_29_lstm1_cont_slice_28_split -> cont_29_lstm1_cont_slice_28_split_0
I0505 14:44:21.513561 27066 net.cpp:382] cont_29_lstm1_cont_slice_28_split -> cont_29_lstm1_cont_slice_28_split_1
I0505 14:44:21.513584 27066 net.cpp:124] Setting up cont_29_lstm1_cont_slice_28_split
I0505 14:44:21.513587 27066 net.cpp:131] Top shape: 1 512 (512)
I0505 14:44:21.513589 27066 net.cpp:131] Top shape: 1 512 (512)
I0505 14:44:21.513592 27066 net.cpp:139] Memory required for data: 15601664
I0505 14:44:21.513593 27066 layer_factory.hpp:77] Creating layer cont_30_lstm1_cont_slice_29_split
I0505 14:44:21.513597 27066 net.cpp:86] Creating Layer cont_30_lstm1_cont_slice_29_split
I0505 14:44:21.513600 27066 net.cpp:408] cont_30_lstm1_cont_slice_29_split <- cont_30
I0505 14:44:21.513603 27066 net.cpp:382] cont_30_lstm1_cont_slice_29_split -> cont_30_lstm1_cont_slice_29_split_0
I0505 14:44:21.513607 27066 net.cpp:382] cont_30_lstm1_cont_slice_29_split -> cont_30_lstm1_cont_slice_29_split_1
I0505 14:44:21.513625 27066 net.cpp:124] Setting up cont_30_lstm1_cont_slice_29_split
I0505 14:44:21.513628 27066 net.cpp:131] Top shape: 1 512 (512)
I0505 14:44:21.513630 27066 net.cpp:131] Top shape: 1 512 (512)
I0505 14:44:21.513633 27066 net.cpp:139] Memory required for data: 15605760
I0505 14:44:21.513634 27066 layer_factory.hpp:77] Creating layer cont_31_lstm1_cont_slice_30_split
I0505 14:44:21.513638 27066 net.cpp:86] Creating Layer cont_31_lstm1_cont_slice_30_split
I0505 14:44:21.513639 27066 net.cpp:408] cont_31_lstm1_cont_slice_30_split <- cont_31
I0505 14:44:21.513643 27066 net.cpp:382] cont_31_lstm1_cont_slice_30_split -> cont_31_lstm1_cont_slice_30_split_0
I0505 14:44:21.513646 27066 net.cpp:382] cont_31_lstm1_cont_slice_30_split -> cont_31_lstm1_cont_slice_30_split_1
I0505 14:44:21.513664 27066 net.cpp:124] Setting up cont_31_lstm1_cont_slice_30_split
I0505 14:44:21.513665 27066 net.cpp:131] Top shape: 1 512 (512)
I0505 14:44:21.513667 27066 net.cpp:131] Top shape: 1 512 (512)
I0505 14:44:21.513670 27066 net.cpp:139] Memory required for data: 15609856
I0505 14:44:21.513672 27066 layer_factory.hpp:77] Creating layer cont_32_lstm1_cont_slice_31_split
I0505 14:44:21.513675 27066 net.cpp:86] Creating Layer cont_32_lstm1_cont_slice_31_split
I0505 14:44:21.513677 27066 net.cpp:408] cont_32_lstm1_cont_slice_31_split <- cont_32
I0505 14:44:21.513680 27066 net.cpp:382] cont_32_lstm1_cont_slice_31_split -> cont_32_lstm1_cont_slice_31_split_0
I0505 14:44:21.513684 27066 net.cpp:382] cont_32_lstm1_cont_slice_31_split -> cont_32_lstm1_cont_slice_31_split_1
I0505 14:44:21.513700 27066 net.cpp:124] Setting up cont_32_lstm1_cont_slice_31_split
I0505 14:44:21.513702 27066 net.cpp:131] Top shape: 1 512 (512)
I0505 14:44:21.513705 27066 net.cpp:131] Top shape: 1 512 (512)
I0505 14:44:21.513707 27066 net.cpp:139] Memory required for data: 15613952
I0505 14:44:21.513710 27066 layer_factory.hpp:77] Creating layer cont_33_lstm1_cont_slice_32_split
I0505 14:44:21.513712 27066 net.cpp:86] Creating Layer cont_33_lstm1_cont_slice_32_split
I0505 14:44:21.513715 27066 net.cpp:408] cont_33_lstm1_cont_slice_32_split <- cont_33
I0505 14:44:21.513717 27066 net.cpp:382] cont_33_lstm1_cont_slice_32_split -> cont_33_lstm1_cont_slice_32_split_0
I0505 14:44:21.513721 27066 net.cpp:382] cont_33_lstm1_cont_slice_32_split -> cont_33_lstm1_cont_slice_32_split_1
I0505 14:44:21.513737 27066 net.cpp:124] Setting up cont_33_lstm1_cont_slice_32_split
I0505 14:44:21.513739 27066 net.cpp:131] Top shape: 1 512 (512)
I0505 14:44:21.513742 27066 net.cpp:131] Top shape: 1 512 (512)
I0505 14:44:21.513744 27066 net.cpp:139] Memory required for data: 15618048
I0505 14:44:21.513746 27066 layer_factory.hpp:77] Creating layer cont_34_lstm1_cont_slice_33_split
I0505 14:44:21.513749 27066 net.cpp:86] Creating Layer cont_34_lstm1_cont_slice_33_split
I0505 14:44:21.513751 27066 net.cpp:408] cont_34_lstm1_cont_slice_33_split <- cont_34
I0505 14:44:21.513754 27066 net.cpp:382] cont_34_lstm1_cont_slice_33_split -> cont_34_lstm1_cont_slice_33_split_0
I0505 14:44:21.513758 27066 net.cpp:382] cont_34_lstm1_cont_slice_33_split -> cont_34_lstm1_cont_slice_33_split_1
I0505 14:44:21.513774 27066 net.cpp:124] Setting up cont_34_lstm1_cont_slice_33_split
I0505 14:44:21.513782 27066 net.cpp:131] Top shape: 1 512 (512)
I0505 14:44:21.513785 27066 net.cpp:131] Top shape: 1 512 (512)
I0505 14:44:21.513787 27066 net.cpp:139] Memory required for data: 15622144
I0505 14:44:21.513789 27066 layer_factory.hpp:77] Creating layer cont_35_lstm1_cont_slice_34_split
I0505 14:44:21.513792 27066 net.cpp:86] Creating Layer cont_35_lstm1_cont_slice_34_split
I0505 14:44:21.513794 27066 net.cpp:408] cont_35_lstm1_cont_slice_34_split <- cont_35
I0505 14:44:21.513798 27066 net.cpp:382] cont_35_lstm1_cont_slice_34_split -> cont_35_lstm1_cont_slice_34_split_0
I0505 14:44:21.513801 27066 net.cpp:382] cont_35_lstm1_cont_slice_34_split -> cont_35_lstm1_cont_slice_34_split_1
I0505 14:44:21.513820 27066 net.cpp:124] Setting up cont_35_lstm1_cont_slice_34_split
I0505 14:44:21.513823 27066 net.cpp:131] Top shape: 1 512 (512)
I0505 14:44:21.513825 27066 net.cpp:131] Top shape: 1 512 (512)
I0505 14:44:21.513828 27066 net.cpp:139] Memory required for data: 15626240
I0505 14:44:21.513829 27066 layer_factory.hpp:77] Creating layer cont_36_lstm1_cont_slice_35_split
I0505 14:44:21.513833 27066 net.cpp:86] Creating Layer cont_36_lstm1_cont_slice_35_split
I0505 14:44:21.513835 27066 net.cpp:408] cont_36_lstm1_cont_slice_35_split <- cont_36
I0505 14:44:21.513839 27066 net.cpp:382] cont_36_lstm1_cont_slice_35_split -> cont_36_lstm1_cont_slice_35_split_0
I0505 14:44:21.513841 27066 net.cpp:382] cont_36_lstm1_cont_slice_35_split -> cont_36_lstm1_cont_slice_35_split_1
I0505 14:44:21.513859 27066 net.cpp:124] Setting up cont_36_lstm1_cont_slice_35_split
I0505 14:44:21.513861 27066 net.cpp:131] Top shape: 1 512 (512)
I0505 14:44:21.513864 27066 net.cpp:131] Top shape: 1 512 (512)
I0505 14:44:21.513866 27066 net.cpp:139] Memory required for data: 15630336
I0505 14:44:21.513867 27066 layer_factory.hpp:77] Creating layer cont_37_lstm1_cont_slice_36_split
I0505 14:44:21.513870 27066 net.cpp:86] Creating Layer cont_37_lstm1_cont_slice_36_split
I0505 14:44:21.513873 27066 net.cpp:408] cont_37_lstm1_cont_slice_36_split <- cont_37
I0505 14:44:21.513875 27066 net.cpp:382] cont_37_lstm1_cont_slice_36_split -> cont_37_lstm1_cont_slice_36_split_0
I0505 14:44:21.513880 27066 net.cpp:382] cont_37_lstm1_cont_slice_36_split -> cont_37_lstm1_cont_slice_36_split_1
I0505 14:44:21.513896 27066 net.cpp:124] Setting up cont_37_lstm1_cont_slice_36_split
I0505 14:44:21.513898 27066 net.cpp:131] Top shape: 1 512 (512)
I0505 14:44:21.513901 27066 net.cpp:131] Top shape: 1 512 (512)
I0505 14:44:21.513903 27066 net.cpp:139] Memory required for data: 15634432
I0505 14:44:21.513906 27066 layer_factory.hpp:77] Creating layer cont_38_lstm1_cont_slice_37_split
I0505 14:44:21.513908 27066 net.cpp:86] Creating Layer cont_38_lstm1_cont_slice_37_split
I0505 14:44:21.513911 27066 net.cpp:408] cont_38_lstm1_cont_slice_37_split <- cont_38
I0505 14:44:21.513913 27066 net.cpp:382] cont_38_lstm1_cont_slice_37_split -> cont_38_lstm1_cont_slice_37_split_0
I0505 14:44:21.513917 27066 net.cpp:382] cont_38_lstm1_cont_slice_37_split -> cont_38_lstm1_cont_slice_37_split_1
I0505 14:44:21.513934 27066 net.cpp:124] Setting up cont_38_lstm1_cont_slice_37_split
I0505 14:44:21.513936 27066 net.cpp:131] Top shape: 1 512 (512)
I0505 14:44:21.513939 27066 net.cpp:131] Top shape: 1 512 (512)
I0505 14:44:21.513942 27066 net.cpp:139] Memory required for data: 15638528
I0505 14:44:21.513943 27066 layer_factory.hpp:77] Creating layer cont_39_lstm1_cont_slice_38_split
I0505 14:44:21.513947 27066 net.cpp:86] Creating Layer cont_39_lstm1_cont_slice_38_split
I0505 14:44:21.513948 27066 net.cpp:408] cont_39_lstm1_cont_slice_38_split <- cont_39
I0505 14:44:21.513952 27066 net.cpp:382] cont_39_lstm1_cont_slice_38_split -> cont_39_lstm1_cont_slice_38_split_0
I0505 14:44:21.513955 27066 net.cpp:382] cont_39_lstm1_cont_slice_38_split -> cont_39_lstm1_cont_slice_38_split_1
I0505 14:44:21.513972 27066 net.cpp:124] Setting up cont_39_lstm1_cont_slice_38_split
I0505 14:44:21.514068 27066 net.cpp:131] Top shape: 1 512 (512)
I0505 14:44:21.514071 27066 net.cpp:131] Top shape: 1 512 (512)
I0505 14:44:21.514082 27066 net.cpp:139] Memory required for data: 15642624
I0505 14:44:21.514084 27066 layer_factory.hpp:77] Creating layer cont_40_lstm1_cont_slice_39_split
I0505 14:44:21.514087 27066 net.cpp:86] Creating Layer cont_40_lstm1_cont_slice_39_split
I0505 14:44:21.514091 27066 net.cpp:408] cont_40_lstm1_cont_slice_39_split <- cont_40
I0505 14:44:21.514093 27066 net.cpp:382] cont_40_lstm1_cont_slice_39_split -> cont_40_lstm1_cont_slice_39_split_0
I0505 14:44:21.514097 27066 net.cpp:382] cont_40_lstm1_cont_slice_39_split -> cont_40_lstm1_cont_slice_39_split_1
I0505 14:44:21.514118 27066 net.cpp:124] Setting up cont_40_lstm1_cont_slice_39_split
I0505 14:44:21.514120 27066 net.cpp:131] Top shape: 1 512 (512)
I0505 14:44:21.514123 27066 net.cpp:131] Top shape: 1 512 (512)
I0505 14:44:21.514125 27066 net.cpp:139] Memory required for data: 15646720
I0505 14:44:21.514127 27066 layer_factory.hpp:77] Creating layer cont_41_lstm1_cont_slice_40_split
I0505 14:44:21.514130 27066 net.cpp:86] Creating Layer cont_41_lstm1_cont_slice_40_split
I0505 14:44:21.514132 27066 net.cpp:408] cont_41_lstm1_cont_slice_40_split <- cont_41
I0505 14:44:21.514135 27066 net.cpp:382] cont_41_lstm1_cont_slice_40_split -> cont_41_lstm1_cont_slice_40_split_0
I0505 14:44:21.514139 27066 net.cpp:382] cont_41_lstm1_cont_slice_40_split -> cont_41_lstm1_cont_slice_40_split_1
I0505 14:44:21.514156 27066 net.cpp:124] Setting up cont_41_lstm1_cont_slice_40_split
I0505 14:44:21.514158 27066 net.cpp:131] Top shape: 1 512 (512)
I0505 14:44:21.514161 27066 net.cpp:131] Top shape: 1 512 (512)
I0505 14:44:21.514163 27066 net.cpp:139] Memory required for data: 15650816
I0505 14:44:21.514165 27066 layer_factory.hpp:77] Creating layer cont_42_lstm1_cont_slice_41_split
I0505 14:44:21.514168 27066 net.cpp:86] Creating Layer cont_42_lstm1_cont_slice_41_split
I0505 14:44:21.514170 27066 net.cpp:408] cont_42_lstm1_cont_slice_41_split <- cont_42
I0505 14:44:21.514173 27066 net.cpp:382] cont_42_lstm1_cont_slice_41_split -> cont_42_lstm1_cont_slice_41_split_0
I0505 14:44:21.514176 27066 net.cpp:382] cont_42_lstm1_cont_slice_41_split -> cont_42_lstm1_cont_slice_41_split_1
I0505 14:44:21.514194 27066 net.cpp:124] Setting up cont_42_lstm1_cont_slice_41_split
I0505 14:44:21.514196 27066 net.cpp:131] Top shape: 1 512 (512)
I0505 14:44:21.514199 27066 net.cpp:131] Top shape: 1 512 (512)
I0505 14:44:21.514201 27066 net.cpp:139] Memory required for data: 15654912
I0505 14:44:21.514204 27066 layer_factory.hpp:77] Creating layer cont_43_lstm1_cont_slice_42_split
I0505 14:44:21.514205 27066 net.cpp:86] Creating Layer cont_43_lstm1_cont_slice_42_split
I0505 14:44:21.514209 27066 net.cpp:408] cont_43_lstm1_cont_slice_42_split <- cont_43
I0505 14:44:21.514211 27066 net.cpp:382] cont_43_lstm1_cont_slice_42_split -> cont_43_lstm1_cont_slice_42_split_0
I0505 14:44:21.514214 27066 net.cpp:382] cont_43_lstm1_cont_slice_42_split -> cont_43_lstm1_cont_slice_42_split_1
I0505 14:44:21.514231 27066 net.cpp:124] Setting up cont_43_lstm1_cont_slice_42_split
I0505 14:44:21.514233 27066 net.cpp:131] Top shape: 1 512 (512)
I0505 14:44:21.514236 27066 net.cpp:131] Top shape: 1 512 (512)
I0505 14:44:21.514238 27066 net.cpp:139] Memory required for data: 15659008
I0505 14:44:21.514240 27066 layer_factory.hpp:77] Creating layer cont_44_lstm1_cont_slice_43_split
I0505 14:44:21.514243 27066 net.cpp:86] Creating Layer cont_44_lstm1_cont_slice_43_split
I0505 14:44:21.514245 27066 net.cpp:408] cont_44_lstm1_cont_slice_43_split <- cont_44
I0505 14:44:21.514248 27066 net.cpp:382] cont_44_lstm1_cont_slice_43_split -> cont_44_lstm1_cont_slice_43_split_0
I0505 14:44:21.514252 27066 net.cpp:382] cont_44_lstm1_cont_slice_43_split -> cont_44_lstm1_cont_slice_43_split_1
I0505 14:44:21.514269 27066 net.cpp:124] Setting up cont_44_lstm1_cont_slice_43_split
I0505 14:44:21.514271 27066 net.cpp:131] Top shape: 1 512 (512)
I0505 14:44:21.514273 27066 net.cpp:131] Top shape: 1 512 (512)
I0505 14:44:21.514276 27066 net.cpp:139] Memory required for data: 15663104
I0505 14:44:21.514277 27066 layer_factory.hpp:77] Creating layer cont_45_lstm1_cont_slice_44_split
I0505 14:44:21.514286 27066 net.cpp:86] Creating Layer cont_45_lstm1_cont_slice_44_split
I0505 14:44:21.514288 27066 net.cpp:408] cont_45_lstm1_cont_slice_44_split <- cont_45
I0505 14:44:21.514292 27066 net.cpp:382] cont_45_lstm1_cont_slice_44_split -> cont_45_lstm1_cont_slice_44_split_0
I0505 14:44:21.514295 27066 net.cpp:382] cont_45_lstm1_cont_slice_44_split -> cont_45_lstm1_cont_slice_44_split_1
I0505 14:44:21.514313 27066 net.cpp:124] Setting up cont_45_lstm1_cont_slice_44_split
I0505 14:44:21.514315 27066 net.cpp:131] Top shape: 1 512 (512)
I0505 14:44:21.514318 27066 net.cpp:131] Top shape: 1 512 (512)
I0505 14:44:21.514320 27066 net.cpp:139] Memory required for data: 15667200
I0505 14:44:21.514322 27066 layer_factory.hpp:77] Creating layer cont_46_lstm1_cont_slice_45_split
I0505 14:44:21.514325 27066 net.cpp:86] Creating Layer cont_46_lstm1_cont_slice_45_split
I0505 14:44:21.514328 27066 net.cpp:408] cont_46_lstm1_cont_slice_45_split <- cont_46
I0505 14:44:21.514330 27066 net.cpp:382] cont_46_lstm1_cont_slice_45_split -> cont_46_lstm1_cont_slice_45_split_0
I0505 14:44:21.514334 27066 net.cpp:382] cont_46_lstm1_cont_slice_45_split -> cont_46_lstm1_cont_slice_45_split_1
I0505 14:44:21.514351 27066 net.cpp:124] Setting up cont_46_lstm1_cont_slice_45_split
I0505 14:44:21.514353 27066 net.cpp:131] Top shape: 1 512 (512)
I0505 14:44:21.514356 27066 net.cpp:131] Top shape: 1 512 (512)
I0505 14:44:21.514358 27066 net.cpp:139] Memory required for data: 15671296
I0505 14:44:21.514360 27066 layer_factory.hpp:77] Creating layer cont_47_lstm1_cont_slice_46_split
I0505 14:44:21.514364 27066 net.cpp:86] Creating Layer cont_47_lstm1_cont_slice_46_split
I0505 14:44:21.514365 27066 net.cpp:408] cont_47_lstm1_cont_slice_46_split <- cont_47
I0505 14:44:21.514369 27066 net.cpp:382] cont_47_lstm1_cont_slice_46_split -> cont_47_lstm1_cont_slice_46_split_0
I0505 14:44:21.514372 27066 net.cpp:382] cont_47_lstm1_cont_slice_46_split -> cont_47_lstm1_cont_slice_46_split_1
I0505 14:44:21.514389 27066 net.cpp:124] Setting up cont_47_lstm1_cont_slice_46_split
I0505 14:44:21.514392 27066 net.cpp:131] Top shape: 1 512 (512)
I0505 14:44:21.514394 27066 net.cpp:131] Top shape: 1 512 (512)
I0505 14:44:21.514396 27066 net.cpp:139] Memory required for data: 15675392
I0505 14:44:21.514398 27066 layer_factory.hpp:77] Creating layer cont_48_lstm1_cont_slice_47_split
I0505 14:44:21.514401 27066 net.cpp:86] Creating Layer cont_48_lstm1_cont_slice_47_split
I0505 14:44:21.514403 27066 net.cpp:408] cont_48_lstm1_cont_slice_47_split <- cont_48
I0505 14:44:21.514406 27066 net.cpp:382] cont_48_lstm1_cont_slice_47_split -> cont_48_lstm1_cont_slice_47_split_0
I0505 14:44:21.514410 27066 net.cpp:382] cont_48_lstm1_cont_slice_47_split -> cont_48_lstm1_cont_slice_47_split_1
I0505 14:44:21.514427 27066 net.cpp:124] Setting up cont_48_lstm1_cont_slice_47_split
I0505 14:44:21.514430 27066 net.cpp:131] Top shape: 1 512 (512)
I0505 14:44:21.514432 27066 net.cpp:131] Top shape: 1 512 (512)
I0505 14:44:21.514434 27066 net.cpp:139] Memory required for data: 15679488
I0505 14:44:21.514436 27066 layer_factory.hpp:77] Creating layer cont_49_lstm1_cont_slice_48_split
I0505 14:44:21.514439 27066 net.cpp:86] Creating Layer cont_49_lstm1_cont_slice_48_split
I0505 14:44:21.514441 27066 net.cpp:408] cont_49_lstm1_cont_slice_48_split <- cont_49
I0505 14:44:21.514444 27066 net.cpp:382] cont_49_lstm1_cont_slice_48_split -> cont_49_lstm1_cont_slice_48_split_0
I0505 14:44:21.514447 27066 net.cpp:382] cont_49_lstm1_cont_slice_48_split -> cont_49_lstm1_cont_slice_48_split_1
I0505 14:44:21.514466 27066 net.cpp:124] Setting up cont_49_lstm1_cont_slice_48_split
I0505 14:44:21.514467 27066 net.cpp:131] Top shape: 1 512 (512)
I0505 14:44:21.514469 27066 net.cpp:131] Top shape: 1 512 (512)
I0505 14:44:21.514472 27066 net.cpp:139] Memory required for data: 15683584
I0505 14:44:21.514473 27066 layer_factory.hpp:77] Creating layer cont_50_lstm1_cont_slice_49_split
I0505 14:44:21.514477 27066 net.cpp:86] Creating Layer cont_50_lstm1_cont_slice_49_split
I0505 14:44:21.514479 27066 net.cpp:408] cont_50_lstm1_cont_slice_49_split <- cont_50
I0505 14:44:21.514487 27066 net.cpp:382] cont_50_lstm1_cont_slice_49_split -> cont_50_lstm1_cont_slice_49_split_0
I0505 14:44:21.514492 27066 net.cpp:382] cont_50_lstm1_cont_slice_49_split -> cont_50_lstm1_cont_slice_49_split_1
I0505 14:44:21.514509 27066 net.cpp:124] Setting up cont_50_lstm1_cont_slice_49_split
I0505 14:44:21.514513 27066 net.cpp:131] Top shape: 1 512 (512)
I0505 14:44:21.514514 27066 net.cpp:131] Top shape: 1 512 (512)
I0505 14:44:21.514516 27066 net.cpp:139] Memory required for data: 15687680
I0505 14:44:21.514518 27066 layer_factory.hpp:77] Creating layer cont_51_lstm1_cont_slice_50_split
I0505 14:44:21.514523 27066 net.cpp:86] Creating Layer cont_51_lstm1_cont_slice_50_split
I0505 14:44:21.514524 27066 net.cpp:408] cont_51_lstm1_cont_slice_50_split <- cont_51
I0505 14:44:21.514528 27066 net.cpp:382] cont_51_lstm1_cont_slice_50_split -> cont_51_lstm1_cont_slice_50_split_0
I0505 14:44:21.514531 27066 net.cpp:382] cont_51_lstm1_cont_slice_50_split -> cont_51_lstm1_cont_slice_50_split_1
I0505 14:44:21.514549 27066 net.cpp:124] Setting up cont_51_lstm1_cont_slice_50_split
I0505 14:44:21.514550 27066 net.cpp:131] Top shape: 1 512 (512)
I0505 14:44:21.514552 27066 net.cpp:131] Top shape: 1 512 (512)
I0505 14:44:21.514555 27066 net.cpp:139] Memory required for data: 15691776
I0505 14:44:21.514556 27066 layer_factory.hpp:77] Creating layer cont_52_lstm1_cont_slice_51_split
I0505 14:44:21.514559 27066 net.cpp:86] Creating Layer cont_52_lstm1_cont_slice_51_split
I0505 14:44:21.514561 27066 net.cpp:408] cont_52_lstm1_cont_slice_51_split <- cont_52
I0505 14:44:21.514565 27066 net.cpp:382] cont_52_lstm1_cont_slice_51_split -> cont_52_lstm1_cont_slice_51_split_0
I0505 14:44:21.514569 27066 net.cpp:382] cont_52_lstm1_cont_slice_51_split -> cont_52_lstm1_cont_slice_51_split_1
I0505 14:44:21.514585 27066 net.cpp:124] Setting up cont_52_lstm1_cont_slice_51_split
I0505 14:44:21.514588 27066 net.cpp:131] Top shape: 1 512 (512)
I0505 14:44:21.514590 27066 net.cpp:131] Top shape: 1 512 (512)
I0505 14:44:21.514593 27066 net.cpp:139] Memory required for data: 15695872
I0505 14:44:21.514595 27066 layer_factory.hpp:77] Creating layer cont_53_lstm1_cont_slice_52_split
I0505 14:44:21.514597 27066 net.cpp:86] Creating Layer cont_53_lstm1_cont_slice_52_split
I0505 14:44:21.514600 27066 net.cpp:408] cont_53_lstm1_cont_slice_52_split <- cont_53
I0505 14:44:21.514603 27066 net.cpp:382] cont_53_lstm1_cont_slice_52_split -> cont_53_lstm1_cont_slice_52_split_0
I0505 14:44:21.514606 27066 net.cpp:382] cont_53_lstm1_cont_slice_52_split -> cont_53_lstm1_cont_slice_52_split_1
I0505 14:44:21.514623 27066 net.cpp:124] Setting up cont_53_lstm1_cont_slice_52_split
I0505 14:44:21.514626 27066 net.cpp:131] Top shape: 1 512 (512)
I0505 14:44:21.514627 27066 net.cpp:131] Top shape: 1 512 (512)
I0505 14:44:21.514631 27066 net.cpp:139] Memory required for data: 15699968
I0505 14:44:21.514631 27066 layer_factory.hpp:77] Creating layer cont_54_lstm1_cont_slice_53_split
I0505 14:44:21.514634 27066 net.cpp:86] Creating Layer cont_54_lstm1_cont_slice_53_split
I0505 14:44:21.514636 27066 net.cpp:408] cont_54_lstm1_cont_slice_53_split <- cont_54
I0505 14:44:21.514639 27066 net.cpp:382] cont_54_lstm1_cont_slice_53_split -> cont_54_lstm1_cont_slice_53_split_0
I0505 14:44:21.514643 27066 net.cpp:382] cont_54_lstm1_cont_slice_53_split -> cont_54_lstm1_cont_slice_53_split_1
I0505 14:44:21.514660 27066 net.cpp:124] Setting up cont_54_lstm1_cont_slice_53_split
I0505 14:44:21.514662 27066 net.cpp:131] Top shape: 1 512 (512)
I0505 14:44:21.514664 27066 net.cpp:131] Top shape: 1 512 (512)
I0505 14:44:21.514667 27066 net.cpp:139] Memory required for data: 15704064
I0505 14:44:21.514669 27066 layer_factory.hpp:77] Creating layer cont_55_lstm1_cont_slice_54_split
I0505 14:44:21.514672 27066 net.cpp:86] Creating Layer cont_55_lstm1_cont_slice_54_split
I0505 14:44:21.514674 27066 net.cpp:408] cont_55_lstm1_cont_slice_54_split <- cont_55
I0505 14:44:21.514678 27066 net.cpp:382] cont_55_lstm1_cont_slice_54_split -> cont_55_lstm1_cont_slice_54_split_0
I0505 14:44:21.514686 27066 net.cpp:382] cont_55_lstm1_cont_slice_54_split -> cont_55_lstm1_cont_slice_54_split_1
I0505 14:44:21.514704 27066 net.cpp:124] Setting up cont_55_lstm1_cont_slice_54_split
I0505 14:44:21.514706 27066 net.cpp:131] Top shape: 1 512 (512)
I0505 14:44:21.514709 27066 net.cpp:131] Top shape: 1 512 (512)
I0505 14:44:21.514711 27066 net.cpp:139] Memory required for data: 15708160
I0505 14:44:21.514714 27066 layer_factory.hpp:77] Creating layer cont_56_lstm1_cont_slice_55_split
I0505 14:44:21.514716 27066 net.cpp:86] Creating Layer cont_56_lstm1_cont_slice_55_split
I0505 14:44:21.514719 27066 net.cpp:408] cont_56_lstm1_cont_slice_55_split <- cont_56
I0505 14:44:21.514721 27066 net.cpp:382] cont_56_lstm1_cont_slice_55_split -> cont_56_lstm1_cont_slice_55_split_0
I0505 14:44:21.514725 27066 net.cpp:382] cont_56_lstm1_cont_slice_55_split -> cont_56_lstm1_cont_slice_55_split_1
I0505 14:44:21.514742 27066 net.cpp:124] Setting up cont_56_lstm1_cont_slice_55_split
I0505 14:44:21.514744 27066 net.cpp:131] Top shape: 1 512 (512)
I0505 14:44:21.514747 27066 net.cpp:131] Top shape: 1 512 (512)
I0505 14:44:21.514750 27066 net.cpp:139] Memory required for data: 15712256
I0505 14:44:21.514751 27066 layer_factory.hpp:77] Creating layer cont_57_lstm1_cont_slice_56_split
I0505 14:44:21.514753 27066 net.cpp:86] Creating Layer cont_57_lstm1_cont_slice_56_split
I0505 14:44:21.514756 27066 net.cpp:408] cont_57_lstm1_cont_slice_56_split <- cont_57
I0505 14:44:21.514760 27066 net.cpp:382] cont_57_lstm1_cont_slice_56_split -> cont_57_lstm1_cont_slice_56_split_0
I0505 14:44:21.514762 27066 net.cpp:382] cont_57_lstm1_cont_slice_56_split -> cont_57_lstm1_cont_slice_56_split_1
I0505 14:44:21.514780 27066 net.cpp:124] Setting up cont_57_lstm1_cont_slice_56_split
I0505 14:44:21.514781 27066 net.cpp:131] Top shape: 1 512 (512)
I0505 14:44:21.514783 27066 net.cpp:131] Top shape: 1 512 (512)
I0505 14:44:21.514786 27066 net.cpp:139] Memory required for data: 15716352
I0505 14:44:21.514788 27066 layer_factory.hpp:77] Creating layer cont_58_lstm1_cont_slice_57_split
I0505 14:44:21.514791 27066 net.cpp:86] Creating Layer cont_58_lstm1_cont_slice_57_split
I0505 14:44:21.514793 27066 net.cpp:408] cont_58_lstm1_cont_slice_57_split <- cont_58
I0505 14:44:21.514796 27066 net.cpp:382] cont_58_lstm1_cont_slice_57_split -> cont_58_lstm1_cont_slice_57_split_0
I0505 14:44:21.514799 27066 net.cpp:382] cont_58_lstm1_cont_slice_57_split -> cont_58_lstm1_cont_slice_57_split_1
I0505 14:44:21.514816 27066 net.cpp:124] Setting up cont_58_lstm1_cont_slice_57_split
I0505 14:44:21.514818 27066 net.cpp:131] Top shape: 1 512 (512)
I0505 14:44:21.514822 27066 net.cpp:131] Top shape: 1 512 (512)
I0505 14:44:21.514823 27066 net.cpp:139] Memory required for data: 15720448
I0505 14:44:21.514825 27066 layer_factory.hpp:77] Creating layer cont_59_lstm1_cont_slice_58_split
I0505 14:44:21.514828 27066 net.cpp:86] Creating Layer cont_59_lstm1_cont_slice_58_split
I0505 14:44:21.514830 27066 net.cpp:408] cont_59_lstm1_cont_slice_58_split <- cont_59
I0505 14:44:21.514833 27066 net.cpp:382] cont_59_lstm1_cont_slice_58_split -> cont_59_lstm1_cont_slice_58_split_0
I0505 14:44:21.514837 27066 net.cpp:382] cont_59_lstm1_cont_slice_58_split -> cont_59_lstm1_cont_slice_58_split_1
I0505 14:44:21.514853 27066 net.cpp:124] Setting up cont_59_lstm1_cont_slice_58_split
I0505 14:44:21.514855 27066 net.cpp:131] Top shape: 1 512 (512)
I0505 14:44:21.514858 27066 net.cpp:131] Top shape: 1 512 (512)
I0505 14:44:21.514860 27066 net.cpp:139] Memory required for data: 15724544
I0505 14:44:21.514863 27066 layer_factory.hpp:77] Creating layer cont_60_lstm1_cont_slice_59_split
I0505 14:44:21.514865 27066 net.cpp:86] Creating Layer cont_60_lstm1_cont_slice_59_split
I0505 14:44:21.514868 27066 net.cpp:408] cont_60_lstm1_cont_slice_59_split <- cont_60
I0505 14:44:21.514870 27066 net.cpp:382] cont_60_lstm1_cont_slice_59_split -> cont_60_lstm1_cont_slice_59_split_0
I0505 14:44:21.514874 27066 net.cpp:382] cont_60_lstm1_cont_slice_59_split -> cont_60_lstm1_cont_slice_59_split_1
I0505 14:44:21.514899 27066 net.cpp:124] Setting up cont_60_lstm1_cont_slice_59_split
I0505 14:44:21.514900 27066 net.cpp:131] Top shape: 1 512 (512)
I0505 14:44:21.514904 27066 net.cpp:131] Top shape: 1 512 (512)
I0505 14:44:21.514905 27066 net.cpp:139] Memory required for data: 15728640
I0505 14:44:21.514907 27066 layer_factory.hpp:77] Creating layer cont_61_lstm1_cont_slice_60_split
I0505 14:44:21.514910 27066 net.cpp:86] Creating Layer cont_61_lstm1_cont_slice_60_split
I0505 14:44:21.514912 27066 net.cpp:408] cont_61_lstm1_cont_slice_60_split <- cont_61
I0505 14:44:21.518065 27066 net.cpp:382] cont_61_lstm1_cont_slice_60_split -> cont_61_lstm1_cont_slice_60_split_0
I0505 14:44:21.518086 27066 net.cpp:382] cont_61_lstm1_cont_slice_60_split -> cont_61_lstm1_cont_slice_60_split_1
I0505 14:44:21.518158 27066 net.cpp:124] Setting up cont_61_lstm1_cont_slice_60_split
I0505 14:44:21.518164 27066 net.cpp:131] Top shape: 1 512 (512)
I0505 14:44:21.518170 27066 net.cpp:131] Top shape: 1 512 (512)
I0505 14:44:21.518175 27066 net.cpp:139] Memory required for data: 15732736
I0505 14:44:21.518180 27066 layer_factory.hpp:77] Creating layer cont_62_lstm1_cont_slice_61_split
I0505 14:44:21.518190 27066 net.cpp:86] Creating Layer cont_62_lstm1_cont_slice_61_split
I0505 14:44:21.518195 27066 net.cpp:408] cont_62_lstm1_cont_slice_61_split <- cont_62
I0505 14:44:21.518203 27066 net.cpp:382] cont_62_lstm1_cont_slice_61_split -> cont_62_lstm1_cont_slice_61_split_0
I0505 14:44:21.518213 27066 net.cpp:382] cont_62_lstm1_cont_slice_61_split -> cont_62_lstm1_cont_slice_61_split_1
I0505 14:44:21.518255 27066 net.cpp:124] Setting up cont_62_lstm1_cont_slice_61_split
I0505 14:44:21.518260 27066 net.cpp:131] Top shape: 1 512 (512)
I0505 14:44:21.518265 27066 net.cpp:131] Top shape: 1 512 (512)
I0505 14:44:21.518270 27066 net.cpp:139] Memory required for data: 15736832
I0505 14:44:21.518275 27066 layer_factory.hpp:77] Creating layer cont_63_lstm1_cont_slice_62_split
I0505 14:44:21.518280 27066 net.cpp:86] Creating Layer cont_63_lstm1_cont_slice_62_split
I0505 14:44:21.518285 27066 net.cpp:408] cont_63_lstm1_cont_slice_62_split <- cont_63
I0505 14:44:21.518291 27066 net.cpp:382] cont_63_lstm1_cont_slice_62_split -> cont_63_lstm1_cont_slice_62_split_0
I0505 14:44:21.518299 27066 net.cpp:382] cont_63_lstm1_cont_slice_62_split -> cont_63_lstm1_cont_slice_62_split_1
I0505 14:44:21.518337 27066 net.cpp:124] Setting up cont_63_lstm1_cont_slice_62_split
I0505 14:44:21.518342 27066 net.cpp:131] Top shape: 1 512 (512)
I0505 14:44:21.518347 27066 net.cpp:131] Top shape: 1 512 (512)
I0505 14:44:21.518352 27066 net.cpp:139] Memory required for data: 15740928
I0505 14:44:21.518355 27066 layer_factory.hpp:77] Creating layer cont_64_lstm1_cont_slice_63_split
I0505 14:44:21.518362 27066 net.cpp:86] Creating Layer cont_64_lstm1_cont_slice_63_split
I0505 14:44:21.518365 27066 net.cpp:408] cont_64_lstm1_cont_slice_63_split <- cont_64
I0505 14:44:21.518373 27066 net.cpp:382] cont_64_lstm1_cont_slice_63_split -> cont_64_lstm1_cont_slice_63_split_0
I0505 14:44:21.518379 27066 net.cpp:382] cont_64_lstm1_cont_slice_63_split -> cont_64_lstm1_cont_slice_63_split_1
I0505 14:44:21.518414 27066 net.cpp:124] Setting up cont_64_lstm1_cont_slice_63_split
I0505 14:44:21.518419 27066 net.cpp:131] Top shape: 1 512 (512)
I0505 14:44:21.518424 27066 net.cpp:131] Top shape: 1 512 (512)
I0505 14:44:21.518429 27066 net.cpp:139] Memory required for data: 15745024
I0505 14:44:21.518432 27066 layer_factory.hpp:77] Creating layer cont_65_lstm1_cont_slice_64_split
I0505 14:44:21.518438 27066 net.cpp:86] Creating Layer cont_65_lstm1_cont_slice_64_split
I0505 14:44:21.518442 27066 net.cpp:408] cont_65_lstm1_cont_slice_64_split <- cont_65
I0505 14:44:21.518448 27066 net.cpp:382] cont_65_lstm1_cont_slice_64_split -> cont_65_lstm1_cont_slice_64_split_0
I0505 14:44:21.518455 27066 net.cpp:382] cont_65_lstm1_cont_slice_64_split -> cont_65_lstm1_cont_slice_64_split_1
I0505 14:44:21.518491 27066 net.cpp:124] Setting up cont_65_lstm1_cont_slice_64_split
I0505 14:44:21.518496 27066 net.cpp:131] Top shape: 1 512 (512)
I0505 14:44:21.518522 27066 net.cpp:131] Top shape: 1 512 (512)
I0505 14:44:21.518527 27066 net.cpp:139] Memory required for data: 15749120
I0505 14:44:21.518532 27066 layer_factory.hpp:77] Creating layer cont_66_lstm1_cont_slice_65_split
I0505 14:44:21.518537 27066 net.cpp:86] Creating Layer cont_66_lstm1_cont_slice_65_split
I0505 14:44:21.518543 27066 net.cpp:408] cont_66_lstm1_cont_slice_65_split <- cont_66
I0505 14:44:21.518548 27066 net.cpp:382] cont_66_lstm1_cont_slice_65_split -> cont_66_lstm1_cont_slice_65_split_0
I0505 14:44:21.518556 27066 net.cpp:382] cont_66_lstm1_cont_slice_65_split -> cont_66_lstm1_cont_slice_65_split_1
I0505 14:44:21.518594 27066 net.cpp:124] Setting up cont_66_lstm1_cont_slice_65_split
I0505 14:44:21.518599 27066 net.cpp:131] Top shape: 1 512 (512)
I0505 14:44:21.518604 27066 net.cpp:131] Top shape: 1 512 (512)
I0505 14:44:21.518609 27066 net.cpp:139] Memory required for data: 15753216
I0505 14:44:21.518611 27066 layer_factory.hpp:77] Creating layer cont_67_lstm1_cont_slice_66_split
I0505 14:44:21.518617 27066 net.cpp:86] Creating Layer cont_67_lstm1_cont_slice_66_split
I0505 14:44:21.518621 27066 net.cpp:408] cont_67_lstm1_cont_slice_66_split <- cont_67
I0505 14:44:21.518627 27066 net.cpp:382] cont_67_lstm1_cont_slice_66_split -> cont_67_lstm1_cont_slice_66_split_0
I0505 14:44:21.518635 27066 net.cpp:382] cont_67_lstm1_cont_slice_66_split -> cont_67_lstm1_cont_slice_66_split_1
I0505 14:44:21.518669 27066 net.cpp:124] Setting up cont_67_lstm1_cont_slice_66_split
I0505 14:44:21.518673 27066 net.cpp:131] Top shape: 1 512 (512)
I0505 14:44:21.518678 27066 net.cpp:131] Top shape: 1 512 (512)
I0505 14:44:21.518682 27066 net.cpp:139] Memory required for data: 15757312
I0505 14:44:21.518687 27066 layer_factory.hpp:77] Creating layer cont_68_lstm1_cont_slice_67_split
I0505 14:44:21.518692 27066 net.cpp:86] Creating Layer cont_68_lstm1_cont_slice_67_split
I0505 14:44:21.518697 27066 net.cpp:408] cont_68_lstm1_cont_slice_67_split <- cont_68
I0505 14:44:21.518702 27066 net.cpp:382] cont_68_lstm1_cont_slice_67_split -> cont_68_lstm1_cont_slice_67_split_0
I0505 14:44:21.518709 27066 net.cpp:382] cont_68_lstm1_cont_slice_67_split -> cont_68_lstm1_cont_slice_67_split_1
I0505 14:44:21.518743 27066 net.cpp:124] Setting up cont_68_lstm1_cont_slice_67_split
I0505 14:44:21.518748 27066 net.cpp:131] Top shape: 1 512 (512)
I0505 14:44:21.518752 27066 net.cpp:131] Top shape: 1 512 (512)
I0505 14:44:21.518757 27066 net.cpp:139] Memory required for data: 15761408
I0505 14:44:21.518760 27066 layer_factory.hpp:77] Creating layer cont_69_lstm1_cont_slice_68_split
I0505 14:44:21.518766 27066 net.cpp:86] Creating Layer cont_69_lstm1_cont_slice_68_split
I0505 14:44:21.518770 27066 net.cpp:408] cont_69_lstm1_cont_slice_68_split <- cont_69
I0505 14:44:21.518776 27066 net.cpp:382] cont_69_lstm1_cont_slice_68_split -> cont_69_lstm1_cont_slice_68_split_0
I0505 14:44:21.518784 27066 net.cpp:382] cont_69_lstm1_cont_slice_68_split -> cont_69_lstm1_cont_slice_68_split_1
I0505 14:44:21.518817 27066 net.cpp:124] Setting up cont_69_lstm1_cont_slice_68_split
I0505 14:44:21.518822 27066 net.cpp:131] Top shape: 1 512 (512)
I0505 14:44:21.518827 27066 net.cpp:131] Top shape: 1 512 (512)
I0505 14:44:21.518831 27066 net.cpp:139] Memory required for data: 15765504
I0505 14:44:21.518836 27066 layer_factory.hpp:77] Creating layer cont_70_lstm1_cont_slice_69_split
I0505 14:44:21.518841 27066 net.cpp:86] Creating Layer cont_70_lstm1_cont_slice_69_split
I0505 14:44:21.518846 27066 net.cpp:408] cont_70_lstm1_cont_slice_69_split <- cont_70
I0505 14:44:21.518851 27066 net.cpp:382] cont_70_lstm1_cont_slice_69_split -> cont_70_lstm1_cont_slice_69_split_0
I0505 14:44:21.518859 27066 net.cpp:382] cont_70_lstm1_cont_slice_69_split -> cont_70_lstm1_cont_slice_69_split_1
I0505 14:44:21.518893 27066 net.cpp:124] Setting up cont_70_lstm1_cont_slice_69_split
I0505 14:44:21.518898 27066 net.cpp:131] Top shape: 1 512 (512)
I0505 14:44:21.518903 27066 net.cpp:131] Top shape: 1 512 (512)
I0505 14:44:21.518906 27066 net.cpp:139] Memory required for data: 15769600
I0505 14:44:21.518921 27066 layer_factory.hpp:77] Creating layer cont_71_lstm1_cont_slice_70_split
I0505 14:44:21.518929 27066 net.cpp:86] Creating Layer cont_71_lstm1_cont_slice_70_split
I0505 14:44:21.518932 27066 net.cpp:408] cont_71_lstm1_cont_slice_70_split <- cont_71
I0505 14:44:21.518939 27066 net.cpp:382] cont_71_lstm1_cont_slice_70_split -> cont_71_lstm1_cont_slice_70_split_0
I0505 14:44:21.518946 27066 net.cpp:382] cont_71_lstm1_cont_slice_70_split -> cont_71_lstm1_cont_slice_70_split_1
I0505 14:44:21.526633 27066 net.cpp:124] Setting up cont_71_lstm1_cont_slice_70_split
I0505 14:44:21.526645 27066 net.cpp:131] Top shape: 1 512 (512)
I0505 14:44:21.526652 27066 net.cpp:131] Top shape: 1 512 (512)
I0505 14:44:21.526659 27066 net.cpp:139] Memory required for data: 15773696
I0505 14:44:21.526664 27066 layer_factory.hpp:77] Creating layer cont_72_lstm1_cont_slice_71_split
I0505 14:44:21.526672 27066 net.cpp:86] Creating Layer cont_72_lstm1_cont_slice_71_split
I0505 14:44:21.526679 27066 net.cpp:408] cont_72_lstm1_cont_slice_71_split <- cont_72
I0505 14:44:21.526687 27066 net.cpp:382] cont_72_lstm1_cont_slice_71_split -> cont_72_lstm1_cont_slice_71_split_0
I0505 14:44:21.526695 27066 net.cpp:382] cont_72_lstm1_cont_slice_71_split -> cont_72_lstm1_cont_slice_71_split_1
I0505 14:44:21.526734 27066 net.cpp:124] Setting up cont_72_lstm1_cont_slice_71_split
I0505 14:44:21.526739 27066 net.cpp:131] Top shape: 1 512 (512)
I0505 14:44:21.526746 27066 net.cpp:131] Top shape: 1 512 (512)
I0505 14:44:21.526751 27066 net.cpp:139] Memory required for data: 15777792
I0505 14:44:21.526756 27066 layer_factory.hpp:77] Creating layer cont_73_lstm1_cont_slice_72_split
I0505 14:44:21.526762 27066 net.cpp:86] Creating Layer cont_73_lstm1_cont_slice_72_split
I0505 14:44:21.526767 27066 net.cpp:408] cont_73_lstm1_cont_slice_72_split <- cont_73
I0505 14:44:21.526774 27066 net.cpp:382] cont_73_lstm1_cont_slice_72_split -> cont_73_lstm1_cont_slice_72_split_0
I0505 14:44:21.526783 27066 net.cpp:382] cont_73_lstm1_cont_slice_72_split -> cont_73_lstm1_cont_slice_72_split_1
I0505 14:44:21.526821 27066 net.cpp:124] Setting up cont_73_lstm1_cont_slice_72_split
I0505 14:44:21.526826 27066 net.cpp:131] Top shape: 1 512 (512)
I0505 14:44:21.526832 27066 net.cpp:131] Top shape: 1 512 (512)
I0505 14:44:21.526839 27066 net.cpp:139] Memory required for data: 15781888
I0505 14:44:21.526842 27066 layer_factory.hpp:77] Creating layer cont_74_lstm1_cont_slice_73_split
I0505 14:44:21.526849 27066 net.cpp:86] Creating Layer cont_74_lstm1_cont_slice_73_split
I0505 14:44:21.526854 27066 net.cpp:408] cont_74_lstm1_cont_slice_73_split <- cont_74
I0505 14:44:21.526861 27066 net.cpp:382] cont_74_lstm1_cont_slice_73_split -> cont_74_lstm1_cont_slice_73_split_0
I0505 14:44:21.526870 27066 net.cpp:382] cont_74_lstm1_cont_slice_73_split -> cont_74_lstm1_cont_slice_73_split_1
I0505 14:44:21.526907 27066 net.cpp:124] Setting up cont_74_lstm1_cont_slice_73_split
I0505 14:44:21.526912 27066 net.cpp:131] Top shape: 1 512 (512)
I0505 14:44:21.526918 27066 net.cpp:131] Top shape: 1 512 (512)
I0505 14:44:21.526923 27066 net.cpp:139] Memory required for data: 15785984
I0505 14:44:21.526927 27066 layer_factory.hpp:77] Creating layer cont_75_lstm1_cont_slice_74_split
I0505 14:44:21.526934 27066 net.cpp:86] Creating Layer cont_75_lstm1_cont_slice_74_split
I0505 14:44:21.526939 27066 net.cpp:408] cont_75_lstm1_cont_slice_74_split <- cont_75
I0505 14:44:21.526947 27066 net.cpp:382] cont_75_lstm1_cont_slice_74_split -> cont_75_lstm1_cont_slice_74_split_0
I0505 14:44:21.526954 27066 net.cpp:382] cont_75_lstm1_cont_slice_74_split -> cont_75_lstm1_cont_slice_74_split_1
I0505 14:44:21.526993 27066 net.cpp:124] Setting up cont_75_lstm1_cont_slice_74_split
I0505 14:44:21.526998 27066 net.cpp:131] Top shape: 1 512 (512)
I0505 14:44:21.527004 27066 net.cpp:131] Top shape: 1 512 (512)
I0505 14:44:21.527009 27066 net.cpp:139] Memory required for data: 15790080
I0505 14:44:21.527014 27066 layer_factory.hpp:77] Creating layer cont_76_lstm1_cont_slice_75_split
I0505 14:44:21.527040 27066 net.cpp:86] Creating Layer cont_76_lstm1_cont_slice_75_split
I0505 14:44:21.527045 27066 net.cpp:408] cont_76_lstm1_cont_slice_75_split <- cont_76
I0505 14:44:21.527052 27066 net.cpp:382] cont_76_lstm1_cont_slice_75_split -> cont_76_lstm1_cont_slice_75_split_0
I0505 14:44:21.527060 27066 net.cpp:382] cont_76_lstm1_cont_slice_75_split -> cont_76_lstm1_cont_slice_75_split_1
I0505 14:44:21.527101 27066 net.cpp:124] Setting up cont_76_lstm1_cont_slice_75_split
I0505 14:44:21.527107 27066 net.cpp:131] Top shape: 1 512 (512)
I0505 14:44:21.527113 27066 net.cpp:131] Top shape: 1 512 (512)
I0505 14:44:21.527118 27066 net.cpp:139] Memory required for data: 15794176
I0505 14:44:21.527123 27066 layer_factory.hpp:77] Creating layer cont_77_lstm1_cont_slice_76_split
I0505 14:44:21.527129 27066 net.cpp:86] Creating Layer cont_77_lstm1_cont_slice_76_split
I0505 14:44:21.527134 27066 net.cpp:408] cont_77_lstm1_cont_slice_76_split <- cont_77
I0505 14:44:21.527142 27066 net.cpp:382] cont_77_lstm1_cont_slice_76_split -> cont_77_lstm1_cont_slice_76_split_0
I0505 14:44:21.527149 27066 net.cpp:382] cont_77_lstm1_cont_slice_76_split -> cont_77_lstm1_cont_slice_76_split_1
I0505 14:44:21.527187 27066 net.cpp:124] Setting up cont_77_lstm1_cont_slice_76_split
I0505 14:44:21.527192 27066 net.cpp:131] Top shape: 1 512 (512)
I0505 14:44:21.527197 27066 net.cpp:131] Top shape: 1 512 (512)
I0505 14:44:21.527204 27066 net.cpp:139] Memory required for data: 15798272
I0505 14:44:21.527207 27066 layer_factory.hpp:77] Creating layer cont_78_lstm1_cont_slice_77_split
I0505 14:44:21.527213 27066 net.cpp:86] Creating Layer cont_78_lstm1_cont_slice_77_split
I0505 14:44:21.527218 27066 net.cpp:408] cont_78_lstm1_cont_slice_77_split <- cont_78
I0505 14:44:21.527226 27066 net.cpp:382] cont_78_lstm1_cont_slice_77_split -> cont_78_lstm1_cont_slice_77_split_0
I0505 14:44:21.527235 27066 net.cpp:382] cont_78_lstm1_cont_slice_77_split -> cont_78_lstm1_cont_slice_77_split_1
I0505 14:44:21.527271 27066 net.cpp:124] Setting up cont_78_lstm1_cont_slice_77_split
I0505 14:44:21.527276 27066 net.cpp:131] Top shape: 1 512 (512)
I0505 14:44:21.527282 27066 net.cpp:131] Top shape: 1 512 (512)
I0505 14:44:21.527300 27066 net.cpp:139] Memory required for data: 15802368
I0505 14:44:21.527305 27066 layer_factory.hpp:77] Creating layer cont_79_lstm1_cont_slice_78_split
I0505 14:44:21.527312 27066 net.cpp:86] Creating Layer cont_79_lstm1_cont_slice_78_split
I0505 14:44:21.527318 27066 net.cpp:408] cont_79_lstm1_cont_slice_78_split <- cont_79
I0505 14:44:21.527323 27066 net.cpp:382] cont_79_lstm1_cont_slice_78_split -> cont_79_lstm1_cont_slice_78_split_0
I0505 14:44:21.527330 27066 net.cpp:382] cont_79_lstm1_cont_slice_78_split -> cont_79_lstm1_cont_slice_78_split_1
I0505 14:44:21.527366 27066 net.cpp:124] Setting up cont_79_lstm1_cont_slice_78_split
I0505 14:44:21.527371 27066 net.cpp:131] Top shape: 1 512 (512)
I0505 14:44:21.527376 27066 net.cpp:131] Top shape: 1 512 (512)
I0505 14:44:21.527380 27066 net.cpp:139] Memory required for data: 15806464
I0505 14:44:21.527384 27066 layer_factory.hpp:77] Creating layer cont_80_lstm1_cont_slice_79_split
I0505 14:44:21.527390 27066 net.cpp:86] Creating Layer cont_80_lstm1_cont_slice_79_split
I0505 14:44:21.527395 27066 net.cpp:408] cont_80_lstm1_cont_slice_79_split <- cont_80
I0505 14:44:21.527400 27066 net.cpp:382] cont_80_lstm1_cont_slice_79_split -> cont_80_lstm1_cont_slice_79_split_0
I0505 14:44:21.527408 27066 net.cpp:382] cont_80_lstm1_cont_slice_79_split -> cont_80_lstm1_cont_slice_79_split_1
I0505 14:44:21.527443 27066 net.cpp:124] Setting up cont_80_lstm1_cont_slice_79_split
I0505 14:44:21.527447 27066 net.cpp:131] Top shape: 1 512 (512)
I0505 14:44:21.527452 27066 net.cpp:131] Top shape: 1 512 (512)
I0505 14:44:21.527456 27066 net.cpp:139] Memory required for data: 15810560
I0505 14:44:21.527460 27066 layer_factory.hpp:77] Creating layer lstm1_x_transform
I0505 14:44:21.527472 27066 net.cpp:86] Creating Layer lstm1_x_transform
I0505 14:44:21.527475 27066 net.cpp:408] lstm1_x_transform <- x
I0505 14:44:21.527498 27066 net.cpp:382] lstm1_x_transform -> W_xc_x
I0505 14:44:21.530431 27066 net.cpp:124] Setting up lstm1_x_transform
I0505 14:44:21.530452 27066 net.cpp:131] Top shape: 80 512 400 (16384000)
I0505 14:44:21.530459 27066 net.cpp:139] Memory required for data: 81346560
I0505 14:44:21.530483 27066 layer_factory.hpp:77] Creating layer lstm1_W_xc_x_slice
I0505 14:44:21.530501 27066 net.cpp:86] Creating Layer lstm1_W_xc_x_slice
I0505 14:44:21.534214 27066 net.cpp:408] lstm1_W_xc_x_slice <- W_xc_x
I0505 14:44:21.534231 27066 net.cpp:382] lstm1_W_xc_x_slice -> W_xc_x_1
I0505 14:44:21.534245 27066 net.cpp:382] lstm1_W_xc_x_slice -> W_xc_x_2
…
I0505 14:44:21.534974 27066 net.cpp:382] lstm1_W_xc_x_slice -> W_xc_x_74
I0505 14:44:21.534983 27066 net.cpp:382] lstm1_W_xc_x_slice -> W_xc_x_75
I0505 14:44:21.534993 27066 net.cpp:382] lstm1_W_xc_x_slice -> W_xc_x_76
I0505 14:44:21.535002 27066 net.cpp:382] lstm1_W_xc_x_slice -> W_xc_x_77
I0505 14:44:21.535012 27066 net.cpp:382] lstm1_W_xc_x_slice -> W_xc_x_78
I0505 14:44:21.535022 27066 net.cpp:382] lstm1_W_xc_x_slice -> W_xc_x_79
I0505 14:44:21.535032 27066 net.cpp:382] lstm1_W_xc_x_slice -> W_xc_x_80
I0505 14:44:21.535868 27066 net.cpp:124] Setting up lstm1_W_xc_x_slice
I0505 14:44:21.535876 27066 net.cpp:131] Top shape: 1 512 400 (204800)
I0505 14:44:21.535882 27066 net.cpp:131] Top shape: 1 512 400 (204800)
I0505 14:44:21.535885 27066 net.cpp:131] Top shape: 1 512 400 (204800)
I0505 14:44:21.535889 27066 net.cpp:131] Top shape: 1 512 400 (204800)
I0505 14:44:21.535893 27066 net.cpp:131] Top shape: 1 512 400 (204800)
I0505 14:44:21.535897 27066 net.cpp:131] Top shape: 1 512 400 (204800)
I0505 14:44:21.535902 27066 net.cpp:131] Top shape: 1 512 400 (204800)
I0505 14:44:21.535904 27066 net.cpp:131] Top shape: 1 512 400 (204800)
I0505 14:44:21.535908 27066 net.cpp:131] Top shape: 1 512 400 (204800)
I0505 14:44:21.535912 27066 net.cpp:131] Top shape: 1 512 400 (204800)
I0505 14:44:21.535917 27066 net.cpp:131] Top shape: 1 512 400 (204800)
I0505 14:44:21.535920 27066 net.cpp:131] Top shape: 1 512 400 (204800)
I0505 14:44:21.535924 27066 net.cpp:131] Top shape: 1 512 400 (204800)
I0505 14:44:21.535928 27066 net.cpp:131] Top shape: 1 512 400 (204800)
I0505 14:44:21.535931 27066 net.cpp:131] Top shape: 1 512 400 (204800)
I0505 14:44:21.535935 27066 net.cpp:131] Top shape: 1 512 400 (204800)
I0505 14:44:21.535939 27066 net.cpp:131] Top shape: 1 512 400 (204800)
I0505 14:44:21.535943 27066 net.cpp:131] Top shape: 1 512 400 (204800)
I0505 14:44:21.535946 27066 net.cpp:131] Top shape: 1 512 400 (204800)
I0505 14:44:21.535950 27066 net.cpp:131] Top shape: 1 512 400 (204800)
I0505 14:44:21.535954 27066 net.cpp:131] Top shape: 1 512 400 (204800)
I0505 14:44:21.535957 27066 net.cpp:131] Top shape: 1 512 400 (204800)
I0505 14:44:21.535961 27066 net.cpp:131] Top shape: 1 512 400 (204800)
I0505 14:44:21.535965 27066 net.cpp:131] Top shape: 1 512 400 (204800)
I0505 14:44:21.535969 27066 net.cpp:131] Top shape: 1 512 400 (204800)
I0505 14:44:21.535984 27066 net.cpp:131] Top shape: 1 512 400 (204800)
I0505 14:44:21.535989 27066 net.cpp:131] Top shape: 1 512 400 (204800)
I0505 14:44:21.535992 27066 net.cpp:131] Top shape: 1 512 400 (204800)
I0505 14:44:21.535995 27066 net.cpp:131] Top shape: 1 512 400 (204800)
I0505 14:44:21.536000 27066 net.cpp:131] Top shape: 1 512 400 (204800)
I0505 14:44:21.541625 27066 net.cpp:131] Top shape: 1 512 400 (204800)
I0505 14:44:21.541642 27066 net.cpp:131] Top shape: 1 512 400 (204800)
I0505 14:44:21.541651 27066 net.cpp:131] Top shape: 1 512 400 (204800)
I0505 14:44:21.541661 27066 net.cpp:131] Top shape: 1 512 400 (204800)
I0505 14:44:21.541668 27066 net.cpp:131] Top shape: 1 512 400 (204800)
I0505 14:44:21.541676 27066 net.cpp:131] Top shape: 1 512 400 (204800)
I0505 14:44:21.541685 27066 net.cpp:131] Top shape: 1 512 400 (204800)
I0505 14:44:21.541693 27066 net.cpp:131] Top shape: 1 512 400 (204800)
I0505 14:44:21.541702 27066 net.cpp:131] Top shape: 1 512 400 (204800)
I0505 14:44:21.541710 27066 net.cpp:131] Top shape: 1 512 400 (204800)
I0505 14:44:21.541718 27066 net.cpp:131] Top shape: 1 512 400 (204800)
I0505 14:44:21.541728 27066 net.cpp:131] Top shape: 1 512 400 (204800)
I0505 14:44:21.541735 27066 net.cpp:131] Top shape: 1 512 400 (204800)
I0505 14:44:21.541744 27066 net.cpp:131] Top shape: 1 512 400 (204800)
I0505 14:44:21.541752 27066 net.cpp:131] Top shape: 1 512 400 (204800)
I0505 14:44:21.541760 27066 net.cpp:131] Top shape: 1 512 400 (204800)
I0505 14:44:21.541769 27066 net.cpp:131] Top shape: 1 512 400 (204800)
I0505 14:44:21.541777 27066 net.cpp:131] Top shape: 1 512 400 (204800)
I0505 14:44:21.541785 27066 net.cpp:131] Top shape: 1 512 400 (204800)
I0505 14:44:21.541795 27066 net.cpp:131] Top shape: 1 512 400 (204800)
I0505 14:44:21.541802 27066 net.cpp:131] Top shape: 1 512 400 (204800)
I0505 14:44:21.541811 27066 net.cpp:131] Top shape: 1 512 400 (204800)
I0505 14:44:21.541819 27066 net.cpp:131] Top shape: 1 512 400 (204800)
I0505 14:44:21.541827 27066 net.cpp:131] Top shape: 1 512 400 (204800)
I0505 14:44:21.541836 27066 net.cpp:131] Top shape: 1 512 400 (204800)
I0505 14:44:21.541844 27066 net.cpp:131] Top shape: 1 512 400 (204800)
I0505 14:44:21.541852 27066 net.cpp:131] Top shape: 1 512 400 (204800)
I0505 14:44:21.541860 27066 net.cpp:131] Top shape: 1 512 400 (204800)
I0505 14:44:21.541868 27066 net.cpp:131] Top shape: 1 512 400 (204800)
I0505 14:44:21.541877 27066 net.cpp:131] Top shape: 1 512 400 (204800)
I0505 14:44:21.541885 27066 net.cpp:131] Top shape: 1 512 400 (204800)
I0505 14:44:21.541893 27066 net.cpp:131] Top shape: 1 512 400 (204800)
I0505 14:44:21.541901 27066 net.cpp:131] Top shape: 1 512 400 (204800)
I0505 14:44:21.541910 27066 net.cpp:131] Top shape: 1 512 400 (204800)
I0505 14:44:21.541918 27066 net.cpp:131] Top shape: 1 512 400 (204800)
I0505 14:44:21.541926 27066 net.cpp:131] Top shape: 1 512 400 (204800)
I0505 14:44:21.541934 27066 net.cpp:131] Top shape: 1 512 400 (204800)
I0505 14:44:21.541942 27066 net.cpp:131] Top shape: 1 512 400 (204800)
I0505 14:44:21.541951 27066 net.cpp:131] Top shape: 1 512 400 (204800)
I0505 14:44:21.541960 27066 net.cpp:131] Top shape: 1 512 400 (204800)
I0505 14:44:21.541967 27066 net.cpp:131] Top shape: 1 512 400 (204800)
I0505 14:44:21.541976 27066 net.cpp:131] Top shape: 1 512 400 (204800)
I0505 14:44:21.541985 27066 net.cpp:131] Top shape: 1 512 400 (204800)
I0505 14:44:21.541992 27066 net.cpp:131] Top shape: 1 512 400 (204800)
I0505 14:44:21.542001 27066 net.cpp:131] Top shape: 1 512 400 (204800)
I0505 14:44:21.542009 27066 net.cpp:131] Top shape: 1 512 400 (204800)
I0505 14:44:21.542017 27066 net.cpp:131] Top shape: 1 512 400 (204800)
I0505 14:44:21.542026 27066 net.cpp:131] Top shape: 1 512 400 (204800)
I0505 14:44:21.542033 27066 net.cpp:131] Top shape: 1 512 400 (204800)
I0505 14:44:21.542042 27066 net.cpp:131] Top shape: 1 512 400 (204800)
I0505 14:44:21.542050 27066 net.cpp:139] Memory required for data: 146882560
I0505 14:44:21.542059 27066 layer_factory.hpp:77] Creating layer lstm1_h_conted_0
I0505 14:44:21.542078 27066 net.cpp:86] Creating Layer lstm1_h_conted_0
I0505 14:44:21.542119 27066 net.cpp:408] lstm1_h_conted_0 <- h_0
I0505 14:44:21.542136 27066 net.cpp:408] lstm1_h_conted_0 <- cont_1_lstm1_cont_slice_0_split_0
I0505 14:44:21.542151 27066 net.cpp:382] lstm1_h_conted_0 -> h_conted_0
I0505 14:44:21.542305 27066 net.cpp:124] Setting up lstm1_h_conted_0
I0505 14:44:21.542318 27066 net.cpp:131] Top shape: 1 512 100 (51200)
I0505 14:44:21.542330 27066 net.cpp:139] Memory required for data: 147087360
I0505 14:44:21.542336 27066 layer_factory.hpp:77] Creating layer lstm1_transform_1
I0505 14:44:21.542351 27066 net.cpp:86] Creating Layer lstm1_transform_1
I0505 14:44:21.542361 27066 net.cpp:408] lstm1_transform_1 <- h_conted_0
I0505 14:44:21.542371 27066 net.cpp:382] lstm1_transform_1 -> W_hc_h_0
I0505 14:44:21.542969 27066 net.cpp:124] Setting up lstm1_transform_1
I0505 14:44:21.542981 27066 net.cpp:131] Top shape: 1 512 400 (204800)
I0505 14:44:21.542991 27066 net.cpp:139] Memory required for data: 147906560
I0505 14:44:21.543002 27066 layer_factory.hpp:77] Creating layer lstm1_gate_input_1
I0505 14:44:21.543025 27066 net.cpp:86] Creating Layer lstm1_gate_input_1
I0505 14:44:21.543033 27066 net.cpp:408] lstm1_gate_input_1 <- W_hc_h_0
I0505 14:44:21.543042 27066 net.cpp:408] lstm1_gate_input_1 <- W_xc_x_1
I0505 14:44:21.543053 27066 net.cpp:382] lstm1_gate_input_1 -> gate_input_1
I0505 14:44:21.543094 27066 net.cpp:124] Setting up lstm1_gate_input_1
I0505 14:44:21.543104 27066 net.cpp:131] Top shape: 1 512 400 (204800)
I0505 14:44:21.543113 27066 net.cpp:139] Memory required for data: 148725760
I0505 14:44:21.543120 27066 layer_factory.hpp:77] Creating layer lstm1_unit_1
I0505 14:44:21.543131 27066 net.cpp:86] Creating Layer lstm1_unit_1
I0505 14:44:21.543140 27066 net.cpp:408] lstm1_unit_1 <- c_0
I0505 14:44:21.543149 27066 net.cpp:408] lstm1_unit_1 <- gate_input_1
I0505 14:44:21.543159 27066 net.cpp:408] lstm1_unit_1 <- cont_1_lstm1_cont_slice_0_split_1
I0505 14:44:21.543170 27066 net.cpp:382] lstm1_unit_1 -> c_1
I0505 14:44:21.543184 27066 net.cpp:382] lstm1_unit_1 -> h_1
I0505 14:44:21.543265 27066 net.cpp:124] Setting up lstm1_unit_1
I0505 14:44:21.543277 27066 net.cpp:131] Top shape: 1 512 100 (51200)
I0505 14:44:21.543300 27066 net.cpp:131] Top shape: 1 512 100 (51200)
I0505 14:44:21.543309 27066 net.cpp:139] Memory required for data: 149135360
I0505 14:44:21.543315 27066 layer_factory.hpp:77] Creating layer h_1_lstm1_unit_1_1_split
I0505 14:44:21.543326 27066 net.cpp:86] Creating Layer h_1_lstm1_unit_1_1_split
I0505 14:44:21.543334 27066 net.cpp:408] h_1_lstm1_unit_1_1_split <- h_1
I0505 14:44:21.543344 27066 net.cpp:382] h_1_lstm1_unit_1_1_split -> h_1_lstm1_unit_1_1_split_0
I0505 14:44:21.543357 27066 net.cpp:382] h_1_lstm1_unit_1_1_split -> h_1_lstm1_unit_1_1_split_1
I0505 14:44:21.543418 27066 net.cpp:124] Setting up h_1_lstm1_unit_1_1_split
I0505 14:44:21.543428 27066 net.cpp:131] Top shape: 1 512 100 (51200)
I0505 14:44:21.543438 27066 net.cpp:131] Top shape: 1 512 100 (51200)
I0505 14:44:21.543447 27066 net.cpp:139] Memory required for data: 149544960
I0505 14:44:21.543453 27066 layer_factory.hpp:77] Creating layer lstm1_h_conted_1
I0505 14:44:21.543465 27066 net.cpp:86] Creating Layer lstm1_h_conted_1
I0505 14:44:21.543473 27066 net.cpp:408] lstm1_h_conted_1 <- h_1_lstm1_unit_1_1_split_0
I0505 14:44:21.543483 27066 net.cpp:408] lstm1_h_conted_1 <- cont_2_lstm1_cont_slice_1_split_0
I0505 14:44:21.543496 27066 net.cpp:382] lstm1_h_conted_1 -> h_conted_1
I0505 14:44:21.543602 27066 net.cpp:124] Setting up lstm1_h_conted_1
I0505 14:44:21.543612 27066 net.cpp:131] Top shape: 1 512 100 (51200)
I0505 14:44:21.543622 27066 net.cpp:139] Memory required for data: 149749760
I0505 14:44:21.543629 27066 layer_factory.hpp:77] Creating layer lstm1_transform_2
I0505 14:44:21.543640 27066 net.cpp:86] Creating Layer lstm1_transform_2
I0505 14:44:21.543648 27066 net.cpp:408] lstm1_transform_2 <- h_conted_1
I0505 14:44:21.543659 27066 net.cpp:382] lstm1_transform_2 -> W_hc_h_1
I0505 14:44:21.544252 27066 net.cpp:124] Setting up lstm1_transform_2
I0505 14:44:21.544287 27066 net.cpp:131] Top shape: 1 512 400 (204800)
I0505 14:44:21.544299 27066 net.cpp:139] Memory required for data: 150568960
I0505 14:44:21.544311 27066 net.cpp:467] Sharing parameters 'W_hc' owned by layer 'lstm1_transform_1', param index 0
I0505 14:44:21.544317 27066 layer_factory.hpp:77] Creating layer lstm1_gate_input_2
I0505 14:44:21.545442 27066 net.cpp:86] Creating Layer lstm1_gate_input_2
I0505 14:44:21.545455 27066 net.cpp:408] lstm1_gate_input_2 <- W_hc_h_1
I0505 14:44:21.545464 27066 net.cpp:408] lstm1_gate_input_2 <- W_xc_x_2
I0505 14:44:21.545475 27066 net.cpp:382] lstm1_gate_input_2 -> gate_input_2
I0505 14:44:21.545521 27066 net.cpp:124] Setting up lstm1_gate_input_2
I0505 14:44:21.545529 27066 net.cpp:131] Top shape: 1 512 400 (204800)
I0505 14:44:21.545538 27066 net.cpp:139] Memory required for data: 151388160
I0505 14:44:21.545545 27066 layer_factory.hpp:77] Creating layer lstm1_unit_2
I0505 14:44:21.545555 27066 net.cpp:86] Creating Layer lstm1_unit_2
I0505 14:44:21.545562 27066 net.cpp:408] lstm1_unit_2 <- c_1
I0505 14:44:21.545572 27066 net.cpp:408] lstm1_unit_2 <- gate_input_2
I0505 14:44:21.545580 27066 net.cpp:408] lstm1_unit_2 <- cont_2_lstm1_cont_slice_1_split_1
I0505 14:44:21.545590 27066 net.cpp:382] lstm1_unit_2 -> c_2
I0505 14:44:21.545603 27066 net.cpp:382] lstm1_unit_2 -> h_2
I0505 14:44:21.545683 27066 net.cpp:124] Setting up lstm1_unit_2
I0505 14:44:21.545693 27066 net.cpp:131] Top shape: 1 512 100 (51200)
I0505 14:44:21.545702 27066 net.cpp:131] Top shape: 1 512 100 (51200)
I0505 14:44:21.545711 27066 net.cpp:139] Memory required for data: 151797760
I0505 14:44:21.545717 27066 layer_factory.hpp:77] Creating layer h_2_lstm1_unit_2_1_split
I0505 14:44:21.545727 27066 net.cpp:86] Creating Layer h_2_lstm1_unit_2_1_split
I0505 14:44:21.545734 27066 net.cpp:408] h_2_lstm1_unit_2_1_split <- h_2
I0505 14:44:21.545743 27066 net.cpp:382] h_2_lstm1_unit_2_1_split -> h_2_lstm1_unit_2_1_split_0
I0505 14:44:21.545753 27066 net.cpp:382] h_2_lstm1_unit_2_1_split -> h_2_lstm1_unit_2_1_split_1
I0505 14:44:21.545797 27066 net.cpp:124] Setting up h_2_lstm1_unit_2_1_split
I0505 14:44:21.545802 27066 net.cpp:131] Top shape: 1 512 100 (51200)
I0505 14:44:21.545809 27066 net.cpp:131] Top shape: 1 512 100 (51200)
I0505 14:44:21.545815 27066 net.cpp:139] Memory required for data: 152207360
I0505 14:44:21.545819 27066 layer_factory.hpp:77] Creating layer lstm1_h_conted_2
I0505 14:44:21.545828 27066 net.cpp:86] Creating Layer lstm1_h_conted_2
I0505 14:44:21.545833 27066 net.cpp:408] lstm1_h_conted_2 <- h_2_lstm1_unit_2_1_split_0
I0505 14:44:21.545842 27066 net.cpp:408] lstm1_h_conted_2 <- cont_3_lstm1_cont_slice_2_split_0
I0505 14:44:21.545850 27066 net.cpp:382] lstm1_h_conted_2 -> h_conted_2
I0505 14:44:21.545934 27066 net.cpp:124] Setting up lstm1_h_conted_2
I0505 14:44:21.545944 27066 net.cpp:131] Top shape: 1 512 100 (51200)
I0505 14:44:21.545954 27066 net.cpp:139] Memory required for data: 152412160
I0505 14:44:21.545960 27066 layer_factory.hpp:77] Creating layer lstm1_transform_3
I0505 14:44:21.545971 27066 net.cpp:86] Creating Layer lstm1_transform_3
I0505 14:44:21.545979 27066 net.cpp:408] lstm1_transform_3 <- h_conted_2
I0505 14:44:21.545990 27066 net.cpp:382] lstm1_transform_3 -> W_hc_h_2
I0505 14:44:21.546607 27066 net.cpp:124] Setting up lstm1_transform_3
I0505 14:44:21.546618 27066 net.cpp:131] Top shape: 1 512 400 (204800)
I0505 14:44:21.546628 27066 net.cpp:139] Memory required for data: 153231360
I0505 14:44:21.546638 27066 net.cpp:467] Sharing parameters 'W_hc' owned by layer 'lstm1_transform_1', param index 0
I0505 14:44:21.546645 27066 layer_factory.hpp:77] Creating layer lstm1_gate_input_3
I0505 14:44:21.546656 27066 net.cpp:86] Creating Layer lstm1_gate_input_3
I0505 14:44:21.546663 27066 net.cpp:408] lstm1_gate_input_3 <- W_hc_h_2
I0505 14:44:21.546672 27066 net.cpp:408] lstm1_gate_input_3 <- W_xc_x_3
I0505 14:44:21.546684 27066 net.cpp:382] lstm1_gate_input_3 -> gate_input_3
I0505 14:44:21.546722 27066 net.cpp:124] Setting up lstm1_gate_input_3
I0505 14:44:21.546731 27066 net.cpp:131] Top shape: 1 512 400 (204800)
I0505 14:44:21.546761 27066 net.cpp:139] Memory required for data: 154050560
I0505 14:44:21.546769 27066 layer_factory.hpp:77] Creating layer lstm1_unit_3
I0505 14:44:21.546779 27066 net.cpp:86] Creating Layer lstm1_unit_3
I0505 14:44:21.546787 27066 net.cpp:408] lstm1_unit_3 <- c_2
I0505 14:44:21.546797 27066 net.cpp:408] lstm1_unit_3 <- gate_input_3
I0505 14:44:21.546805 27066 net.cpp:408] lstm1_unit_3 <- cont_3_lstm1_cont_slice_2_split_1
I0505 14:44:21.546816 27066 net.cpp:382] lstm1_unit_3 -> c_3
I0505 14:44:21.546829 27066 net.cpp:382] lstm1_unit_3 -> h_3
I0505 14:44:21.546910 27066 net.cpp:124] Setting up lstm1_unit_3
I0505 14:44:21.546918 27066 net.cpp:131] Top shape: 1 512 100 (51200)
I0505 14:44:21.546928 27066 net.cpp:131] Top shape: 1 512 100 (51200)
I0505 14:44:21.546936 27066 net.cpp:139] Memory required for data: 154460160
I0505 14:44:21.546942 27066 layer_factory.hpp:77] Creating layer h_3_lstm1_unit_3_1_split
I0505 14:44:21.546952 27066 net.cpp:86] Creating Layer h_3_lstm1_unit_3_1_split
I0505 14:44:21.546959 27066 net.cpp:408] h_3_lstm1_unit_3_1_split <- h_3
I0505 14:44:21.546969 27066 net.cpp:382] h_3_lstm1_unit_3_1_split -> h_3_lstm1_unit_3_1_split_0
I0505 14:44:21.546981 27066 net.cpp:382] h_3_lstm1_unit_3_1_split -> h_3_lstm1_unit_3_1_split_1
I0505 14:44:21.547039 27066 net.cpp:124] Setting up h_3_lstm1_unit_3_1_split
I0505 14:44:21.547047 27066 net.cpp:131] Top shape: 1 512 100 (51200)
I0505 14:44:21.547056 27066 net.cpp:131] Top shape: 1 512 100 (51200)
I0505 14:44:21.547065 27066 net.cpp:139] Memory required for data: 154869760
I0505 14:44:21.547070 27066 layer_factory.hpp:77] Creating layer lstm1_h_conted_3
I0505 14:44:21.547081 27066 net.cpp:86] Creating Layer lstm1_h_conted_3
I0505 14:44:21.547088 27066 net.cpp:408] lstm1_h_conted_3 <- h_3_lstm1_unit_3_1_split_0
I0505 14:44:21.547098 27066 net.cpp:408] lstm1_h_conted_3 <- cont_4_lstm1_cont_slice_3_split_0
I0505 14:44:21.547111 27066 net.cpp:382] lstm1_h_conted_3 -> h_conted_3
I0505 14:44:21.547210 27066 net.cpp:124] Setting up lstm1_h_conted_3
I0505 14:44:21.547220 27066 net.cpp:131] Top shape: 1 512 100 (51200)
I0505 14:44:21.547230 27066 net.cpp:139] Memory required for data: 155074560
I0505 14:44:21.547235 27066 layer_factory.hpp:77] Creating layer lstm1_transform_4
I0505 14:44:21.547246 27066 net.cpp:86] Creating Layer lstm1_transform_4
I0505 14:44:21.547253 27066 net.cpp:408] lstm1_transform_4 <- h_conted_3
I0505 14:44:21.547263 27066 net.cpp:382] lstm1_transform_4 -> W_hc_h_3
I0505 14:44:21.547886 27066 net.cpp:124] Setting up lstm1_transform_4
I0505 14:44:21.547899 27066 net.cpp:131] Top shape: 1 512 400 (204800)
I0505 14:44:21.547909 27066 net.cpp:139] Memory required for data: 155893760
I0505 14:44:21.547916 27066 net.cpp:467] Sharing parameters 'W_hc' owned by layer 'lstm1_transform_1', param index 0
I0505 14:44:21.547922 27066 layer_factory.hpp:77] Creating layer lstm1_gate_input_4
I0505 14:44:21.547933 27066 net.cpp:86] Creating Layer lstm1_gate_input_4
I0505 14:44:21.547940 27066 net.cpp:408] lstm1_gate_input_4 <- W_hc_h_3
I0505 14:44:21.547950 27066 net.cpp:408] lstm1_gate_input_4 <- W_xc_x_4
I0505 14:44:21.547960 27066 net.cpp:382] lstm1_gate_input_4 -> gate_input_4
I0505 14:44:21.547998 27066 net.cpp:124] Setting up lstm1_gate_input_4
I0505 14:44:21.548007 27066 net.cpp:131] Top shape: 1 512 400 (204800)
I0505 14:44:21.548017 27066 net.cpp:139] Memory required for data: 156712960
I0505 14:44:21.548022 27066 layer_factory.hpp:77] Creating layer lstm1_unit_4
I0505 14:44:21.548032 27066 net.cpp:86] Creating Layer lstm1_unit_4
I0505 14:44:21.548039 27066 net.cpp:408] lstm1_unit_4 <- c_3
I0505 14:44:21.548048 27066 net.cpp:408] lstm1_unit_4 <- gate_input_4
I0505 14:44:21.548055 27066 net.cpp:408] lstm1_unit_4 <- cont_4_lstm1_cont_slice_3_split_1
I0505 14:44:21.548065 27066 net.cpp:382] lstm1_unit_4 -> c_4
I0505 14:44:21.548076 27066 net.cpp:382] lstm1_unit_4 -> h_4
I0505 14:44:21.548152 27066 net.cpp:124] Setting up lstm1_unit_4
I0505 14:44:21.548161 27066 net.cpp:131] Top shape: 1 512 100 (51200)
I0505 14:44:21.548192 27066 net.cpp:131] Top shape: 1 512 100 (51200)
I0505 14:44:21.548202 27066 net.cpp:139] Memory required for data: 157122560
I0505 14:44:21.548208 27066 layer_factory.hpp:77] Creating layer h_4_lstm1_unit_4_1_split
I0505 14:44:21.548218 27066 net.cpp:86] Creating Layer h_4_lstm1_unit_4_1_split
I0505 14:44:21.548225 27066 net.cpp:408] h_4_lstm1_unit_4_1_split <- h_4
I0505 14:44:21.548235 27066 net.cpp:382] h_4_lstm1_unit_4_1_split -> h_4_lstm1_unit_4_1_split_0
I0505 14:44:21.548247 27066 net.cpp:382] h_4_lstm1_unit_4_1_split -> h_4_lstm1_unit_4_1_split_1
I0505 14:44:21.548305 27066 net.cpp:124] Setting up h_4_lstm1_unit_4_1_split
I0505 14:44:21.548315 27066 net.cpp:131] Top shape: 1 512 100 (51200)
I0505 14:44:21.548323 27066 net.cpp:131] Top shape: 1 512 100 (51200)
I0505 14:44:21.548331 27066 net.cpp:139] Memory required for data: 157532160
I0505 14:44:21.548338 27066 layer_factory.hpp:77] Creating layer lstm1_h_conted_4
I0505 14:44:21.548348 27066 net.cpp:86] Creating Layer lstm1_h_conted_4
I0505 14:44:21.548355 27066 net.cpp:408] lstm1_h_conted_4 <- h_4_lstm1_unit_4_1_split_0
I0505 14:44:21.548365 27066 net.cpp:408] lstm1_h_conted_4 <- cont_5_lstm1_cont_slice_4_split_0
I0505 14:44:21.548377 27066 net.cpp:382] lstm1_h_conted_4 -> h_conted_4
I0505 14:44:21.548476 27066 net.cpp:124] Setting up lstm1_h_conted_4
I0505 14:44:21.548487 27066 net.cpp:131] Top shape: 1 512 100 (51200)
I0505 14:44:21.548496 27066 net.cpp:139] Memory required for data: 157736960
I0505 14:44:21.548502 27066 layer_factory.hpp:77] Creating layer lstm1_transform_5
I0505 14:44:21.548513 27066 net.cpp:86] Creating Layer lstm1_transform_5
I0505 14:44:21.548521 27066 net.cpp:408] lstm1_transform_5 <- h_conted_4
I0505 14:44:21.548532 27066 net.cpp:382] lstm1_transform_5 -> W_hc_h_4
I0505 14:44:21.549113 27066 net.cpp:124] Setting up lstm1_transform_5
I0505 14:44:21.549124 27066 net.cpp:131] Top shape: 1 512 400 (204800)
I0505 14:44:21.549134 27066 net.cpp:139] Memory required for data: 158556160
I0505 14:44:21.549141 27066 net.cpp:467] Sharing parameters 'W_hc' owned by layer 'lstm1_transform_1', param index 0
I0505 14:44:21.549149 27066 layer_factory.hpp:77] Creating layer lstm1_gate_input_5
I0505 14:44:21.549158 27066 net.cpp:86] Creating Layer lstm1_gate_input_5
I0505 14:44:21.549165 27066 net.cpp:408] lstm1_gate_input_5 <- W_hc_h_4
I0505 14:44:21.549175 27066 net.cpp:408] lstm1_gate_input_5 <- W_xc_x_5
I0505 14:44:21.549185 27066 net.cpp:382] lstm1_gate_input_5 -> gate_input_5
I0505 14:44:21.549222 27066 net.cpp:124] Setting up lstm1_gate_input_5
I0505 14:44:21.549232 27066 net.cpp:131] Top shape: 1 512 400 (204800)
I0505 14:44:21.549240 27066 net.cpp:139] Memory required for data: 159375360
I0505 14:44:21.549247 27066 layer_factory.hpp:77] Creating layer lstm1_unit_5
I0505 14:44:21.549257 27066 net.cpp:86] Creating Layer lstm1_unit_5
I0505 14:44:21.549264 27066 net.cpp:408] lstm1_unit_5 <- c_4
I0505 14:44:21.549273 27066 net.cpp:408] lstm1_unit_5 <- gate_input_5
I0505 14:44:21.549280 27066 net.cpp:408] lstm1_unit_5 <- cont_5_lstm1_cont_slice_4_split_1
I0505 14:44:21.549290 27066 net.cpp:382] lstm1_unit_5 -> c_5
I0505 14:44:21.549302 27066 net.cpp:382] lstm1_unit_5 -> h_5
I0505 14:44:21.549379 27066 net.cpp:124] Setting up lstm1_unit_5
I0505 14:44:21.549388 27066 net.cpp:131] Top shape: 1 512 100 (51200)
I0505 14:44:21.549396 27066 net.cpp:131] Top shape: 1 512 100 (51200)
I0505 14:44:21.549403 27066 net.cpp:139] Memory required for data: 159784960
I0505 14:44:21.549409 27066 layer_factory.hpp:77] Creating layer h_5_lstm1_unit_5_1_split
I0505 14:44:21.549417 27066 net.cpp:86] Creating Layer h_5_lstm1_unit_5_1_split
I0505 14:44:21.549423 27066 net.cpp:408] h_5_lstm1_unit_5_1_split <- h_5
I0505 14:44:21.549432 27066 net.cpp:382] h_5_lstm1_unit_5_1_split -> h_5_lstm1_unit_5_1_split_0
I0505 14:44:21.549443 27066 net.cpp:382] h_5_lstm1_unit_5_1_split -> h_5_lstm1_unit_5_1_split_1
I0505 14:44:21.549518 27066 net.cpp:124] Setting up h_5_lstm1_unit_5_1_split
I0505 14:44:21.549527 27066 net.cpp:131] Top shape: 1 512 100 (51200)
I0505 14:44:21.549556 27066 net.cpp:131] Top shape: 1 512 100 (51200)
I0505 14:44:21.549563 27066 net.cpp:139] Memory required for data: 160194560
I0505 14:44:21.549568 27066 layer_factory.hpp:77] Creating layer lstm1_h_conted_5
I0505 14:44:21.549579 27066 net.cpp:86] Creating Layer lstm1_h_conted_5
I0505 14:44:21.549585 27066 net.cpp:408] lstm1_h_conted_5 <- h_5_lstm1_unit_5_1_split_0
I0505 14:44:21.549593 27066 net.cpp:408] lstm1_h_conted_5 <- cont_6_lstm1_cont_slice_5_split_0
I0505 14:44:21.549603 27066 net.cpp:382] lstm1_h_conted_5 -> h_conted_5
I0505 14:44:21.549688 27066 net.cpp:124] Setting up lstm1_h_conted_5
I0505 14:44:21.549696 27066 net.cpp:131] Top shape: 1 512 100 (51200)
I0505 14:44:21.549703 27066 net.cpp:139] Memory required for data: 160399360
I0505 14:44:21.549707 27066 layer_factory.hpp:77] Creating layer lstm1_transform_6
I0505 14:44:21.549717 27066 net.cpp:86] Creating Layer lstm1_transform_6
I0505 14:44:21.549722 27066 net.cpp:408] lstm1_transform_6 <- h_conted_5
I0505 14:44:21.549731 27066 net.cpp:382] lstm1_transform_6 -> W_hc_h_5
I0505 14:44:21.550170 27066 net.cpp:124] Setting up lstm1_transform_6
I0505 14:44:21.550179 27066 net.cpp:131] Top shape: 1 512 400 (204800)
I0505 14:44:21.550186 27066 net.cpp:139] Memory required for data: 161218560
I0505 14:44:21.550192 27066 net.cpp:467] Sharing parameters 'W_hc' owned by layer 'lstm1_transform_1', param index 0
I0505 14:44:21.550199 27066 layer_factory.hpp:77] Creating layer lstm1_gate_input_6
I0505 14:44:21.550207 27066 net.cpp:86] Creating Layer lstm1_gate_input_6
I0505 14:44:21.550212 27066 net.cpp:408] lstm1_gate_input_6 <- W_hc_h_5
I0505 14:44:21.550218 27066 net.cpp:408] lstm1_gate_input_6 <- W_xc_x_6
I0505 14:44:21.550226 27066 net.cpp:382] lstm1_gate_input_6 -> gate_input_6
I0505 14:44:21.550256 27066 net.cpp:124] Setting up lstm1_gate_input_6
I0505 14:44:21.550263 27066 net.cpp:131] Top shape: 1 512 400 (204800)
I0505 14:44:21.550271 27066 net.cpp:139] Memory required for data: 162037760
I0505 14:44:21.550276 27066 layer_factory.hpp:77] Creating layer lstm1_unit_6
I0505 14:44:21.550283 27066 net.cpp:86] Creating Layer lstm1_unit_6
I0505 14:44:21.550289 27066 net.cpp:408] lstm1_unit_6 <- c_5
I0505 14:44:21.550295 27066 net.cpp:408] lstm1_unit_6 <- gate_input_6
I0505 14:44:21.550302 27066 net.cpp:408] lstm1_unit_6 <- cont_6_lstm1_cont_slice_5_split_1
I0505 14:44:21.550309 27066 net.cpp:382] lstm1_unit_6 -> c_6
I0505 14:44:21.550318 27066 net.cpp:382] lstm1_unit_6 -> h_6
I0505 14:44:21.550376 27066 net.cpp:124] Setting up lstm1_unit_6
I0505 14:44:21.550384 27066 net.cpp:131] Top shape: 1 512 100 (51200)
I0505 14:44:21.550390 27066 net.cpp:131] Top shape: 1 512 100 (51200)
I0505 14:44:21.550396 27066 net.cpp:139] Memory required for data: 162447360
I0505 14:44:21.550401 27066 layer_factory.hpp:77] Creating layer h_6_lstm1_unit_6_1_split
I0505 14:44:21.550408 27066 net.cpp:86] Creating Layer h_6_lstm1_unit_6_1_split
I0505 14:44:21.550415 27066 net.cpp:408] h_6_lstm1_unit_6_1_split <- h_6
I0505 14:44:21.550421 27066 net.cpp:382] h_6_lstm1_unit_6_1_split -> h_6_lstm1_unit_6_1_split_0
I0505 14:44:21.550431 27066 net.cpp:382] h_6_lstm1_unit_6_1_split -> h_6_lstm1_unit_6_1_split_1
I0505 14:44:21.550474 27066 net.cpp:124] Setting up h_6_lstm1_unit_6_1_split
I0505 14:44:21.550482 27066 net.cpp:131] Top shape: 1 512 100 (51200)
I0505 14:44:21.550489 27066 net.cpp:131] Top shape: 1 512 100 (51200)
I0505 14:44:21.550495 27066 net.cpp:139] Memory required for data: 162856960
I0505 14:44:21.550500 27066 layer_factory.hpp:77] Creating layer lstm1_h_conted_6
I0505 14:44:21.550509 27066 net.cpp:86] Creating Layer lstm1_h_conted_6
I0505 14:44:21.550515 27066 net.cpp:408] lstm1_h_conted_6 <- h_6_lstm1_unit_6_1_split_0
I0505 14:44:21.550523 27066 net.cpp:408] lstm1_h_conted_6 <- cont_7_lstm1_cont_slice_6_split_0
I0505 14:44:21.550532 27066 net.cpp:382] lstm1_h_conted_6 -> h_conted_6
I0505 14:44:21.550608 27066 net.cpp:124] Setting up lstm1_h_conted_6
I0505 14:44:21.550616 27066 net.cpp:131] Top shape: 1 512 100 (51200)
I0505 14:44:21.550623 27066 net.cpp:139] Memory required for data: 163061760
I0505 14:44:21.550642 27066 layer_factory.hpp:77] Creating layer lstm1_transform_7
I0505 14:44:21.550653 27066 net.cpp:86] Creating Layer lstm1_transform_7
I0505 14:44:21.550659 27066 net.cpp:408] lstm1_transform_7 <- h_conted_6
I0505 14:44:21.550668 27066 net.cpp:382] lstm1_transform_7 -> W_hc_h_6
I0505 14:44:21.551091 27066 net.cpp:124] Setting up lstm1_transform_7
I0505 14:44:21.551100 27066 net.cpp:131] Top shape: 1 512 400 (204800)
I0505 14:44:21.551107 27066 net.cpp:139] Memory required for data: 163880960
I0505 14:44:21.551115 27066 net.cpp:467] Sharing parameters 'W_hc' owned by layer 'lstm1_transform_1', param index 0
I0505 14:44:21.551121 27066 layer_factory.hpp:77] Creating layer lstm1_gate_input_7
I0505 14:44:21.551128 27066 net.cpp:86] Creating Layer lstm1_gate_input_7
I0505 14:44:21.551133 27066 net.cpp:408] lstm1_gate_input_7 <- W_hc_h_6
I0505 14:44:21.551139 27066 net.cpp:408] lstm1_gate_input_7 <- W_xc_x_7
I0505 14:44:21.551147 27066 net.cpp:382] lstm1_gate_input_7 -> gate_input_7
I0505 14:44:21.551175 27066 net.cpp:124] Setting up lstm1_gate_input_7
I0505 14:44:21.551204 27066 net.cpp:131] Top shape: 1 512 400 (204800)
I0505 14:44:21.551213 27066 net.cpp:139] Memory required for data: 164700160
I0505 14:44:21.551218 27066 layer_factory.hpp:77] Creating layer lstm1_unit_7
I0505 14:44:21.551224 27066 net.cpp:86] Creating Layer lstm1_unit_7
I0505 14:44:21.551230 27066 net.cpp:408] lstm1_unit_7 <- c_6
I0505 14:44:21.551236 27066 net.cpp:408] lstm1_unit_7 <- gate_input_7
I0505 14:44:21.551242 27066 net.cpp:408] lstm1_unit_7 <- cont_7_lstm1_cont_slice_6_split_1
I0505 14:44:21.551250 27066 net.cpp:382] lstm1_unit_7 -> c_7
I0505 14:44:21.551259 27066 net.cpp:382] lstm1_unit_7 -> h_7
I0505 14:44:21.551334 27066 net.cpp:124] Setting up lstm1_unit_7
I0505 14:44:21.551342 27066 net.cpp:131] Top shape: 1 512 100 (51200)
I0505 14:44:21.551349 27066 net.cpp:131] Top shape: 1 512 100 (51200)
I0505 14:44:21.551354 27066 net.cpp:139] Memory required for data: 165109760
I0505 14:44:21.551359 27066 layer_factory.hpp:77] Creating layer h_7_lstm1_unit_7_1_split
I0505 14:44:21.551367 27066 net.cpp:86] Creating Layer h_7_lstm1_unit_7_1_split
I0505 14:44:21.551373 27066 net.cpp:408] h_7_lstm1_unit_7_1_split <- h_7
I0505 14:44:21.551379 27066 net.cpp:382] h_7_lstm1_unit_7_1_split -> h_7_lstm1_unit_7_1_split_0
I0505 14:44:21.551388 27066 net.cpp:382] h_7_lstm1_unit_7_1_split -> h_7_lstm1_unit_7_1_split_1
I0505 14:44:21.551430 27066 net.cpp:124] Setting up h_7_lstm1_unit_7_1_split
I0505 14:44:21.551439 27066 net.cpp:131] Top shape: 1 512 100 (51200)
I0505 14:44:21.551445 27066 net.cpp:131] Top shape: 1 512 100 (51200)
I0505 14:44:21.551451 27066 net.cpp:139] Memory required for data: 165519360
I0505 14:44:21.551456 27066 layer_factory.hpp:77] Creating layer lstm1_h_conted_7
I0505 14:44:21.551465 27066 net.cpp:86] Creating Layer lstm1_h_conted_7
I0505 14:44:21.551470 27066 net.cpp:408] lstm1_h_conted_7 <- h_7_lstm1_unit_7_1_split_0
I0505 14:44:21.551478 27066 net.cpp:408] lstm1_h_conted_7 <- cont_8_lstm1_cont_slice_7_split_0
I0505 14:44:21.551486 27066 net.cpp:382] lstm1_h_conted_7 -> h_conted_7
I0505 14:44:21.551565 27066 net.cpp:124] Setting up lstm1_h_conted_7
I0505 14:44:21.551573 27066 net.cpp:131] Top shape: 1 512 100 (51200)
I0505 14:44:21.551580 27066 net.cpp:139] Memory required for data: 165724160
I0505 14:44:21.551585 27066 layer_factory.hpp:77] Creating layer lstm1_transform_8
I0505 14:44:21.551594 27066 net.cpp:86] Creating Layer lstm1_transform_8
I0505 14:44:21.551599 27066 net.cpp:408] lstm1_transform_8 <- h_conted_7
I0505 14:44:21.551607 27066 net.cpp:382] lstm1_transform_8 -> W_hc_h_7
I0505 14:44:21.552045 27066 net.cpp:124] Setting up lstm1_transform_8
I0505 14:44:21.552054 27066 net.cpp:131] Top shape: 1 512 400 (204800)
I0505 14:44:21.552062 27066 net.cpp:139] Memory required for data: 166543360
I0505 14:44:21.552067 27066 net.cpp:467] Sharing parameters 'W_hc' owned by layer 'lstm1_transform_1', param index 0
I0505 14:44:21.552073 27066 layer_factory.hpp:77] Creating layer lstm1_gate_input_8
I0505 14:44:21.552098 27066 net.cpp:86] Creating Layer lstm1_gate_input_8
I0505 14:44:21.552104 27066 net.cpp:408] lstm1_gate_input_8 <- W_hc_h_7
I0505 14:44:21.552112 27066 net.cpp:408] lstm1_gate_input_8 <- W_xc_x_8
I0505 14:44:21.552120 27066 net.cpp:382] lstm1_gate_input_8 -> gate_input_8
I0505 14:44:21.552150 27066 net.cpp:124] Setting up lstm1_gate_input_8
I0505 14:44:21.552157 27066 net.cpp:131] Top shape: 1 512 400 (204800)
I0505 14:44:21.552165 27066 net.cpp:139] Memory required for data: 167362560
I0505 14:44:21.552170 27066 layer_factory.hpp:77] Creating layer lstm1_unit_8
I0505 14:44:21.552177 27066 net.cpp:86] Creating Layer lstm1_unit_8
I0505 14:44:21.552182 27066 net.cpp:408] lstm1_unit_8 <- c_7
I0505 14:44:21.552188 27066 net.cpp:408] lstm1_unit_8 <- gate_input_8
I0505 14:44:21.552196 27066 net.cpp:408] lstm1_unit_8 <- cont_8_lstm1_cont_slice_7_split_1
I0505 14:44:21.552202 27066 net.cpp:382] lstm1_unit_8 -> c_8
I0505 14:44:21.552211 27066 net.cpp:382] lstm1_unit_8 -> h_8
I0505 14:44:21.552268 27066 net.cpp:124] Setting up lstm1_unit_8
I0505 14:44:21.552275 27066 net.cpp:131] Top shape: 1 512 100 (51200)
I0505 14:44:21.552284 27066 net.cpp:131] Top shape: 1 512 100 (51200)
I0505 14:44:21.552289 27066 net.cpp:139] Memory required for data: 167772160
I0505 14:44:21.552294 27066 layer_factory.hpp:77] Creating layer h_8_lstm1_unit_8_1_split
I0505 14:44:21.552301 27066 net.cpp:86] Creating Layer h_8_lstm1_unit_8_1_split
I0505 14:44:21.552306 27066 net.cpp:408] h_8_lstm1_unit_8_1_split <- h_8
I0505 14:44:21.552314 27066 net.cpp:382] h_8_lstm1_unit_8_1_split -> h_8_lstm1_unit_8_1_split_0
I0505 14:44:21.552323 27066 net.cpp:382] h_8_lstm1_unit_8_1_split -> h_8_lstm1_unit_8_1_split_1
I0505 14:44:21.552366 27066 net.cpp:124] Setting up h_8_lstm1_unit_8_1_split
I0505 14:44:21.552373 27066 net.cpp:131] Top shape: 1 512 100 (51200)
I0505 14:44:21.552381 27066 net.cpp:131] Top shape: 1 512 100 (51200)
I0505 14:44:21.552386 27066 net.cpp:139] Memory required for data: 168181760
I0505 14:44:21.552392 27066 layer_factory.hpp:77] Creating layer lstm1_h_conted_8
I0505 14:44:21.552400 27066 net.cpp:86] Creating Layer lstm1_h_conted_8
I0505 14:44:21.552405 27066 net.cpp:408] lstm1_h_conted_8 <- h_8_lstm1_unit_8_1_split_0
I0505 14:44:21.552412 27066 net.cpp:408] lstm1_h_conted_8 <- cont_9_lstm1_cont_slice_8_split_0
I0505 14:44:21.552420 27066 net.cpp:382] lstm1_h_conted_8 -> h_conted_8
I0505 14:44:21.552496 27066 net.cpp:124] Setting up lstm1_h_conted_8
I0505 14:44:21.552505 27066 net.cpp:131] Top shape: 1 512 100 (51200)
I0505 14:44:21.552511 27066 net.cpp:139] Memory required for data: 168386560
I0505 14:44:21.552515 27066 layer_factory.hpp:77] Creating layer lstm1_transform_9
I0505 14:44:21.552525 27066 net.cpp:86] Creating Layer lstm1_transform_9
I0505 14:44:21.552531 27066 net.cpp:408] lstm1_transform_9 <- h_conted_8
I0505 14:44:21.552538 27066 net.cpp:382] lstm1_transform_9 -> W_hc_h_8
I0505 14:44:21.552994 27066 net.cpp:124] Setting up lstm1_transform_9
I0505 14:44:21.553004 27066 net.cpp:131] Top shape: 1 512 400 (204800)
I0505 14:44:21.553011 27066 net.cpp:139] Memory required for data: 169205760
I0505 14:44:21.553017 27066 net.cpp:467] Sharing parameters 'W_hc' owned by layer 'lstm1_transform_1', param index 0
I0505 14:44:21.553022 27066 layer_factory.hpp:77] Creating layer lstm1_gate_input_9
I0505 14:44:21.553030 27066 net.cpp:86] Creating Layer lstm1_gate_input_9
I0505 14:44:21.553035 27066 net.cpp:408] lstm1_gate_input_9 <- W_hc_h_8
I0505 14:44:21.553041 27066 net.cpp:408] lstm1_gate_input_9 <- W_xc_x_9
I0505 14:44:21.553050 27066 net.cpp:382] lstm1_gate_input_9 -> gate_input_9
I0505 14:44:21.553078 27066 net.cpp:124] Setting up lstm1_gate_input_9
I0505 14:44:21.553084 27066 net.cpp:131] Top shape: 1 512 400 (204800)
I0505 14:44:21.553092 27066 net.cpp:139] Memory required for data: 170024960
I0505 14:44:21.553097 27066 layer_factory.hpp:77] Creating layer lstm1_unit_9
I0505 14:44:21.553107 27066 net.cpp:86] Creating Layer lstm1_unit_9
I0505 14:44:21.553112 27066 net.cpp:408] lstm1_unit_9 <- c_8
I0505 14:44:21.553135 27066 net.cpp:408] lstm1_unit_9 <- gate_input_9
I0505 14:44:21.553143 27066 net.cpp:408] lstm1_unit_9 <- cont_9_lstm1_cont_slice_8_split_1
I0505 14:44:21.553151 27066 net.cpp:382] lstm1_unit_9 -> c_9
I0505 14:44:21.553161 27066 net.cpp:382] lstm1_unit_9 -> h_9
I0505 14:44:21.553220 27066 net.cpp:124] Setting up lstm1_unit_9
I0505 14:44:21.553228 27066 net.cpp:131] Top shape: 1 512 100 (51200)
I0505 14:44:21.553236 27066 net.cpp:131] Top shape: 1 512 100 (51200)
I0505 14:44:21.553241 27066 net.cpp:139] Memory required for data: 170434560
I0505 14:44:21.553246 27066 layer_factory.hpp:77] Creating layer h_9_lstm1_unit_9_1_split
I0505 14:44:21.553253 27066 net.cpp:86] Creating Layer h_9_lstm1_unit_9_1_split
I0505 14:44:21.553259 27066 net.cpp:408] h_9_lstm1_unit_9_1_split <- h_9
I0505 14:44:21.553267 27066 net.cpp:382] h_9_lstm1_unit_9_1_split -> h_9_lstm1_unit_9_1_split_0
I0505 14:44:21.553277 27066 net.cpp:382] h_9_lstm1_unit_9_1_split -> h_9_lstm1_unit_9_1_split_1
I0505 14:44:21.553319 27066 net.cpp:124] Setting up h_9_lstm1_unit_9_1_split
I0505 14:44:21.553326 27066 net.cpp:131] Top shape: 1 512 100 (51200)
I0505 14:44:21.553333 27066 net.cpp:131] Top shape: 1 512 100 (51200)
I0505 14:44:21.553339 27066 net.cpp:139] Memory required for data: 170844160
I0505 14:44:21.553344 27066 layer_factory.hpp:77] Creating layer lstm1_h_conted_9
I0505 14:44:21.553352 27066 net.cpp:86] Creating Layer lstm1_h_conted_9
I0505 14:44:21.553359 27066 net.cpp:408] lstm1_h_conted_9 <- h_9_lstm1_unit_9_1_split_0
I0505 14:44:21.553365 27066 net.cpp:408] lstm1_h_conted_9 <- cont_10_lstm1_cont_slice_9_split_0
I0505 14:44:21.553375 27066 net.cpp:382] lstm1_h_conted_9 -> h_conted_9
I0505 14:44:21.553452 27066 net.cpp:124] Setting up lstm1_h_conted_9
I0505 14:44:21.553459 27066 net.cpp:131] Top shape: 1 512 100 (51200)
I0505 14:44:21.553467 27066 net.cpp:139] Memory required for data: 171048960
I0505 14:44:21.553472 27066 layer_factory.hpp:77] Creating layer lstm1_transform_10
I0505 14:44:21.553480 27066 net.cpp:86] Creating Layer lstm1_transform_10
I0505 14:44:21.553486 27066 net.cpp:408] lstm1_transform_10 <- h_conted_9
I0505 14:44:21.553494 27066 net.cpp:382] lstm1_transform_10 -> W_hc_h_9
I0505 14:44:21.553952 27066 net.cpp:124] Setting up lstm1_transform_10
I0505 14:44:21.553963 27066 net.cpp:131] Top shape: 1 512 400 (204800)
I0505 14:44:21.553969 27066 net.cpp:139] Memory required for data: 171868160
I0505 14:44:21.553974 27066 net.cpp:467] Sharing parameters 'W_hc' owned by layer 'lstm1_transform_1', param index 0
I0505 14:44:21.553979 27066 layer_factory.hpp:77] Creating layer lstm1_gate_input_10
I0505 14:44:21.553987 27066 net.cpp:86] Creating Layer lstm1_gate_input_10
I0505 14:44:21.553992 27066 net.cpp:408] lstm1_gate_input_10 <- W_hc_h_9
I0505 14:44:21.553998 27066 net.cpp:408] lstm1_gate_input_10 <- W_xc_x_10
I0505 14:44:21.554004 27066 net.cpp:382] lstm1_gate_input_10 -> gate_input_10
I0505 14:44:21.554030 27066 net.cpp:124] Setting up lstm1_gate_input_10
I0505 14:44:21.554035 27066 net.cpp:131] Top shape: 1 512 400 (204800)
I0505 14:44:21.554040 27066 net.cpp:139] Memory required for data: 172687360
I0505 14:44:21.554044 27066 layer_factory.hpp:77] Creating layer lstm1_unit_10
I0505 14:44:21.554051 27066 net.cpp:86] Creating Layer lstm1_unit_10
I0505 14:44:21.554057 27066 net.cpp:408] lstm1_unit_10 <- c_9
I0505 14:44:21.554064 27066 net.cpp:408] lstm1_unit_10 <- gate_input_10
I0505 14:44:21.554069 27066 net.cpp:408] lstm1_unit_10 <- cont_10_lstm1_cont_slice_9_split_1
I0505 14:44:21.554077 27066 net.cpp:382] lstm1_unit_10 -> c_10
I0505 14:44:21.554086 27066 net.cpp:382] lstm1_unit_10 -> h_10
I0505 14:44:21.554144 27066 net.cpp:124] Setting up lstm1_unit_10
I0505 14:44:21.554150 27066 net.cpp:131] Top shape: 1 512 100 (51200)
I0505 14:44:21.554157 27066 net.cpp:131] Top shape: 1 512 100 (51200)
I0505 14:44:21.554163 27066 net.cpp:139] Memory required for data: 173096960
I0505 14:44:21.554168 27066 layer_factory.hpp:77] Creating layer h_10_lstm1_unit_10_1_split
I0505 14:44:21.554175 27066 net.cpp:86] Creating Layer h_10_lstm1_unit_10_1_split
I0505 14:44:21.554194 27066 net.cpp:408] h_10_lstm1_unit_10_1_split <- h_10
I0505 14:44:21.554203 27066 net.cpp:382] h_10_lstm1_unit_10_1_split -> h_10_lstm1_unit_10_1_split_0
I0505 14:44:21.554211 27066 net.cpp:382] h_10_lstm1_unit_10_1_split -> h_10_lstm1_unit_10_1_split_1
I0505 14:44:21.554255 27066 net.cpp:124] Setting up h_10_lstm1_unit_10_1_split
I0505 14:44:21.554260 27066 net.cpp:131] Top shape: 1 512 100 (51200)
I0505 14:44:21.554267 27066 net.cpp:131] Top shape: 1 512 100 (51200)
I0505 14:44:21.554273 27066 net.cpp:139] Memory required for data: 173506560
I0505 14:44:21.554277 27066 layer_factory.hpp:77] Creating layer lstm1_h_conted_10
I0505 14:44:21.554286 27066 net.cpp:86] Creating Layer lstm1_h_conted_10
I0505 14:44:21.554291 27066 net.cpp:408] lstm1_h_conted_10 <- h_10_lstm1_unit_10_1_split_0
I0505 14:44:21.554299 27066 net.cpp:408] lstm1_h_conted_10 <- cont_11_lstm1_cont_slice_10_split_0
I0505 14:44:21.554307 27066 net.cpp:382] lstm1_h_conted_10 -> h_conted_10
I0505 14:44:21.554383 27066 net.cpp:124] Setting up lstm1_h_conted_10
I0505 14:44:21.554388 27066 net.cpp:131] Top shape: 1 512 100 (51200)
I0505 14:44:21.554394 27066 net.cpp:139] Memory required for data: 173711360
I0505 14:44:21.554399 27066 layer_factory.hpp:77] Creating layer lstm1_transform_11
I0505 14:44:21.554409 27066 net.cpp:86] Creating Layer lstm1_transform_11
I0505 14:44:21.554414 27066 net.cpp:408] lstm1_transform_11 <- h_conted_10
I0505 14:44:21.554421 27066 net.cpp:382] lstm1_transform_11 -> W_hc_h_10
I0505 14:44:21.554872 27066 net.cpp:124] Setting up lstm1_transform_11
I0505 14:44:21.554881 27066 net.cpp:131] Top shape: 1 512 400 (204800)
I0505 14:44:21.554888 27066 net.cpp:139] Memory required for data: 174530560
I0505 14:44:21.554893 27066 net.cpp:467] Sharing parameters 'W_hc' owned by layer 'lstm1_transform_1', param index 0
I0505 14:44:21.554899 27066 layer_factory.hpp:77] Creating layer lstm1_gate_input_11
I0505 14:44:21.554908 27066 net.cpp:86] Creating Layer lstm1_gate_input_11
I0505 14:44:21.554913 27066 net.cpp:408] lstm1_gate_input_11 <- W_hc_h_10
I0505 14:44:21.554919 27066 net.cpp:408] lstm1_gate_input_11 <- W_xc_x_11
I0505 14:44:21.554926 27066 net.cpp:382] lstm1_gate_input_11 -> gate_input_11
I0505 14:44:21.554955 27066 net.cpp:124] Setting up lstm1_gate_input_11
I0505 14:44:21.554961 27066 net.cpp:131] Top shape: 1 512 400 (204800)
I0505 14:44:21.554968 27066 net.cpp:139] Memory required for data: 175349760
I0505 14:44:21.554972 27066 layer_factory.hpp:77] Creating layer lstm1_unit_11
I0505 14:44:21.554980 27066 net.cpp:86] Creating Layer lstm1_unit_11
I0505 14:44:21.554985 27066 net.cpp:408] lstm1_unit_11 <- c_10
I0505 14:44:21.554991 27066 net.cpp:408] lstm1_unit_11 <- gate_input_11
I0505 14:44:21.554996 27066 net.cpp:408] lstm1_unit_11 <- cont_11_lstm1_cont_slice_10_split_1
I0505 14:44:21.555004 27066 net.cpp:382] lstm1_unit_11 -> c_11
I0505 14:44:21.555013 27066 net.cpp:382] lstm1_unit_11 -> h_11
I0505 14:44:21.555069 27066 net.cpp:124] Setting up lstm1_unit_11
I0505 14:44:21.555076 27066 net.cpp:131] Top shape: 1 512 100 (51200)
I0505 14:44:21.555083 27066 net.cpp:131] Top shape: 1 512 100 (51200)
I0505 14:44:21.555089 27066 net.cpp:139] Memory required for data: 175759360
I0505 14:44:21.555094 27066 layer_factory.hpp:77] Creating layer h_11_lstm1_unit_11_1_split
I0505 14:44:21.555100 27066 net.cpp:86] Creating Layer h_11_lstm1_unit_11_1_split
I0505 14:44:21.555106 27066 net.cpp:408] h_11_lstm1_unit_11_1_split <- h_11
I0505 14:44:21.555114 27066 net.cpp:382] h_11_lstm1_unit_11_1_split -> h_11_lstm1_unit_11_1_split_0
I0505 14:44:21.555124 27066 net.cpp:382] h_11_lstm1_unit_11_1_split -> h_11_lstm1_unit_11_1_split_1
I0505 14:44:21.555166 27066 net.cpp:124] Setting up h_11_lstm1_unit_11_1_split
I0505 14:44:21.555172 27066 net.cpp:131] Top shape: 1 512 100 (51200)
I0505 14:44:21.555179 27066 net.cpp:131] Top shape: 1 512 100 (51200)
I0505 14:44:21.555186 27066 net.cpp:139] Memory required for data: 176168960
I0505 14:44:21.555193 27066 layer_factory.hpp:77] Creating layer lstm1_h_conted_11
I0505 14:44:21.555217 27066 net.cpp:86] Creating Layer lstm1_h_conted_11
I0505 14:44:21.555223 27066 net.cpp:408] lstm1_h_conted_11 <- h_11_lstm1_unit_11_1_split_0
I0505 14:44:21.555232 27066 net.cpp:408] lstm1_h_conted_11 <- cont_12_lstm1_cont_slice_11_split_0
I0505 14:44:21.555240 27066 net.cpp:382] lstm1_h_conted_11 -> h_conted_11
I0505 14:44:21.555344 27066 net.cpp:124] Setting up lstm1_h_conted_11
I0505 14:44:21.555353 27066 net.cpp:131] Top shape: 1 512 100 (51200)
I0505 14:44:21.555361 27066 net.cpp:139] Memory required for data: 176373760
I0505 14:44:21.555366 27066 layer_factory.hpp:77] Creating layer lstm1_transform_12
I0505 14:44:21.555374 27066 net.cpp:86] Creating Layer lstm1_transform_12
I0505 14:44:21.555380 27066 net.cpp:408] lstm1_transform_12 <- h_conted_11
I0505 14:44:21.555388 27066 net.cpp:382] lstm1_transform_12 -> W_hc_h_11
I0505 14:44:21.557044 27066 net.cpp:124] Setting up lstm1_transform_12
I0505 14:44:21.557055 27066 net.cpp:131] Top shape: 1 512 400 (204800)
I0505 14:44:21.557060 27066 net.cpp:139] Memory required for data: 177192960
I0505 14:44:21.557065 27066 net.cpp:467] Sharing parameters 'W_hc' owned by layer 'lstm1_transform_1', param index 0
I0505 14:44:21.557070 27066 layer_factory.hpp:77] Creating layer lstm1_gate_input_12
I0505 14:44:21.557077 27066 net.cpp:86] Creating Layer lstm1_gate_input_12
I0505 14:44:21.557081 27066 net.cpp:408] lstm1_gate_input_12 <- W_hc_h_11
…
I0505 14:44:21.617182 27066 net.cpp:131] Top shape: 1 512 100 (51200)
I0505 14:44:21.617185 27066 net.cpp:131] Top shape: 1 512 100 (51200)
I0505 14:44:21.617198 27066 net.cpp:139] Memory required for data: 351887360
I0505 14:44:21.617200 27066 layer_factory.hpp:77] Creating layer lstm1_h_conted_77
I0505 14:44:21.617203 27066 net.cpp:86] Creating Layer lstm1_h_conted_77
I0505 14:44:21.617206 27066 net.cpp:408] lstm1_h_conted_77 <- h_77_lstm1_unit_77_1_split_0
I0505 14:44:21.617209 27066 net.cpp:408] lstm1_h_conted_77 <- cont_78_lstm1_cont_slice_77_split_0
I0505 14:44:21.617213 27066 net.cpp:382] lstm1_h_conted_77 -> h_conted_77
I0505 14:44:21.617250 27066 net.cpp:124] Setting up lstm1_h_conted_77
I0505 14:44:21.617252 27066 net.cpp:131] Top shape: 1 512 100 (51200)
I0505 14:44:21.617255 27066 net.cpp:139] Memory required for data: 352092160
I0505 14:44:21.617257 27066 layer_factory.hpp:77] Creating layer lstm1_transform_78
I0505 14:44:21.617261 27066 net.cpp:86] Creating Layer lstm1_transform_78
I0505 14:44:21.617264 27066 net.cpp:408] lstm1_transform_78 <- h_conted_77
I0505 14:44:21.617267 27066 net.cpp:382] lstm1_transform_78 -> W_hc_h_77
I0505 14:44:21.617449 27066 net.cpp:124] Setting up lstm1_transform_78
I0505 14:44:21.617451 27066 net.cpp:131] Top shape: 1 512 400 (204800)
I0505 14:44:21.617455 27066 net.cpp:139] Memory required for data: 352911360
I0505 14:44:21.617457 27066 net.cpp:467] Sharing parameters 'W_hc' owned by layer 'lstm1_transform_1', param index 0
I0505 14:44:21.617460 27066 layer_factory.hpp:77] Creating layer lstm1_gate_input_78
I0505 14:44:21.617463 27066 net.cpp:86] Creating Layer lstm1_gate_input_78
I0505 14:44:21.617465 27066 net.cpp:408] lstm1_gate_input_78 <- W_hc_h_77
I0505 14:44:21.617468 27066 net.cpp:408] lstm1_gate_input_78 <- W_xc_x_78
I0505 14:44:21.617471 27066 net.cpp:382] lstm1_gate_input_78 -> gate_input_78
I0505 14:44:21.617486 27066 net.cpp:124] Setting up lstm1_gate_input_78
I0505 14:44:21.617487 27066 net.cpp:131] Top shape: 1 512 400 (204800)
I0505 14:44:21.617491 27066 net.cpp:139] Memory required for data: 353730560
I0505 14:44:21.617492 27066 layer_factory.hpp:77] Creating layer lstm1_unit_78
I0505 14:44:21.617496 27066 net.cpp:86] Creating Layer lstm1_unit_78
I0505 14:44:21.617498 27066 net.cpp:408] lstm1_unit_78 <- c_77
I0505 14:44:21.617501 27066 net.cpp:408] lstm1_unit_78 <- gate_input_78
I0505 14:44:21.617503 27066 net.cpp:408] lstm1_unit_78 <- cont_78_lstm1_cont_slice_77_split_1
I0505 14:44:21.617506 27066 net.cpp:382] lstm1_unit_78 -> c_78
I0505 14:44:21.617511 27066 net.cpp:382] lstm1_unit_78 -> h_78
I0505 14:44:21.617537 27066 net.cpp:124] Setting up lstm1_unit_78
I0505 14:44:21.617538 27066 net.cpp:131] Top shape: 1 512 100 (51200)
I0505 14:44:21.617542 27066 net.cpp:131] Top shape: 1 512 100 (51200)
I0505 14:44:21.617543 27066 net.cpp:139] Memory required for data: 354140160
I0505 14:44:21.617545 27066 layer_factory.hpp:77] Creating layer h_78_lstm1_unit_78_1_split
I0505 14:44:21.617548 27066 net.cpp:86] Creating Layer h_78_lstm1_unit_78_1_split
I0505 14:44:21.617552 27066 net.cpp:408] h_78_lstm1_unit_78_1_split <- h_78
I0505 14:44:21.617554 27066 net.cpp:382] h_78_lstm1_unit_78_1_split -> h_78_lstm1_unit_78_1_split_0
I0505 14:44:21.617558 27066 net.cpp:382] h_78_lstm1_unit_78_1_split -> h_78_lstm1_unit_78_1_split_1
I0505 14:44:21.617576 27066 net.cpp:124] Setting up h_78_lstm1_unit_78_1_split
I0505 14:44:21.617578 27066 net.cpp:131] Top shape: 1 512 100 (51200)
I0505 14:44:21.617581 27066 net.cpp:131] Top shape: 1 512 100 (51200)
I0505 14:44:21.617584 27066 net.cpp:139] Memory required for data: 354549760
I0505 14:44:21.617586 27066 layer_factory.hpp:77] Creating layer lstm1_h_conted_78
I0505 14:44:21.617589 27066 net.cpp:86] Creating Layer lstm1_h_conted_78
I0505 14:44:21.617591 27066 net.cpp:408] lstm1_h_conted_78 <- h_78_lstm1_unit_78_1_split_0
I0505 14:44:21.617595 27066 net.cpp:408] lstm1_h_conted_78 <- cont_79_lstm1_cont_slice_78_split_0
I0505 14:44:21.617599 27066 net.cpp:382] lstm1_h_conted_78 -> h_conted_78
I0505 14:44:21.617633 27066 net.cpp:124] Setting up lstm1_h_conted_78
I0505 14:44:21.617635 27066 net.cpp:131] Top shape: 1 512 100 (51200)
I0505 14:44:21.617638 27066 net.cpp:139] Memory required for data: 354754560
I0505 14:44:21.617648 27066 layer_factory.hpp:77] Creating layer lstm1_transform_79
I0505 14:44:21.617652 27066 net.cpp:86] Creating Layer lstm1_transform_79
I0505 14:44:21.617655 27066 net.cpp:408] lstm1_transform_79 <- h_conted_78
I0505 14:44:21.617658 27066 net.cpp:382] lstm1_transform_79 -> W_hc_h_78
I0505 14:44:21.617835 27066 net.cpp:124] Setting up lstm1_transform_79
I0505 14:44:21.617837 27066 net.cpp:131] Top shape: 1 512 400 (204800)
I0505 14:44:21.617841 27066 net.cpp:139] Memory required for data: 355573760
I0505 14:44:21.617842 27066 net.cpp:467] Sharing parameters 'W_hc' owned by layer 'lstm1_transform_1', param index 0
I0505 14:44:21.617846 27066 layer_factory.hpp:77] Creating layer lstm1_gate_input_79
I0505 14:44:21.617849 27066 net.cpp:86] Creating Layer lstm1_gate_input_79
I0505 14:44:21.617851 27066 net.cpp:408] lstm1_gate_input_79 <- W_hc_h_78
I0505 14:44:21.617854 27066 net.cpp:408] lstm1_gate_input_79 <- W_xc_x_79
I0505 14:44:21.617857 27066 net.cpp:382] lstm1_gate_input_79 -> gate_input_79
I0505 14:44:21.617871 27066 net.cpp:124] Setting up lstm1_gate_input_79
I0505 14:44:21.617872 27066 net.cpp:131] Top shape: 1 512 400 (204800)
I0505 14:44:21.617875 27066 net.cpp:139] Memory required for data: 356392960
I0505 14:44:21.617877 27066 layer_factory.hpp:77] Creating layer lstm1_unit_79
I0505 14:44:21.617882 27066 net.cpp:86] Creating Layer lstm1_unit_79
I0505 14:44:21.617883 27066 net.cpp:408] lstm1_unit_79 <- c_78
I0505 14:44:21.617887 27066 net.cpp:408] lstm1_unit_79 <- gate_input_79
I0505 14:44:21.617888 27066 net.cpp:408] lstm1_unit_79 <- cont_79_lstm1_cont_slice_78_split_1
I0505 14:44:21.617892 27066 net.cpp:382] lstm1_unit_79 -> c_79
I0505 14:44:21.617895 27066 net.cpp:382] lstm1_unit_79 -> h_79
I0505 14:44:21.617921 27066 net.cpp:124] Setting up lstm1_unit_79
I0505 14:44:21.617924 27066 net.cpp:131] Top shape: 1 512 100 (51200)
I0505 14:44:21.617926 27066 net.cpp:131] Top shape: 1 512 100 (51200)
I0505 14:44:21.617929 27066 net.cpp:139] Memory required for data: 356802560
I0505 14:44:21.617931 27066 layer_factory.hpp:77] Creating layer h_79_lstm1_unit_79_1_split
I0505 14:44:21.617934 27066 net.cpp:86] Creating Layer h_79_lstm1_unit_79_1_split
I0505 14:44:21.617938 27066 net.cpp:408] h_79_lstm1_unit_79_1_split <- h_79
I0505 14:44:21.617940 27066 net.cpp:382] h_79_lstm1_unit_79_1_split -> h_79_lstm1_unit_79_1_split_0
I0505 14:44:21.617944 27066 net.cpp:382] h_79_lstm1_unit_79_1_split -> h_79_lstm1_unit_79_1_split_1
I0505 14:44:21.617964 27066 net.cpp:124] Setting up h_79_lstm1_unit_79_1_split
I0505 14:44:21.617965 27066 net.cpp:131] Top shape: 1 512 100 (51200)
I0505 14:44:21.617969 27066 net.cpp:131] Top shape: 1 512 100 (51200)
I0505 14:44:21.617970 27066 net.cpp:139] Memory required for data: 357212160
I0505 14:44:21.617972 27066 layer_factory.hpp:77] Creating layer lstm1_h_conted_79
I0505 14:44:21.617976 27066 net.cpp:86] Creating Layer lstm1_h_conted_79
I0505 14:44:21.617978 27066 net.cpp:408] lstm1_h_conted_79 <- h_79_lstm1_unit_79_1_split_0
I0505 14:44:21.617981 27066 net.cpp:408] lstm1_h_conted_79 <- cont_80_lstm1_cont_slice_79_split_0
I0505 14:44:21.617985 27066 net.cpp:382] lstm1_h_conted_79 -> h_conted_79
I0505 14:44:21.618021 27066 net.cpp:124] Setting up lstm1_h_conted_79
I0505 14:44:21.618023 27066 net.cpp:131] Top shape: 1 512 100 (51200)
I0505 14:44:21.618026 27066 net.cpp:139] Memory required for data: 357416960
I0505 14:44:21.618028 27066 layer_factory.hpp:77] Creating layer lstm1_transform_80
I0505 14:44:21.618032 27066 net.cpp:86] Creating Layer lstm1_transform_80
I0505 14:44:21.618034 27066 net.cpp:408] lstm1_transform_80 <- h_conted_79
I0505 14:44:21.618037 27066 net.cpp:382] lstm1_transform_80 -> W_hc_h_79
I0505 14:44:21.618212 27066 net.cpp:124] Setting up lstm1_transform_80
I0505 14:44:21.618216 27066 net.cpp:131] Top shape: 1 512 400 (204800)
I0505 14:44:21.618218 27066 net.cpp:139] Memory required for data: 358236160
I0505 14:44:21.618221 27066 net.cpp:467] Sharing parameters 'W_hc' owned by layer 'lstm1_transform_1', param index 0
I0505 14:44:21.618229 27066 layer_factory.hpp:77] Creating layer lstm1_gate_input_80
I0505 14:44:21.618233 27066 net.cpp:86] Creating Layer lstm1_gate_input_80
I0505 14:44:21.618235 27066 net.cpp:408] lstm1_gate_input_80 <- W_hc_h_79
I0505 14:44:21.618238 27066 net.cpp:408] lstm1_gate_input_80 <- W_xc_x_80
I0505 14:44:21.618242 27066 net.cpp:382] lstm1_gate_input_80 -> gate_input_80
I0505 14:44:21.618254 27066 net.cpp:124] Setting up lstm1_gate_input_80
I0505 14:44:21.618257 27066 net.cpp:131] Top shape: 1 512 400 (204800)
I0505 14:44:21.618260 27066 net.cpp:139] Memory required for data: 359055360
I0505 14:44:21.618263 27066 layer_factory.hpp:77] Creating layer lstm1_unit_80
I0505 14:44:21.618266 27066 net.cpp:86] Creating Layer lstm1_unit_80
I0505 14:44:21.618268 27066 net.cpp:408] lstm1_unit_80 <- c_79
I0505 14:44:21.618271 27066 net.cpp:408] lstm1_unit_80 <- gate_input_80
I0505 14:44:21.618274 27066 net.cpp:408] lstm1_unit_80 <- cont_80_lstm1_cont_slice_79_split_1
I0505 14:44:21.618278 27066 net.cpp:382] lstm1_unit_80 -> c_80
I0505 14:44:21.618281 27066 net.cpp:382] lstm1_unit_80 -> h_80
I0505 14:44:21.618307 27066 net.cpp:124] Setting up lstm1_unit_80
I0505 14:44:21.618309 27066 net.cpp:131] Top shape: 1 512 100 (51200)
I0505 14:44:21.618312 27066 net.cpp:131] Top shape: 1 512 100 (51200)
I0505 14:44:21.618314 27066 net.cpp:139] Memory required for data: 359464960
I0505 14:44:21.618316 27066 layer_factory.hpp:77] Creating layer lstm1_
I0505 14:44:21.618319 27066 net.cpp:86] Creating Layer lstm1_
I0505 14:44:21.618321 27066 net.cpp:408] lstm1_ <- c_80
I0505 14:44:21.618324 27066 net.cpp:382] lstm1_ -> c_T
I0505 14:44:21.618371 27066 net.cpp:124] Setting up lstm1_
I0505 14:44:21.618376 27066 net.cpp:131] Top shape: 1 512 100 (51200)
I0505 14:44:21.618378 27066 net.cpp:139] Memory required for data: 359669760
I0505 14:44:21.618381 27066 layer_factory.hpp:77] Creating layer lstm1_h_concat
I0505 14:44:21.618391 27066 net.cpp:86] Creating Layer lstm1_h_concat
I0505 14:44:21.618393 27066 net.cpp:408] lstm1_h_concat <- h_1_lstm1_unit_1_1_split_1
I0505 14:44:21.618398 27066 net.cpp:408] lstm1_h_concat <- h_2_lstm1_unit_2_1_split_1
…
  top: "W_xc_x_53"
  top: "W_xc_x_54"
  top: "W_xc_x_55"
  top: "W_xc_x_56"
  top: "W_xc_x_57"
  top: "W_xc_x_58"
  top: "W_xc_x_59"
  top: "W_xc_x_60"
  top: "W_xc_x_61"
  top: "W_xc_x_62"
  top: "W_xc_x_63"
  top: "W_xc_x_64"
  top: "W_xc_x_65"
  top: "W_xc_x_66"
  top: "W_xc_x_67"
  top: "W_xc_x_68"
  top: "W_xc_x_69"
  top: "W_xc_x_70"
  top: "W_xc_x_71"
  top: "W_xc_x_72"
  top: "W_xc_x_73"
  top: "W_xc_x_74"
  top: "W_xc_x_75"
  top: "W_xc_x_76"
  top: "W_xc_x_77"
  top: "W_xc_x_78"
  top: "W_xc_x_79"
  top: "W_xc_x_80"
  slice_param {
    axis: 0
  }
}
layer {
  name: "lstm2_h_conted_0"
  type: "Scale"
  bottom: "h_0"
  bottom: "cont_1"
  top: "h_conted_0"
  scale_param {
    axis: 0
  }
}
layer {
  name: "lstm2_transform_1"
  type: "InnerProduct"
  bottom: "h_conted_0"
  top: "W_hc_h_0"
  param {
    name: "W_hc"
  }
  inner_product_param {
    num_output: 400
    bias_term: false
    weight_filler {
      type: "xavier"
    }
    axis: 2
  }
}
layer {
  name: "lstm2_gate_input_1"
  type: "Eltwise"
  bottom: "W_hc_h_0"
  bottom: "W_xc_x_1"
  top: "gate_input_1"
  eltwise_param {
    operation: SUM
  }
}
layer {
  name: "lstm2_unit_1"
  type: "LSTMUnit"
  bottom: "c_0"
  bottom: "gate_input_1"
  bottom: "cont_1"
  top: "c_1"
  top: "h_1"
}
layer {
  name: "lstm2_h_conted_1"
  type: "Scale"
  bottom: "h_1"
  bottom: "cont_2"
  top: "h_conted_1"
  scale_param {
    axis: 0
  }
}
layer {
  name: "lstm2_transform_2"
  type: "InnerProduct"
  bottom: "h_conted_1"
  top: "W_hc_h_1"
  param {
    name: "W_hc"
  }
  inner_product_param {
    num_output: 400
    bias_term: false
    weight_filler {
      type: "xavier"
    }
    axis: 2
  }
}
layer {
  name: "lstm2_gate_input_2"
  type: "Eltwise"
  bottom: "W_hc_h_1"
  bottom: "W_xc_x_2"
  top: "gate_input_2"
  eltwise_param {
    operation: SUM
  }
}
layer {
  name: "lstm2_unit_2"
  type: "LSTMUnit"
  bottom: "c_1"
  bottom: "gate_input_2"
  bottom: "cont_2"
  top: "c_2"
  top: "h_2"
}
layer {
  name: "lstm2_h_conted_2"
  type: "Scale"
  bottom: "h_2"
  bottom: "cont_3"
  top: "h_conted_2"
  scale_param {
    axis: 0
  }
}
layer {
  name: "lstm2_transform_3"
  type: "InnerProduct"
  bottom: "h_conted_2"
  top: "W_hc_h_2"
  param {
    name: "W_hc"
  }
  inner_product_param {
    num_output: 400
    bias_term: false
    weight_filler {
      type: "xavier"
    }
    axis: 2
  }
}
layer {
  name: "lstm2_gate_input_3"
  type: "Eltwise"
  bottom: "W_hc_h_2"
  bottom: "W_xc_x_3"
  top: "gate_input_3"
  eltwise_param {
    operation: SUM
  }
}
layer {
  name: "lstm2_unit_3"
  type: "LSTMUnit"
  bottom: "c_2"
  bottom: "gate_input_3"
  bottom: "cont_3"
  top: "c_3"
  top: "h_3"
}
layer {
  name: "lstm2_h_conted_3"
  type: "Scale"
  bottom: "h_3"
  bottom: "cont_4"
  top: "h_conted_3"
  scale_param {
    axis: 0
  }
}
layer {
  name: "lstm2_transform_4"
  type: "InnerProduct"
  bottom: "h_conted_3"
  top: "W_hc_h_3"
  param {
    name: "W_hc"
  }
  inner_product_param {
    num_output: 400
    bias_term: false
    weight_filler {
      type: "xavier"
    }
    axis: 2
  }
}
layer {
  name: "lstm2_gate_input_4"
  type: "Eltwise"
  bottom: "W_hc_h_3"
  bottom: "W_xc_x_4"
  top: "gate_input_4"
  eltwise_param {
    operation: SUM
  }
}
layer {
  name: "lstm2_unit_4"
  type: "LSTMUnit"
  bottom: "c_3"
  bottom: "gate_input_4"
  bottom: "cont_4"
  top: "c_4"
  top: "h_4"
}
layer {
  name: "lstm2_h_conted_4"
  type: "Scale"
  bottom: "h_4"
  bottom: "cont_5"
  top: "h_conted_4"
  scale_param {
    axis: 0
  }
}
layer {
  name: "lstm2_transform_5"
  type: "InnerProduct"
  bottom: "h_conted_4"
  top: "W_hc_h_4"
  param {
    name: "W_hc"
  }
  inner_product_param {
    num_output: 400
    bias_term: false
    weight_filler {
      type: "xavier"
    }
    axis: 2
  }
}
layer {
  name: "lstm2_gate_input_5"
  type: "Eltwise"
  bottom: "W_hc_h_4"
  bottom: "W_xc_x_5"
  top: "gate_input_5"
  eltwise_param {
    operation: SUM
  }
}
layer {
  name: "lstm2_unit_5"
  type: "LSTMUnit"
  bottom: "c_4"
  bottom: "gate_input_5"
  bottom: "cont_5"
  top: "c_5"
  top: "h_5"
}
layer {
  name: "lstm2_h_conted_5"
  type: "Scale"
  bottom: "h_5"
  bottom: "cont_6"
  top: "h_conted_5"
  scale_param {
    axis: 0
  }
}
layer {
  name: "lstm2_transform_6"
  type: "InnerProduct"
  bottom: "h_conted_5"
  top: "W_hc_h_5"
  param {
    name: "W_hc"
  }
  inner_product_param {
    num_output: 400
    bias_term: false
    weight_filler {
      type: "xavier"
    }
    axis: 2
  }
}
layer {
  name: "lstm2_gate_input_6"
  type: "Eltwise"
  bottom: "W_hc_h_5"
  bottom: "W_xc_x_6"
  top: "gate_input_6"
  eltwise_param {
    operation: SUM
  }
}
layer {
  name: "lstm2_unit_6"
  type: "LSTMUnit"
  bottom: "c_5"
  bottom: "gate_input_6"
  bottom: "cont_6"
  top: "c_6"
  top: "h_6"
}
layer {
  name: "lstm2_h_conted_6"
  type: "Scale"
  bottom: "h_6"
  bottom: "cont_7"
  top: "h_conted_6"
  scale_param {
    axis: 0
  }
}
layer {
  name: "lstm2_transform_7"
  type: "InnerProduct"
  bottom: "h_conted_6"
  top: "W_hc_h_6"
  param {
    name: "W_hc"
  }
  inner_product_param {
    num_output: 400
    bias_term: false
    weight_filler {
      type: "xavier"
    }
    axis: 2
  }
}
layer {
  name: "lstm2_gate_input_7"
  type: "Eltwise"
  bottom: "W_hc_h_6"
  bottom: "W_xc_x_7"
  top: "gate_input_7"
  eltwise_param {
    operation: SUM
  }
}
layer {
  name: "lstm2_unit_7"
  type: "LSTMUnit"
  bottom: "c_6"
  bottom: "gate_input_7"
  bottom: "cont_7"
  top: "c_7"
  top: "h_7"
}
layer {
  name: "lstm2_h_conted_7"
  type: "Scale"
  bottom: "h_7"
  bottom: "cont_8"
  top: "h_conted_7"
  scale_param {
    axis: 0
  }
}
layer {
  name: "lstm2_transform_8"
  type: "InnerProduct"
  bottom: "h_conted_7"
  top: "W_hc_h_7"
  param {
    name: "W_hc"
  }
  inner_product_param {
    num_output: 400
    bias_term: false
    weight_filler {
      type: "xavier"
    }
    axis: 2
  }
}
layer {
  name: "lstm2_gate_input_8"
  type: "Eltwise"
  bottom: "W_hc_h_7"
  bottom: "W_xc_x_8"
  top: "gate_input_8"
  eltwise_param {
    operation: SUM
  }
}
layer {
  name: "lstm2_unit_8"
  type: "LSTMUnit"
  bottom: "c_7"
  bottom: "gate_input_8"
  bottom: "cont_8"
  top: "c_8"
  top: "h_8"
}
layer {
  name: "lstm2_h_conted_8"
  type: "Scale"
  bottom: "h_8"
  bottom: "cont_9"
  top: "h_conted_8"
  scale_param {
    axis: 0
  }
}
layer {
  name: "lstm2_transform_9"
  type: "InnerProduct"
  bottom: "h_conted_8"
  top: "W_hc_h_8"
  param {
    name: "W_hc"
  }
  inner_product_param {
    num_output: 400
    bias_term: false
    weight_filler {
      type: "xavier"
    }
    axis: 2
  }
}
layer {
  name: "lstm2_gate_input_9"
  type: "Eltwise"
  bottom: "W_hc_h_8"
  bottom: "W_xc_x_9"
  top: "gate_input_9"
  eltwise_param {
    operation: SUM
  }
}
layer {
  name: "lstm2_unit_9"
  type: "LSTMUnit"
  bottom: "c_8"
  bottom: "gate_input_9"
  bottom: "cont_9"
  top: "c_9"
  top: "h_9"
}
layer {
  name: "lstm2_h_conted_9"
  type: "Scale"
  bottom: "h_9"
  bottom: "cont_10"
  top: "h_conted_9"
  scale_param {
    axis: 0
  }
}
layer {
  name: "lstm2_transform_10"
  type: "InnerProduct"
  bottom: "h_conted_9"
  top: "W_hc_h_9"
  param {
    name: "W_hc"
  }
  inner_product_param {
    num_output: 400
    bias_term: false
    weight_filler {
      type: "xavier"
    }
    axis: 2
  }
}
layer {
  name: "lstm2_gate_input_10"
  type: "Eltwise"
  bottom: "W_hc_h_9"
  bottom: "W_xc_x_10"
  top: "gate_input_10"
  eltwise_param {
    operation: SUM
  }
}
layer {
  name: "lstm2_unit_10"
  type: "LSTMUnit"
  bottom: "c_9"
  bottom: "gate_input_10"
  bottom: "cont_10"
  top: "c_10"
  top: "h_10"
}
layer {
  name: "lstm2_h_conted_10"
  type: "Scale"
  bottom: "h_10"
  bottom: "cont_11"
  top: "h_conted_10"
  scale_param {
    axis: 0
  }
}
layer {
  name: "lstm2_transform_11"
  type: "InnerProduct"
  bottom: "h_conted_10"
  top: "W_hc_h_10"
  param {
    name: "W_hc"
  }
  inner_product_param {
    num_output: 400
    bias_term: false
    weight_filler {
      type: "xavier"
    }
    axis: 2
  }
}
layer {
  name: "lstm2_gate_input_11"
  type: "Eltwise"
  bottom: "W_hc_h_10"
  bottom: "W_xc_x_11"
  top: "gate_input_11"
  eltwise_param {
    operation: SUM
  }
}
layer {
  name: "lstm2_unit_11"
  type: "LSTMUnit"
  bottom: "c_10"
  bottom: "gate_input_11"
  bottom: "cont_11"
  top: "c_11"
  top: "h_11"
}
layer {
  name: "lstm2_h_conted_11"
  type: "Scale"
  bottom: "h_11"
  bottom: "cont_12"
  top: "h_conted_11"
  scale_param {
    axis: 0
  }
}
layer {
  name: "lstm2_transform_12"
  type: "InnerProduct"
  bottom: "h_conted_11"
  top: "W_hc_h_11"
  param {
    name: "W_hc"
  }
  inner_product_param {
    num_output: 400
    bias_term: false
    weight_filler {
      type: "xavier"
    }
    axis: 2
  }
}
layer {
  name: "lstm2_gate_input_12"
  type: "Eltwise"
  bottom: "W_hc_h_11"
  bottom: "W_xc_x_12"
  top: "gate_input_12"
  eltwise_param {
    operation: SUM
  }
}
layer {
  name: "lstm2_unit_12"
  type: "LSTMUnit"
  bottom: "c_11"
  bottom: "gate_input_12"
  bottom: "cont_12"
  top: "c_12"
  top: "h_12"
}
layer {
  name: "lstm2_h_conted_12"
  type: "Scale"
  bottom: "h_12"
  bottom: "cont_13"
  top: "h_conted_12"
  scale_param {
    axis: 0
  }
}
layer {
  name: "lstm2_transform_13"
  type: "InnerProduct"
  bottom: "h_conted_12"
  top: "W_hc_h_12"
  param {
    name: "W_hc"
  }
  inner_product_param {
    num_output: 400
    bias_term: false
    weight_filler {
      type: "xavier"
    }
    axis: 2
  }
}
layer {
  name: "lstm2_gate_input_13"
  type: "Eltwise"
  bottom: "W_hc_h_12"
  bottom: "W_xc_x_13"
  top: "gate_input_13"
  eltwise_param {
    operation: SUM
  }
}
layer {
  name: "lstm2_unit_13"
  type: "LSTMUnit"
  bottom: "c_12"
  bottom: "gate_input_13"
  bottom: "cont_13"
  top: "c_13"
  top: "h_13"
}
layer {
  name: "lstm2_h_conted_13"
  type: "Scale"
  bottom: "h_13"
  bottom: "cont_14"
  top: "h_conted_13"
  scale_param {
    axis: 0
  }
}
layer {
  name: "lstm2_transform_14"
  type: "InnerProduct"
  bottom: "h_conted_13"
  top: "W_hc_h_13"
  param {
    name: "W_hc"
  }
  inner_product_param {
    num_output: 400
    bias_term: false
    weight_filler {
      type: "xavier"
    }
    axis: 2
  }
}
layer {
  name: "lstm2_gate_input_14"
  type: "Eltwise"
  bottom: "W_hc_h_13"
  bottom: "W_xc_x_14"
  top: "gate_input_14"
  eltwise_param {
    operation: SUM
  }
}
layer {
  name: "lstm2_unit_14"
  type: "LSTMUnit"
  bottom: "c_13"
  bottom: "gate_input_14"
  bottom: "cont_14"
  top: "c_14"
  top: "h_14"
}
layer {
  name: "lstm2_h_conted_14"
  type: "Scale"
  bottom: "h_14"
  bottom: "cont_15"
  top: "h_conted_14"
  scale_param {
    axis: 0
  }
}
layer {
  name: "lstm2_transform_15"
  type: "InnerProduct"
  bottom: "h_conted_14"
  top: "W_hc_h_14"
  param {
    name: "W_hc"
  }
  inner_product_param {
    num_output: 400
    bias_term: false
    weight_filler {
      type: "xavier"
    }
    axis: 2
  }
}
layer {
  name: "lstm2_gate_input_15"
  type: "Eltwise"
  bottom: "W_hc_h_14"
  bottom: "W_xc_x_15"
  top: "gate_input_15"
  eltwise_param {
    operation: SUM
  }
}
layer {
  name: "lstm2_unit_15"
  type: "LSTMUnit"
  bottom: "c_14"
  bottom: "gate_input_15"
  bottom: "cont_15"
  top: "c_15"
  top: "h_15"
}
layer {
  name: "lstm2_h_conted_15"
  type: "Scale"
  bottom: "h_15"
  bottom: "cont_16"
  top: "h_conted_15"
  scale_param {
    axis: 0
  }
}
layer {
  name: "lstm2_transform_16"
  type: "InnerProduct"
  bottom: "h_conted_15"
  top: "W_hc_h_15"
  param {
    name: "W_hc"
  }
  inner_product_param {
    num_output: 400
    bias_term: false
    weight_filler {
      type: "xavier"
    }
    axis: 2
  }
}
layer {
  name: "lstm2_gate_input_16"
  type: "Eltwise"
  bottom: "W_hc_h_15"
  bottom: "W_xc_x_16"
  top: "gate_input_16"
  eltwise_param {
    operation: SUM
  }
}
layer {
  name: "lstm2_unit_16"
  type: "LSTMUnit"
  bottom: "c_15"
  bottom: "gate_input_16"
  bottom: "cont_16"
  top: "c_16"
  top: "h_16"
}
layer {
  name: "lstm2_h_conted_16"
  type: "Scale"
  bottom: "h_16"
  bottom: "cont_17"
  top: "h_conted_16"
  scale_param {
    axis: 0
  }
}
layer {
  name: "lstm2_transform_17"
  type: "InnerProduct"
  bottom: "h_conted_16"
  top: "W_hc_h_16"
  param {
    name: "W_hc"
  }
  inner_product_param {
    num_output: 400
    bias_term: false
    weight_filler {
      type: "xavier"
    }
    axis: 2
  }
}
layer {
  name: "lstm2_gate_input_17"
  type: "Eltwise"
  bottom: "W_hc_h_16"
  bottom: "W_xc_x_17"
  top: "gate_input_17"
  eltwise_param {
    operation: SUM
  }
}
layer {
  name: "lstm2_unit_17"
  type: "LSTMUnit"
  bottom: "c_16"
  bottom: "gate_input_17"
  bottom: "cont_17"
  top: "c_17"
  top: "h_17"
}
layer {
  name: "lstm2_h_conted_17"
  type: "Scale"
  bottom: "h_17"
  bottom: "cont_18"
  top: "h_conted_17"
  scale_param {
    axis: 0
  }
}
layer {
  name: "lstm2_transform_18"
  type: "InnerProduct"
  bottom: "h_conted_17"
  top: "W_hc_h_17"
  param {
    name: "W_hc"
  }
  inner_product_param {
    num_output: 400
    bias_term: false
    weight_filler {
      type: "xavier"
    }
    axis: 2
  }
}
layer {
  name: "lstm2_gate_input_18"
  type: "Eltwise"
  bottom: "W_hc_h_17"
  bottom: "W_xc_x_18"
  top: "gate_input_18"
  eltwise_param {
    operation: SUM
  }
}
layer {
  name: "lstm2_unit_18"
  type: "LSTMUnit"
  bottom: "c_17"
  bottom: "gate_input_18"
  bottom: "cont_18"
  top: "c_18"
  top: "h_18"
}
layer {
  name: "lstm2_h_conted_18"
  type: "Scale"
  bottom: "h_18"
  bottom: "cont_19"
  top: "h_conted_18"
  scale_param {
    axis: 0
  }
}
layer {
  name: "lstm2_transform_19"
  type: "InnerProduct"
  bottom: "h_conted_18"
  top: "W_hc_h_18"
  param {
    name: "W_hc"
  }
  inner_product_param {
    num_output: 400
    bias_term: false
    weight_filler {
      type: "xavier"
    }
    axis: 2
  }
}
layer {
  name: "lstm2_gate_input_19"
  type: "Eltwise"
  bottom: "W_hc_h_18"
  bottom: "W_xc_x_19"
  top: "gate_input_19"
  eltwise_param {
    operation: SUM
  }
}
layer {
  name: "lstm2_unit_19"
  type: "LSTMUnit"
  bottom: "c_18"
  bottom: "gate_input_19"
  bottom: "cont_19"
  top: "c_19"
  top: "h_19"
}
layer {
  name: "lstm2_h_conted_19"
  type: "Scale"
  bottom: "h_19"
  bottom: "cont_20"
  top: "h_conted_19"
  scale_param {
    axis: 0
  }
}
layer {
  name: "lstm2_transform_20"
  type: "InnerProduct"
  bottom: "h_conted_19"
  top: "W_hc_h_19"
  param {
    name: "W_hc"
  }
  inner_product_param {
    num_output: 400
    bias_term: false
    weight_filler {
      type: "xavier"
    }
    axis: 2
  }
}
layer {
  name: "lstm2_gate_input_20"
  type: "Eltwise"
  bottom: "W_hc_h_19"
  bottom: "W_xc_x_20"
  top: "gate_input_20"
  eltwise_param {
    operation: SUM
  }
}
layer {
  name: "lstm2_unit_20"
  type: "LSTMUnit"
  bottom: "c_19"
  bottom: "gate_input_20"
  bottom: "cont_20"
  top: "c_20"
  top: "h_20"
}
layer {
  name: "lstm2_h_conted_20"
  type: "Scale"
  bottom: "h_20"
  bottom: "cont_21"
  top: "h_conted_20"
  scale_param {
    axis: 0
  }
}
layer {
  name: "lstm2_transform_21"
  type: "InnerProduct"
  bottom: "h_conted_20"
  top: "W_hc_h_20"
  param {
    name: "W_hc"
  }
  inner_product_param {
    num_output: 400
    bias_term: false
    weight_filler {
      type: "xavier"
    }
    axis: 2
  }
}
layer {
  name: "lstm2_gate_input_21"
  type: "Eltwise"
  bottom: "W_hc_h_20"
  bottom: "W_xc_x_21"
  top: "gate_input_21"
  eltwise_param {
    operation: SUM
  }
}
layer {
  name: "lstm2_unit_21"
  type: "LSTMUnit"
  bottom: "c_20"
  bottom: "gate_input_21"
  bottom: "cont_21"
  top: "c_21"
  top: "h_21"
}
layer {
  name: "lstm2_h_conted_21"
  type: "Scale"
  bottom: "h_21"
  bottom: "cont_22"
  top: "h_conted_21"
  scale_param {
    axis: 0
  }
}
layer {
  name: "lstm2_transform_22"
  type: "InnerProduct"
  bottom: "h_conted_21"
  top: "W_hc_h_21"
  param {
    name: "W_hc"
  }
  inner_product_param {
    num_output: 400
    bias_term: false
    weight_filler {
      type: "xavier"
    }
    axis: 2
  }
}
layer {
  name: "lstm2_gate_input_22"
  type: "Eltwise"
  bottom: "W_hc_h_21"
  bottom: "W_xc_x_22"
  top: "gate_input_22"
  eltwise_param {
    operation: SUM
  }
}
layer {
  name: "lstm2_unit_22"
  type: "LSTMUnit"
  bottom: "c_21"
  bottom: "gate_input_22"
  bottom: "cont_22"
  top: "c_22"
  top: "h_22"
}
layer {
  name: "lstm2_h_conted_22"
  type: "Scale"
  bottom: "h_22"
  bottom: "cont_23"
  top: "h_conted_22"
  scale_param {
    axis: 0
  }
}
layer {
  name: "lstm2_transform_23"
  type: "InnerProduct"
  bottom: "h_conted_22"
  top: "W_hc_h_22"
  param {
    name: "W_hc"
  }
  inner_product_param {
    num_output: 400
    bias_term: false
    weight_filler {
      type: "xavier"
    }
    axis: 2
  }
}
layer {
  name: "lstm2_gate_input_23"
  type: "Eltwise"
  bottom: "W_hc_h_22"
  bottom: "W_xc_x_23"
  top: "gate_input_23"
  eltwise_param {
    operation: SUM
  }
}
layer {
  name: "lstm2_unit_23"
  type: "LSTMUnit"
  bottom: "c_22"
  bottom: "gate_input_23"
  bottom: "cont_23"
  top: "c_23"
  top: "h_23"
}
layer {
  name: "lstm2_h_conted_23"
  type: "Scale"
  bottom: "h_23"
  bottom: "cont_24"
  top: "h_conted_23"
  scale_param {
    axis: 0
  }
}
layer {
  name: "lstm2_transform_24"
  type: "InnerProduct"
  bottom: "h_conted_23"
  top: "W_hc_h_23"
  param {
    name: "W_hc"
  }
  inner_product_param {
    num_output: 400
    bias_term: false
    weight_filler {
      type: "xavier"
    }
    axis: 2
  }
}
layer {
  name: "lstm2_gate_input_24"
  type: "Eltwise"
  bottom: "W_hc_h_23"
  bottom: "W_xc_x_24"
  top: "gate_input_24"
  eltwise_param {
    operation: SUM
  }
}
layer {
  name: "lstm2_unit_24"
  type: "LSTMUnit"
  bottom: "c_23"
  bottom: "gate_input_24"
  bottom: "cont_24"
  top: "c_24"
  top: "h_24"
}
layer {
  name: "lstm2_h_conted_24"
  type: "Scale"
  bottom: "h_24"
  bottom: "cont_25"
  top: "h_conted_24"
  scale_param {
    axis: 0
  }
}
layer {
  name: "lstm2_transform_25"
  type: "InnerProduct"
  bottom: "h_conted_24"
  top: "W_hc_h_24"
  param {
    name: "W_hc"
  }
  inner_product_param {
    num_output: 400
    bias_term: false
    weight_filler {
      type: "xavier"
    }
    axis: 2
  }
}
layer {
  name: "lstm2_gate_input_25"
  type: "Eltwise"
  bottom: "W_hc_h_24"
  bottom: "W_xc_x_25"
  top: "gate_input_25"
  eltwise_param {
    operation: SUM
  }
}
layer {
  name: "lstm2_unit_25"
  type: "LSTMUnit"
  bottom: "c_24"
  bottom: "gate_input_25"
  bottom: "cont_25"
  top: "c_25"
  top: "h_25"
}
layer {
  name: "lstm2_h_conted_25"
  type: "Scale"
  bottom: "h_25"
  bottom: "cont_26"
  top: "h_conted_25"
  scale_param {
    axis: 0
  }
}
layer {
  name: "lstm2_transform_26"
  type: "InnerProduct"
  bottom: "h_conted_25"
  top: "W_hc_h_25"
  param {
    name: "W_hc"
  }
  inner_product_param {
    num_output: 400
    bias_term: false
    weight_filler {
      type: "xavier"
    }
    axis: 2
  }
}
layer {
  name: "lstm2_gate_input_26"
  type: "Eltwise"
  bottom: "W_hc_h_25"
  bottom: "W_xc_x_26"
  top: "gate_input_26"
  eltwise_param {
    operation: SUM
  }
}
layer {
  name: "lstm2_unit_26"
  type: "LSTMUnit"
  bottom: "c_25"
  bottom: "gate_input_26"
  bottom: "cont_26"
  top: "c_26"
  top: "h_26"
}
layer {
  name: "lstm2_h_conted_26"
  type: "Scale"
  bottom: "h_26"
  bottom: "cont_27"
  top: "h_conted_26"
  scale_param {
    axis: 0
  }
}
layer {
  name: "lstm2_transform_27"
  type: "InnerProduct"
  bottom: "h_conted_26"
  top: "W_hc_h_26"
  param {
    name: "W_hc"
  }
  inner_product_param {
    num_output: 400
    bias_term: false
    weight_filler {
      type: "xavier"
    }
    axis: 2
  }
}
layer {
  name: "lstm2_gate_input_27"
  type: "Eltwise"
  bottom: "W_hc_h_26"
  bottom: "W_xc_x_27"
  top: "gate_input_27"
  eltwise_param {
    operation: SUM
  }
}
layer {
  name: "lstm2_unit_27"
  type: "LSTMUnit"
  bottom: "c_26"
  bottom: "gate_input_27"
  bottom: "cont_27"
  top: "c_27"
  top: "h_27"
}
layer {
  name: "lstm2_h_conted_27"
  type: "Scale"
  bottom: "h_27"
  bottom: "cont_28"
  top: "h_conted_27"
  scale_param {
    axis: 0
  }
}
layer {
  name: "lstm2_transform_28"
  type: "InnerProduct"
  bottom: "h_conted_27"
  top: "W_hc_h_27"
  param {
    name: "W_hc"
  }
  inner_product_param {
    num_output: 400
    bias_term: false
    weight_filler {
      type: "xavier"
    }
    axis: 2
  }
}
layer {
  name: "lstm2_gate_input_28"
  type: "Eltwise"
  bottom: "W_hc_h_27"
  bottom: "W_xc_x_28"
  top: "gate_input_28"
  eltwise_param {
    operation: SUM
  }
}
layer {
  name: "lstm2_unit_28"
  type: "LSTMUnit"
  bottom: "c_27"
  bottom: "gate_input_28"
  bottom: "cont_28"
  top: "c_28"
  top: "h_28"
}
layer {
  name: "lstm2_h_conted_28"
  type: "Scale"
  bottom: "h_28"
  bottom: "cont_29"
  top: "h_conted_28"
  scale_param {
    axis: 0
  }
}
layer {
  name: "lstm2_transform_29"
  type: "InnerProduct"
  bottom: "h_conted_28"
  top: "W_hc_h_28"
  param {
    name: "W_hc"
  }
  inner_product_param {
    num_output: 400
    bias_term: false
    weight_filler {
      type: "xavier"
    }
    axis: 2
  }
}
layer {
  name: "lstm2_gate_input_29"
  type: "Eltwise"
  bottom: "W_hc_h_28"
  bottom: "W_xc_x_29"
  top: "gate_input_29"
  eltwise_param {
    operation: SUM
  }
}
layer {
  name: "lstm2_unit_29"
  type: "LSTMUnit"
  bottom: "c_28"
  bottom: "gate_input_29"
  bottom: "cont_29"
  top: "c_29"
  top: "h_29"
}
layer {
  name: "lstm2_h_conted_29"
  type: "Scale"
  bottom: "h_29"
  bottom: "cont_30"
  top: "h_conted_29"
  scale_param {
    axis: 0
  }
}
layer {
  name: "lstm2_transform_30"
  type: "InnerProduct"
  bottom: "h_conted_29"
  top: "W_hc_h_29"
  param {
    name: "W_hc"
  }
  inner_product_param {
    num_output: 400
    bias_term: false
    weight_filler {
      type: "xavier"
    }
    axis: 2
  }
}
layer {
  name: "lstm2_gate_input_30"
  type: "Eltwise"
  bottom: "W_hc_h_29"
  bottom: "W_xc_x_30"
  top: "gate_input_30"
  eltwise_param {
    operation: SUM
  }
}
layer {
  name: "lstm2_unit_30"
  type: "LSTMUnit"
  bottom: "c_29"
  bottom: "gate_input_30"
  bottom: "cont_30"
  top: "c_30"
  top: "h_30"
}
layer {
  name: "lstm2_h_conted_30"
  type: "Scale"
  bottom: "h_30"
  bottom: "cont_31"
  top: "h_conted_30"
  scale_param {
    axis: 0
  }
}
layer {
  name: "lstm2_transform_31"
  type: "InnerProduct"
  bottom: "h_conted_30"
  top: "W_hc_h_30"
  param {
    name: "W_hc"
  }
  inner_product_param {
    num_output: 400
    bias_term: false
    weight_filler {
      type: "xavier"
    }
    axis: 2
  }
}
layer {
  name: "lstm2_gate_input_31"
  type: "Eltwise"
  bottom: "W_hc_h_30"
  bottom: "W_xc_x_31"
  top: "gate_input_31"
  eltwise_param {
    operation: SUM
  }
}
layer {
  name: "lstm2_unit_31"
  type: "LSTMUnit"
  bottom: "c_30"
  bottom: "gate_input_31"
  bottom: "cont_31"
  top: "c_31"
  top: "h_31"
}
layer {
  name: "lstm2_h_conted_31"
  type: "Scale"
  bottom: "h_31"
  bottom: "cont_32"
  top: "h_conted_31"
  scale_param {
    axis: 0
  }
}
layer {
  name: "lstm2_transform_32"
  type: "InnerProduct"
  bottom: "h_conted_31"
  top: "W_hc_h_31"
  param {
    name: "W_hc"
  }
  inner_product_param {
    num_output: 400
    bias_term: false
    weight_filler {
      type: "xavier"
    }
    axis: 2
  }
}
layer {
  name: "lstm2_gate_input_32"
  type: "Eltwise"
  bottom: "W_hc_h_31"
  bottom: "W_xc_x_32"
  top: "gate_input_32"
  eltwise_param {
    operation: SUM
  }
}
layer {
  name: "lstm2_unit_32"
  type: "LSTMUnit"
  bottom: "c_31"
  bottom: "gate_input_32"
  bottom: "cont_32"
  top: "c_32"
  top: "h_32"
}
layer {
  name: "lstm2_h_conted_32"
  type: "Scale"
  bottom: "h_32"
  bottom: "cont_33"
  top: "h_conted_32"
  scale_param {
    axis: 0
  }
}
layer {
  name: "lstm2_transform_33"
  type: "InnerProduct"
  bottom: "h_conted_32"
  top: "W_hc_h_32"
  param {
    name: "W_hc"
  }
  inner_product_param {
    num_output: 400
    bias_term: false
    weight_filler {
      type: "xavier"
    }
    axis: 2
  }
}
layer {
  name: "lstm2_gate_input_33"
  type: "Eltwise"
  bottom: "W_hc_h_32"
  bottom: "W_xc_x_33"
  top: "gate_input_33"
  eltwise_param {
    operation: SUM
  }
}
layer {
  name: "lstm2_unit_33"
  type: "LSTMUnit"
  bottom: "c_32"
  bottom: "gate_input_33"
  bottom: "cont_33"
  top: "c_33"
  top: "h_33"
}
layer {
  name: "lstm2_h_conted_33"
  type: "Scale"
  bottom: "h_33"
  bottom: "cont_34"
  top: "h_conted_33"
  scale_param {
    axis: 0
  }
}
layer {
  name: "lstm2_transform_34"
  type: "InnerProduct"
  bottom: "h_conted_33"
  top: "W_hc_h_33"
  param {
    name: "W_hc"
  }
  inner_product_param {
    num_output: 400
    bias_term: false
    weight_filler {
      type: "xavier"
    }
    axis: 2
  }
}
layer {
  name: "lstm2_gate_input_34"
  type: "Eltwise"
  bottom: "W_hc_h_33"
  bottom: "W_xc_x_34"
  top: "gate_input_34"
  eltwise_param {
    operation: SUM
  }
}
layer {
  name: "lstm2_unit_34"
  type: "LSTMUnit"
  bottom: "c_33"
  bottom: "gate_input_34"
  bottom: "cont_34"
  top: "c_34"
  top: "h_34"
}
layer {
  name: "lstm2_h_conted_34"
  type: "Scale"
  bottom: "h_34"
  bottom: "cont_35"
  top: "h_conted_34"
  scale_param {
    axis: 0
  }
}
layer {
  name: "lstm2_transform_35"
  type: "InnerProduct"
  bottom: "h_conted_34"
  top: "W_hc_h_34"
  param {
    name: "W_hc"
  }
  inner_product_param {
    num_output: 400
    bias_term: false
    weight_filler {
      type: "xavier"
    }
    axis: 2
  }
}
layer {
  name: "lstm2_gate_input_35"
  type: "Eltwise"
  bottom: "W_hc_h_34"
  bottom: "W_xc_x_35"
  top: "gate_input_35"
  eltwise_param {
    operation: SUM
  }
}
layer {
  name: "lstm2_unit_35"
  type: "LSTMUnit"
  bottom: "c_34"
  bottom: "gate_input_35"
  bottom: "cont_35"
  top: "c_35"
  top: "h_35"
}
layer {
  name: "lstm2_h_conted_35"
  type: "Scale"
  bottom: "h_35"
  bottom: "cont_36"
  top: "h_conted_35"
  scale_param {
    axis: 0
  }
}
layer {
  name: "lstm2_transform_36"
  type: "InnerProduct"
  bottom: "h_conted_35"
  top: "W_hc_h_35"
  param {
    name: "W_hc"
  }
  inner_product_param {
    num_output: 400
    bias_term: false
    weight_filler {
      type: "xavier"
    }
    axis: 2
  }
}
layer {
  name: "lstm2_gate_input_36"
  type: "Eltwise"
  bottom: "W_hc_h_35"
  bottom: "W_xc_x_36"
  top: "gate_input_36"
  eltwise_param {
    operation: SUM
  }
}
layer {
  name: "lstm2_unit_36"
  type: "LSTMUnit"
  bottom: "c_35"
  bottom: "gate_input_36"
  bottom: "cont_36"
  top: "c_36"
  top: "h_36"
}
layer {
  name: "lstm2_h_conted_36"
  type: "Scale"
  bottom: "h_36"
  bottom: "cont_37"
  top: "h_conted_36"
  scale_param {
    axis: 0
  }
}
layer {
  name: "lstm2_transform_37"
  type: "InnerProduct"
  bottom: "h_conted_36"
  top: "W_hc_h_36"
  param {
    name: "W_hc"
  }
  inner_product_param {
    num_output: 400
    bias_term: false
    weight_filler {
      type: "xavier"
    }
   
I0505 14:44:21.640555 27066 layer_factory.hpp:77] Creating layer lstm2_
I0505 14:44:21.640564 27066 net.cpp:86] Creating Layer lstm2_
I0505 14:44:21.640568 27066 net.cpp:382] lstm2_ -> x
I0505 14:44:21.640573 27066 net.cpp:382] lstm2_ -> cont
I0505 14:44:21.640628 27066 net.cpp:124] Setting up lstm2_
I0505 14:44:21.640631 27066 net.cpp:131] Top shape: 80 512 100 (4096000)
I0505 14:44:21.640635 27066 net.cpp:131] Top shape: 80 512 (40960)
I0505 14:44:21.640637 27066 net.cpp:139] Memory required for data: 16547840
I0505 14:44:21.640640 27066 layer_factory.hpp:77] Creating layer lstm2_
I0505 14:44:21.640645 27066 net.cpp:86] Creating Layer lstm2_
I0505 14:44:21.640647 27066 net.cpp:382] lstm2_ -> c_0
I0505 14:44:21.640652 27066 net.cpp:382] lstm2_ -> h_0
I0505 14:44:21.640681 27066 net.cpp:124] Setting up lstm2_
I0505 14:44:21.640683 27066 net.cpp:131] Top shape: 1 512 100 (51200)
I0505 14:44:21.640686 27066 net.cpp:131] Top shape: 1 512 100 (51200)
I0505 14:44:21.640689 27066 net.cpp:139] Memory required for data: 16957440
I0505 14:44:21.640691 27066 layer_factory.hpp:77] Creating layer lstm2_cont_slice
I0505 14:44:21.640697 27066 net.cpp:86] Creating Layer lstm2_cont_slice
I0505 14:44:21.640700 27066 net.cpp:408] lstm2_cont_slice <- cont
I0505 14:44:21.640705 27066 net.cpp:382] lstm2_cont_slice -> cont_1
I0505 14:44:21.640712 27066 net.cpp:382] lstm2_cont_slice -> cont_2
…
I0505 14:44:21.774405 27066 net.cpp:53] Initializing net from parameters: 
name: "vehicle_captcha_test"
state {
  phase: TEST
}
layer {
  name: "data"
  type: "Python"
  top: "data"
  top: "label"
  python_param {
    module: "pythonLayer"
    layer: "WarpctcDataLayer"
    param_str: "{\'width\': 80, \'label_txt\': \'data/captcha/test.txt\', \'train\': False, \'batch_size\': 512, \'height\': 30}"
  }
}
layer {
  name: "indicator"
  type: "ContinuationIndicator"
  top: "indicator"
  continuation_indicator_param {
    time_step: 80
    batch_size: 512
  }
}
layer {
  name: "permuted_data"
  type: "Permute"
  bottom: "data"
  top: "permuted_data"
  permute_param {
    order: 3
    order: 0
    order: 1
    order: 2
  }
}
layer {
  name: "lstm1"
  type: "LSTM"
  bottom: "permuted_data"
  bottom: "indicator"
  top: "lstm1"
  recurrent_param {
    num_output: 100
    weight_filler {
      type: "xavier"
    }
    bias_filler {
      type: "constant"
      value: 0
    }
  }
}
layer {
  name: "lstm2"
  type: "LSTM"
  bottom: "lstm1"
  bottom: "indicator"
  top: "lstm2"
  recurrent_param {
    num_output: 100
    weight_filler {
      type: "xavier"
    }
    bias_filler {
      type: "constant"
      value: 0
    }
  }
}
layer {
  name: "fc1"
  type: "InnerProduct"
  bottom: "lstm2"
  top: "fc1"
  param {
    lr_mult: 1
    decay_mult: 1
  }
  param {
    lr_mult: 2
    decay_mult: 0
  }
  inner_product_param {
    num_output: 11
    weight_filler {
      type: "xavier"
    }
    bias_filler {
      type: "constant"
      value: 0
    }
    axis: 2
  }
}
layer {
  name: "ctc_loss"
  type: "CtcLoss"
  bottom: "fc1"
  bottom: "label"
  top: "ctc_loss"
  loss_weight: 1
  ctc_loss_param {
    alphabet_size: 11
    time_step: 80
    blank_label: 10
  }
}
layer {
  name: "premuted_fc"
  type: "Permute"
  bottom: "fc1"
  top: "premuted_fc"
  permute_param {
    order: 1
    order: 0
    order: 2
  }
}
layer {
  name: "accuracy"
  type: "LabelsequenceAccuracy"
  bottom: "premuted_fc"
  bottom: "label"
  top: "accuracy"
  labelsequence_accuracy_param {
    blank_label: 10
  }
}
I0505 14:44:21.774518 27066 layer_factory.hpp:77] Creating layer data
I0505 14:44:21.774585 27066 net.cpp:86] Creating Layer data
I0505 14:44:21.774590 27066 net.cpp:382] data -> data
I0505 14:44:21.774595 27066 net.cpp:382] data -> label
I0505 14:44:21.778185 27066 net.cpp:124] Setting up data
I0505 14:44:21.778194 27066 net.cpp:131] Top shape: 512 3 30 80 (3686400)
I0505 14:44:21.778198 27066 net.cpp:131] Top shape: 512 5 (2560)
I0505 14:44:21.778200 27066 net.cpp:139] Memory required for data: 14755840
I0505 14:44:21.778204 27066 layer_factory.hpp:77] Creating layer label_data_1_split
I0505 14:44:21.778229 27066 net.cpp:86] Creating Layer label_data_1_split
I0505 14:44:21.778231 27066 net.cpp:408] label_data_1_split <- label
I0505 14:44:21.778236 27066 net.cpp:382] label_data_1_split -> label_data_1_split_0
I0505 14:44:21.778242 27066 net.cpp:382] label_data_1_split -> label_data_1_split_1
I0505 14:44:21.778272 27066 net.cpp:124] Setting up label_data_1_split
I0505 14:44:21.778275 27066 net.cpp:131] Top shape: 512 5 (2560)
I0505 14:44:21.778277 27066 net.cpp:131] Top shape: 512 5 (2560)
I0505 14:44:21.778280 27066 net.cpp:139] Memory required for data: 14776320
I0505 14:44:21.778281 27066 layer_factory.hpp:77] Creating layer indicator
I0505 14:44:21.778285 27066 net.cpp:86] Creating Layer indicator
I0505 14:44:21.778288 27066 net.cpp:382] indicator -> indicator
I0505 14:44:21.778302 27066 net.cpp:124] Setting up indicator
I0505 14:44:21.778304 27066 net.cpp:131] Top shape: 80 512 (40960)
I0505 14:44:21.778307 27066 net.cpp:139] Memory required for data: 14940160
I0505 14:44:21.778309 27066 layer_factory.hpp:77] Creating layer indicator_indicator_0_split
I0505 14:44:21.778313 27066 net.cpp:86] Creating Layer indicator_indicator_0_split
I0505 14:44:21.778316 27066 net.cpp:408] indicator_indicator_0_split <- indicator
I0505 14:44:21.778321 27066 net.cpp:382] indicator_indicator_0_split -> indicator_indicator_0_split_0
I0505 14:44:21.778326 27066 net.cpp:382] indicator_indicator_0_split -> indicator_indicator_0_split_1
I0505 14:44:21.778349 27066 net.cpp:124] Setting up indicator_indicator_0_split
I0505 14:44:21.778352 27066 net.cpp:131] Top shape: 80 512 (40960)
I0505 14:44:21.778354 27066 net.cpp:131] Top shape: 80 512 (40960)
I0505 14:44:21.778357 27066 net.cpp:139] Memory required for data: 15267840
I0505 14:44:21.778359 27066 layer_factory.hpp:77] Creating layer permuted_data
I0505 14:44:21.778365 27066 net.cpp:86] Creating Layer permuted_data
I0505 14:44:21.778367 27066 net.cpp:408] permuted_data <- data
I0505 14:44:21.778371 27066 net.cpp:382] permuted_data -> permuted_data
I0505 14:44:21.778440 27066 net.cpp:124] Setting up permuted_data
I0505 14:44:21.778442 27066 net.cpp:131] Top shape: 80 512 3 30 (3686400)
I0505 14:44:21.778445 27066 net.cpp:139] Memory required for data: 30013440
I0505 14:44:21.778447 27066 layer_factory.hpp:77] Creating layer lstm1
I0505 14:44:21.778452 27066 net.cpp:86] Creating Layer lstm1
I0505 14:44:21.778455 27066 net.cpp:408] lstm1 <- permuted_data
I0505 14:44:21.778457 27066 net.cpp:408] lstm1 <- indicator_indicator_0_split_0
I0505 14:44:21.778460 27066 net.cpp:382] lstm1 -> lstm1
I0505 14:44:21.778465 27066 recurrent_layer.cpp:20] Initializing recurrent layer: assuming input batch contains 80 timesteps of 512 independent streams.
I0505 14:44:21.779142 27066 net.cpp:53] Initializing net from parameters: 
layer {
  name: "lstm1_"
  type: "Input"
  top: "x"
  top: "cont"
  input_param {
    shape {
      dim: 80
      dim: 512
      dim: 3
      dim: 30
    }
    shape {
      dim: 80
      dim: 512
    }
  }
}
layer {
  name: "lstm1_"
  type: "Input"
  top: "c_0"
  top: "h_0"
  input_param {
    shape {
      dim: 1
      dim: 512
      dim: 100
    }
    shape {
      dim: 1
      dim: 512
      dim: 100
    }
  }
}
layer {
  name: "lstm1_cont_slice"
  type: "Slice"
  bottom: "cont"
  top: "cont_1"
  top: "cont_2"
  top: "cont_3"
  top: "cont_4"
  top: "cont_5"
  top: "cont_6"
  top: "cont_7"
  top: "cont_8"
  top: "cont_9"
  top: "cont_10"
  top: "cont_11"
  top: "cont_12"
  top: "cont_13"
  top: "cont_14"
  top: "cont_15"
  top: "cont_16"
  top: "cont_17"
  top: "cont_18"
  top: "cont_19"
  top: "cont_20"
  top: "cont_21"
  top: "cont_22"
  top: "cont_23"
  top: "cont_24"
  top: "cont_25"
  top: "cont_26"
  top: "cont_27"
  top: "cont_28"
  top: "cont_29"
  top: "cont_30"
  top: "cont_31"
  top: "cont_32"
  top: "cont_33"
  top: "cont_34"
  top: "cont_35"
  top: "cont_36"
  top: "cont_37"
  top: "cont_38"
  top: "cont_39"
  top: "cont_40"
  top: "cont_41"
  top: "cont_42"
  top: "cont_43"
  top: "cont_44"
  top: "cont_45"
  top: "cont_46"
  top: "cont_47"
  top: "cont_48"
  top: "cont_49"
  top: "cont_50"
  top: "cont_51"
  top: "cont_52"
  top: "cont_53"
  top: "cont_54"
  top: "cont_55"
  top: "cont_56"
  top: "cont_57"
  top: "cont_58"
  top: "cont_59"
  top: "cont_60"
  top: "cont_61"
  top: "cont_62"
  top: "cont_63"
  top: "cont_64"
  top: "cont_65"
  top: "cont_66"
  top: "cont_67"
  top: "cont_68"
  top: "cont_69"
  top: "cont_70"
  top: "cont_71"
  top: "cont_72"
  top: "cont_73"
  top: "cont_74"
  top: "cont_75"
  top: "cont_76"
  top: "cont_77"
  top: "cont_78"
  top: "cont_79"
  top: "cont_80"
  slice_param {
    axis: 0
  }
}
layer {
  name: "lstm1_x_transform"
  type: "InnerProduct"
  bottom: "x"
  top: "W_xc_x"
  param {
    name: "W_xc"
  }
  param {
    name: "b_c"
  }
  propagate_down: true
  inner_product_param {
    num_output: 400
    bias_term: true
    weight_filler {
      type: "xavier"
    }
    bias_filler {
      type: "constant"
      value: 0
    }
    axis: 2
  }
}
layer {
  name: "lstm1_W_xc_x_slice"
  type: "Slice"
  bottom: "W_xc_x"
  top: "W_xc_x_1"
  top: "W_xc_x_2"
  top: "W_xc_x_3"
  top: "W_xc_x_4"
  top: "W_xc_x_5"
  top: "W_xc_x_6"
  top: "W_xc_x_7"
  top: "W_xc_x_8"
  top: "W_xc_x_9"
  top: "W_xc_x_10"
  top: "W_xc_x_11"
  top: "W_xc_x_12"
  top: "W_xc_x_13"
  top: "W_xc_x_14"
  top: "W_xc_x_15"
  top: "W_xc_x_16"
  top: "W_xc_x_17"
  top: "W_xc_x_18"
  top: "W_xc_x_19"
  top: "W_xc_x_20"
  top: "W_xc_x_21"
  top: "W_xc_x_22"
…
I0505 14:44:22.043006 27066 net.cpp:202] lstm2_ does not need backward computation.
I0505 14:44:22.043015 27066 net.cpp:244] This network produces output c_T
I0505 14:44:22.043023 27066 net.cpp:244] This network produces output h_pseudoloss
I0505 14:44:22.046766 27066 net.cpp:257] Network initialization done.
I0505 14:44:22.047720 27066 recurrent_layer.cpp:150] Adding parameter 0: W_xc
I0505 14:44:22.047729 27066 recurrent_layer.cpp:150] Adding parameter 1: b_c
I0505 14:44:22.047732 27066 recurrent_layer.cpp:150] Adding parameter 2: W_hc
I0505 14:44:22.050801 27066 net.cpp:124] Setting up lstm2
I0505 14:44:22.050830 27066 net.cpp:131] Top shape: 80 512 100 (4096000)
I0505 14:44:22.050839 27066 net.cpp:139] Memory required for data: 62781440
I0505 14:44:22.050859 27066 layer_factory.hpp:77] Creating layer fc1
I0505 14:44:22.050879 27066 net.cpp:86] Creating Layer fc1
I0505 14:44:22.050884 27066 net.cpp:408] fc1 <- lstm2
I0505 14:44:22.050894 27066 net.cpp:382] fc1 -> fc1
I0505 14:44:22.051069 27066 net.cpp:124] Setting up fc1
I0505 14:44:22.051071 27066 net.cpp:131] Top shape: 80 512 11 (450560)
I0505 14:44:22.051075 27066 net.cpp:139] Memory required for data: 64583680
I0505 14:44:22.051080 27066 layer_factory.hpp:77] Creating layer fc1_fc1_0_split
I0505 14:44:22.051089 27066 net.cpp:86] Creating Layer fc1_fc1_0_split
I0505 14:44:22.051091 27066 net.cpp:408] fc1_fc1_0_split <- fc1
I0505 14:44:22.051096 27066 net.cpp:382] fc1_fc1_0_split -> fc1_fc1_0_split_0
I0505 14:44:22.051102 27066 net.cpp:382] fc1_fc1_0_split -> fc1_fc1_0_split_1
I0505 14:44:22.051131 27066 net.cpp:124] Setting up fc1_fc1_0_split
I0505 14:44:22.051133 27066 net.cpp:131] Top shape: 80 512 11 (450560)
I0505 14:44:22.051137 27066 net.cpp:131] Top shape: 80 512 11 (450560)
I0505 14:44:22.051141 27066 net.cpp:139] Memory required for data: 68188160
I0505 14:44:22.051143 27066 layer_factory.hpp:77] Creating layer ctc_loss
I0505 14:44:22.051151 27066 net.cpp:86] Creating Layer ctc_loss
I0505 14:44:22.051153 27066 net.cpp:408] ctc_loss <- fc1_fc1_0_split_0
I0505 14:44:22.051157 27066 net.cpp:408] ctc_loss <- label_data_1_split_0
I0505 14:44:22.051162 27066 net.cpp:382] ctc_loss -> ctc_loss
I0505 14:44:22.051182 27066 net.cpp:124] Setting up ctc_loss
I0505 14:44:22.051183 27066 net.cpp:131] Top shape: (1)
I0505 14:44:22.051187 27066 net.cpp:134]     with loss weight 1
I0505 14:44:22.051195 27066 net.cpp:139] Memory required for data: 68188164
I0505 14:44:22.051198 27066 layer_factory.hpp:77] Creating layer premuted_fc
I0505 14:44:22.051203 27066 net.cpp:86] Creating Layer premuted_fc
I0505 14:44:22.051206 27066 net.cpp:408] premuted_fc <- fc1_fc1_0_split_1
I0505 14:44:22.051210 27066 net.cpp:382] premuted_fc -> premuted_fc
I0505 14:44:22.051309 27066 net.cpp:124] Setting up premuted_fc
I0505 14:44:22.051314 27066 net.cpp:131] Top shape: 512 80 11 (450560)
I0505 14:44:22.051319 27066 net.cpp:139] Memory required for data: 69990404
I0505 14:44:22.051321 27066 layer_factory.hpp:77] Creating layer accuracy
I0505 14:44:22.051329 27066 net.cpp:86] Creating Layer accuracy
I0505 14:44:22.051331 27066 net.cpp:408] accuracy <- premuted_fc
I0505 14:44:22.051334 27066 net.cpp:408] accuracy <- label_data_1_split_1
I0505 14:44:22.051339 27066 net.cpp:382] accuracy -> accuracy
…
