…
I0420 16:55:51.912788 25592 net.cpp:53] Initializing net from parameters: 
name: "vehicle_captcha_train"
state {
  phase: TRAIN
  level: 0
  stage: ""
}
layer {
  name: "data"
  type: "Python"
  top: "data"
  top: "label"
  python_param {
    module: "pythonLayer"
    layer: "WarpctcDataLayer"
    param_str: "{\'width\': 80, \'label_txt\': \'data/captcha/trainval.txt\', \'train\': True, \'batch_size\': 512, \'height\': 30}"
  }
}
layer {
  name: "indicator"
  type: "ContinuationIndicator"
  top: "indicator"
  continuation_indicator_param {
    time_step: 80
    batch_size: 512
  }
}
layer {
  name: "permuted_data"
  type: "Permute"
  bottom: "data"
  top: "permuted_data"
  permute_param {
    order: 3
    order: 0
    order: 1
    order: 2
  }
}
layer {
  name: "lstm1"
  type: "LSTM"
  bottom: "permuted_data"
  bottom: "indicator"
  top: "lstm1"
  recurrent_param {
    num_output: 100
    weight_filler {
      type: "xavier"
    }
    bias_filler {
      type: "constant"
      value: 0
    }
  }
}
layer {
  name: "lstm2"
  type: "LSTM"
  bottom: "lstm1"
  bottom: "indicator"
  top: "lstm2"
  recurrent_param {
    num_output: 100
    weight_filler {
      type: "xavier"
    }
    bias_filler {
      type: "constant"
      value: 0
    }
  }
}
layer {
  name: "fc1"
  type: "InnerProduct"
  bottom: "lstm2"
  top: "fc1"
  param {
    lr_mult: 1
    decay_mult: 1
  }
  param {
    lr_mult: 2
    decay_mult: 0
  }
  inner_product_param {
    num_output: 11
    weight_filler {
      type: "xavier"
    }
    bias_filler {
      type: "constant"
      value: 0
    }
    axis: 2
  }
}
layer {
  name: "ctc_loss"
  type: "CtcLoss"
  bottom: "fc1"
  bottom: "label"
  top: "ctc_loss"
  loss_weight: 1
  ctc_loss_param {
    alphabet_size: 11
    time_step: 80
    blank_label: 10
  }
}
I0420 16:55:51.912874 25592 layer_factory.hpp:77] Creating layer data
I0420 16:55:52.423190 25592 net.cpp:86] Creating Layer data
I0420 16:55:52.423221 25592 net.cpp:382] data -> data
I0420 16:55:52.423239 25592 net.cpp:382] data -> label
I0420 16:55:52.468004 25592 net.cpp:124] Setting up data
I0420 16:55:52.468029 25592 net.cpp:131] Top shape: 512 3 30 80 (3686400)
I0420 16:55:52.468036 25592 net.cpp:131] Top shape: 512 5 (2560)
I0420 16:55:52.468039 25592 net.cpp:139] Memory required for data: 14755840
I0420 16:55:52.468050 25592 layer_factory.hpp:77] Creating layer indicator
I0420 16:55:52.468063 25592 net.cpp:86] Creating Layer indicator
I0420 16:55:52.468067 25592 net.cpp:382] indicator -> indicator
I0420 16:55:52.468096 25592 net.cpp:124] Setting up indicator
I0420 16:55:52.468098 25592 net.cpp:131] Top shape: 80 512 (40960)
I0420 16:55:52.468101 25592 net.cpp:139] Memory required for data: 14919680
I0420 16:55:52.468104 25592 layer_factory.hpp:77] Creating layer indicator_indicator_0_split
I0420 16:55:52.468112 25592 net.cpp:86] Creating Layer indicator_indicator_0_split
I0420 16:55:52.468116 25592 net.cpp:408] indicator_indicator_0_split <- indicator
I0420 16:55:52.468127 25592 net.cpp:382] indicator_indicator_0_split -> indicator_indicator_0_split_0
I0420 16:55:52.468132 25592 net.cpp:382] indicator_indicator_0_split -> indicator_indicator_0_split_1
I0420 16:55:52.468158 25592 net.cpp:124] Setting up indicator_indicator_0_split
I0420 16:55:52.468160 25592 net.cpp:131] Top shape: 80 512 (40960)
I0420 16:55:52.468163 25592 net.cpp:131] Top shape: 80 512 (40960)
I0420 16:55:52.468165 25592 net.cpp:139] Memory required for data: 15247360
I0420 16:55:52.468194 25592 layer_factory.hpp:77] Creating layer permuted_data
I0420 16:55:52.468200 25592 net.cpp:86] Creating Layer permuted_data
I0420 16:55:52.468202 25592 net.cpp:408] permuted_data <- data
I0420 16:55:52.468206 25592 net.cpp:382] permuted_data -> permuted_data
I0420 16:55:52.468279 25592 net.cpp:124] Setting up permuted_data
I0420 16:55:52.468282 25592 net.cpp:131] Top shape: 80 512 3 30 (3686400)
I0420 16:55:52.468286 25592 net.cpp:139] Memory required for data: 29992960
I0420 16:55:52.468288 25592 layer_factory.hpp:77] Creating layer lstm1
I0420 16:55:52.468294 25592 net.cpp:86] Creating Layer lstm1
I0420 16:55:52.468297 25592 net.cpp:408] lstm1 <- permuted_data
I0420 16:55:52.468299 25592 net.cpp:408] lstm1 <- indicator_indicator_0_split_0
I0420 16:55:52.468302 25592 net.cpp:382] lstm1 -> lstm1
I0420 16:55:52.468313 25592 recurrent_layer.cpp:20] Initializing recurrent layer: assuming input batch contains 80 timesteps of 512 independent streams.
I0420 16:55:52.468844 25592 net.cpp:53] Initializing net from parameters: 
layer {
  name: "lstm1_"
  type: "Input"
  top: "x"
  top: "cont"
  input_param {
    shape {
      dim: 80
      dim: 512
      dim: 3
      dim: 30
    }
    shape {
      dim: 80
      dim: 512
    }
  }
}
layer {
  name: "lstm1_"
  type: "Input"
  top: "c_0"
  top: "h_0"
  input_param {
    shape {
      dim: 1
      dim: 512
      dim: 100
    }
    shape {
      dim: 1
      dim: 512
      dim: 100
    }
  }
}
layer {
  name: "lstm1_cont_slice"
  type: "Slice"
  bottom: "cont"
  top: "cont_1"
  top: "cont_2"
  top: "cont_3"
  top: "cont_4"
  top: "cont_5"
  top: "cont_6"
  top: "cont_7"
  top: "cont_8"
  top: "cont_9"
  top: "cont_10"
  top: "cont_11"
  top: "cont_12"
  top: "cont_13"
  top: "cont_14"
  top: "cont_15"
  top: "cont_16"
  top: "cont_17"
  top: "cont_18"
  top: "cont_19"
  top: "cont_20"
  top: "cont_21"
  top: "cont_22"
  top: "cont_23"
  top: "cont_24"
  top: "cont_25"
  top: "cont_26"
  top: "cont_27"
  top: "cont_28"
  top: "cont_29"
  top: "cont_30"
  top: "cont_31"
  top: "cont_32"
  top: "cont_33"
  top: "cont_34"
  top: "cont_35"
  top: "cont_36"
  top: "cont_37"
  top: "cont_38"
  top: "cont_39"
  top: "cont_40"
  top: "cont_41"
  top: "cont_42"
  top: "cont_43"
  top: "cont_44"
  top: "cont_45"
  top: "cont_46"
  top: "cont_47"
  top: "cont_48"
  top: "cont_49"
  top: "cont_50"
  top: "cont_51"
  top: "cont_52"
  top: "cont_53"
  top: "cont_54"
  top: "cont_55"
  top: "cont_56"
  top: "cont_57"
  top: "cont_58"
  top: "cont_59"
  top: "cont_60"
  top: "cont_61"
  top: "cont_62"
  top: "cont_63"
  top: "cont_64"
  top: "cont_65"
  top: "cont_66"
  top: "cont_67"
  top: "cont_68"
  top: "cont_69"
  top: "cont_70"
  top: "cont_71"
  top: "cont_72"
  top: "cont_73"
  top: "cont_74"
  top: "cont_75"
  top: "cont_76"
  top: "cont_77"
  top: "cont_78"
  top: "cont_79"
  top: "cont_80"
  slice_param {
    axis: 0
  }
}
layer {
  name: "lstm1_x_transform"
  type: "InnerProduct"
  bottom: "x"
  top: "W_xc_x"
  param {
    name: "W_xc"
  }
  param {
    name: "b_c"
  }
  propagate_down: true
  inner_product_param {
    num_output: 400
    bias_term: true
    weight_filler {
      type: "xavier"
    }
    bias_filler {
      type: "constant"
      value: 0
    }
    axis: 2
  }
}
layer {
  name: "lstm1_W_xc_x_slice"
  type: "Slice"
  bottom: "W_xc_x"
  top: "W_xc_x_1"
  top: "W_xc_x_2"
  top: "W_xc_x_3"
  top: "W_xc_x_4"
  top: "W_xc_x_5"
  top: "W_xc_x_6"
  top: "W_xc_x_7"
  top: "W_xc_x_8"
  top: "W_xc_x_9"
  top: "W_xc_x_10"
  top: "W_xc_x_11"
  top: "W_xc_x_12"
  top: "W_xc_x_13"
  top: "W_xc_x_14"
  top: "W_xc_x_15"
  top: "W_xc_x_16"
  top: "W_xc_x_17"
  top: "W_xc_x_18"
  top: "W_xc_x_19"
  top: "W_xc_x_20"
  top: "W_xc_x_21"
  top: "W_xc_x_22"
…
  top: "W_xc_x_53"
  top: "W_xc_x_54"
  top: "W_xc_x_55"
  top: "W_xc_x_56"
  top: "W_xc_x_57"
  top: "W_xc_x_58"
  top: "W_xc_x_59"
  top: "W_xc_x_60"
  top: "W_xc_x_61"
  top: "W_xc_x_62"
  top: "W_xc_x_63"
  top: "W_xc_x_64"
  top: "W_xc_x_65"
  top: "W_xc_x_66"
  top: "W_xc_x_67"
  top: "W_xc_x_68"
  top: "W_xc_x_69"
  top: "W_xc_x_70"
  top: "W_xc_x_71"
  top: "W_xc_x_72"
  top: "W_xc_x_73"
  top: "W_xc_x_74"
  top: "W_xc_x_75"
  top: "W_xc_x_76"
  top: "W_xc_x_77"
  top: "W_xc_x_78"
  top: "W_xc_x_79"
  top: "W_xc_x_80"
  slice_param {
    axis: 0
  }
}
layer {
  name: "lstm1_h_conted_0"
  type: "Scale"
  bottom: "h_0"
  bottom: "cont_1"
  top: "h_conted_0"
  scale_param {
    axis: 0
  }
}
layer {
  name: "lstm1_transform_1"
  type: "InnerProduct"
  bottom: "h_conted_0"
  top: "W_hc_h_0"
  param {
    name: "W_hc"
  }
  inner_product_param {
    num_output: 400
    bias_term: false
    weight_filler {
      type: "xavier"
    }
    axis: 2
  }
}
layer {
  name: "lstm1_gate_input_1"
  type: "Eltwise"
  bottom: "W_hc_h_0"
  bottom: "W_xc_x_1"
  top: "gate_input_1"
  eltwise_param {
    operation: SUM
  }
}
layer {
  name: "lstm1_unit_1"
  type: "LSTMUnit"
  bottom: "c_0"
  bottom: "gate_input_1"
  bottom: "cont_1"
  top: "c_1"
  top: "h_1"
}
layer {
  name: "lstm1_h_conted_1"
  type: "Scale"
  bottom: "h_1"
  bottom: "cont_2"
  top: "h_conted_1"
  scale_param {
    axis: 0
  }
}
layer {
  name: "lstm1_transform_2"
  type: "InnerProduct"
  bottom: "h_conted_1"
  top: "W_hc_h_1"
  param {
    name: "W_hc"
  }
  inner_product_param {
    num_output: 400
    bias_term: false
    weight_filler {
      type: "xavier"
    }
    axis: 2
  }
}
layer {
  name: "lstm1_gate_input_2"
  type: "Eltwise"
  bottom: "W_hc_h_1"
  bottom: "W_xc_x_2"
  top: "gate_input_2"
  eltwise_param {
    operation: SUM
  }
}
layer {
  name: "lstm1_unit_2"
  type: "LSTMUnit"
  bottom: "c_1"
  bottom: "gate_input_2"
  bottom: "cont_2"
  top: "c_2"
  top: "h_2"
}
layer {
  name: "lstm1_h_conted_2"
  type: "Scale"
  bottom: "h_2"
  bottom: "cont_3"
  top: "h_conted_2"
  scale_param {
    axis: 0
  }
}
layer {
  name: "lstm1_transform_3"
  type: "InnerProduct"
  bottom: "h_conted_2"
  top: "W_hc_h_2"
  param {
    name: "W_hc"
  }
  inner_product_param {
    num_output: 400
    bias_term: false
    weight_filler {
      type: "xavier"
    }
    axis: 2
  }
}
layer {
  name: "lstm1_gate_input_3"
  type: "Eltwise"
  bottom: "W_hc_h_2"
  bottom: "W_xc_x_3"
  top: "gate_input_3"
  eltwise_param {
    operation: SUM
  }
}
layer {
  name: "lstm1_unit_3"
  type: "LSTMUnit"
  bottom: "c_2"
  bottom: "gate_input_3"
  bottom: "cont_3"
  top: "c_3"
  top: "h_3"
}
layer {
  name: "lstm1_h_conted_3"
  type: "Scale"
  bottom: "h_3"
  bottom: "cont_4"
  top: "h_conted_3"
  scale_param {
    axis: 0
  }
}
layer {
  name: "lstm1_transform_4"
  type: "InnerProduct"
  bottom: "h_conted_3"
  top: "W_hc_h_3"
  param {
    name: "W_hc"
  }
  inner_product_param {
    num_output: 400
    bias_term: false
    weight_filler {
      type: "xavier"
    }
    axis: 2
  }
}
layer {
  name: "lstm1_gate_input_4"
  type: "Eltwise"
  bottom: "W_hc_h_3"
  bottom: "W_xc_x_4"
  top: "gate_input_4"
  eltwise_param {
    operation: SUM
  }
}
layer {
  name: "lstm1_unit_4"
  type: "LSTMUnit"
  bottom: "c_3"
  bottom: "gate_input_4"
  bottom: "cont_4"
  top: "c_4"
  top: "h_4"
}
layer {
  name: "lstm1_h_conted_4"
  type: "Scale"
  bottom: "h_4"
  bottom: "cont_5"
  top: "h_conted_4"
  scale_param {
    axis: 0
  }
}
layer {
  name: "lstm1_transform_5"
  type: "InnerProduct"
  bottom: "h_conted_4"
  top: "W_hc_h_4"
  param {
    name: "W_hc"
  }
  inner_product_param {
    num_output: 400
    bias_term: false
    weight_filler {
      type: "xavier"
    }
    axis: 2
  }
}
layer {
  name: "lstm1_gate_input_5"
  type: "Eltwise"
  bottom: "W_hc_h_4"
  bottom: "W_xc_x_5"
  top: "gate_input_5"
  eltwise_param {
    operation: SUM
  }
}
layer {
  name: "lstm1_unit_5"
  type: "LSTMUnit"
  bottom: "c_4"
  bottom: "gate_input_5"
  bottom: "cont_5"
  top: "c_5"
  top: "h_5"
}
layer {
  name: "lstm1_h_conted_5"
  type: "Scale"
  bottom: "h_5"
  bottom: "cont_6"
  top: "h_conted_5"
  scale_param {
    axis: 0
  }
}
layer {
  name: "lstm1_transform_6"
  type: "InnerProduct"
  bottom: "h_conted_5"
  top: "W_hc_h_5"
  param {
    name: "W_hc"
  }
  inner_product_param {
    num_output: 400
    bias_term: false
    weight_filler {
      type: "xavier"
    }
    axis: 2
  }
}
layer {
  name: "lstm1_gate_input_6"
  type: "Eltwise"
  bottom: "W_hc_h_5"
  bottom: "W_xc_x_6"
  top: "gate_input_6"
  eltwise_param {
    operation: SUM
  }
}
layer {
  name: "lstm1_unit_6"
  type: "LSTMUnit"
  bottom: "c_5"
  bottom: "gate_input_6"
  bottom: "cont_6"
  top: "c_6"
  top: "h_6"
}
layer {
  name: "lstm1_h_conted_6"
  type: "Scale"
  bottom: "h_6"
  bottom: "cont_7"
  top: "h_conted_6"
  scale_param {
    axis: 0
  }
}
layer {
  name: "lstm1_transform_7"
  type: "InnerProduct"
  bottom: "h_conted_6"
  top: "W_hc_h_6"
  param {
    name: "W_hc"
  }
  inner_product_param {
    num_output: 400
    bias_term: false
    weight_filler {
      type: "xavier"
    }
    axis: 2
  }
}
layer {
  name: "lstm1_gate_input_7"
  type: "Eltwise"
  bottom: "W_hc_h_6"
  bottom: "W_xc_x_7"
  top: "gate_input_7"
  eltwise_param {
    operation: SUM
  }
}
layer {
  name: "lstm1_unit_7"
  type: "LSTMUnit"
  bottom: "c_6"
  bottom: "gate_input_7"
  bottom: "cont_7"
  top: "c_7"
  top: "h_7"
}
layer {
  name: "lstm1_h_conted_7"
  type: "Scale"
  bottom: "h_7"
  bottom: "cont_8"
  top: "h_conted_7"
  scale_param {
    axis: 0
  }
}
layer {
  name: "lstm1_transform_8"
  type: "InnerProduct"
  bottom: "h_conted_7"
  top: "W_hc_h_7"
  param {
    name: "W_hc"
  }
  inner_product_param {
    num_output: 400
    bias_term: false
    weight_filler {
      type: "xavier"
    }
    axis: 2
  }
}
layer {
  name: "lstm1_gate_input_8"
  type: "Eltwise"
  bottom: "W_hc_h_7"
  bottom: "W_xc_x_8"
  top: "gate_input_8"
  eltwise_param {
    operation: SUM
  }
}
layer {
  name: "lstm1_unit_8"
  type: "LSTMUnit"
  bottom: "c_7"
  bottom: "gate_input_8"
  bottom: "cont_8"
  top: "c_8"
  top: "h_8"
}
layer {
  name: "lstm1_h_conted_8"
  type: "Scale"
  bottom: "h_8"
  bottom: "cont_9"
  top: "h_conted_8"
  scale_param {
    axis: 0
  }
}
layer {
  name: "lstm1_transform_9"
  type: "InnerProduct"
  bottom: "h_conted_8"
  top: "W_hc_h_8"
  param {
    name: "W_hc"
  }
  inner_product_param {
    num_output: 400
    bias_term: false
    weight_filler {
      type: "xavier"
    }
    axis: 2
  }
}
layer {
  name: "lstm1_gate_input_9"
  type: "Eltwise"
  bottom: "W_hc_h_8"
  bottom: "W_xc_x_9"
  top: "gate_input_9"
  eltwise_param {
    operation: SUM
  }
}
layer {
  name: "lstm1_unit_9"
  type: "LSTMUnit"
  bottom: "c_8"
  bottom: "gate_input_9"
  bottom: "cont_9"
  top: "c_9"
  top: "h_9"
}
layer {
  name: "lstm1_h_conted_9"
  type: "Scale"
  bottom: "h_9"
  bottom: "cont_10"
  top: "h_conted_9"
  scale_param {
    axis: 0
  }
}
layer {
  name: "lstm1_transform_10"
  type: "InnerProduct"
  bottom: "h_conted_9"
  top: "W_hc_h_9"
  param {
    name: "W_hc"
  }
  inner_product_param {
    num_output: 400
    bias_term: false
    weight_filler {
      type: "xavier"
    }
    axis: 2
  }
}
layer {
  name: "lstm1_gate_input_10"
  type: "Eltwise"
  bottom: "W_hc_h_9"
  bottom: "W_xc_x_10"
  top: "gate_input_10"
  eltwise_param {
    operation: SUM
  }
}
layer {
  name: "lstm1_unit_10"
  type: "LSTMUnit"
  bottom: "c_9"
  bottom: "gate_input_10"
  bottom: "cont_10"
  top: "c_10"
  top: "h_10"
}
layer {
  name: "lstm1_h_conted_10"
  type: "Scale"
  bottom: "h_10"
  bottom: "cont_11"
  top: "h_conted_10"
  scale_param {
    axis: 0
  }
}
layer {
  name: "lstm1_transform_11"
  type: "InnerProduct"
  bottom: "h_conted_10"
  top: "W_hc_h_10"
  param {
    name: "W_hc"
  }
  inner_product_param {
    num_output: 400
    bias_term: false
    weight_filler {
      type: "xavier"
    }
    axis: 2
  }
}
layer {
  name: "lstm1_gate_input_11"
  type: "Eltwise"
  bottom: "W_hc_h_10"
  bottom: "W_xc_x_11"
  top: "gate_input_11"
  eltwise_param {
    operation: SUM
  }
}
layer {
  name: "lstm1_unit_11"
  type: "LSTMUnit"
  bottom: "c_10"
  bottom: "gate_input_11"
  bottom: "cont_11"
  top: "c_11"
  top: "h_11"
}
layer {
  name: "lstm1_h_conted_11"
  type: "Scale"
  bottom: "h_11"
  bottom: "cont_12"
  top: "h_conted_11"
  scale_param {
    axis: 0
  }
}
layer {
  name: "lstm1_transform_12"
  type: "InnerProduct"
  bottom: "h_conted_11"
  top: "W_hc_h_11"
  param {
    name: "W_hc"
  }
  inner_product_param {
    num_output: 400
    bias_term: false
    weight_filler {
      type: "xavier"
    }
    axis: 2
  }
}
layer {
  name: "lstm1_gate_input_12"
  type: "Eltwise"
  bottom: "W_hc_h_11"
  bottom: "W_xc_x_12"
  top: "gate_input_12"
  eltwise_param {
    operation: SUM
  }
}
layer {
  name: "lstm1_unit_12"
  type: "LSTMUnit"
  bottom: "c_11"
  bottom: "gate_input_12"
  bottom: "cont_12"
  top: "c_12"
  top: "h_12"
}
layer {
  name: "lstm1_h_conted_12"
  type: "Scale"
  bottom: "h_12"
  bottom: "cont_13"
  top: "h_conted_12"
  scale_param {
    axis: 0
  }
}
layer {
  name: "lstm1_transform_13"
  type: "InnerProduct"
  bottom: "h_conted_12"
  top: "W_hc_h_12"
  param {
    name: "W_hc"
  }
  inner_product_param {
    num_output: 400
    bias_term: false
    weight_filler {
      type: "xavier"
    }
    axis: 2
  }
}
layer {
  name: "lstm1_gate_input_13"
  type: "Eltwise"
  bottom: "W_hc_h_12"
  bottom: "W_xc_x_13"
  top: "gate_input_13"
  eltwise_param {
    operation: SUM
  }
}
layer {
  name: "lstm1_unit_13"
  type: "LSTMUnit"
  bottom: "c_12"
  bottom: "gate_input_13"
  bottom: "cont_13"
  top: "c_13"
  top: "h_13"
}
layer {
  name: "lstm1_h_conted_13"
  type: "Scale"
  bottom: "h_13"
  bottom: "cont_14"
  top: "h_conted_13"
  scale_param {
    axis: 0
  }
}
layer {
  name: "lstm1_transform_14"
  type: "InnerProduct"
  bottom: "h_conted_13"
  top: "W_hc_h_13"
  param {
    name: "W_hc"
  }
  inner_product_param {
    num_output: 400
    bias_term: false
    weight_filler {
      type: "xavier"
    }
    axis: 2
  }
}
layer {
  name: "lstm1_gate_input_14"
  type: "Eltwise"
  bottom: "W_hc_h_13"
  bottom: "W_xc_x_14"
  top: "gate_input_14"
  eltwise_param {
    operation: SUM
  }
}
layer {
  name: "lstm1_unit_14"
  type: "LSTMUnit"
  bottom: "c_13"
  bottom: "gate_input_14"
  bottom: "cont_14"
  top: "c_14"
  top: "h_14"
}
layer {
  name: "lstm1_h_conted_14"
  type: "Scale"
  bottom: "h_14"
  bottom: "cont_15"
  top: "h_conted_14"
  scale_param {
    axis: 0
  }
}
layer {
  name: "lstm1_transform_15"
  type: "InnerProduct"
  bottom: "h_conted_14"
  top: "W_hc_h_14"
  param {
    name: "W_hc"
  }
  inner_product_param {
    num_output: 400
    bias_term: false
    weight_filler {
      type: "xavier"
    }
    axis: 2
  }
}
layer {
  name: "lstm1_gate_input_15"
  type: "Eltwise"
  bottom: "W_hc_h_14"
  bottom: "W_xc_x_15"
  top: "gate_input_15"
  eltwise_param {
    operation: SUM
  }
}
layer {
  name: "lstm1_unit_15"
  type: "LSTMUnit"
  bottom: "c_14"
  bottom: "gate_input_15"
  bottom: "cont_15"
  top: "c_15"
  top: "h_15"
}
layer {
  name: "lstm1_h_conted_15"
  type: "Scale"
  bottom: "h_15"
  bottom: "cont_16"
  top: "h_conted_15"
  scale_param {
    axis: 0
  }
}
layer {
  name: "lstm1_transform_16"
  type: "InnerProduct"
  bottom: "h_conted_15"
  top: "W_hc_h_15"
  param {
    name: "W_hc"
  }
  inner_product_param {
    num_output: 400
    bias_term: false
    weight_filler {
      type: "xavier"
    }
    axis: 2
  }
}
layer {
  name: "lstm1_gate_input_16"
  type: "Eltwise"
  bottom: "W_hc_h_15"
  bottom: "W_xc_x_16"
  top: "gate_input_16"
  eltwise_param {
    operation: SUM
  }
}
layer {
  name: "lstm1_unit_16"
  type: "LSTMUnit"
  bottom: "c_15"
  bottom: "gate_input_16"
  bottom: "cont_16"
  top: "c_16"
  top: "h_16"
}
layer {
  name: "lstm1_h_conted_16"
  type: "Scale"
  bottom: "h_16"
  bottom: "cont_17"
  top: "h_conted_16"
  scale_param {
    axis: 0
  }
}
layer {
  name: "lstm1_transform_17"
  type: "InnerProduct"
  bottom: "h_conted_16"
  top: "W_hc_h_16"
  param {
    name: "W_hc"
  }
  inner_product_param {
    num_output: 400
    bias_term: false
    weight_filler {
      type: "xavier"
    }
    axis: 2
  }
}
layer {
  name: "lstm1_gate_input_17"
  type: "Eltwise"
  bottom: "W_hc_h_16"
  bottom: "W_xc_x_17"
  top: "gate_input_17"
  eltwise_param {
    operation: SUM
  }
}
layer {
  name: "lstm1_unit_17"
  type: "LSTMUnit"
  bottom: "c_16"
  bottom: "gate_input_17"
  bottom: "cont_17"
  top: "c_17"
  top: "h_17"
}
layer {
  name: "lstm1_h_conted_17"
  type: "Scale"
  bottom: "h_17"
  bottom: "cont_18"
  top: "h_conted_17"
  scale_param {
    axis: 0
  }
}
layer {
  name: "lstm1_transform_18"
  type: "InnerProduct"
  bottom: "h_conted_17"
  top: "W_hc_h_17"
  param {
    name: "W_hc"
  }
  inner_product_param {
    num_output: 400
    bias_term: false
    weight_filler {
      type: "xavier"
    }
    axis: 2
  }
}
layer {
  name: "lstm1_gate_input_18"
  type: "Eltwise"
  bottom: "W_hc_h_17"
  bottom: "W_xc_x_18"
  top: "gate_input_18"
  eltwise_param {
    operation: SUM
  }
}
layer {
  name: "lstm1_unit_18"
  type: "LSTMUnit"
  bottom: "c_17"
  bottom: "gate_input_18"
  bottom: "cont_18"
  top: "c_18"
  top: "h_18"
}
layer {
  name: "lstm1_h_conted_18"
  type: "Scale"
  bottom: "h_18"
  bottom: "cont_19"
  top: "h_conted_18"
  scale_param {
    axis: 0
  }
}
layer {
  name: "lstm1_transform_19"
  type: "InnerProduct"
  bottom: "h_conted_18"
  top: "W_hc_h_18"
  param {
    name: "W_hc"
  }
  inner_product_param {
    num_output: 400
    bias_term: false
    weight_filler {
      type: "xavier"
    }
    axis: 2
  }
}
layer {
  name: "lstm1_gate_input_19"
  type: "Eltwise"
  bottom: "W_hc_h_18"
  bottom: "W_xc_x_19"
  top: "gate_input_19"
  eltwise_param {
    operation: SUM
  }
}
layer {
  name: "lstm1_unit_19"
  type: "LSTMUnit"
  bottom: "c_18"
  bottom: "gate_input_19"
  bottom: "cont_19"
  top: "c_19"
  top: "h_19"
}
layer {
  name: "lstm1_h_conted_19"
  type: "Scale"
  bottom: "h_19"
  bottom: "cont_20"
  top: "h_conted_19"
  scale_param {
    axis: 0
  }
}
layer {
  name: "lstm1_transform_20"
  type: "InnerProduct"
  bottom: "h_conted_19"
  top: "W_hc_h_19"
  param {
    name: "W_hc"
  }
  inner_product_param {
    num_output: 400
    bias_term: false
    weight_filler {
      type: "xavier"
    }
    axis: 2
  }
}
layer {
  name: "lstm1_gate_input_20"
  type: "Eltwise"
  bottom: "W_hc_h_19"
  bottom: "W_xc_x_20"
  top: "gate_input_20"
  eltwise_param {
    operation: SUM
  }
}
layer {
  name: "lstm1_unit_20"
  type: "LSTMUnit"
  bottom: "c_19"
  bottom: "gate_input_20"
  bottom: "cont_20"
  top: "c_20"
  top: "h_20"
}
layer {
  name: "lstm1_h_conted_20"
  type: "Scale"
  bottom: "h_20"
  bottom: "cont_21"
  top: "h_conted_20"
  scale_param {
    axis: 0
  }
}
layer {
  name: "lstm1_transform_21"
  type: "InnerProduct"
  bottom: "h_conted_20"
  top: "W_hc_h_20"
  param {
    name: "W_hc"
  }
  inner_product_param {
    num_output: 400
    bias_term: false
    weight_filler {
      type: "xavier"
    }
    axis: 2
  }
}
layer {
  name: "lstm1_gate_input_21"
  type: "Eltwise"
  bottom: "W_hc_h_20"
  bottom: "W_xc_x_21"
  top: "gate_input_21"
  eltwise_param {
    operation: SUM
  }
}
layer {
  name: "lstm1_unit_21"
  type: "LSTMUnit"
  bottom: "c_20"
  bottom: "gate_input_21"
  bottom: "cont_21"
  top: "c_21"
  top: "h_21"
}
layer {
  name: "lstm1_h_conted_21"
  type: "Scale"
  bottom: "h_21"
  bottom: "cont_22"
  top: "h_conted_21"
  scale_param {
    axis: 0
  }
}
layer {
  name: "lstm1_transform_22"
  type: "InnerProduct"
  bottom: "h_conted_21"
  top: "W_hc_h_21"
  param {
    name: "W_hc"
  }
  inner_product_param {
    num_output: 400
    bias_term: false
    weight_filler {
      type: "xavier"
    }
    axis: 2
  }
}
layer {
  name: "lstm1_gate_input_22"
  type: "Eltwise"
  bottom: "W_hc_h_21"
  bottom: "W_xc_x_22"
  top: "gate_input_22"
  eltwise_param {
    operation: SUM
  }
}
layer {
  name: "lstm1_unit_22"
  type: "LSTMUnit"
  bottom: "c_21"
  bottom: "gate_input_22"
  bottom: "cont_22"
  top: "c_22"
  top: "h_22"
}
layer {
  name: "lstm1_h_conted_22"
  type: "Scale"
  bottom: "h_22"
  bottom: "cont_23"
  top: "h_conted_22"
  scale_param {
    axis: 0
  }
}
layer {
  name: "lstm1_transform_23"
  type: "InnerProduct"
  bottom: "h_conted_22"
  top: "W_hc_h_22"
  param {
    name: "W_hc"
  }
  inner_product_param {
    num_output: 400
    bias_term: false
    weight_filler {
      type: "xavier"
    }
    axis: 2
  }
}
layer {
  name: "lstm1_gate_input_23"
  type: "Eltwise"
  bottom: "W_hc_h_22"
  bottom: "W_xc_x_23"
  top: "gate_input_23"
  eltwise_param {
    operation: SUM
  }
}
layer {
  name: "lstm1_unit_23"
  type: "LSTMUnit"
  bottom: "c_22"
  bottom: "gate_input_23"
  bottom: "cont_23"
  top: "c_23"
  top: "h_23"
}
layer {
  name: "lstm1_h_conted_23"
  type: "Scale"
  bottom: "h_23"
  bottom: "cont_24"
  top: "h_conted_23"
  scale_param {
    axis: 0
  }
}
layer {
  name: "lstm1_transform_24"
  type: "InnerProduct"
  bottom: "h_conted_23"
  top: "W_hc_h_23"
  param {
    name: "W_hc"
  }
  inner_product_param {
    num_output: 400
    bias_term: false
    weight_filler {
      type: "xavier"
    }
    axis: 2
  }
}
layer {
  name: "lstm1_gate_input_24"
  type: "Eltwise"
  bottom: "W_hc_h_23"
  bottom: "W_xc_x_24"
  top: "gate_input_24"
  eltwise_param {
    operation: SUM
  }
}
layer {
  name: "lstm1_unit_24"
  type: "LSTMUnit"
  bottom: "c_23"
  bottom: "gate_input_24"
  bottom: "cont_24"
  top: "c_24"
  top: "h_24"
}
layer {
  name: "lstm1_h_conted_24"
  type: "Scale"
  bottom: "h_24"
  bottom: "cont_25"
  top: "h_conted_24"
  scale_param {
    axis: 0
  }
}
layer {
  name: "lstm1_transform_25"
  type: "InnerProduct"
  bottom: "h_conted_24"
  top: "W_hc_h_24"
  param {
    name: "W_hc"
  }
  inner_product_param {
    num_output: 400
    bias_term: false
    weight_filler {
      type: "xavier"
    }
    axis: 2
  }
}
layer {
  name: "lstm1_gate_input_25"
  type: "Eltwise"
  bottom: "W_hc_h_24"
  bottom: "W_xc_x_25"
  top: "gate_input_25"
  eltwise_param {
    operation: SUM
  }
}
layer {
  name: "lstm1_unit_25"
  type: "LSTMUnit"
  bottom: "c_24"
  bottom: "gate_input_25"
  bottom: "cont_25"
  top: "c_25"
  top: "h_25"
}
layer {
  name: "lstm1_h_conted_25"
  type: "Scale"
  bottom: "h_25"
  bottom: "cont_26"
  top: "h_conted_25"
  scale_param {
    axis: 0
  }
}
layer {
  name: "lstm1_transform_26"
  type: "InnerProduct"
  bottom: "h_conted_25"
  top: "W_hc_h_25"
  param {
    name: "W_hc"
  }
  inner_product_param {
    num_output: 400
    bias_term: false
    weight_filler {
      type: "xavier"
    }
    axis: 2
  }
}
layer {
  name: "lstm1_gate_input_26"
  type: "Eltwise"
  bottom: "W_hc_h_25"
  bottom: "W_xc_x_26"
  top: "gate_input_26"
  eltwise_param {
    operation: SUM
  }
}
layer {
  name: "lstm1_unit_26"
  type: "LSTMUnit"
  bottom: "c_25"
  bottom: "gate_input_26"
  bottom: "cont_26"
  top: "c_26"
  top: "h_26"
}
layer {
  name: "lstm1_h_conted_26"
  type: "Scale"
  bottom: "h_26"
  bottom: "cont_27"
  top: "h_conted_26"
  scale_param {
    axis: 0
  }
}
layer {
  name: "lstm1_transform_27"
  type: "InnerProduct"
  bottom: "h_conted_26"
  top: "W_hc_h_26"
  param {
    name: "W_hc"
  }
  inner_product_param {
    num_output: 400
    bias_term: false
    weight_filler {
      type: "xavier"
    }
    axis: 2
  }
}
layer {
  name: "lstm1_gate_input_27"
  type: "Eltwise"
  bottom: "W_hc_h_26"
  bottom: "W_xc_x_27"
  top: "gate_input_27"
  eltwise_param {
    operation: SUM
  }
}
layer {
  name: "lstm1_unit_27"
  type: "LSTMUnit"
  bottom: "c_26"
  bottom: "gate_input_27"
  bottom: "cont_27"
  top: "c_27"
  top: "h_27"
}
layer {
  name: "lstm1_h_conted_27"
  type: "Scale"
  bottom: "h_27"
  bottom: "cont_28"
  top: "h_conted_27"
  scale_param {
    axis: 0
  }
}
layer {
  name: "lstm1_transform_28"
  type: "InnerProduct"
  bottom: "h_conted_27"
  top: "W_hc_h_27"
  param {
    name: "W_hc"
  }
  inner_product_param {
    num_output: 400
    bias_term: false
    weight_filler {
      type: "xavier"
    }
    axis: 2
  }
}
layer {
  name: "lstm1_gate_input_28"
  type: "Eltwise"
  bottom: "W_hc_h_27"
  bottom: "W_xc_x_28"
  top: "gate_input_28"
  eltwise_param {
    operation: SUM
  }
}
layer {
  name: "lstm1_unit_28"
  type: "LSTMUnit"
  bottom: "c_27"
  bottom: "gate_input_28"
  bottom: "cont_28"
  top: "c_28"
  top: "h_28"
}
layer {
  name: "lstm1_h_conted_28"
  type: "Scale"
  bottom: "h_28"
  bottom: "cont_29"
  top: "h_conted_28"
  scale_param {
    axis: 0
  }
}
layer {
  name: "lstm1_transform_29"
  type: "InnerProduct"
  bottom: "h_conted_28"
  top: "W_hc_h_28"
  param {
    name: "W_hc"
  }
  inner_product_param {
    num_output: 400
    bias_term: false
    weight_filler {
      type: "xavier"
    }
    axis: 2
  }
}
layer {
  name: "lstm1_gate_input_29"
  type: "Eltwise"
  bottom: "W_hc_h_28"
  bottom: "W_xc_x_29"
  top: "gate_input_29"
  eltwise_param {
    operation: SUM
  }
}
layer {
  name: "lstm1_unit_29"
  type: "LSTMUnit"
  bottom: "c_28"
  bottom: "gate_input_29"
  bottom: "cont_29"
  top: "c_29"
  top: "h_29"
}
layer {
  name: "lstm1_h_conted_29"
  type: "Scale"
  bottom: "h_29"
  bottom: "cont_30"
  top: "h_conted_29"
  scale_param {
    axis: 0
  }
}
layer {
  name: "lstm1_transform_30"
  type: "InnerProduct"
  bottom: "h_conted_29"
  top: "W_hc_h_29"
  param {
    name: "W_hc"
  }
  inner_product_param {
    num_output: 400
    bias_term: false
    weight_filler {
      type: "xavier"
    }
    axis: 2
  }
}
layer {
  name: "lstm1_gate_input_30"
  type: "Eltwise"
  bottom: "W_hc_h_29"
  bottom: "W_xc_x_30"
  top: "gate_input_30"
  eltwise_param {
    operation: SUM
  }
}
layer {
  name: "lstm1_unit_30"
  type: "LSTMUnit"
  bottom: "c_29"
  bottom: "gate_input_30"
  bottom: "cont_30"
  top: "c_30"
  top: "h_30"
}
layer {
  name: "lstm1_h_conted_30"
  type: "Scale"
  bottom: "h_30"
  bottom: "cont_31"
  top: "h_conted_30"
  scale_param {
    axis: 0
  }
}
layer {
  name: "lstm1_transform_31"
  type: "InnerProduct"
  bottom: "h_conted_30"
  top: "W_hc_h_30"
  param {
    name: "W_hc"
  }
  inner_product_param {
    num_output: 400
    bias_term: false
    weight_filler {
      type: "xavier"
    }
    axis: 2
  }
}
layer {
  name: "lstm1_gate_input_31"
  type: "Eltwise"
  bottom: "W_hc_h_30"
  bottom: "W_xc_x_31"
  top: "gate_input_31"
  eltwise_param {
    operation: SUM
  }
}
layer {
  name: "lstm1_unit_31"
  type: "LSTMUnit"
  bottom: "c_30"
  bottom: "gate_input_31"
  bottom: "cont_31"
  top: "c_31"
  top: "h_31"
}
layer {
  name: "lstm1_h_conted_31"
  type: "Scale"
  bottom: "h_31"
  bottom: "cont_32"
  top: "h_conted_31"
  scale_param {
    axis: 0
  }
}
layer {
  name: "lstm1_transform_32"
  type: "InnerProduct"
  bottom: "h_conted_31"
  top: "W_hc_h_31"
  param {
    name: "W_hc"
  }
  inner_product_param {
    num_output: 400
    bias_term: false
    weight_filler {
      type: "xavier"
    }
    axis: 2
  }
}
layer {
  name: "lstm1_gate_input_32"
  type: "Eltwise"
  bottom: "W_hc_h_31"
  bottom: "W_xc_x_32"
  top: "gate_input_32"
  eltwise_param {
    operation: SUM
  }
}
layer {
  name: "lstm1_unit_32"
  type: "LSTMUnit"
  bottom: "c_31"
  bottom: "gate_input_32"
  bottom: "cont_32"
  top: "c_32"
  top: "h_32"
}
layer {
  name: "lstm1_h_conted_32"
  type: "Scale"
  bottom: "h_32"
  bottom: "cont_33"
  top: "h_conted_32"
  scale_param {
    axis: 0
  }
}
layer {
  name: "lstm1_transform_33"
  type: "InnerProduct"
  bottom: "h_conted_32"
  top: "W_hc_h_32"
  param {
    name: "W_hc"
  }
  inner_product_param {
    num_output: 400
    bias_term: false
    weight_filler {
      type: "xavier"
    }
    axis: 2
  }
}
layer {
  name: "lstm1_gate_input_33"
  type: "Eltwise"
  bottom: "W_hc_h_32"
  bottom: "W_xc_x_33"
  top: "gate_input_33"
  eltwise_param {
    operation: SUM
  }
}
layer {
  name: "lstm1_unit_33"
  type: "LSTMUnit"
  bottom: "c_32"
  bottom: "gate_input_33"
  bottom: "cont_33"
  top: "c_33"
  top: "h_33"
}
layer {
  name: "lstm1_h_conted_33"
  type: "Scale"
  bottom: "h_33"
  bottom: "cont_34"
  top: "h_conted_33"
  scale_param {
    axis: 0
  }
}
layer {
  name: "lstm1_transform_34"
  type: "InnerProduct"
  bottom: "h_conted_33"
  top: "W_hc_h_33"
  param {
    name: "W_hc"
  }
  inner_product_param {
    num_output: 400
    bias_term: false
    weight_filler {
      type: "xavier"
    }
    axis: 2
  }
}
layer {
  name: "lstm1_gate_input_34"
  type: "Eltwise"
  bottom: "W_hc_h_33"
  bottom: "W_xc_x_34"
  top: "gate_input_34"
  eltwise_param {
    operation: SUM
  }
}
layer {
  name: "lstm1_unit_34"
  type: "LSTMUnit"
  bottom: "c_33"
  bottom: "gate_input_34"
  bottom: "cont_34"
  top: "c_34"
  top: "h_34"
}
layer {
  name: "lstm1_h_conted_34"
  type: "Scale"
  bottom: "h_34"
  bottom: "cont_35"
  top: "h_conted_34"
  scale_param {
    axis: 0
  }
}
layer {
  name: "lstm1_transform_35"
  type: "InnerProduct"
  bottom: "h_conted_34"
  top: "W_hc_h_34"
  param {
    name: "W_hc"
  }
  inner_product_param {
    num_output: 400
    bias_term: false
    weight_filler {
      type: "xavier"
    }
    axis: 2
  }
}
layer {
  name: "lstm1_gate_input_35"
  type: "Eltwise"
  bottom: "W_hc_h_34"
  bottom: "W_xc_x_35"
  top: "gate_input_35"
  eltwise_param {
    operation: SUM
  }
}
layer {
  name: "lstm1_unit_35"
  type: "LSTMUnit"
  bottom: "c_34"
  bottom: "gate_input_35"
  bottom: "cont_35"
  top: "c_35"
  top: "h_35"
}
layer {
  name: "lstm1_h_conted_35"
  type: "Scale"
  bottom: "h_35"
  bottom: "cont_36"
  top: "h_conted_35"
  scale_param {
    axis: 0
  }
}
layer {
  name: "lstm1_transform_36"
  type: "InnerProduct"
  bottom: "h_conted_35"
  top: "W_hc_h_35"
  param {
    name: "W_hc"
  }
  inner_product_param {
    num_output: 400
    bias_term: false
    weight_filler {
      type: "xavier"
    }
    axis: 2
  }
}
layer {
  name: "lstm1_gate_input_36"
  type: "Eltwise"
  bottom: "W_hc_h_35"
  bottom: "W_xc_x_36"
  top: "gate_input_36"
  eltwise_param {
    operation: SUM
  }
}
layer {
  name: "lstm1_unit_36"
  type: "LSTMUnit"
  bottom: "c_35"
  bottom: "gate_input_36"
  bottom: "cont_36"
  top: "c_36"
  top: "h_36"
}
layer {
  name: "lstm1_h_conted_36"
  type: "Scale"
  bottom: "h_36"
  bottom: "cont_37"
  top: "h_conted_36"
  scale_param {
    axis: 0
  }
}
layer {
  name: "lstm1_transform_37"
  type: "InnerProduct"
  bottom: "h_conted_36"
  top: "W_hc_h_36"
  param {
    name: "W_hc"
  }
  inner_product_param {
    num_output: 400
    bias_term: false
    weight_filler {
      type: "xavie
I0420 16:55:52.470984 25592 layer_factory.hpp:77] Creating layer lstm1_
I0420 16:55:52.470991 25592 net.cpp:86] Creating Layer lstm1_
I0420 16:55:52.470994 25592 net.cpp:382] lstm1_ -> x
I0420 16:55:52.471001 25592 net.cpp:382] lstm1_ -> cont
I0420 16:55:52.471033 25592 net.cpp:124] Setting up lstm1_
I0420 16:55:52.471036 25592 net.cpp:131] Top shape: 80 512 3 30 (3686400)
I0420 16:55:52.471040 25592 net.cpp:131] Top shape: 80 512 (40960)
I0420 16:55:52.471041 25592 net.cpp:139] Memory required for data: 14909440
I0420 16:55:52.471043 25592 layer_factory.hpp:77] Creating layer lstm1_
I0420 16:55:52.471046 25592 net.cpp:86] Creating Layer lstm1_
I0420 16:55:52.471050 25592 net.cpp:382] lstm1_ -> c_0
I0420 16:55:52.471053 25592 net.cpp:382] lstm1_ -> h_0
I0420 16:55:52.471074 25592 net.cpp:124] Setting up lstm1_
I0420 16:55:52.471076 25592 net.cpp:131] Top shape: 1 512 100 (51200)
I0420 16:55:52.471079 25592 net.cpp:131] Top shape: 1 512 100 (51200)
I0420 16:55:52.471081 25592 net.cpp:139] Memory required for data: 15319040
I0420 16:55:52.471083 25592 layer_factory.hpp:77] Creating layer lstm1_cont_slice
I0420 16:55:52.471092 25592 net.cpp:86] Creating Layer lstm1_cont_slice
I0420 16:55:52.471094 25592 net.cpp:408] lstm1_cont_slice <- cont
I0420 16:55:52.471099 25592 net.cpp:382] lstm1_cont_slice -> cont_1
I0420 16:55:52.471107 25592 net.cpp:382] lstm1_cont_slice -> cont_2
…
I0420 16:55:52.471491 25592 net.cpp:382] lstm1_cont_slice -> cont_73
I0420 16:55:52.471496 25592 net.cpp:382] lstm1_cont_slice -> cont_74
I0420 16:55:52.471501 25592 net.cpp:382] lstm1_cont_slice -> cont_75
I0420 16:55:52.471508 25592 net.cpp:382] lstm1_cont_slice -> cont_76
I0420 16:55:52.471513 25592 net.cpp:382] lstm1_cont_slice -> cont_77
I0420 16:55:52.471518 25592 net.cpp:382] lstm1_cont_slice -> cont_78
I0420 16:55:52.471523 25592 net.cpp:382] lstm1_cont_slice -> cont_79
I0420 16:55:52.471527 25592 net.cpp:382] lstm1_cont_slice -> cont_80
I0420 16:55:52.472052 25592 net.cpp:124] Setting up lstm1_cont_slice
I0420 16:55:52.472056 25592 net.cpp:131] Top shape: 1 512 (512)
I0420 16:55:52.472059 25592 net.cpp:131] Top shape: 1 512 (512)
I0420 16:55:52.472061 25592 net.cpp:131] Top shape: 1 512 (512)
I0420 16:55:52.472064 25592 net.cpp:131] Top shape: 1 512 (512)
I0420 16:55:52.472065 25592 net.cpp:131] Top shape: 1 512 (512)
I0420 16:55:52.472069 25592 net.cpp:131] Top shape: 1 512 (512)
I0420 16:55:52.472070 25592 net.cpp:131] Top shape: 1 512 (512)
I0420 16:55:52.472072 25592 net.cpp:131] Top shape: 1 512 (512)
I0420 16:55:52.472074 25592 net.cpp:131] Top shape: 1 512 (512)
I0420 16:55:52.472077 25592 net.cpp:131] Top shape: 1 512 (512)
I0420 16:55:52.472079 25592 net.cpp:131] Top shape: 1 512 (512)
I0420 16:55:52.472081 25592 net.cpp:131] Top shape: 1 512 (512)
I0420 16:55:52.472084 25592 net.cpp:131] Top shape: 1 512 (512)
I0420 16:55:52.472086 25592 net.cpp:131] Top shape: 1 512 (512)
I0420 16:55:52.472088 25592 net.cpp:131] Top shape: 1 512 (512)
I0420 16:55:52.472090 25592 net.cpp:131] Top shape: 1 512 (512)
I0420 16:55:52.472092 25592 net.cpp:131] Top shape: 1 512 (512)
I0420 16:55:52.472095 25592 net.cpp:131] Top shape: 1 512 (512)
I0420 16:55:52.472097 25592 net.cpp:131] Top shape: 1 512 (512)
I0420 16:55:52.472100 25592 net.cpp:131] Top shape: 1 512 (512)
I0420 16:55:52.472101 25592 net.cpp:131] Top shape: 1 512 (512)
I0420 16:55:52.472103 25592 net.cpp:131] Top shape: 1 512 (512)
I0420 16:55:52.472106 25592 net.cpp:131] Top shape: 1 512 (512)
I0420 16:55:52.472108 25592 net.cpp:131] Top shape: 1 512 (512)
I0420 16:55:52.472110 25592 net.cpp:131] Top shape: 1 512 (512)
I0420 16:55:52.472112 25592 net.cpp:131] Top shape: 1 512 (512)
I0420 16:55:52.472115 25592 net.cpp:131] Top shape: 1 512 (512)
I0420 16:55:52.472117 25592 net.cpp:131] Top shape: 1 512 (512)
I0420 16:55:52.472120 25592 net.cpp:131] Top shape: 1 512 (512)
I0420 16:55:52.472121 25592 net.cpp:131] Top shape: 1 512 (512)
I0420 16:55:52.472123 25592 net.cpp:131] Top shape: 1 512 (512)
I0420 16:55:52.472126 25592 net.cpp:131] Top shape: 1 512 (512)
I0420 16:55:52.472128 25592 net.cpp:131] Top shape: 1 512 (512)
I0420 16:55:52.472131 25592 net.cpp:131] Top shape: 1 512 (512)
I0420 16:55:52.472132 25592 net.cpp:131] Top shape: 1 512 (512)
I0420 16:55:52.472136 25592 net.cpp:131] Top shape: 1 512 (512)
I0420 16:55:52.472137 25592 net.cpp:131] Top shape: 1 512 (512)
I0420 16:55:52.472139 25592 net.cpp:131] Top shape: 1 512 (512)
I0420 16:55:52.472141 25592 net.cpp:131] Top shape: 1 512 (512)
I0420 16:55:52.472143 25592 net.cpp:131] Top shape: 1 512 (512)
I0420 16:55:52.472146 25592 net.cpp:131] Top shape: 1 512 (512)
I0420 16:55:52.472148 25592 net.cpp:131] Top shape: 1 512 (512)
I0420 16:55:52.472151 25592 net.cpp:131] Top shape: 1 512 (512)
I0420 16:55:52.472152 25592 net.cpp:131] Top shape: 1 512 (512)
I0420 16:55:52.472156 25592 net.cpp:131] Top shape: 1 512 (512)
I0420 16:55:52.472157 25592 net.cpp:131] Top shape: 1 512 (512)
I0420 16:55:52.472159 25592 net.cpp:131] Top shape: 1 512 (512)
I0420 16:55:52.472162 25592 net.cpp:131] Top shape: 1 512 (512)
I0420 16:55:52.472163 25592 net.cpp:131] Top shape: 1 512 (512)
I0420 16:55:52.472172 25592 net.cpp:131] Top shape: 1 512 (512)
I0420 16:55:52.472174 25592 net.cpp:131] Top shape: 1 512 (512)
I0420 16:55:52.472177 25592 net.cpp:131] Top shape: 1 512 (512)
I0420 16:55:52.472178 25592 net.cpp:131] Top shape: 1 512 (512)
I0420 16:55:52.472180 25592 net.cpp:131] Top shape: 1 512 (512)
I0420 16:55:52.472182 25592 net.cpp:131] Top shape: 1 512 (512)
I0420 16:55:52.472185 25592 net.cpp:131] Top shape: 1 512 (512)
I0420 16:55:52.472187 25592 net.cpp:131] Top shape: 1 512 (512)
I0420 16:55:52.472189 25592 net.cpp:131] Top shape: 1 512 (512)
I0420 16:55:52.472191 25592 net.cpp:131] Top shape: 1 512 (512)
I0420 16:55:52.472194 25592 net.cpp:131] Top shape: 1 512 (512)
I0420 16:55:52.472196 25592 net.cpp:131] Top shape: 1 512 (512)
I0420 16:55:52.472198 25592 net.cpp:131] Top shape: 1 512 (512)
I0420 16:55:52.472200 25592 net.cpp:131] Top shape: 1 512 (512)
I0420 16:55:52.472203 25592 net.cpp:131] Top shape: 1 512 (512)
I0420 16:55:52.472205 25592 net.cpp:131] Top shape: 1 512 (512)
I0420 16:55:52.472208 25592 net.cpp:131] Top shape: 1 512 (512)
I0420 16:55:52.472209 25592 net.cpp:131] Top shape: 1 512 (512)
I0420 16:55:52.472213 25592 net.cpp:131] Top shape: 1 512 (512)
I0420 16:55:52.472214 25592 net.cpp:131] Top shape: 1 512 (512)
I0420 16:55:52.472216 25592 net.cpp:131] Top shape: 1 512 (512)
I0420 16:55:52.472218 25592 net.cpp:131] Top shape: 1 512 (512)
I0420 16:55:52.472221 25592 net.cpp:131] Top shape: 1 512 (512)
I0420 16:55:52.472223 25592 net.cpp:131] Top shape: 1 512 (512)
I0420 16:55:52.472225 25592 net.cpp:131] Top shape: 1 512 (512)
I0420 16:55:52.472227 25592 net.cpp:131] Top shape: 1 512 (512)
I0420 16:55:52.472229 25592 net.cpp:131] Top shape: 1 512 (512)
I0420 16:55:52.472232 25592 net.cpp:131] Top shape: 1 512 (512)
I0420 16:55:52.472234 25592 net.cpp:131] Top shape: 1 512 (512)
I0420 16:55:52.472236 25592 net.cpp:131] Top shape: 1 512 (512)
I0420 16:55:52.472239 25592 net.cpp:131] Top shape: 1 512 (512)
I0420 16:55:52.472240 25592 net.cpp:139] Memory required for data: 15482880
I0420 16:55:52.472242 25592 layer_factory.hpp:77] Creating layer cont_1_lstm1_cont_slice_0_split
I0420 16:55:52.472246 25592 net.cpp:86] Creating Layer cont_1_lstm1_cont_slice_0_split
I0420 16:55:52.472249 25592 net.cpp:408] cont_1_lstm1_cont_slice_0_split <- cont_1
I0420 16:55:52.472252 25592 net.cpp:382] cont_1_lstm1_cont_slice_0_split -> cont_1_lstm1_cont_slice_0_split_0
I0420 16:55:52.472255 25592 net.cpp:382] cont_1_lstm1_cont_slice_0_split -> cont_1_lstm1_cont_slice_0_split_1
I0420 16:55:52.472275 25592 net.cpp:124] Setting up cont_1_lstm1_cont_slice_0_split
I0420 16:55:52.472276 25592 net.cpp:131] Top shape: 1 512 (512)
I0420 16:55:52.472278 25592 net.cpp:131] Top shape: 1 512 (512)
I0420 16:55:52.472281 25592 net.cpp:139] Memory required for data: 15486976
I0420 16:55:52.472283 25592 layer_factory.hpp:77] Creating layer cont_2_lstm1_cont_slice_1_split
I0420 16:55:52.472286 25592 net.cpp:86] Creating Layer cont_2_lstm1_cont_slice_1_split
I0420 16:55:52.472288 25592 net.cpp:408] cont_2_lstm1_cont_slice_1_split <- cont_2
I0420 16:55:52.472291 25592 net.cpp:382] cont_2_lstm1_cont_slice_1_split -> cont_2_lstm1_cont_slice_1_split_0
I0420 16:55:52.472295 25592 net.cpp:382] cont_2_lstm1_cont_slice_1_split -> cont_2_lstm1_cont_slice_1_split_1
I0420 16:55:52.472311 25592 net.cpp:124] Setting up cont_2_lstm1_cont_slice_1_split
I0420 16:55:52.472313 25592 net.cpp:131] Top shape: 1 512 (512)
I0420 16:55:52.472316 25592 net.cpp:131] Top shape: 1 512 (512)
I0420 16:55:52.472318 25592 net.cpp:139] Memory required for data: 15491072
I0420 16:55:52.472319 25592 layer_factory.hpp:77] Creating layer cont_3_lstm1_cont_slice_2_split
I0420 16:55:52.472322 25592 net.cpp:86] Creating Layer cont_3_lstm1_cont_slice_2_split
I0420 16:55:52.472324 25592 net.cpp:408] cont_3_lstm1_cont_slice_2_split <- cont_3
I0420 16:55:52.472327 25592 net.cpp:382] cont_3_lstm1_cont_slice_2_split -> cont_3_lstm1_cont_slice_2_split_0
I0420 16:55:52.472332 25592 net.cpp:382] cont_3_lstm1_cont_slice_2_split -> cont_3_lstm1_cont_slice_2_split_1
I0420 16:55:52.472354 25592 net.cpp:124] Setting up cont_3_lstm1_cont_slice_2_split
I0420 16:55:52.472357 25592 net.cpp:131] Top shape: 1 512 (512)
I0420 16:55:52.472359 25592 net.cpp:131] Top shape: 1 512 (512)
I0420 16:55:52.472362 25592 net.cpp:139] Memory required for data: 15495168
I0420 16:55:52.472363 25592 layer_factory.hpp:77] Creating layer cont_4_lstm1_cont_slice_3_split
I0420 16:55:52.472367 25592 net.cpp:86] Creating Layer cont_4_lstm1_cont_slice_3_split
I0420 16:55:52.472368 25592 net.cpp:408] cont_4_lstm1_cont_slice_3_split <- cont_4
I0420 16:55:52.472371 25592 net.cpp:382] cont_4_lstm1_cont_slice_3_split -> cont_4_lstm1_cont_slice_3_split_0
I0420 16:55:52.472374 25592 net.cpp:382] cont_4_lstm1_cont_slice_3_split -> cont_4_lstm1_cont_slice_3_split_1
I0420 16:55:52.472391 25592 net.cpp:124] Setting up cont_4_lstm1_cont_slice_3_split
I0420 16:55:52.472393 25592 net.cpp:131] Top shape: 1 512 (512)
I0420 16:55:52.472395 25592 net.cpp:131] Top shape: 1 512 (512)
I0420 16:55:52.472398 25592 net.cpp:139] Memory required for data: 15499264
I0420 16:55:52.472400 25592 layer_factory.hpp:77] Creating layer cont_5_lstm1_cont_slice_4_split
I0420 16:55:52.472402 25592 net.cpp:86] Creating Layer cont_5_lstm1_cont_slice_4_split
I0420 16:55:52.472404 25592 net.cpp:408] cont_5_lstm1_cont_slice_4_split <- cont_5
I0420 16:55:52.472409 25592 net.cpp:382] cont_5_lstm1_cont_slice_4_split -> cont_5_lstm1_cont_slice_4_split_0
I0420 16:55:52.472411 25592 net.cpp:382] cont_5_lstm1_cont_slice_4_split -> cont_5_lstm1_cont_slice_4_split_1
I0420 16:55:52.472429 25592 net.cpp:124] Setting up cont_5_lstm1_cont_slice_4_split
I0420 16:55:52.472430 25592 net.cpp:131] Top shape: 1 512 (512)
I0420 16:55:52.472432 25592 net.cpp:131] Top shape: 1 512 (512)
I0420 16:55:52.472435 25592 net.cpp:139] Memory required for data: 15503360
I0420 16:55:52.472437 25592 layer_factory.hpp:77] Creating layer cont_6_lstm1_cont_slice_5_split
I0420 16:55:52.472440 25592 net.cpp:86] Creating Layer cont_6_lstm1_cont_slice_5_split
I0420 16:55:52.472442 25592 net.cpp:408] cont_6_lstm1_cont_slice_5_split <- cont_6
I0420 16:55:52.472445 25592 net.cpp:382] cont_6_lstm1_cont_slice_5_split -> cont_6_lstm1_cont_slice_5_split_0
I0420 16:55:52.472448 25592 net.cpp:382] cont_6_lstm1_cont_slice_5_split -> cont_6_lstm1_cont_slice_5_split_1
I0420 16:55:52.472465 25592 net.cpp:124] Setting up cont_6_lstm1_cont_slice_5_split
I0420 16:55:52.472467 25592 net.cpp:131] Top shape: 1 512 (512)
I0420 16:55:52.472470 25592 net.cpp:131] Top shape: 1 512 (512)
I0420 16:55:52.472471 25592 net.cpp:139] Memory required for data: 15507456
I0420 16:55:52.472473 25592 layer_factory.hpp:77] Creating layer cont_7_lstm1_cont_slice_6_split
I0420 16:55:52.472476 25592 net.cpp:86] Creating Layer cont_7_lstm1_cont_slice_6_split
I0420 16:55:52.472478 25592 net.cpp:408] cont_7_lstm1_cont_slice_6_split <- cont_7
I0420 16:55:52.472481 25592 net.cpp:382] cont_7_lstm1_cont_slice_6_split -> cont_7_lstm1_cont_slice_6_split_0
I0420 16:55:52.472484 25592 net.cpp:382] cont_7_lstm1_cont_slice_6_split -> cont_7_lstm1_cont_slice_6_split_1
I0420 16:55:52.472501 25592 net.cpp:124] Setting up cont_7_lstm1_cont_slice_6_split
I0420 16:55:52.472503 25592 net.cpp:131] Top shape: 1 512 (512)
I0420 16:55:52.472506 25592 net.cpp:131] Top shape: 1 512 (512)
I0420 16:55:52.472507 25592 net.cpp:139] Memory required for data: 15511552
I0420 16:55:52.472509 25592 layer_factory.hpp:77] Creating layer cont_8_lstm1_cont_slice_7_split
I0420 16:55:52.472512 25592 net.cpp:86] Creating Layer cont_8_lstm1_cont_slice_7_split
I0420 16:55:52.472514 25592 net.cpp:408] cont_8_lstm1_cont_slice_7_split <- cont_8
I0420 16:55:52.472517 25592 net.cpp:382] cont_8_lstm1_cont_slice_7_split -> cont_8_lstm1_cont_slice_7_split_0
I0420 16:55:52.472520 25592 net.cpp:382] cont_8_lstm1_cont_slice_7_split -> cont_8_lstm1_cont_slice_7_split_1
I0420 16:55:52.472537 25592 net.cpp:124] Setting up cont_8_lstm1_cont_slice_7_split
I0420 16:55:52.472539 25592 net.cpp:131] Top shape: 1 512 (512)
I0420 16:55:52.472542 25592 net.cpp:131] Top shape: 1 512 (512)
I0420 16:55:52.472550 25592 net.cpp:139] Memory required for data: 15515648
I0420 16:55:52.472553 25592 layer_factory.hpp:77] Creating layer cont_9_lstm1_cont_slice_8_split
I0420 16:55:52.472555 25592 net.cpp:86] Creating Layer cont_9_lstm1_cont_slice_8_split
I0420 16:55:52.472558 25592 net.cpp:408] cont_9_lstm1_cont_slice_8_split <- cont_9
I0420 16:55:52.472560 25592 net.cpp:382] cont_9_lstm1_cont_slice_8_split -> cont_9_lstm1_cont_slice_8_split_0
I0420 16:55:52.472564 25592 net.cpp:382] cont_9_lstm1_cont_slice_8_split -> cont_9_lstm1_cont_slice_8_split_1
I0420 16:55:52.472581 25592 net.cpp:124] Setting up cont_9_lstm1_cont_slice_8_split
I0420 16:55:52.472584 25592 net.cpp:131] Top shape: 1 512 (512)
I0420 16:55:52.472585 25592 net.cpp:131] Top shape: 1 512 (512)
I0420 16:55:52.472589 25592 net.cpp:139] Memory required for data: 15519744
I0420 16:55:52.472589 25592 layer_factory.hpp:77] Creating layer cont_10_lstm1_cont_slice_9_split
I0420 16:55:52.472592 25592 net.cpp:86] Creating Layer cont_10_lstm1_cont_slice_9_split
I0420 16:55:52.472595 25592 net.cpp:408] cont_10_lstm1_cont_slice_9_split <- cont_10
I0420 16:55:52.472599 25592 net.cpp:382] cont_10_lstm1_cont_slice_9_split -> cont_10_lstm1_cont_slice_9_split_0
I0420 16:55:52.472601 25592 net.cpp:382] cont_10_lstm1_cont_slice_9_split -> cont_10_lstm1_cont_slice_9_split_1
I0420 16:55:52.472617 25592 net.cpp:124] Setting up cont_10_lstm1_cont_slice_9_split
I0420 16:55:52.472620 25592 net.cpp:131] Top shape: 1 512 (512)
I0420 16:55:52.472622 25592 net.cpp:131] Top shape: 1 512 (512)
I0420 16:55:52.472625 25592 net.cpp:139] Memory required for data: 15523840
I0420 16:55:52.472626 25592 layer_factory.hpp:77] Creating layer cont_11_lstm1_cont_slice_10_split
I0420 16:55:52.472628 25592 net.cpp:86] Creating Layer cont_11_lstm1_cont_slice_10_split
I0420 16:55:52.472631 25592 net.cpp:408] cont_11_lstm1_cont_slice_10_split <- cont_11
I0420 16:55:52.472635 25592 net.cpp:382] cont_11_lstm1_cont_slice_10_split -> cont_11_lstm1_cont_slice_10_split_0
I0420 16:55:52.472637 25592 net.cpp:382] cont_11_lstm1_cont_slice_10_split -> cont_11_lstm1_cont_slice_10_split_1
I0420 16:55:52.472653 25592 net.cpp:124] Setting up cont_11_lstm1_cont_slice_10_split
I0420 16:55:52.472656 25592 net.cpp:131] Top shape: 1 512 (512)
I0420 16:55:52.472658 25592 net.cpp:131] Top shape: 1 512 (512)
I0420 16:55:52.472661 25592 net.cpp:139] Memory required for data: 15527936
I0420 16:55:52.472662 25592 layer_factory.hpp:77] Creating layer cont_12_lstm1_cont_slice_11_split
I0420 16:55:52.472664 25592 net.cpp:86] Creating Layer cont_12_lstm1_cont_slice_11_split
I0420 16:55:52.472666 25592 net.cpp:408] cont_12_lstm1_cont_slice_11_split <- cont_12
I0420 16:55:52.472669 25592 net.cpp:382] cont_12_lstm1_cont_slice_11_split -> cont_12_lstm1_cont_slice_11_split_0
I0420 16:55:52.472673 25592 net.cpp:382] cont_12_lstm1_cont_slice_11_split -> cont_12_lstm1_cont_slice_11_split_1
I0420 16:55:52.472689 25592 net.cpp:124] Setting up cont_12_lstm1_cont_slice_11_split
I0420 16:55:52.472692 25592 net.cpp:131] Top shape: 1 512 (512)
I0420 16:55:52.472693 25592 net.cpp:131] Top shape: 1 512 (512)
I0420 16:55:52.472697 25592 net.cpp:139] Memory required for data: 15532032
I0420 16:55:52.472697 25592 layer_factory.hpp:77] Creating layer cont_13_lstm1_cont_slice_12_split
I0420 16:55:52.472700 25592 net.cpp:86] Creating Layer cont_13_lstm1_cont_slice_12_split
I0420 16:55:52.472702 25592 net.cpp:408] cont_13_lstm1_cont_slice_12_split <- cont_13
I0420 16:55:52.472705 25592 net.cpp:382] cont_13_lstm1_cont_slice_12_split -> cont_13_lstm1_cont_slice_12_split_0
I0420 16:55:52.472709 25592 net.cpp:382] cont_13_lstm1_cont_slice_12_split -> cont_13_lstm1_cont_slice_12_split_1
I0420 16:55:52.472725 25592 net.cpp:124] Setting up cont_13_lstm1_cont_slice_12_split
I0420 16:55:52.472728 25592 net.cpp:131] Top shape: 1 512 (512)
I0420 16:55:52.472730 25592 net.cpp:131] Top shape: 1 512 (512)
I0420 16:55:52.472733 25592 net.cpp:139] Memory required for data: 15536128
I0420 16:55:52.472734 25592 layer_factory.hpp:77] Creating layer cont_14_lstm1_cont_slice_13_split
I0420 16:55:52.472743 25592 net.cpp:86] Creating Layer cont_14_lstm1_cont_slice_13_split
I0420 16:55:52.472745 25592 net.cpp:408] cont_14_lstm1_cont_slice_13_split <- cont_14
I0420 16:55:52.472748 25592 net.cpp:382] cont_14_lstm1_cont_slice_13_split -> cont_14_lstm1_cont_slice_13_split_0
I0420 16:55:52.472753 25592 net.cpp:382] cont_14_lstm1_cont_slice_13_split -> cont_14_lstm1_cont_slice_13_split_1
I0420 16:55:52.472769 25592 net.cpp:124] Setting up cont_14_lstm1_cont_slice_13_split
I0420 16:55:52.472772 25592 net.cpp:131] Top shape: 1 512 (512)
I0420 16:55:52.472774 25592 net.cpp:131] Top shape: 1 512 (512)
I0420 16:55:52.472776 25592 net.cpp:139] Memory required for data: 15540224
I0420 16:55:52.472779 25592 layer_factory.hpp:77] Creating layer cont_15_lstm1_cont_slice_14_split
I0420 16:55:52.472781 25592 net.cpp:86] Creating Layer cont_15_lstm1_cont_slice_14_split
I0420 16:55:52.472784 25592 net.cpp:408] cont_15_lstm1_cont_slice_14_split <- cont_15
I0420 16:55:52.472786 25592 net.cpp:382] cont_15_lstm1_cont_slice_14_split -> cont_15_lstm1_cont_slice_14_split_0
I0420 16:55:52.472790 25592 net.cpp:382] cont_15_lstm1_cont_slice_14_split -> cont_15_lstm1_cont_slice_14_split_1
I0420 16:55:52.472806 25592 net.cpp:124] Setting up cont_15_lstm1_cont_slice_14_split
I0420 16:55:52.472808 25592 net.cpp:131] Top shape: 1 512 (512)
I0420 16:55:52.472811 25592 net.cpp:131] Top shape: 1 512 (512)
I0420 16:55:52.472813 25592 net.cpp:139] Memory required for data: 15544320
I0420 16:55:52.472815 25592 layer_factory.hpp:77] Creating layer cont_16_lstm1_cont_slice_15_split
I0420 16:55:52.472818 25592 net.cpp:86] Creating Layer cont_16_lstm1_cont_slice_15_split
I0420 16:55:52.472820 25592 net.cpp:408] cont_16_lstm1_cont_slice_15_split <- cont_16
I0420 16:55:52.472823 25592 net.cpp:382] cont_16_lstm1_cont_slice_15_split -> cont_16_lstm1_cont_slice_15_split_0
I0420 16:55:52.472826 25592 net.cpp:382] cont_16_lstm1_cont_slice_15_split -> cont_16_lstm1_cont_slice_15_split_1
I0420 16:55:52.472842 25592 net.cpp:124] Setting up cont_16_lstm1_cont_slice_15_split
I0420 16:55:52.472846 25592 net.cpp:131] Top shape: 1 512 (512)
I0420 16:55:52.472847 25592 net.cpp:131] Top shape: 1 512 (512)
I0420 16:55:52.472849 25592 net.cpp:139] Memory required for data: 15548416
I0420 16:55:52.472851 25592 layer_factory.hpp:77] Creating layer cont_17_lstm1_cont_slice_16_split
I0420 16:55:52.472853 25592 net.cpp:86] Creating Layer cont_17_lstm1_cont_slice_16_split
I0420 16:55:52.472856 25592 net.cpp:408] cont_17_lstm1_cont_slice_16_split <- cont_17
I0420 16:55:52.472858 25592 net.cpp:382] cont_17_lstm1_cont_slice_16_split -> cont_17_lstm1_cont_slice_16_split_0
I0420 16:55:52.472862 25592 net.cpp:382] cont_17_lstm1_cont_slice_16_split -> cont_17_lstm1_cont_slice_16_split_1
I0420 16:55:52.472878 25592 net.cpp:124] Setting up cont_17_lstm1_cont_slice_16_split
I0420 16:55:52.472880 25592 net.cpp:131] Top shape: 1 512 (512)
I0420 16:55:52.472883 25592 net.cpp:131] Top shape: 1 512 (512)
I0420 16:55:52.472885 25592 net.cpp:139] Memory required for data: 15552512
I0420 16:55:52.472887 25592 layer_factory.hpp:77] Creating layer cont_18_lstm1_cont_slice_17_split
I0420 16:55:52.472889 25592 net.cpp:86] Creating Layer cont_18_lstm1_cont_slice_17_split
I0420 16:55:52.472892 25592 net.cpp:408] cont_18_lstm1_cont_slice_17_split <- cont_18
I0420 16:55:52.472894 25592 net.cpp:382] cont_18_lstm1_cont_slice_17_split -> cont_18_lstm1_cont_slice_17_split_0
I0420 16:55:52.472898 25592 net.cpp:382] cont_18_lstm1_cont_slice_17_split -> cont_18_lstm1_cont_slice_17_split_1
I0420 16:55:52.472914 25592 net.cpp:124] Setting up cont_18_lstm1_cont_slice_17_split
I0420 16:55:52.472916 25592 net.cpp:131] Top shape: 1 512 (512)
I0420 16:55:52.472918 25592 net.cpp:131] Top shape: 1 512 (512)
I0420 16:55:52.472920 25592 net.cpp:139] Memory required for data: 15556608
I0420 16:55:52.472923 25592 layer_factory.hpp:77] Creating layer cont_19_lstm1_cont_slice_18_split
I0420 16:55:52.472924 25592 net.cpp:86] Creating Layer cont_19_lstm1_cont_slice_18_split
I0420 16:55:52.472934 25592 net.cpp:408] cont_19_lstm1_cont_slice_18_split <- cont_19
I0420 16:55:52.472937 25592 net.cpp:382] cont_19_lstm1_cont_slice_18_split -> cont_19_lstm1_cont_slice_18_split_0
I0420 16:55:52.472940 25592 net.cpp:382] cont_19_lstm1_cont_slice_18_split -> cont_19_lstm1_cont_slice_18_split_1
I0420 16:55:52.472959 25592 net.cpp:124] Setting up cont_19_lstm1_cont_slice_18_split
I0420 16:55:52.472960 25592 net.cpp:131] Top shape: 1 512 (512)
I0420 16:55:52.472962 25592 net.cpp:131] Top shape: 1 512 (512)
I0420 16:55:52.472965 25592 net.cpp:139] Memory required for data: 15560704
I0420 16:55:52.472966 25592 layer_factory.hpp:77] Creating layer cont_20_lstm1_cont_slice_19_split
I0420 16:55:52.472970 25592 net.cpp:86] Creating Layer cont_20_lstm1_cont_slice_19_split
I0420 16:55:52.472971 25592 net.cpp:408] cont_20_lstm1_cont_slice_19_split <- cont_20
I0420 16:55:52.472975 25592 net.cpp:382] cont_20_lstm1_cont_slice_19_split -> cont_20_lstm1_cont_slice_19_split_0
I0420 16:55:52.472978 25592 net.cpp:382] cont_20_lstm1_cont_slice_19_split -> cont_20_lstm1_cont_slice_19_split_1
I0420 16:55:52.472995 25592 net.cpp:124] Setting up cont_20_lstm1_cont_slice_19_split
I0420 16:55:52.472997 25592 net.cpp:131] Top shape: 1 512 (512)
I0420 16:55:52.472999 25592 net.cpp:131] Top shape: 1 512 (512)
I0420 16:55:52.473001 25592 net.cpp:139] Memory required for data: 15564800
I0420 16:55:52.473003 25592 layer_factory.hpp:77] Creating layer cont_21_lstm1_cont_slice_20_split
I0420 16:55:52.473006 25592 net.cpp:86] Creating Layer cont_21_lstm1_cont_slice_20_split
I0420 16:55:52.473008 25592 net.cpp:408] cont_21_lstm1_cont_slice_20_split <- cont_21
I0420 16:55:52.473011 25592 net.cpp:382] cont_21_lstm1_cont_slice_20_split -> cont_21_lstm1_cont_slice_20_split_0
I0420 16:55:52.473014 25592 net.cpp:382] cont_21_lstm1_cont_slice_20_split -> cont_21_lstm1_cont_slice_20_split_1
I0420 16:55:52.473031 25592 net.cpp:124] Setting up cont_21_lstm1_cont_slice_20_split
I0420 16:55:52.473033 25592 net.cpp:131] Top shape: 1 512 (512)
I0420 16:55:52.473035 25592 net.cpp:131] Top shape: 1 512 (512)
I0420 16:55:52.473037 25592 net.cpp:139] Memory required for data: 15568896
I0420 16:55:52.473039 25592 layer_factory.hpp:77] Creating layer cont_22_lstm1_cont_slice_21_split
I0420 16:55:52.473042 25592 net.cpp:86] Creating Layer cont_22_lstm1_cont_slice_21_split
I0420 16:55:52.473044 25592 net.cpp:408] cont_22_lstm1_cont_slice_21_split <- cont_22
I0420 16:55:52.473047 25592 net.cpp:382] cont_22_lstm1_cont_slice_21_split -> cont_22_lstm1_cont_slice_21_split_0
I0420 16:55:52.473050 25592 net.cpp:382] cont_22_lstm1_cont_slice_21_split -> cont_22_lstm1_cont_slice_21_split_1
I0420 16:55:52.473067 25592 net.cpp:124] Setting up cont_22_lstm1_cont_slice_21_split
I0420 16:55:52.473068 25592 net.cpp:131] Top shape: 1 512 (512)
I0420 16:55:52.473071 25592 net.cpp:131] Top shape: 1 512 (512)
I0420 16:55:52.473073 25592 net.cpp:139] Memory required for data: 15572992
I0420 16:55:52.473075 25592 layer_factory.hpp:77] Creating layer cont_23_lstm1_cont_slice_22_split
I0420 16:55:52.473078 25592 net.cpp:86] Creating Layer cont_23_lstm1_cont_slice_22_split
I0420 16:55:52.473079 25592 net.cpp:408] cont_23_lstm1_cont_slice_22_split <- cont_23
I0420 16:55:52.473083 25592 net.cpp:382] cont_23_lstm1_cont_slice_22_split -> cont_23_lstm1_cont_slice_22_split_0
I0420 16:55:52.473088 25592 net.cpp:382] cont_23_lstm1_cont_slice_22_split -> cont_23_lstm1_cont_slice_22_split_1
I0420 16:55:52.473104 25592 net.cpp:124] Setting up cont_23_lstm1_cont_slice_22_split
I0420 16:55:52.473106 25592 net.cpp:131] Top shape: 1 512 (512)
I0420 16:55:52.473109 25592 net.cpp:131] Top shape: 1 512 (512)
I0420 16:55:52.473111 25592 net.cpp:139] Memory required for data: 15577088
I0420 16:55:52.473114 25592 layer_factory.hpp:77] Creating layer cont_24_lstm1_cont_slice_23_split
I0420 16:55:52.473115 25592 net.cpp:86] Creating Layer cont_24_lstm1_cont_slice_23_split
I0420 16:55:52.473117 25592 net.cpp:408] cont_24_lstm1_cont_slice_23_split <- cont_24
I0420 16:55:52.473121 25592 net.cpp:382] cont_24_lstm1_cont_slice_23_split -> cont_24_lstm1_cont_slice_23_split_0
I0420 16:55:52.473131 25592 net.cpp:382] cont_24_lstm1_cont_slice_23_split -> cont_24_lstm1_cont_slice_23_split_1
I0420 16:55:52.473148 25592 net.cpp:124] Setting up cont_24_lstm1_cont_slice_23_split
I0420 16:55:52.473151 25592 net.cpp:131] Top shape: 1 512 (512)
I0420 16:55:52.473153 25592 net.cpp:131] Top shape: 1 512 (512)
I0420 16:55:52.473155 25592 net.cpp:139] Memory required for data: 15581184
I0420 16:55:52.473157 25592 layer_factory.hpp:77] Creating layer cont_25_lstm1_cont_slice_24_split
I0420 16:55:52.473160 25592 net.cpp:86] Creating Layer cont_25_lstm1_cont_slice_24_split
I0420 16:55:52.473162 25592 net.cpp:408] cont_25_lstm1_cont_slice_24_split <- cont_25
I0420 16:55:52.473165 25592 net.cpp:382] cont_25_lstm1_cont_slice_24_split -> cont_25_lstm1_cont_slice_24_split_0
I0420 16:55:52.473168 25592 net.cpp:382] cont_25_lstm1_cont_slice_24_split -> cont_25_lstm1_cont_slice_24_split_1
I0420 16:55:52.473186 25592 net.cpp:124] Setting up cont_25_lstm1_cont_slice_24_split
I0420 16:55:52.473187 25592 net.cpp:131] Top shape: 1 512 (512)
I0420 16:55:52.473191 25592 net.cpp:131] Top shape: 1 512 (512)
I0420 16:55:52.473192 25592 net.cpp:139] Memory required for data: 15585280
I0420 16:55:52.473194 25592 layer_factory.hpp:77] Creating layer cont_26_lstm1_cont_slice_25_split
I0420 16:55:52.473196 25592 net.cpp:86] Creating Layer cont_26_lstm1_cont_slice_25_split
I0420 16:55:52.473198 25592 net.cpp:408] cont_26_lstm1_cont_slice_25_split <- cont_26
I0420 16:55:52.473201 25592 net.cpp:382] cont_26_lstm1_cont_slice_25_split -> cont_26_lstm1_cont_slice_25_split_0
I0420 16:55:52.473206 25592 net.cpp:382] cont_26_lstm1_cont_slice_25_split -> cont_26_lstm1_cont_slice_25_split_1
I0420 16:55:52.473222 25592 net.cpp:124] Setting up cont_26_lstm1_cont_slice_25_split
I0420 16:55:52.473223 25592 net.cpp:131] Top shape: 1 512 (512)
I0420 16:55:52.473227 25592 net.cpp:131] Top shape: 1 512 (512)
I0420 16:55:52.473228 25592 net.cpp:139] Memory required for data: 15589376
I0420 16:55:52.473230 25592 layer_factory.hpp:77] Creating layer cont_27_lstm1_cont_slice_26_split
I0420 16:55:52.473233 25592 net.cpp:86] Creating Layer cont_27_lstm1_cont_slice_26_split
I0420 16:55:52.473235 25592 net.cpp:408] cont_27_lstm1_cont_slice_26_split <- cont_27
I0420 16:55:52.473238 25592 net.cpp:382] cont_27_lstm1_cont_slice_26_split -> cont_27_lstm1_cont_slice_26_split_0
I0420 16:55:52.473242 25592 net.cpp:382] cont_27_lstm1_cont_slice_26_split -> cont_27_lstm1_cont_slice_26_split_1
I0420 16:55:52.473258 25592 net.cpp:124] Setting up cont_27_lstm1_cont_slice_26_split
I0420 16:55:52.473260 25592 net.cpp:131] Top shape: 1 512 (512)
I0420 16:55:52.473263 25592 net.cpp:131] Top shape: 1 512 (512)
I0420 16:55:52.473265 25592 net.cpp:139] Memory required for data: 15593472
I0420 16:55:52.473266 25592 layer_factory.hpp:77] Creating layer cont_28_lstm1_cont_slice_27_split
I0420 16:55:52.473269 25592 net.cpp:86] Creating Layer cont_28_lstm1_cont_slice_27_split
I0420 16:55:52.473271 25592 net.cpp:408] cont_28_lstm1_cont_slice_27_split <- cont_28
I0420 16:55:52.473274 25592 net.cpp:382] cont_28_lstm1_cont_slice_27_split -> cont_28_lstm1_cont_slice_27_split_0
I0420 16:55:52.473278 25592 net.cpp:382] cont_28_lstm1_cont_slice_27_split -> cont_28_lstm1_cont_slice_27_split_1
I0420 16:55:52.473294 25592 net.cpp:124] Setting up cont_28_lstm1_cont_slice_27_split
I0420 16:55:52.473296 25592 net.cpp:131] Top shape: 1 512 (512)
I0420 16:55:52.473299 25592 net.cpp:131] Top shape: 1 512 (512)
I0420 16:55:52.473301 25592 net.cpp:139] Memory required for data: 15597568
I0420 16:55:52.473304 25592 layer_factory.hpp:77] Creating layer cont_29_lstm1_cont_slice_28_split
I0420 16:55:52.473305 25592 net.cpp:86] Creating Layer cont_29_lstm1_cont_slice_28_split
I0420 16:55:52.473309 25592 net.cpp:408] cont_29_lstm1_cont_slice_28_split <- cont_29
I0420 16:55:52.473310 25592 net.cpp:382] cont_29_lstm1_cont_slice_28_split -> cont_29_lstm1_cont_slice_28_split_0
I0420 16:55:52.473315 25592 net.cpp:382] cont_29_lstm1_cont_slice_28_split -> cont_29_lstm1_cont_slice_28_split_1
I0420 16:55:52.473337 25592 net.cpp:124] Setting up cont_29_lstm1_cont_slice_28_split
I0420 16:55:52.473340 25592 net.cpp:131] Top shape: 1 512 (512)
I0420 16:55:52.473342 25592 net.cpp:131] Top shape: 1 512 (512)
I0420 16:55:52.473345 25592 net.cpp:139] Memory required for data: 15601664
I0420 16:55:52.473346 25592 layer_factory.hpp:77] Creating layer cont_30_lstm1_cont_slice_29_split
I0420 16:55:52.473351 25592 net.cpp:86] Creating Layer cont_30_lstm1_cont_slice_29_split
I0420 16:55:52.473352 25592 net.cpp:408] cont_30_lstm1_cont_slice_29_split <- cont_30
I0420 16:55:52.473356 25592 net.cpp:382] cont_30_lstm1_cont_slice_29_split -> cont_30_lstm1_cont_slice_29_split_0
I0420 16:55:52.473359 25592 net.cpp:382] cont_30_lstm1_cont_slice_29_split -> cont_30_lstm1_cont_slice_29_split_1
I0420 16:55:52.473376 25592 net.cpp:124] Setting up cont_30_lstm1_cont_slice_29_split
I0420 16:55:52.473379 25592 net.cpp:131] Top shape: 1 512 (512)
I0420 16:55:52.473381 25592 net.cpp:131] Top shape: 1 512 (512)
I0420 16:55:52.473383 25592 net.cpp:139] Memory required for data: 15605760
I0420 16:55:52.473385 25592 layer_factory.hpp:77] Creating layer cont_31_lstm1_cont_slice_30_split
I0420 16:55:52.473388 25592 net.cpp:86] Creating Layer cont_31_lstm1_cont_slice_30_split
I0420 16:55:52.473390 25592 net.cpp:408] cont_31_lstm1_cont_slice_30_split <- cont_31
I0420 16:55:52.473393 25592 net.cpp:382] cont_31_lstm1_cont_slice_30_split -> cont_31_lstm1_cont_slice_30_split_0
I0420 16:55:52.473397 25592 net.cpp:382] cont_31_lstm1_cont_slice_30_split -> cont_31_lstm1_cont_slice_30_split_1
I0420 16:55:52.473413 25592 net.cpp:124] Setting up cont_31_lstm1_cont_slice_30_split
I0420 16:55:52.473415 25592 net.cpp:131] Top shape: 1 512 (512)
I0420 16:55:52.473418 25592 net.cpp:131] Top shape: 1 512 (512)
I0420 16:55:52.473420 25592 net.cpp:139] Memory required for data: 15609856
I0420 16:55:52.473423 25592 layer_factory.hpp:77] Creating layer cont_32_lstm1_cont_slice_31_split
I0420 16:55:52.473424 25592 net.cpp:86] Creating Layer cont_32_lstm1_cont_slice_31_split
I0420 16:55:52.473426 25592 net.cpp:408] cont_32_lstm1_cont_slice_31_split <- cont_32
I0420 16:55:52.473429 25592 net.cpp:382] cont_32_lstm1_cont_slice_31_split -> cont_32_lstm1_cont_slice_31_split_0
I0420 16:55:52.473433 25592 net.cpp:382] cont_32_lstm1_cont_slice_31_split -> cont_32_lstm1_cont_slice_31_split_1
I0420 16:55:52.473449 25592 net.cpp:124] Setting up cont_32_lstm1_cont_slice_31_split
I0420 16:55:52.473451 25592 net.cpp:131] Top shape: 1 512 (512)
I0420 16:55:52.473454 25592 net.cpp:131] Top shape: 1 512 (512)
I0420 16:55:52.473456 25592 net.cpp:139] Memory required for data: 15613952
I0420 16:55:52.473459 25592 layer_factory.hpp:77] Creating layer cont_33_lstm1_cont_slice_32_split
I0420 16:55:52.473460 25592 net.cpp:86] Creating Layer cont_33_lstm1_cont_slice_32_split
I0420 16:55:52.473462 25592 net.cpp:408] cont_33_lstm1_cont_slice_32_split <- cont_33
I0420 16:55:52.473466 25592 net.cpp:382] cont_33_lstm1_cont_slice_32_split -> cont_33_lstm1_cont_slice_32_split_0
I0420 16:55:52.473469 25592 net.cpp:382] cont_33_lstm1_cont_slice_32_split -> cont_33_lstm1_cont_slice_32_split_1
I0420 16:55:52.473485 25592 net.cpp:124] Setting up cont_33_lstm1_cont_slice_32_split
I0420 16:55:52.473487 25592 net.cpp:131] Top shape: 1 512 (512)
I0420 16:55:52.473490 25592 net.cpp:131] Top shape: 1 512 (512)
I0420 16:55:52.473492 25592 net.cpp:139] Memory required for data: 15618048
I0420 16:55:52.473495 25592 layer_factory.hpp:77] Creating layer cont_34_lstm1_cont_slice_33_split
I0420 16:55:52.473496 25592 net.cpp:86] Creating Layer cont_34_lstm1_cont_slice_33_split
I0420 16:55:52.473498 25592 net.cpp:408] cont_34_lstm1_cont_slice_33_split <- cont_34
I0420 16:55:52.473501 25592 net.cpp:382] cont_34_lstm1_cont_slice_33_split -> cont_34_lstm1_cont_slice_33_split_0
I0420 16:55:52.473505 25592 net.cpp:382] cont_34_lstm1_cont_slice_33_split -> cont_34_lstm1_cont_slice_33_split_1
I0420 16:55:52.473521 25592 net.cpp:124] Setting up cont_34_lstm1_cont_slice_33_split
I0420 16:55:52.473528 25592 net.cpp:131] Top shape: 1 512 (512)
I0420 16:55:52.473531 25592 net.cpp:131] Top shape: 1 512 (512)
I0420 16:55:52.473533 25592 net.cpp:139] Memory required for data: 15622144
I0420 16:55:52.473536 25592 layer_factory.hpp:77] Creating layer cont_35_lstm1_cont_slice_34_split
I0420 16:55:52.473538 25592 net.cpp:86] Creating Layer cont_35_lstm1_cont_slice_34_split
I0420 16:55:52.473541 25592 net.cpp:408] cont_35_lstm1_cont_slice_34_split <- cont_35
I0420 16:55:52.473543 25592 net.cpp:382] cont_35_lstm1_cont_slice_34_split -> cont_35_lstm1_cont_slice_34_split_0
I0420 16:55:52.473546 25592 net.cpp:382] cont_35_lstm1_cont_slice_34_split -> cont_35_lstm1_cont_slice_34_split_1
I0420 16:55:52.473564 25592 net.cpp:124] Setting up cont_35_lstm1_cont_slice_34_split
I0420 16:55:52.473567 25592 net.cpp:131] Top shape: 1 512 (512)
I0420 16:55:52.473569 25592 net.cpp:131] Top shape: 1 512 (512)
I0420 16:55:52.473572 25592 net.cpp:139] Memory required for data: 15626240
I0420 16:55:52.473573 25592 layer_factory.hpp:77] Creating layer cont_36_lstm1_cont_slice_35_split
I0420 16:55:52.473575 25592 net.cpp:86] Creating Layer cont_36_lstm1_cont_slice_35_split
I0420 16:55:52.473577 25592 net.cpp:408] cont_36_lstm1_cont_slice_35_split <- cont_36
I0420 16:55:52.473580 25592 net.cpp:382] cont_36_lstm1_cont_slice_35_split -> cont_36_lstm1_cont_slice_35_split_0
I0420 16:55:52.473584 25592 net.cpp:382] cont_36_lstm1_cont_slice_35_split -> cont_36_lstm1_cont_slice_35_split_1
I0420 16:55:52.473600 25592 net.cpp:124] Setting up cont_36_lstm1_cont_slice_35_split
I0420 16:55:52.473603 25592 net.cpp:131] Top shape: 1 512 (512)
I0420 16:55:52.473605 25592 net.cpp:131] Top shape: 1 512 (512)
I0420 16:55:52.473608 25592 net.cpp:139] Memory required for data: 15630336
I0420 16:55:52.473609 25592 layer_factory.hpp:77] Creating layer cont_37_lstm1_cont_slice_36_split
I0420 16:55:52.473611 25592 net.cpp:86] Creating Layer cont_37_lstm1_cont_slice_36_split
I0420 16:55:52.473614 25592 net.cpp:408] cont_37_lstm1_cont_slice_36_split <- cont_37
I0420 16:55:52.473618 25592 net.cpp:382] cont_37_lstm1_cont_slice_36_split -> cont_37_lstm1_cont_slice_36_split_0
I0420 16:55:52.473620 25592 net.cpp:382] cont_37_lstm1_cont_slice_36_split -> cont_37_lstm1_cont_slice_36_split_1
I0420 16:55:52.473636 25592 net.cpp:124] Setting up cont_37_lstm1_cont_slice_36_split
I0420 16:55:52.473639 25592 net.cpp:131] Top shape: 1 512 (512)
I0420 16:55:52.473641 25592 net.cpp:131] Top shape: 1 512 (512)
I0420 16:55:52.473644 25592 net.cpp:139] Memory required for data: 15634432
I0420 16:55:52.473645 25592 layer_factory.hpp:77] Creating layer cont_38_lstm1_cont_slice_37_split
I0420 16:55:52.473649 25592 net.cpp:86] Creating Layer cont_38_lstm1_cont_slice_37_split
I0420 16:55:52.473650 25592 net.cpp:408] cont_38_lstm1_cont_slice_37_split <- cont_38
I0420 16:55:52.473654 25592 net.cpp:382] cont_38_lstm1_cont_slice_37_split -> cont_38_lstm1_cont_slice_37_split_0
I0420 16:55:52.473656 25592 net.cpp:382] cont_38_lstm1_cont_slice_37_split -> cont_38_lstm1_cont_slice_37_split_1
I0420 16:55:52.473673 25592 net.cpp:124] Setting up cont_38_lstm1_cont_slice_37_split
I0420 16:55:52.473675 25592 net.cpp:131] Top shape: 1 512 (512)
I0420 16:55:52.473677 25592 net.cpp:131] Top shape: 1 512 (512)
I0420 16:55:52.473680 25592 net.cpp:139] Memory required for data: 15638528
I0420 16:55:52.473681 25592 layer_factory.hpp:77] Creating layer cont_39_lstm1_cont_slice_38_split
I0420 16:55:52.473685 25592 net.cpp:86] Creating Layer cont_39_lstm1_cont_slice_38_split
I0420 16:55:52.473686 25592 net.cpp:408] cont_39_lstm1_cont_slice_38_split <- cont_39
I0420 16:55:52.473690 25592 net.cpp:382] cont_39_lstm1_cont_slice_38_split -> cont_39_lstm1_cont_slice_38_split_0
I0420 16:55:52.473692 25592 net.cpp:382] cont_39_lstm1_cont_slice_38_split -> cont_39_lstm1_cont_slice_38_split_1
I0420 16:55:52.473709 25592 net.cpp:124] Setting up cont_39_lstm1_cont_slice_38_split
I0420 16:55:52.473711 25592 net.cpp:131] Top shape: 1 512 (512)
I0420 16:55:52.473713 25592 net.cpp:131] Top shape: 1 512 (512)
I0420 16:55:52.473721 25592 net.cpp:139] Memory required for data: 15642624
I0420 16:55:52.473723 25592 layer_factory.hpp:77] Creating layer cont_40_lstm1_cont_slice_39_split
I0420 16:55:52.473726 25592 net.cpp:86] Creating Layer cont_40_lstm1_cont_slice_39_split
I0420 16:55:52.473727 25592 net.cpp:408] cont_40_lstm1_cont_slice_39_split <- cont_40
I0420 16:55:52.473731 25592 net.cpp:382] cont_40_lstm1_cont_slice_39_split -> cont_40_lstm1_cont_slice_39_split_0
I0420 16:55:52.473734 25592 net.cpp:382] cont_40_lstm1_cont_slice_39_split -> cont_40_lstm1_cont_slice_39_split_1
I0420 16:55:52.473765 25592 net.cpp:124] Setting up cont_40_lstm1_cont_slice_39_split
I0420 16:55:52.473770 25592 net.cpp:131] Top shape: 1 512 (512)
I0420 16:55:52.473774 25592 net.cpp:131] Top shape: 1 512 (512)
I0420 16:55:52.473776 25592 net.cpp:139] Memory required for data: 15646720
I0420 16:55:52.473778 25592 layer_factory.hpp:77] Creating layer cont_41_lstm1_cont_slice_40_split
I0420 16:55:52.473781 25592 net.cpp:86] Creating Layer cont_41_lstm1_cont_slice_40_split
I0420 16:55:52.473783 25592 net.cpp:408] cont_41_lstm1_cont_slice_40_split <- cont_41
I0420 16:55:52.473786 25592 net.cpp:382] cont_41_lstm1_cont_slice_40_split -> cont_41_lstm1_cont_slice_40_split_0
I0420 16:55:52.473790 25592 net.cpp:382] cont_41_lstm1_cont_slice_40_split -> cont_41_lstm1_cont_slice_40_split_1
I0420 16:55:52.473809 25592 net.cpp:124] Setting up cont_41_lstm1_cont_slice_40_split
I0420 16:55:52.473811 25592 net.cpp:131] Top shape: 1 512 (512)
I0420 16:55:52.473814 25592 net.cpp:131] Top shape: 1 512 (512)
I0420 16:55:52.473815 25592 net.cpp:139] Memory required for data: 15650816
I0420 16:55:52.473817 25592 layer_factory.hpp:77] Creating layer cont_42_lstm1_cont_slice_41_split
I0420 16:55:52.473820 25592 net.cpp:86] Creating Layer cont_42_lstm1_cont_slice_41_split
I0420 16:55:52.473822 25592 net.cpp:408] cont_42_lstm1_cont_slice_41_split <- cont_42
I0420 16:55:52.473825 25592 net.cpp:382] cont_42_lstm1_cont_slice_41_split -> cont_42_lstm1_cont_slice_41_split_0
I0420 16:55:52.473829 25592 net.cpp:382] cont_42_lstm1_cont_slice_41_split -> cont_42_lstm1_cont_slice_41_split_1
I0420 16:55:52.473845 25592 net.cpp:124] Setting up cont_42_lstm1_cont_slice_41_split
I0420 16:55:52.473847 25592 net.cpp:131] Top shape: 1 512 (512)
I0420 16:55:52.473850 25592 net.cpp:131] Top shape: 1 512 (512)
I0420 16:55:52.473852 25592 net.cpp:139] Memory required for data: 15654912
I0420 16:55:52.473853 25592 layer_factory.hpp:77] Creating layer cont_43_lstm1_cont_slice_42_split
I0420 16:55:52.473856 25592 net.cpp:86] Creating Layer cont_43_lstm1_cont_slice_42_split
I0420 16:55:52.473858 25592 net.cpp:408] cont_43_lstm1_cont_slice_42_split <- cont_43
I0420 16:55:52.473861 25592 net.cpp:382] cont_43_lstm1_cont_slice_42_split -> cont_43_lstm1_cont_slice_42_split_0
I0420 16:55:52.473865 25592 net.cpp:382] cont_43_lstm1_cont_slice_42_split -> cont_43_lstm1_cont_slice_42_split_1
I0420 16:55:52.473881 25592 net.cpp:124] Setting up cont_43_lstm1_cont_slice_42_split
I0420 16:55:52.473883 25592 net.cpp:131] Top shape: 1 512 (512)
I0420 16:55:52.473886 25592 net.cpp:131] Top shape: 1 512 (512)
I0420 16:55:52.473888 25592 net.cpp:139] Memory required for data: 15659008
I0420 16:55:52.473891 25592 layer_factory.hpp:77] Creating layer cont_44_lstm1_cont_slice_43_split
I0420 16:55:52.473892 25592 net.cpp:86] Creating Layer cont_44_lstm1_cont_slice_43_split
I0420 16:55:52.473896 25592 net.cpp:408] cont_44_lstm1_cont_slice_43_split <- cont_44
I0420 16:55:52.473897 25592 net.cpp:382] cont_44_lstm1_cont_slice_43_split -> cont_44_lstm1_cont_slice_43_split_0
I0420 16:55:52.473901 25592 net.cpp:382] cont_44_lstm1_cont_slice_43_split -> cont_44_lstm1_cont_slice_43_split_1
I0420 16:55:52.473918 25592 net.cpp:124] Setting up cont_44_lstm1_cont_slice_43_split
I0420 16:55:52.473920 25592 net.cpp:131] Top shape: 1 512 (512)
I0420 16:55:52.473922 25592 net.cpp:131] Top shape: 1 512 (512)
I0420 16:55:52.473924 25592 net.cpp:139] Memory required for data: 15663104
I0420 16:55:52.473927 25592 layer_factory.hpp:77] Creating layer cont_45_lstm1_cont_slice_44_split
I0420 16:55:52.473937 25592 net.cpp:86] Creating Layer cont_45_lstm1_cont_slice_44_split
I0420 16:55:52.473938 25592 net.cpp:408] cont_45_lstm1_cont_slice_44_split <- cont_45
I0420 16:55:52.473942 25592 net.cpp:382] cont_45_lstm1_cont_slice_44_split -> cont_45_lstm1_cont_slice_44_split_0
I0420 16:55:52.473945 25592 net.cpp:382] cont_45_lstm1_cont_slice_44_split -> cont_45_lstm1_cont_slice_44_split_1
I0420 16:55:52.473963 25592 net.cpp:124] Setting up cont_45_lstm1_cont_slice_44_split
I0420 16:55:52.473965 25592 net.cpp:131] Top shape: 1 512 (512)
I0420 16:55:52.473968 25592 net.cpp:131] Top shape: 1 512 (512)
I0420 16:55:52.473970 25592 net.cpp:139] Memory required for data: 15667200
I0420 16:55:52.473973 25592 layer_factory.hpp:77] Creating layer cont_46_lstm1_cont_slice_45_split
I0420 16:55:52.473974 25592 net.cpp:86] Creating Layer cont_46_lstm1_cont_slice_45_split
I0420 16:55:52.473978 25592 net.cpp:408] cont_46_lstm1_cont_slice_45_split <- cont_46
I0420 16:55:52.473980 25592 net.cpp:382] cont_46_lstm1_cont_slice_45_split -> cont_46_lstm1_cont_slice_45_split_0
I0420 16:55:52.473984 25592 net.cpp:382] cont_46_lstm1_cont_slice_45_split -> cont_46_lstm1_cont_slice_45_split_1
I0420 16:55:52.474000 25592 net.cpp:124] Setting up cont_46_lstm1_cont_slice_45_split
I0420 16:55:52.474002 25592 net.cpp:131] Top shape: 1 512 (512)
I0420 16:55:52.474004 25592 net.cpp:131] Top shape: 1 512 (512)
I0420 16:55:52.474007 25592 net.cpp:139] Memory required for data: 15671296
I0420 16:55:52.474009 25592 layer_factory.hpp:77] Creating layer cont_47_lstm1_cont_slice_46_split
I0420 16:55:52.474011 25592 net.cpp:86] Creating Layer cont_47_lstm1_cont_slice_46_split
I0420 16:55:52.474014 25592 net.cpp:408] cont_47_lstm1_cont_slice_46_split <- cont_47
I0420 16:55:52.474016 25592 net.cpp:382] cont_47_lstm1_cont_slice_46_split -> cont_47_lstm1_cont_slice_46_split_0
I0420 16:55:52.474020 25592 net.cpp:382] cont_47_lstm1_cont_slice_46_split -> cont_47_lstm1_cont_slice_46_split_1
I0420 16:55:52.474036 25592 net.cpp:124] Setting up cont_47_lstm1_cont_slice_46_split
I0420 16:55:52.474038 25592 net.cpp:131] Top shape: 1 512 (512)
I0420 16:55:52.474040 25592 net.cpp:131] Top shape: 1 512 (512)
I0420 16:55:52.474043 25592 net.cpp:139] Memory required for data: 15675392
I0420 16:55:52.474045 25592 layer_factory.hpp:77] Creating layer cont_48_lstm1_cont_slice_47_split
I0420 16:55:52.474047 25592 net.cpp:86] Creating Layer cont_48_lstm1_cont_slice_47_split
I0420 16:55:52.474050 25592 net.cpp:408] cont_48_lstm1_cont_slice_47_split <- cont_48
I0420 16:55:52.474052 25592 net.cpp:382] cont_48_lstm1_cont_slice_47_split -> cont_48_lstm1_cont_slice_47_split_0
I0420 16:55:52.474056 25592 net.cpp:382] cont_48_lstm1_cont_slice_47_split -> cont_48_lstm1_cont_slice_47_split_1
I0420 16:55:52.474072 25592 net.cpp:124] Setting up cont_48_lstm1_cont_slice_47_split
I0420 16:55:52.474074 25592 net.cpp:131] Top shape: 1 512 (512)
I0420 16:55:52.474076 25592 net.cpp:131] Top shape: 1 512 (512)
I0420 16:55:52.474078 25592 net.cpp:139] Memory required for data: 15679488
I0420 16:55:52.474081 25592 layer_factory.hpp:77] Creating layer cont_49_lstm1_cont_slice_48_split
I0420 16:55:52.474083 25592 net.cpp:86] Creating Layer cont_49_lstm1_cont_slice_48_split
I0420 16:55:52.474086 25592 net.cpp:408] cont_49_lstm1_cont_slice_48_split <- cont_49
I0420 16:55:52.474088 25592 net.cpp:382] cont_49_lstm1_cont_slice_48_split -> cont_49_lstm1_cont_slice_48_split_0
I0420 16:55:52.474092 25592 net.cpp:382] cont_49_lstm1_cont_slice_48_split -> cont_49_lstm1_cont_slice_48_split_1
I0420 16:55:52.474108 25592 net.cpp:124] Setting up cont_49_lstm1_cont_slice_48_split
I0420 16:55:52.474110 25592 net.cpp:131] Top shape: 1 512 (512)
I0420 16:55:52.474113 25592 net.cpp:131] Top shape: 1 512 (512)
I0420 16:55:52.474115 25592 net.cpp:139] Memory required for data: 15683584
I0420 16:55:52.474117 25592 layer_factory.hpp:77] Creating layer cont_50_lstm1_cont_slice_49_split
I0420 16:55:52.474119 25592 net.cpp:86] Creating Layer cont_50_lstm1_cont_slice_49_split
I0420 16:55:52.474122 25592 net.cpp:408] cont_50_lstm1_cont_slice_49_split <- cont_50
I0420 16:55:52.474130 25592 net.cpp:382] cont_50_lstm1_cont_slice_49_split -> cont_50_lstm1_cont_slice_49_split_0
I0420 16:55:52.474134 25592 net.cpp:382] cont_50_lstm1_cont_slice_49_split -> cont_50_lstm1_cont_slice_49_split_1
I0420 16:55:52.474151 25592 net.cpp:124] Setting up cont_50_lstm1_cont_slice_49_split
I0420 16:55:52.474154 25592 net.cpp:131] Top shape: 1 512 (512)
I0420 16:55:52.474156 25592 net.cpp:131] Top shape: 1 512 (512)
I0420 16:55:52.474159 25592 net.cpp:139] Memory required for data: 15687680
I0420 16:55:52.474160 25592 layer_factory.hpp:77] Creating layer cont_51_lstm1_cont_slice_50_split
I0420 16:55:52.474164 25592 net.cpp:86] Creating Layer cont_51_lstm1_cont_slice_50_split
I0420 16:55:52.474165 25592 net.cpp:408] cont_51_lstm1_cont_slice_50_split <- cont_51
I0420 16:55:52.474169 25592 net.cpp:382] cont_51_lstm1_cont_slice_50_split -> cont_51_lstm1_cont_slice_50_split_0
I0420 16:55:52.474172 25592 net.cpp:382] cont_51_lstm1_cont_slice_50_split -> cont_51_lstm1_cont_slice_50_split_1
I0420 16:55:52.474189 25592 net.cpp:124] Setting up cont_51_lstm1_cont_slice_50_split
I0420 16:55:52.474190 25592 net.cpp:131] Top shape: 1 512 (512)
I0420 16:55:52.474192 25592 net.cpp:131] Top shape: 1 512 (512)
I0420 16:55:52.474195 25592 net.cpp:139] Memory required for data: 15691776
I0420 16:55:52.474197 25592 layer_factory.hpp:77] Creating layer cont_52_lstm1_cont_slice_51_split
I0420 16:55:52.474200 25592 net.cpp:86] Creating Layer cont_52_lstm1_cont_slice_51_split
I0420 16:55:52.474201 25592 net.cpp:408] cont_52_lstm1_cont_slice_51_split <- cont_52
I0420 16:55:52.474205 25592 net.cpp:382] cont_52_lstm1_cont_slice_51_split -> cont_52_lstm1_cont_slice_51_split_0
I0420 16:55:52.474208 25592 net.cpp:382] cont_52_lstm1_cont_slice_51_split -> cont_52_lstm1_cont_slice_51_split_1
I0420 16:55:52.474225 25592 net.cpp:124] Setting up cont_52_lstm1_cont_slice_51_split
I0420 16:55:52.474226 25592 net.cpp:131] Top shape: 1 512 (512)
I0420 16:55:52.474229 25592 net.cpp:131] Top shape: 1 512 (512)
I0420 16:55:52.474231 25592 net.cpp:139] Memory required for data: 15695872
I0420 16:55:52.474233 25592 layer_factory.hpp:77] Creating layer cont_53_lstm1_cont_slice_52_split
I0420 16:55:52.474236 25592 net.cpp:86] Creating Layer cont_53_lstm1_cont_slice_52_split
I0420 16:55:52.474238 25592 net.cpp:408] cont_53_lstm1_cont_slice_52_split <- cont_53
I0420 16:55:52.474241 25592 net.cpp:382] cont_53_lstm1_cont_slice_52_split -> cont_53_lstm1_cont_slice_52_split_0
I0420 16:55:52.474244 25592 net.cpp:382] cont_53_lstm1_cont_slice_52_split -> cont_53_lstm1_cont_slice_52_split_1
I0420 16:55:52.474261 25592 net.cpp:124] Setting up cont_53_lstm1_cont_slice_52_split
I0420 16:55:52.474263 25592 net.cpp:131] Top shape: 1 512 (512)
I0420 16:55:52.474265 25592 net.cpp:131] Top shape: 1 512 (512)
I0420 16:55:52.474267 25592 net.cpp:139] Memory required for data: 15699968
I0420 16:55:52.474269 25592 layer_factory.hpp:77] Creating layer cont_54_lstm1_cont_slice_53_split
I0420 16:55:52.474272 25592 net.cpp:86] Creating Layer cont_54_lstm1_cont_slice_53_split
I0420 16:55:52.474274 25592 net.cpp:408] cont_54_lstm1_cont_slice_53_split <- cont_54
I0420 16:55:52.474277 25592 net.cpp:382] cont_54_lstm1_cont_slice_53_split -> cont_54_lstm1_cont_slice_53_split_0
I0420 16:55:52.474280 25592 net.cpp:382] cont_54_lstm1_cont_slice_53_split -> cont_54_lstm1_cont_slice_53_split_1
I0420 16:55:52.474298 25592 net.cpp:124] Setting up cont_54_lstm1_cont_slice_53_split
I0420 16:55:52.474299 25592 net.cpp:131] Top shape: 1 512 (512)
I0420 16:55:52.474301 25592 net.cpp:131] Top shape: 1 512 (512)
I0420 16:55:52.474303 25592 net.cpp:139] Memory required for data: 15704064
I0420 16:55:52.474305 25592 layer_factory.hpp:77] Creating layer cont_55_lstm1_cont_slice_54_split
I0420 16:55:52.474308 25592 net.cpp:86] Creating Layer cont_55_lstm1_cont_slice_54_split
I0420 16:55:52.474310 25592 net.cpp:408] cont_55_lstm1_cont_slice_54_split <- cont_55
I0420 16:55:52.474313 25592 net.cpp:382] cont_55_lstm1_cont_slice_54_split -> cont_55_lstm1_cont_slice_54_split_0
I0420 16:55:52.474321 25592 net.cpp:382] cont_55_lstm1_cont_slice_54_split -> cont_55_lstm1_cont_slice_54_split_1
I0420 16:55:52.474339 25592 net.cpp:124] Setting up cont_55_lstm1_cont_slice_54_split
I0420 16:55:52.474341 25592 net.cpp:131] Top shape: 1 512 (512)
I0420 16:55:52.474344 25592 net.cpp:131] Top shape: 1 512 (512)
I0420 16:55:52.474346 25592 net.cpp:139] Memory required for data: 15708160
I0420 16:55:52.474349 25592 layer_factory.hpp:77] Creating layer cont_56_lstm1_cont_slice_55_split
I0420 16:55:52.474351 25592 net.cpp:86] Creating Layer cont_56_lstm1_cont_slice_55_split
I0420 16:55:52.474354 25592 net.cpp:408] cont_56_lstm1_cont_slice_55_split <- cont_56
I0420 16:55:52.474356 25592 net.cpp:382] cont_56_lstm1_cont_slice_55_split -> cont_56_lstm1_cont_slice_55_split_0
I0420 16:55:52.474359 25592 net.cpp:382] cont_56_lstm1_cont_slice_55_split -> cont_56_lstm1_cont_slice_55_split_1
I0420 16:55:52.474376 25592 net.cpp:124] Setting up cont_56_lstm1_cont_slice_55_split
I0420 16:55:52.474378 25592 net.cpp:131] Top shape: 1 512 (512)
I0420 16:55:52.474380 25592 net.cpp:131] Top shape: 1 512 (512)
I0420 16:55:52.474382 25592 net.cpp:139] Memory required for data: 15712256
I0420 16:55:52.474385 25592 layer_factory.hpp:77] Creating layer cont_57_lstm1_cont_slice_56_split
I0420 16:55:52.474387 25592 net.cpp:86] Creating Layer cont_57_lstm1_cont_slice_56_split
I0420 16:55:52.474390 25592 net.cpp:408] cont_57_lstm1_cont_slice_56_split <- cont_57
I0420 16:55:52.474392 25592 net.cpp:382] cont_57_lstm1_cont_slice_56_split -> cont_57_lstm1_cont_slice_56_split_0
I0420 16:55:52.474395 25592 net.cpp:382] cont_57_lstm1_cont_slice_56_split -> cont_57_lstm1_cont_slice_56_split_1
I0420 16:55:52.474411 25592 net.cpp:124] Setting up cont_57_lstm1_cont_slice_56_split
I0420 16:55:52.474414 25592 net.cpp:131] Top shape: 1 512 (512)
I0420 16:55:52.474416 25592 net.cpp:131] Top shape: 1 512 (512)
I0420 16:55:52.474418 25592 net.cpp:139] Memory required for data: 15716352
I0420 16:55:52.474421 25592 layer_factory.hpp:77] Creating layer cont_58_lstm1_cont_slice_57_split
I0420 16:55:52.474423 25592 net.cpp:86] Creating Layer cont_58_lstm1_cont_slice_57_split
I0420 16:55:52.474426 25592 net.cpp:408] cont_58_lstm1_cont_slice_57_split <- cont_58
I0420 16:55:52.474428 25592 net.cpp:382] cont_58_lstm1_cont_slice_57_split -> cont_58_lstm1_cont_slice_57_split_0
I0420 16:55:52.474431 25592 net.cpp:382] cont_58_lstm1_cont_slice_57_split -> cont_58_lstm1_cont_slice_57_split_1
I0420 16:55:52.474448 25592 net.cpp:124] Setting up cont_58_lstm1_cont_slice_57_split
I0420 16:55:52.474450 25592 net.cpp:131] Top shape: 1 512 (512)
I0420 16:55:52.474452 25592 net.cpp:131] Top shape: 1 512 (512)
I0420 16:55:52.474455 25592 net.cpp:139] Memory required for data: 15720448
I0420 16:55:52.474457 25592 layer_factory.hpp:77] Creating layer cont_59_lstm1_cont_slice_58_split
I0420 16:55:52.474459 25592 net.cpp:86] Creating Layer cont_59_lstm1_cont_slice_58_split
I0420 16:55:52.474462 25592 net.cpp:408] cont_59_lstm1_cont_slice_58_split <- cont_59
I0420 16:55:52.474464 25592 net.cpp:382] cont_59_lstm1_cont_slice_58_split -> cont_59_lstm1_cont_slice_58_split_0
I0420 16:55:52.474467 25592 net.cpp:382] cont_59_lstm1_cont_slice_58_split -> cont_59_lstm1_cont_slice_58_split_1
I0420 16:55:52.474484 25592 net.cpp:124] Setting up cont_59_lstm1_cont_slice_58_split
I0420 16:55:52.474486 25592 net.cpp:131] Top shape: 1 512 (512)
I0420 16:55:52.474488 25592 net.cpp:131] Top shape: 1 512 (512)
I0420 16:55:52.474491 25592 net.cpp:139] Memory required for data: 15724544
I0420 16:55:52.474493 25592 layer_factory.hpp:77] Creating layer cont_60_lstm1_cont_slice_59_split
I0420 16:55:52.474495 25592 net.cpp:86] Creating Layer cont_60_lstm1_cont_slice_59_split
I0420 16:55:52.474498 25592 net.cpp:408] cont_60_lstm1_cont_slice_59_split <- cont_60
I0420 16:55:52.474500 25592 net.cpp:382] cont_60_lstm1_cont_slice_59_split -> cont_60_lstm1_cont_slice_59_split_0
I0420 16:55:52.474504 25592 net.cpp:382] cont_60_lstm1_cont_slice_59_split -> cont_60_lstm1_cont_slice_59_split_1
I0420 16:55:52.474526 25592 net.cpp:124] Setting up cont_60_lstm1_cont_slice_59_split
I0420 16:55:52.474529 25592 net.cpp:131] Top shape: 1 512 (512)
I0420 16:55:52.474531 25592 net.cpp:131] Top shape: 1 512 (512)
I0420 16:55:52.474534 25592 net.cpp:139] Memory required for data: 15728640
I0420 16:55:52.474535 25592 layer_factory.hpp:77] Creating layer cont_61_lstm1_cont_slice_60_split
I0420 16:55:52.474539 25592 net.cpp:86] Creating Layer cont_61_lstm1_cont_slice_60_split
I0420 16:55:52.474540 25592 net.cpp:408] cont_61_lstm1_cont_slice_60_split <- cont_61
I0420 16:55:52.488808 25592 net.cpp:382] cont_61_lstm1_cont_slice_60_split -> cont_61_lstm1_cont_slice_60_split_0
I0420 16:55:52.488831 25592 net.cpp:382] cont_61_lstm1_cont_slice_60_split -> cont_61_lstm1_cont_slice_60_split_1
I0420 16:55:52.488900 25592 net.cpp:124] Setting up cont_61_lstm1_cont_slice_60_split
I0420 16:55:52.488904 25592 net.cpp:131] Top shape: 1 512 (512)
I0420 16:55:52.488910 25592 net.cpp:131] Top shape: 1 512 (512)
I0420 16:55:52.488914 25592 net.cpp:139] Memory required for data: 15732736
I0420 16:55:52.488917 25592 layer_factory.hpp:77] Creating layer cont_62_lstm1_cont_slice_61_split
I0420 16:55:52.488925 25592 net.cpp:86] Creating Layer cont_62_lstm1_cont_slice_61_split
I0420 16:55:52.488929 25592 net.cpp:408] cont_62_lstm1_cont_slice_61_split <- cont_62
I0420 16:55:52.488935 25592 net.cpp:382] cont_62_lstm1_cont_slice_61_split -> cont_62_lstm1_cont_slice_61_split_0
I0420 16:55:52.488942 25592 net.cpp:382] cont_62_lstm1_cont_slice_61_split -> cont_62_lstm1_cont_slice_61_split_1
I0420 16:55:52.488970 25592 net.cpp:124] Setting up cont_62_lstm1_cont_slice_61_split
I0420 16:55:52.488973 25592 net.cpp:131] Top shape: 1 512 (512)
I0420 16:55:52.488977 25592 net.cpp:131] Top shape: 1 512 (512)
I0420 16:55:52.488981 25592 net.cpp:139] Memory required for data: 15736832
I0420 16:55:52.488983 25592 layer_factory.hpp:77] Creating layer cont_63_lstm1_cont_slice_62_split
I0420 16:55:52.488988 25592 net.cpp:86] Creating Layer cont_63_lstm1_cont_slice_62_split
I0420 16:55:52.488991 25592 net.cpp:408] cont_63_lstm1_cont_slice_62_split <- cont_63
I0420 16:55:52.488996 25592 net.cpp:382] cont_63_lstm1_cont_slice_62_split -> cont_63_lstm1_cont_slice_62_split_0
I0420 16:55:52.489001 25592 net.cpp:382] cont_63_lstm1_cont_slice_62_split -> cont_63_lstm1_cont_slice_62_split_1
I0420 16:55:52.489027 25592 net.cpp:124] Setting up cont_63_lstm1_cont_slice_62_split
I0420 16:55:52.489032 25592 net.cpp:131] Top shape: 1 512 (512)
I0420 16:55:52.489034 25592 net.cpp:131] Top shape: 1 512 (512)
I0420 16:55:52.489038 25592 net.cpp:139] Memory required for data: 15740928
I0420 16:55:52.489040 25592 layer_factory.hpp:77] Creating layer cont_64_lstm1_cont_slice_63_split
I0420 16:55:52.489045 25592 net.cpp:86] Creating Layer cont_64_lstm1_cont_slice_63_split
I0420 16:55:52.489048 25592 net.cpp:408] cont_64_lstm1_cont_slice_63_split <- cont_64
I0420 16:55:52.489053 25592 net.cpp:382] cont_64_lstm1_cont_slice_63_split -> cont_64_lstm1_cont_slice_63_split_0
I0420 16:55:52.489058 25592 net.cpp:382] cont_64_lstm1_cont_slice_63_split -> cont_64_lstm1_cont_slice_63_split_1
I0420 16:55:52.489084 25592 net.cpp:124] Setting up cont_64_lstm1_cont_slice_63_split
I0420 16:55:52.489087 25592 net.cpp:131] Top shape: 1 512 (512)
I0420 16:55:52.489091 25592 net.cpp:131] Top shape: 1 512 (512)
I0420 16:55:52.489094 25592 net.cpp:139] Memory required for data: 15745024
I0420 16:55:52.489097 25592 layer_factory.hpp:77] Creating layer cont_65_lstm1_cont_slice_64_split
I0420 16:55:52.489101 25592 net.cpp:86] Creating Layer cont_65_lstm1_cont_slice_64_split
I0420 16:55:52.489104 25592 net.cpp:408] cont_65_lstm1_cont_slice_64_split <- cont_65
I0420 16:55:52.489109 25592 net.cpp:382] cont_65_lstm1_cont_slice_64_split -> cont_65_lstm1_cont_slice_64_split_0
I0420 16:55:52.489114 25592 net.cpp:382] cont_65_lstm1_cont_slice_64_split -> cont_65_lstm1_cont_slice_64_split_1
I0420 16:55:52.489140 25592 net.cpp:124] Setting up cont_65_lstm1_cont_slice_64_split
I0420 16:55:52.489143 25592 net.cpp:131] Top shape: 1 512 (512)
I0420 16:55:52.489166 25592 net.cpp:131] Top shape: 1 512 (512)
I0420 16:55:52.489169 25592 net.cpp:139] Memory required for data: 15749120
I0420 16:55:52.489172 25592 layer_factory.hpp:77] Creating layer cont_66_lstm1_cont_slice_65_split
I0420 16:55:52.489176 25592 net.cpp:86] Creating Layer cont_66_lstm1_cont_slice_65_split
I0420 16:55:52.489179 25592 net.cpp:408] cont_66_lstm1_cont_slice_65_split <- cont_66
I0420 16:55:52.489184 25592 net.cpp:382] cont_66_lstm1_cont_slice_65_split -> cont_66_lstm1_cont_slice_65_split_0
I0420 16:55:52.489190 25592 net.cpp:382] cont_66_lstm1_cont_slice_65_split -> cont_66_lstm1_cont_slice_65_split_1
I0420 16:55:52.489217 25592 net.cpp:124] Setting up cont_66_lstm1_cont_slice_65_split
I0420 16:55:52.489220 25592 net.cpp:131] Top shape: 1 512 (512)
I0420 16:55:52.489223 25592 net.cpp:131] Top shape: 1 512 (512)
I0420 16:55:52.489228 25592 net.cpp:139] Memory required for data: 15753216
I0420 16:55:52.489229 25592 layer_factory.hpp:77] Creating layer cont_67_lstm1_cont_slice_66_split
I0420 16:55:52.489234 25592 net.cpp:86] Creating Layer cont_67_lstm1_cont_slice_66_split
I0420 16:55:52.489238 25592 net.cpp:408] cont_67_lstm1_cont_slice_66_split <- cont_67
I0420 16:55:52.489241 25592 net.cpp:382] cont_67_lstm1_cont_slice_66_split -> cont_67_lstm1_cont_slice_66_split_0
I0420 16:55:52.489248 25592 net.cpp:382] cont_67_lstm1_cont_slice_66_split -> cont_67_lstm1_cont_slice_66_split_1
I0420 16:55:52.489272 25592 net.cpp:124] Setting up cont_67_lstm1_cont_slice_66_split
I0420 16:55:52.489276 25592 net.cpp:131] Top shape: 1 512 (512)
I0420 16:55:52.489279 25592 net.cpp:131] Top shape: 1 512 (512)
I0420 16:55:52.489282 25592 net.cpp:139] Memory required for data: 15757312
I0420 16:55:52.489286 25592 layer_factory.hpp:77] Creating layer cont_68_lstm1_cont_slice_67_split
I0420 16:55:52.489289 25592 net.cpp:86] Creating Layer cont_68_lstm1_cont_slice_67_split
I0420 16:55:52.489293 25592 net.cpp:408] cont_68_lstm1_cont_slice_67_split <- cont_68
I0420 16:55:52.489297 25592 net.cpp:382] cont_68_lstm1_cont_slice_67_split -> cont_68_lstm1_cont_slice_67_split_0
I0420 16:55:52.489302 25592 net.cpp:382] cont_68_lstm1_cont_slice_67_split -> cont_68_lstm1_cont_slice_67_split_1
I0420 16:55:52.489327 25592 net.cpp:124] Setting up cont_68_lstm1_cont_slice_67_split
I0420 16:55:52.489331 25592 net.cpp:131] Top shape: 1 512 (512)
I0420 16:55:52.489334 25592 net.cpp:131] Top shape: 1 512 (512)
I0420 16:55:52.489337 25592 net.cpp:139] Memory required for data: 15761408
I0420 16:55:52.489341 25592 layer_factory.hpp:77] Creating layer cont_69_lstm1_cont_slice_68_split
I0420 16:55:52.489344 25592 net.cpp:86] Creating Layer cont_69_lstm1_cont_slice_68_split
I0420 16:55:52.489347 25592 net.cpp:408] cont_69_lstm1_cont_slice_68_split <- cont_69
I0420 16:55:52.489351 25592 net.cpp:382] cont_69_lstm1_cont_slice_68_split -> cont_69_lstm1_cont_slice_68_split_0
I0420 16:55:52.489357 25592 net.cpp:382] cont_69_lstm1_cont_slice_68_split -> cont_69_lstm1_cont_slice_68_split_1
I0420 16:55:52.489382 25592 net.cpp:124] Setting up cont_69_lstm1_cont_slice_68_split
I0420 16:55:52.489385 25592 net.cpp:131] Top shape: 1 512 (512)
I0420 16:55:52.489389 25592 net.cpp:131] Top shape: 1 512 (512)
I0420 16:55:52.489392 25592 net.cpp:139] Memory required for data: 15765504
I0420 16:55:52.489395 25592 layer_factory.hpp:77] Creating layer cont_70_lstm1_cont_slice_69_split
I0420 16:55:52.489399 25592 net.cpp:86] Creating Layer cont_70_lstm1_cont_slice_69_split
I0420 16:55:52.489403 25592 net.cpp:408] cont_70_lstm1_cont_slice_69_split <- cont_70
I0420 16:55:52.489408 25592 net.cpp:382] cont_70_lstm1_cont_slice_69_split -> cont_70_lstm1_cont_slice_69_split_0
I0420 16:55:52.489413 25592 net.cpp:382] cont_70_lstm1_cont_slice_69_split -> cont_70_lstm1_cont_slice_69_split_1
I0420 16:55:52.489437 25592 net.cpp:124] Setting up cont_70_lstm1_cont_slice_69_split
I0420 16:55:52.489440 25592 net.cpp:131] Top shape: 1 512 (512)
I0420 16:55:52.489444 25592 net.cpp:131] Top shape: 1 512 (512)
I0420 16:55:52.489447 25592 net.cpp:139] Memory required for data: 15769600
I0420 16:55:52.489457 25592 layer_factory.hpp:77] Creating layer cont_71_lstm1_cont_slice_70_split
I0420 16:55:52.489462 25592 net.cpp:86] Creating Layer cont_71_lstm1_cont_slice_70_split
I0420 16:55:52.489465 25592 net.cpp:408] cont_71_lstm1_cont_slice_70_split <- cont_71
I0420 16:55:52.489470 25592 net.cpp:382] cont_71_lstm1_cont_slice_70_split -> cont_71_lstm1_cont_slice_70_split_0
I0420 16:55:52.489475 25592 net.cpp:382] cont_71_lstm1_cont_slice_70_split -> cont_71_lstm1_cont_slice_70_split_1
I0420 16:55:52.492509 25592 net.cpp:124] Setting up cont_71_lstm1_cont_slice_70_split
I0420 16:55:52.492513 25592 net.cpp:131] Top shape: 1 512 (512)
I0420 16:55:52.492517 25592 net.cpp:131] Top shape: 1 512 (512)
I0420 16:55:52.492521 25592 net.cpp:139] Memory required for data: 15773696
I0420 16:55:52.492523 25592 layer_factory.hpp:77] Creating layer cont_72_lstm1_cont_slice_71_split
I0420 16:55:52.492527 25592 net.cpp:86] Creating Layer cont_72_lstm1_cont_slice_71_split
I0420 16:55:52.492532 25592 net.cpp:408] cont_72_lstm1_cont_slice_71_split <- cont_72
I0420 16:55:52.492535 25592 net.cpp:382] cont_72_lstm1_cont_slice_71_split -> cont_72_lstm1_cont_slice_71_split_0
I0420 16:55:52.492542 25592 net.cpp:382] cont_72_lstm1_cont_slice_71_split -> cont_72_lstm1_cont_slice_71_split_1
I0420 16:55:52.492566 25592 net.cpp:124] Setting up cont_72_lstm1_cont_slice_71_split
I0420 16:55:52.492569 25592 net.cpp:131] Top shape: 1 512 (512)
I0420 16:55:52.492573 25592 net.cpp:131] Top shape: 1 512 (512)
I0420 16:55:52.492576 25592 net.cpp:139] Memory required for data: 15777792
I0420 16:55:52.492579 25592 layer_factory.hpp:77] Creating layer cont_73_lstm1_cont_slice_72_split
I0420 16:55:52.492583 25592 net.cpp:86] Creating Layer cont_73_lstm1_cont_slice_72_split
I0420 16:55:52.492586 25592 net.cpp:408] cont_73_lstm1_cont_slice_72_split <- cont_73
I0420 16:55:52.492590 25592 net.cpp:382] cont_73_lstm1_cont_slice_72_split -> cont_73_lstm1_cont_slice_72_split_0
I0420 16:55:52.492596 25592 net.cpp:382] cont_73_lstm1_cont_slice_72_split -> cont_73_lstm1_cont_slice_72_split_1
I0420 16:55:52.492621 25592 net.cpp:124] Setting up cont_73_lstm1_cont_slice_72_split
I0420 16:55:52.492624 25592 net.cpp:131] Top shape: 1 512 (512)
I0420 16:55:52.492628 25592 net.cpp:131] Top shape: 1 512 (512)
I0420 16:55:52.492631 25592 net.cpp:139] Memory required for data: 15781888
I0420 16:55:52.492635 25592 layer_factory.hpp:77] Creating layer cont_74_lstm1_cont_slice_73_split
I0420 16:55:52.492638 25592 net.cpp:86] Creating Layer cont_74_lstm1_cont_slice_73_split
I0420 16:55:52.492642 25592 net.cpp:408] cont_74_lstm1_cont_slice_73_split <- cont_74
I0420 16:55:52.492646 25592 net.cpp:382] cont_74_lstm1_cont_slice_73_split -> cont_74_lstm1_cont_slice_73_split_0
I0420 16:55:52.492651 25592 net.cpp:382] cont_74_lstm1_cont_slice_73_split -> cont_74_lstm1_cont_slice_73_split_1
I0420 16:55:52.492676 25592 net.cpp:124] Setting up cont_74_lstm1_cont_slice_73_split
I0420 16:55:52.492679 25592 net.cpp:131] Top shape: 1 512 (512)
I0420 16:55:52.492683 25592 net.cpp:131] Top shape: 1 512 (512)
I0420 16:55:52.492686 25592 net.cpp:139] Memory required for data: 15785984
I0420 16:55:52.492689 25592 layer_factory.hpp:77] Creating layer cont_75_lstm1_cont_slice_74_split
I0420 16:55:52.492694 25592 net.cpp:86] Creating Layer cont_75_lstm1_cont_slice_74_split
I0420 16:55:52.492697 25592 net.cpp:408] cont_75_lstm1_cont_slice_74_split <- cont_75
I0420 16:55:52.492702 25592 net.cpp:382] cont_75_lstm1_cont_slice_74_split -> cont_75_lstm1_cont_slice_74_split_0
I0420 16:55:52.492707 25592 net.cpp:382] cont_75_lstm1_cont_slice_74_split -> cont_75_lstm1_cont_slice_74_split_1
I0420 16:55:52.492732 25592 net.cpp:124] Setting up cont_75_lstm1_cont_slice_74_split
I0420 16:55:52.492734 25592 net.cpp:131] Top shape: 1 512 (512)
I0420 16:55:52.492738 25592 net.cpp:131] Top shape: 1 512 (512)
I0420 16:55:52.492741 25592 net.cpp:139] Memory required for data: 15790080
I0420 16:55:52.492744 25592 layer_factory.hpp:77] Creating layer cont_76_lstm1_cont_slice_75_split
I0420 16:55:52.492758 25592 net.cpp:86] Creating Layer cont_76_lstm1_cont_slice_75_split
I0420 16:55:52.492761 25592 net.cpp:408] cont_76_lstm1_cont_slice_75_split <- cont_76
I0420 16:55:52.492765 25592 net.cpp:382] cont_76_lstm1_cont_slice_75_split -> cont_76_lstm1_cont_slice_75_split_0
I0420 16:55:52.492771 25592 net.cpp:382] cont_76_lstm1_cont_slice_75_split -> cont_76_lstm1_cont_slice_75_split_1
I0420 16:55:52.492797 25592 net.cpp:124] Setting up cont_76_lstm1_cont_slice_75_split
I0420 16:55:52.492801 25592 net.cpp:131] Top shape: 1 512 (512)
I0420 16:55:52.492805 25592 net.cpp:131] Top shape: 1 512 (512)
I0420 16:55:52.492808 25592 net.cpp:139] Memory required for data: 15794176
I0420 16:55:52.492810 25592 layer_factory.hpp:77] Creating layer cont_77_lstm1_cont_slice_76_split
I0420 16:55:52.492815 25592 net.cpp:86] Creating Layer cont_77_lstm1_cont_slice_76_split
I0420 16:55:52.492818 25592 net.cpp:408] cont_77_lstm1_cont_slice_76_split <- cont_77
I0420 16:55:52.492822 25592 net.cpp:382] cont_77_lstm1_cont_slice_76_split -> cont_77_lstm1_cont_slice_76_split_0
I0420 16:55:52.492827 25592 net.cpp:382] cont_77_lstm1_cont_slice_76_split -> cont_77_lstm1_cont_slice_76_split_1
I0420 16:55:52.492853 25592 net.cpp:124] Setting up cont_77_lstm1_cont_slice_76_split
I0420 16:55:52.492856 25592 net.cpp:131] Top shape: 1 512 (512)
I0420 16:55:52.492861 25592 net.cpp:131] Top shape: 1 512 (512)
I0420 16:55:52.492863 25592 net.cpp:139] Memory required for data: 15798272
I0420 16:55:52.492866 25592 layer_factory.hpp:77] Creating layer cont_78_lstm1_cont_slice_77_split
I0420 16:55:52.492871 25592 net.cpp:86] Creating Layer cont_78_lstm1_cont_slice_77_split
I0420 16:55:52.492873 25592 net.cpp:408] cont_78_lstm1_cont_slice_77_split <- cont_78
I0420 16:55:52.492878 25592 net.cpp:382] cont_78_lstm1_cont_slice_77_split -> cont_78_lstm1_cont_slice_77_split_0
I0420 16:55:52.492883 25592 net.cpp:382] cont_78_lstm1_cont_slice_77_split -> cont_78_lstm1_cont_slice_77_split_1
I0420 16:55:52.492908 25592 net.cpp:124] Setting up cont_78_lstm1_cont_slice_77_split
I0420 16:55:52.492911 25592 net.cpp:131] Top shape: 1 512 (512)
I0420 16:55:52.492915 25592 net.cpp:131] Top shape: 1 512 (512)
I0420 16:55:52.492918 25592 net.cpp:139] Memory required for data: 15802368
I0420 16:55:52.492921 25592 layer_factory.hpp:77] Creating layer cont_79_lstm1_cont_slice_78_split
I0420 16:55:52.492925 25592 net.cpp:86] Creating Layer cont_79_lstm1_cont_slice_78_split
I0420 16:55:52.492928 25592 net.cpp:408] cont_79_lstm1_cont_slice_78_split <- cont_79
I0420 16:55:52.492933 25592 net.cpp:382] cont_79_lstm1_cont_slice_78_split -> cont_79_lstm1_cont_slice_78_split_0
I0420 16:55:52.492938 25592 net.cpp:382] cont_79_lstm1_cont_slice_78_split -> cont_79_lstm1_cont_slice_78_split_1
I0420 16:55:52.492964 25592 net.cpp:124] Setting up cont_79_lstm1_cont_slice_78_split
I0420 16:55:52.492966 25592 net.cpp:131] Top shape: 1 512 (512)
I0420 16:55:52.492969 25592 net.cpp:131] Top shape: 1 512 (512)
I0420 16:55:52.492974 25592 net.cpp:139] Memory required for data: 15806464
I0420 16:55:52.492975 25592 layer_factory.hpp:77] Creating layer cont_80_lstm1_cont_slice_79_split
I0420 16:55:52.492980 25592 net.cpp:86] Creating Layer cont_80_lstm1_cont_slice_79_split
I0420 16:55:52.492983 25592 net.cpp:408] cont_80_lstm1_cont_slice_79_split <- cont_80
I0420 16:55:52.492987 25592 net.cpp:382] cont_80_lstm1_cont_slice_79_split -> cont_80_lstm1_cont_slice_79_split_0
I0420 16:55:52.492993 25592 net.cpp:382] cont_80_lstm1_cont_slice_79_split -> cont_80_lstm1_cont_slice_79_split_1
I0420 16:55:52.493018 25592 net.cpp:124] Setting up cont_80_lstm1_cont_slice_79_split
I0420 16:55:52.493021 25592 net.cpp:131] Top shape: 1 512 (512)
I0420 16:55:52.493026 25592 net.cpp:131] Top shape: 1 512 (512)
I0420 16:55:52.493028 25592 net.cpp:139] Memory required for data: 15810560
I0420 16:55:52.493031 25592 layer_factory.hpp:77] Creating layer lstm1_x_transform
I0420 16:55:52.493041 25592 net.cpp:86] Creating Layer lstm1_x_transform
I0420 16:55:52.493043 25592 net.cpp:408] lstm1_x_transform <- x
I0420 16:55:52.493057 25592 net.cpp:382] lstm1_x_transform -> W_xc_x
I0420 16:55:52.495328 25592 net.cpp:124] Setting up lstm1_x_transform
I0420 16:55:52.495342 25592 net.cpp:131] Top shape: 80 512 400 (16384000)
I0420 16:55:52.495347 25592 net.cpp:139] Memory required for data: 81346560
I0420 16:55:52.495362 25592 layer_factory.hpp:77] Creating layer lstm1_W_xc_x_slice
I0420 16:55:52.495374 25592 net.cpp:86] Creating Layer lstm1_W_xc_x_slice
I0420 16:55:52.500316 25592 net.cpp:408] lstm1_W_xc_x_slice <- W_xc_x
I0420 16:55:52.500326 25592 net.cpp:382] lstm1_W_xc_x_slice -> W_xc_x_1
I0420 16:55:52.500337 25592 net.cpp:382] lstm1_W_xc_x_slice -> W_xc_x_2
…
I0420 16:55:52.500937 25592 net.cpp:382] lstm1_W_xc_x_slice -> W_xc_x_74
I0420 16:55:52.500944 25592 net.cpp:382] lstm1_W_xc_x_slice -> W_xc_x_75
I0420 16:55:52.500952 25592 net.cpp:382] lstm1_W_xc_x_slice -> W_xc_x_76
I0420 16:55:52.500959 25592 net.cpp:382] lstm1_W_xc_x_slice -> W_xc_x_77
I0420 16:55:52.500967 25592 net.cpp:382] lstm1_W_xc_x_slice -> W_xc_x_78
I0420 16:55:52.500975 25592 net.cpp:382] lstm1_W_xc_x_slice -> W_xc_x_79
I0420 16:55:52.500983 25592 net.cpp:382] lstm1_W_xc_x_slice -> W_xc_x_80
I0420 16:55:52.501758 25592 net.cpp:124] Setting up lstm1_W_xc_x_slice
I0420 16:55:52.501765 25592 net.cpp:131] Top shape: 1 512 400 (204800)
I0420 16:55:52.501771 25592 net.cpp:131] Top shape: 1 512 400 (204800)
I0420 16:55:52.501776 25592 net.cpp:131] Top shape: 1 512 400 (204800)
I0420 16:55:52.501780 25592 net.cpp:131] Top shape: 1 512 400 (204800)
I0420 16:55:52.501783 25592 net.cpp:131] Top shape: 1 512 400 (204800)
I0420 16:55:52.501787 25592 net.cpp:131] Top shape: 1 512 400 (204800)
I0420 16:55:52.501791 25592 net.cpp:131] Top shape: 1 512 400 (204800)
I0420 16:55:52.501794 25592 net.cpp:131] Top shape: 1 512 400 (204800)
I0420 16:55:52.501798 25592 net.cpp:131] Top shape: 1 512 400 (204800)
I0420 16:55:52.501801 25592 net.cpp:131] Top shape: 1 512 400 (204800)
I0420 16:55:52.501806 25592 net.cpp:131] Top shape: 1 512 400 (204800)
I0420 16:55:52.501809 25592 net.cpp:131] Top shape: 1 512 400 (204800)
I0420 16:55:52.501813 25592 net.cpp:131] Top shape: 1 512 400 (204800)
I0420 16:55:52.501817 25592 net.cpp:131] Top shape: 1 512 400 (204800)
I0420 16:55:52.501821 25592 net.cpp:131] Top shape: 1 512 400 (204800)
I0420 16:55:52.501824 25592 net.cpp:131] Top shape: 1 512 400 (204800)
I0420 16:55:52.501828 25592 net.cpp:131] Top shape: 1 512 400 (204800)
I0420 16:55:52.501832 25592 net.cpp:131] Top shape: 1 512 400 (204800)
I0420 16:55:52.501835 25592 net.cpp:131] Top shape: 1 512 400 (204800)
I0420 16:55:52.501839 25592 net.cpp:131] Top shape: 1 512 400 (204800)
I0420 16:55:52.501842 25592 net.cpp:131] Top shape: 1 512 400 (204800)
I0420 16:55:52.501847 25592 net.cpp:131] Top shape: 1 512 400 (204800)
I0420 16:55:52.501850 25592 net.cpp:131] Top shape: 1 512 400 (204800)
I0420 16:55:52.501853 25592 net.cpp:131] Top shape: 1 512 400 (204800)
I0420 16:55:52.501857 25592 net.cpp:131] Top shape: 1 512 400 (204800)
I0420 16:55:52.501871 25592 net.cpp:131] Top shape: 1 512 400 (204800)
I0420 16:55:52.501875 25592 net.cpp:131] Top shape: 1 512 400 (204800)
I0420 16:55:52.501879 25592 net.cpp:131] Top shape: 1 512 400 (204800)
I0420 16:55:52.501883 25592 net.cpp:131] Top shape: 1 512 400 (204800)
I0420 16:55:52.501886 25592 net.cpp:131] Top shape: 1 512 400 (204800)
I0420 16:55:52.507977 25592 net.cpp:131] Top shape: 1 512 400 (204800)
I0420 16:55:52.507983 25592 net.cpp:131] Top shape: 1 512 400 (204800)
I0420 16:55:52.507988 25592 net.cpp:131] Top shape: 1 512 400 (204800)
I0420 16:55:52.507993 25592 net.cpp:131] Top shape: 1 512 400 (204800)
I0420 16:55:52.507998 25592 net.cpp:131] Top shape: 1 512 400 (204800)
I0420 16:55:52.508003 25592 net.cpp:131] Top shape: 1 512 400 (204800)
I0420 16:55:52.508008 25592 net.cpp:131] Top shape: 1 512 400 (204800)
I0420 16:55:52.508013 25592 net.cpp:131] Top shape: 1 512 400 (204800)
I0420 16:55:52.508018 25592 net.cpp:131] Top shape: 1 512 400 (204800)
I0420 16:55:52.508023 25592 net.cpp:131] Top shape: 1 512 400 (204800)
I0420 16:55:52.508028 25592 net.cpp:131] Top shape: 1 512 400 (204800)
I0420 16:55:52.508033 25592 net.cpp:131] Top shape: 1 512 400 (204800)
I0420 16:55:52.508038 25592 net.cpp:131] Top shape: 1 512 400 (204800)
I0420 16:55:52.508042 25592 net.cpp:131] Top shape: 1 512 400 (204800)
I0420 16:55:52.508047 25592 net.cpp:131] Top shape: 1 512 400 (204800)
I0420 16:55:52.508052 25592 net.cpp:131] Top shape: 1 512 400 (204800)
I0420 16:55:52.508057 25592 net.cpp:131] Top shape: 1 512 400 (204800)
I0420 16:55:52.508062 25592 net.cpp:131] Top shape: 1 512 400 (204800)
I0420 16:55:52.508066 25592 net.cpp:131] Top shape: 1 512 400 (204800)
I0420 16:55:52.508071 25592 net.cpp:131] Top shape: 1 512 400 (204800)
I0420 16:55:52.508076 25592 net.cpp:131] Top shape: 1 512 400 (204800)
I0420 16:55:52.508081 25592 net.cpp:131] Top shape: 1 512 400 (204800)
I0420 16:55:52.508086 25592 net.cpp:131] Top shape: 1 512 400 (204800)
I0420 16:55:52.508091 25592 net.cpp:131] Top shape: 1 512 400 (204800)
I0420 16:55:52.508096 25592 net.cpp:131] Top shape: 1 512 400 (204800)
I0420 16:55:52.508101 25592 net.cpp:131] Top shape: 1 512 400 (204800)
I0420 16:55:52.508106 25592 net.cpp:131] Top shape: 1 512 400 (204800)
I0420 16:55:52.508111 25592 net.cpp:131] Top shape: 1 512 400 (204800)
I0420 16:55:52.508116 25592 net.cpp:131] Top shape: 1 512 400 (204800)
I0420 16:55:52.508121 25592 net.cpp:131] Top shape: 1 512 400 (204800)
I0420 16:55:52.508126 25592 net.cpp:131] Top shape: 1 512 400 (204800)
I0420 16:55:52.508131 25592 net.cpp:131] Top shape: 1 512 400 (204800)
I0420 16:55:52.508136 25592 net.cpp:131] Top shape: 1 512 400 (204800)
I0420 16:55:52.508141 25592 net.cpp:131] Top shape: 1 512 400 (204800)
I0420 16:55:52.508146 25592 net.cpp:131] Top shape: 1 512 400 (204800)
I0420 16:55:52.508150 25592 net.cpp:131] Top shape: 1 512 400 (204800)
I0420 16:55:52.508155 25592 net.cpp:131] Top shape: 1 512 400 (204800)
I0420 16:55:52.508160 25592 net.cpp:131] Top shape: 1 512 400 (204800)
I0420 16:55:52.508165 25592 net.cpp:131] Top shape: 1 512 400 (204800)
I0420 16:55:52.508170 25592 net.cpp:131] Top shape: 1 512 400 (204800)
I0420 16:55:52.508174 25592 net.cpp:131] Top shape: 1 512 400 (204800)
I0420 16:55:52.508179 25592 net.cpp:131] Top shape: 1 512 400 (204800)
I0420 16:55:52.508184 25592 net.cpp:131] Top shape: 1 512 400 (204800)
I0420 16:55:52.508189 25592 net.cpp:131] Top shape: 1 512 400 (204800)
I0420 16:55:52.508194 25592 net.cpp:131] Top shape: 1 512 400 (204800)
I0420 16:55:52.508199 25592 net.cpp:131] Top shape: 1 512 400 (204800)
I0420 16:55:52.508204 25592 net.cpp:131] Top shape: 1 512 400 (204800)
I0420 16:55:52.508209 25592 net.cpp:131] Top shape: 1 512 400 (204800)
I0420 16:55:52.508214 25592 net.cpp:131] Top shape: 1 512 400 (204800)
I0420 16:55:52.508219 25592 net.cpp:131] Top shape: 1 512 400 (204800)
I0420 16:55:52.508224 25592 net.cpp:139] Memory required for data: 146882560
I0420 16:55:52.508229 25592 layer_factory.hpp:77] Creating layer lstm1_h_conted_0
I0420 16:55:52.508237 25592 net.cpp:86] Creating Layer lstm1_h_conted_0
I0420 16:55:52.508255 25592 net.cpp:408] lstm1_h_conted_0 <- h_0
I0420 16:55:52.508262 25592 net.cpp:408] lstm1_h_conted_0 <- cont_1_lstm1_cont_slice_0_split_0
I0420 16:55:52.508270 25592 net.cpp:382] lstm1_h_conted_0 -> h_conted_0
I0420 16:55:52.508345 25592 net.cpp:124] Setting up lstm1_h_conted_0
I0420 16:55:52.508352 25592 net.cpp:131] Top shape: 1 512 100 (51200)
I0420 16:55:52.508358 25592 net.cpp:139] Memory required for data: 147087360
I0420 16:55:52.508361 25592 layer_factory.hpp:77] Creating layer lstm1_transform_1
I0420 16:55:52.508370 25592 net.cpp:86] Creating Layer lstm1_transform_1
I0420 16:55:52.508375 25592 net.cpp:408] lstm1_transform_1 <- h_conted_0
I0420 16:55:52.508381 25592 net.cpp:382] lstm1_transform_1 -> W_hc_h_0
I0420 16:55:52.508719 25592 net.cpp:124] Setting up lstm1_transform_1
I0420 16:55:52.508724 25592 net.cpp:131] Top shape: 1 512 400 (204800)
I0420 16:55:52.508729 25592 net.cpp:139] Memory required for data: 147906560
I0420 16:55:52.508736 25592 layer_factory.hpp:77] Creating layer lstm1_gate_input_1
I0420 16:55:52.508749 25592 net.cpp:86] Creating Layer lstm1_gate_input_1
I0420 16:55:52.508754 25592 net.cpp:408] lstm1_gate_input_1 <- W_hc_h_0
I0420 16:55:52.508759 25592 net.cpp:408] lstm1_gate_input_1 <- W_xc_x_1
I0420 16:55:52.508765 25592 net.cpp:382] lstm1_gate_input_1 -> gate_input_1
I0420 16:55:52.508790 25592 net.cpp:124] Setting up lstm1_gate_input_1
I0420 16:55:52.508793 25592 net.cpp:131] Top shape: 1 512 400 (204800)
I0420 16:55:52.508798 25592 net.cpp:139] Memory required for data: 148725760
I0420 16:55:52.508802 25592 layer_factory.hpp:77] Creating layer lstm1_unit_1
I0420 16:55:52.508810 25592 net.cpp:86] Creating Layer lstm1_unit_1
I0420 16:55:52.508814 25592 net.cpp:408] lstm1_unit_1 <- c_0
I0420 16:55:52.508819 25592 net.cpp:408] lstm1_unit_1 <- gate_input_1
I0420 16:55:52.508826 25592 net.cpp:408] lstm1_unit_1 <- cont_1_lstm1_cont_slice_0_split_1
I0420 16:55:52.508832 25592 net.cpp:382] lstm1_unit_1 -> c_1
I0420 16:55:52.508841 25592 net.cpp:382] lstm1_unit_1 -> h_1
I0420 16:55:52.508888 25592 net.cpp:124] Setting up lstm1_unit_1
I0420 16:55:52.508893 25592 net.cpp:131] Top shape: 1 512 100 (51200)
I0420 16:55:52.508898 25592 net.cpp:131] Top shape: 1 512 100 (51200)
I0420 16:55:52.508903 25592 net.cpp:139] Memory required for data: 149135360
I0420 16:55:52.508906 25592 layer_factory.hpp:77] Creating layer h_1_lstm1_unit_1_1_split
I0420 16:55:52.508913 25592 net.cpp:86] Creating Layer h_1_lstm1_unit_1_1_split
I0420 16:55:52.508916 25592 net.cpp:408] h_1_lstm1_unit_1_1_split <- h_1
I0420 16:55:52.508922 25592 net.cpp:382] h_1_lstm1_unit_1_1_split -> h_1_lstm1_unit_1_1_split_0
I0420 16:55:52.508931 25592 net.cpp:382] h_1_lstm1_unit_1_1_split -> h_1_lstm1_unit_1_1_split_1
I0420 16:55:52.508965 25592 net.cpp:124] Setting up h_1_lstm1_unit_1_1_split
I0420 16:55:52.508970 25592 net.cpp:131] Top shape: 1 512 100 (51200)
I0420 16:55:52.508975 25592 net.cpp:131] Top shape: 1 512 100 (51200)
I0420 16:55:52.508980 25592 net.cpp:139] Memory required for data: 149544960
I0420 16:55:52.508982 25592 layer_factory.hpp:77] Creating layer lstm1_h_conted_1
I0420 16:55:52.508989 25592 net.cpp:86] Creating Layer lstm1_h_conted_1
I0420 16:55:52.508994 25592 net.cpp:408] lstm1_h_conted_1 <- h_1_lstm1_unit_1_1_split_0
I0420 16:55:52.509001 25592 net.cpp:408] lstm1_h_conted_1 <- cont_2_lstm1_cont_slice_1_split_0
I0420 16:55:52.509009 25592 net.cpp:382] lstm1_h_conted_1 -> h_conted_1
I0420 16:55:52.509071 25592 net.cpp:124] Setting up lstm1_h_conted_1
I0420 16:55:52.509076 25592 net.cpp:131] Top shape: 1 512 100 (51200)
I0420 16:55:52.509081 25592 net.cpp:139] Memory required for data: 149749760
I0420 16:55:52.509085 25592 layer_factory.hpp:77] Creating layer lstm1_transform_2
I0420 16:55:52.509093 25592 net.cpp:86] Creating Layer lstm1_transform_2
I0420 16:55:52.509097 25592 net.cpp:408] lstm1_transform_2 <- h_conted_1
I0420 16:55:52.509104 25592 net.cpp:382] lstm1_transform_2 -> W_hc_h_1
I0420 16:55:52.509435 25592 net.cpp:124] Setting up lstm1_transform_2
I0420 16:55:52.509452 25592 net.cpp:131] Top shape: 1 512 400 (204800)
I0420 16:55:52.509457 25592 net.cpp:139] Memory required for data: 150568960
I0420 16:55:52.509464 25592 net.cpp:467] Sharing parameters 'W_hc' owned by layer 'lstm1_transform_1', param index 0
I0420 16:55:52.509469 25592 layer_factory.hpp:77] Creating layer lstm1_gate_input_2
I0420 16:55:52.511968 25592 net.cpp:86] Creating Layer lstm1_gate_input_2
I0420 16:55:52.511973 25592 net.cpp:408] lstm1_gate_input_2 <- W_hc_h_1
I0420 16:55:52.511979 25592 net.cpp:408] lstm1_gate_input_2 <- W_xc_x_2
I0420 16:55:52.511986 25592 net.cpp:382] lstm1_gate_input_2 -> gate_input_2
I0420 16:55:52.512012 25592 net.cpp:124] Setting up lstm1_gate_input_2
I0420 16:55:52.512017 25592 net.cpp:131] Top shape: 1 512 400 (204800)
I0420 16:55:52.512022 25592 net.cpp:139] Memory required for data: 151388160
I0420 16:55:52.512027 25592 layer_factory.hpp:77] Creating layer lstm1_unit_2
I0420 16:55:52.512032 25592 net.cpp:86] Creating Layer lstm1_unit_2
I0420 16:55:52.512037 25592 net.cpp:408] lstm1_unit_2 <- c_1
I0420 16:55:52.512042 25592 net.cpp:408] lstm1_unit_2 <- gate_input_2
I0420 16:55:52.512048 25592 net.cpp:408] lstm1_unit_2 <- cont_2_lstm1_cont_slice_1_split_1
I0420 16:55:52.512055 25592 net.cpp:382] lstm1_unit_2 -> c_2
I0420 16:55:52.512063 25592 net.cpp:382] lstm1_unit_2 -> h_2
I0420 16:55:52.512112 25592 net.cpp:124] Setting up lstm1_unit_2
I0420 16:55:52.512116 25592 net.cpp:131] Top shape: 1 512 100 (51200)
I0420 16:55:52.512122 25592 net.cpp:131] Top shape: 1 512 100 (51200)
I0420 16:55:52.512127 25592 net.cpp:139] Memory required for data: 151797760
I0420 16:55:52.512131 25592 layer_factory.hpp:77] Creating layer h_2_lstm1_unit_2_1_split
I0420 16:55:52.512136 25592 net.cpp:86] Creating Layer h_2_lstm1_unit_2_1_split
I0420 16:55:52.512141 25592 net.cpp:408] h_2_lstm1_unit_2_1_split <- h_2
I0420 16:55:52.512147 25592 net.cpp:382] h_2_lstm1_unit_2_1_split -> h_2_lstm1_unit_2_1_split_0
I0420 16:55:52.512154 25592 net.cpp:382] h_2_lstm1_unit_2_1_split -> h_2_lstm1_unit_2_1_split_1
I0420 16:55:52.512189 25592 net.cpp:124] Setting up h_2_lstm1_unit_2_1_split
I0420 16:55:52.512194 25592 net.cpp:131] Top shape: 1 512 100 (51200)
I0420 16:55:52.512199 25592 net.cpp:131] Top shape: 1 512 100 (51200)
I0420 16:55:52.512204 25592 net.cpp:139] Memory required for data: 152207360
I0420 16:55:52.512208 25592 layer_factory.hpp:77] Creating layer lstm1_h_conted_2
I0420 16:55:52.512214 25592 net.cpp:86] Creating Layer lstm1_h_conted_2
I0420 16:55:52.512219 25592 net.cpp:408] lstm1_h_conted_2 <- h_2_lstm1_unit_2_1_split_0
I0420 16:55:52.512228 25592 net.cpp:408] lstm1_h_conted_2 <- cont_3_lstm1_cont_slice_2_split_0
I0420 16:55:52.512234 25592 net.cpp:382] lstm1_h_conted_2 -> h_conted_2
I0420 16:55:52.512296 25592 net.cpp:124] Setting up lstm1_h_conted_2
I0420 16:55:52.512301 25592 net.cpp:131] Top shape: 1 512 100 (51200)
I0420 16:55:52.512307 25592 net.cpp:139] Memory required for data: 152412160
I0420 16:55:52.512311 25592 layer_factory.hpp:77] Creating layer lstm1_transform_3
I0420 16:55:52.512318 25592 net.cpp:86] Creating Layer lstm1_transform_3
I0420 16:55:52.512322 25592 net.cpp:408] lstm1_transform_3 <- h_conted_2
I0420 16:55:52.512328 25592 net.cpp:382] lstm1_transform_3 -> W_hc_h_2
I0420 16:55:52.512657 25592 net.cpp:124] Setting up lstm1_transform_3
I0420 16:55:52.512662 25592 net.cpp:131] Top shape: 1 512 400 (204800)
I0420 16:55:52.512667 25592 net.cpp:139] Memory required for data: 153231360
I0420 16:55:52.512673 25592 net.cpp:467] Sharing parameters 'W_hc' owned by layer 'lstm1_transform_1', param index 0
I0420 16:55:52.512678 25592 layer_factory.hpp:77] Creating layer lstm1_gate_input_3
I0420 16:55:52.512684 25592 net.cpp:86] Creating Layer lstm1_gate_input_3
I0420 16:55:52.512688 25592 net.cpp:408] lstm1_gate_input_3 <- W_hc_h_2
I0420 16:55:52.512693 25592 net.cpp:408] lstm1_gate_input_3 <- W_xc_x_3
I0420 16:55:52.512699 25592 net.cpp:382] lstm1_gate_input_3 -> gate_input_3
I0420 16:55:52.512722 25592 net.cpp:124] Setting up lstm1_gate_input_3
I0420 16:55:52.512727 25592 net.cpp:131] Top shape: 1 512 400 (204800)
I0420 16:55:52.512744 25592 net.cpp:139] Memory required for data: 154050560
I0420 16:55:52.512748 25592 layer_factory.hpp:77] Creating layer lstm1_unit_3
I0420 16:55:52.512755 25592 net.cpp:86] Creating Layer lstm1_unit_3
I0420 16:55:52.512760 25592 net.cpp:408] lstm1_unit_3 <- c_2
I0420 16:55:52.512765 25592 net.cpp:408] lstm1_unit_3 <- gate_input_3
I0420 16:55:52.512770 25592 net.cpp:408] lstm1_unit_3 <- cont_3_lstm1_cont_slice_2_split_1
I0420 16:55:52.512778 25592 net.cpp:382] lstm1_unit_3 -> c_3
I0420 16:55:52.512785 25592 net.cpp:382] lstm1_unit_3 -> h_3
I0420 16:55:52.512833 25592 net.cpp:124] Setting up lstm1_unit_3
I0420 16:55:52.512838 25592 net.cpp:131] Top shape: 1 512 100 (51200)
I0420 16:55:52.512843 25592 net.cpp:131] Top shape: 1 512 100 (51200)
I0420 16:55:52.512848 25592 net.cpp:139] Memory required for data: 154460160
I0420 16:55:52.512852 25592 layer_factory.hpp:77] Creating layer h_3_lstm1_unit_3_1_split
I0420 16:55:52.512858 25592 net.cpp:86] Creating Layer h_3_lstm1_unit_3_1_split
I0420 16:55:52.512862 25592 net.cpp:408] h_3_lstm1_unit_3_1_split <- h_3
I0420 16:55:52.512868 25592 net.cpp:382] h_3_lstm1_unit_3_1_split -> h_3_lstm1_unit_3_1_split_0
I0420 16:55:52.512876 25592 net.cpp:382] h_3_lstm1_unit_3_1_split -> h_3_lstm1_unit_3_1_split_1
I0420 16:55:52.512909 25592 net.cpp:124] Setting up h_3_lstm1_unit_3_1_split
I0420 16:55:52.512914 25592 net.cpp:131] Top shape: 1 512 100 (51200)
I0420 16:55:52.512919 25592 net.cpp:131] Top shape: 1 512 100 (51200)
I0420 16:55:52.512924 25592 net.cpp:139] Memory required for data: 154869760
I0420 16:55:52.512928 25592 layer_factory.hpp:77] Creating layer lstm1_h_conted_3
I0420 16:55:52.512934 25592 net.cpp:86] Creating Layer lstm1_h_conted_3
I0420 16:55:52.512939 25592 net.cpp:408] lstm1_h_conted_3 <- h_3_lstm1_unit_3_1_split_0
I0420 16:55:52.512946 25592 net.cpp:408] lstm1_h_conted_3 <- cont_4_lstm1_cont_slice_3_split_0
I0420 16:55:52.512953 25592 net.cpp:382] lstm1_h_conted_3 -> h_conted_3
I0420 16:55:52.513015 25592 net.cpp:124] Setting up lstm1_h_conted_3
I0420 16:55:52.513020 25592 net.cpp:131] Top shape: 1 512 100 (51200)
I0420 16:55:52.513025 25592 net.cpp:139] Memory required for data: 155074560
I0420 16:55:52.513028 25592 layer_factory.hpp:77] Creating layer lstm1_transform_4
I0420 16:55:52.513036 25592 net.cpp:86] Creating Layer lstm1_transform_4
I0420 16:55:52.513041 25592 net.cpp:408] lstm1_transform_4 <- h_conted_3
I0420 16:55:52.513046 25592 net.cpp:382] lstm1_transform_4 -> W_hc_h_3
I0420 16:55:52.513372 25592 net.cpp:124] Setting up lstm1_transform_4
I0420 16:55:52.513377 25592 net.cpp:131] Top shape: 1 512 400 (204800)
I0420 16:55:52.513382 25592 net.cpp:139] Memory required for data: 155893760
I0420 16:55:52.513387 25592 net.cpp:467] Sharing parameters 'W_hc' owned by layer 'lstm1_transform_1', param index 0
I0420 16:55:52.513392 25592 layer_factory.hpp:77] Creating layer lstm1_gate_input_4
I0420 16:55:52.513398 25592 net.cpp:86] Creating Layer lstm1_gate_input_4
I0420 16:55:52.513402 25592 net.cpp:408] lstm1_gate_input_4 <- W_hc_h_3
I0420 16:55:52.513407 25592 net.cpp:408] lstm1_gate_input_4 <- W_xc_x_4
I0420 16:55:52.513413 25592 net.cpp:382] lstm1_gate_input_4 -> gate_input_4
I0420 16:55:52.513435 25592 net.cpp:124] Setting up lstm1_gate_input_4
I0420 16:55:52.513440 25592 net.cpp:131] Top shape: 1 512 400 (204800)
I0420 16:55:52.513445 25592 net.cpp:139] Memory required for data: 156712960
I0420 16:55:52.513449 25592 layer_factory.hpp:77] Creating layer lstm1_unit_4
I0420 16:55:52.513455 25592 net.cpp:86] Creating Layer lstm1_unit_4
I0420 16:55:52.513459 25592 net.cpp:408] lstm1_unit_4 <- c_3
I0420 16:55:52.513464 25592 net.cpp:408] lstm1_unit_4 <- gate_input_4
I0420 16:55:52.513469 25592 net.cpp:408] lstm1_unit_4 <- cont_4_lstm1_cont_slice_3_split_1
I0420 16:55:52.513475 25592 net.cpp:382] lstm1_unit_4 -> c_4
I0420 16:55:52.513483 25592 net.cpp:382] lstm1_unit_4 -> h_4
I0420 16:55:52.513530 25592 net.cpp:124] Setting up lstm1_unit_4
I0420 16:55:52.513533 25592 net.cpp:131] Top shape: 1 512 100 (51200)
I0420 16:55:52.513552 25592 net.cpp:131] Top shape: 1 512 100 (51200)
I0420 16:55:52.513557 25592 net.cpp:139] Memory required for data: 157122560
I0420 16:55:52.513561 25592 layer_factory.hpp:77] Creating layer h_4_lstm1_unit_4_1_split
I0420 16:55:52.513914 25592 net.cpp:86] Creating Layer h_4_lstm1_unit_4_1_split
I0420 16:55:52.513921 25592 net.cpp:408] h_4_lstm1_unit_4_1_split <- h_4
I0420 16:55:52.513927 25592 net.cpp:382] h_4_lstm1_unit_4_1_split -> h_4_lstm1_unit_4_1_split_0
I0420 16:55:52.513936 25592 net.cpp:382] h_4_lstm1_unit_4_1_split -> h_4_lstm1_unit_4_1_split_1
I0420 16:55:52.513973 25592 net.cpp:124] Setting up h_4_lstm1_unit_4_1_split
I0420 16:55:52.513978 25592 net.cpp:131] Top shape: 1 512 100 (51200)
I0420 16:55:52.513983 25592 net.cpp:131] Top shape: 1 512 100 (51200)
I0420 16:55:52.513988 25592 net.cpp:139] Memory required for data: 157532160
I0420 16:55:52.513993 25592 layer_factory.hpp:77] Creating layer lstm1_h_conted_4
I0420 16:55:52.513999 25592 net.cpp:86] Creating Layer lstm1_h_conted_4
I0420 16:55:52.514003 25592 net.cpp:408] lstm1_h_conted_4 <- h_4_lstm1_unit_4_1_split_0
I0420 16:55:52.514010 25592 net.cpp:408] lstm1_h_conted_4 <- cont_5_lstm1_cont_slice_4_split_0
I0420 16:55:52.514017 25592 net.cpp:382] lstm1_h_conted_4 -> h_conted_4
I0420 16:55:52.514080 25592 net.cpp:124] Setting up lstm1_h_conted_4
I0420 16:55:52.514084 25592 net.cpp:131] Top shape: 1 512 100 (51200)
I0420 16:55:52.514091 25592 net.cpp:139] Memory required for data: 157736960
I0420 16:55:52.514094 25592 layer_factory.hpp:77] Creating layer lstm1_transform_5
I0420 16:55:52.514101 25592 net.cpp:86] Creating Layer lstm1_transform_5
I0420 16:55:52.514106 25592 net.cpp:408] lstm1_transform_5 <- h_conted_4
I0420 16:55:52.514111 25592 net.cpp:382] lstm1_transform_5 -> W_hc_h_4
I0420 16:55:52.514443 25592 net.cpp:124] Setting up lstm1_transform_5
I0420 16:55:52.514448 25592 net.cpp:131] Top shape: 1 512 400 (204800)
I0420 16:55:52.514453 25592 net.cpp:139] Memory required for data: 158556160
I0420 16:55:52.514458 25592 net.cpp:467] Sharing parameters 'W_hc' owned by layer 'lstm1_transform_1', param index 0
I0420 16:55:52.514463 25592 layer_factory.hpp:77] Creating layer lstm1_gate_input_5
I0420 16:55:52.514469 25592 net.cpp:86] Creating Layer lstm1_gate_input_5
I0420 16:55:52.514474 25592 net.cpp:408] lstm1_gate_input_5 <- W_hc_h_4
I0420 16:55:52.514479 25592 net.cpp:408] lstm1_gate_input_5 <- W_xc_x_5
I0420 16:55:52.514485 25592 net.cpp:382] lstm1_gate_input_5 -> gate_input_5
I0420 16:55:52.514509 25592 net.cpp:124] Setting up lstm1_gate_input_5
I0420 16:55:52.514513 25592 net.cpp:131] Top shape: 1 512 400 (204800)
I0420 16:55:52.514518 25592 net.cpp:139] Memory required for data: 159375360
I0420 16:55:52.514523 25592 layer_factory.hpp:77] Creating layer lstm1_unit_5
I0420 16:55:52.514529 25592 net.cpp:86] Creating Layer lstm1_unit_5
I0420 16:55:52.514533 25592 net.cpp:408] lstm1_unit_5 <- c_4
I0420 16:55:52.514539 25592 net.cpp:408] lstm1_unit_5 <- gate_input_5
I0420 16:55:52.514544 25592 net.cpp:408] lstm1_unit_5 <- cont_5_lstm1_cont_slice_4_split_1
I0420 16:55:52.514549 25592 net.cpp:382] lstm1_unit_5 -> c_5
I0420 16:55:52.514556 25592 net.cpp:382] lstm1_unit_5 -> h_5
I0420 16:55:52.514605 25592 net.cpp:124] Setting up lstm1_unit_5
I0420 16:55:52.514609 25592 net.cpp:131] Top shape: 1 512 100 (51200)
I0420 16:55:52.514614 25592 net.cpp:131] Top shape: 1 512 100 (51200)
I0420 16:55:52.514619 25592 net.cpp:139] Memory required for data: 159784960
I0420 16:55:52.514623 25592 layer_factory.hpp:77] Creating layer h_5_lstm1_unit_5_1_split
I0420 16:55:52.514629 25592 net.cpp:86] Creating Layer h_5_lstm1_unit_5_1_split
I0420 16:55:52.514634 25592 net.cpp:408] h_5_lstm1_unit_5_1_split <- h_5
I0420 16:55:52.514641 25592 net.cpp:382] h_5_lstm1_unit_5_1_split -> h_5_lstm1_unit_5_1_split_0
I0420 16:55:52.514647 25592 net.cpp:382] h_5_lstm1_unit_5_1_split -> h_5_lstm1_unit_5_1_split_1
I0420 16:55:52.514681 25592 net.cpp:124] Setting up h_5_lstm1_unit_5_1_split
I0420 16:55:52.514686 25592 net.cpp:131] Top shape: 1 512 100 (51200)
I0420 16:55:52.514704 25592 net.cpp:131] Top shape: 1 512 100 (51200)
I0420 16:55:52.514710 25592 net.cpp:139] Memory required for data: 160194560
I0420 16:55:52.514714 25592 layer_factory.hpp:77] Creating layer lstm1_h_conted_5
I0420 16:55:52.514721 25592 net.cpp:86] Creating Layer lstm1_h_conted_5
I0420 16:55:52.514726 25592 net.cpp:408] lstm1_h_conted_5 <- h_5_lstm1_unit_5_1_split_0
I0420 16:55:52.514734 25592 net.cpp:408] lstm1_h_conted_5 <- cont_6_lstm1_cont_slice_5_split_0
I0420 16:55:52.514739 25592 net.cpp:382] lstm1_h_conted_5 -> h_conted_5
I0420 16:55:52.514803 25592 net.cpp:124] Setting up lstm1_h_conted_5
I0420 16:55:52.514808 25592 net.cpp:131] Top shape: 1 512 100 (51200)
I0420 16:55:52.514814 25592 net.cpp:139] Memory required for data: 160399360
I0420 16:55:52.514818 25592 layer_factory.hpp:77] Creating layer lstm1_transform_6
I0420 16:55:52.514825 25592 net.cpp:86] Creating Layer lstm1_transform_6
I0420 16:55:52.514829 25592 net.cpp:408] lstm1_transform_6 <- h_conted_5
I0420 16:55:52.514835 25592 net.cpp:382] lstm1_transform_6 -> W_hc_h_5
I0420 16:55:52.515166 25592 net.cpp:124] Setting up lstm1_transform_6
I0420 16:55:52.515170 25592 net.cpp:131] Top shape: 1 512 400 (204800)
I0420 16:55:52.515177 25592 net.cpp:139] Memory required for data: 161218560
I0420 16:55:52.515180 25592 net.cpp:467] Sharing parameters 'W_hc' owned by layer 'lstm1_transform_1', param index 0
I0420 16:55:52.515185 25592 layer_factory.hpp:77] Creating layer lstm1_gate_input_6
I0420 16:55:52.515192 25592 net.cpp:86] Creating Layer lstm1_gate_input_6
I0420 16:55:52.515197 25592 net.cpp:408] lstm1_gate_input_6 <- W_hc_h_5
I0420 16:55:52.515202 25592 net.cpp:408] lstm1_gate_input_6 <- W_xc_x_6
I0420 16:55:52.515208 25592 net.cpp:382] lstm1_gate_input_6 -> gate_input_6
I0420 16:55:52.515229 25592 net.cpp:124] Setting up lstm1_gate_input_6
I0420 16:55:52.515234 25592 net.cpp:131] Top shape: 1 512 400 (204800)
I0420 16:55:52.515239 25592 net.cpp:139] Memory required for data: 162037760
I0420 16:55:52.515244 25592 layer_factory.hpp:77] Creating layer lstm1_unit_6
I0420 16:55:52.515249 25592 net.cpp:86] Creating Layer lstm1_unit_6
I0420 16:55:52.515254 25592 net.cpp:408] lstm1_unit_6 <- c_5
I0420 16:55:52.515259 25592 net.cpp:408] lstm1_unit_6 <- gate_input_6
I0420 16:55:52.515264 25592 net.cpp:408] lstm1_unit_6 <- cont_6_lstm1_cont_slice_5_split_1
I0420 16:55:52.515269 25592 net.cpp:382] lstm1_unit_6 -> c_6
I0420 16:55:52.515276 25592 net.cpp:382] lstm1_unit_6 -> h_6
I0420 16:55:52.515322 25592 net.cpp:124] Setting up lstm1_unit_6
I0420 16:55:52.515327 25592 net.cpp:131] Top shape: 1 512 100 (51200)
I0420 16:55:52.515332 25592 net.cpp:131] Top shape: 1 512 100 (51200)
I0420 16:55:52.515337 25592 net.cpp:139] Memory required for data: 162447360
I0420 16:55:52.515341 25592 layer_factory.hpp:77] Creating layer h_6_lstm1_unit_6_1_split
I0420 16:55:52.515347 25592 net.cpp:86] Creating Layer h_6_lstm1_unit_6_1_split
I0420 16:55:52.515350 25592 net.cpp:408] h_6_lstm1_unit_6_1_split <- h_6
I0420 16:55:52.515357 25592 net.cpp:382] h_6_lstm1_unit_6_1_split -> h_6_lstm1_unit_6_1_split_0
I0420 16:55:52.515364 25592 net.cpp:382] h_6_lstm1_unit_6_1_split -> h_6_lstm1_unit_6_1_split_1
I0420 16:55:52.515398 25592 net.cpp:124] Setting up h_6_lstm1_unit_6_1_split
I0420 16:55:52.515403 25592 net.cpp:131] Top shape: 1 512 100 (51200)
I0420 16:55:52.515408 25592 net.cpp:131] Top shape: 1 512 100 (51200)
I0420 16:55:52.515413 25592 net.cpp:139] Memory required for data: 162856960
I0420 16:55:52.515416 25592 layer_factory.hpp:77] Creating layer lstm1_h_conted_6
I0420 16:55:52.515424 25592 net.cpp:86] Creating Layer lstm1_h_conted_6
I0420 16:55:52.515429 25592 net.cpp:408] lstm1_h_conted_6 <- h_6_lstm1_unit_6_1_split_0
I0420 16:55:52.515434 25592 net.cpp:408] lstm1_h_conted_6 <- cont_7_lstm1_cont_slice_6_split_0
I0420 16:55:52.515442 25592 net.cpp:382] lstm1_h_conted_6 -> h_conted_6
I0420 16:55:52.515504 25592 net.cpp:124] Setting up lstm1_h_conted_6
I0420 16:55:52.515508 25592 net.cpp:131] Top shape: 1 512 100 (51200)
I0420 16:55:52.515514 25592 net.cpp:139] Memory required for data: 163061760
I0420 16:55:52.515529 25592 layer_factory.hpp:77] Creating layer lstm1_transform_7
I0420 16:55:52.515537 25592 net.cpp:86] Creating Layer lstm1_transform_7
I0420 16:55:52.515542 25592 net.cpp:408] lstm1_transform_7 <- h_conted_6
I0420 16:55:52.515547 25592 net.cpp:382] lstm1_transform_7 -> W_hc_h_6
I0420 16:55:52.515875 25592 net.cpp:124] Setting up lstm1_transform_7
I0420 16:55:52.515880 25592 net.cpp:131] Top shape: 1 512 400 (204800)
I0420 16:55:52.515887 25592 net.cpp:139] Memory required for data: 163880960
I0420 16:55:52.515892 25592 net.cpp:467] Sharing parameters 'W_hc' owned by layer 'lstm1_transform_1', param index 0
I0420 16:55:52.515897 25592 layer_factory.hpp:77] Creating layer lstm1_gate_input_7
I0420 16:55:52.515902 25592 net.cpp:86] Creating Layer lstm1_gate_input_7
I0420 16:55:52.515906 25592 net.cpp:408] lstm1_gate_input_7 <- W_hc_h_6
I0420 16:55:52.515913 25592 net.cpp:408] lstm1_gate_input_7 <- W_xc_x_7
I0420 16:55:52.515918 25592 net.cpp:382] lstm1_gate_input_7 -> gate_input_7
I0420 16:55:52.515940 25592 net.cpp:124] Setting up lstm1_gate_input_7
I0420 16:55:52.515945 25592 net.cpp:131] Top shape: 1 512 400 (204800)
I0420 16:55:52.515950 25592 net.cpp:139] Memory required for data: 164700160
I0420 16:55:52.515954 25592 layer_factory.hpp:77] Creating layer lstm1_unit_7
I0420 16:55:52.515960 25592 net.cpp:86] Creating Layer lstm1_unit_7
I0420 16:55:52.515964 25592 net.cpp:408] lstm1_unit_7 <- c_6
I0420 16:55:52.515969 25592 net.cpp:408] lstm1_unit_7 <- gate_input_7
I0420 16:55:52.515974 25592 net.cpp:408] lstm1_unit_7 <- cont_7_lstm1_cont_slice_6_split_1
I0420 16:55:52.515980 25592 net.cpp:382] lstm1_unit_7 -> c_7
I0420 16:55:52.515987 25592 net.cpp:382] lstm1_unit_7 -> h_7
I0420 16:55:52.516032 25592 net.cpp:124] Setting up lstm1_unit_7
I0420 16:55:52.516037 25592 net.cpp:131] Top shape: 1 512 100 (51200)
I0420 16:55:52.516042 25592 net.cpp:131] Top shape: 1 512 100 (51200)
I0420 16:55:52.516047 25592 net.cpp:139] Memory required for data: 165109760
I0420 16:55:52.516052 25592 layer_factory.hpp:77] Creating layer h_7_lstm1_unit_7_1_split
I0420 16:55:52.516057 25592 net.cpp:86] Creating Layer h_7_lstm1_unit_7_1_split
I0420 16:55:52.516062 25592 net.cpp:408] h_7_lstm1_unit_7_1_split <- h_7
I0420 16:55:52.516067 25592 net.cpp:382] h_7_lstm1_unit_7_1_split -> h_7_lstm1_unit_7_1_split_0
I0420 16:55:52.516074 25592 net.cpp:382] h_7_lstm1_unit_7_1_split -> h_7_lstm1_unit_7_1_split_1
I0420 16:55:52.516108 25592 net.cpp:124] Setting up h_7_lstm1_unit_7_1_split
I0420 16:55:52.516111 25592 net.cpp:131] Top shape: 1 512 100 (51200)
I0420 16:55:52.516116 25592 net.cpp:131] Top shape: 1 512 100 (51200)
I0420 16:55:52.516121 25592 net.cpp:139] Memory required for data: 165519360
I0420 16:55:52.516125 25592 layer_factory.hpp:77] Creating layer lstm1_h_conted_7
I0420 16:55:52.516134 25592 net.cpp:86] Creating Layer lstm1_h_conted_7
I0420 16:55:52.516139 25592 net.cpp:408] lstm1_h_conted_7 <- h_7_lstm1_unit_7_1_split_0
I0420 16:55:52.516144 25592 net.cpp:408] lstm1_h_conted_7 <- cont_8_lstm1_cont_slice_7_split_0
I0420 16:55:52.516150 25592 net.cpp:382] lstm1_h_conted_7 -> h_conted_7
I0420 16:55:52.516212 25592 net.cpp:124] Setting up lstm1_h_conted_7
I0420 16:55:52.516217 25592 net.cpp:131] Top shape: 1 512 100 (51200)
I0420 16:55:52.516222 25592 net.cpp:139] Memory required for data: 165724160
I0420 16:55:52.516227 25592 layer_factory.hpp:77] Creating layer lstm1_transform_8
I0420 16:55:52.516232 25592 net.cpp:86] Creating Layer lstm1_transform_8
I0420 16:55:52.516237 25592 net.cpp:408] lstm1_transform_8 <- h_conted_7
I0420 16:55:52.516243 25592 net.cpp:382] lstm1_transform_8 -> W_hc_h_7
I0420 16:55:52.516568 25592 net.cpp:124] Setting up lstm1_transform_8
I0420 16:55:52.516573 25592 net.cpp:131] Top shape: 1 512 400 (204800)
I0420 16:55:52.516578 25592 net.cpp:139] Memory required for data: 166543360
I0420 16:55:52.516583 25592 net.cpp:467] Sharing parameters 'W_hc' owned by layer 'lstm1_transform_1', param index 0
I0420 16:55:52.516587 25592 layer_factory.hpp:77] Creating layer lstm1_gate_input_8
I0420 16:55:52.516604 25592 net.cpp:86] Creating Layer lstm1_gate_input_8
I0420 16:55:52.516609 25592 net.cpp:408] lstm1_gate_input_8 <- W_hc_h_7
I0420 16:55:52.516615 25592 net.cpp:408] lstm1_gate_input_8 <- W_xc_x_8
I0420 16:55:52.516621 25592 net.cpp:382] lstm1_gate_input_8 -> gate_input_8
I0420 16:55:52.516645 25592 net.cpp:124] Setting up lstm1_gate_input_8
I0420 16:55:52.516649 25592 net.cpp:131] Top shape: 1 512 400 (204800)
I0420 16:55:52.516655 25592 net.cpp:139] Memory required for data: 167362560
I0420 16:55:52.516659 25592 layer_factory.hpp:77] Creating layer lstm1_unit_8
I0420 16:55:52.516665 25592 net.cpp:86] Creating Layer lstm1_unit_8
I0420 16:55:52.516669 25592 net.cpp:408] lstm1_unit_8 <- c_7
I0420 16:55:52.516674 25592 net.cpp:408] lstm1_unit_8 <- gate_input_8
I0420 16:55:52.516680 25592 net.cpp:408] lstm1_unit_8 <- cont_8_lstm1_cont_slice_7_split_1
I0420 16:55:52.516685 25592 net.cpp:382] lstm1_unit_8 -> c_8
I0420 16:55:52.516692 25592 net.cpp:382] lstm1_unit_8 -> h_8
I0420 16:55:52.516737 25592 net.cpp:124] Setting up lstm1_unit_8
I0420 16:55:52.516742 25592 net.cpp:131] Top shape: 1 512 100 (51200)
I0420 16:55:52.516747 25592 net.cpp:131] Top shape: 1 512 100 (51200)
I0420 16:55:52.516752 25592 net.cpp:139] Memory required for data: 167772160
I0420 16:55:52.516757 25592 layer_factory.hpp:77] Creating layer h_8_lstm1_unit_8_1_split
I0420 16:55:52.516762 25592 net.cpp:86] Creating Layer h_8_lstm1_unit_8_1_split
I0420 16:55:52.516767 25592 net.cpp:408] h_8_lstm1_unit_8_1_split <- h_8
I0420 16:55:52.516772 25592 net.cpp:382] h_8_lstm1_unit_8_1_split -> h_8_lstm1_unit_8_1_split_0
I0420 16:55:52.516779 25592 net.cpp:382] h_8_lstm1_unit_8_1_split -> h_8_lstm1_unit_8_1_split_1
I0420 16:55:52.516811 25592 net.cpp:124] Setting up h_8_lstm1_unit_8_1_split
I0420 16:55:52.516815 25592 net.cpp:131] Top shape: 1 512 100 (51200)
I0420 16:55:52.516821 25592 net.cpp:131] Top shape: 1 512 100 (51200)
I0420 16:55:52.516826 25592 net.cpp:139] Memory required for data: 168181760
I0420 16:55:52.516830 25592 layer_factory.hpp:77] Creating layer lstm1_h_conted_8
I0420 16:55:52.516839 25592 net.cpp:86] Creating Layer lstm1_h_conted_8
I0420 16:55:52.516842 25592 net.cpp:408] lstm1_h_conted_8 <- h_8_lstm1_unit_8_1_split_0
I0420 16:55:52.516849 25592 net.cpp:408] lstm1_h_conted_8 <- cont_9_lstm1_cont_slice_8_split_0
I0420 16:55:52.516855 25592 net.cpp:382] lstm1_h_conted_8 -> h_conted_8
I0420 16:55:52.516914 25592 net.cpp:124] Setting up lstm1_h_conted_8
I0420 16:55:52.516919 25592 net.cpp:131] Top shape: 1 512 100 (51200)
I0420 16:55:52.516924 25592 net.cpp:139] Memory required for data: 168386560
I0420 16:55:52.516928 25592 layer_factory.hpp:77] Creating layer lstm1_transform_9
I0420 16:55:52.516935 25592 net.cpp:86] Creating Layer lstm1_transform_9
I0420 16:55:52.516939 25592 net.cpp:408] lstm1_transform_9 <- h_conted_8
I0420 16:55:52.516945 25592 net.cpp:382] lstm1_transform_9 -> W_hc_h_8
I0420 16:55:52.517271 25592 net.cpp:124] Setting up lstm1_transform_9
I0420 16:55:52.517277 25592 net.cpp:131] Top shape: 1 512 400 (204800)
I0420 16:55:52.517282 25592 net.cpp:139] Memory required for data: 169205760
I0420 16:55:52.517287 25592 net.cpp:467] Sharing parameters 'W_hc' owned by layer 'lstm1_transform_1', param index 0
I0420 16:55:52.517290 25592 layer_factory.hpp:77] Creating layer lstm1_gate_input_9
I0420 16:55:52.517297 25592 net.cpp:86] Creating Layer lstm1_gate_input_9
I0420 16:55:52.517300 25592 net.cpp:408] lstm1_gate_input_9 <- W_hc_h_8
I0420 16:55:52.517305 25592 net.cpp:408] lstm1_gate_input_9 <- W_xc_x_9
I0420 16:55:52.517311 25592 net.cpp:382] lstm1_gate_input_9 -> gate_input_9
I0420 16:55:52.517333 25592 net.cpp:124] Setting up lstm1_gate_input_9
I0420 16:55:52.517338 25592 net.cpp:131] Top shape: 1 512 400 (204800)
I0420 16:55:52.517343 25592 net.cpp:139] Memory required for data: 170024960
I0420 16:55:52.517346 25592 layer_factory.hpp:77] Creating layer lstm1_unit_9
I0420 16:55:52.517355 25592 net.cpp:86] Creating Layer lstm1_unit_9
I0420 16:55:52.517359 25592 net.cpp:408] lstm1_unit_9 <- c_8
I0420 16:55:52.517377 25592 net.cpp:408] lstm1_unit_9 <- gate_input_9
I0420 16:55:52.517382 25592 net.cpp:408] lstm1_unit_9 <- cont_9_lstm1_cont_slice_8_split_1
I0420 16:55:52.517696 25592 net.cpp:382] lstm1_unit_9 -> c_9
I0420 16:55:52.517706 25592 net.cpp:382] lstm1_unit_9 -> h_9
I0420 16:55:52.517766 25592 net.cpp:124] Setting up lstm1_unit_9
I0420 16:55:52.517772 25592 net.cpp:131] Top shape: 1 512 100 (51200)
I0420 16:55:52.517778 25592 net.cpp:131] Top shape: 1 512 100 (51200)
I0420 16:55:52.517783 25592 net.cpp:139] Memory required for data: 170434560
I0420 16:55:52.517787 25592 layer_factory.hpp:77] Creating layer h_9_lstm1_unit_9_1_split
I0420 16:55:52.517794 25592 net.cpp:86] Creating Layer h_9_lstm1_unit_9_1_split
I0420 16:55:52.517798 25592 net.cpp:408] h_9_lstm1_unit_9_1_split <- h_9
I0420 16:55:52.517804 25592 net.cpp:382] h_9_lstm1_unit_9_1_split -> h_9_lstm1_unit_9_1_split_0
I0420 16:55:52.517812 25592 net.cpp:382] h_9_lstm1_unit_9_1_split -> h_9_lstm1_unit_9_1_split_1
I0420 16:55:52.517846 25592 net.cpp:124] Setting up h_9_lstm1_unit_9_1_split
I0420 16:55:52.517851 25592 net.cpp:131] Top shape: 1 512 100 (51200)
I0420 16:55:52.517856 25592 net.cpp:131] Top shape: 1 512 100 (51200)
I0420 16:55:52.517861 25592 net.cpp:139] Memory required for data: 170844160
I0420 16:55:52.517865 25592 layer_factory.hpp:77] Creating layer lstm1_h_conted_9
I0420 16:55:52.517871 25592 net.cpp:86] Creating Layer lstm1_h_conted_9
I0420 16:55:52.517876 25592 net.cpp:408] lstm1_h_conted_9 <- h_9_lstm1_unit_9_1_split_0
I0420 16:55:52.517882 25592 net.cpp:408] lstm1_h_conted_9 <- cont_10_lstm1_cont_slice_9_split_0
I0420 16:55:52.517889 25592 net.cpp:382] lstm1_h_conted_9 -> h_conted_9
I0420 16:55:52.517951 25592 net.cpp:124] Setting up lstm1_h_conted_9
I0420 16:55:52.517956 25592 net.cpp:131] Top shape: 1 512 100 (51200)
I0420 16:55:52.517961 25592 net.cpp:139] Memory required for data: 171048960
I0420 16:55:52.517964 25592 layer_factory.hpp:77] Creating layer lstm1_transform_10
I0420 16:55:52.517971 25592 net.cpp:86] Creating Layer lstm1_transform_10
I0420 16:55:52.517976 25592 net.cpp:408] lstm1_transform_10 <- h_conted_9
I0420 16:55:52.517982 25592 net.cpp:382] lstm1_transform_10 -> W_hc_h_9
I0420 16:55:52.518306 25592 net.cpp:124] Setting up lstm1_transform_10
I0420 16:55:52.518312 25592 net.cpp:131] Top shape: 1 512 400 (204800)
I0420 16:55:52.518317 25592 net.cpp:139] Memory required for data: 171868160
I0420 16:55:52.518321 25592 net.cpp:467] Sharing parameters 'W_hc' owned by layer 'lstm1_transform_1', param index 0
I0420 16:55:52.518326 25592 layer_factory.hpp:77] Creating layer lstm1_gate_input_10
I0420 16:55:52.518332 25592 net.cpp:86] Creating Layer lstm1_gate_input_10
I0420 16:55:52.518335 25592 net.cpp:408] lstm1_gate_input_10 <- W_hc_h_9
I0420 16:55:52.518340 25592 net.cpp:408] lstm1_gate_input_10 <- W_xc_x_10
I0420 16:55:52.518345 25592 net.cpp:382] lstm1_gate_input_10 -> gate_input_10
I0420 16:55:52.518365 25592 net.cpp:124] Setting up lstm1_gate_input_10
I0420 16:55:52.518368 25592 net.cpp:131] Top shape: 1 512 400 (204800)
I0420 16:55:52.518373 25592 net.cpp:139] Memory required for data: 172687360
I0420 16:55:52.518376 25592 layer_factory.hpp:77] Creating layer lstm1_unit_10
I0420 16:55:52.518381 25592 net.cpp:86] Creating Layer lstm1_unit_10
I0420 16:55:52.518385 25592 net.cpp:408] lstm1_unit_10 <- c_9
I0420 16:55:52.518389 25592 net.cpp:408] lstm1_unit_10 <- gate_input_10
I0420 16:55:52.518393 25592 net.cpp:408] lstm1_unit_10 <- cont_10_lstm1_cont_slice_9_split_1
I0420 16:55:52.518399 25592 net.cpp:382] lstm1_unit_10 -> c_10
I0420 16:55:52.518404 25592 net.cpp:382] lstm1_unit_10 -> h_10
I0420 16:55:52.518438 25592 net.cpp:124] Setting up lstm1_unit_10
I0420 16:55:52.518441 25592 net.cpp:131] Top shape: 1 512 100 (51200)
I0420 16:55:52.518445 25592 net.cpp:131] Top shape: 1 512 100 (51200)
I0420 16:55:52.518450 25592 net.cpp:139] Memory required for data: 173096960
I0420 16:55:52.518452 25592 layer_factory.hpp:77] Creating layer h_10_lstm1_unit_10_1_split
I0420 16:55:52.518456 25592 net.cpp:86] Creating Layer h_10_lstm1_unit_10_1_split
I0420 16:55:52.518471 25592 net.cpp:408] h_10_lstm1_unit_10_1_split <- h_10
I0420 16:55:52.518476 25592 net.cpp:382] h_10_lstm1_unit_10_1_split -> h_10_lstm1_unit_10_1_split_0
I0420 16:55:52.518482 25592 net.cpp:382] h_10_lstm1_unit_10_1_split -> h_10_lstm1_unit_10_1_split_1
I0420 16:55:52.518508 25592 net.cpp:124] Setting up h_10_lstm1_unit_10_1_split
I0420 16:55:52.518512 25592 net.cpp:131] Top shape: 1 512 100 (51200)
I0420 16:55:52.518515 25592 net.cpp:131] Top shape: 1 512 100 (51200)
I0420 16:55:52.518519 25592 net.cpp:139] Memory required for data: 173506560
I0420 16:55:52.518522 25592 layer_factory.hpp:77] Creating layer lstm1_h_conted_10
I0420 16:55:52.518527 25592 net.cpp:86] Creating Layer lstm1_h_conted_10
I0420 16:55:52.518532 25592 net.cpp:408] lstm1_h_conted_10 <- h_10_lstm1_unit_10_1_split_0
I0420 16:55:52.518535 25592 net.cpp:408] lstm1_h_conted_10 <- cont_11_lstm1_cont_slice_10_split_0
I0420 16:55:52.518540 25592 net.cpp:382] lstm1_h_conted_10 -> h_conted_10
I0420 16:55:52.518586 25592 net.cpp:124] Setting up lstm1_h_conted_10
I0420 16:55:52.518590 25592 net.cpp:131] Top shape: 1 512 100 (51200)
I0420 16:55:52.518594 25592 net.cpp:139] Memory required for data: 173711360
I0420 16:55:52.518597 25592 layer_factory.hpp:77] Creating layer lstm1_transform_11
I0420 16:55:52.518602 25592 net.cpp:86] Creating Layer lstm1_transform_11
I0420 16:55:52.518605 25592 net.cpp:408] lstm1_transform_11 <- h_conted_10
I0420 16:55:52.518610 25592 net.cpp:382] lstm1_transform_11 -> W_hc_h_10
I0420 16:55:52.518856 25592 net.cpp:124] Setting up lstm1_transform_11
I0420 16:55:52.518859 25592 net.cpp:131] Top shape: 1 512 400 (204800)
I0420 16:55:52.518863 25592 net.cpp:139] Memory required for data: 174530560
I0420 16:55:52.518867 25592 net.cpp:467] Sharing parameters 'W_hc' owned by layer 'lstm1_transform_1', param index 0
I0420 16:55:52.518870 25592 layer_factory.hpp:77] Creating layer lstm1_gate_input_11
I0420 16:55:52.518874 25592 net.cpp:86] Creating Layer lstm1_gate_input_11
I0420 16:55:52.518878 25592 net.cpp:408] lstm1_gate_input_11 <- W_hc_h_10
I0420 16:55:52.518882 25592 net.cpp:408] lstm1_gate_input_11 <- W_xc_x_11
I0420 16:55:52.518887 25592 net.cpp:382] lstm1_gate_input_11 -> gate_input_11
I0420 16:55:52.518903 25592 net.cpp:124] Setting up lstm1_gate_input_11
I0420 16:55:52.518906 25592 net.cpp:131] Top shape: 1 512 400 (204800)
I0420 16:55:52.518910 25592 net.cpp:139] Memory required for data: 175349760
I0420 16:55:52.518913 25592 layer_factory.hpp:77] Creating layer lstm1_unit_11
I0420 16:55:52.518918 25592 net.cpp:86] Creating Layer lstm1_unit_11
I0420 16:55:52.518921 25592 net.cpp:408] lstm1_unit_11 <- c_10
I0420 16:55:52.518925 25592 net.cpp:408] lstm1_unit_11 <- gate_input_11
I0420 16:55:52.518929 25592 net.cpp:408] lstm1_unit_11 <- cont_11_lstm1_cont_slice_10_split_1
I0420 16:55:52.518934 25592 net.cpp:382] lstm1_unit_11 -> c_11
I0420 16:55:52.518939 25592 net.cpp:382] lstm1_unit_11 -> h_11
I0420 16:55:52.518975 25592 net.cpp:124] Setting up lstm1_unit_11
I0420 16:55:52.518978 25592 net.cpp:131] Top shape: 1 512 100 (51200)
I0420 16:55:52.518982 25592 net.cpp:131] Top shape: 1 512 100 (51200)
I0420 16:55:52.518985 25592 net.cpp:139] Memory required for data: 175759360
I0420 16:55:52.518988 25592 layer_factory.hpp:77] Creating layer h_11_lstm1_unit_11_1_split
I0420 16:55:52.518993 25592 net.cpp:86] Creating Layer h_11_lstm1_unit_11_1_split
I0420 16:55:52.518996 25592 net.cpp:408] h_11_lstm1_unit_11_1_split <- h_11
I0420 16:55:52.519001 25592 net.cpp:382] h_11_lstm1_unit_11_1_split -> h_11_lstm1_unit_11_1_split_0
I0420 16:55:52.519007 25592 net.cpp:382] h_11_lstm1_unit_11_1_split -> h_11_lstm1_unit_11_1_split_1
I0420 16:55:52.519032 25592 net.cpp:124] Setting up h_11_lstm1_unit_11_1_split
I0420 16:55:52.519035 25592 net.cpp:131] Top shape: 1 512 100 (51200)
I0420 16:55:52.519039 25592 net.cpp:131] Top shape: 1 512 100 (51200)
I0420 16:55:52.519042 25592 net.cpp:139] Memory required for data: 176168960
I0420 16:55:52.519045 25592 layer_factory.hpp:77] Creating layer lstm1_h_conted_11
I0420 16:55:52.519060 25592 net.cpp:86] Creating Layer lstm1_h_conted_11
I0420 16:55:52.519609 25592 net.cpp:408] lstm1_h_conted_11 <- h_11_lstm1_unit_11_1_split_0
I0420 16:55:52.519614 25592 net.cpp:408] lstm1_h_conted_11 <- cont_12_lstm1_cont_slice_11_split_0
I0420 16:55:52.519620 25592 net.cpp:382] lstm1_h_conted_11 -> h_conted_11
I0420 16:55:52.519668 25592 net.cpp:124] Setting up lstm1_h_conted_11
I0420 16:55:52.519672 25592 net.cpp:131] Top shape: 1 512 100 (51200)
I0420 16:55:52.519676 25592 net.cpp:139] Memory required for data: 176373760
I0420 16:55:52.519680 25592 layer_factory.hpp:77] Creating layer lstm1_transform_12
I0420 16:55:52.519685 25592 net.cpp:86] Creating Layer lstm1_transform_12
I0420 16:55:52.519688 25592 net.cpp:408] lstm1_transform_12 <- h_conted_11
I0420 16:55:52.519693 25592 net.cpp:382] lstm1_transform_12 -> W_hc_h_11
I0420 16:55:52.520968 25592 net.cpp:124] Setting up lstm1_transform_12
I0420 16:55:52.520977 25592 net.cpp:131] Top shape: 1 512 400 (204800)
I0420 16:55:52.520982 25592 net.cpp:139] Memory required for data: 177192960
I0420 16:55:52.520987 25592 net.cpp:467] Sharing parameters 'W_hc' owned by layer 'lstm1_transform_1', param index 0
I0420 16:55:52.520990 25592 layer_factory.hpp:77] Creating layer lstm1_gate_input_12
I0420 16:55:52.520997 25592 net.cpp:86] Creating Layer lstm1_gate_input_12
I0420 16:55:52.521000 25592 net.cpp:408] lstm1_gate_input_12 <- W_hc_h_11
…
I0420 16:55:52.565695 25592 net.cpp:86] Creating Layer lstm1_unit_74
I0420 16:55:52.565697 25592 net.cpp:408] lstm1_unit_74 <- c_73
I0420 16:55:52.565701 25592 net.cpp:408] lstm1_unit_74 <- gate_input_74
I0420 16:55:52.565703 25592 net.cpp:408] lstm1_unit_74 <- cont_74_lstm1_cont_slice_73_split_1
I0420 16:55:52.565707 25592 net.cpp:382] lstm1_unit_74 -> c_74
I0420 16:55:52.565711 25592 net.cpp:382] lstm1_unit_74 -> h_74
I0420 16:55:52.565738 25592 net.cpp:124] Setting up lstm1_unit_74
I0420 16:55:52.565740 25592 net.cpp:131] Top shape: 1 512 100 (51200)
I0420 16:55:52.565752 25592 net.cpp:131] Top shape: 1 512 100 (51200)
I0420 16:55:52.565757 25592 net.cpp:139] Memory required for data: 343490560
I0420 16:55:52.565759 25592 layer_factory.hpp:77] Creating layer h_74_lstm1_unit_74_1_split
I0420 16:55:52.565763 25592 net.cpp:86] Creating Layer h_74_lstm1_unit_74_1_split
I0420 16:55:52.565766 25592 net.cpp:408] h_74_lstm1_unit_74_1_split <- h_74
I0420 16:55:52.565769 25592 net.cpp:382] h_74_lstm1_unit_74_1_split -> h_74_lstm1_unit_74_1_split_0
I0420 16:55:52.565773 25592 net.cpp:382] h_74_lstm1_unit_74_1_split -> h_74_lstm1_unit_74_1_split_1
I0420 16:55:52.565793 25592 net.cpp:124] Setting up h_74_lstm1_unit_74_1_split
I0420 16:55:52.565795 25592 net.cpp:131] Top shape: 1 512 100 (51200)
I0420 16:55:52.565798 25592 net.cpp:131] Top shape: 1 512 100 (51200)
I0420 16:55:52.565801 25592 net.cpp:139] Memory required for data: 343900160
I0420 16:55:52.565804 25592 layer_factory.hpp:77] Creating layer lstm1_h_conted_74
I0420 16:55:52.565806 25592 net.cpp:86] Creating Layer lstm1_h_conted_74
I0420 16:55:52.565809 25592 net.cpp:408] lstm1_h_conted_74 <- h_74_lstm1_unit_74_1_split_0
I0420 16:55:52.565812 25592 net.cpp:408] lstm1_h_conted_74 <- cont_75_lstm1_cont_slice_74_split_0
I0420 16:55:52.565816 25592 net.cpp:382] lstm1_h_conted_74 -> h_conted_74
I0420 16:55:52.565850 25592 net.cpp:124] Setting up lstm1_h_conted_74
I0420 16:55:52.565852 25592 net.cpp:131] Top shape: 1 512 100 (51200)
I0420 16:55:52.565855 25592 net.cpp:139] Memory required for data: 344104960
I0420 16:55:52.565857 25592 layer_factory.hpp:77] Creating layer lstm1_transform_75
I0420 16:55:52.565861 25592 net.cpp:86] Creating Layer lstm1_transform_75
I0420 16:55:52.565863 25592 net.cpp:408] lstm1_transform_75 <- h_conted_74
I0420 16:55:52.565866 25592 net.cpp:382] lstm1_transform_75 -> W_hc_h_74
I0420 16:55:52.566035 25592 net.cpp:124] Setting up lstm1_transform_75
I0420 16:55:52.566037 25592 net.cpp:131] Top shape: 1 512 400 (204800)
I0420 16:55:52.566040 25592 net.cpp:139] Memory required for data: 344924160
I0420 16:55:52.566042 25592 net.cpp:467] Sharing parameters 'W_hc' owned by layer 'lstm1_transform_1', param index 0
I0420 16:55:52.566045 25592 layer_factory.hpp:77] Creating layer lstm1_gate_input_75
I0420 16:55:52.566048 25592 net.cpp:86] Creating Layer lstm1_gate_input_75
I0420 16:55:52.566051 25592 net.cpp:408] lstm1_gate_input_75 <- W_hc_h_74
I0420 16:55:52.566053 25592 net.cpp:408] lstm1_gate_input_75 <- W_xc_x_75
I0420 16:55:52.566056 25592 net.cpp:382] lstm1_gate_input_75 -> gate_input_75
I0420 16:55:52.566068 25592 net.cpp:124] Setting up lstm1_gate_input_75
I0420 16:55:52.566071 25592 net.cpp:131] Top shape: 1 512 400 (204800)
I0420 16:55:52.566073 25592 net.cpp:139] Memory required for data: 345743360
I0420 16:55:52.566076 25592 layer_factory.hpp:77] Creating layer lstm1_unit_75
I0420 16:55:52.566087 25592 net.cpp:86] Creating Layer lstm1_unit_75
I0420 16:55:52.566088 25592 net.cpp:408] lstm1_unit_75 <- c_74
I0420 16:55:52.566092 25592 net.cpp:408] lstm1_unit_75 <- gate_input_75
I0420 16:55:52.566093 25592 net.cpp:408] lstm1_unit_75 <- cont_75_lstm1_cont_slice_74_split_1
I0420 16:55:52.566097 25592 net.cpp:382] lstm1_unit_75 -> c_75
I0420 16:55:52.566100 25592 net.cpp:382] lstm1_unit_75 -> h_75
I0420 16:55:52.566131 25592 net.cpp:124] Setting up lstm1_unit_75
I0420 16:55:52.566134 25592 net.cpp:131] Top shape: 1 512 100 (51200)
I0420 16:55:52.566138 25592 net.cpp:131] Top shape: 1 512 100 (51200)
I0420 16:55:52.566139 25592 net.cpp:139] Memory required for data: 346152960
I0420 16:55:52.566141 25592 layer_factory.hpp:77] Creating layer h_75_lstm1_unit_75_1_split
I0420 16:55:52.566145 25592 net.cpp:86] Creating Layer h_75_lstm1_unit_75_1_split
I0420 16:55:52.566148 25592 net.cpp:408] h_75_lstm1_unit_75_1_split <- h_75
I0420 16:55:52.566150 25592 net.cpp:382] h_75_lstm1_unit_75_1_split -> h_75_lstm1_unit_75_1_split_0
I0420 16:55:52.566154 25592 net.cpp:382] h_75_lstm1_unit_75_1_split -> h_75_lstm1_unit_75_1_split_1
I0420 16:55:52.566174 25592 net.cpp:124] Setting up h_75_lstm1_unit_75_1_split
I0420 16:55:52.566175 25592 net.cpp:131] Top shape: 1 512 100 (51200)
I0420 16:55:52.566179 25592 net.cpp:131] Top shape: 1 512 100 (51200)
I0420 16:55:52.566181 25592 net.cpp:139] Memory required for data: 346562560
I0420 16:55:52.566182 25592 layer_factory.hpp:77] Creating layer lstm1_h_conted_75
I0420 16:55:52.566186 25592 net.cpp:86] Creating Layer lstm1_h_conted_75
I0420 16:55:52.566188 25592 net.cpp:408] lstm1_h_conted_75 <- h_75_lstm1_unit_75_1_split_0
I0420 16:55:52.566192 25592 net.cpp:408] lstm1_h_conted_75 <- cont_76_lstm1_cont_slice_75_split_0
I0420 16:55:52.566195 25592 net.cpp:382] lstm1_h_conted_75 -> h_conted_75
I0420 16:55:52.566228 25592 net.cpp:124] Setting up lstm1_h_conted_75
I0420 16:55:52.566231 25592 net.cpp:131] Top shape: 1 512 100 (51200)
I0420 16:55:52.566233 25592 net.cpp:139] Memory required for data: 346767360
I0420 16:55:52.566236 25592 layer_factory.hpp:77] Creating layer lstm1_transform_76
I0420 16:55:52.566239 25592 net.cpp:86] Creating Layer lstm1_transform_76
I0420 16:55:52.566241 25592 net.cpp:408] lstm1_transform_76 <- h_conted_75
I0420 16:55:52.566244 25592 net.cpp:382] lstm1_transform_76 -> W_hc_h_75
I0420 16:55:52.566417 25592 net.cpp:124] Setting up lstm1_transform_76
I0420 16:55:52.566421 25592 net.cpp:131] Top shape: 1 512 400 (204800)
I0420 16:55:52.566422 25592 net.cpp:139] Memory required for data: 347586560
I0420 16:55:52.566426 25592 net.cpp:467] Sharing parameters 'W_hc' owned by layer 'lstm1_transform_1', param index 0
I0420 16:55:52.566427 25592 layer_factory.hpp:77] Creating layer lstm1_gate_input_76
I0420 16:55:52.566431 25592 net.cpp:86] Creating Layer lstm1_gate_input_76
I0420 16:55:52.566432 25592 net.cpp:408] lstm1_gate_input_76 <- W_hc_h_75
I0420 16:55:52.566435 25592 net.cpp:408] lstm1_gate_input_76 <- W_xc_x_76
I0420 16:55:52.566438 25592 net.cpp:382] lstm1_gate_input_76 -> gate_input_76
I0420 16:55:52.566450 25592 net.cpp:124] Setting up lstm1_gate_input_76
I0420 16:55:52.566452 25592 net.cpp:131] Top shape: 1 512 400 (204800)
I0420 16:55:52.566455 25592 net.cpp:139] Memory required for data: 348405760
I0420 16:55:52.566457 25592 layer_factory.hpp:77] Creating layer lstm1_unit_76
I0420 16:55:52.566460 25592 net.cpp:86] Creating Layer lstm1_unit_76
I0420 16:55:52.566463 25592 net.cpp:408] lstm1_unit_76 <- c_75
I0420 16:55:52.566467 25592 net.cpp:408] lstm1_unit_76 <- gate_input_76
I0420 16:55:52.566468 25592 net.cpp:408] lstm1_unit_76 <- cont_76_lstm1_cont_slice_75_split_1
I0420 16:55:52.566471 25592 net.cpp:382] lstm1_unit_76 -> c_76
I0420 16:55:52.566475 25592 net.cpp:382] lstm1_unit_76 -> h_76
I0420 16:55:52.566500 25592 net.cpp:124] Setting up lstm1_unit_76
I0420 16:55:52.566503 25592 net.cpp:131] Top shape: 1 512 100 (51200)
I0420 16:55:52.566505 25592 net.cpp:131] Top shape: 1 512 100 (51200)
I0420 16:55:52.566507 25592 net.cpp:139] Memory required for data: 348815360
I0420 16:55:52.566516 25592 layer_factory.hpp:77] Creating layer h_76_lstm1_unit_76_1_split
I0420 16:55:52.566519 25592 net.cpp:86] Creating Layer h_76_lstm1_unit_76_1_split
I0420 16:55:52.566521 25592 net.cpp:408] h_76_lstm1_unit_76_1_split <- h_76
I0420 16:55:52.566524 25592 net.cpp:382] h_76_lstm1_unit_76_1_split -> h_76_lstm1_unit_76_1_split_0
I0420 16:55:52.566529 25592 net.cpp:382] h_76_lstm1_unit_76_1_split -> h_76_lstm1_unit_76_1_split_1
I0420 16:55:52.566548 25592 net.cpp:124] Setting up h_76_lstm1_unit_76_1_split
I0420 16:55:52.566550 25592 net.cpp:131] Top shape: 1 512 100 (51200)
I0420 16:55:52.566553 25592 net.cpp:131] Top shape: 1 512 100 (51200)
I0420 16:55:52.566555 25592 net.cpp:139] Memory required for data: 349224960
I0420 16:55:52.566557 25592 layer_factory.hpp:77] Creating layer lstm1_h_conted_76
I0420 16:55:52.566561 25592 net.cpp:86] Creating Layer lstm1_h_conted_76
I0420 16:55:52.566563 25592 net.cpp:408] lstm1_h_conted_76 <- h_76_lstm1_unit_76_1_split_0
I0420 16:55:52.566566 25592 net.cpp:408] lstm1_h_conted_76 <- cont_77_lstm1_cont_slice_76_split_0
I0420 16:55:52.566570 25592 net.cpp:382] lstm1_h_conted_76 -> h_conted_76
I0420 16:55:52.566604 25592 net.cpp:124] Setting up lstm1_h_conted_76
I0420 16:55:52.566606 25592 net.cpp:131] Top shape: 1 512 100 (51200)
I0420 16:55:52.566609 25592 net.cpp:139] Memory required for data: 349429760
I0420 16:55:52.566612 25592 layer_factory.hpp:77] Creating layer lstm1_transform_77
I0420 16:55:52.566615 25592 net.cpp:86] Creating Layer lstm1_transform_77
I0420 16:55:52.566617 25592 net.cpp:408] lstm1_transform_77 <- h_conted_76
I0420 16:55:52.566620 25592 net.cpp:382] lstm1_transform_77 -> W_hc_h_76
I0420 16:55:52.567598 25592 net.cpp:124] Setting up lstm1_transform_77
I0420 16:55:52.567605 25592 net.cpp:131] Top shape: 1 512 400 (204800)
I0420 16:55:52.567610 25592 net.cpp:139] Memory required for data: 350248960
I0420 16:55:52.567613 25592 net.cpp:467] Sharing parameters 'W_hc' owned by layer 'lstm1_transform_1', param index 0
I0420 16:55:52.567615 25592 layer_factory.hpp:77] Creating layer lstm1_gate_input_77
I0420 16:55:52.567620 25592 net.cpp:86] Creating Layer lstm1_gate_input_77
I0420 16:55:52.567622 25592 net.cpp:408] lstm1_gate_input_77 <- W_hc_h_76
I0420 16:55:52.567625 25592 net.cpp:408] lstm1_gate_input_77 <- W_xc_x_77
I0420 16:55:52.567629 25592 net.cpp:382] lstm1_gate_input_77 -> gate_input_77
I0420 16:55:52.567643 25592 net.cpp:124] Setting up lstm1_gate_input_77
I0420 16:55:52.567646 25592 net.cpp:131] Top shape: 1 512 400 (204800)
I0420 16:55:52.567649 25592 net.cpp:139] Memory required for data: 351068160
I0420 16:55:52.567651 25592 layer_factory.hpp:77] Creating layer lstm1_unit_77
I0420 16:55:52.567654 25592 net.cpp:86] Creating Layer lstm1_unit_77
I0420 16:55:52.567656 25592 net.cpp:408] lstm1_unit_77 <- c_76
I0420 16:55:52.567659 25592 net.cpp:408] lstm1_unit_77 <- gate_input_77
I0420 16:55:52.567662 25592 net.cpp:408] lstm1_unit_77 <- cont_77_lstm1_cont_slice_76_split_1
I0420 16:55:52.567665 25592 net.cpp:382] lstm1_unit_77 -> c_77
I0420 16:55:52.567668 25592 net.cpp:382] lstm1_unit_77 -> h_77
I0420 16:55:52.567694 25592 net.cpp:124] Setting up lstm1_unit_77
I0420 16:55:52.567697 25592 net.cpp:131] Top shape: 1 512 100 (51200)
I0420 16:55:52.567699 25592 net.cpp:131] Top shape: 1 512 100 (51200)
I0420 16:55:52.567703 25592 net.cpp:139] Memory required for data: 351477760
I0420 16:55:52.567703 25592 layer_factory.hpp:77] Creating layer h_77_lstm1_unit_77_1_split
I0420 16:55:52.567706 25592 net.cpp:86] Creating Layer h_77_lstm1_unit_77_1_split
I0420 16:55:52.567709 25592 net.cpp:408] h_77_lstm1_unit_77_1_split <- h_77
I0420 16:55:52.567713 25592 net.cpp:382] h_77_lstm1_unit_77_1_split -> h_77_lstm1_unit_77_1_split_0
I0420 16:55:52.567716 25592 net.cpp:382] h_77_lstm1_unit_77_1_split -> h_77_lstm1_unit_77_1_split_1
I0420 16:55:52.567734 25592 net.cpp:124] Setting up h_77_lstm1_unit_77_1_split
I0420 16:55:52.567736 25592 net.cpp:131] Top shape: 1 512 100 (51200)
I0420 16:55:52.567739 25592 net.cpp:131] Top shape: 1 512 100 (51200)
I0420 16:55:52.567751 25592 net.cpp:139] Memory required for data: 351887360
I0420 16:55:52.567754 25592 layer_factory.hpp:77] Creating layer lstm1_h_conted_77
I0420 16:55:52.567757 25592 net.cpp:86] Creating Layer lstm1_h_conted_77
I0420 16:55:52.567760 25592 net.cpp:408] lstm1_h_conted_77 <- h_77_lstm1_unit_77_1_split_0
I0420 16:55:52.567764 25592 net.cpp:408] lstm1_h_conted_77 <- cont_78_lstm1_cont_slice_77_split_0
I0420 16:55:52.567766 25592 net.cpp:382] lstm1_h_conted_77 -> h_conted_77
I0420 16:55:52.567802 25592 net.cpp:124] Setting up lstm1_h_conted_77
I0420 16:55:52.567806 25592 net.cpp:131] Top shape: 1 512 100 (51200)
I0420 16:55:52.567808 25592 net.cpp:139] Memory required for data: 352092160
I0420 16:55:52.567811 25592 layer_factory.hpp:77] Creating layer lstm1_transform_78
I0420 16:55:52.567814 25592 net.cpp:86] Creating Layer lstm1_transform_78
I0420 16:55:52.567816 25592 net.cpp:408] lstm1_transform_78 <- h_conted_77
I0420 16:55:52.567819 25592 net.cpp:382] lstm1_transform_78 -> W_hc_h_77
I0420 16:55:52.567989 25592 net.cpp:124] Setting up lstm1_transform_78
I0420 16:55:52.567993 25592 net.cpp:131] Top shape: 1 512 400 (204800)
I0420 16:55:52.567997 25592 net.cpp:139] Memory required for data: 352911360
I0420 16:55:52.568001 25592 net.cpp:467] Sharing parameters 'W_hc' owned by layer 'lstm1_transform_1', param index 0
I0420 16:55:52.568004 25592 layer_factory.hpp:77] Creating layer lstm1_gate_input_78
I0420 16:55:52.568008 25592 net.cpp:86] Creating Layer lstm1_gate_input_78
I0420 16:55:52.568011 25592 net.cpp:408] lstm1_gate_input_78 <- W_hc_h_77
I0420 16:55:52.568015 25592 net.cpp:408] lstm1_gate_input_78 <- W_xc_x_78
I0420 16:55:52.568019 25592 net.cpp:382] lstm1_gate_input_78 -> gate_input_78
I0420 16:55:52.568034 25592 net.cpp:124] Setting up lstm1_gate_input_78
I0420 16:55:52.568037 25592 net.cpp:131] Top shape: 1 512 400 (204800)
I0420 16:55:52.568040 25592 net.cpp:139] Memory required for data: 353730560
I0420 16:55:52.568042 25592 layer_factory.hpp:77] Creating layer lstm1_unit_78
I0420 16:55:52.568045 25592 net.cpp:86] Creating Layer lstm1_unit_78
I0420 16:55:52.568048 25592 net.cpp:408] lstm1_unit_78 <- c_77
I0420 16:55:52.568050 25592 net.cpp:408] lstm1_unit_78 <- gate_input_78
I0420 16:55:52.568132 25592 net.cpp:408] lstm1_unit_78 <- cont_78_lstm1_cont_slice_77_split_1
I0420 16:55:52.568136 25592 net.cpp:382] lstm1_unit_78 -> c_78
I0420 16:55:52.568140 25592 net.cpp:382] lstm1_unit_78 -> h_78
I0420 16:55:52.568166 25592 net.cpp:124] Setting up lstm1_unit_78
I0420 16:55:52.568168 25592 net.cpp:131] Top shape: 1 512 100 (51200)
I0420 16:55:52.568171 25592 net.cpp:131] Top shape: 1 512 100 (51200)
I0420 16:55:52.568173 25592 net.cpp:139] Memory required for data: 354140160
I0420 16:55:52.568176 25592 layer_factory.hpp:77] Creating layer h_78_lstm1_unit_78_1_split
I0420 16:55:52.568178 25592 net.cpp:86] Creating Layer h_78_lstm1_unit_78_1_split
I0420 16:55:52.568181 25592 net.cpp:408] h_78_lstm1_unit_78_1_split <- h_78
I0420 16:55:52.568184 25592 net.cpp:382] h_78_lstm1_unit_78_1_split -> h_78_lstm1_unit_78_1_split_0
I0420 16:55:52.568187 25592 net.cpp:382] h_78_lstm1_unit_78_1_split -> h_78_lstm1_unit_78_1_split_1
I0420 16:55:52.568205 25592 net.cpp:124] Setting up h_78_lstm1_unit_78_1_split
I0420 16:55:52.568208 25592 net.cpp:131] Top shape: 1 512 100 (51200)
I0420 16:55:52.568210 25592 net.cpp:131] Top shape: 1 512 100 (51200)
I0420 16:55:52.568213 25592 net.cpp:139] Memory required for data: 354549760
I0420 16:55:52.568215 25592 layer_factory.hpp:77] Creating layer lstm1_h_conted_78
I0420 16:55:52.568219 25592 net.cpp:86] Creating Layer lstm1_h_conted_78
I0420 16:55:52.568222 25592 net.cpp:408] lstm1_h_conted_78 <- h_78_lstm1_unit_78_1_split_0
I0420 16:55:52.568224 25592 net.cpp:408] lstm1_h_conted_78 <- cont_79_lstm1_cont_slice_78_split_0
I0420 16:55:52.568228 25592 net.cpp:382] lstm1_h_conted_78 -> h_conted_78
I0420 16:55:52.568261 25592 net.cpp:124] Setting up lstm1_h_conted_78
I0420 16:55:52.568264 25592 net.cpp:131] Top shape: 1 512 100 (51200)
I0420 16:55:52.568266 25592 net.cpp:139] Memory required for data: 354754560
I0420 16:55:52.568275 25592 layer_factory.hpp:77] Creating layer lstm1_transform_79
I0420 16:55:52.568279 25592 net.cpp:86] Creating Layer lstm1_transform_79
I0420 16:55:52.568282 25592 net.cpp:408] lstm1_transform_79 <- h_conted_78
I0420 16:55:52.568285 25592 net.cpp:382] lstm1_transform_79 -> W_hc_h_78
I0420 16:55:52.568454 25592 net.cpp:124] Setting up lstm1_transform_79
I0420 16:55:52.568456 25592 net.cpp:131] Top shape: 1 512 400 (204800)
I0420 16:55:52.568459 25592 net.cpp:139] Memory required for data: 355573760
I0420 16:55:52.568461 25592 net.cpp:467] Sharing parameters 'W_hc' owned by layer 'lstm1_transform_1', param index 0
I0420 16:55:52.568464 25592 layer_factory.hpp:77] Creating layer lstm1_gate_input_79
I0420 16:55:52.568466 25592 net.cpp:86] Creating Layer lstm1_gate_input_79
I0420 16:55:52.568470 25592 net.cpp:408] lstm1_gate_input_79 <- W_hc_h_78
I0420 16:55:52.568471 25592 net.cpp:408] lstm1_gate_input_79 <- W_xc_x_79
I0420 16:55:52.568475 25592 net.cpp:382] lstm1_gate_input_79 -> gate_input_79
I0420 16:55:52.568487 25592 net.cpp:124] Setting up lstm1_gate_input_79
I0420 16:55:52.568490 25592 net.cpp:131] Top shape: 1 512 400 (204800)
I0420 16:55:52.568492 25592 net.cpp:139] Memory required for data: 356392960
I0420 16:55:52.568495 25592 layer_factory.hpp:77] Creating layer lstm1_unit_79
I0420 16:55:52.568497 25592 net.cpp:86] Creating Layer lstm1_unit_79
I0420 16:55:52.568500 25592 net.cpp:408] lstm1_unit_79 <- c_78
I0420 16:55:52.568502 25592 net.cpp:408] lstm1_unit_79 <- gate_input_79
I0420 16:55:52.568506 25592 net.cpp:408] lstm1_unit_79 <- cont_79_lstm1_cont_slice_78_split_1
I0420 16:55:52.568508 25592 net.cpp:382] lstm1_unit_79 -> c_79
I0420 16:55:52.568512 25592 net.cpp:382] lstm1_unit_79 -> h_79
I0420 16:55:52.568537 25592 net.cpp:124] Setting up lstm1_unit_79
I0420 16:55:52.568539 25592 net.cpp:131] Top shape: 1 512 100 (51200)
I0420 16:55:52.568542 25592 net.cpp:131] Top shape: 1 512 100 (51200)
I0420 16:55:52.568545 25592 net.cpp:139] Memory required for data: 356802560
I0420 16:55:52.568547 25592 layer_factory.hpp:77] Creating layer h_79_lstm1_unit_79_1_split
I0420 16:55:52.568550 25592 net.cpp:86] Creating Layer h_79_lstm1_unit_79_1_split
I0420 16:55:52.568553 25592 net.cpp:408] h_79_lstm1_unit_79_1_split <- h_79
I0420 16:55:52.568557 25592 net.cpp:382] h_79_lstm1_unit_79_1_split -> h_79_lstm1_unit_79_1_split_0
I0420 16:55:52.568560 25592 net.cpp:382] h_79_lstm1_unit_79_1_split -> h_79_lstm1_unit_79_1_split_1
I0420 16:55:52.568578 25592 net.cpp:124] Setting up h_79_lstm1_unit_79_1_split
I0420 16:55:52.568580 25592 net.cpp:131] Top shape: 1 512 100 (51200)
I0420 16:55:52.568583 25592 net.cpp:131] Top shape: 1 512 100 (51200)
I0420 16:55:52.568585 25592 net.cpp:139] Memory required for data: 357212160
I0420 16:55:52.568588 25592 layer_factory.hpp:77] Creating layer lstm1_h_conted_79
I0420 16:55:52.568591 25592 net.cpp:86] Creating Layer lstm1_h_conted_79
I0420 16:55:52.568593 25592 net.cpp:408] lstm1_h_conted_79 <- h_79_lstm1_unit_79_1_split_0
I0420 16:55:52.568596 25592 net.cpp:408] lstm1_h_conted_79 <- cont_80_lstm1_cont_slice_79_split_0
I0420 16:55:52.568600 25592 net.cpp:382] lstm1_h_conted_79 -> h_conted_79
I0420 16:55:52.568634 25592 net.cpp:124] Setting up lstm1_h_conted_79
I0420 16:55:52.568635 25592 net.cpp:131] Top shape: 1 512 100 (51200)
I0420 16:55:52.568639 25592 net.cpp:139] Memory required for data: 357416960
I0420 16:55:52.568640 25592 layer_factory.hpp:77] Creating layer lstm1_transform_80
I0420 16:55:52.568645 25592 net.cpp:86] Creating Layer lstm1_transform_80
I0420 16:55:52.568646 25592 net.cpp:408] lstm1_transform_80 <- h_conted_79
I0420 16:55:52.568650 25592 net.cpp:382] lstm1_transform_80 -> W_hc_h_79
I0420 16:55:52.568815 25592 net.cpp:124] Setting up lstm1_transform_80
I0420 16:55:52.568819 25592 net.cpp:131] Top shape: 1 512 400 (204800)
I0420 16:55:52.568820 25592 net.cpp:139] Memory required for data: 358236160
I0420 16:55:52.568823 25592 net.cpp:467] Sharing parameters 'W_hc' owned by layer 'lstm1_transform_1', param index 0
I0420 16:55:52.568836 25592 layer_factory.hpp:77] Creating layer lstm1_gate_input_80
I0420 16:55:52.568841 25592 net.cpp:86] Creating Layer lstm1_gate_input_80
I0420 16:55:52.568845 25592 net.cpp:408] lstm1_gate_input_80 <- W_hc_h_79
I0420 16:55:52.568850 25592 net.cpp:408] lstm1_gate_input_80 <- W_xc_x_80
I0420 16:55:52.568853 25592 net.cpp:382] lstm1_gate_input_80 -> gate_input_80
I0420 16:55:52.568871 25592 net.cpp:124] Setting up lstm1_gate_input_80
I0420 16:55:52.568874 25592 net.cpp:131] Top shape: 1 512 400 (204800)
I0420 16:55:52.568878 25592 net.cpp:139] Memory required for data: 359055360
I0420 16:55:52.568881 25592 layer_factory.hpp:77] Creating layer lstm1_unit_80
I0420 16:55:52.568884 25592 net.cpp:86] Creating Layer lstm1_unit_80
I0420 16:55:52.568886 25592 net.cpp:408] lstm1_unit_80 <- c_79
I0420 16:55:52.568889 25592 net.cpp:408] lstm1_unit_80 <- gate_input_80
I0420 16:55:52.568892 25592 net.cpp:408] lstm1_unit_80 <- cont_80_lstm1_cont_slice_79_split_1
I0420 16:55:52.568895 25592 net.cpp:382] lstm1_unit_80 -> c_80
I0420 16:55:52.568898 25592 net.cpp:382] lstm1_unit_80 -> h_80
I0420 16:55:52.568924 25592 net.cpp:124] Setting up lstm1_unit_80
I0420 16:55:52.568928 25592 net.cpp:131] Top shape: 1 512 100 (51200)
I0420 16:55:52.568929 25592 net.cpp:131] Top shape: 1 512 100 (51200)
I0420 16:55:52.568933 25592 net.cpp:139] Memory required for data: 359464960
I0420 16:55:52.568934 25592 layer_factory.hpp:77] Creating layer lstm1_
I0420 16:55:52.568936 25592 net.cpp:86] Creating Layer lstm1_
I0420 16:55:52.568939 25592 net.cpp:408] lstm1_ <- c_80
I0420 16:55:52.568941 25592 net.cpp:382] lstm1_ -> c_T
I0420 16:55:52.568953 25592 net.cpp:124] Setting up lstm1_
I0420 16:55:52.568955 25592 net.cpp:131] Top shape: 1 512 100 (51200)
I0420 16:55:52.568958 25592 net.cpp:139] Memory required for data: 359669760
I0420 16:55:52.568959 25592 layer_factory.hpp:77] Creating layer lstm1_h_concat
I0420 16:55:52.568967 25592 net.cpp:86] Creating Layer lstm1_h_concat
I0420 16:55:52.568970 25592 net.cpp:408] lstm1_h_concat <- h_1_lstm1_unit_1_1_split_1
I0420 16:55:52.568975 25592 net.cpp:408] lstm1_h_concat <- h_2_lstm1_unit_2_1_split_1
…
  top: "W_xc_x_53"
  top: "W_xc_x_54"
  top: "W_xc_x_55"
  top: "W_xc_x_56"
  top: "W_xc_x_57"
  top: "W_xc_x_58"
  top: "W_xc_x_59"
  top: "W_xc_x_60"
  top: "W_xc_x_61"
  top: "W_xc_x_62"
  top: "W_xc_x_63"
  top: "W_xc_x_64"
  top: "W_xc_x_65"
  top: "W_xc_x_66"
  top: "W_xc_x_67"
  top: "W_xc_x_68"
  top: "W_xc_x_69"
  top: "W_xc_x_70"
  top: "W_xc_x_71"
  top: "W_xc_x_72"
  top: "W_xc_x_73"
  top: "W_xc_x_74"
  top: "W_xc_x_75"
  top: "W_xc_x_76"
  top: "W_xc_x_77"
  top: "W_xc_x_78"
  top: "W_xc_x_79"
  top: "W_xc_x_80"
  slice_param {
    axis: 0
  }
}
layer {
  name: "lstm2_h_conted_0"
  type: "Scale"
  bottom: "h_0"
  bottom: "cont_1"
  top: "h_conted_0"
  scale_param {
    axis: 0
  }
}
layer {
  name: "lstm2_transform_1"
  type: "InnerProduct"
  bottom: "h_conted_0"
  top: "W_hc_h_0"
  param {
    name: "W_hc"
  }
  inner_product_param {
    num_output: 400
    bias_term: false
    weight_filler {
      type: "xavier"
    }
    axis: 2
  }
}
layer {
  name: "lstm2_gate_input_1"
  type: "Eltwise"
  bottom: "W_hc_h_0"
  bottom: "W_xc_x_1"
  top: "gate_input_1"
  eltwise_param {
    operation: SUM
  }
}
layer {
  name: "lstm2_unit_1"
  type: "LSTMUnit"
  bottom: "c_0"
  bottom: "gate_input_1"
  bottom: "cont_1"
  top: "c_1"
  top: "h_1"
}
layer {
  name: "lstm2_h_conted_1"
  type: "Scale"
  bottom: "h_1"
  bottom: "cont_2"
  top: "h_conted_1"
  scale_param {
    axis: 0
  }
}
layer {
  name: "lstm2_transform_2"
  type: "InnerProduct"
  bottom: "h_conted_1"
  top: "W_hc_h_1"
  param {
    name: "W_hc"
  }
  inner_product_param {
    num_output: 400
    bias_term: false
    weight_filler {
      type: "xavier"
    }
    axis: 2
  }
}
layer {
  name: "lstm2_gate_input_2"
  type: "Eltwise"
  bottom: "W_hc_h_1"
  bottom: "W_xc_x_2"
  top: "gate_input_2"
  eltwise_param {
    operation: SUM
  }
}
layer {
  name: "lstm2_unit_2"
  type: "LSTMUnit"
  bottom: "c_1"
  bottom: "gate_input_2"
  bottom: "cont_2"
  top: "c_2"
  top: "h_2"
}
layer {
  name: "lstm2_h_conted_2"
  type: "Scale"
  bottom: "h_2"
  bottom: "cont_3"
  top: "h_conted_2"
  scale_param {
    axis: 0
  }
}
layer {
  name: "lstm2_transform_3"
  type: "InnerProduct"
  bottom: "h_conted_2"
  top: "W_hc_h_2"
  param {
    name: "W_hc"
  }
  inner_product_param {
    num_output: 400
    bias_term: false
    weight_filler {
      type: "xavier"
    }
    axis: 2
  }
}
layer {
  name: "lstm2_gate_input_3"
  type: "Eltwise"
  bottom: "W_hc_h_2"
  bottom: "W_xc_x_3"
  top: "gate_input_3"
  eltwise_param {
    operation: SUM
  }
}
layer {
  name: "lstm2_unit_3"
  type: "LSTMUnit"
  bottom: "c_2"
  bottom: "gate_input_3"
  bottom: "cont_3"
  top: "c_3"
  top: "h_3"
}
layer {
  name: "lstm2_h_conted_3"
  type: "Scale"
  bottom: "h_3"
  bottom: "cont_4"
  top: "h_conted_3"
  scale_param {
    axis: 0
  }
}
layer {
  name: "lstm2_transform_4"
  type: "InnerProduct"
  bottom: "h_conted_3"
  top: "W_hc_h_3"
  param {
    name: "W_hc"
  }
  inner_product_param {
    num_output: 400
    bias_term: false
    weight_filler {
      type: "xavier"
    }
    axis: 2
  }
}
layer {
  name: "lstm2_gate_input_4"
  type: "Eltwise"
  bottom: "W_hc_h_3"
  bottom: "W_xc_x_4"
  top: "gate_input_4"
  eltwise_param {
    operation: SUM
  }
}
layer {
  name: "lstm2_unit_4"
  type: "LSTMUnit"
  bottom: "c_3"
  bottom: "gate_input_4"
  bottom: "cont_4"
  top: "c_4"
  top: "h_4"
}
layer {
  name: "lstm2_h_conted_4"
  type: "Scale"
  bottom: "h_4"
  bottom: "cont_5"
  top: "h_conted_4"
  scale_param {
    axis: 0
  }
}
layer {
  name: "lstm2_transform_5"
  type: "InnerProduct"
  bottom: "h_conted_4"
  top: "W_hc_h_4"
  param {
    name: "W_hc"
  }
  inner_product_param {
    num_output: 400
    bias_term: false
    weight_filler {
      type: "xavier"
    }
    axis: 2
  }
}
layer {
  name: "lstm2_gate_input_5"
  type: "Eltwise"
  bottom: "W_hc_h_4"
  bottom: "W_xc_x_5"
  top: "gate_input_5"
  eltwise_param {
    operation: SUM
  }
}
layer {
  name: "lstm2_unit_5"
  type: "LSTMUnit"
  bottom: "c_4"
  bottom: "gate_input_5"
  bottom: "cont_5"
  top: "c_5"
  top: "h_5"
}
layer {
  name: "lstm2_h_conted_5"
  type: "Scale"
  bottom: "h_5"
  bottom: "cont_6"
  top: "h_conted_5"
  scale_param {
    axis: 0
  }
}
layer {
  name: "lstm2_transform_6"
  type: "InnerProduct"
  bottom: "h_conted_5"
  top: "W_hc_h_5"
  param {
    name: "W_hc"
  }
  inner_product_param {
    num_output: 400
    bias_term: false
    weight_filler {
      type: "xavier"
    }
    axis: 2
  }
}
layer {
  name: "lstm2_gate_input_6"
  type: "Eltwise"
  bottom: "W_hc_h_5"
  bottom: "W_xc_x_6"
  top: "gate_input_6"
  eltwise_param {
    operation: SUM
  }
}
layer {
  name: "lstm2_unit_6"
  type: "LSTMUnit"
  bottom: "c_5"
  bottom: "gate_input_6"
  bottom: "cont_6"
  top: "c_6"
  top: "h_6"
}
layer {
  name: "lstm2_h_conted_6"
  type: "Scale"
  bottom: "h_6"
  bottom: "cont_7"
  top: "h_conted_6"
  scale_param {
    axis: 0
  }
}
layer {
  name: "lstm2_transform_7"
  type: "InnerProduct"
  bottom: "h_conted_6"
  top: "W_hc_h_6"
  param {
    name: "W_hc"
  }
  inner_product_param {
    num_output: 400
    bias_term: false
    weight_filler {
      type: "xavier"
    }
    axis: 2
  }
}
layer {
  name: "lstm2_gate_input_7"
  type: "Eltwise"
  bottom: "W_hc_h_6"
  bottom: "W_xc_x_7"
  top: "gate_input_7"
  eltwise_param {
    operation: SUM
  }
}
layer {
  name: "lstm2_unit_7"
  type: "LSTMUnit"
  bottom: "c_6"
  bottom: "gate_input_7"
  bottom: "cont_7"
  top: "c_7"
  top: "h_7"
}
layer {
  name: "lstm2_h_conted_7"
  type: "Scale"
  bottom: "h_7"
  bottom: "cont_8"
  top: "h_conted_7"
  scale_param {
    axis: 0
  }
}
layer {
  name: "lstm2_transform_8"
  type: "InnerProduct"
  bottom: "h_conted_7"
  top: "W_hc_h_7"
  param {
    name: "W_hc"
  }
  inner_product_param {
    num_output: 400
    bias_term: false
    weight_filler {
      type: "xavier"
    }
    axis: 2
  }
}
layer {
  name: "lstm2_gate_input_8"
  type: "Eltwise"
  bottom: "W_hc_h_7"
  bottom: "W_xc_x_8"
  top: "gate_input_8"
  eltwise_param {
    operation: SUM
  }
}
layer {
  name: "lstm2_unit_8"
  type: "LSTMUnit"
  bottom: "c_7"
  bottom: "gate_input_8"
  bottom: "cont_8"
  top: "c_8"
  top: "h_8"
}
layer {
  name: "lstm2_h_conted_8"
  type: "Scale"
  bottom: "h_8"
  bottom: "cont_9"
  top: "h_conted_8"
  scale_param {
    axis: 0
  }
}
layer {
  name: "lstm2_transform_9"
  type: "InnerProduct"
  bottom: "h_conted_8"
  top: "W_hc_h_8"
  param {
    name: "W_hc"
  }
  inner_product_param {
    num_output: 400
    bias_term: false
    weight_filler {
      type: "xavier"
    }
    axis: 2
  }
}
layer {
  name: "lstm2_gate_input_9"
  type: "Eltwise"
  bottom: "W_hc_h_8"
  bottom: "W_xc_x_9"
  top: "gate_input_9"
  eltwise_param {
    operation: SUM
  }
}
layer {
  name: "lstm2_unit_9"
  type: "LSTMUnit"
  bottom: "c_8"
  bottom: "gate_input_9"
  bottom: "cont_9"
  top: "c_9"
  top: "h_9"
}
layer {
  name: "lstm2_h_conted_9"
  type: "Scale"
  bottom: "h_9"
  bottom: "cont_10"
  top: "h_conted_9"
  scale_param {
    axis: 0
  }
}
layer {
  name: "lstm2_transform_10"
  type: "InnerProduct"
  bottom: "h_conted_9"
  top: "W_hc_h_9"
  param {
    name: "W_hc"
  }
  inner_product_param {
    num_output: 400
    bias_term: false
    weight_filler {
      type: "xavier"
    }
    axis: 2
  }
}
layer {
  name: "lstm2_gate_input_10"
  type: "Eltwise"
  bottom: "W_hc_h_9"
  bottom: "W_xc_x_10"
  top: "gate_input_10"
  eltwise_param {
    operation: SUM
  }
}
layer {
  name: "lstm2_unit_10"
  type: "LSTMUnit"
  bottom: "c_9"
  bottom: "gate_input_10"
  bottom: "cont_10"
  top: "c_10"
  top: "h_10"
}
layer {
  name: "lstm2_h_conted_10"
  type: "Scale"
  bottom: "h_10"
  bottom: "cont_11"
  top: "h_conted_10"
  scale_param {
    axis: 0
  }
}
layer {
  name: "lstm2_transform_11"
  type: "InnerProduct"
  bottom: "h_conted_10"
  top: "W_hc_h_10"
  param {
    name: "W_hc"
  }
  inner_product_param {
    num_output: 400
    bias_term: false
    weight_filler {
      type: "xavier"
    }
    axis: 2
  }
}
layer {
  name: "lstm2_gate_input_11"
  type: "Eltwise"
  bottom: "W_hc_h_10"
  bottom: "W_xc_x_11"
  top: "gate_input_11"
  eltwise_param {
    operation: SUM
  }
}
layer {
  name: "lstm2_unit_11"
  type: "LSTMUnit"
  bottom: "c_10"
  bottom: "gate_input_11"
  bottom: "cont_11"
  top: "c_11"
  top: "h_11"
}
layer {
  name: "lstm2_h_conted_11"
  type: "Scale"
  bottom: "h_11"
  bottom: "cont_12"
  top: "h_conted_11"
  scale_param {
    axis: 0
  }
}
layer {
  name: "lstm2_transform_12"
  type: "InnerProduct"
  bottom: "h_conted_11"
  top: "W_hc_h_11"
  param {
    name: "W_hc"
  }
  inner_product_param {
    num_output: 400
    bias_term: false
    weight_filler {
      type: "xavier"
    }
    axis: 2
  }
}
layer {
  name: "lstm2_gate_input_12"
  type: "Eltwise"
  bottom: "W_hc_h_11"
  bottom: "W_xc_x_12"
  top: "gate_input_12"
  eltwise_param {
    operation: SUM
  }
}
layer {
  name: "lstm2_unit_12"
  type: "LSTMUnit"
  bottom: "c_11"
  bottom: "gate_input_12"
  bottom: "cont_12"
  top: "c_12"
  top: "h_12"
}
layer {
  name: "lstm2_h_conted_12"
  type: "Scale"
  bottom: "h_12"
  bottom: "cont_13"
  top: "h_conted_12"
  scale_param {
    axis: 0
  }
}
layer {
  name: "lstm2_transform_13"
  type: "InnerProduct"
  bottom: "h_conted_12"
  top: "W_hc_h_12"
  param {
    name: "W_hc"
  }
  inner_product_param {
    num_output: 400
    bias_term: false
    weight_filler {
      type: "xavier"
    }
    axis: 2
  }
}
layer {
  name: "lstm2_gate_input_13"
  type: "Eltwise"
  bottom: "W_hc_h_12"
  bottom: "W_xc_x_13"
  top: "gate_input_13"
  eltwise_param {
    operation: SUM
  }
}
layer {
  name: "lstm2_unit_13"
  type: "LSTMUnit"
  bottom: "c_12"
  bottom: "gate_input_13"
  bottom: "cont_13"
  top: "c_13"
  top: "h_13"
}
layer {
  name: "lstm2_h_conted_13"
  type: "Scale"
  bottom: "h_13"
  bottom: "cont_14"
  top: "h_conted_13"
  scale_param {
    axis: 0
  }
}
layer {
  name: "lstm2_transform_14"
  type: "InnerProduct"
  bottom: "h_conted_13"
  top: "W_hc_h_13"
  param {
    name: "W_hc"
  }
  inner_product_param {
    num_output: 400
    bias_term: false
    weight_filler {
      type: "xavier"
    }
    axis: 2
  }
}
layer {
  name: "lstm2_gate_input_14"
  type: "Eltwise"
  bottom: "W_hc_h_13"
  bottom: "W_xc_x_14"
  top: "gate_input_14"
  eltwise_param {
    operation: SUM
  }
}
layer {
  name: "lstm2_unit_14"
  type: "LSTMUnit"
  bottom: "c_13"
  bottom: "gate_input_14"
  bottom: "cont_14"
  top: "c_14"
  top: "h_14"
}
layer {
  name: "lstm2_h_conted_14"
  type: "Scale"
  bottom: "h_14"
  bottom: "cont_15"
  top: "h_conted_14"
  scale_param {
    axis: 0
  }
}
layer {
  name: "lstm2_transform_15"
  type: "InnerProduct"
  bottom: "h_conted_14"
  top: "W_hc_h_14"
  param {
    name: "W_hc"
  }
  inner_product_param {
    num_output: 400
    bias_term: false
    weight_filler {
      type: "xavier"
    }
    axis: 2
  }
}
layer {
  name: "lstm2_gate_input_15"
  type: "Eltwise"
  bottom: "W_hc_h_14"
  bottom: "W_xc_x_15"
  top: "gate_input_15"
  eltwise_param {
    operation: SUM
  }
}
layer {
  name: "lstm2_unit_15"
  type: "LSTMUnit"
  bottom: "c_14"
  bottom: "gate_input_15"
  bottom: "cont_15"
  top: "c_15"
  top: "h_15"
}
layer {
  name: "lstm2_h_conted_15"
  type: "Scale"
  bottom: "h_15"
  bottom: "cont_16"
  top: "h_conted_15"
  scale_param {
    axis: 0
  }
}
layer {
  name: "lstm2_transform_16"
  type: "InnerProduct"
  bottom: "h_conted_15"
  top: "W_hc_h_15"
  param {
    name: "W_hc"
  }
  inner_product_param {
    num_output: 400
    bias_term: false
    weight_filler {
      type: "xavier"
    }
    axis: 2
  }
}
layer {
  name: "lstm2_gate_input_16"
  type: "Eltwise"
  bottom: "W_hc_h_15"
  bottom: "W_xc_x_16"
  top: "gate_input_16"
  eltwise_param {
    operation: SUM
  }
}
layer {
  name: "lstm2_unit_16"
  type: "LSTMUnit"
  bottom: "c_15"
  bottom: "gate_input_16"
  bottom: "cont_16"
  top: "c_16"
  top: "h_16"
}
layer {
  name: "lstm2_h_conted_16"
  type: "Scale"
  bottom: "h_16"
  bottom: "cont_17"
  top: "h_conted_16"
  scale_param {
    axis: 0
  }
}
layer {
  name: "lstm2_transform_17"
  type: "InnerProduct"
  bottom: "h_conted_16"
  top: "W_hc_h_16"
  param {
    name: "W_hc"
  }
  inner_product_param {
    num_output: 400
    bias_term: false
    weight_filler {
      type: "xavier"
    }
    axis: 2
  }
}
layer {
  name: "lstm2_gate_input_17"
  type: "Eltwise"
  bottom: "W_hc_h_16"
  bottom: "W_xc_x_17"
  top: "gate_input_17"
  eltwise_param {
    operation: SUM
  }
}
layer {
  name: "lstm2_unit_17"
  type: "LSTMUnit"
  bottom: "c_16"
  bottom: "gate_input_17"
  bottom: "cont_17"
  top: "c_17"
  top: "h_17"
}
layer {
  name: "lstm2_h_conted_17"
  type: "Scale"
  bottom: "h_17"
  bottom: "cont_18"
  top: "h_conted_17"
  scale_param {
    axis: 0
  }
}
layer {
  name: "lstm2_transform_18"
  type: "InnerProduct"
  bottom: "h_conted_17"
  top: "W_hc_h_17"
  param {
    name: "W_hc"
  }
  inner_product_param {
    num_output: 400
    bias_term: false
    weight_filler {
      type: "xavier"
    }
    axis: 2
  }
}
layer {
  name: "lstm2_gate_input_18"
  type: "Eltwise"
  bottom: "W_hc_h_17"
  bottom: "W_xc_x_18"
  top: "gate_input_18"
  eltwise_param {
    operation: SUM
  }
}
layer {
  name: "lstm2_unit_18"
  type: "LSTMUnit"
  bottom: "c_17"
  bottom: "gate_input_18"
  bottom: "cont_18"
  top: "c_18"
  top: "h_18"
}
layer {
  name: "lstm2_h_conted_18"
  type: "Scale"
  bottom: "h_18"
  bottom: "cont_19"
  top: "h_conted_18"
  scale_param {
    axis: 0
  }
}
layer {
  name: "lstm2_transform_19"
  type: "InnerProduct"
  bottom: "h_conted_18"
  top: "W_hc_h_18"
  param {
    name: "W_hc"
  }
  inner_product_param {
    num_output: 400
    bias_term: false
    weight_filler {
      type: "xavier"
    }
    axis: 2
  }
}
layer {
  name: "lstm2_gate_input_19"
  type: "Eltwise"
  bottom: "W_hc_h_18"
  bottom: "W_xc_x_19"
  top: "gate_input_19"
  eltwise_param {
    operation: SUM
  }
}
layer {
  name: "lstm2_unit_19"
  type: "LSTMUnit"
  bottom: "c_18"
  bottom: "gate_input_19"
  bottom: "cont_19"
  top: "c_19"
  top: "h_19"
}
layer {
  name: "lstm2_h_conted_19"
  type: "Scale"
  bottom: "h_19"
  bottom: "cont_20"
  top: "h_conted_19"
  scale_param {
    axis: 0
  }
}
layer {
  name: "lstm2_transform_20"
  type: "InnerProduct"
  bottom: "h_conted_19"
  top: "W_hc_h_19"
  param {
    name: "W_hc"
  }
  inner_product_param {
    num_output: 400
    bias_term: false
    weight_filler {
      type: "xavier"
    }
    axis: 2
  }
}
layer {
  name: "lstm2_gate_input_20"
  type: "Eltwise"
  bottom: "W_hc_h_19"
  bottom: "W_xc_x_20"
  top: "gate_input_20"
  eltwise_param {
    operation: SUM
  }
}
layer {
  name: "lstm2_unit_20"
  type: "LSTMUnit"
  bottom: "c_19"
  bottom: "gate_input_20"
  bottom: "cont_20"
  top: "c_20"
  top: "h_20"
}
layer {
  name: "lstm2_h_conted_20"
  type: "Scale"
  bottom: "h_20"
  bottom: "cont_21"
  top: "h_conted_20"
  scale_param {
    axis: 0
  }
}
layer {
  name: "lstm2_transform_21"
  type: "InnerProduct"
  bottom: "h_conted_20"
  top: "W_hc_h_20"
  param {
    name: "W_hc"
  }
  inner_product_param {
    num_output: 400
    bias_term: false
    weight_filler {
      type: "xavier"
    }
    axis: 2
  }
}
layer {
  name: "lstm2_gate_input_21"
  type: "Eltwise"
  bottom: "W_hc_h_20"
  bottom: "W_xc_x_21"
  top: "gate_input_21"
  eltwise_param {
    operation: SUM
  }
}
layer {
  name: "lstm2_unit_21"
  type: "LSTMUnit"
  bottom: "c_20"
  bottom: "gate_input_21"
  bottom: "cont_21"
  top: "c_21"
  top: "h_21"
}
layer {
  name: "lstm2_h_conted_21"
  type: "Scale"
  bottom: "h_21"
  bottom: "cont_22"
  top: "h_conted_21"
  scale_param {
    axis: 0
  }
}
layer {
  name: "lstm2_transform_22"
  type: "InnerProduct"
  bottom: "h_conted_21"
  top: "W_hc_h_21"
  param {
    name: "W_hc"
  }
  inner_product_param {
    num_output: 400
    bias_term: false
    weight_filler {
      type: "xavier"
    }
    axis: 2
  }
}
layer {
  name: "lstm2_gate_input_22"
  type: "Eltwise"
  bottom: "W_hc_h_21"
  bottom: "W_xc_x_22"
  top: "gate_input_22"
  eltwise_param {
    operation: SUM
  }
}
layer {
  name: "lstm2_unit_22"
  type: "LSTMUnit"
  bottom: "c_21"
  bottom: "gate_input_22"
  bottom: "cont_22"
  top: "c_22"
  top: "h_22"
}
layer {
  name: "lstm2_h_conted_22"
  type: "Scale"
  bottom: "h_22"
  bottom: "cont_23"
  top: "h_conted_22"
  scale_param {
    axis: 0
  }
}
layer {
  name: "lstm2_transform_23"
  type: "InnerProduct"
  bottom: "h_conted_22"
  top: "W_hc_h_22"
  param {
    name: "W_hc"
  }
  inner_product_param {
    num_output: 400
    bias_term: false
    weight_filler {
      type: "xavier"
    }
    axis: 2
  }
}
layer {
  name: "lstm2_gate_input_23"
  type: "Eltwise"
  bottom: "W_hc_h_22"
  bottom: "W_xc_x_23"
  top: "gate_input_23"
  eltwise_param {
    operation: SUM
  }
}
layer {
  name: "lstm2_unit_23"
  type: "LSTMUnit"
  bottom: "c_22"
  bottom: "gate_input_23"
  bottom: "cont_23"
  top: "c_23"
  top: "h_23"
}
layer {
  name: "lstm2_h_conted_23"
  type: "Scale"
  bottom: "h_23"
  bottom: "cont_24"
  top: "h_conted_23"
  scale_param {
    axis: 0
  }
}
layer {
  name: "lstm2_transform_24"
  type: "InnerProduct"
  bottom: "h_conted_23"
  top: "W_hc_h_23"
  param {
    name: "W_hc"
  }
  inner_product_param {
    num_output: 400
    bias_term: false
    weight_filler {
      type: "xavier"
    }
    axis: 2
  }
}
layer {
  name: "lstm2_gate_input_24"
  type: "Eltwise"
  bottom: "W_hc_h_23"
  bottom: "W_xc_x_24"
  top: "gate_input_24"
  eltwise_param {
    operation: SUM
  }
}
layer {
  name: "lstm2_unit_24"
  type: "LSTMUnit"
  bottom: "c_23"
  bottom: "gate_input_24"
  bottom: "cont_24"
  top: "c_24"
  top: "h_24"
}
layer {
  name: "lstm2_h_conted_24"
  type: "Scale"
  bottom: "h_24"
  bottom: "cont_25"
  top: "h_conted_24"
  scale_param {
    axis: 0
  }
}
layer {
  name: "lstm2_transform_25"
  type: "InnerProduct"
  bottom: "h_conted_24"
  top: "W_hc_h_24"
  param {
    name: "W_hc"
  }
  inner_product_param {
    num_output: 400
    bias_term: false
    weight_filler {
      type: "xavier"
    }
    axis: 2
  }
}
layer {
  name: "lstm2_gate_input_25"
  type: "Eltwise"
  bottom: "W_hc_h_24"
  bottom: "W_xc_x_25"
  top: "gate_input_25"
  eltwise_param {
    operation: SUM
  }
}
layer {
  name: "lstm2_unit_25"
  type: "LSTMUnit"
  bottom: "c_24"
  bottom: "gate_input_25"
  bottom: "cont_25"
  top: "c_25"
  top: "h_25"
}
layer {
  name: "lstm2_h_conted_25"
  type: "Scale"
  bottom: "h_25"
  bottom: "cont_26"
  top: "h_conted_25"
  scale_param {
    axis: 0
  }
}
layer {
  name: "lstm2_transform_26"
  type: "InnerProduct"
  bottom: "h_conted_25"
  top: "W_hc_h_25"
  param {
    name: "W_hc"
  }
  inner_product_param {
    num_output: 400
    bias_term: false
    weight_filler {
      type: "xavier"
    }
    axis: 2
  }
}
layer {
  name: "lstm2_gate_input_26"
  type: "Eltwise"
  bottom: "W_hc_h_25"
  bottom: "W_xc_x_26"
  top: "gate_input_26"
  eltwise_param {
    operation: SUM
  }
}
layer {
  name: "lstm2_unit_26"
  type: "LSTMUnit"
  bottom: "c_25"
  bottom: "gate_input_26"
  bottom: "cont_26"
  top: "c_26"
  top: "h_26"
}
layer {
  name: "lstm2_h_conted_26"
  type: "Scale"
  bottom: "h_26"
  bottom: "cont_27"
  top: "h_conted_26"
  scale_param {
    axis: 0
  }
}
layer {
  name: "lstm2_transform_27"
  type: "InnerProduct"
  bottom: "h_conted_26"
  top: "W_hc_h_26"
  param {
    name: "W_hc"
  }
  inner_product_param {
    num_output: 400
    bias_term: false
    weight_filler {
      type: "xavier"
    }
    axis: 2
  }
}
layer {
  name: "lstm2_gate_input_27"
  type: "Eltwise"
  bottom: "W_hc_h_26"
  bottom: "W_xc_x_27"
  top: "gate_input_27"
  eltwise_param {
    operation: SUM
  }
}
layer {
  name: "lstm2_unit_27"
  type: "LSTMUnit"
  bottom: "c_26"
  bottom: "gate_input_27"
  bottom: "cont_27"
  top: "c_27"
  top: "h_27"
}
layer {
  name: "lstm2_h_conted_27"
  type: "Scale"
  bottom: "h_27"
  bottom: "cont_28"
  top: "h_conted_27"
  scale_param {
    axis: 0
  }
}
layer {
  name: "lstm2_transform_28"
  type: "InnerProduct"
  bottom: "h_conted_27"
  top: "W_hc_h_27"
  param {
    name: "W_hc"
  }
  inner_product_param {
    num_output: 400
    bias_term: false
    weight_filler {
      type: "xavier"
    }
    axis: 2
  }
}
layer {
  name: "lstm2_gate_input_28"
  type: "Eltwise"
  bottom: "W_hc_h_27"
  bottom: "W_xc_x_28"
  top: "gate_input_28"
  eltwise_param {
    operation: SUM
  }
}
layer {
  name: "lstm2_unit_28"
  type: "LSTMUnit"
  bottom: "c_27"
  bottom: "gate_input_28"
  bottom: "cont_28"
  top: "c_28"
  top: "h_28"
}
layer {
  name: "lstm2_h_conted_28"
  type: "Scale"
  bottom: "h_28"
  bottom: "cont_29"
  top: "h_conted_28"
  scale_param {
    axis: 0
  }
}
layer {
  name: "lstm2_transform_29"
  type: "InnerProduct"
  bottom: "h_conted_28"
  top: "W_hc_h_28"
  param {
    name: "W_hc"
  }
  inner_product_param {
    num_output: 400
    bias_term: false
    weight_filler {
      type: "xavier"
    }
    axis: 2
  }
}
layer {
  name: "lstm2_gate_input_29"
  type: "Eltwise"
  bottom: "W_hc_h_28"
  bottom: "W_xc_x_29"
  top: "gate_input_29"
  eltwise_param {
    operation: SUM
  }
}
layer {
  name: "lstm2_unit_29"
  type: "LSTMUnit"
  bottom: "c_28"
  bottom: "gate_input_29"
  bottom: "cont_29"
  top: "c_29"
  top: "h_29"
}
layer {
  name: "lstm2_h_conted_29"
  type: "Scale"
  bottom: "h_29"
  bottom: "cont_30"
  top: "h_conted_29"
  scale_param {
    axis: 0
  }
}
layer {
  name: "lstm2_transform_30"
  type: "InnerProduct"
  bottom: "h_conted_29"
  top: "W_hc_h_29"
  param {
    name: "W_hc"
  }
  inner_product_param {
    num_output: 400
    bias_term: false
    weight_filler {
      type: "xavier"
    }
    axis: 2
  }
}
layer {
  name: "lstm2_gate_input_30"
  type: "Eltwise"
  bottom: "W_hc_h_29"
  bottom: "W_xc_x_30"
  top: "gate_input_30"
  eltwise_param {
    operation: SUM
  }
}
layer {
  name: "lstm2_unit_30"
  type: "LSTMUnit"
  bottom: "c_29"
  bottom: "gate_input_30"
  bottom: "cont_30"
  top: "c_30"
  top: "h_30"
}
layer {
  name: "lstm2_h_conted_30"
  type: "Scale"
  bottom: "h_30"
  bottom: "cont_31"
  top: "h_conted_30"
  scale_param {
    axis: 0
  }
}
layer {
  name: "lstm2_transform_31"
  type: "InnerProduct"
  bottom: "h_conted_30"
  top: "W_hc_h_30"
  param {
    name: "W_hc"
  }
  inner_product_param {
    num_output: 400
    bias_term: false
    weight_filler {
      type: "xavier"
    }
    axis: 2
  }
}
layer {
  name: "lstm2_gate_input_31"
  type: "Eltwise"
  bottom: "W_hc_h_30"
  bottom: "W_xc_x_31"
  top: "gate_input_31"
  eltwise_param {
    operation: SUM
  }
}
layer {
  name: "lstm2_unit_31"
  type: "LSTMUnit"
  bottom: "c_30"
  bottom: "gate_input_31"
  bottom: "cont_31"
  top: "c_31"
  top: "h_31"
}
layer {
  name: "lstm2_h_conted_31"
  type: "Scale"
  bottom: "h_31"
  bottom: "cont_32"
  top: "h_conted_31"
  scale_param {
    axis: 0
  }
}
layer {
  name: "lstm2_transform_32"
  type: "InnerProduct"
  bottom: "h_conted_31"
  top: "W_hc_h_31"
  param {
    name: "W_hc"
  }
  inner_product_param {
    num_output: 400
    bias_term: false
    weight_filler {
      type: "xavier"
    }
    axis: 2
  }
}
layer {
  name: "lstm2_gate_input_32"
  type: "Eltwise"
  bottom: "W_hc_h_31"
  bottom: "W_xc_x_32"
  top: "gate_input_32"
  eltwise_param {
    operation: SUM
  }
}
layer {
  name: "lstm2_unit_32"
  type: "LSTMUnit"
  bottom: "c_31"
  bottom: "gate_input_32"
  bottom: "cont_32"
  top: "c_32"
  top: "h_32"
}
layer {
  name: "lstm2_h_conted_32"
  type: "Scale"
  bottom: "h_32"
  bottom: "cont_33"
  top: "h_conted_32"
  scale_param {
    axis: 0
  }
}
layer {
  name: "lstm2_transform_33"
  type: "InnerProduct"
  bottom: "h_conted_32"
  top: "W_hc_h_32"
  param {
    name: "W_hc"
  }
  inner_product_param {
    num_output: 400
    bias_term: false
    weight_filler {
      type: "xavier"
    }
    axis: 2
  }
}
layer {
  name: "lstm2_gate_input_33"
  type: "Eltwise"
  bottom: "W_hc_h_32"
  bottom: "W_xc_x_33"
  top: "gate_input_33"
  eltwise_param {
    operation: SUM
  }
}
layer {
  name: "lstm2_unit_33"
  type: "LSTMUnit"
  bottom: "c_32"
  bottom: "gate_input_33"
  bottom: "cont_33"
  top: "c_33"
  top: "h_33"
}
layer {
  name: "lstm2_h_conted_33"
  type: "Scale"
  bottom: "h_33"
  bottom: "cont_34"
  top: "h_conted_33"
  scale_param {
    axis: 0
  }
}
layer {
  name: "lstm2_transform_34"
  type: "InnerProduct"
  bottom: "h_conted_33"
  top: "W_hc_h_33"
  param {
    name: "W_hc"
  }
  inner_product_param {
    num_output: 400
    bias_term: false
    weight_filler {
      type: "xavier"
    }
    axis: 2
  }
}
layer {
  name: "lstm2_gate_input_34"
  type: "Eltwise"
  bottom: "W_hc_h_33"
  bottom: "W_xc_x_34"
  top: "gate_input_34"
  eltwise_param {
    operation: SUM
  }
}
layer {
  name: "lstm2_unit_34"
  type: "LSTMUnit"
  bottom: "c_33"
  bottom: "gate_input_34"
  bottom: "cont_34"
  top: "c_34"
  top: "h_34"
}
layer {
  name: "lstm2_h_conted_34"
  type: "Scale"
  bottom: "h_34"
  bottom: "cont_35"
  top: "h_conted_34"
  scale_param {
    axis: 0
  }
}
layer {
  name: "lstm2_transform_35"
  type: "InnerProduct"
  bottom: "h_conted_34"
  top: "W_hc_h_34"
  param {
    name: "W_hc"
  }
  inner_product_param {
    num_output: 400
    bias_term: false
    weight_filler {
      type: "xavier"
    }
    axis: 2
  }
}
layer {
  name: "lstm2_gate_input_35"
  type: "Eltwise"
  bottom: "W_hc_h_34"
  bottom: "W_xc_x_35"
  top: "gate_input_35"
  eltwise_param {
    operation: SUM
  }
}
layer {
  name: "lstm2_unit_35"
  type: "LSTMUnit"
  bottom: "c_34"
  bottom: "gate_input_35"
  bottom: "cont_35"
  top: "c_35"
  top: "h_35"
}
layer {
  name: "lstm2_h_conted_35"
  type: "Scale"
  bottom: "h_35"
  bottom: "cont_36"
  top: "h_conted_35"
  scale_param {
    axis: 0
  }
}
layer {
  name: "lstm2_transform_36"
  type: "InnerProduct"
  bottom: "h_conted_35"
  top: "W_hc_h_35"
  param {
    name: "W_hc"
  }
  inner_product_param {
    num_output: 400
    bias_term: false
    weight_filler {
      type: "xavier"
    }
    axis: 2
  }
}
layer {
  name: "lstm2_gate_input_36"
  type: "Eltwise"
  bottom: "W_hc_h_35"
  bottom: "W_xc_x_36"
  top: "gate_input_36"
  eltwise_param {
    operation: SUM
  }
}
layer {
  name: "lstm2_unit_36"
  type: "LSTMUnit"
  bottom: "c_35"
  bottom: "gate_input_36"
  bottom: "cont_36"
  top: "c_36"
  top: "h_36"
}
layer {
  name: "lstm2_h_conted_36"
  type: "Scale"
  bottom: "h_36"
  bottom: "cont_37"
  top: "h_conted_36"
  scale_param {
    axis: 0
  }
}
layer {
  name: "lstm2_transform_37"
  type: "InnerProduct"
  bottom: "h_conted_36"
  top: "W_hc_h_36"
  param {
    name: "W_hc"
  }
  inner_product_param {
    num_output: 400
    bias_term: false
    weight_filler {
      type: "xavier"
    }
   
I0420 16:55:52.599597 25592 layer_factory.hpp:77] Creating layer lstm2_
I0420 16:55:52.599606 25592 net.cpp:86] Creating Layer lstm2_
I0420 16:55:52.599609 25592 net.cpp:382] lstm2_ -> x
I0420 16:55:52.599614 25592 net.cpp:382] lstm2_ -> cont
I0420 16:55:52.599661 25592 net.cpp:124] Setting up lstm2_
I0420 16:55:52.599664 25592 net.cpp:131] Top shape: 80 512 100 (4096000)
I0420 16:55:52.599668 25592 net.cpp:131] Top shape: 80 512 (40960)
I0420 16:55:52.599669 25592 net.cpp:139] Memory required for data: 16547840
I0420 16:55:52.599673 25592 layer_factory.hpp:77] Creating layer lstm2_
I0420 16:55:52.599675 25592 net.cpp:86] Creating Layer lstm2_
I0420 16:55:52.599678 25592 net.cpp:382] lstm2_ -> c_0
I0420 16:55:52.599683 25592 net.cpp:382] lstm2_ -> h_0
I0420 16:55:52.599707 25592 net.cpp:124] Setting up lstm2_
I0420 16:55:52.599709 25592 net.cpp:131] Top shape: 1 512 100 (51200)
I0420 16:55:52.599712 25592 net.cpp:131] Top shape: 1 512 100 (51200)
I0420 16:55:52.599714 25592 net.cpp:139] Memory required for data: 16957440
I0420 16:55:52.599717 25592 layer_factory.hpp:77] Creating layer lstm2_cont_slice
I0420 16:55:52.599723 25592 net.cpp:86] Creating Layer lstm2_cont_slice
I0420 16:55:52.599725 25592 net.cpp:408] lstm2_cont_slice <- cont
I0420 16:55:52.599731 25592 net.cpp:382] lstm2_cont_slice -> cont_1
I0420 16:55:52.599737 25592 net.cpp:382] lstm2_cont_slice -> cont_2
…
