…
I0505 14:40:01.331372 26812 net.cpp:53] Initializing net from parameters: 
name: "vehicle_captcha_train"
state {
  phase: TRAIN
  level: 0
  stage: ""
}
layer {
  name: "data"
  type: "Python"
  top: "data"
  top: "label"
  python_param {
    module: "pythonLayer"
    layer: "WarpctcDataLayer"
    param_str: "{\'width\': 80, \'label_txt\': \'data/captcha/trainval.txt\', \'train\': True, \'batch_size\': 512, \'height\': 30}"
  }
}
layer {
  name: "indicator"
  type: "ContinuationIndicator"
  top: "indicator"
  continuation_indicator_param {
    time_step: 80
    batch_size: 512
  }
}
layer {
  name: "permuted_data"
  type: "Permute"
  bottom: "data"
  top: "permuted_data"
  permute_param {
    order: 3
    order: 0
    order: 1
    order: 2
  }
}
layer {
  name: "lstm1"
  type: "LSTM"
  bottom: "permuted_data"
  bottom: "indicator"
  top: "lstm1"
  recurrent_param {
    num_output: 100
    weight_filler {
      type: "xavier"
    }
    bias_filler {
      type: "constant"
      value: 0
    }
  }
}
layer {
  name: "lstm2"
  type: "LSTM"
  bottom: "lstm1"
  bottom: "indicator"
  top: "lstm2"
  recurrent_param {
    num_output: 100
    weight_filler {
      type: "xavier"
    }
    bias_filler {
      type: "constant"
      value: 0
    }
  }
}
layer {
  name: "fc1"
  type: "InnerProduct"
  bottom: "lstm2"
  top: "fc1"
  param {
    lr_mult: 1
    decay_mult: 1
  }
  param {
    lr_mult: 2
    decay_mult: 0
  }
  inner_product_param {
    num_output: 11
    weight_filler {
      type: "xavier"
    }
    bias_filler {
      type: "constant"
      value: 0
    }
    axis: 2
  }
}
layer {
  name: "ctc_loss"
  type: "CtcLoss"
  bottom: "fc1"
  bottom: "label"
  top: "ctc_loss"
  loss_weight: 1
  ctc_loss_param {
    alphabet_size: 11
    time_step: 80
    blank_label: 10
  }
}
I0505 14:40:01.331496 26812 layer_factory.hpp:77] Creating layer data
I0505 14:40:01.875754 26812 net.cpp:86] Creating Layer data
I0505 14:40:01.875782 26812 net.cpp:382] data -> data
I0505 14:40:01.875804 26812 net.cpp:382] data -> label
I0505 14:40:01.912732 26812 net.cpp:124] Setting up data
I0505 14:40:01.912756 26812 net.cpp:131] Top shape: 512 3 30 80 (3686400)
I0505 14:40:01.912765 26812 net.cpp:131] Top shape: 512 5 (2560)
I0505 14:40:01.912767 26812 net.cpp:139] Memory required for data: 14755840
I0505 14:40:01.912778 26812 layer_factory.hpp:77] Creating layer indicator
I0505 14:40:01.912796 26812 net.cpp:86] Creating Layer indicator
I0505 14:40:01.912801 26812 net.cpp:382] indicator -> indicator
I0505 14:40:01.912847 26812 net.cpp:124] Setting up indicator
I0505 14:40:01.912853 26812 net.cpp:131] Top shape: 80 512 (40960)
I0505 14:40:01.912858 26812 net.cpp:139] Memory required for data: 14919680
I0505 14:40:01.912863 26812 layer_factory.hpp:77] Creating layer indicator_indicator_0_split
I0505 14:40:01.912873 26812 net.cpp:86] Creating Layer indicator_indicator_0_split
I0505 14:40:01.912881 26812 net.cpp:408] indicator_indicator_0_split <- indicator
I0505 14:40:01.912896 26812 net.cpp:382] indicator_indicator_0_split -> indicator_indicator_0_split_0
I0505 14:40:01.912907 26812 net.cpp:382] indicator_indicator_0_split -> indicator_indicator_0_split_1
I0505 14:40:01.912948 26812 net.cpp:124] Setting up indicator_indicator_0_split
I0505 14:40:01.912955 26812 net.cpp:131] Top shape: 80 512 (40960)
I0505 14:40:01.912958 26812 net.cpp:131] Top shape: 80 512 (40960)
I0505 14:40:01.912962 26812 net.cpp:139] Memory required for data: 15247360
I0505 14:40:01.912994 26812 layer_factory.hpp:77] Creating layer permuted_data
I0505 14:40:01.913005 26812 net.cpp:86] Creating Layer permuted_data
I0505 14:40:01.913010 26812 net.cpp:408] permuted_data <- data
I0505 14:40:01.913015 26812 net.cpp:382] permuted_data -> permuted_data
I0505 14:40:01.913116 26812 net.cpp:124] Setting up permuted_data
I0505 14:40:01.913123 26812 net.cpp:131] Top shape: 80 512 3 30 (3686400)
I0505 14:40:01.913128 26812 net.cpp:139] Memory required for data: 29992960
I0505 14:40:01.913131 26812 layer_factory.hpp:77] Creating layer lstm1
I0505 14:40:01.913141 26812 net.cpp:86] Creating Layer lstm1
I0505 14:40:01.913144 26812 net.cpp:408] lstm1 <- permuted_data
I0505 14:40:01.913148 26812 net.cpp:408] lstm1 <- indicator_indicator_0_split_0
I0505 14:40:01.913154 26812 net.cpp:382] lstm1 -> lstm1
I0505 14:40:01.913168 26812 recurrent_layer.cpp:20] Initializing recurrent layer: assuming input batch contains 80 timesteps of 512 independent streams.
I0505 14:40:01.913852 26812 net.cpp:53] Initializing net from parameters: 
layer {
  name: "lstm1_"
  type: "Input"
  top: "x"
  top: "cont"
  input_param {
    shape {
      dim: 80
      dim: 512
      dim: 3
      dim: 30
    }
    shape {
      dim: 80
      dim: 512
    }
  }
}
layer {
  name: "lstm1_"
  type: "Input"
  top: "c_0"
  top: "h_0"
  input_param {
    shape {
      dim: 1
      dim: 512
      dim: 100
    }
    shape {
      dim: 1
      dim: 512
      dim: 100
    }
  }
}
layer {
  name: "lstm1_cont_slice"
  type: "Slice"
  bottom: "cont"
  top: "cont_1"
  top: "cont_2"
  top: "cont_3"
  top: "cont_4"
  top: "cont_5"
  top: "cont_6"
  top: "cont_7"
  top: "cont_8"
  top: "cont_9"
  top: "cont_10"
  top: "cont_11"
  top: "cont_12"
  top: "cont_13"
  top: "cont_14"
  top: "cont_15"
  top: "cont_16"
  top: "cont_17"
  top: "cont_18"
  top: "cont_19"
  top: "cont_20"
  top: "cont_21"
  top: "cont_22"
  top: "cont_23"
  top: "cont_24"
  top: "cont_25"
  top: "cont_26"
  top: "cont_27"
  top: "cont_28"
  top: "cont_29"
  top: "cont_30"
  top: "cont_31"
  top: "cont_32"
  top: "cont_33"
  top: "cont_34"
  top: "cont_35"
  top: "cont_36"
  top: "cont_37"
  top: "cont_38"
  top: "cont_39"
  top: "cont_40"
  top: "cont_41"
  top: "cont_42"
  top: "cont_43"
  top: "cont_44"
  top: "cont_45"
  top: "cont_46"
  top: "cont_47"
  top: "cont_48"
  top: "cont_49"
  top: "cont_50"
  top: "cont_51"
  top: "cont_52"
  top: "cont_53"
  top: "cont_54"
  top: "cont_55"
  top: "cont_56"
  top: "cont_57"
  top: "cont_58"
  top: "cont_59"
  top: "cont_60"
  top: "cont_61"
  top: "cont_62"
  top: "cont_63"
  top: "cont_64"
  top: "cont_65"
  top: "cont_66"
  top: "cont_67"
  top: "cont_68"
  top: "cont_69"
  top: "cont_70"
  top: "cont_71"
  top: "cont_72"
  top: "cont_73"
  top: "cont_74"
  top: "cont_75"
  top: "cont_76"
  top: "cont_77"
  top: "cont_78"
  top: "cont_79"
  top: "cont_80"
  slice_param {
    axis: 0
  }
}
layer {
  name: "lstm1_x_transform"
  type: "InnerProduct"
  bottom: "x"
  top: "W_xc_x"
  param {
    name: "W_xc"
  }
  param {
    name: "b_c"
  }
  propagate_down: true
  inner_product_param {
    num_output: 400
    bias_term: true
    weight_filler {
      type: "xavier"
    }
    bias_filler {
      type: "constant"
      value: 0
    }
    axis: 2
  }
}
layer {
  name: "lstm1_W_xc_x_slice"
  type: "Slice"
  bottom: "W_xc_x"
  top: "W_xc_x_1"
  top: "W_xc_x_2"
  top: "W_xc_x_3"
  top: "W_xc_x_4"
  top: "W_xc_x_5"
  top: "W_xc_x_6"
  top: "W_xc_x_7"
  top: "W_xc_x_8"
  top: "W_xc_x_9"
  top: "W_xc_x_10"
  top: "W_xc_x_11"
  top: "W_xc_x_12"
  top: "W_xc_x_13"
  top: "W_xc_x_14"
  top: "W_xc_x_15"
  top: "W_xc_x_16"
  top: "W_xc_x_17"
  top: "W_xc_x_18"
  top: "W_xc_x_19"
  top: "W_xc_x_20"
  top: "W_xc_x_21"
  top: "W_xc_x_22"
…
  top: "W_xc_x_53"
  top: "W_xc_x_54"
  top: "W_xc_x_55"
  top: "W_xc_x_56"
  top: "W_xc_x_57"
  top: "W_xc_x_58"
  top: "W_xc_x_59"
  top: "W_xc_x_60"
  top: "W_xc_x_61"
  top: "W_xc_x_62"
  top: "W_xc_x_63"
  top: "W_xc_x_64"
  top: "W_xc_x_65"
  top: "W_xc_x_66"
  top: "W_xc_x_67"
  top: "W_xc_x_68"
  top: "W_xc_x_69"
  top: "W_xc_x_70"
  top: "W_xc_x_71"
  top: "W_xc_x_72"
  top: "W_xc_x_73"
  top: "W_xc_x_74"
  top: "W_xc_x_75"
  top: "W_xc_x_76"
  top: "W_xc_x_77"
  top: "W_xc_x_78"
  top: "W_xc_x_79"
  top: "W_xc_x_80"
  slice_param {
    axis: 0
  }
}
layer {
  name: "lstm1_h_conted_0"
  type: "Scale"
  bottom: "h_0"
  bottom: "cont_1"
  top: "h_conted_0"
  scale_param {
    axis: 0
  }
}
layer {
  name: "lstm1_transform_1"
  type: "InnerProduct"
  bottom: "h_conted_0"
  top: "W_hc_h_0"
  param {
    name: "W_hc"
  }
  inner_product_param {
    num_output: 400
    bias_term: false
    weight_filler {
      type: "xavier"
    }
    axis: 2
  }
}
layer {
  name: "lstm1_gate_input_1"
  type: "Eltwise"
  bottom: "W_hc_h_0"
  bottom: "W_xc_x_1"
  top: "gate_input_1"
  eltwise_param {
    operation: SUM
  }
}
layer {
  name: "lstm1_unit_1"
  type: "LSTMUnit"
  bottom: "c_0"
  bottom: "gate_input_1"
  bottom: "cont_1"
  top: "c_1"
  top: "h_1"
}
layer {
  name: "lstm1_h_conted_1"
  type: "Scale"
  bottom: "h_1"
  bottom: "cont_2"
  top: "h_conted_1"
  scale_param {
    axis: 0
  }
}
layer {
  name: "lstm1_transform_2"
  type: "InnerProduct"
  bottom: "h_conted_1"
  top: "W_hc_h_1"
  param {
    name: "W_hc"
  }
  inner_product_param {
    num_output: 400
    bias_term: false
    weight_filler {
      type: "xavier"
    }
    axis: 2
  }
}
layer {
  name: "lstm1_gate_input_2"
  type: "Eltwise"
  bottom: "W_hc_h_1"
  bottom: "W_xc_x_2"
  top: "gate_input_2"
  eltwise_param {
    operation: SUM
  }
}
layer {
  name: "lstm1_unit_2"
  type: "LSTMUnit"
  bottom: "c_1"
  bottom: "gate_input_2"
  bottom: "cont_2"
  top: "c_2"
  top: "h_2"
}
layer {
  name: "lstm1_h_conted_2"
  type: "Scale"
  bottom: "h_2"
  bottom: "cont_3"
  top: "h_conted_2"
  scale_param {
    axis: 0
  }
}
layer {
  name: "lstm1_transform_3"
  type: "InnerProduct"
  bottom: "h_conted_2"
  top: "W_hc_h_2"
  param {
    name: "W_hc"
  }
  inner_product_param {
    num_output: 400
    bias_term: false
    weight_filler {
      type: "xavier"
    }
    axis: 2
  }
}
layer {
  name: "lstm1_gate_input_3"
  type: "Eltwise"
  bottom: "W_hc_h_2"
  bottom: "W_xc_x_3"
  top: "gate_input_3"
  eltwise_param {
    operation: SUM
  }
}
layer {
  name: "lstm1_unit_3"
  type: "LSTMUnit"
  bottom: "c_2"
  bottom: "gate_input_3"
  bottom: "cont_3"
  top: "c_3"
  top: "h_3"
}
layer {
  name: "lstm1_h_conted_3"
  type: "Scale"
  bottom: "h_3"
  bottom: "cont_4"
  top: "h_conted_3"
  scale_param {
    axis: 0
  }
}
layer {
  name: "lstm1_transform_4"
  type: "InnerProduct"
  bottom: "h_conted_3"
  top: "W_hc_h_3"
  param {
    name: "W_hc"
  }
  inner_product_param {
    num_output: 400
    bias_term: false
    weight_filler {
      type: "xavier"
    }
    axis: 2
  }
}
layer {
  name: "lstm1_gate_input_4"
  type: "Eltwise"
  bottom: "W_hc_h_3"
  bottom: "W_xc_x_4"
  top: "gate_input_4"
  eltwise_param {
    operation: SUM
  }
}
layer {
  name: "lstm1_unit_4"
  type: "LSTMUnit"
  bottom: "c_3"
  bottom: "gate_input_4"
  bottom: "cont_4"
  top: "c_4"
  top: "h_4"
}
layer {
  name: "lstm1_h_conted_4"
  type: "Scale"
  bottom: "h_4"
  bottom: "cont_5"
  top: "h_conted_4"
  scale_param {
    axis: 0
  }
}
layer {
  name: "lstm1_transform_5"
  type: "InnerProduct"
  bottom: "h_conted_4"
  top: "W_hc_h_4"
  param {
    name: "W_hc"
  }
  inner_product_param {
    num_output: 400
    bias_term: false
    weight_filler {
      type: "xavier"
    }
    axis: 2
  }
}
layer {
  name: "lstm1_gate_input_5"
  type: "Eltwise"
  bottom: "W_hc_h_4"
  bottom: "W_xc_x_5"
  top: "gate_input_5"
  eltwise_param {
    operation: SUM
  }
}
layer {
  name: "lstm1_unit_5"
  type: "LSTMUnit"
  bottom: "c_4"
  bottom: "gate_input_5"
  bottom: "cont_5"
  top: "c_5"
  top: "h_5"
}
layer {
  name: "lstm1_h_conted_5"
  type: "Scale"
  bottom: "h_5"
  bottom: "cont_6"
  top: "h_conted_5"
  scale_param {
    axis: 0
  }
}
layer {
  name: "lstm1_transform_6"
  type: "InnerProduct"
  bottom: "h_conted_5"
  top: "W_hc_h_5"
  param {
    name: "W_hc"
  }
  inner_product_param {
    num_output: 400
    bias_term: false
    weight_filler {
      type: "xavier"
    }
    axis: 2
  }
}
layer {
  name: "lstm1_gate_input_6"
  type: "Eltwise"
  bottom: "W_hc_h_5"
  bottom: "W_xc_x_6"
  top: "gate_input_6"
  eltwise_param {
    operation: SUM
  }
}
layer {
  name: "lstm1_unit_6"
  type: "LSTMUnit"
  bottom: "c_5"
  bottom: "gate_input_6"
  bottom: "cont_6"
  top: "c_6"
  top: "h_6"
}
layer {
  name: "lstm1_h_conted_6"
  type: "Scale"
  bottom: "h_6"
  bottom: "cont_7"
  top: "h_conted_6"
  scale_param {
    axis: 0
  }
}
layer {
  name: "lstm1_transform_7"
  type: "InnerProduct"
  bottom: "h_conted_6"
  top: "W_hc_h_6"
  param {
    name: "W_hc"
  }
  inner_product_param {
    num_output: 400
    bias_term: false
    weight_filler {
      type: "xavier"
    }
    axis: 2
  }
}
layer {
  name: "lstm1_gate_input_7"
  type: "Eltwise"
  bottom: "W_hc_h_6"
  bottom: "W_xc_x_7"
  top: "gate_input_7"
  eltwise_param {
    operation: SUM
  }
}
layer {
  name: "lstm1_unit_7"
  type: "LSTMUnit"
  bottom: "c_6"
  bottom: "gate_input_7"
  bottom: "cont_7"
  top: "c_7"
  top: "h_7"
}
layer {
  name: "lstm1_h_conted_7"
  type: "Scale"
  bottom: "h_7"
  bottom: "cont_8"
  top: "h_conted_7"
  scale_param {
    axis: 0
  }
}
layer {
  name: "lstm1_transform_8"
  type: "InnerProduct"
  bottom: "h_conted_7"
  top: "W_hc_h_7"
  param {
    name: "W_hc"
  }
  inner_product_param {
    num_output: 400
    bias_term: false
    weight_filler {
      type: "xavier"
    }
    axis: 2
  }
}
layer {
  name: "lstm1_gate_input_8"
  type: "Eltwise"
  bottom: "W_hc_h_7"
  bottom: "W_xc_x_8"
  top: "gate_input_8"
  eltwise_param {
    operation: SUM
  }
}
layer {
  name: "lstm1_unit_8"
  type: "LSTMUnit"
  bottom: "c_7"
  bottom: "gate_input_8"
  bottom: "cont_8"
  top: "c_8"
  top: "h_8"
}
layer {
  name: "lstm1_h_conted_8"
  type: "Scale"
  bottom: "h_8"
  bottom: "cont_9"
  top: "h_conted_8"
  scale_param {
    axis: 0
  }
}
layer {
  name: "lstm1_transform_9"
  type: "InnerProduct"
  bottom: "h_conted_8"
  top: "W_hc_h_8"
  param {
    name: "W_hc"
  }
  inner_product_param {
    num_output: 400
    bias_term: false
    weight_filler {
      type: "xavier"
    }
    axis: 2
  }
}
layer {
  name: "lstm1_gate_input_9"
  type: "Eltwise"
  bottom: "W_hc_h_8"
  bottom: "W_xc_x_9"
  top: "gate_input_9"
  eltwise_param {
    operation: SUM
  }
}
layer {
  name: "lstm1_unit_9"
  type: "LSTMUnit"
  bottom: "c_8"
  bottom: "gate_input_9"
  bottom: "cont_9"
  top: "c_9"
  top: "h_9"
}
layer {
  name: "lstm1_h_conted_9"
  type: "Scale"
  bottom: "h_9"
  bottom: "cont_10"
  top: "h_conted_9"
  scale_param {
    axis: 0
  }
}
layer {
  name: "lstm1_transform_10"
  type: "InnerProduct"
  bottom: "h_conted_9"
  top: "W_hc_h_9"
  param {
    name: "W_hc"
  }
  inner_product_param {
    num_output: 400
    bias_term: false
    weight_filler {
      type: "xavier"
    }
    axis: 2
  }
}
layer {
  name: "lstm1_gate_input_10"
  type: "Eltwise"
  bottom: "W_hc_h_9"
  bottom: "W_xc_x_10"
  top: "gate_input_10"
  eltwise_param {
    operation: SUM
  }
}
layer {
  name: "lstm1_unit_10"
  type: "LSTMUnit"
  bottom: "c_9"
  bottom: "gate_input_10"
  bottom: "cont_10"
  top: "c_10"
  top: "h_10"
}
layer {
  name: "lstm1_h_conted_10"
  type: "Scale"
  bottom: "h_10"
  bottom: "cont_11"
  top: "h_conted_10"
  scale_param {
    axis: 0
  }
}
layer {
  name: "lstm1_transform_11"
  type: "InnerProduct"
  bottom: "h_conted_10"
  top: "W_hc_h_10"
  param {
    name: "W_hc"
  }
  inner_product_param {
    num_output: 400
    bias_term: false
    weight_filler {
      type: "xavier"
    }
    axis: 2
  }
}
layer {
  name: "lstm1_gate_input_11"
  type: "Eltwise"
  bottom: "W_hc_h_10"
  bottom: "W_xc_x_11"
  top: "gate_input_11"
  eltwise_param {
    operation: SUM
  }
}
layer {
  name: "lstm1_unit_11"
  type: "LSTMUnit"
  bottom: "c_10"
  bottom: "gate_input_11"
  bottom: "cont_11"
  top: "c_11"
  top: "h_11"
}
layer {
  name: "lstm1_h_conted_11"
  type: "Scale"
  bottom: "h_11"
  bottom: "cont_12"
  top: "h_conted_11"
  scale_param {
    axis: 0
  }
}
layer {
  name: "lstm1_transform_12"
  type: "InnerProduct"
  bottom: "h_conted_11"
  top: "W_hc_h_11"
  param {
    name: "W_hc"
  }
  inner_product_param {
    num_output: 400
    bias_term: false
    weight_filler {
      type: "xavier"
    }
    axis: 2
  }
}
layer {
  name: "lstm1_gate_input_12"
  type: "Eltwise"
  bottom: "W_hc_h_11"
  bottom: "W_xc_x_12"
  top: "gate_input_12"
  eltwise_param {
    operation: SUM
  }
}
layer {
  name: "lstm1_unit_12"
  type: "LSTMUnit"
  bottom: "c_11"
  bottom: "gate_input_12"
  bottom: "cont_12"
  top: "c_12"
  top: "h_12"
}
layer {
  name: "lstm1_h_conted_12"
  type: "Scale"
  bottom: "h_12"
  bottom: "cont_13"
  top: "h_conted_12"
  scale_param {
    axis: 0
  }
}
layer {
  name: "lstm1_transform_13"
  type: "InnerProduct"
  bottom: "h_conted_12"
  top: "W_hc_h_12"
  param {
    name: "W_hc"
  }
  inner_product_param {
    num_output: 400
    bias_term: false
    weight_filler {
      type: "xavier"
    }
    axis: 2
  }
}
layer {
  name: "lstm1_gate_input_13"
  type: "Eltwise"
  bottom: "W_hc_h_12"
  bottom: "W_xc_x_13"
  top: "gate_input_13"
  eltwise_param {
    operation: SUM
  }
}
layer {
  name: "lstm1_unit_13"
  type: "LSTMUnit"
  bottom: "c_12"
  bottom: "gate_input_13"
  bottom: "cont_13"
  top: "c_13"
  top: "h_13"
}
layer {
  name: "lstm1_h_conted_13"
  type: "Scale"
  bottom: "h_13"
  bottom: "cont_14"
  top: "h_conted_13"
  scale_param {
    axis: 0
  }
}
layer {
  name: "lstm1_transform_14"
  type: "InnerProduct"
  bottom: "h_conted_13"
  top: "W_hc_h_13"
  param {
    name: "W_hc"
  }
  inner_product_param {
    num_output: 400
    bias_term: false
    weight_filler {
      type: "xavier"
    }
    axis: 2
  }
}
layer {
  name: "lstm1_gate_input_14"
  type: "Eltwise"
  bottom: "W_hc_h_13"
  bottom: "W_xc_x_14"
  top: "gate_input_14"
  eltwise_param {
    operation: SUM
  }
}
layer {
  name: "lstm1_unit_14"
  type: "LSTMUnit"
  bottom: "c_13"
  bottom: "gate_input_14"
  bottom: "cont_14"
  top: "c_14"
  top: "h_14"
}
layer {
  name: "lstm1_h_conted_14"
  type: "Scale"
  bottom: "h_14"
  bottom: "cont_15"
  top: "h_conted_14"
  scale_param {
    axis: 0
  }
}
layer {
  name: "lstm1_transform_15"
  type: "InnerProduct"
  bottom: "h_conted_14"
  top: "W_hc_h_14"
  param {
    name: "W_hc"
  }
  inner_product_param {
    num_output: 400
    bias_term: false
    weight_filler {
      type: "xavier"
    }
    axis: 2
  }
}
layer {
  name: "lstm1_gate_input_15"
  type: "Eltwise"
  bottom: "W_hc_h_14"
  bottom: "W_xc_x_15"
  top: "gate_input_15"
  eltwise_param {
    operation: SUM
  }
}
layer {
  name: "lstm1_unit_15"
  type: "LSTMUnit"
  bottom: "c_14"
  bottom: "gate_input_15"
  bottom: "cont_15"
  top: "c_15"
  top: "h_15"
}
layer {
  name: "lstm1_h_conted_15"
  type: "Scale"
  bottom: "h_15"
  bottom: "cont_16"
  top: "h_conted_15"
  scale_param {
    axis: 0
  }
}
layer {
  name: "lstm1_transform_16"
  type: "InnerProduct"
  bottom: "h_conted_15"
  top: "W_hc_h_15"
  param {
    name: "W_hc"
  }
  inner_product_param {
    num_output: 400
    bias_term: false
    weight_filler {
      type: "xavier"
    }
    axis: 2
  }
}
layer {
  name: "lstm1_gate_input_16"
  type: "Eltwise"
  bottom: "W_hc_h_15"
  bottom: "W_xc_x_16"
  top: "gate_input_16"
  eltwise_param {
    operation: SUM
  }
}
layer {
  name: "lstm1_unit_16"
  type: "LSTMUnit"
  bottom: "c_15"
  bottom: "gate_input_16"
  bottom: "cont_16"
  top: "c_16"
  top: "h_16"
}
layer {
  name: "lstm1_h_conted_16"
  type: "Scale"
  bottom: "h_16"
  bottom: "cont_17"
  top: "h_conted_16"
  scale_param {
    axis: 0
  }
}
layer {
  name: "lstm1_transform_17"
  type: "InnerProduct"
  bottom: "h_conted_16"
  top: "W_hc_h_16"
  param {
    name: "W_hc"
  }
  inner_product_param {
    num_output: 400
    bias_term: false
    weight_filler {
      type: "xavier"
    }
    axis: 2
  }
}
layer {
  name: "lstm1_gate_input_17"
  type: "Eltwise"
  bottom: "W_hc_h_16"
  bottom: "W_xc_x_17"
  top: "gate_input_17"
  eltwise_param {
    operation: SUM
  }
}
layer {
  name: "lstm1_unit_17"
  type: "LSTMUnit"
  bottom: "c_16"
  bottom: "gate_input_17"
  bottom: "cont_17"
  top: "c_17"
  top: "h_17"
}
layer {
  name: "lstm1_h_conted_17"
  type: "Scale"
  bottom: "h_17"
  bottom: "cont_18"
  top: "h_conted_17"
  scale_param {
    axis: 0
  }
}
layer {
  name: "lstm1_transform_18"
  type: "InnerProduct"
  bottom: "h_conted_17"
  top: "W_hc_h_17"
  param {
    name: "W_hc"
  }
  inner_product_param {
    num_output: 400
    bias_term: false
    weight_filler {
      type: "xavier"
    }
    axis: 2
  }
}
layer {
  name: "lstm1_gate_input_18"
  type: "Eltwise"
  bottom: "W_hc_h_17"
  bottom: "W_xc_x_18"
  top: "gate_input_18"
  eltwise_param {
    operation: SUM
  }
}
layer {
  name: "lstm1_unit_18"
  type: "LSTMUnit"
  bottom: "c_17"
  bottom: "gate_input_18"
  bottom: "cont_18"
  top: "c_18"
  top: "h_18"
}
layer {
  name: "lstm1_h_conted_18"
  type: "Scale"
  bottom: "h_18"
  bottom: "cont_19"
  top: "h_conted_18"
  scale_param {
    axis: 0
  }
}
layer {
  name: "lstm1_transform_19"
  type: "InnerProduct"
  bottom: "h_conted_18"
  top: "W_hc_h_18"
  param {
    name: "W_hc"
  }
  inner_product_param {
    num_output: 400
    bias_term: false
    weight_filler {
      type: "xavier"
    }
    axis: 2
  }
}
layer {
  name: "lstm1_gate_input_19"
  type: "Eltwise"
  bottom: "W_hc_h_18"
  bottom: "W_xc_x_19"
  top: "gate_input_19"
  eltwise_param {
    operation: SUM
  }
}
layer {
  name: "lstm1_unit_19"
  type: "LSTMUnit"
  bottom: "c_18"
  bottom: "gate_input_19"
  bottom: "cont_19"
  top: "c_19"
  top: "h_19"
}
layer {
  name: "lstm1_h_conted_19"
  type: "Scale"
  bottom: "h_19"
  bottom: "cont_20"
  top: "h_conted_19"
  scale_param {
    axis: 0
  }
}
layer {
  name: "lstm1_transform_20"
  type: "InnerProduct"
  bottom: "h_conted_19"
  top: "W_hc_h_19"
  param {
    name: "W_hc"
  }
  inner_product_param {
    num_output: 400
    bias_term: false
    weight_filler {
      type: "xavier"
    }
    axis: 2
  }
}
layer {
  name: "lstm1_gate_input_20"
  type: "Eltwise"
  bottom: "W_hc_h_19"
  bottom: "W_xc_x_20"
  top: "gate_input_20"
  eltwise_param {
    operation: SUM
  }
}
layer {
  name: "lstm1_unit_20"
  type: "LSTMUnit"
  bottom: "c_19"
  bottom: "gate_input_20"
  bottom: "cont_20"
  top: "c_20"
  top: "h_20"
}
layer {
  name: "lstm1_h_conted_20"
  type: "Scale"
  bottom: "h_20"
  bottom: "cont_21"
  top: "h_conted_20"
  scale_param {
    axis: 0
  }
}
layer {
  name: "lstm1_transform_21"
  type: "InnerProduct"
  bottom: "h_conted_20"
  top: "W_hc_h_20"
  param {
    name: "W_hc"
  }
  inner_product_param {
    num_output: 400
    bias_term: false
    weight_filler {
      type: "xavier"
    }
    axis: 2
  }
}
layer {
  name: "lstm1_gate_input_21"
  type: "Eltwise"
  bottom: "W_hc_h_20"
  bottom: "W_xc_x_21"
  top: "gate_input_21"
  eltwise_param {
    operation: SUM
  }
}
layer {
  name: "lstm1_unit_21"
  type: "LSTMUnit"
  bottom: "c_20"
  bottom: "gate_input_21"
  bottom: "cont_21"
  top: "c_21"
  top: "h_21"
}
layer {
  name: "lstm1_h_conted_21"
  type: "Scale"
  bottom: "h_21"
  bottom: "cont_22"
  top: "h_conted_21"
  scale_param {
    axis: 0
  }
}
layer {
  name: "lstm1_transform_22"
  type: "InnerProduct"
  bottom: "h_conted_21"
  top: "W_hc_h_21"
  param {
    name: "W_hc"
  }
  inner_product_param {
    num_output: 400
    bias_term: false
    weight_filler {
      type: "xavier"
    }
    axis: 2
  }
}
layer {
  name: "lstm1_gate_input_22"
  type: "Eltwise"
  bottom: "W_hc_h_21"
  bottom: "W_xc_x_22"
  top: "gate_input_22"
  eltwise_param {
    operation: SUM
  }
}
layer {
  name: "lstm1_unit_22"
  type: "LSTMUnit"
  bottom: "c_21"
  bottom: "gate_input_22"
  bottom: "cont_22"
  top: "c_22"
  top: "h_22"
}
layer {
  name: "lstm1_h_conted_22"
  type: "Scale"
  bottom: "h_22"
  bottom: "cont_23"
  top: "h_conted_22"
  scale_param {
    axis: 0
  }
}
layer {
  name: "lstm1_transform_23"
  type: "InnerProduct"
  bottom: "h_conted_22"
  top: "W_hc_h_22"
  param {
    name: "W_hc"
  }
  inner_product_param {
    num_output: 400
    bias_term: false
    weight_filler {
      type: "xavier"
    }
    axis: 2
  }
}
layer {
  name: "lstm1_gate_input_23"
  type: "Eltwise"
  bottom: "W_hc_h_22"
  bottom: "W_xc_x_23"
  top: "gate_input_23"
  eltwise_param {
    operation: SUM
  }
}
layer {
  name: "lstm1_unit_23"
  type: "LSTMUnit"
  bottom: "c_22"
  bottom: "gate_input_23"
  bottom: "cont_23"
  top: "c_23"
  top: "h_23"
}
layer {
  name: "lstm1_h_conted_23"
  type: "Scale"
  bottom: "h_23"
  bottom: "cont_24"
  top: "h_conted_23"
  scale_param {
    axis: 0
  }
}
layer {
  name: "lstm1_transform_24"
  type: "InnerProduct"
  bottom: "h_conted_23"
  top: "W_hc_h_23"
  param {
    name: "W_hc"
  }
  inner_product_param {
    num_output: 400
    bias_term: false
    weight_filler {
      type: "xavier"
    }
    axis: 2
  }
}
layer {
  name: "lstm1_gate_input_24"
  type: "Eltwise"
  bottom: "W_hc_h_23"
  bottom: "W_xc_x_24"
  top: "gate_input_24"
  eltwise_param {
    operation: SUM
  }
}
layer {
  name: "lstm1_unit_24"
  type: "LSTMUnit"
  bottom: "c_23"
  bottom: "gate_input_24"
  bottom: "cont_24"
  top: "c_24"
  top: "h_24"
}
layer {
  name: "lstm1_h_conted_24"
  type: "Scale"
  bottom: "h_24"
  bottom: "cont_25"
  top: "h_conted_24"
  scale_param {
    axis: 0
  }
}
layer {
  name: "lstm1_transform_25"
  type: "InnerProduct"
  bottom: "h_conted_24"
  top: "W_hc_h_24"
  param {
    name: "W_hc"
  }
  inner_product_param {
    num_output: 400
    bias_term: false
    weight_filler {
      type: "xavier"
    }
    axis: 2
  }
}
layer {
  name: "lstm1_gate_input_25"
  type: "Eltwise"
  bottom: "W_hc_h_24"
  bottom: "W_xc_x_25"
  top: "gate_input_25"
  eltwise_param {
    operation: SUM
  }
}
layer {
  name: "lstm1_unit_25"
  type: "LSTMUnit"
  bottom: "c_24"
  bottom: "gate_input_25"
  bottom: "cont_25"
  top: "c_25"
  top: "h_25"
}
layer {
  name: "lstm1_h_conted_25"
  type: "Scale"
  bottom: "h_25"
  bottom: "cont_26"
  top: "h_conted_25"
  scale_param {
    axis: 0
  }
}
layer {
  name: "lstm1_transform_26"
  type: "InnerProduct"
  bottom: "h_conted_25"
  top: "W_hc_h_25"
  param {
    name: "W_hc"
  }
  inner_product_param {
    num_output: 400
    bias_term: false
    weight_filler {
      type: "xavier"
    }
    axis: 2
  }
}
layer {
  name: "lstm1_gate_input_26"
  type: "Eltwise"
  bottom: "W_hc_h_25"
  bottom: "W_xc_x_26"
  top: "gate_input_26"
  eltwise_param {
    operation: SUM
  }
}
layer {
  name: "lstm1_unit_26"
  type: "LSTMUnit"
  bottom: "c_25"
  bottom: "gate_input_26"
  bottom: "cont_26"
  top: "c_26"
  top: "h_26"
}
layer {
  name: "lstm1_h_conted_26"
  type: "Scale"
  bottom: "h_26"
  bottom: "cont_27"
  top: "h_conted_26"
  scale_param {
    axis: 0
  }
}
layer {
  name: "lstm1_transform_27"
  type: "InnerProduct"
  bottom: "h_conted_26"
  top: "W_hc_h_26"
  param {
    name: "W_hc"
  }
  inner_product_param {
    num_output: 400
    bias_term: false
    weight_filler {
      type: "xavier"
    }
    axis: 2
  }
}
layer {
  name: "lstm1_gate_input_27"
  type: "Eltwise"
  bottom: "W_hc_h_26"
  bottom: "W_xc_x_27"
  top: "gate_input_27"
  eltwise_param {
    operation: SUM
  }
}
layer {
  name: "lstm1_unit_27"
  type: "LSTMUnit"
  bottom: "c_26"
  bottom: "gate_input_27"
  bottom: "cont_27"
  top: "c_27"
  top: "h_27"
}
layer {
  name: "lstm1_h_conted_27"
  type: "Scale"
  bottom: "h_27"
  bottom: "cont_28"
  top: "h_conted_27"
  scale_param {
    axis: 0
  }
}
layer {
  name: "lstm1_transform_28"
  type: "InnerProduct"
  bottom: "h_conted_27"
  top: "W_hc_h_27"
  param {
    name: "W_hc"
  }
  inner_product_param {
    num_output: 400
    bias_term: false
    weight_filler {
      type: "xavier"
    }
    axis: 2
  }
}
layer {
  name: "lstm1_gate_input_28"
  type: "Eltwise"
  bottom: "W_hc_h_27"
  bottom: "W_xc_x_28"
  top: "gate_input_28"
  eltwise_param {
    operation: SUM
  }
}
layer {
  name: "lstm1_unit_28"
  type: "LSTMUnit"
  bottom: "c_27"
  bottom: "gate_input_28"
  bottom: "cont_28"
  top: "c_28"
  top: "h_28"
}
layer {
  name: "lstm1_h_conted_28"
  type: "Scale"
  bottom: "h_28"
  bottom: "cont_29"
  top: "h_conted_28"
  scale_param {
    axis: 0
  }
}
layer {
  name: "lstm1_transform_29"
  type: "InnerProduct"
  bottom: "h_conted_28"
  top: "W_hc_h_28"
  param {
    name: "W_hc"
  }
  inner_product_param {
    num_output: 400
    bias_term: false
    weight_filler {
      type: "xavier"
    }
    axis: 2
  }
}
layer {
  name: "lstm1_gate_input_29"
  type: "Eltwise"
  bottom: "W_hc_h_28"
  bottom: "W_xc_x_29"
  top: "gate_input_29"
  eltwise_param {
    operation: SUM
  }
}
layer {
  name: "lstm1_unit_29"
  type: "LSTMUnit"
  bottom: "c_28"
  bottom: "gate_input_29"
  bottom: "cont_29"
  top: "c_29"
  top: "h_29"
}
layer {
  name: "lstm1_h_conted_29"
  type: "Scale"
  bottom: "h_29"
  bottom: "cont_30"
  top: "h_conted_29"
  scale_param {
    axis: 0
  }
}
layer {
  name: "lstm1_transform_30"
  type: "InnerProduct"
  bottom: "h_conted_29"
  top: "W_hc_h_29"
  param {
    name: "W_hc"
  }
  inner_product_param {
    num_output: 400
    bias_term: false
    weight_filler {
      type: "xavier"
    }
    axis: 2
  }
}
layer {
  name: "lstm1_gate_input_30"
  type: "Eltwise"
  bottom: "W_hc_h_29"
  bottom: "W_xc_x_30"
  top: "gate_input_30"
  eltwise_param {
    operation: SUM
  }
}
layer {
  name: "lstm1_unit_30"
  type: "LSTMUnit"
  bottom: "c_29"
  bottom: "gate_input_30"
  bottom: "cont_30"
  top: "c_30"
  top: "h_30"
}
layer {
  name: "lstm1_h_conted_30"
  type: "Scale"
  bottom: "h_30"
  bottom: "cont_31"
  top: "h_conted_30"
  scale_param {
    axis: 0
  }
}
layer {
  name: "lstm1_transform_31"
  type: "InnerProduct"
  bottom: "h_conted_30"
  top: "W_hc_h_30"
  param {
    name: "W_hc"
  }
  inner_product_param {
    num_output: 400
    bias_term: false
    weight_filler {
      type: "xavier"
    }
    axis: 2
  }
}
layer {
  name: "lstm1_gate_input_31"
  type: "Eltwise"
  bottom: "W_hc_h_30"
  bottom: "W_xc_x_31"
  top: "gate_input_31"
  eltwise_param {
    operation: SUM
  }
}
layer {
  name: "lstm1_unit_31"
  type: "LSTMUnit"
  bottom: "c_30"
  bottom: "gate_input_31"
  bottom: "cont_31"
  top: "c_31"
  top: "h_31"
}
layer {
  name: "lstm1_h_conted_31"
  type: "Scale"
  bottom: "h_31"
  bottom: "cont_32"
  top: "h_conted_31"
  scale_param {
    axis: 0
  }
}
layer {
  name: "lstm1_transform_32"
  type: "InnerProduct"
  bottom: "h_conted_31"
  top: "W_hc_h_31"
  param {
    name: "W_hc"
  }
  inner_product_param {
    num_output: 400
    bias_term: false
    weight_filler {
      type: "xavier"
    }
    axis: 2
  }
}
layer {
  name: "lstm1_gate_input_32"
  type: "Eltwise"
  bottom: "W_hc_h_31"
  bottom: "W_xc_x_32"
  top: "gate_input_32"
  eltwise_param {
    operation: SUM
  }
}
layer {
  name: "lstm1_unit_32"
  type: "LSTMUnit"
  bottom: "c_31"
  bottom: "gate_input_32"
  bottom: "cont_32"
  top: "c_32"
  top: "h_32"
}
layer {
  name: "lstm1_h_conted_32"
  type: "Scale"
  bottom: "h_32"
  bottom: "cont_33"
  top: "h_conted_32"
  scale_param {
    axis: 0
  }
}
layer {
  name: "lstm1_transform_33"
  type: "InnerProduct"
  bottom: "h_conted_32"
  top: "W_hc_h_32"
  param {
    name: "W_hc"
  }
  inner_product_param {
    num_output: 400
    bias_term: false
    weight_filler {
      type: "xavier"
    }
    axis: 2
  }
}
layer {
  name: "lstm1_gate_input_33"
  type: "Eltwise"
  bottom: "W_hc_h_32"
  bottom: "W_xc_x_33"
  top: "gate_input_33"
  eltwise_param {
    operation: SUM
  }
}
layer {
  name: "lstm1_unit_33"
  type: "LSTMUnit"
  bottom: "c_32"
  bottom: "gate_input_33"
  bottom: "cont_33"
  top: "c_33"
  top: "h_33"
}
layer {
  name: "lstm1_h_conted_33"
  type: "Scale"
  bottom: "h_33"
  bottom: "cont_34"
  top: "h_conted_33"
  scale_param {
    axis: 0
  }
}
layer {
  name: "lstm1_transform_34"
  type: "InnerProduct"
  bottom: "h_conted_33"
  top: "W_hc_h_33"
  param {
    name: "W_hc"
  }
  inner_product_param {
    num_output: 400
    bias_term: false
    weight_filler {
      type: "xavier"
    }
    axis: 2
  }
}
layer {
  name: "lstm1_gate_input_34"
  type: "Eltwise"
  bottom: "W_hc_h_33"
  bottom: "W_xc_x_34"
  top: "gate_input_34"
  eltwise_param {
    operation: SUM
  }
}
layer {
  name: "lstm1_unit_34"
  type: "LSTMUnit"
  bottom: "c_33"
  bottom: "gate_input_34"
  bottom: "cont_34"
  top: "c_34"
  top: "h_34"
}
layer {
  name: "lstm1_h_conted_34"
  type: "Scale"
  bottom: "h_34"
  bottom: "cont_35"
  top: "h_conted_34"
  scale_param {
    axis: 0
  }
}
layer {
  name: "lstm1_transform_35"
  type: "InnerProduct"
  bottom: "h_conted_34"
  top: "W_hc_h_34"
  param {
    name: "W_hc"
  }
  inner_product_param {
    num_output: 400
    bias_term: false
    weight_filler {
      type: "xavier"
    }
    axis: 2
  }
}
layer {
  name: "lstm1_gate_input_35"
  type: "Eltwise"
  bottom: "W_hc_h_34"
  bottom: "W_xc_x_35"
  top: "gate_input_35"
  eltwise_param {
    operation: SUM
  }
}
layer {
  name: "lstm1_unit_35"
  type: "LSTMUnit"
  bottom: "c_34"
  bottom: "gate_input_35"
  bottom: "cont_35"
  top: "c_35"
  top: "h_35"
}
layer {
  name: "lstm1_h_conted_35"
  type: "Scale"
  bottom: "h_35"
  bottom: "cont_36"
  top: "h_conted_35"
  scale_param {
    axis: 0
  }
}
layer {
  name: "lstm1_transform_36"
  type: "InnerProduct"
  bottom: "h_conted_35"
  top: "W_hc_h_35"
  param {
    name: "W_hc"
  }
  inner_product_param {
    num_output: 400
    bias_term: false
    weight_filler {
      type: "xavier"
    }
    axis: 2
  }
}
layer {
  name: "lstm1_gate_input_36"
  type: "Eltwise"
  bottom: "W_hc_h_35"
  bottom: "W_xc_x_36"
  top: "gate_input_36"
  eltwise_param {
    operation: SUM
  }
}
layer {
  name: "lstm1_unit_36"
  type: "LSTMUnit"
  bottom: "c_35"
  bottom: "gate_input_36"
  bottom: "cont_36"
  top: "c_36"
  top: "h_36"
}
layer {
  name: "lstm1_h_conted_36"
  type: "Scale"
  bottom: "h_36"
  bottom: "cont_37"
  top: "h_conted_36"
  scale_param {
    axis: 0
  }
}
layer {
  name: "lstm1_transform_37"
  type: "InnerProduct"
  bottom: "h_conted_36"
  top: "W_hc_h_36"
  param {
    name: "W_hc"
  }
  inner_product_param {
    num_output: 400
    bias_term: false
    weight_filler {
      type: "xavie
I0505 14:40:01.916680 26812 layer_factory.hpp:77] Creating layer lstm1_
I0505 14:40:01.916697 26812 net.cpp:86] Creating Layer lstm1_
I0505 14:40:01.916702 26812 net.cpp:382] lstm1_ -> x
I0505 14:40:01.916714 26812 net.cpp:382] lstm1_ -> cont
I0505 14:40:01.916764 26812 net.cpp:124] Setting up lstm1_
I0505 14:40:01.916769 26812 net.cpp:131] Top shape: 80 512 3 30 (3686400)
I0505 14:40:01.916774 26812 net.cpp:131] Top shape: 80 512 (40960)
I0505 14:40:01.916776 26812 net.cpp:139] Memory required for data: 14909440
I0505 14:40:01.916779 26812 layer_factory.hpp:77] Creating layer lstm1_
I0505 14:40:01.916782 26812 net.cpp:86] Creating Layer lstm1_
I0505 14:40:01.916785 26812 net.cpp:382] lstm1_ -> c_0
I0505 14:40:01.916790 26812 net.cpp:382] lstm1_ -> h_0
I0505 14:40:01.916815 26812 net.cpp:124] Setting up lstm1_
I0505 14:40:01.916817 26812 net.cpp:131] Top shape: 1 512 100 (51200)
I0505 14:40:01.916821 26812 net.cpp:131] Top shape: 1 512 100 (51200)
I0505 14:40:01.916823 26812 net.cpp:139] Memory required for data: 15319040
I0505 14:40:01.916826 26812 layer_factory.hpp:77] Creating layer lstm1_cont_slice
I0505 14:40:01.916833 26812 net.cpp:86] Creating Layer lstm1_cont_slice
I0505 14:40:01.916836 26812 net.cpp:408] lstm1_cont_slice <- cont
I0505 14:40:01.916841 26812 net.cpp:382] lstm1_cont_slice -> cont_1
I0505 14:40:01.916847 26812 net.cpp:382] lstm1_cont_slice -> cont_2
…
I0505 14:40:01.917248 26812 net.cpp:382] lstm1_cont_slice -> cont_73
I0505 14:40:01.917253 26812 net.cpp:382] lstm1_cont_slice -> cont_74
I0505 14:40:01.917258 26812 net.cpp:382] lstm1_cont_slice -> cont_75
I0505 14:40:01.917263 26812 net.cpp:382] lstm1_cont_slice -> cont_76
I0505 14:40:01.917268 26812 net.cpp:382] lstm1_cont_slice -> cont_77
I0505 14:40:01.917274 26812 net.cpp:382] lstm1_cont_slice -> cont_78
I0505 14:40:01.917279 26812 net.cpp:382] lstm1_cont_slice -> cont_79
I0505 14:40:01.917284 26812 net.cpp:382] lstm1_cont_slice -> cont_80
I0505 14:40:01.917819 26812 net.cpp:124] Setting up lstm1_cont_slice
I0505 14:40:01.917824 26812 net.cpp:131] Top shape: 1 512 (512)
I0505 14:40:01.917826 26812 net.cpp:131] Top shape: 1 512 (512)
I0505 14:40:01.917829 26812 net.cpp:131] Top shape: 1 512 (512)
I0505 14:40:01.917831 26812 net.cpp:131] Top shape: 1 512 (512)
I0505 14:40:01.917834 26812 net.cpp:131] Top shape: 1 512 (512)
I0505 14:40:01.917836 26812 net.cpp:131] Top shape: 1 512 (512)
I0505 14:40:01.917838 26812 net.cpp:131] Top shape: 1 512 (512)
I0505 14:40:01.917841 26812 net.cpp:131] Top shape: 1 512 (512)
I0505 14:40:01.917843 26812 net.cpp:131] Top shape: 1 512 (512)
I0505 14:40:01.917845 26812 net.cpp:131] Top shape: 1 512 (512)
I0505 14:40:01.917847 26812 net.cpp:131] Top shape: 1 512 (512)
I0505 14:40:01.917850 26812 net.cpp:131] Top shape: 1 512 (512)
I0505 14:40:01.917852 26812 net.cpp:131] Top shape: 1 512 (512)
I0505 14:40:01.917855 26812 net.cpp:131] Top shape: 1 512 (512)
I0505 14:40:01.917857 26812 net.cpp:131] Top shape: 1 512 (512)
I0505 14:40:01.917860 26812 net.cpp:131] Top shape: 1 512 (512)
I0505 14:40:01.917862 26812 net.cpp:131] Top shape: 1 512 (512)
I0505 14:40:01.917865 26812 net.cpp:131] Top shape: 1 512 (512)
I0505 14:40:01.917866 26812 net.cpp:131] Top shape: 1 512 (512)
I0505 14:40:01.917868 26812 net.cpp:131] Top shape: 1 512 (512)
I0505 14:40:01.917871 26812 net.cpp:131] Top shape: 1 512 (512)
I0505 14:40:01.917873 26812 net.cpp:131] Top shape: 1 512 (512)
I0505 14:40:01.917876 26812 net.cpp:131] Top shape: 1 512 (512)
I0505 14:40:01.917878 26812 net.cpp:131] Top shape: 1 512 (512)
I0505 14:40:01.917881 26812 net.cpp:131] Top shape: 1 512 (512)
I0505 14:40:01.917882 26812 net.cpp:131] Top shape: 1 512 (512)
I0505 14:40:01.917886 26812 net.cpp:131] Top shape: 1 512 (512)
I0505 14:40:01.917887 26812 net.cpp:131] Top shape: 1 512 (512)
I0505 14:40:01.917889 26812 net.cpp:131] Top shape: 1 512 (512)
I0505 14:40:01.917892 26812 net.cpp:131] Top shape: 1 512 (512)
I0505 14:40:01.917894 26812 net.cpp:131] Top shape: 1 512 (512)
I0505 14:40:01.917896 26812 net.cpp:131] Top shape: 1 512 (512)
I0505 14:40:01.917899 26812 net.cpp:131] Top shape: 1 512 (512)
I0505 14:40:01.917901 26812 net.cpp:131] Top shape: 1 512 (512)
I0505 14:40:01.917903 26812 net.cpp:131] Top shape: 1 512 (512)
I0505 14:40:01.917906 26812 net.cpp:131] Top shape: 1 512 (512)
I0505 14:40:01.917908 26812 net.cpp:131] Top shape: 1 512 (512)
I0505 14:40:01.917910 26812 net.cpp:131] Top shape: 1 512 (512)
I0505 14:40:01.917912 26812 net.cpp:131] Top shape: 1 512 (512)
I0505 14:40:01.917915 26812 net.cpp:131] Top shape: 1 512 (512)
I0505 14:40:01.917917 26812 net.cpp:131] Top shape: 1 512 (512)
I0505 14:40:01.917919 26812 net.cpp:131] Top shape: 1 512 (512)
I0505 14:40:01.917922 26812 net.cpp:131] Top shape: 1 512 (512)
I0505 14:40:01.917924 26812 net.cpp:131] Top shape: 1 512 (512)
I0505 14:40:01.917927 26812 net.cpp:131] Top shape: 1 512 (512)
I0505 14:40:01.917928 26812 net.cpp:131] Top shape: 1 512 (512)
I0505 14:40:01.917932 26812 net.cpp:131] Top shape: 1 512 (512)
I0505 14:40:01.917933 26812 net.cpp:131] Top shape: 1 512 (512)
I0505 14:40:01.917935 26812 net.cpp:131] Top shape: 1 512 (512)
I0505 14:40:01.917944 26812 net.cpp:131] Top shape: 1 512 (512)
I0505 14:40:01.917946 26812 net.cpp:131] Top shape: 1 512 (512)
I0505 14:40:01.917949 26812 net.cpp:131] Top shape: 1 512 (512)
I0505 14:40:01.917951 26812 net.cpp:131] Top shape: 1 512 (512)
I0505 14:40:01.917953 26812 net.cpp:131] Top shape: 1 512 (512)
I0505 14:40:01.917956 26812 net.cpp:131] Top shape: 1 512 (512)
I0505 14:40:01.917958 26812 net.cpp:131] Top shape: 1 512 (512)
I0505 14:40:01.917961 26812 net.cpp:131] Top shape: 1 512 (512)
I0505 14:40:01.917963 26812 net.cpp:131] Top shape: 1 512 (512)
I0505 14:40:01.917965 26812 net.cpp:131] Top shape: 1 512 (512)
I0505 14:40:01.917968 26812 net.cpp:131] Top shape: 1 512 (512)
I0505 14:40:01.917970 26812 net.cpp:131] Top shape: 1 512 (512)
I0505 14:40:01.917973 26812 net.cpp:131] Top shape: 1 512 (512)
I0505 14:40:01.917975 26812 net.cpp:131] Top shape: 1 512 (512)
I0505 14:40:01.917978 26812 net.cpp:131] Top shape: 1 512 (512)
I0505 14:40:01.917980 26812 net.cpp:131] Top shape: 1 512 (512)
I0505 14:40:01.917982 26812 net.cpp:131] Top shape: 1 512 (512)
I0505 14:40:01.917985 26812 net.cpp:131] Top shape: 1 512 (512)
I0505 14:40:01.917987 26812 net.cpp:131] Top shape: 1 512 (512)
I0505 14:40:01.917990 26812 net.cpp:131] Top shape: 1 512 (512)
I0505 14:40:01.917992 26812 net.cpp:131] Top shape: 1 512 (512)
I0505 14:40:01.917994 26812 net.cpp:131] Top shape: 1 512 (512)
I0505 14:40:01.917997 26812 net.cpp:131] Top shape: 1 512 (512)
I0505 14:40:01.917999 26812 net.cpp:131] Top shape: 1 512 (512)
I0505 14:40:01.918001 26812 net.cpp:131] Top shape: 1 512 (512)
I0505 14:40:01.918004 26812 net.cpp:131] Top shape: 1 512 (512)
I0505 14:40:01.918006 26812 net.cpp:131] Top shape: 1 512 (512)
I0505 14:40:01.918009 26812 net.cpp:131] Top shape: 1 512 (512)
I0505 14:40:01.918011 26812 net.cpp:131] Top shape: 1 512 (512)
I0505 14:40:01.918013 26812 net.cpp:131] Top shape: 1 512 (512)
I0505 14:40:01.918015 26812 net.cpp:131] Top shape: 1 512 (512)
I0505 14:40:01.918018 26812 net.cpp:139] Memory required for data: 15482880
I0505 14:40:01.918020 26812 layer_factory.hpp:77] Creating layer cont_1_lstm1_cont_slice_0_split
I0505 14:40:01.918023 26812 net.cpp:86] Creating Layer cont_1_lstm1_cont_slice_0_split
I0505 14:40:01.918026 26812 net.cpp:408] cont_1_lstm1_cont_slice_0_split <- cont_1
I0505 14:40:01.918030 26812 net.cpp:382] cont_1_lstm1_cont_slice_0_split -> cont_1_lstm1_cont_slice_0_split_0
I0505 14:40:01.918033 26812 net.cpp:382] cont_1_lstm1_cont_slice_0_split -> cont_1_lstm1_cont_slice_0_split_1
I0505 14:40:01.918052 26812 net.cpp:124] Setting up cont_1_lstm1_cont_slice_0_split
I0505 14:40:01.918056 26812 net.cpp:131] Top shape: 1 512 (512)
I0505 14:40:01.918057 26812 net.cpp:131] Top shape: 1 512 (512)
I0505 14:40:01.918059 26812 net.cpp:139] Memory required for data: 15486976
I0505 14:40:01.918061 26812 layer_factory.hpp:77] Creating layer cont_2_lstm1_cont_slice_1_split
I0505 14:40:01.918066 26812 net.cpp:86] Creating Layer cont_2_lstm1_cont_slice_1_split
I0505 14:40:01.918067 26812 net.cpp:408] cont_2_lstm1_cont_slice_1_split <- cont_2
I0505 14:40:01.918071 26812 net.cpp:382] cont_2_lstm1_cont_slice_1_split -> cont_2_lstm1_cont_slice_1_split_0
I0505 14:40:01.918074 26812 net.cpp:382] cont_2_lstm1_cont_slice_1_split -> cont_2_lstm1_cont_slice_1_split_1
I0505 14:40:01.918092 26812 net.cpp:124] Setting up cont_2_lstm1_cont_slice_1_split
I0505 14:40:01.918094 26812 net.cpp:131] Top shape: 1 512 (512)
I0505 14:40:01.918097 26812 net.cpp:131] Top shape: 1 512 (512)
I0505 14:40:01.918098 26812 net.cpp:139] Memory required for data: 15491072
I0505 14:40:01.918100 26812 layer_factory.hpp:77] Creating layer cont_3_lstm1_cont_slice_2_split
I0505 14:40:01.918103 26812 net.cpp:86] Creating Layer cont_3_lstm1_cont_slice_2_split
I0505 14:40:01.918107 26812 net.cpp:408] cont_3_lstm1_cont_slice_2_split <- cont_3
I0505 14:40:01.918109 26812 net.cpp:382] cont_3_lstm1_cont_slice_2_split -> cont_3_lstm1_cont_slice_2_split_0
I0505 14:40:01.918113 26812 net.cpp:382] cont_3_lstm1_cont_slice_2_split -> cont_3_lstm1_cont_slice_2_split_1
I0505 14:40:01.918138 26812 net.cpp:124] Setting up cont_3_lstm1_cont_slice_2_split
I0505 14:40:01.918140 26812 net.cpp:131] Top shape: 1 512 (512)
I0505 14:40:01.918143 26812 net.cpp:131] Top shape: 1 512 (512)
I0505 14:40:01.918145 26812 net.cpp:139] Memory required for data: 15495168
I0505 14:40:01.918148 26812 layer_factory.hpp:77] Creating layer cont_4_lstm1_cont_slice_3_split
I0505 14:40:01.918150 26812 net.cpp:86] Creating Layer cont_4_lstm1_cont_slice_3_split
I0505 14:40:01.918153 26812 net.cpp:408] cont_4_lstm1_cont_slice_3_split <- cont_4
I0505 14:40:01.918155 26812 net.cpp:382] cont_4_lstm1_cont_slice_3_split -> cont_4_lstm1_cont_slice_3_split_0
I0505 14:40:01.918159 26812 net.cpp:382] cont_4_lstm1_cont_slice_3_split -> cont_4_lstm1_cont_slice_3_split_1
I0505 14:40:01.918176 26812 net.cpp:124] Setting up cont_4_lstm1_cont_slice_3_split
I0505 14:40:01.918179 26812 net.cpp:131] Top shape: 1 512 (512)
I0505 14:40:01.918180 26812 net.cpp:131] Top shape: 1 512 (512)
I0505 14:40:01.918184 26812 net.cpp:139] Memory required for data: 15499264
I0505 14:40:01.918185 26812 layer_factory.hpp:77] Creating layer cont_5_lstm1_cont_slice_4_split
I0505 14:40:01.918188 26812 net.cpp:86] Creating Layer cont_5_lstm1_cont_slice_4_split
I0505 14:40:01.918191 26812 net.cpp:408] cont_5_lstm1_cont_slice_4_split <- cont_5
I0505 14:40:01.918195 26812 net.cpp:382] cont_5_lstm1_cont_slice_4_split -> cont_5_lstm1_cont_slice_4_split_0
I0505 14:40:01.918197 26812 net.cpp:382] cont_5_lstm1_cont_slice_4_split -> cont_5_lstm1_cont_slice_4_split_1
I0505 14:40:01.918215 26812 net.cpp:124] Setting up cont_5_lstm1_cont_slice_4_split
I0505 14:40:01.918216 26812 net.cpp:131] Top shape: 1 512 (512)
I0505 14:40:01.918220 26812 net.cpp:131] Top shape: 1 512 (512)
I0505 14:40:01.918221 26812 net.cpp:139] Memory required for data: 15503360
I0505 14:40:01.918223 26812 layer_factory.hpp:77] Creating layer cont_6_lstm1_cont_slice_5_split
I0505 14:40:01.918226 26812 net.cpp:86] Creating Layer cont_6_lstm1_cont_slice_5_split
I0505 14:40:01.918228 26812 net.cpp:408] cont_6_lstm1_cont_slice_5_split <- cont_6
I0505 14:40:01.918231 26812 net.cpp:382] cont_6_lstm1_cont_slice_5_split -> cont_6_lstm1_cont_slice_5_split_0
I0505 14:40:01.918236 26812 net.cpp:382] cont_6_lstm1_cont_slice_5_split -> cont_6_lstm1_cont_slice_5_split_1
I0505 14:40:01.918252 26812 net.cpp:124] Setting up cont_6_lstm1_cont_slice_5_split
I0505 14:40:01.918254 26812 net.cpp:131] Top shape: 1 512 (512)
I0505 14:40:01.918256 26812 net.cpp:131] Top shape: 1 512 (512)
I0505 14:40:01.918259 26812 net.cpp:139] Memory required for data: 15507456
I0505 14:40:01.918262 26812 layer_factory.hpp:77] Creating layer cont_7_lstm1_cont_slice_6_split
I0505 14:40:01.918263 26812 net.cpp:86] Creating Layer cont_7_lstm1_cont_slice_6_split
I0505 14:40:01.918267 26812 net.cpp:408] cont_7_lstm1_cont_slice_6_split <- cont_7
I0505 14:40:01.918269 26812 net.cpp:382] cont_7_lstm1_cont_slice_6_split -> cont_7_lstm1_cont_slice_6_split_0
I0505 14:40:01.918272 26812 net.cpp:382] cont_7_lstm1_cont_slice_6_split -> cont_7_lstm1_cont_slice_6_split_1
I0505 14:40:01.918289 26812 net.cpp:124] Setting up cont_7_lstm1_cont_slice_6_split
I0505 14:40:01.918292 26812 net.cpp:131] Top shape: 1 512 (512)
I0505 14:40:01.918293 26812 net.cpp:131] Top shape: 1 512 (512)
I0505 14:40:01.918296 26812 net.cpp:139] Memory required for data: 15511552
I0505 14:40:01.918298 26812 layer_factory.hpp:77] Creating layer cont_8_lstm1_cont_slice_7_split
I0505 14:40:01.918300 26812 net.cpp:86] Creating Layer cont_8_lstm1_cont_slice_7_split
I0505 14:40:01.918303 26812 net.cpp:408] cont_8_lstm1_cont_slice_7_split <- cont_8
I0505 14:40:01.918306 26812 net.cpp:382] cont_8_lstm1_cont_slice_7_split -> cont_8_lstm1_cont_slice_7_split_0
I0505 14:40:01.918309 26812 net.cpp:382] cont_8_lstm1_cont_slice_7_split -> cont_8_lstm1_cont_slice_7_split_1
I0505 14:40:01.918325 26812 net.cpp:124] Setting up cont_8_lstm1_cont_slice_7_split
I0505 14:40:01.918329 26812 net.cpp:131] Top shape: 1 512 (512)
I0505 14:40:01.918330 26812 net.cpp:131] Top shape: 1 512 (512)
I0505 14:40:01.918340 26812 net.cpp:139] Memory required for data: 15515648
I0505 14:40:01.918342 26812 layer_factory.hpp:77] Creating layer cont_9_lstm1_cont_slice_8_split
I0505 14:40:01.918346 26812 net.cpp:86] Creating Layer cont_9_lstm1_cont_slice_8_split
I0505 14:40:01.918349 26812 net.cpp:408] cont_9_lstm1_cont_slice_8_split <- cont_9
I0505 14:40:01.918351 26812 net.cpp:382] cont_9_lstm1_cont_slice_8_split -> cont_9_lstm1_cont_slice_8_split_0
I0505 14:40:01.918355 26812 net.cpp:382] cont_9_lstm1_cont_slice_8_split -> cont_9_lstm1_cont_slice_8_split_1
I0505 14:40:01.918372 26812 net.cpp:124] Setting up cont_9_lstm1_cont_slice_8_split
I0505 14:40:01.918375 26812 net.cpp:131] Top shape: 1 512 (512)
I0505 14:40:01.918377 26812 net.cpp:131] Top shape: 1 512 (512)
I0505 14:40:01.918380 26812 net.cpp:139] Memory required for data: 15519744
I0505 14:40:01.918382 26812 layer_factory.hpp:77] Creating layer cont_10_lstm1_cont_slice_9_split
I0505 14:40:01.918385 26812 net.cpp:86] Creating Layer cont_10_lstm1_cont_slice_9_split
I0505 14:40:01.918388 26812 net.cpp:408] cont_10_lstm1_cont_slice_9_split <- cont_10
I0505 14:40:01.918391 26812 net.cpp:382] cont_10_lstm1_cont_slice_9_split -> cont_10_lstm1_cont_slice_9_split_0
I0505 14:40:01.918395 26812 net.cpp:382] cont_10_lstm1_cont_slice_9_split -> cont_10_lstm1_cont_slice_9_split_1
I0505 14:40:01.918411 26812 net.cpp:124] Setting up cont_10_lstm1_cont_slice_9_split
I0505 14:40:01.918413 26812 net.cpp:131] Top shape: 1 512 (512)
I0505 14:40:01.918416 26812 net.cpp:131] Top shape: 1 512 (512)
I0505 14:40:01.918418 26812 net.cpp:139] Memory required for data: 15523840
I0505 14:40:01.918421 26812 layer_factory.hpp:77] Creating layer cont_11_lstm1_cont_slice_10_split
I0505 14:40:01.918423 26812 net.cpp:86] Creating Layer cont_11_lstm1_cont_slice_10_split
I0505 14:40:01.918426 26812 net.cpp:408] cont_11_lstm1_cont_slice_10_split <- cont_11
I0505 14:40:01.918429 26812 net.cpp:382] cont_11_lstm1_cont_slice_10_split -> cont_11_lstm1_cont_slice_10_split_0
I0505 14:40:01.918433 26812 net.cpp:382] cont_11_lstm1_cont_slice_10_split -> cont_11_lstm1_cont_slice_10_split_1
I0505 14:40:01.918450 26812 net.cpp:124] Setting up cont_11_lstm1_cont_slice_10_split
I0505 14:40:01.918452 26812 net.cpp:131] Top shape: 1 512 (512)
I0505 14:40:01.918454 26812 net.cpp:131] Top shape: 1 512 (512)
I0505 14:40:01.918457 26812 net.cpp:139] Memory required for data: 15527936
I0505 14:40:01.918459 26812 layer_factory.hpp:77] Creating layer cont_12_lstm1_cont_slice_11_split
I0505 14:40:01.918462 26812 net.cpp:86] Creating Layer cont_12_lstm1_cont_slice_11_split
I0505 14:40:01.918464 26812 net.cpp:408] cont_12_lstm1_cont_slice_11_split <- cont_12
I0505 14:40:01.918467 26812 net.cpp:382] cont_12_lstm1_cont_slice_11_split -> cont_12_lstm1_cont_slice_11_split_0
I0505 14:40:01.918471 26812 net.cpp:382] cont_12_lstm1_cont_slice_11_split -> cont_12_lstm1_cont_slice_11_split_1
I0505 14:40:01.918495 26812 net.cpp:124] Setting up cont_12_lstm1_cont_slice_11_split
I0505 14:40:01.918499 26812 net.cpp:131] Top shape: 1 512 (512)
I0505 14:40:01.918660 26812 net.cpp:131] Top shape: 1 512 (512)
I0505 14:40:01.918783 26812 net.cpp:139] Memory required for data: 15532032
I0505 14:40:01.918785 26812 layer_factory.hpp:77] Creating layer cont_13_lstm1_cont_slice_12_split
I0505 14:40:01.918792 26812 net.cpp:86] Creating Layer cont_13_lstm1_cont_slice_12_split
I0505 14:40:01.918794 26812 net.cpp:408] cont_13_lstm1_cont_slice_12_split <- cont_13
I0505 14:40:01.918800 26812 net.cpp:382] cont_13_lstm1_cont_slice_12_split -> cont_13_lstm1_cont_slice_12_split_0
I0505 14:40:01.918807 26812 net.cpp:382] cont_13_lstm1_cont_slice_12_split -> cont_13_lstm1_cont_slice_12_split_1
I0505 14:40:01.918835 26812 net.cpp:124] Setting up cont_13_lstm1_cont_slice_12_split
I0505 14:40:01.918839 26812 net.cpp:131] Top shape: 1 512 (512)
I0505 14:40:01.918843 26812 net.cpp:131] Top shape: 1 512 (512)
I0505 14:40:01.918848 26812 net.cpp:139] Memory required for data: 15536128
I0505 14:40:01.918851 26812 layer_factory.hpp:77] Creating layer cont_14_lstm1_cont_slice_13_split
I0505 14:40:01.918866 26812 net.cpp:86] Creating Layer cont_14_lstm1_cont_slice_13_split
I0505 14:40:01.918869 26812 net.cpp:408] cont_14_lstm1_cont_slice_13_split <- cont_14
I0505 14:40:01.918874 26812 net.cpp:382] cont_14_lstm1_cont_slice_13_split -> cont_14_lstm1_cont_slice_13_split_0
I0505 14:40:01.918880 26812 net.cpp:382] cont_14_lstm1_cont_slice_13_split -> cont_14_lstm1_cont_slice_13_split_1
I0505 14:40:01.918910 26812 net.cpp:124] Setting up cont_14_lstm1_cont_slice_13_split
I0505 14:40:01.918913 26812 net.cpp:131] Top shape: 1 512 (512)
I0505 14:40:01.918917 26812 net.cpp:131] Top shape: 1 512 (512)
I0505 14:40:01.918920 26812 net.cpp:139] Memory required for data: 15540224
I0505 14:40:01.918923 26812 layer_factory.hpp:77] Creating layer cont_15_lstm1_cont_slice_14_split
I0505 14:40:01.918927 26812 net.cpp:86] Creating Layer cont_15_lstm1_cont_slice_14_split
I0505 14:40:01.918931 26812 net.cpp:408] cont_15_lstm1_cont_slice_14_split <- cont_15
I0505 14:40:01.918936 26812 net.cpp:382] cont_15_lstm1_cont_slice_14_split -> cont_15_lstm1_cont_slice_14_split_0
I0505 14:40:01.918941 26812 net.cpp:382] cont_15_lstm1_cont_slice_14_split -> cont_15_lstm1_cont_slice_14_split_1
I0505 14:40:01.918968 26812 net.cpp:124] Setting up cont_15_lstm1_cont_slice_14_split
I0505 14:40:01.918973 26812 net.cpp:131] Top shape: 1 512 (512)
I0505 14:40:01.918977 26812 net.cpp:131] Top shape: 1 512 (512)
I0505 14:40:01.918979 26812 net.cpp:139] Memory required for data: 15544320
I0505 14:40:01.918982 26812 layer_factory.hpp:77] Creating layer cont_16_lstm1_cont_slice_15_split
I0505 14:40:01.918987 26812 net.cpp:86] Creating Layer cont_16_lstm1_cont_slice_15_split
I0505 14:40:01.918990 26812 net.cpp:408] cont_16_lstm1_cont_slice_15_split <- cont_16
I0505 14:40:01.918994 26812 net.cpp:382] cont_16_lstm1_cont_slice_15_split -> cont_16_lstm1_cont_slice_15_split_0
I0505 14:40:01.918999 26812 net.cpp:382] cont_16_lstm1_cont_slice_15_split -> cont_16_lstm1_cont_slice_15_split_1
I0505 14:40:01.919024 26812 net.cpp:124] Setting up cont_16_lstm1_cont_slice_15_split
I0505 14:40:01.919028 26812 net.cpp:131] Top shape: 1 512 (512)
I0505 14:40:01.919031 26812 net.cpp:131] Top shape: 1 512 (512)
I0505 14:40:01.919035 26812 net.cpp:139] Memory required for data: 15548416
I0505 14:40:01.919039 26812 layer_factory.hpp:77] Creating layer cont_17_lstm1_cont_slice_16_split
I0505 14:40:01.919042 26812 net.cpp:86] Creating Layer cont_17_lstm1_cont_slice_16_split
I0505 14:40:01.919045 26812 net.cpp:408] cont_17_lstm1_cont_slice_16_split <- cont_17
I0505 14:40:01.919049 26812 net.cpp:382] cont_17_lstm1_cont_slice_16_split -> cont_17_lstm1_cont_slice_16_split_0
I0505 14:40:01.919054 26812 net.cpp:382] cont_17_lstm1_cont_slice_16_split -> cont_17_lstm1_cont_slice_16_split_1
I0505 14:40:01.919080 26812 net.cpp:124] Setting up cont_17_lstm1_cont_slice_16_split
I0505 14:40:01.919082 26812 net.cpp:131] Top shape: 1 512 (512)
I0505 14:40:01.919086 26812 net.cpp:131] Top shape: 1 512 (512)
I0505 14:40:01.919090 26812 net.cpp:139] Memory required for data: 15552512
I0505 14:40:01.919092 26812 layer_factory.hpp:77] Creating layer cont_18_lstm1_cont_slice_17_split
I0505 14:40:01.919096 26812 net.cpp:86] Creating Layer cont_18_lstm1_cont_slice_17_split
I0505 14:40:01.919100 26812 net.cpp:408] cont_18_lstm1_cont_slice_17_split <- cont_18
I0505 14:40:01.919103 26812 net.cpp:382] cont_18_lstm1_cont_slice_17_split -> cont_18_lstm1_cont_slice_17_split_0
I0505 14:40:01.919108 26812 net.cpp:382] cont_18_lstm1_cont_slice_17_split -> cont_18_lstm1_cont_slice_17_split_1
I0505 14:40:01.919131 26812 net.cpp:124] Setting up cont_18_lstm1_cont_slice_17_split
I0505 14:40:01.919136 26812 net.cpp:131] Top shape: 1 512 (512)
I0505 14:40:01.919138 26812 net.cpp:131] Top shape: 1 512 (512)
I0505 14:40:01.919142 26812 net.cpp:139] Memory required for data: 15556608
I0505 14:40:01.919144 26812 layer_factory.hpp:77] Creating layer cont_19_lstm1_cont_slice_18_split
I0505 14:40:01.919148 26812 net.cpp:86] Creating Layer cont_19_lstm1_cont_slice_18_split
I0505 14:40:01.919160 26812 net.cpp:408] cont_19_lstm1_cont_slice_18_split <- cont_19
I0505 14:40:01.919165 26812 net.cpp:382] cont_19_lstm1_cont_slice_18_split -> cont_19_lstm1_cont_slice_18_split_0
I0505 14:40:01.919170 26812 net.cpp:382] cont_19_lstm1_cont_slice_18_split -> cont_19_lstm1_cont_slice_18_split_1
I0505 14:40:01.919198 26812 net.cpp:124] Setting up cont_19_lstm1_cont_slice_18_split
I0505 14:40:01.919200 26812 net.cpp:131] Top shape: 1 512 (512)
I0505 14:40:01.919204 26812 net.cpp:131] Top shape: 1 512 (512)
I0505 14:40:01.919209 26812 net.cpp:139] Memory required for data: 15560704
I0505 14:40:01.919211 26812 layer_factory.hpp:77] Creating layer cont_20_lstm1_cont_slice_19_split
I0505 14:40:01.919215 26812 net.cpp:86] Creating Layer cont_20_lstm1_cont_slice_19_split
I0505 14:40:01.919219 26812 net.cpp:408] cont_20_lstm1_cont_slice_19_split <- cont_20
I0505 14:40:01.919224 26812 net.cpp:382] cont_20_lstm1_cont_slice_19_split -> cont_20_lstm1_cont_slice_19_split_0
I0505 14:40:01.919229 26812 net.cpp:382] cont_20_lstm1_cont_slice_19_split -> cont_20_lstm1_cont_slice_19_split_1
I0505 14:40:01.919252 26812 net.cpp:124] Setting up cont_20_lstm1_cont_slice_19_split
I0505 14:40:01.919256 26812 net.cpp:131] Top shape: 1 512 (512)
I0505 14:40:01.919260 26812 net.cpp:131] Top shape: 1 512 (512)
I0505 14:40:01.919263 26812 net.cpp:139] Memory required for data: 15564800
I0505 14:40:01.919266 26812 layer_factory.hpp:77] Creating layer cont_21_lstm1_cont_slice_20_split
I0505 14:40:01.919270 26812 net.cpp:86] Creating Layer cont_21_lstm1_cont_slice_20_split
I0505 14:40:01.919273 26812 net.cpp:408] cont_21_lstm1_cont_slice_20_split <- cont_21
I0505 14:40:01.919278 26812 net.cpp:382] cont_21_lstm1_cont_slice_20_split -> cont_21_lstm1_cont_slice_20_split_0
I0505 14:40:01.919282 26812 net.cpp:382] cont_21_lstm1_cont_slice_20_split -> cont_21_lstm1_cont_slice_20_split_1
I0505 14:40:01.919319 26812 net.cpp:124] Setting up cont_21_lstm1_cont_slice_20_split
I0505 14:40:01.919323 26812 net.cpp:131] Top shape: 1 512 (512)
I0505 14:40:01.919327 26812 net.cpp:131] Top shape: 1 512 (512)
I0505 14:40:01.919328 26812 net.cpp:139] Memory required for data: 15568896
I0505 14:40:01.919330 26812 layer_factory.hpp:77] Creating layer cont_22_lstm1_cont_slice_21_split
I0505 14:40:01.919334 26812 net.cpp:86] Creating Layer cont_22_lstm1_cont_slice_21_split
I0505 14:40:01.919337 26812 net.cpp:408] cont_22_lstm1_cont_slice_21_split <- cont_22
I0505 14:40:01.919340 26812 net.cpp:382] cont_22_lstm1_cont_slice_21_split -> cont_22_lstm1_cont_slice_21_split_0
I0505 14:40:01.919343 26812 net.cpp:382] cont_22_lstm1_cont_slice_21_split -> cont_22_lstm1_cont_slice_21_split_1
I0505 14:40:01.919361 26812 net.cpp:124] Setting up cont_22_lstm1_cont_slice_21_split
I0505 14:40:01.919364 26812 net.cpp:131] Top shape: 1 512 (512)
I0505 14:40:01.919366 26812 net.cpp:131] Top shape: 1 512 (512)
I0505 14:40:01.919368 26812 net.cpp:139] Memory required for data: 15572992
I0505 14:40:01.919370 26812 layer_factory.hpp:77] Creating layer cont_23_lstm1_cont_slice_22_split
I0505 14:40:01.919373 26812 net.cpp:86] Creating Layer cont_23_lstm1_cont_slice_22_split
I0505 14:40:01.919375 26812 net.cpp:408] cont_23_lstm1_cont_slice_22_split <- cont_23
I0505 14:40:01.919378 26812 net.cpp:382] cont_23_lstm1_cont_slice_22_split -> cont_23_lstm1_cont_slice_22_split_0
I0505 14:40:01.919384 26812 net.cpp:382] cont_23_lstm1_cont_slice_22_split -> cont_23_lstm1_cont_slice_22_split_1
I0505 14:40:01.919406 26812 net.cpp:124] Setting up cont_23_lstm1_cont_slice_22_split
I0505 14:40:01.919410 26812 net.cpp:131] Top shape: 1 512 (512)
I0505 14:40:01.919412 26812 net.cpp:131] Top shape: 1 512 (512)
I0505 14:40:01.919415 26812 net.cpp:139] Memory required for data: 15577088
I0505 14:40:01.919417 26812 layer_factory.hpp:77] Creating layer cont_24_lstm1_cont_slice_23_split
I0505 14:40:01.919420 26812 net.cpp:86] Creating Layer cont_24_lstm1_cont_slice_23_split
I0505 14:40:01.919423 26812 net.cpp:408] cont_24_lstm1_cont_slice_23_split <- cont_24
I0505 14:40:01.919428 26812 net.cpp:382] cont_24_lstm1_cont_slice_23_split -> cont_24_lstm1_cont_slice_23_split_0
I0505 14:40:01.919446 26812 net.cpp:382] cont_24_lstm1_cont_slice_23_split -> cont_24_lstm1_cont_slice_23_split_1
I0505 14:40:01.919467 26812 net.cpp:124] Setting up cont_24_lstm1_cont_slice_23_split
I0505 14:40:01.919471 26812 net.cpp:131] Top shape: 1 512 (512)
I0505 14:40:01.919473 26812 net.cpp:131] Top shape: 1 512 (512)
I0505 14:40:01.919476 26812 net.cpp:139] Memory required for data: 15581184
I0505 14:40:01.919477 26812 layer_factory.hpp:77] Creating layer cont_25_lstm1_cont_slice_24_split
I0505 14:40:01.919481 26812 net.cpp:86] Creating Layer cont_25_lstm1_cont_slice_24_split
I0505 14:40:01.919482 26812 net.cpp:408] cont_25_lstm1_cont_slice_24_split <- cont_25
I0505 14:40:01.919486 26812 net.cpp:382] cont_25_lstm1_cont_slice_24_split -> cont_25_lstm1_cont_slice_24_split_0
I0505 14:40:01.919489 26812 net.cpp:382] cont_25_lstm1_cont_slice_24_split -> cont_25_lstm1_cont_slice_24_split_1
I0505 14:40:01.919507 26812 net.cpp:124] Setting up cont_25_lstm1_cont_slice_24_split
I0505 14:40:01.919509 26812 net.cpp:131] Top shape: 1 512 (512)
I0505 14:40:01.919512 26812 net.cpp:131] Top shape: 1 512 (512)
I0505 14:40:01.919514 26812 net.cpp:139] Memory required for data: 15585280
I0505 14:40:01.919517 26812 layer_factory.hpp:77] Creating layer cont_26_lstm1_cont_slice_25_split
I0505 14:40:01.919519 26812 net.cpp:86] Creating Layer cont_26_lstm1_cont_slice_25_split
I0505 14:40:01.919522 26812 net.cpp:408] cont_26_lstm1_cont_slice_25_split <- cont_26
I0505 14:40:01.919524 26812 net.cpp:382] cont_26_lstm1_cont_slice_25_split -> cont_26_lstm1_cont_slice_25_split_0
I0505 14:40:01.919528 26812 net.cpp:382] cont_26_lstm1_cont_slice_25_split -> cont_26_lstm1_cont_slice_25_split_1
I0505 14:40:01.919544 26812 net.cpp:124] Setting up cont_26_lstm1_cont_slice_25_split
I0505 14:40:01.919546 26812 net.cpp:131] Top shape: 1 512 (512)
I0505 14:40:01.919549 26812 net.cpp:131] Top shape: 1 512 (512)
I0505 14:40:01.919551 26812 net.cpp:139] Memory required for data: 15589376
I0505 14:40:01.919553 26812 layer_factory.hpp:77] Creating layer cont_27_lstm1_cont_slice_26_split
I0505 14:40:01.919556 26812 net.cpp:86] Creating Layer cont_27_lstm1_cont_slice_26_split
I0505 14:40:01.919559 26812 net.cpp:408] cont_27_lstm1_cont_slice_26_split <- cont_27
I0505 14:40:01.919561 26812 net.cpp:382] cont_27_lstm1_cont_slice_26_split -> cont_27_lstm1_cont_slice_26_split_0
I0505 14:40:01.919565 26812 net.cpp:382] cont_27_lstm1_cont_slice_26_split -> cont_27_lstm1_cont_slice_26_split_1
I0505 14:40:01.919581 26812 net.cpp:124] Setting up cont_27_lstm1_cont_slice_26_split
I0505 14:40:01.919584 26812 net.cpp:131] Top shape: 1 512 (512)
I0505 14:40:01.919586 26812 net.cpp:131] Top shape: 1 512 (512)
I0505 14:40:01.919589 26812 net.cpp:139] Memory required for data: 15593472
I0505 14:40:01.919590 26812 layer_factory.hpp:77] Creating layer cont_28_lstm1_cont_slice_27_split
I0505 14:40:01.919595 26812 net.cpp:86] Creating Layer cont_28_lstm1_cont_slice_27_split
I0505 14:40:01.919596 26812 net.cpp:408] cont_28_lstm1_cont_slice_27_split <- cont_28
I0505 14:40:01.919600 26812 net.cpp:382] cont_28_lstm1_cont_slice_27_split -> cont_28_lstm1_cont_slice_27_split_0
I0505 14:40:01.919602 26812 net.cpp:382] cont_28_lstm1_cont_slice_27_split -> cont_28_lstm1_cont_slice_27_split_1
I0505 14:40:01.919620 26812 net.cpp:124] Setting up cont_28_lstm1_cont_slice_27_split
I0505 14:40:01.919621 26812 net.cpp:131] Top shape: 1 512 (512)
I0505 14:40:01.919625 26812 net.cpp:131] Top shape: 1 512 (512)
I0505 14:40:01.919626 26812 net.cpp:139] Memory required for data: 15597568
I0505 14:40:01.919628 26812 layer_factory.hpp:77] Creating layer cont_29_lstm1_cont_slice_28_split
I0505 14:40:01.919631 26812 net.cpp:86] Creating Layer cont_29_lstm1_cont_slice_28_split
I0505 14:40:01.919633 26812 net.cpp:408] cont_29_lstm1_cont_slice_28_split <- cont_29
I0505 14:40:01.919636 26812 net.cpp:382] cont_29_lstm1_cont_slice_28_split -> cont_29_lstm1_cont_slice_28_split_0
I0505 14:40:01.919641 26812 net.cpp:382] cont_29_lstm1_cont_slice_28_split -> cont_29_lstm1_cont_slice_28_split_1
I0505 14:40:01.919663 26812 net.cpp:124] Setting up cont_29_lstm1_cont_slice_28_split
I0505 14:40:01.919667 26812 net.cpp:131] Top shape: 1 512 (512)
I0505 14:40:01.919669 26812 net.cpp:131] Top shape: 1 512 (512)
I0505 14:40:01.919672 26812 net.cpp:139] Memory required for data: 15601664
I0505 14:40:01.919673 26812 layer_factory.hpp:77] Creating layer cont_30_lstm1_cont_slice_29_split
I0505 14:40:01.919677 26812 net.cpp:86] Creating Layer cont_30_lstm1_cont_slice_29_split
I0505 14:40:01.919679 26812 net.cpp:408] cont_30_lstm1_cont_slice_29_split <- cont_30
I0505 14:40:01.919682 26812 net.cpp:382] cont_30_lstm1_cont_slice_29_split -> cont_30_lstm1_cont_slice_29_split_0
I0505 14:40:01.919687 26812 net.cpp:382] cont_30_lstm1_cont_slice_29_split -> cont_30_lstm1_cont_slice_29_split_1
I0505 14:40:01.919704 26812 net.cpp:124] Setting up cont_30_lstm1_cont_slice_29_split
I0505 14:40:01.919706 26812 net.cpp:131] Top shape: 1 512 (512)
I0505 14:40:01.919709 26812 net.cpp:131] Top shape: 1 512 (512)
I0505 14:40:01.919711 26812 net.cpp:139] Memory required for data: 15605760
I0505 14:40:01.919714 26812 layer_factory.hpp:77] Creating layer cont_31_lstm1_cont_slice_30_split
I0505 14:40:01.919718 26812 net.cpp:86] Creating Layer cont_31_lstm1_cont_slice_30_split
I0505 14:40:01.919720 26812 net.cpp:408] cont_31_lstm1_cont_slice_30_split <- cont_31
I0505 14:40:01.919724 26812 net.cpp:382] cont_31_lstm1_cont_slice_30_split -> cont_31_lstm1_cont_slice_30_split_0
I0505 14:40:01.919728 26812 net.cpp:382] cont_31_lstm1_cont_slice_30_split -> cont_31_lstm1_cont_slice_30_split_1
I0505 14:40:01.919747 26812 net.cpp:124] Setting up cont_31_lstm1_cont_slice_30_split
I0505 14:40:01.919750 26812 net.cpp:131] Top shape: 1 512 (512)
I0505 14:40:01.919752 26812 net.cpp:131] Top shape: 1 512 (512)
I0505 14:40:01.919754 26812 net.cpp:139] Memory required for data: 15609856
I0505 14:40:01.919756 26812 layer_factory.hpp:77] Creating layer cont_32_lstm1_cont_slice_31_split
I0505 14:40:01.919759 26812 net.cpp:86] Creating Layer cont_32_lstm1_cont_slice_31_split
I0505 14:40:01.919761 26812 net.cpp:408] cont_32_lstm1_cont_slice_31_split <- cont_32
I0505 14:40:01.919764 26812 net.cpp:382] cont_32_lstm1_cont_slice_31_split -> cont_32_lstm1_cont_slice_31_split_0
I0505 14:40:01.919767 26812 net.cpp:382] cont_32_lstm1_cont_slice_31_split -> cont_32_lstm1_cont_slice_31_split_1
I0505 14:40:01.919785 26812 net.cpp:124] Setting up cont_32_lstm1_cont_slice_31_split
I0505 14:40:01.919786 26812 net.cpp:131] Top shape: 1 512 (512)
I0505 14:40:01.919788 26812 net.cpp:131] Top shape: 1 512 (512)
I0505 14:40:01.919791 26812 net.cpp:139] Memory required for data: 15613952
I0505 14:40:01.919792 26812 layer_factory.hpp:77] Creating layer cont_33_lstm1_cont_slice_32_split
I0505 14:40:01.919795 26812 net.cpp:86] Creating Layer cont_33_lstm1_cont_slice_32_split
I0505 14:40:01.919797 26812 net.cpp:408] cont_33_lstm1_cont_slice_32_split <- cont_33
I0505 14:40:01.919800 26812 net.cpp:382] cont_33_lstm1_cont_slice_32_split -> cont_33_lstm1_cont_slice_32_split_0
I0505 14:40:01.919804 26812 net.cpp:382] cont_33_lstm1_cont_slice_32_split -> cont_33_lstm1_cont_slice_32_split_1
I0505 14:40:01.919821 26812 net.cpp:124] Setting up cont_33_lstm1_cont_slice_32_split
I0505 14:40:01.919823 26812 net.cpp:131] Top shape: 1 512 (512)
I0505 14:40:01.919826 26812 net.cpp:131] Top shape: 1 512 (512)
I0505 14:40:01.919828 26812 net.cpp:139] Memory required for data: 15618048
I0505 14:40:01.919829 26812 layer_factory.hpp:77] Creating layer cont_34_lstm1_cont_slice_33_split
I0505 14:40:01.919832 26812 net.cpp:86] Creating Layer cont_34_lstm1_cont_slice_33_split
I0505 14:40:01.919834 26812 net.cpp:408] cont_34_lstm1_cont_slice_33_split <- cont_34
I0505 14:40:01.919837 26812 net.cpp:382] cont_34_lstm1_cont_slice_33_split -> cont_34_lstm1_cont_slice_33_split_0
I0505 14:40:01.919842 26812 net.cpp:382] cont_34_lstm1_cont_slice_33_split -> cont_34_lstm1_cont_slice_33_split_1
I0505 14:40:01.919858 26812 net.cpp:124] Setting up cont_34_lstm1_cont_slice_33_split
I0505 14:40:01.919865 26812 net.cpp:131] Top shape: 1 512 (512)
I0505 14:40:01.919868 26812 net.cpp:131] Top shape: 1 512 (512)
I0505 14:40:01.919870 26812 net.cpp:139] Memory required for data: 15622144
I0505 14:40:01.919872 26812 layer_factory.hpp:77] Creating layer cont_35_lstm1_cont_slice_34_split
I0505 14:40:01.919875 26812 net.cpp:86] Creating Layer cont_35_lstm1_cont_slice_34_split
I0505 14:40:01.919878 26812 net.cpp:408] cont_35_lstm1_cont_slice_34_split <- cont_35
I0505 14:40:01.919881 26812 net.cpp:382] cont_35_lstm1_cont_slice_34_split -> cont_35_lstm1_cont_slice_34_split_0
I0505 14:40:01.919884 26812 net.cpp:382] cont_35_lstm1_cont_slice_34_split -> cont_35_lstm1_cont_slice_34_split_1
I0505 14:40:01.919903 26812 net.cpp:124] Setting up cont_35_lstm1_cont_slice_34_split
I0505 14:40:01.919904 26812 net.cpp:131] Top shape: 1 512 (512)
I0505 14:40:01.919908 26812 net.cpp:131] Top shape: 1 512 (512)
I0505 14:40:01.919909 26812 net.cpp:139] Memory required for data: 15626240
I0505 14:40:01.919911 26812 layer_factory.hpp:77] Creating layer cont_36_lstm1_cont_slice_35_split
I0505 14:40:01.919914 26812 net.cpp:86] Creating Layer cont_36_lstm1_cont_slice_35_split
I0505 14:40:01.919916 26812 net.cpp:408] cont_36_lstm1_cont_slice_35_split <- cont_36
I0505 14:40:01.919919 26812 net.cpp:382] cont_36_lstm1_cont_slice_35_split -> cont_36_lstm1_cont_slice_35_split_0
I0505 14:40:01.919924 26812 net.cpp:382] cont_36_lstm1_cont_slice_35_split -> cont_36_lstm1_cont_slice_35_split_1
I0505 14:40:01.919939 26812 net.cpp:124] Setting up cont_36_lstm1_cont_slice_35_split
I0505 14:40:01.919941 26812 net.cpp:131] Top shape: 1 512 (512)
I0505 14:40:01.919945 26812 net.cpp:131] Top shape: 1 512 (512)
I0505 14:40:01.919946 26812 net.cpp:139] Memory required for data: 15630336
I0505 14:40:01.919948 26812 layer_factory.hpp:77] Creating layer cont_37_lstm1_cont_slice_36_split
I0505 14:40:01.919951 26812 net.cpp:86] Creating Layer cont_37_lstm1_cont_slice_36_split
I0505 14:40:01.919953 26812 net.cpp:408] cont_37_lstm1_cont_slice_36_split <- cont_37
I0505 14:40:01.919956 26812 net.cpp:382] cont_37_lstm1_cont_slice_36_split -> cont_37_lstm1_cont_slice_36_split_0
I0505 14:40:01.919960 26812 net.cpp:382] cont_37_lstm1_cont_slice_36_split -> cont_37_lstm1_cont_slice_36_split_1
I0505 14:40:01.919977 26812 net.cpp:124] Setting up cont_37_lstm1_cont_slice_36_split
I0505 14:40:01.919979 26812 net.cpp:131] Top shape: 1 512 (512)
I0505 14:40:01.919981 26812 net.cpp:131] Top shape: 1 512 (512)
I0505 14:40:01.919983 26812 net.cpp:139] Memory required for data: 15634432
I0505 14:40:01.919986 26812 layer_factory.hpp:77] Creating layer cont_38_lstm1_cont_slice_37_split
I0505 14:40:01.919988 26812 net.cpp:86] Creating Layer cont_38_lstm1_cont_slice_37_split
I0505 14:40:01.919991 26812 net.cpp:408] cont_38_lstm1_cont_slice_37_split <- cont_38
I0505 14:40:01.919993 26812 net.cpp:382] cont_38_lstm1_cont_slice_37_split -> cont_38_lstm1_cont_slice_37_split_0
I0505 14:40:01.919997 26812 net.cpp:382] cont_38_lstm1_cont_slice_37_split -> cont_38_lstm1_cont_slice_37_split_1
I0505 14:40:01.920013 26812 net.cpp:124] Setting up cont_38_lstm1_cont_slice_37_split
I0505 14:40:01.920017 26812 net.cpp:131] Top shape: 1 512 (512)
I0505 14:40:01.920018 26812 net.cpp:131] Top shape: 1 512 (512)
I0505 14:40:01.920020 26812 net.cpp:139] Memory required for data: 15638528
I0505 14:40:01.920022 26812 layer_factory.hpp:77] Creating layer cont_39_lstm1_cont_slice_38_split
I0505 14:40:01.920025 26812 net.cpp:86] Creating Layer cont_39_lstm1_cont_slice_38_split
I0505 14:40:01.920027 26812 net.cpp:408] cont_39_lstm1_cont_slice_38_split <- cont_39
I0505 14:40:01.920030 26812 net.cpp:382] cont_39_lstm1_cont_slice_38_split -> cont_39_lstm1_cont_slice_38_split_0
I0505 14:40:01.920034 26812 net.cpp:382] cont_39_lstm1_cont_slice_38_split -> cont_39_lstm1_cont_slice_38_split_1
I0505 14:40:01.920050 26812 net.cpp:124] Setting up cont_39_lstm1_cont_slice_38_split
I0505 14:40:01.920053 26812 net.cpp:131] Top shape: 1 512 (512)
I0505 14:40:01.920055 26812 net.cpp:131] Top shape: 1 512 (512)
I0505 14:40:01.920064 26812 net.cpp:139] Memory required for data: 15642624
I0505 14:40:01.920066 26812 layer_factory.hpp:77] Creating layer cont_40_lstm1_cont_slice_39_split
I0505 14:40:01.920069 26812 net.cpp:86] Creating Layer cont_40_lstm1_cont_slice_39_split
I0505 14:40:01.920071 26812 net.cpp:408] cont_40_lstm1_cont_slice_39_split <- cont_40
I0505 14:40:01.920075 26812 net.cpp:382] cont_40_lstm1_cont_slice_39_split -> cont_40_lstm1_cont_slice_39_split_0
I0505 14:40:01.920079 26812 net.cpp:382] cont_40_lstm1_cont_slice_39_split -> cont_40_lstm1_cont_slice_39_split_1
I0505 14:40:01.920096 26812 net.cpp:124] Setting up cont_40_lstm1_cont_slice_39_split
I0505 14:40:01.920099 26812 net.cpp:131] Top shape: 1 512 (512)
I0505 14:40:01.920101 26812 net.cpp:131] Top shape: 1 512 (512)
I0505 14:40:01.920104 26812 net.cpp:139] Memory required for data: 15646720
I0505 14:40:01.920106 26812 layer_factory.hpp:77] Creating layer cont_41_lstm1_cont_slice_40_split
I0505 14:40:01.920109 26812 net.cpp:86] Creating Layer cont_41_lstm1_cont_slice_40_split
I0505 14:40:01.920111 26812 net.cpp:408] cont_41_lstm1_cont_slice_40_split <- cont_41
I0505 14:40:01.920114 26812 net.cpp:382] cont_41_lstm1_cont_slice_40_split -> cont_41_lstm1_cont_slice_40_split_0
I0505 14:40:01.920117 26812 net.cpp:382] cont_41_lstm1_cont_slice_40_split -> cont_41_lstm1_cont_slice_40_split_1
I0505 14:40:01.920135 26812 net.cpp:124] Setting up cont_41_lstm1_cont_slice_40_split
I0505 14:40:01.920136 26812 net.cpp:131] Top shape: 1 512 (512)
I0505 14:40:01.920140 26812 net.cpp:131] Top shape: 1 512 (512)
I0505 14:40:01.920141 26812 net.cpp:139] Memory required for data: 15650816
I0505 14:40:01.920143 26812 layer_factory.hpp:77] Creating layer cont_42_lstm1_cont_slice_41_split
I0505 14:40:01.920146 26812 net.cpp:86] Creating Layer cont_42_lstm1_cont_slice_41_split
I0505 14:40:01.920148 26812 net.cpp:408] cont_42_lstm1_cont_slice_41_split <- cont_42
I0505 14:40:01.920151 26812 net.cpp:382] cont_42_lstm1_cont_slice_41_split -> cont_42_lstm1_cont_slice_41_split_0
I0505 14:40:01.920156 26812 net.cpp:382] cont_42_lstm1_cont_slice_41_split -> cont_42_lstm1_cont_slice_41_split_1
I0505 14:40:01.920171 26812 net.cpp:124] Setting up cont_42_lstm1_cont_slice_41_split
I0505 14:40:01.920173 26812 net.cpp:131] Top shape: 1 512 (512)
I0505 14:40:01.920176 26812 net.cpp:131] Top shape: 1 512 (512)
I0505 14:40:01.920178 26812 net.cpp:139] Memory required for data: 15654912
I0505 14:40:01.920181 26812 layer_factory.hpp:77] Creating layer cont_43_lstm1_cont_slice_42_split
I0505 14:40:01.920182 26812 net.cpp:86] Creating Layer cont_43_lstm1_cont_slice_42_split
I0505 14:40:01.920186 26812 net.cpp:408] cont_43_lstm1_cont_slice_42_split <- cont_43
I0505 14:40:01.920188 26812 net.cpp:382] cont_43_lstm1_cont_slice_42_split -> cont_43_lstm1_cont_slice_42_split_0
I0505 14:40:01.920192 26812 net.cpp:382] cont_43_lstm1_cont_slice_42_split -> cont_43_lstm1_cont_slice_42_split_1
I0505 14:40:01.920208 26812 net.cpp:124] Setting up cont_43_lstm1_cont_slice_42_split
I0505 14:40:01.920210 26812 net.cpp:131] Top shape: 1 512 (512)
I0505 14:40:01.920213 26812 net.cpp:131] Top shape: 1 512 (512)
I0505 14:40:01.920215 26812 net.cpp:139] Memory required for data: 15659008
I0505 14:40:01.920217 26812 layer_factory.hpp:77] Creating layer cont_44_lstm1_cont_slice_43_split
I0505 14:40:01.920220 26812 net.cpp:86] Creating Layer cont_44_lstm1_cont_slice_43_split
I0505 14:40:01.920222 26812 net.cpp:408] cont_44_lstm1_cont_slice_43_split <- cont_44
I0505 14:40:01.920225 26812 net.cpp:382] cont_44_lstm1_cont_slice_43_split -> cont_44_lstm1_cont_slice_43_split_0
I0505 14:40:01.920229 26812 net.cpp:382] cont_44_lstm1_cont_slice_43_split -> cont_44_lstm1_cont_slice_43_split_1
I0505 14:40:01.920245 26812 net.cpp:124] Setting up cont_44_lstm1_cont_slice_43_split
I0505 14:40:01.920248 26812 net.cpp:131] Top shape: 1 512 (512)
I0505 14:40:01.920250 26812 net.cpp:131] Top shape: 1 512 (512)
I0505 14:40:01.920253 26812 net.cpp:139] Memory required for data: 15663104
I0505 14:40:01.920254 26812 layer_factory.hpp:77] Creating layer cont_45_lstm1_cont_slice_44_split
I0505 14:40:01.920262 26812 net.cpp:86] Creating Layer cont_45_lstm1_cont_slice_44_split
I0505 14:40:01.920265 26812 net.cpp:408] cont_45_lstm1_cont_slice_44_split <- cont_45
I0505 14:40:01.920269 26812 net.cpp:382] cont_45_lstm1_cont_slice_44_split -> cont_45_lstm1_cont_slice_44_split_0
I0505 14:40:01.920271 26812 net.cpp:382] cont_45_lstm1_cont_slice_44_split -> cont_45_lstm1_cont_slice_44_split_1
I0505 14:40:01.920289 26812 net.cpp:124] Setting up cont_45_lstm1_cont_slice_44_split
I0505 14:40:01.920291 26812 net.cpp:131] Top shape: 1 512 (512)
I0505 14:40:01.920294 26812 net.cpp:131] Top shape: 1 512 (512)
I0505 14:40:01.920296 26812 net.cpp:139] Memory required for data: 15667200
I0505 14:40:01.920298 26812 layer_factory.hpp:77] Creating layer cont_46_lstm1_cont_slice_45_split
I0505 14:40:01.920301 26812 net.cpp:86] Creating Layer cont_46_lstm1_cont_slice_45_split
I0505 14:40:01.920303 26812 net.cpp:408] cont_46_lstm1_cont_slice_45_split <- cont_46
I0505 14:40:01.920306 26812 net.cpp:382] cont_46_lstm1_cont_slice_45_split -> cont_46_lstm1_cont_slice_45_split_0
I0505 14:40:01.920310 26812 net.cpp:382] cont_46_lstm1_cont_slice_45_split -> cont_46_lstm1_cont_slice_45_split_1
I0505 14:40:01.920326 26812 net.cpp:124] Setting up cont_46_lstm1_cont_slice_45_split
I0505 14:40:01.920328 26812 net.cpp:131] Top shape: 1 512 (512)
I0505 14:40:01.920331 26812 net.cpp:131] Top shape: 1 512 (512)
I0505 14:40:01.920333 26812 net.cpp:139] Memory required for data: 15671296
I0505 14:40:01.920336 26812 layer_factory.hpp:77] Creating layer cont_47_lstm1_cont_slice_46_split
I0505 14:40:01.920338 26812 net.cpp:86] Creating Layer cont_47_lstm1_cont_slice_46_split
I0505 14:40:01.920341 26812 net.cpp:408] cont_47_lstm1_cont_slice_46_split <- cont_47
I0505 14:40:01.920343 26812 net.cpp:382] cont_47_lstm1_cont_slice_46_split -> cont_47_lstm1_cont_slice_46_split_0
I0505 14:40:01.920346 26812 net.cpp:382] cont_47_lstm1_cont_slice_46_split -> cont_47_lstm1_cont_slice_46_split_1
I0505 14:40:01.920362 26812 net.cpp:124] Setting up cont_47_lstm1_cont_slice_46_split
I0505 14:40:01.920365 26812 net.cpp:131] Top shape: 1 512 (512)
I0505 14:40:01.920367 26812 net.cpp:131] Top shape: 1 512 (512)
I0505 14:40:01.920369 26812 net.cpp:139] Memory required for data: 15675392
I0505 14:40:01.920372 26812 layer_factory.hpp:77] Creating layer cont_48_lstm1_cont_slice_47_split
I0505 14:40:01.920374 26812 net.cpp:86] Creating Layer cont_48_lstm1_cont_slice_47_split
I0505 14:40:01.920377 26812 net.cpp:408] cont_48_lstm1_cont_slice_47_split <- cont_48
I0505 14:40:01.920379 26812 net.cpp:382] cont_48_lstm1_cont_slice_47_split -> cont_48_lstm1_cont_slice_47_split_0
I0505 14:40:01.920383 26812 net.cpp:382] cont_48_lstm1_cont_slice_47_split -> cont_48_lstm1_cont_slice_47_split_1
I0505 14:40:01.920399 26812 net.cpp:124] Setting up cont_48_lstm1_cont_slice_47_split
I0505 14:40:01.920403 26812 net.cpp:131] Top shape: 1 512 (512)
I0505 14:40:01.920404 26812 net.cpp:131] Top shape: 1 512 (512)
I0505 14:40:01.920406 26812 net.cpp:139] Memory required for data: 15679488
I0505 14:40:01.920408 26812 layer_factory.hpp:77] Creating layer cont_49_lstm1_cont_slice_48_split
I0505 14:40:01.920411 26812 net.cpp:86] Creating Layer cont_49_lstm1_cont_slice_48_split
I0505 14:40:01.920413 26812 net.cpp:408] cont_49_lstm1_cont_slice_48_split <- cont_49
I0505 14:40:01.920416 26812 net.cpp:382] cont_49_lstm1_cont_slice_48_split -> cont_49_lstm1_cont_slice_48_split_0
I0505 14:40:01.920420 26812 net.cpp:382] cont_49_lstm1_cont_slice_48_split -> cont_49_lstm1_cont_slice_48_split_1
I0505 14:40:01.920436 26812 net.cpp:124] Setting up cont_49_lstm1_cont_slice_48_split
I0505 14:40:01.920439 26812 net.cpp:131] Top shape: 1 512 (512)
I0505 14:40:01.920441 26812 net.cpp:131] Top shape: 1 512 (512)
I0505 14:40:01.920444 26812 net.cpp:139] Memory required for data: 15683584
I0505 14:40:01.920445 26812 layer_factory.hpp:77] Creating layer cont_50_lstm1_cont_slice_49_split
I0505 14:40:01.920449 26812 net.cpp:86] Creating Layer cont_50_lstm1_cont_slice_49_split
I0505 14:40:01.920450 26812 net.cpp:408] cont_50_lstm1_cont_slice_49_split <- cont_50
I0505 14:40:01.920459 26812 net.cpp:382] cont_50_lstm1_cont_slice_49_split -> cont_50_lstm1_cont_slice_49_split_0
I0505 14:40:01.920462 26812 net.cpp:382] cont_50_lstm1_cont_slice_49_split -> cont_50_lstm1_cont_slice_49_split_1
I0505 14:40:01.920480 26812 net.cpp:124] Setting up cont_50_lstm1_cont_slice_49_split
I0505 14:40:01.920482 26812 net.cpp:131] Top shape: 1 512 (512)
I0505 14:40:01.920485 26812 net.cpp:131] Top shape: 1 512 (512)
I0505 14:40:01.920487 26812 net.cpp:139] Memory required for data: 15687680
I0505 14:40:01.920490 26812 layer_factory.hpp:77] Creating layer cont_51_lstm1_cont_slice_50_split
I0505 14:40:01.920492 26812 net.cpp:86] Creating Layer cont_51_lstm1_cont_slice_50_split
I0505 14:40:01.920495 26812 net.cpp:408] cont_51_lstm1_cont_slice_50_split <- cont_51
I0505 14:40:01.920498 26812 net.cpp:382] cont_51_lstm1_cont_slice_50_split -> cont_51_lstm1_cont_slice_50_split_0
I0505 14:40:01.920501 26812 net.cpp:382] cont_51_lstm1_cont_slice_50_split -> cont_51_lstm1_cont_slice_50_split_1
I0505 14:40:01.920518 26812 net.cpp:124] Setting up cont_51_lstm1_cont_slice_50_split
I0505 14:40:01.920521 26812 net.cpp:131] Top shape: 1 512 (512)
I0505 14:40:01.920522 26812 net.cpp:131] Top shape: 1 512 (512)
I0505 14:40:01.920526 26812 net.cpp:139] Memory required for data: 15691776
I0505 14:40:01.920527 26812 layer_factory.hpp:77] Creating layer cont_52_lstm1_cont_slice_51_split
I0505 14:40:01.920531 26812 net.cpp:86] Creating Layer cont_52_lstm1_cont_slice_51_split
I0505 14:40:01.920532 26812 net.cpp:408] cont_52_lstm1_cont_slice_51_split <- cont_52
I0505 14:40:01.920536 26812 net.cpp:382] cont_52_lstm1_cont_slice_51_split -> cont_52_lstm1_cont_slice_51_split_0
I0505 14:40:01.920538 26812 net.cpp:382] cont_52_lstm1_cont_slice_51_split -> cont_52_lstm1_cont_slice_51_split_1
I0505 14:40:01.920554 26812 net.cpp:124] Setting up cont_52_lstm1_cont_slice_51_split
I0505 14:40:01.920557 26812 net.cpp:131] Top shape: 1 512 (512)
I0505 14:40:01.920559 26812 net.cpp:131] Top shape: 1 512 (512)
I0505 14:40:01.920562 26812 net.cpp:139] Memory required for data: 15695872
I0505 14:40:01.920563 26812 layer_factory.hpp:77] Creating layer cont_53_lstm1_cont_slice_52_split
I0505 14:40:01.920567 26812 net.cpp:86] Creating Layer cont_53_lstm1_cont_slice_52_split
I0505 14:40:01.920568 26812 net.cpp:408] cont_53_lstm1_cont_slice_52_split <- cont_53
I0505 14:40:01.920572 26812 net.cpp:382] cont_53_lstm1_cont_slice_52_split -> cont_53_lstm1_cont_slice_52_split_0
I0505 14:40:01.920575 26812 net.cpp:382] cont_53_lstm1_cont_slice_52_split -> cont_53_lstm1_cont_slice_52_split_1
I0505 14:40:01.920593 26812 net.cpp:124] Setting up cont_53_lstm1_cont_slice_52_split
I0505 14:40:01.920594 26812 net.cpp:131] Top shape: 1 512 (512)
I0505 14:40:01.920596 26812 net.cpp:131] Top shape: 1 512 (512)
I0505 14:40:01.920599 26812 net.cpp:139] Memory required for data: 15699968
I0505 14:40:01.920601 26812 layer_factory.hpp:77] Creating layer cont_54_lstm1_cont_slice_53_split
I0505 14:40:01.920603 26812 net.cpp:86] Creating Layer cont_54_lstm1_cont_slice_53_split
I0505 14:40:01.920605 26812 net.cpp:408] cont_54_lstm1_cont_slice_53_split <- cont_54
I0505 14:40:01.920608 26812 net.cpp:382] cont_54_lstm1_cont_slice_53_split -> cont_54_lstm1_cont_slice_53_split_0
I0505 14:40:01.920612 26812 net.cpp:382] cont_54_lstm1_cont_slice_53_split -> cont_54_lstm1_cont_slice_53_split_1
I0505 14:40:01.920629 26812 net.cpp:124] Setting up cont_54_lstm1_cont_slice_53_split
I0505 14:40:01.920631 26812 net.cpp:131] Top shape: 1 512 (512)
I0505 14:40:01.920634 26812 net.cpp:131] Top shape: 1 512 (512)
I0505 14:40:01.920635 26812 net.cpp:139] Memory required for data: 15704064
I0505 14:40:01.920637 26812 layer_factory.hpp:77] Creating layer cont_55_lstm1_cont_slice_54_split
I0505 14:40:01.920640 26812 net.cpp:86] Creating Layer cont_55_lstm1_cont_slice_54_split
I0505 14:40:01.920642 26812 net.cpp:408] cont_55_lstm1_cont_slice_54_split <- cont_55
I0505 14:40:01.920645 26812 net.cpp:382] cont_55_lstm1_cont_slice_54_split -> cont_55_lstm1_cont_slice_54_split_0
I0505 14:40:01.920655 26812 net.cpp:382] cont_55_lstm1_cont_slice_54_split -> cont_55_lstm1_cont_slice_54_split_1
I0505 14:40:01.920672 26812 net.cpp:124] Setting up cont_55_lstm1_cont_slice_54_split
I0505 14:40:01.920675 26812 net.cpp:131] Top shape: 1 512 (512)
I0505 14:40:01.920677 26812 net.cpp:131] Top shape: 1 512 (512)
I0505 14:40:01.920680 26812 net.cpp:139] Memory required for data: 15708160
I0505 14:40:01.920682 26812 layer_factory.hpp:77] Creating layer cont_56_lstm1_cont_slice_55_split
I0505 14:40:01.920686 26812 net.cpp:86] Creating Layer cont_56_lstm1_cont_slice_55_split
I0505 14:40:01.920688 26812 net.cpp:408] cont_56_lstm1_cont_slice_55_split <- cont_56
I0505 14:40:01.920691 26812 net.cpp:382] cont_56_lstm1_cont_slice_55_split -> cont_56_lstm1_cont_slice_55_split_0
I0505 14:40:01.920694 26812 net.cpp:382] cont_56_lstm1_cont_slice_55_split -> cont_56_lstm1_cont_slice_55_split_1
I0505 14:40:01.920711 26812 net.cpp:124] Setting up cont_56_lstm1_cont_slice_55_split
I0505 14:40:01.920713 26812 net.cpp:131] Top shape: 1 512 (512)
I0505 14:40:01.920717 26812 net.cpp:131] Top shape: 1 512 (512)
I0505 14:40:01.920718 26812 net.cpp:139] Memory required for data: 15712256
I0505 14:40:01.920720 26812 layer_factory.hpp:77] Creating layer cont_57_lstm1_cont_slice_56_split
I0505 14:40:01.920723 26812 net.cpp:86] Creating Layer cont_57_lstm1_cont_slice_56_split
I0505 14:40:01.920725 26812 net.cpp:408] cont_57_lstm1_cont_slice_56_split <- cont_57
I0505 14:40:01.920728 26812 net.cpp:382] cont_57_lstm1_cont_slice_56_split -> cont_57_lstm1_cont_slice_56_split_0
I0505 14:40:01.920732 26812 net.cpp:382] cont_57_lstm1_cont_slice_56_split -> cont_57_lstm1_cont_slice_56_split_1
I0505 14:40:01.920748 26812 net.cpp:124] Setting up cont_57_lstm1_cont_slice_56_split
I0505 14:40:01.920750 26812 net.cpp:131] Top shape: 1 512 (512)
I0505 14:40:01.920753 26812 net.cpp:131] Top shape: 1 512 (512)
I0505 14:40:01.920755 26812 net.cpp:139] Memory required for data: 15716352
I0505 14:40:01.920758 26812 layer_factory.hpp:77] Creating layer cont_58_lstm1_cont_slice_57_split
I0505 14:40:01.920760 26812 net.cpp:86] Creating Layer cont_58_lstm1_cont_slice_57_split
I0505 14:40:01.920763 26812 net.cpp:408] cont_58_lstm1_cont_slice_57_split <- cont_58
I0505 14:40:01.920765 26812 net.cpp:382] cont_58_lstm1_cont_slice_57_split -> cont_58_lstm1_cont_slice_57_split_0
I0505 14:40:01.920768 26812 net.cpp:382] cont_58_lstm1_cont_slice_57_split -> cont_58_lstm1_cont_slice_57_split_1
I0505 14:40:01.920785 26812 net.cpp:124] Setting up cont_58_lstm1_cont_slice_57_split
I0505 14:40:01.920787 26812 net.cpp:131] Top shape: 1 512 (512)
I0505 14:40:01.920790 26812 net.cpp:131] Top shape: 1 512 (512)
I0505 14:40:01.920792 26812 net.cpp:139] Memory required for data: 15720448
I0505 14:40:01.920794 26812 layer_factory.hpp:77] Creating layer cont_59_lstm1_cont_slice_58_split
I0505 14:40:01.920797 26812 net.cpp:86] Creating Layer cont_59_lstm1_cont_slice_58_split
I0505 14:40:01.920799 26812 net.cpp:408] cont_59_lstm1_cont_slice_58_split <- cont_59
I0505 14:40:01.920802 26812 net.cpp:382] cont_59_lstm1_cont_slice_58_split -> cont_59_lstm1_cont_slice_58_split_0
I0505 14:40:01.920806 26812 net.cpp:382] cont_59_lstm1_cont_slice_58_split -> cont_59_lstm1_cont_slice_58_split_1
I0505 14:40:01.920822 26812 net.cpp:124] Setting up cont_59_lstm1_cont_slice_58_split
I0505 14:40:01.920825 26812 net.cpp:131] Top shape: 1 512 (512)
I0505 14:40:01.920827 26812 net.cpp:131] Top shape: 1 512 (512)
I0505 14:40:01.920830 26812 net.cpp:139] Memory required for data: 15724544
I0505 14:40:01.920831 26812 layer_factory.hpp:77] Creating layer cont_60_lstm1_cont_slice_59_split
I0505 14:40:01.920835 26812 net.cpp:86] Creating Layer cont_60_lstm1_cont_slice_59_split
I0505 14:40:01.920836 26812 net.cpp:408] cont_60_lstm1_cont_slice_59_split <- cont_60
I0505 14:40:01.920840 26812 net.cpp:382] cont_60_lstm1_cont_slice_59_split -> cont_60_lstm1_cont_slice_59_split_0
I0505 14:40:01.920843 26812 net.cpp:382] cont_60_lstm1_cont_slice_59_split -> cont_60_lstm1_cont_slice_59_split_1
I0505 14:40:01.920866 26812 net.cpp:124] Setting up cont_60_lstm1_cont_slice_59_split
I0505 14:40:01.920868 26812 net.cpp:131] Top shape: 1 512 (512)
I0505 14:40:01.920871 26812 net.cpp:131] Top shape: 1 512 (512)
I0505 14:40:01.920873 26812 net.cpp:139] Memory required for data: 15728640
I0505 14:40:01.920876 26812 layer_factory.hpp:77] Creating layer cont_61_lstm1_cont_slice_60_split
I0505 14:40:01.920878 26812 net.cpp:86] Creating Layer cont_61_lstm1_cont_slice_60_split
I0505 14:40:01.920881 26812 net.cpp:408] cont_61_lstm1_cont_slice_60_split <- cont_61
I0505 14:40:01.926935 26812 net.cpp:382] cont_61_lstm1_cont_slice_60_split -> cont_61_lstm1_cont_slice_60_split_0
I0505 14:40:01.926947 26812 net.cpp:382] cont_61_lstm1_cont_slice_60_split -> cont_61_lstm1_cont_slice_60_split_1
I0505 14:40:01.926985 26812 net.cpp:124] Setting up cont_61_lstm1_cont_slice_60_split
I0505 14:40:01.926990 26812 net.cpp:131] Top shape: 1 512 (512)
I0505 14:40:01.926993 26812 net.cpp:131] Top shape: 1 512 (512)
I0505 14:40:01.926997 26812 net.cpp:139] Memory required for data: 15732736
I0505 14:40:01.927000 26812 layer_factory.hpp:77] Creating layer cont_62_lstm1_cont_slice_61_split
I0505 14:40:01.927007 26812 net.cpp:86] Creating Layer cont_62_lstm1_cont_slice_61_split
I0505 14:40:01.927011 26812 net.cpp:408] cont_62_lstm1_cont_slice_61_split <- cont_62
I0505 14:40:01.927016 26812 net.cpp:382] cont_62_lstm1_cont_slice_61_split -> cont_62_lstm1_cont_slice_61_split_0
I0505 14:40:01.927023 26812 net.cpp:382] cont_62_lstm1_cont_slice_61_split -> cont_62_lstm1_cont_slice_61_split_1
I0505 14:40:01.927049 26812 net.cpp:124] Setting up cont_62_lstm1_cont_slice_61_split
I0505 14:40:01.927053 26812 net.cpp:131] Top shape: 1 512 (512)
I0505 14:40:01.927057 26812 net.cpp:131] Top shape: 1 512 (512)
I0505 14:40:01.927060 26812 net.cpp:139] Memory required for data: 15736832
I0505 14:40:01.927063 26812 layer_factory.hpp:77] Creating layer cont_63_lstm1_cont_slice_62_split
I0505 14:40:01.927068 26812 net.cpp:86] Creating Layer cont_63_lstm1_cont_slice_62_split
I0505 14:40:01.927072 26812 net.cpp:408] cont_63_lstm1_cont_slice_62_split <- cont_63
I0505 14:40:01.927076 26812 net.cpp:382] cont_63_lstm1_cont_slice_62_split -> cont_63_lstm1_cont_slice_62_split_0
I0505 14:40:01.927083 26812 net.cpp:382] cont_63_lstm1_cont_slice_62_split -> cont_63_lstm1_cont_slice_62_split_1
I0505 14:40:01.927107 26812 net.cpp:124] Setting up cont_63_lstm1_cont_slice_62_split
I0505 14:40:01.927110 26812 net.cpp:131] Top shape: 1 512 (512)
I0505 14:40:01.927114 26812 net.cpp:131] Top shape: 1 512 (512)
I0505 14:40:01.927117 26812 net.cpp:139] Memory required for data: 15740928
I0505 14:40:01.927120 26812 layer_factory.hpp:77] Creating layer cont_64_lstm1_cont_slice_63_split
I0505 14:40:01.927125 26812 net.cpp:86] Creating Layer cont_64_lstm1_cont_slice_63_split
I0505 14:40:01.927129 26812 net.cpp:408] cont_64_lstm1_cont_slice_63_split <- cont_64
I0505 14:40:01.927132 26812 net.cpp:382] cont_64_lstm1_cont_slice_63_split -> cont_64_lstm1_cont_slice_63_split_0
I0505 14:40:01.927139 26812 net.cpp:382] cont_64_lstm1_cont_slice_63_split -> cont_64_lstm1_cont_slice_63_split_1
I0505 14:40:01.927162 26812 net.cpp:124] Setting up cont_64_lstm1_cont_slice_63_split
I0505 14:40:01.927166 26812 net.cpp:131] Top shape: 1 512 (512)
I0505 14:40:01.927170 26812 net.cpp:131] Top shape: 1 512 (512)
I0505 14:40:01.927173 26812 net.cpp:139] Memory required for data: 15745024
I0505 14:40:01.927176 26812 layer_factory.hpp:77] Creating layer cont_65_lstm1_cont_slice_64_split
I0505 14:40:01.927181 26812 net.cpp:86] Creating Layer cont_65_lstm1_cont_slice_64_split
I0505 14:40:01.927184 26812 net.cpp:408] cont_65_lstm1_cont_slice_64_split <- cont_65
I0505 14:40:01.927188 26812 net.cpp:382] cont_65_lstm1_cont_slice_64_split -> cont_65_lstm1_cont_slice_64_split_0
I0505 14:40:01.927193 26812 net.cpp:382] cont_65_lstm1_cont_slice_64_split -> cont_65_lstm1_cont_slice_64_split_1
I0505 14:40:01.927218 26812 net.cpp:124] Setting up cont_65_lstm1_cont_slice_64_split
I0505 14:40:01.927222 26812 net.cpp:131] Top shape: 1 512 (512)
I0505 14:40:01.927238 26812 net.cpp:131] Top shape: 1 512 (512)
I0505 14:40:01.927242 26812 net.cpp:139] Memory required for data: 15749120
I0505 14:40:01.927245 26812 layer_factory.hpp:77] Creating layer cont_66_lstm1_cont_slice_65_split
I0505 14:40:01.927250 26812 net.cpp:86] Creating Layer cont_66_lstm1_cont_slice_65_split
I0505 14:40:01.927254 26812 net.cpp:408] cont_66_lstm1_cont_slice_65_split <- cont_66
I0505 14:40:01.927258 26812 net.cpp:382] cont_66_lstm1_cont_slice_65_split -> cont_66_lstm1_cont_slice_65_split_0
I0505 14:40:01.927265 26812 net.cpp:382] cont_66_lstm1_cont_slice_65_split -> cont_66_lstm1_cont_slice_65_split_1
I0505 14:40:01.927299 26812 net.cpp:124] Setting up cont_66_lstm1_cont_slice_65_split
I0505 14:40:01.927304 26812 net.cpp:131] Top shape: 1 512 (512)
I0505 14:40:01.927307 26812 net.cpp:131] Top shape: 1 512 (512)
I0505 14:40:01.927310 26812 net.cpp:139] Memory required for data: 15753216
I0505 14:40:01.927314 26812 layer_factory.hpp:77] Creating layer cont_67_lstm1_cont_slice_66_split
I0505 14:40:01.927318 26812 net.cpp:86] Creating Layer cont_67_lstm1_cont_slice_66_split
I0505 14:40:01.927321 26812 net.cpp:408] cont_67_lstm1_cont_slice_66_split <- cont_67
I0505 14:40:01.927326 26812 net.cpp:382] cont_67_lstm1_cont_slice_66_split -> cont_67_lstm1_cont_slice_66_split_0
I0505 14:40:01.927331 26812 net.cpp:382] cont_67_lstm1_cont_slice_66_split -> cont_67_lstm1_cont_slice_66_split_1
I0505 14:40:01.927357 26812 net.cpp:124] Setting up cont_67_lstm1_cont_slice_66_split
I0505 14:40:01.927361 26812 net.cpp:131] Top shape: 1 512 (512)
I0505 14:40:01.927364 26812 net.cpp:131] Top shape: 1 512 (512)
I0505 14:40:01.927368 26812 net.cpp:139] Memory required for data: 15757312
I0505 14:40:01.927371 26812 layer_factory.hpp:77] Creating layer cont_68_lstm1_cont_slice_67_split
I0505 14:40:01.927376 26812 net.cpp:86] Creating Layer cont_68_lstm1_cont_slice_67_split
I0505 14:40:01.927379 26812 net.cpp:408] cont_68_lstm1_cont_slice_67_split <- cont_68
I0505 14:40:01.927383 26812 net.cpp:382] cont_68_lstm1_cont_slice_67_split -> cont_68_lstm1_cont_slice_67_split_0
I0505 14:40:01.927388 26812 net.cpp:382] cont_68_lstm1_cont_slice_67_split -> cont_68_lstm1_cont_slice_67_split_1
I0505 14:40:01.927413 26812 net.cpp:124] Setting up cont_68_lstm1_cont_slice_67_split
I0505 14:40:01.927417 26812 net.cpp:131] Top shape: 1 512 (512)
I0505 14:40:01.927422 26812 net.cpp:131] Top shape: 1 512 (512)
I0505 14:40:01.927424 26812 net.cpp:139] Memory required for data: 15761408
I0505 14:40:01.927428 26812 layer_factory.hpp:77] Creating layer cont_69_lstm1_cont_slice_68_split
I0505 14:40:01.927431 26812 net.cpp:86] Creating Layer cont_69_lstm1_cont_slice_68_split
I0505 14:40:01.927435 26812 net.cpp:408] cont_69_lstm1_cont_slice_68_split <- cont_69
I0505 14:40:01.927439 26812 net.cpp:382] cont_69_lstm1_cont_slice_68_split -> cont_69_lstm1_cont_slice_68_split_0
I0505 14:40:01.927445 26812 net.cpp:382] cont_69_lstm1_cont_slice_68_split -> cont_69_lstm1_cont_slice_68_split_1
I0505 14:40:01.927470 26812 net.cpp:124] Setting up cont_69_lstm1_cont_slice_68_split
I0505 14:40:01.927474 26812 net.cpp:131] Top shape: 1 512 (512)
I0505 14:40:01.927477 26812 net.cpp:131] Top shape: 1 512 (512)
I0505 14:40:01.927480 26812 net.cpp:139] Memory required for data: 15765504
I0505 14:40:01.927484 26812 layer_factory.hpp:77] Creating layer cont_70_lstm1_cont_slice_69_split
I0505 14:40:01.927489 26812 net.cpp:86] Creating Layer cont_70_lstm1_cont_slice_69_split
I0505 14:40:01.927491 26812 net.cpp:408] cont_70_lstm1_cont_slice_69_split <- cont_70
I0505 14:40:01.927496 26812 net.cpp:382] cont_70_lstm1_cont_slice_69_split -> cont_70_lstm1_cont_slice_69_split_0
I0505 14:40:01.927501 26812 net.cpp:382] cont_70_lstm1_cont_slice_69_split -> cont_70_lstm1_cont_slice_69_split_1
I0505 14:40:01.927526 26812 net.cpp:124] Setting up cont_70_lstm1_cont_slice_69_split
I0505 14:40:01.927529 26812 net.cpp:131] Top shape: 1 512 (512)
I0505 14:40:01.927533 26812 net.cpp:131] Top shape: 1 512 (512)
I0505 14:40:01.927537 26812 net.cpp:139] Memory required for data: 15769600
I0505 14:40:01.927549 26812 layer_factory.hpp:77] Creating layer cont_71_lstm1_cont_slice_70_split
I0505 14:40:01.927553 26812 net.cpp:86] Creating Layer cont_71_lstm1_cont_slice_70_split
I0505 14:40:01.927557 26812 net.cpp:408] cont_71_lstm1_cont_slice_70_split <- cont_71
I0505 14:40:01.927561 26812 net.cpp:382] cont_71_lstm1_cont_slice_70_split -> cont_71_lstm1_cont_slice_70_split_0
I0505 14:40:01.927567 26812 net.cpp:382] cont_71_lstm1_cont_slice_70_split -> cont_71_lstm1_cont_slice_70_split_1
I0505 14:40:01.934095 26812 net.cpp:124] Setting up cont_71_lstm1_cont_slice_70_split
I0505 14:40:01.934103 26812 net.cpp:131] Top shape: 1 512 (512)
I0505 14:40:01.934109 26812 net.cpp:131] Top shape: 1 512 (512)
I0505 14:40:01.934114 26812 net.cpp:139] Memory required for data: 15773696
I0505 14:40:01.934118 26812 layer_factory.hpp:77] Creating layer cont_72_lstm1_cont_slice_71_split
I0505 14:40:01.934125 26812 net.cpp:86] Creating Layer cont_72_lstm1_cont_slice_71_split
I0505 14:40:01.934130 26812 net.cpp:408] cont_72_lstm1_cont_slice_71_split <- cont_72
I0505 14:40:01.934137 26812 net.cpp:382] cont_72_lstm1_cont_slice_71_split -> cont_72_lstm1_cont_slice_71_split_0
I0505 14:40:01.934145 26812 net.cpp:382] cont_72_lstm1_cont_slice_71_split -> cont_72_lstm1_cont_slice_71_split_1
I0505 14:40:01.934176 26812 net.cpp:124] Setting up cont_72_lstm1_cont_slice_71_split
I0505 14:40:01.934180 26812 net.cpp:131] Top shape: 1 512 (512)
I0505 14:40:01.934185 26812 net.cpp:131] Top shape: 1 512 (512)
I0505 14:40:01.934187 26812 net.cpp:139] Memory required for data: 15777792
I0505 14:40:01.934190 26812 layer_factory.hpp:77] Creating layer cont_73_lstm1_cont_slice_72_split
I0505 14:40:01.934195 26812 net.cpp:86] Creating Layer cont_73_lstm1_cont_slice_72_split
I0505 14:40:01.934198 26812 net.cpp:408] cont_73_lstm1_cont_slice_72_split <- cont_73
I0505 14:40:01.934203 26812 net.cpp:382] cont_73_lstm1_cont_slice_72_split -> cont_73_lstm1_cont_slice_72_split_0
I0505 14:40:01.934208 26812 net.cpp:382] cont_73_lstm1_cont_slice_72_split -> cont_73_lstm1_cont_slice_72_split_1
I0505 14:40:01.934233 26812 net.cpp:124] Setting up cont_73_lstm1_cont_slice_72_split
I0505 14:40:01.934237 26812 net.cpp:131] Top shape: 1 512 (512)
I0505 14:40:01.934240 26812 net.cpp:131] Top shape: 1 512 (512)
I0505 14:40:01.934244 26812 net.cpp:139] Memory required for data: 15781888
I0505 14:40:01.934247 26812 layer_factory.hpp:77] Creating layer cont_74_lstm1_cont_slice_73_split
I0505 14:40:01.934252 26812 net.cpp:86] Creating Layer cont_74_lstm1_cont_slice_73_split
I0505 14:40:01.934254 26812 net.cpp:408] cont_74_lstm1_cont_slice_73_split <- cont_74
I0505 14:40:01.934259 26812 net.cpp:382] cont_74_lstm1_cont_slice_73_split -> cont_74_lstm1_cont_slice_73_split_0
I0505 14:40:01.934264 26812 net.cpp:382] cont_74_lstm1_cont_slice_73_split -> cont_74_lstm1_cont_slice_73_split_1
I0505 14:40:01.934289 26812 net.cpp:124] Setting up cont_74_lstm1_cont_slice_73_split
I0505 14:40:01.934293 26812 net.cpp:131] Top shape: 1 512 (512)
I0505 14:40:01.934296 26812 net.cpp:131] Top shape: 1 512 (512)
I0505 14:40:01.934299 26812 net.cpp:139] Memory required for data: 15785984
I0505 14:40:01.934303 26812 layer_factory.hpp:77] Creating layer cont_75_lstm1_cont_slice_74_split
I0505 14:40:01.934306 26812 net.cpp:86] Creating Layer cont_75_lstm1_cont_slice_74_split
I0505 14:40:01.934309 26812 net.cpp:408] cont_75_lstm1_cont_slice_74_split <- cont_75
I0505 14:40:01.934314 26812 net.cpp:382] cont_75_lstm1_cont_slice_74_split -> cont_75_lstm1_cont_slice_74_split_0
I0505 14:40:01.934319 26812 net.cpp:382] cont_75_lstm1_cont_slice_74_split -> cont_75_lstm1_cont_slice_74_split_1
I0505 14:40:01.934345 26812 net.cpp:124] Setting up cont_75_lstm1_cont_slice_74_split
I0505 14:40:01.934347 26812 net.cpp:131] Top shape: 1 512 (512)
I0505 14:40:01.934350 26812 net.cpp:131] Top shape: 1 512 (512)
I0505 14:40:01.934355 26812 net.cpp:139] Memory required for data: 15790080
I0505 14:40:01.934357 26812 layer_factory.hpp:77] Creating layer cont_76_lstm1_cont_slice_75_split
I0505 14:40:01.934371 26812 net.cpp:86] Creating Layer cont_76_lstm1_cont_slice_75_split
I0505 14:40:01.934376 26812 net.cpp:408] cont_76_lstm1_cont_slice_75_split <- cont_76
I0505 14:40:01.934379 26812 net.cpp:382] cont_76_lstm1_cont_slice_75_split -> cont_76_lstm1_cont_slice_75_split_0
I0505 14:40:01.934386 26812 net.cpp:382] cont_76_lstm1_cont_slice_75_split -> cont_76_lstm1_cont_slice_75_split_1
I0505 14:40:01.934412 26812 net.cpp:124] Setting up cont_76_lstm1_cont_slice_75_split
I0505 14:40:01.934417 26812 net.cpp:131] Top shape: 1 512 (512)
I0505 14:40:01.934419 26812 net.cpp:131] Top shape: 1 512 (512)
I0505 14:40:01.934423 26812 net.cpp:139] Memory required for data: 15794176
I0505 14:40:01.934427 26812 layer_factory.hpp:77] Creating layer cont_77_lstm1_cont_slice_76_split
I0505 14:40:01.934430 26812 net.cpp:86] Creating Layer cont_77_lstm1_cont_slice_76_split
I0505 14:40:01.934434 26812 net.cpp:408] cont_77_lstm1_cont_slice_76_split <- cont_77
I0505 14:40:01.934438 26812 net.cpp:382] cont_77_lstm1_cont_slice_76_split -> cont_77_lstm1_cont_slice_76_split_0
I0505 14:40:01.934444 26812 net.cpp:382] cont_77_lstm1_cont_slice_76_split -> cont_77_lstm1_cont_slice_76_split_1
I0505 14:40:01.934469 26812 net.cpp:124] Setting up cont_77_lstm1_cont_slice_76_split
I0505 14:40:01.934473 26812 net.cpp:131] Top shape: 1 512 (512)
I0505 14:40:01.934476 26812 net.cpp:131] Top shape: 1 512 (512)
I0505 14:40:01.934480 26812 net.cpp:139] Memory required for data: 15798272
I0505 14:40:01.934482 26812 layer_factory.hpp:77] Creating layer cont_78_lstm1_cont_slice_77_split
I0505 14:40:01.934487 26812 net.cpp:86] Creating Layer cont_78_lstm1_cont_slice_77_split
I0505 14:40:01.934490 26812 net.cpp:408] cont_78_lstm1_cont_slice_77_split <- cont_78
I0505 14:40:01.934496 26812 net.cpp:382] cont_78_lstm1_cont_slice_77_split -> cont_78_lstm1_cont_slice_77_split_0
I0505 14:40:01.934501 26812 net.cpp:382] cont_78_lstm1_cont_slice_77_split -> cont_78_lstm1_cont_slice_77_split_1
I0505 14:40:01.934526 26812 net.cpp:124] Setting up cont_78_lstm1_cont_slice_77_split
I0505 14:40:01.934530 26812 net.cpp:131] Top shape: 1 512 (512)
I0505 14:40:01.934533 26812 net.cpp:131] Top shape: 1 512 (512)
I0505 14:40:01.934536 26812 net.cpp:139] Memory required for data: 15802368
I0505 14:40:01.934540 26812 layer_factory.hpp:77] Creating layer cont_79_lstm1_cont_slice_78_split
I0505 14:40:01.934543 26812 net.cpp:86] Creating Layer cont_79_lstm1_cont_slice_78_split
I0505 14:40:01.934546 26812 net.cpp:408] cont_79_lstm1_cont_slice_78_split <- cont_79
I0505 14:40:01.934551 26812 net.cpp:382] cont_79_lstm1_cont_slice_78_split -> cont_79_lstm1_cont_slice_78_split_0
I0505 14:40:01.934556 26812 net.cpp:382] cont_79_lstm1_cont_slice_78_split -> cont_79_lstm1_cont_slice_78_split_1
I0505 14:40:01.934581 26812 net.cpp:124] Setting up cont_79_lstm1_cont_slice_78_split
I0505 14:40:01.934584 26812 net.cpp:131] Top shape: 1 512 (512)
I0505 14:40:01.934588 26812 net.cpp:131] Top shape: 1 512 (512)
I0505 14:40:01.934592 26812 net.cpp:139] Memory required for data: 15806464
I0505 14:40:01.934594 26812 layer_factory.hpp:77] Creating layer cont_80_lstm1_cont_slice_79_split
I0505 14:40:01.934599 26812 net.cpp:86] Creating Layer cont_80_lstm1_cont_slice_79_split
I0505 14:40:01.934602 26812 net.cpp:408] cont_80_lstm1_cont_slice_79_split <- cont_80
I0505 14:40:01.934607 26812 net.cpp:382] cont_80_lstm1_cont_slice_79_split -> cont_80_lstm1_cont_slice_79_split_0
I0505 14:40:01.934612 26812 net.cpp:382] cont_80_lstm1_cont_slice_79_split -> cont_80_lstm1_cont_slice_79_split_1
I0505 14:40:01.934638 26812 net.cpp:124] Setting up cont_80_lstm1_cont_slice_79_split
I0505 14:40:01.934641 26812 net.cpp:131] Top shape: 1 512 (512)
I0505 14:40:01.934644 26812 net.cpp:131] Top shape: 1 512 (512)
I0505 14:40:01.934648 26812 net.cpp:139] Memory required for data: 15810560
I0505 14:40:01.934650 26812 layer_factory.hpp:77] Creating layer lstm1_x_transform
I0505 14:40:01.934659 26812 net.cpp:86] Creating Layer lstm1_x_transform
I0505 14:40:01.934662 26812 net.cpp:408] lstm1_x_transform <- x
I0505 14:40:01.934677 26812 net.cpp:382] lstm1_x_transform -> W_xc_x
I0505 14:40:01.937019 26812 net.cpp:124] Setting up lstm1_x_transform
I0505 14:40:01.937038 26812 net.cpp:131] Top shape: 80 512 400 (16384000)
I0505 14:40:01.937048 26812 net.cpp:139] Memory required for data: 81346560
I0505 14:40:01.937067 26812 layer_factory.hpp:77] Creating layer lstm1_W_xc_x_slice
I0505 14:40:01.937083 26812 net.cpp:86] Creating Layer lstm1_W_xc_x_slice
I0505 14:40:01.945436 26812 net.cpp:408] lstm1_W_xc_x_slice <- W_xc_x
I0505 14:40:01.945466 26812 net.cpp:382] lstm1_W_xc_x_slice -> W_xc_x_1
I0505 14:40:01.945489 26812 net.cpp:382] lstm1_W_xc_x_slice -> W_xc_x_2
…
I0505 14:40:01.946918 26812 net.cpp:382] lstm1_W_xc_x_slice -> W_xc_x_74
I0505 14:40:01.946938 26812 net.cpp:382] lstm1_W_xc_x_slice -> W_xc_x_75
I0505 14:40:01.946955 26812 net.cpp:382] lstm1_W_xc_x_slice -> W_xc_x_76
I0505 14:40:01.946974 26812 net.cpp:382] lstm1_W_xc_x_slice -> W_xc_x_77
I0505 14:40:01.946992 26812 net.cpp:382] lstm1_W_xc_x_slice -> W_xc_x_78
I0505 14:40:01.947011 26812 net.cpp:382] lstm1_W_xc_x_slice -> W_xc_x_79
I0505 14:40:01.947031 26812 net.cpp:382] lstm1_W_xc_x_slice -> W_xc_x_80
I0505 14:40:01.948312 26812 net.cpp:124] Setting up lstm1_W_xc_x_slice
I0505 14:40:01.948333 26812 net.cpp:131] Top shape: 1 512 400 (204800)
I0505 14:40:01.948343 26812 net.cpp:131] Top shape: 1 512 400 (204800)
I0505 14:40:01.948349 26812 net.cpp:131] Top shape: 1 512 400 (204800)
I0505 14:40:01.948355 26812 net.cpp:131] Top shape: 1 512 400 (204800)
I0505 14:40:01.948360 26812 net.cpp:131] Top shape: 1 512 400 (204800)
I0505 14:40:01.948365 26812 net.cpp:131] Top shape: 1 512 400 (204800)
I0505 14:40:01.948371 26812 net.cpp:131] Top shape: 1 512 400 (204800)
I0505 14:40:01.948376 26812 net.cpp:131] Top shape: 1 512 400 (204800)
I0505 14:40:01.948381 26812 net.cpp:131] Top shape: 1 512 400 (204800)
I0505 14:40:01.948386 26812 net.cpp:131] Top shape: 1 512 400 (204800)
I0505 14:40:01.948391 26812 net.cpp:131] Top shape: 1 512 400 (204800)
I0505 14:40:01.948397 26812 net.cpp:131] Top shape: 1 512 400 (204800)
I0505 14:40:01.948402 26812 net.cpp:131] Top shape: 1 512 400 (204800)
I0505 14:40:01.948407 26812 net.cpp:131] Top shape: 1 512 400 (204800)
I0505 14:40:01.948412 26812 net.cpp:131] Top shape: 1 512 400 (204800)
I0505 14:40:01.948417 26812 net.cpp:131] Top shape: 1 512 400 (204800)
I0505 14:40:01.948423 26812 net.cpp:131] Top shape: 1 512 400 (204800)
I0505 14:40:01.948428 26812 net.cpp:131] Top shape: 1 512 400 (204800)
I0505 14:40:01.948433 26812 net.cpp:131] Top shape: 1 512 400 (204800)
I0505 14:40:01.948438 26812 net.cpp:131] Top shape: 1 512 400 (204800)
I0505 14:40:01.948443 26812 net.cpp:131] Top shape: 1 512 400 (204800)
I0505 14:40:01.948448 26812 net.cpp:131] Top shape: 1 512 400 (204800)
I0505 14:40:01.948453 26812 net.cpp:131] Top shape: 1 512 400 (204800)
I0505 14:40:01.948458 26812 net.cpp:131] Top shape: 1 512 400 (204800)
I0505 14:40:01.948463 26812 net.cpp:131] Top shape: 1 512 400 (204800)
I0505 14:40:01.948510 26812 net.cpp:131] Top shape: 1 512 400 (204800)
I0505 14:40:01.948516 26812 net.cpp:131] Top shape: 1 512 400 (204800)
I0505 14:40:01.948521 26812 net.cpp:131] Top shape: 1 512 400 (204800)
I0505 14:40:01.948526 26812 net.cpp:131] Top shape: 1 512 400 (204800)
I0505 14:40:01.948531 26812 net.cpp:131] Top shape: 1 512 400 (204800)
I0505 14:40:01.961486 26812 net.cpp:131] Top shape: 1 512 400 (204800)
I0505 14:40:01.961514 26812 net.cpp:131] Top shape: 1 512 400 (204800)
I0505 14:40:01.961520 26812 net.cpp:131] Top shape: 1 512 400 (204800)
I0505 14:40:01.961527 26812 net.cpp:131] Top shape: 1 512 400 (204800)
I0505 14:40:01.961534 26812 net.cpp:131] Top shape: 1 512 400 (204800)
I0505 14:40:01.961540 26812 net.cpp:131] Top shape: 1 512 400 (204800)
I0505 14:40:01.961546 26812 net.cpp:131] Top shape: 1 512 400 (204800)
I0505 14:40:01.961553 26812 net.cpp:131] Top shape: 1 512 400 (204800)
I0505 14:40:01.961560 26812 net.cpp:131] Top shape: 1 512 400 (204800)
I0505 14:40:01.961566 26812 net.cpp:131] Top shape: 1 512 400 (204800)
I0505 14:40:01.961571 26812 net.cpp:131] Top shape: 1 512 400 (204800)
I0505 14:40:01.961578 26812 net.cpp:131] Top shape: 1 512 400 (204800)
I0505 14:40:01.961585 26812 net.cpp:131] Top shape: 1 512 400 (204800)
I0505 14:40:01.961592 26812 net.cpp:131] Top shape: 1 512 400 (204800)
I0505 14:40:01.961597 26812 net.cpp:131] Top shape: 1 512 400 (204800)
I0505 14:40:01.961604 26812 net.cpp:131] Top shape: 1 512 400 (204800)
I0505 14:40:01.961611 26812 net.cpp:131] Top shape: 1 512 400 (204800)
I0505 14:40:01.961618 26812 net.cpp:131] Top shape: 1 512 400 (204800)
I0505 14:40:01.961625 26812 net.cpp:131] Top shape: 1 512 400 (204800)
I0505 14:40:01.961632 26812 net.cpp:131] Top shape: 1 512 400 (204800)
I0505 14:40:01.961640 26812 net.cpp:131] Top shape: 1 512 400 (204800)
I0505 14:40:01.961647 26812 net.cpp:131] Top shape: 1 512 400 (204800)
I0505 14:40:01.961652 26812 net.cpp:131] Top shape: 1 512 400 (204800)
I0505 14:40:01.961658 26812 net.cpp:131] Top shape: 1 512 400 (204800)
I0505 14:40:01.961664 26812 net.cpp:131] Top shape: 1 512 400 (204800)
I0505 14:40:01.961670 26812 net.cpp:131] Top shape: 1 512 400 (204800)
I0505 14:40:01.961676 26812 net.cpp:131] Top shape: 1 512 400 (204800)
I0505 14:40:01.961683 26812 net.cpp:131] Top shape: 1 512 400 (204800)
I0505 14:40:01.961688 26812 net.cpp:131] Top shape: 1 512 400 (204800)
I0505 14:40:01.961694 26812 net.cpp:131] Top shape: 1 512 400 (204800)
I0505 14:40:01.961701 26812 net.cpp:131] Top shape: 1 512 400 (204800)
I0505 14:40:01.961707 26812 net.cpp:131] Top shape: 1 512 400 (204800)
I0505 14:40:01.961714 26812 net.cpp:131] Top shape: 1 512 400 (204800)
I0505 14:40:01.961719 26812 net.cpp:131] Top shape: 1 512 400 (204800)
I0505 14:40:01.961725 26812 net.cpp:131] Top shape: 1 512 400 (204800)
I0505 14:40:01.961730 26812 net.cpp:131] Top shape: 1 512 400 (204800)
I0505 14:40:01.961736 26812 net.cpp:131] Top shape: 1 512 400 (204800)
I0505 14:40:01.961742 26812 net.cpp:131] Top shape: 1 512 400 (204800)
I0505 14:40:01.961750 26812 net.cpp:131] Top shape: 1 512 400 (204800)
I0505 14:40:01.961755 26812 net.cpp:131] Top shape: 1 512 400 (204800)
I0505 14:40:01.961761 26812 net.cpp:131] Top shape: 1 512 400 (204800)
I0505 14:40:01.961767 26812 net.cpp:131] Top shape: 1 512 400 (204800)
I0505 14:40:01.961774 26812 net.cpp:131] Top shape: 1 512 400 (204800)
I0505 14:40:01.961779 26812 net.cpp:131] Top shape: 1 512 400 (204800)
I0505 14:40:01.961786 26812 net.cpp:131] Top shape: 1 512 400 (204800)
I0505 14:40:01.961791 26812 net.cpp:131] Top shape: 1 512 400 (204800)
I0505 14:40:01.961796 26812 net.cpp:131] Top shape: 1 512 400 (204800)
I0505 14:40:01.961803 26812 net.cpp:131] Top shape: 1 512 400 (204800)
I0505 14:40:01.961809 26812 net.cpp:131] Top shape: 1 512 400 (204800)
I0505 14:40:01.961814 26812 net.cpp:131] Top shape: 1 512 400 (204800)
I0505 14:40:01.961822 26812 net.cpp:139] Memory required for data: 146882560
I0505 14:40:01.961828 26812 layer_factory.hpp:77] Creating layer lstm1_h_conted_0
I0505 14:40:01.961843 26812 net.cpp:86] Creating Layer lstm1_h_conted_0
I0505 14:40:01.961889 26812 net.cpp:408] lstm1_h_conted_0 <- h_0
I0505 14:40:01.961902 26812 net.cpp:408] lstm1_h_conted_0 <- cont_1_lstm1_cont_slice_0_split_0
I0505 14:40:01.961913 26812 net.cpp:382] lstm1_h_conted_0 -> h_conted_0
I0505 14:40:01.962074 26812 net.cpp:124] Setting up lstm1_h_conted_0
I0505 14:40:01.962081 26812 net.cpp:131] Top shape: 1 512 100 (51200)
I0505 14:40:01.962088 26812 net.cpp:139] Memory required for data: 147087360
I0505 14:40:01.962093 26812 layer_factory.hpp:77] Creating layer lstm1_transform_1
I0505 14:40:01.962106 26812 net.cpp:86] Creating Layer lstm1_transform_1
I0505 14:40:01.962112 26812 net.cpp:408] lstm1_transform_1 <- h_conted_0
I0505 14:40:01.962121 26812 net.cpp:382] lstm1_transform_1 -> W_hc_h_0
I0505 14:40:01.962565 26812 net.cpp:124] Setting up lstm1_transform_1
I0505 14:40:01.962572 26812 net.cpp:131] Top shape: 1 512 400 (204800)
I0505 14:40:01.962579 26812 net.cpp:139] Memory required for data: 147906560
I0505 14:40:01.962586 26812 layer_factory.hpp:77] Creating layer lstm1_gate_input_1
I0505 14:40:01.962595 26812 net.cpp:86] Creating Layer lstm1_gate_input_1
I0505 14:40:01.962600 26812 net.cpp:408] lstm1_gate_input_1 <- W_hc_h_0
I0505 14:40:01.962607 26812 net.cpp:408] lstm1_gate_input_1 <- W_xc_x_1
I0505 14:40:01.962615 26812 net.cpp:382] lstm1_gate_input_1 -> gate_input_1
I0505 14:40:01.962651 26812 net.cpp:124] Setting up lstm1_gate_input_1
I0505 14:40:01.962656 26812 net.cpp:131] Top shape: 1 512 400 (204800)
I0505 14:40:01.962661 26812 net.cpp:139] Memory required for data: 148725760
I0505 14:40:01.962667 26812 layer_factory.hpp:77] Creating layer lstm1_unit_1
I0505 14:40:01.962687 26812 net.cpp:86] Creating Layer lstm1_unit_1
I0505 14:40:01.962693 26812 net.cpp:408] lstm1_unit_1 <- c_0
I0505 14:40:01.962699 26812 net.cpp:408] lstm1_unit_1 <- gate_input_1
I0505 14:40:01.962705 26812 net.cpp:408] lstm1_unit_1 <- cont_1_lstm1_cont_slice_0_split_1
I0505 14:40:01.962714 26812 net.cpp:382] lstm1_unit_1 -> c_1
I0505 14:40:01.962723 26812 net.cpp:382] lstm1_unit_1 -> h_1
I0505 14:40:01.962791 26812 net.cpp:124] Setting up lstm1_unit_1
I0505 14:40:01.962796 26812 net.cpp:131] Top shape: 1 512 100 (51200)
I0505 14:40:01.962802 26812 net.cpp:131] Top shape: 1 512 100 (51200)
I0505 14:40:01.962808 26812 net.cpp:139] Memory required for data: 149135360
I0505 14:40:01.962815 26812 layer_factory.hpp:77] Creating layer h_1_lstm1_unit_1_1_split
I0505 14:40:01.962822 26812 net.cpp:86] Creating Layer h_1_lstm1_unit_1_1_split
I0505 14:40:01.962828 26812 net.cpp:408] h_1_lstm1_unit_1_1_split <- h_1
I0505 14:40:01.962836 26812 net.cpp:382] h_1_lstm1_unit_1_1_split -> h_1_lstm1_unit_1_1_split_0
I0505 14:40:01.962843 26812 net.cpp:382] h_1_lstm1_unit_1_1_split -> h_1_lstm1_unit_1_1_split_1
I0505 14:40:01.962893 26812 net.cpp:124] Setting up h_1_lstm1_unit_1_1_split
I0505 14:40:01.962896 26812 net.cpp:131] Top shape: 1 512 100 (51200)
I0505 14:40:01.962903 26812 net.cpp:131] Top shape: 1 512 100 (51200)
I0505 14:40:01.962909 26812 net.cpp:139] Memory required for data: 149544960
I0505 14:40:01.962913 26812 layer_factory.hpp:77] Creating layer lstm1_h_conted_1
I0505 14:40:01.962924 26812 net.cpp:86] Creating Layer lstm1_h_conted_1
I0505 14:40:01.962929 26812 net.cpp:408] lstm1_h_conted_1 <- h_1_lstm1_unit_1_1_split_0
I0505 14:40:01.962936 26812 net.cpp:408] lstm1_h_conted_1 <- cont_2_lstm1_cont_slice_1_split_0
I0505 14:40:01.962944 26812 net.cpp:382] lstm1_h_conted_1 -> h_conted_1
I0505 14:40:01.963028 26812 net.cpp:124] Setting up lstm1_h_conted_1
I0505 14:40:01.963034 26812 net.cpp:131] Top shape: 1 512 100 (51200)
I0505 14:40:01.963040 26812 net.cpp:139] Memory required for data: 149749760
I0505 14:40:01.963044 26812 layer_factory.hpp:77] Creating layer lstm1_transform_2
I0505 14:40:01.963052 26812 net.cpp:86] Creating Layer lstm1_transform_2
I0505 14:40:01.963058 26812 net.cpp:408] lstm1_transform_2 <- h_conted_1
I0505 14:40:01.963065 26812 net.cpp:382] lstm1_transform_2 -> W_hc_h_1
I0505 14:40:01.963515 26812 net.cpp:124] Setting up lstm1_transform_2
I0505 14:40:01.963541 26812 net.cpp:131] Top shape: 1 512 400 (204800)
I0505 14:40:01.963548 26812 net.cpp:139] Memory required for data: 150568960
I0505 14:40:01.963557 26812 net.cpp:467] Sharing parameters 'W_hc' owned by layer 'lstm1_transform_1', param index 0
I0505 14:40:01.963562 26812 layer_factory.hpp:77] Creating layer lstm1_gate_input_2
I0505 14:40:01.963572 26812 net.cpp:86] Creating Layer lstm1_gate_input_2
I0505 14:40:01.963577 26812 net.cpp:408] lstm1_gate_input_2 <- W_hc_h_1
I0505 14:40:01.963582 26812 net.cpp:408] lstm1_gate_input_2 <- W_xc_x_2
I0505 14:40:01.963590 26812 net.cpp:382] lstm1_gate_input_2 -> gate_input_2
I0505 14:40:01.963620 26812 net.cpp:124] Setting up lstm1_gate_input_2
I0505 14:40:01.963625 26812 net.cpp:131] Top shape: 1 512 400 (204800)
I0505 14:40:01.963632 26812 net.cpp:139] Memory required for data: 151388160
I0505 14:40:01.963636 26812 layer_factory.hpp:77] Creating layer lstm1_unit_2
I0505 14:40:01.963644 26812 net.cpp:86] Creating Layer lstm1_unit_2
I0505 14:40:01.963650 26812 net.cpp:408] lstm1_unit_2 <- c_1
I0505 14:40:01.963657 26812 net.cpp:408] lstm1_unit_2 <- gate_input_2
I0505 14:40:01.963662 26812 net.cpp:408] lstm1_unit_2 <- cont_2_lstm1_cont_slice_1_split_1
I0505 14:40:01.963670 26812 net.cpp:382] lstm1_unit_2 -> c_2
I0505 14:40:01.963680 26812 net.cpp:382] lstm1_unit_2 -> h_2
I0505 14:40:01.963748 26812 net.cpp:124] Setting up lstm1_unit_2
I0505 14:40:01.963752 26812 net.cpp:131] Top shape: 1 512 100 (51200)
I0505 14:40:01.963759 26812 net.cpp:131] Top shape: 1 512 100 (51200)
I0505 14:40:01.963764 26812 net.cpp:139] Memory required for data: 151797760
I0505 14:40:01.963769 26812 layer_factory.hpp:77] Creating layer h_2_lstm1_unit_2_1_split
I0505 14:40:01.963776 26812 net.cpp:86] Creating Layer h_2_lstm1_unit_2_1_split
I0505 14:40:01.963781 26812 net.cpp:408] h_2_lstm1_unit_2_1_split <- h_2
I0505 14:40:01.963788 26812 net.cpp:382] h_2_lstm1_unit_2_1_split -> h_2_lstm1_unit_2_1_split_0
I0505 14:40:01.963795 26812 net.cpp:382] h_2_lstm1_unit_2_1_split -> h_2_lstm1_unit_2_1_split_1
I0505 14:40:01.963845 26812 net.cpp:124] Setting up h_2_lstm1_unit_2_1_split
I0505 14:40:01.963850 26812 net.cpp:131] Top shape: 1 512 100 (51200)
I0505 14:40:01.963855 26812 net.cpp:131] Top shape: 1 512 100 (51200)
I0505 14:40:01.963868 26812 net.cpp:139] Memory required for data: 152207360
I0505 14:40:01.963886 26812 layer_factory.hpp:77] Creating layer lstm1_h_conted_2
I0505 14:40:01.963905 26812 net.cpp:86] Creating Layer lstm1_h_conted_2
I0505 14:40:01.963913 26812 net.cpp:408] lstm1_h_conted_2 <- h_2_lstm1_unit_2_1_split_0
I0505 14:40:01.963920 26812 net.cpp:408] lstm1_h_conted_2 <- cont_3_lstm1_cont_slice_2_split_0
I0505 14:40:01.963928 26812 net.cpp:382] lstm1_h_conted_2 -> h_conted_2
I0505 14:40:01.964035 26812 net.cpp:124] Setting up lstm1_h_conted_2
I0505 14:40:01.964043 26812 net.cpp:131] Top shape: 1 512 100 (51200)
I0505 14:40:01.964056 26812 net.cpp:139] Memory required for data: 152412160
I0505 14:40:01.964063 26812 layer_factory.hpp:77] Creating layer lstm1_transform_3
I0505 14:40:01.964077 26812 net.cpp:86] Creating Layer lstm1_transform_3
I0505 14:40:01.964087 26812 net.cpp:408] lstm1_transform_3 <- h_conted_2
I0505 14:40:01.964098 26812 net.cpp:382] lstm1_transform_3 -> W_hc_h_2
I0505 14:40:01.964562 26812 net.cpp:124] Setting up lstm1_transform_3
I0505 14:40:01.964571 26812 net.cpp:131] Top shape: 1 512 400 (204800)
I0505 14:40:01.964577 26812 net.cpp:139] Memory required for data: 153231360
I0505 14:40:01.964584 26812 net.cpp:467] Sharing parameters 'W_hc' owned by layer 'lstm1_transform_1', param index 0
I0505 14:40:01.964589 26812 layer_factory.hpp:77] Creating layer lstm1_gate_input_3
I0505 14:40:01.964597 26812 net.cpp:86] Creating Layer lstm1_gate_input_3
I0505 14:40:01.964602 26812 net.cpp:408] lstm1_gate_input_3 <- W_hc_h_2
I0505 14:40:01.964609 26812 net.cpp:408] lstm1_gate_input_3 <- W_xc_x_3
I0505 14:40:01.964617 26812 net.cpp:382] lstm1_gate_input_3 -> gate_input_3
I0505 14:40:01.964643 26812 net.cpp:124] Setting up lstm1_gate_input_3
I0505 14:40:01.964648 26812 net.cpp:131] Top shape: 1 512 400 (204800)
I0505 14:40:01.964668 26812 net.cpp:139] Memory required for data: 154050560
I0505 14:40:01.964673 26812 layer_factory.hpp:77] Creating layer lstm1_unit_3
I0505 14:40:01.964680 26812 net.cpp:86] Creating Layer lstm1_unit_3
I0505 14:40:01.964686 26812 net.cpp:408] lstm1_unit_3 <- c_2
I0505 14:40:01.964694 26812 net.cpp:408] lstm1_unit_3 <- gate_input_3
I0505 14:40:01.964699 26812 net.cpp:408] lstm1_unit_3 <- cont_3_lstm1_cont_slice_2_split_1
I0505 14:40:01.964709 26812 net.cpp:382] lstm1_unit_3 -> c_3
I0505 14:40:01.964717 26812 net.cpp:382] lstm1_unit_3 -> h_3
I0505 14:40:01.964784 26812 net.cpp:124] Setting up lstm1_unit_3
I0505 14:40:01.964790 26812 net.cpp:131] Top shape: 1 512 100 (51200)
I0505 14:40:01.964797 26812 net.cpp:131] Top shape: 1 512 100 (51200)
I0505 14:40:01.964802 26812 net.cpp:139] Memory required for data: 154460160
I0505 14:40:01.964807 26812 layer_factory.hpp:77] Creating layer h_3_lstm1_unit_3_1_split
I0505 14:40:01.964813 26812 net.cpp:86] Creating Layer h_3_lstm1_unit_3_1_split
I0505 14:40:01.964818 26812 net.cpp:408] h_3_lstm1_unit_3_1_split <- h_3
I0505 14:40:01.964825 26812 net.cpp:382] h_3_lstm1_unit_3_1_split -> h_3_lstm1_unit_3_1_split_0
I0505 14:40:01.964833 26812 net.cpp:382] h_3_lstm1_unit_3_1_split -> h_3_lstm1_unit_3_1_split_1
I0505 14:40:01.964879 26812 net.cpp:124] Setting up h_3_lstm1_unit_3_1_split
I0505 14:40:01.964884 26812 net.cpp:131] Top shape: 1 512 100 (51200)
I0505 14:40:01.964891 26812 net.cpp:131] Top shape: 1 512 100 (51200)
I0505 14:40:01.964898 26812 net.cpp:139] Memory required for data: 154869760
I0505 14:40:01.964903 26812 layer_factory.hpp:77] Creating layer lstm1_h_conted_3
I0505 14:40:01.964911 26812 net.cpp:86] Creating Layer lstm1_h_conted_3
I0505 14:40:01.964917 26812 net.cpp:408] lstm1_h_conted_3 <- h_3_lstm1_unit_3_1_split_0
I0505 14:40:01.964926 26812 net.cpp:408] lstm1_h_conted_3 <- cont_4_lstm1_cont_slice_3_split_0
I0505 14:40:01.964933 26812 net.cpp:382] lstm1_h_conted_3 -> h_conted_3
I0505 14:40:01.965025 26812 net.cpp:124] Setting up lstm1_h_conted_3
I0505 14:40:01.965031 26812 net.cpp:131] Top shape: 1 512 100 (51200)
I0505 14:40:01.965039 26812 net.cpp:139] Memory required for data: 155074560
I0505 14:40:01.965044 26812 layer_factory.hpp:77] Creating layer lstm1_transform_4
I0505 14:40:01.965054 26812 net.cpp:86] Creating Layer lstm1_transform_4
I0505 14:40:01.965059 26812 net.cpp:408] lstm1_transform_4 <- h_conted_3
I0505 14:40:01.965067 26812 net.cpp:382] lstm1_transform_4 -> W_hc_h_3
I0505 14:40:01.965349 26812 net.cpp:124] Setting up lstm1_transform_4
I0505 14:40:01.965356 26812 net.cpp:131] Top shape: 1 512 400 (204800)
I0505 14:40:01.965360 26812 net.cpp:139] Memory required for data: 155893760
I0505 14:40:01.965364 26812 net.cpp:467] Sharing parameters 'W_hc' owned by layer 'lstm1_transform_1', param index 0
I0505 14:40:01.965368 26812 layer_factory.hpp:77] Creating layer lstm1_gate_input_4
I0505 14:40:01.965373 26812 net.cpp:86] Creating Layer lstm1_gate_input_4
I0505 14:40:01.965376 26812 net.cpp:408] lstm1_gate_input_4 <- W_hc_h_3
I0505 14:40:01.965381 26812 net.cpp:408] lstm1_gate_input_4 <- W_xc_x_4
I0505 14:40:01.965387 26812 net.cpp:382] lstm1_gate_input_4 -> gate_input_4
I0505 14:40:01.965404 26812 net.cpp:124] Setting up lstm1_gate_input_4
I0505 14:40:01.965407 26812 net.cpp:131] Top shape: 1 512 400 (204800)
I0505 14:40:01.965412 26812 net.cpp:139] Memory required for data: 156712960
I0505 14:40:01.965415 26812 layer_factory.hpp:77] Creating layer lstm1_unit_4
I0505 14:40:01.965420 26812 net.cpp:86] Creating Layer lstm1_unit_4
I0505 14:40:01.965423 26812 net.cpp:408] lstm1_unit_4 <- c_3
I0505 14:40:01.965427 26812 net.cpp:408] lstm1_unit_4 <- gate_input_4
I0505 14:40:01.965432 26812 net.cpp:408] lstm1_unit_4 <- cont_4_lstm1_cont_slice_3_split_1
I0505 14:40:01.965436 26812 net.cpp:382] lstm1_unit_4 -> c_4
I0505 14:40:01.965442 26812 net.cpp:382] lstm1_unit_4 -> h_4
I0505 14:40:01.965478 26812 net.cpp:124] Setting up lstm1_unit_4
I0505 14:40:01.965482 26812 net.cpp:131] Top shape: 1 512 100 (51200)
I0505 14:40:01.965497 26812 net.cpp:131] Top shape: 1 512 100 (51200)
I0505 14:40:01.965502 26812 net.cpp:139] Memory required for data: 157122560
I0505 14:40:01.965504 26812 layer_factory.hpp:77] Creating layer h_4_lstm1_unit_4_1_split
I0505 14:40:01.965510 26812 net.cpp:86] Creating Layer h_4_lstm1_unit_4_1_split
I0505 14:40:01.965513 26812 net.cpp:408] h_4_lstm1_unit_4_1_split <- h_4
I0505 14:40:01.965519 26812 net.cpp:382] h_4_lstm1_unit_4_1_split -> h_4_lstm1_unit_4_1_split_0
I0505 14:40:01.965525 26812 net.cpp:382] h_4_lstm1_unit_4_1_split -> h_4_lstm1_unit_4_1_split_1
I0505 14:40:01.965553 26812 net.cpp:124] Setting up h_4_lstm1_unit_4_1_split
I0505 14:40:01.965556 26812 net.cpp:131] Top shape: 1 512 100 (51200)
I0505 14:40:01.965560 26812 net.cpp:131] Top shape: 1 512 100 (51200)
I0505 14:40:01.965564 26812 net.cpp:139] Memory required for data: 157532160
I0505 14:40:01.965567 26812 layer_factory.hpp:77] Creating layer lstm1_h_conted_4
I0505 14:40:01.965574 26812 net.cpp:86] Creating Layer lstm1_h_conted_4
I0505 14:40:01.965576 26812 net.cpp:408] lstm1_h_conted_4 <- h_4_lstm1_unit_4_1_split_0
I0505 14:40:01.965582 26812 net.cpp:408] lstm1_h_conted_4 <- cont_5_lstm1_cont_slice_4_split_0
I0505 14:40:01.965589 26812 net.cpp:382] lstm1_h_conted_4 -> h_conted_4
I0505 14:40:01.965636 26812 net.cpp:124] Setting up lstm1_h_conted_4
I0505 14:40:01.965641 26812 net.cpp:131] Top shape: 1 512 100 (51200)
I0505 14:40:01.965644 26812 net.cpp:139] Memory required for data: 157736960
I0505 14:40:01.965647 26812 layer_factory.hpp:77] Creating layer lstm1_transform_5
I0505 14:40:01.965653 26812 net.cpp:86] Creating Layer lstm1_transform_5
I0505 14:40:01.965656 26812 net.cpp:408] lstm1_transform_5 <- h_conted_4
I0505 14:40:01.965662 26812 net.cpp:382] lstm1_transform_5 -> W_hc_h_4
I0505 14:40:01.965904 26812 net.cpp:124] Setting up lstm1_transform_5
I0505 14:40:01.965907 26812 net.cpp:131] Top shape: 1 512 400 (204800)
I0505 14:40:01.965910 26812 net.cpp:139] Memory required for data: 158556160
I0505 14:40:01.965912 26812 net.cpp:467] Sharing parameters 'W_hc' owned by layer 'lstm1_transform_1', param index 0
I0505 14:40:01.965914 26812 layer_factory.hpp:77] Creating layer lstm1_gate_input_5
I0505 14:40:01.965919 26812 net.cpp:86] Creating Layer lstm1_gate_input_5
I0505 14:40:01.965921 26812 net.cpp:408] lstm1_gate_input_5 <- W_hc_h_4
I0505 14:40:01.965924 26812 net.cpp:408] lstm1_gate_input_5 <- W_xc_x_5
I0505 14:40:01.965927 26812 net.cpp:382] lstm1_gate_input_5 -> gate_input_5
I0505 14:40:01.965939 26812 net.cpp:124] Setting up lstm1_gate_input_5
I0505 14:40:01.965941 26812 net.cpp:131] Top shape: 1 512 400 (204800)
I0505 14:40:01.965945 26812 net.cpp:139] Memory required for data: 159375360
I0505 14:40:01.965946 26812 layer_factory.hpp:77] Creating layer lstm1_unit_5
I0505 14:40:01.965950 26812 net.cpp:86] Creating Layer lstm1_unit_5
I0505 14:40:01.965951 26812 net.cpp:408] lstm1_unit_5 <- c_4
I0505 14:40:01.965955 26812 net.cpp:408] lstm1_unit_5 <- gate_input_5
I0505 14:40:01.965957 26812 net.cpp:408] lstm1_unit_5 <- cont_5_lstm1_cont_slice_4_split_1
I0505 14:40:01.965960 26812 net.cpp:382] lstm1_unit_5 -> c_5
I0505 14:40:01.965965 26812 net.cpp:382] lstm1_unit_5 -> h_5
I0505 14:40:01.965989 26812 net.cpp:124] Setting up lstm1_unit_5
I0505 14:40:01.965992 26812 net.cpp:131] Top shape: 1 512 100 (51200)
I0505 14:40:01.965994 26812 net.cpp:131] Top shape: 1 512 100 (51200)
I0505 14:40:01.965997 26812 net.cpp:139] Memory required for data: 159784960
I0505 14:40:01.965999 26812 layer_factory.hpp:77] Creating layer h_5_lstm1_unit_5_1_split
I0505 14:40:01.966002 26812 net.cpp:86] Creating Layer h_5_lstm1_unit_5_1_split
I0505 14:40:01.966004 26812 net.cpp:408] h_5_lstm1_unit_5_1_split <- h_5
I0505 14:40:01.966008 26812 net.cpp:382] h_5_lstm1_unit_5_1_split -> h_5_lstm1_unit_5_1_split_0
I0505 14:40:01.966012 26812 net.cpp:382] h_5_lstm1_unit_5_1_split -> h_5_lstm1_unit_5_1_split_1
I0505 14:40:01.966029 26812 net.cpp:124] Setting up h_5_lstm1_unit_5_1_split
I0505 14:40:01.966032 26812 net.cpp:131] Top shape: 1 512 100 (51200)
I0505 14:40:01.966040 26812 net.cpp:131] Top shape: 1 512 100 (51200)
I0505 14:40:01.966043 26812 net.cpp:139] Memory required for data: 160194560
I0505 14:40:01.966045 26812 layer_factory.hpp:77] Creating layer lstm1_h_conted_5
I0505 14:40:01.966050 26812 net.cpp:86] Creating Layer lstm1_h_conted_5
I0505 14:40:01.966053 26812 net.cpp:408] lstm1_h_conted_5 <- h_5_lstm1_unit_5_1_split_0
I0505 14:40:01.966058 26812 net.cpp:408] lstm1_h_conted_5 <- cont_6_lstm1_cont_slice_5_split_0
I0505 14:40:01.966061 26812 net.cpp:382] lstm1_h_conted_5 -> h_conted_5
I0505 14:40:01.966095 26812 net.cpp:124] Setting up lstm1_h_conted_5
I0505 14:40:01.966097 26812 net.cpp:131] Top shape: 1 512 100 (51200)
I0505 14:40:01.966100 26812 net.cpp:139] Memory required for data: 160399360
I0505 14:40:01.966102 26812 layer_factory.hpp:77] Creating layer lstm1_transform_6
I0505 14:40:01.966106 26812 net.cpp:86] Creating Layer lstm1_transform_6
I0505 14:40:01.966109 26812 net.cpp:408] lstm1_transform_6 <- h_conted_5
I0505 14:40:01.966112 26812 net.cpp:382] lstm1_transform_6 -> W_hc_h_5
I0505 14:40:01.966284 26812 net.cpp:124] Setting up lstm1_transform_6
I0505 14:40:01.966287 26812 net.cpp:131] Top shape: 1 512 400 (204800)
I0505 14:40:01.966290 26812 net.cpp:139] Memory required for data: 161218560
I0505 14:40:01.966292 26812 net.cpp:467] Sharing parameters 'W_hc' owned by layer 'lstm1_transform_1', param index 0
I0505 14:40:01.966295 26812 layer_factory.hpp:77] Creating layer lstm1_gate_input_6
I0505 14:40:01.966298 26812 net.cpp:86] Creating Layer lstm1_gate_input_6
I0505 14:40:01.966300 26812 net.cpp:408] lstm1_gate_input_6 <- W_hc_h_5
I0505 14:40:01.966303 26812 net.cpp:408] lstm1_gate_input_6 <- W_xc_x_6
I0505 14:40:01.966306 26812 net.cpp:382] lstm1_gate_input_6 -> gate_input_6
I0505 14:40:01.966318 26812 net.cpp:124] Setting up lstm1_gate_input_6
I0505 14:40:01.966320 26812 net.cpp:131] Top shape: 1 512 400 (204800)
I0505 14:40:01.966323 26812 net.cpp:139] Memory required for data: 162037760
I0505 14:40:01.966325 26812 layer_factory.hpp:77] Creating layer lstm1_unit_6
I0505 14:40:01.966328 26812 net.cpp:86] Creating Layer lstm1_unit_6
I0505 14:40:01.966331 26812 net.cpp:408] lstm1_unit_6 <- c_5
I0505 14:40:01.966333 26812 net.cpp:408] lstm1_unit_6 <- gate_input_6
I0505 14:40:01.966336 26812 net.cpp:408] lstm1_unit_6 <- cont_6_lstm1_cont_slice_5_split_1
I0505 14:40:01.966339 26812 net.cpp:382] lstm1_unit_6 -> c_6
I0505 14:40:01.966343 26812 net.cpp:382] lstm1_unit_6 -> h_6
I0505 14:40:01.966367 26812 net.cpp:124] Setting up lstm1_unit_6
I0505 14:40:01.966370 26812 net.cpp:131] Top shape: 1 512 100 (51200)
I0505 14:40:01.966373 26812 net.cpp:131] Top shape: 1 512 100 (51200)
I0505 14:40:01.966375 26812 net.cpp:139] Memory required for data: 162447360
I0505 14:40:01.966377 26812 layer_factory.hpp:77] Creating layer h_6_lstm1_unit_6_1_split
I0505 14:40:01.966380 26812 net.cpp:86] Creating Layer h_6_lstm1_unit_6_1_split
I0505 14:40:01.966383 26812 net.cpp:408] h_6_lstm1_unit_6_1_split <- h_6
I0505 14:40:01.966387 26812 net.cpp:382] h_6_lstm1_unit_6_1_split -> h_6_lstm1_unit_6_1_split_0
I0505 14:40:01.966389 26812 net.cpp:382] h_6_lstm1_unit_6_1_split -> h_6_lstm1_unit_6_1_split_1
I0505 14:40:01.966408 26812 net.cpp:124] Setting up h_6_lstm1_unit_6_1_split
I0505 14:40:01.966409 26812 net.cpp:131] Top shape: 1 512 100 (51200)
I0505 14:40:01.966413 26812 net.cpp:131] Top shape: 1 512 100 (51200)
I0505 14:40:01.966415 26812 net.cpp:139] Memory required for data: 162856960
I0505 14:40:01.966418 26812 layer_factory.hpp:77] Creating layer lstm1_h_conted_6
I0505 14:40:01.966421 26812 net.cpp:86] Creating Layer lstm1_h_conted_6
I0505 14:40:01.966423 26812 net.cpp:408] lstm1_h_conted_6 <- h_6_lstm1_unit_6_1_split_0
I0505 14:40:01.966428 26812 net.cpp:408] lstm1_h_conted_6 <- cont_7_lstm1_cont_slice_6_split_0
I0505 14:40:01.966433 26812 net.cpp:382] lstm1_h_conted_6 -> h_conted_6
I0505 14:40:01.966464 26812 net.cpp:124] Setting up lstm1_h_conted_6
I0505 14:40:01.966466 26812 net.cpp:131] Top shape: 1 512 100 (51200)
I0505 14:40:01.966470 26812 net.cpp:139] Memory required for data: 163061760
I0505 14:40:01.966477 26812 layer_factory.hpp:77] Creating layer lstm1_transform_7
I0505 14:40:01.966481 26812 net.cpp:86] Creating Layer lstm1_transform_7
I0505 14:40:01.966698 26812 net.cpp:408] lstm1_transform_7 <- h_conted_6
I0505 14:40:01.966702 26812 net.cpp:382] lstm1_transform_7 -> W_hc_h_6
I0505 14:40:01.966873 26812 net.cpp:124] Setting up lstm1_transform_7
I0505 14:40:01.966876 26812 net.cpp:131] Top shape: 1 512 400 (204800)
I0505 14:40:01.966879 26812 net.cpp:139] Memory required for data: 163880960
I0505 14:40:01.966882 26812 net.cpp:467] Sharing parameters 'W_hc' owned by layer 'lstm1_transform_1', param index 0
I0505 14:40:01.966886 26812 layer_factory.hpp:77] Creating layer lstm1_gate_input_7
I0505 14:40:01.966889 26812 net.cpp:86] Creating Layer lstm1_gate_input_7
I0505 14:40:01.966892 26812 net.cpp:408] lstm1_gate_input_7 <- W_hc_h_6
I0505 14:40:01.966894 26812 net.cpp:408] lstm1_gate_input_7 <- W_xc_x_7
I0505 14:40:01.966898 26812 net.cpp:382] lstm1_gate_input_7 -> gate_input_7
I0505 14:40:01.966909 26812 net.cpp:124] Setting up lstm1_gate_input_7
I0505 14:40:01.966912 26812 net.cpp:131] Top shape: 1 512 400 (204800)
I0505 14:40:01.966915 26812 net.cpp:139] Memory required for data: 164700160
I0505 14:40:01.966917 26812 layer_factory.hpp:77] Creating layer lstm1_unit_7
I0505 14:40:01.966922 26812 net.cpp:86] Creating Layer lstm1_unit_7
I0505 14:40:01.966923 26812 net.cpp:408] lstm1_unit_7 <- c_6
I0505 14:40:01.966926 26812 net.cpp:408] lstm1_unit_7 <- gate_input_7
I0505 14:40:01.966929 26812 net.cpp:408] lstm1_unit_7 <- cont_7_lstm1_cont_slice_6_split_1
I0505 14:40:01.966933 26812 net.cpp:382] lstm1_unit_7 -> c_7
I0505 14:40:01.966936 26812 net.cpp:382] lstm1_unit_7 -> h_7
I0505 14:40:01.966961 26812 net.cpp:124] Setting up lstm1_unit_7
I0505 14:40:01.966964 26812 net.cpp:131] Top shape: 1 512 100 (51200)
I0505 14:40:01.966966 26812 net.cpp:131] Top shape: 1 512 100 (51200)
I0505 14:40:01.966969 26812 net.cpp:139] Memory required for data: 165109760
I0505 14:40:01.966971 26812 layer_factory.hpp:77] Creating layer h_7_lstm1_unit_7_1_split
I0505 14:40:01.966975 26812 net.cpp:86] Creating Layer h_7_lstm1_unit_7_1_split
I0505 14:40:01.966977 26812 net.cpp:408] h_7_lstm1_unit_7_1_split <- h_7
I0505 14:40:01.966981 26812 net.cpp:382] h_7_lstm1_unit_7_1_split -> h_7_lstm1_unit_7_1_split_0
I0505 14:40:01.966985 26812 net.cpp:382] h_7_lstm1_unit_7_1_split -> h_7_lstm1_unit_7_1_split_1
I0505 14:40:01.967002 26812 net.cpp:124] Setting up h_7_lstm1_unit_7_1_split
I0505 14:40:01.967005 26812 net.cpp:131] Top shape: 1 512 100 (51200)
I0505 14:40:01.967007 26812 net.cpp:131] Top shape: 1 512 100 (51200)
I0505 14:40:01.967010 26812 net.cpp:139] Memory required for data: 165519360
I0505 14:40:01.967012 26812 layer_factory.hpp:77] Creating layer lstm1_h_conted_7
I0505 14:40:01.967017 26812 net.cpp:86] Creating Layer lstm1_h_conted_7
I0505 14:40:01.967020 26812 net.cpp:408] lstm1_h_conted_7 <- h_7_lstm1_unit_7_1_split_0
I0505 14:40:01.967023 26812 net.cpp:408] lstm1_h_conted_7 <- cont_8_lstm1_cont_slice_7_split_0
I0505 14:40:01.967027 26812 net.cpp:382] lstm1_h_conted_7 -> h_conted_7
I0505 14:40:01.967061 26812 net.cpp:124] Setting up lstm1_h_conted_7
I0505 14:40:01.967063 26812 net.cpp:131] Top shape: 1 512 100 (51200)
I0505 14:40:01.967067 26812 net.cpp:139] Memory required for data: 165724160
I0505 14:40:01.967069 26812 layer_factory.hpp:77] Creating layer lstm1_transform_8
I0505 14:40:01.967072 26812 net.cpp:86] Creating Layer lstm1_transform_8
I0505 14:40:01.967075 26812 net.cpp:408] lstm1_transform_8 <- h_conted_7
I0505 14:40:01.967078 26812 net.cpp:382] lstm1_transform_8 -> W_hc_h_7
I0505 14:40:01.967249 26812 net.cpp:124] Setting up lstm1_transform_8
I0505 14:40:01.967252 26812 net.cpp:131] Top shape: 1 512 400 (204800)
I0505 14:40:01.967255 26812 net.cpp:139] Memory required for data: 166543360
I0505 14:40:01.967257 26812 net.cpp:467] Sharing parameters 'W_hc' owned by layer 'lstm1_transform_1', param index 0
I0505 14:40:01.967260 26812 layer_factory.hpp:77] Creating layer lstm1_gate_input_8
I0505 14:40:01.967270 26812 net.cpp:86] Creating Layer lstm1_gate_input_8
I0505 14:40:01.967273 26812 net.cpp:408] lstm1_gate_input_8 <- W_hc_h_7
I0505 14:40:01.967276 26812 net.cpp:408] lstm1_gate_input_8 <- W_xc_x_8
I0505 14:40:01.967280 26812 net.cpp:382] lstm1_gate_input_8 -> gate_input_8
I0505 14:40:01.967308 26812 net.cpp:124] Setting up lstm1_gate_input_8
I0505 14:40:01.967312 26812 net.cpp:131] Top shape: 1 512 400 (204800)
I0505 14:40:01.967316 26812 net.cpp:139] Memory required for data: 167362560
I0505 14:40:01.967319 26812 layer_factory.hpp:77] Creating layer lstm1_unit_8
I0505 14:40:01.967322 26812 net.cpp:86] Creating Layer lstm1_unit_8
I0505 14:40:01.967325 26812 net.cpp:408] lstm1_unit_8 <- c_7
I0505 14:40:01.967327 26812 net.cpp:408] lstm1_unit_8 <- gate_input_8
I0505 14:40:01.967330 26812 net.cpp:408] lstm1_unit_8 <- cont_8_lstm1_cont_slice_7_split_1
I0505 14:40:01.967334 26812 net.cpp:382] lstm1_unit_8 -> c_8
I0505 14:40:01.967337 26812 net.cpp:382] lstm1_unit_8 -> h_8
I0505 14:40:01.967363 26812 net.cpp:124] Setting up lstm1_unit_8
I0505 14:40:01.967365 26812 net.cpp:131] Top shape: 1 512 100 (51200)
I0505 14:40:01.967368 26812 net.cpp:131] Top shape: 1 512 100 (51200)
I0505 14:40:01.967371 26812 net.cpp:139] Memory required for data: 167772160
I0505 14:40:01.967373 26812 layer_factory.hpp:77] Creating layer h_8_lstm1_unit_8_1_split
I0505 14:40:01.967375 26812 net.cpp:86] Creating Layer h_8_lstm1_unit_8_1_split
I0505 14:40:01.967378 26812 net.cpp:408] h_8_lstm1_unit_8_1_split <- h_8
I0505 14:40:01.967381 26812 net.cpp:382] h_8_lstm1_unit_8_1_split -> h_8_lstm1_unit_8_1_split_0
I0505 14:40:01.967386 26812 net.cpp:382] h_8_lstm1_unit_8_1_split -> h_8_lstm1_unit_8_1_split_1
I0505 14:40:01.967402 26812 net.cpp:124] Setting up h_8_lstm1_unit_8_1_split
I0505 14:40:01.967404 26812 net.cpp:131] Top shape: 1 512 100 (51200)
I0505 14:40:01.967407 26812 net.cpp:131] Top shape: 1 512 100 (51200)
I0505 14:40:01.967411 26812 net.cpp:139] Memory required for data: 168181760
I0505 14:40:01.967412 26812 layer_factory.hpp:77] Creating layer lstm1_h_conted_8
I0505 14:40:01.967417 26812 net.cpp:86] Creating Layer lstm1_h_conted_8
I0505 14:40:01.967419 26812 net.cpp:408] lstm1_h_conted_8 <- h_8_lstm1_unit_8_1_split_0
I0505 14:40:01.967422 26812 net.cpp:408] lstm1_h_conted_8 <- cont_9_lstm1_cont_slice_8_split_0
I0505 14:40:01.967425 26812 net.cpp:382] lstm1_h_conted_8 -> h_conted_8
I0505 14:40:01.967458 26812 net.cpp:124] Setting up lstm1_h_conted_8
I0505 14:40:01.967460 26812 net.cpp:131] Top shape: 1 512 100 (51200)
I0505 14:40:01.967463 26812 net.cpp:139] Memory required for data: 168386560
I0505 14:40:01.967465 26812 layer_factory.hpp:77] Creating layer lstm1_transform_9
I0505 14:40:01.967470 26812 net.cpp:86] Creating Layer lstm1_transform_9
I0505 14:40:01.967473 26812 net.cpp:408] lstm1_transform_9 <- h_conted_8
I0505 14:40:01.967475 26812 net.cpp:382] lstm1_transform_9 -> W_hc_h_8
I0505 14:40:01.967648 26812 net.cpp:124] Setting up lstm1_transform_9
I0505 14:40:01.967651 26812 net.cpp:131] Top shape: 1 512 400 (204800)
I0505 14:40:01.967654 26812 net.cpp:139] Memory required for data: 169205760
I0505 14:40:01.967658 26812 net.cpp:467] Sharing parameters 'W_hc' owned by layer 'lstm1_transform_1', param index 0
I0505 14:40:01.967659 26812 layer_factory.hpp:77] Creating layer lstm1_gate_input_9
I0505 14:40:01.967664 26812 net.cpp:86] Creating Layer lstm1_gate_input_9
I0505 14:40:01.967665 26812 net.cpp:408] lstm1_gate_input_9 <- W_hc_h_8
I0505 14:40:01.967669 26812 net.cpp:408] lstm1_gate_input_9 <- W_xc_x_9
I0505 14:40:01.967671 26812 net.cpp:382] lstm1_gate_input_9 -> gate_input_9
I0505 14:40:01.967684 26812 net.cpp:124] Setting up lstm1_gate_input_9
I0505 14:40:01.967685 26812 net.cpp:131] Top shape: 1 512 400 (204800)
I0505 14:40:01.967689 26812 net.cpp:139] Memory required for data: 170024960
I0505 14:40:01.967690 26812 layer_factory.hpp:77] Creating layer lstm1_unit_9
I0505 14:40:01.967695 26812 net.cpp:86] Creating Layer lstm1_unit_9
I0505 14:40:01.967698 26812 net.cpp:408] lstm1_unit_9 <- c_8
I0505 14:40:01.967708 26812 net.cpp:408] lstm1_unit_9 <- gate_input_9
I0505 14:40:01.967711 26812 net.cpp:408] lstm1_unit_9 <- cont_9_lstm1_cont_slice_8_split_1
I0505 14:40:01.967715 26812 net.cpp:382] lstm1_unit_9 -> c_9
I0505 14:40:01.967720 26812 net.cpp:382] lstm1_unit_9 -> h_9
I0505 14:40:01.967746 26812 net.cpp:124] Setting up lstm1_unit_9
I0505 14:40:01.967748 26812 net.cpp:131] Top shape: 1 512 100 (51200)
I0505 14:40:01.967751 26812 net.cpp:131] Top shape: 1 512 100 (51200)
I0505 14:40:01.967754 26812 net.cpp:139] Memory required for data: 170434560
I0505 14:40:01.967756 26812 layer_factory.hpp:77] Creating layer h_9_lstm1_unit_9_1_split
I0505 14:40:01.967761 26812 net.cpp:86] Creating Layer h_9_lstm1_unit_9_1_split
I0505 14:40:01.967762 26812 net.cpp:408] h_9_lstm1_unit_9_1_split <- h_9
I0505 14:40:01.967767 26812 net.cpp:382] h_9_lstm1_unit_9_1_split -> h_9_lstm1_unit_9_1_split_0
I0505 14:40:01.967770 26812 net.cpp:382] h_9_lstm1_unit_9_1_split -> h_9_lstm1_unit_9_1_split_1
I0505 14:40:01.967789 26812 net.cpp:124] Setting up h_9_lstm1_unit_9_1_split
I0505 14:40:01.967792 26812 net.cpp:131] Top shape: 1 512 100 (51200)
I0505 14:40:01.967794 26812 net.cpp:131] Top shape: 1 512 100 (51200)
I0505 14:40:01.967797 26812 net.cpp:139] Memory required for data: 170844160
I0505 14:40:01.967799 26812 layer_factory.hpp:77] Creating layer lstm1_h_conted_9
I0505 14:40:01.967803 26812 net.cpp:86] Creating Layer lstm1_h_conted_9
I0505 14:40:01.967806 26812 net.cpp:408] lstm1_h_conted_9 <- h_9_lstm1_unit_9_1_split_0
I0505 14:40:01.967809 26812 net.cpp:408] lstm1_h_conted_9 <- cont_10_lstm1_cont_slice_9_split_0
I0505 14:40:01.967813 26812 net.cpp:382] lstm1_h_conted_9 -> h_conted_9
I0505 14:40:01.967845 26812 net.cpp:124] Setting up lstm1_h_conted_9
I0505 14:40:01.967849 26812 net.cpp:131] Top shape: 1 512 100 (51200)
I0505 14:40:01.967851 26812 net.cpp:139] Memory required for data: 171048960
I0505 14:40:01.967854 26812 layer_factory.hpp:77] Creating layer lstm1_transform_10
I0505 14:40:01.967857 26812 net.cpp:86] Creating Layer lstm1_transform_10
I0505 14:40:01.967859 26812 net.cpp:408] lstm1_transform_10 <- h_conted_9
I0505 14:40:01.967864 26812 net.cpp:382] lstm1_transform_10 -> W_hc_h_9
I0505 14:40:01.968034 26812 net.cpp:124] Setting up lstm1_transform_10
I0505 14:40:01.968037 26812 net.cpp:131] Top shape: 1 512 400 (204800)
I0505 14:40:01.968040 26812 net.cpp:139] Memory required for data: 171868160
I0505 14:40:01.968042 26812 net.cpp:467] Sharing parameters 'W_hc' owned by layer 'lstm1_transform_1', param index 0
I0505 14:40:01.968045 26812 layer_factory.hpp:77] Creating layer lstm1_gate_input_10
I0505 14:40:01.968048 26812 net.cpp:86] Creating Layer lstm1_gate_input_10
I0505 14:40:01.968051 26812 net.cpp:408] lstm1_gate_input_10 <- W_hc_h_9
I0505 14:40:01.968055 26812 net.cpp:408] lstm1_gate_input_10 <- W_xc_x_10
I0505 14:40:01.968057 26812 net.cpp:382] lstm1_gate_input_10 -> gate_input_10
I0505 14:40:01.968070 26812 net.cpp:124] Setting up lstm1_gate_input_10
I0505 14:40:01.968072 26812 net.cpp:131] Top shape: 1 512 400 (204800)
I0505 14:40:01.968075 26812 net.cpp:139] Memory required for data: 172687360
I0505 14:40:01.968077 26812 layer_factory.hpp:77] Creating layer lstm1_unit_10
I0505 14:40:01.968080 26812 net.cpp:86] Creating Layer lstm1_unit_10
I0505 14:40:01.968083 26812 net.cpp:408] lstm1_unit_10 <- c_9
I0505 14:40:01.968086 26812 net.cpp:408] lstm1_unit_10 <- gate_input_10
I0505 14:40:01.968089 26812 net.cpp:408] lstm1_unit_10 <- cont_10_lstm1_cont_slice_9_split_1
I0505 14:40:01.968092 26812 net.cpp:382] lstm1_unit_10 -> c_10
I0505 14:40:01.968096 26812 net.cpp:382] lstm1_unit_10 -> h_10
I0505 14:40:01.968120 26812 net.cpp:124] Setting up lstm1_unit_10
I0505 14:40:01.968123 26812 net.cpp:131] Top shape: 1 512 100 (51200)
I0505 14:40:01.968127 26812 net.cpp:131] Top shape: 1 512 100 (51200)
I0505 14:40:01.968128 26812 net.cpp:139] Memory required for data: 173096960
I0505 14:40:01.968132 26812 layer_factory.hpp:77] Creating layer h_10_lstm1_unit_10_1_split
I0505 14:40:01.968134 26812 net.cpp:86] Creating Layer h_10_lstm1_unit_10_1_split
I0505 14:40:01.968143 26812 net.cpp:408] h_10_lstm1_unit_10_1_split <- h_10
I0505 14:40:01.968148 26812 net.cpp:382] h_10_lstm1_unit_10_1_split -> h_10_lstm1_unit_10_1_split_0
I0505 14:40:01.968152 26812 net.cpp:382] h_10_lstm1_unit_10_1_split -> h_10_lstm1_unit_10_1_split_1
I0505 14:40:01.968171 26812 net.cpp:124] Setting up h_10_lstm1_unit_10_1_split
I0505 14:40:01.968173 26812 net.cpp:131] Top shape: 1 512 100 (51200)
I0505 14:40:01.968176 26812 net.cpp:131] Top shape: 1 512 100 (51200)
I0505 14:40:01.968179 26812 net.cpp:139] Memory required for data: 173506560
I0505 14:40:01.968181 26812 layer_factory.hpp:77] Creating layer lstm1_h_conted_10
I0505 14:40:01.968186 26812 net.cpp:86] Creating Layer lstm1_h_conted_10
I0505 14:40:01.968189 26812 net.cpp:408] lstm1_h_conted_10 <- h_10_lstm1_unit_10_1_split_0
I0505 14:40:01.968191 26812 net.cpp:408] lstm1_h_conted_10 <- cont_11_lstm1_cont_slice_10_split_0
I0505 14:40:01.968195 26812 net.cpp:382] lstm1_h_conted_10 -> h_conted_10
I0505 14:40:01.968227 26812 net.cpp:124] Setting up lstm1_h_conted_10
I0505 14:40:01.968230 26812 net.cpp:131] Top shape: 1 512 100 (51200)
I0505 14:40:01.968233 26812 net.cpp:139] Memory required for data: 173711360
I0505 14:40:01.968235 26812 layer_factory.hpp:77] Creating layer lstm1_transform_11
I0505 14:40:01.968238 26812 net.cpp:86] Creating Layer lstm1_transform_11
I0505 14:40:01.968241 26812 net.cpp:408] lstm1_transform_11 <- h_conted_10
I0505 14:40:01.968245 26812 net.cpp:382] lstm1_transform_11 -> W_hc_h_10
I0505 14:40:01.968418 26812 net.cpp:124] Setting up lstm1_transform_11
I0505 14:40:01.968421 26812 net.cpp:131] Top shape: 1 512 400 (204800)
I0505 14:40:01.968425 26812 net.cpp:139] Memory required for data: 174530560
I0505 14:40:01.968426 26812 net.cpp:467] Sharing parameters 'W_hc' owned by layer 'lstm1_transform_1', param index 0
I0505 14:40:01.968430 26812 layer_factory.hpp:77] Creating layer lstm1_gate_input_11
I0505 14:40:01.968432 26812 net.cpp:86] Creating Layer lstm1_gate_input_11
I0505 14:40:01.968434 26812 net.cpp:408] lstm1_gate_input_11 <- W_hc_h_10
I0505 14:40:01.968437 26812 net.cpp:408] lstm1_gate_input_11 <- W_xc_x_11
I0505 14:40:01.968441 26812 net.cpp:382] lstm1_gate_input_11 -> gate_input_11
I0505 14:40:01.968452 26812 net.cpp:124] Setting up lstm1_gate_input_11
I0505 14:40:01.968454 26812 net.cpp:131] Top shape: 1 512 400 (204800)
I0505 14:40:01.968457 26812 net.cpp:139] Memory required for data: 175349760
I0505 14:40:01.968459 26812 layer_factory.hpp:77] Creating layer lstm1_unit_11
I0505 14:40:01.968463 26812 net.cpp:86] Creating Layer lstm1_unit_11
I0505 14:40:01.968466 26812 net.cpp:408] lstm1_unit_11 <- c_10
I0505 14:40:01.968468 26812 net.cpp:408] lstm1_unit_11 <- gate_input_11
I0505 14:40:01.968472 26812 net.cpp:408] lstm1_unit_11 <- cont_11_lstm1_cont_slice_10_split_1
I0505 14:40:01.968474 26812 net.cpp:382] lstm1_unit_11 -> c_11
I0505 14:40:01.968478 26812 net.cpp:382] lstm1_unit_11 -> h_11
I0505 14:40:01.968502 26812 net.cpp:124] Setting up lstm1_unit_11
I0505 14:40:01.968505 26812 net.cpp:131] Top shape: 1 512 100 (51200)
I0505 14:40:01.968508 26812 net.cpp:131] Top shape: 1 512 100 (51200)
I0505 14:40:01.968510 26812 net.cpp:139] Memory required for data: 175759360
I0505 14:40:01.968513 26812 layer_factory.hpp:77] Creating layer h_11_lstm1_unit_11_1_split
I0505 14:40:01.968516 26812 net.cpp:86] Creating Layer h_11_lstm1_unit_11_1_split
I0505 14:40:01.968518 26812 net.cpp:408] h_11_lstm1_unit_11_1_split <- h_11
I0505 14:40:01.968521 26812 net.cpp:382] h_11_lstm1_unit_11_1_split -> h_11_lstm1_unit_11_1_split_0
I0505 14:40:01.968525 26812 net.cpp:382] h_11_lstm1_unit_11_1_split -> h_11_lstm1_unit_11_1_split_1
I0505 14:40:01.968544 26812 net.cpp:124] Setting up h_11_lstm1_unit_11_1_split
I0505 14:40:01.968545 26812 net.cpp:131] Top shape: 1 512 100 (51200)
I0505 14:40:01.968549 26812 net.cpp:131] Top shape: 1 512 100 (51200)
I0505 14:40:01.968551 26812 net.cpp:139] Memory required for data: 176168960
I0505 14:40:01.968554 26812 layer_factory.hpp:77] Creating layer lstm1_h_conted_11
I0505 14:40:01.968564 26812 net.cpp:86] Creating Layer lstm1_h_conted_11
I0505 14:40:01.969158 26812 net.cpp:408] lstm1_h_conted_11 <- h_11_lstm1_unit_11_1_split_0
I0505 14:40:01.969162 26812 net.cpp:408] lstm1_h_conted_11 <- cont_12_lstm1_cont_slice_11_split_0
I0505 14:40:01.969166 26812 net.cpp:382] lstm1_h_conted_11 -> h_conted_11
I0505 14:40:01.969199 26812 net.cpp:124] Setting up lstm1_h_conted_11
I0505 14:40:01.969202 26812 net.cpp:131] Top shape: 1 512 100 (51200)
I0505 14:40:01.969205 26812 net.cpp:139] Memory required for data: 176373760
I0505 14:40:01.969208 26812 layer_factory.hpp:77] Creating layer lstm1_transform_12
I0505 14:40:01.969211 26812 net.cpp:86] Creating Layer lstm1_transform_12
I0505 14:40:01.969214 26812 net.cpp:408] lstm1_transform_12 <- h_conted_11
I0505 14:40:01.969218 26812 net.cpp:382] lstm1_transform_12 -> W_hc_h_11
I0505 14:40:01.970165 26812 net.cpp:124] Setting up lstm1_transform_12
I0505 14:40:01.970172 26812 net.cpp:131] Top shape: 1 512 400 (204800)
I0505 14:40:01.970175 26812 net.cpp:139] Memory required for data: 177192960
I0505 14:40:01.970178 26812 net.cpp:467] Sharing parameters 'W_hc' owned by layer 'lstm1_transform_1', param index 0
I0505 14:40:01.970181 26812 layer_factory.hpp:77] Creating layer lstm1_gate_input_12
I0505 14:40:01.970186 26812 net.cpp:86] Creating Layer lstm1_gate_input_12
I0505 14:40:01.970188 26812 net.cpp:408] lstm1_gate_input_12 <- W_hc_h_11
…
I0505 14:40:02.023180 26812 net.cpp:86] Creating Layer lstm1_unit_74
I0505 14:40:02.023185 26812 net.cpp:408] lstm1_unit_74 <- c_73
I0505 14:40:02.023188 26812 net.cpp:408] lstm1_unit_74 <- gate_input_74
I0505 14:40:02.023191 26812 net.cpp:408] lstm1_unit_74 <- cont_74_lstm1_cont_slice_73_split_1
I0505 14:40:02.023197 26812 net.cpp:382] lstm1_unit_74 -> c_74
I0505 14:40:02.023202 26812 net.cpp:382] lstm1_unit_74 -> h_74
I0505 14:40:02.023241 26812 net.cpp:124] Setting up lstm1_unit_74
I0505 14:40:02.023244 26812 net.cpp:131] Top shape: 1 512 100 (51200)
I0505 14:40:02.023248 26812 net.cpp:131] Top shape: 1 512 100 (51200)
I0505 14:40:02.023252 26812 net.cpp:139] Memory required for data: 343490560
I0505 14:40:02.023255 26812 layer_factory.hpp:77] Creating layer h_74_lstm1_unit_74_1_split
I0505 14:40:02.023260 26812 net.cpp:86] Creating Layer h_74_lstm1_unit_74_1_split
I0505 14:40:02.023264 26812 net.cpp:408] h_74_lstm1_unit_74_1_split <- h_74
I0505 14:40:02.023269 26812 net.cpp:382] h_74_lstm1_unit_74_1_split -> h_74_lstm1_unit_74_1_split_0
I0505 14:40:02.023274 26812 net.cpp:382] h_74_lstm1_unit_74_1_split -> h_74_lstm1_unit_74_1_split_1
I0505 14:40:02.023315 26812 net.cpp:124] Setting up h_74_lstm1_unit_74_1_split
I0505 14:40:02.023320 26812 net.cpp:131] Top shape: 1 512 100 (51200)
I0505 14:40:02.023324 26812 net.cpp:131] Top shape: 1 512 100 (51200)
I0505 14:40:02.023329 26812 net.cpp:139] Memory required for data: 343900160
I0505 14:40:02.023331 26812 layer_factory.hpp:77] Creating layer lstm1_h_conted_74
I0505 14:40:02.023337 26812 net.cpp:86] Creating Layer lstm1_h_conted_74
I0505 14:40:02.023340 26812 net.cpp:408] lstm1_h_conted_74 <- h_74_lstm1_unit_74_1_split_0
I0505 14:40:02.023346 26812 net.cpp:408] lstm1_h_conted_74 <- cont_75_lstm1_cont_slice_74_split_0
I0505 14:40:02.023351 26812 net.cpp:382] lstm1_h_conted_74 -> h_conted_74
I0505 14:40:02.023401 26812 net.cpp:124] Setting up lstm1_h_conted_74
I0505 14:40:02.023406 26812 net.cpp:131] Top shape: 1 512 100 (51200)
I0505 14:40:02.023409 26812 net.cpp:139] Memory required for data: 344104960
I0505 14:40:02.023412 26812 layer_factory.hpp:77] Creating layer lstm1_transform_75
I0505 14:40:02.023417 26812 net.cpp:86] Creating Layer lstm1_transform_75
I0505 14:40:02.023422 26812 net.cpp:408] lstm1_transform_75 <- h_conted_74
I0505 14:40:02.023427 26812 net.cpp:382] lstm1_transform_75 -> W_hc_h_74
I0505 14:40:02.023674 26812 net.cpp:124] Setting up lstm1_transform_75
I0505 14:40:02.023679 26812 net.cpp:131] Top shape: 1 512 400 (204800)
I0505 14:40:02.023682 26812 net.cpp:139] Memory required for data: 344924160
I0505 14:40:02.023686 26812 net.cpp:467] Sharing parameters 'W_hc' owned by layer 'lstm1_transform_1', param index 0
I0505 14:40:02.023689 26812 layer_factory.hpp:77] Creating layer lstm1_gate_input_75
I0505 14:40:02.023694 26812 net.cpp:86] Creating Layer lstm1_gate_input_75
I0505 14:40:02.023697 26812 net.cpp:408] lstm1_gate_input_75 <- W_hc_h_74
I0505 14:40:02.023702 26812 net.cpp:408] lstm1_gate_input_75 <- W_xc_x_75
I0505 14:40:02.023706 26812 net.cpp:382] lstm1_gate_input_75 -> gate_input_75
I0505 14:40:02.023725 26812 net.cpp:124] Setting up lstm1_gate_input_75
I0505 14:40:02.023728 26812 net.cpp:131] Top shape: 1 512 400 (204800)
I0505 14:40:02.023732 26812 net.cpp:139] Memory required for data: 345743360
I0505 14:40:02.023736 26812 layer_factory.hpp:77] Creating layer lstm1_unit_75
I0505 14:40:02.023751 26812 net.cpp:86] Creating Layer lstm1_unit_75
I0505 14:40:02.023754 26812 net.cpp:408] lstm1_unit_75 <- c_74
I0505 14:40:02.023758 26812 net.cpp:408] lstm1_unit_75 <- gate_input_75
I0505 14:40:02.023762 26812 net.cpp:408] lstm1_unit_75 <- cont_75_lstm1_cont_slice_74_split_1
I0505 14:40:02.023767 26812 net.cpp:382] lstm1_unit_75 -> c_75
I0505 14:40:02.023773 26812 net.cpp:382] lstm1_unit_75 -> h_75
I0505 14:40:02.023813 26812 net.cpp:124] Setting up lstm1_unit_75
I0505 14:40:02.023816 26812 net.cpp:131] Top shape: 1 512 100 (51200)
I0505 14:40:02.023820 26812 net.cpp:131] Top shape: 1 512 100 (51200)
I0505 14:40:02.023824 26812 net.cpp:139] Memory required for data: 346152960
I0505 14:40:02.023828 26812 layer_factory.hpp:77] Creating layer h_75_lstm1_unit_75_1_split
I0505 14:40:02.023833 26812 net.cpp:86] Creating Layer h_75_lstm1_unit_75_1_split
I0505 14:40:02.023836 26812 net.cpp:408] h_75_lstm1_unit_75_1_split <- h_75
I0505 14:40:02.023840 26812 net.cpp:382] h_75_lstm1_unit_75_1_split -> h_75_lstm1_unit_75_1_split_0
I0505 14:40:02.023846 26812 net.cpp:382] h_75_lstm1_unit_75_1_split -> h_75_lstm1_unit_75_1_split_1
I0505 14:40:02.023874 26812 net.cpp:124] Setting up h_75_lstm1_unit_75_1_split
I0505 14:40:02.023877 26812 net.cpp:131] Top shape: 1 512 100 (51200)
I0505 14:40:02.023881 26812 net.cpp:131] Top shape: 1 512 100 (51200)
I0505 14:40:02.023885 26812 net.cpp:139] Memory required for data: 346562560
I0505 14:40:02.023888 26812 layer_factory.hpp:77] Creating layer lstm1_h_conted_75
I0505 14:40:02.023893 26812 net.cpp:86] Creating Layer lstm1_h_conted_75
I0505 14:40:02.023897 26812 net.cpp:408] lstm1_h_conted_75 <- h_75_lstm1_unit_75_1_split_0
I0505 14:40:02.023901 26812 net.cpp:408] lstm1_h_conted_75 <- cont_76_lstm1_cont_slice_75_split_0
I0505 14:40:02.023906 26812 net.cpp:382] lstm1_h_conted_75 -> h_conted_75
I0505 14:40:02.023957 26812 net.cpp:124] Setting up lstm1_h_conted_75
I0505 14:40:02.023962 26812 net.cpp:131] Top shape: 1 512 100 (51200)
I0505 14:40:02.023965 26812 net.cpp:139] Memory required for data: 346767360
I0505 14:40:02.023968 26812 layer_factory.hpp:77] Creating layer lstm1_transform_76
I0505 14:40:02.023975 26812 net.cpp:86] Creating Layer lstm1_transform_76
I0505 14:40:02.023978 26812 net.cpp:408] lstm1_transform_76 <- h_conted_75
I0505 14:40:02.024240 26812 net.cpp:382] lstm1_transform_76 -> W_hc_h_75
I0505 14:40:02.024494 26812 net.cpp:124] Setting up lstm1_transform_76
I0505 14:40:02.024498 26812 net.cpp:131] Top shape: 1 512 400 (204800)
I0505 14:40:02.024503 26812 net.cpp:139] Memory required for data: 347586560
I0505 14:40:02.024507 26812 net.cpp:467] Sharing parameters 'W_hc' owned by layer 'lstm1_transform_1', param index 0
I0505 14:40:02.024510 26812 layer_factory.hpp:77] Creating layer lstm1_gate_input_76
I0505 14:40:02.024515 26812 net.cpp:86] Creating Layer lstm1_gate_input_76
I0505 14:40:02.024518 26812 net.cpp:408] lstm1_gate_input_76 <- W_hc_h_75
I0505 14:40:02.024523 26812 net.cpp:408] lstm1_gate_input_76 <- W_xc_x_76
I0505 14:40:02.024528 26812 net.cpp:382] lstm1_gate_input_76 -> gate_input_76
I0505 14:40:02.024544 26812 net.cpp:124] Setting up lstm1_gate_input_76
I0505 14:40:02.024549 26812 net.cpp:131] Top shape: 1 512 400 (204800)
I0505 14:40:02.024552 26812 net.cpp:139] Memory required for data: 348405760
I0505 14:40:02.024555 26812 layer_factory.hpp:77] Creating layer lstm1_unit_76
I0505 14:40:02.024560 26812 net.cpp:86] Creating Layer lstm1_unit_76
I0505 14:40:02.024564 26812 net.cpp:408] lstm1_unit_76 <- c_75
I0505 14:40:02.024567 26812 net.cpp:408] lstm1_unit_76 <- gate_input_76
I0505 14:40:02.024571 26812 net.cpp:408] lstm1_unit_76 <- cont_76_lstm1_cont_slice_75_split_1
I0505 14:40:02.024576 26812 net.cpp:382] lstm1_unit_76 -> c_76
I0505 14:40:02.024581 26812 net.cpp:382] lstm1_unit_76 -> h_76
I0505 14:40:02.024619 26812 net.cpp:124] Setting up lstm1_unit_76
I0505 14:40:02.024623 26812 net.cpp:131] Top shape: 1 512 100 (51200)
I0505 14:40:02.024627 26812 net.cpp:131] Top shape: 1 512 100 (51200)
I0505 14:40:02.024631 26812 net.cpp:139] Memory required for data: 348815360
I0505 14:40:02.024646 26812 layer_factory.hpp:77] Creating layer h_76_lstm1_unit_76_1_split
I0505 14:40:02.024649 26812 net.cpp:86] Creating Layer h_76_lstm1_unit_76_1_split
I0505 14:40:02.024653 26812 net.cpp:408] h_76_lstm1_unit_76_1_split <- h_76
I0505 14:40:02.024658 26812 net.cpp:382] h_76_lstm1_unit_76_1_split -> h_76_lstm1_unit_76_1_split_0
I0505 14:40:02.024664 26812 net.cpp:382] h_76_lstm1_unit_76_1_split -> h_76_lstm1_unit_76_1_split_1
I0505 14:40:02.024695 26812 net.cpp:124] Setting up h_76_lstm1_unit_76_1_split
I0505 14:40:02.024698 26812 net.cpp:131] Top shape: 1 512 100 (51200)
I0505 14:40:02.024703 26812 net.cpp:131] Top shape: 1 512 100 (51200)
I0505 14:40:02.024708 26812 net.cpp:139] Memory required for data: 349224960
I0505 14:40:02.024710 26812 layer_factory.hpp:77] Creating layer lstm1_h_conted_76
I0505 14:40:02.024716 26812 net.cpp:86] Creating Layer lstm1_h_conted_76
I0505 14:40:02.024719 26812 net.cpp:408] lstm1_h_conted_76 <- h_76_lstm1_unit_76_1_split_0
I0505 14:40:02.024724 26812 net.cpp:408] lstm1_h_conted_76 <- cont_77_lstm1_cont_slice_76_split_0
I0505 14:40:02.024729 26812 net.cpp:382] lstm1_h_conted_76 -> h_conted_76
I0505 14:40:02.024780 26812 net.cpp:124] Setting up lstm1_h_conted_76
I0505 14:40:02.024785 26812 net.cpp:131] Top shape: 1 512 100 (51200)
I0505 14:40:02.024790 26812 net.cpp:139] Memory required for data: 349429760
I0505 14:40:02.024792 26812 layer_factory.hpp:77] Creating layer lstm1_transform_77
I0505 14:40:02.024798 26812 net.cpp:86] Creating Layer lstm1_transform_77
I0505 14:40:02.024802 26812 net.cpp:408] lstm1_transform_77 <- h_conted_76
I0505 14:40:02.024806 26812 net.cpp:382] lstm1_transform_77 -> W_hc_h_76
I0505 14:40:02.025815 26812 net.cpp:124] Setting up lstm1_transform_77
I0505 14:40:02.025821 26812 net.cpp:131] Top shape: 1 512 400 (204800)
I0505 14:40:02.025825 26812 net.cpp:139] Memory required for data: 350248960
I0505 14:40:02.025828 26812 net.cpp:467] Sharing parameters 'W_hc' owned by layer 'lstm1_transform_1', param index 0
I0505 14:40:02.025830 26812 layer_factory.hpp:77] Creating layer lstm1_gate_input_77
I0505 14:40:02.025835 26812 net.cpp:86] Creating Layer lstm1_gate_input_77
I0505 14:40:02.025837 26812 net.cpp:408] lstm1_gate_input_77 <- W_hc_h_76
I0505 14:40:02.025841 26812 net.cpp:408] lstm1_gate_input_77 <- W_xc_x_77
I0505 14:40:02.025844 26812 net.cpp:382] lstm1_gate_input_77 -> gate_input_77
I0505 14:40:02.025859 26812 net.cpp:124] Setting up lstm1_gate_input_77
I0505 14:40:02.025862 26812 net.cpp:131] Top shape: 1 512 400 (204800)
I0505 14:40:02.025864 26812 net.cpp:139] Memory required for data: 351068160
I0505 14:40:02.025866 26812 layer_factory.hpp:77] Creating layer lstm1_unit_77
I0505 14:40:02.025871 26812 net.cpp:86] Creating Layer lstm1_unit_77
I0505 14:40:02.025872 26812 net.cpp:408] lstm1_unit_77 <- c_76
I0505 14:40:02.025876 26812 net.cpp:408] lstm1_unit_77 <- gate_input_77
I0505 14:40:02.025878 26812 net.cpp:408] lstm1_unit_77 <- cont_77_lstm1_cont_slice_76_split_1
I0505 14:40:02.025882 26812 net.cpp:382] lstm1_unit_77 -> c_77
I0505 14:40:02.025885 26812 net.cpp:382] lstm1_unit_77 -> h_77
I0505 14:40:02.025913 26812 net.cpp:124] Setting up lstm1_unit_77
I0505 14:40:02.025914 26812 net.cpp:131] Top shape: 1 512 100 (51200)
I0505 14:40:02.025918 26812 net.cpp:131] Top shape: 1 512 100 (51200)
I0505 14:40:02.025919 26812 net.cpp:139] Memory required for data: 351477760
I0505 14:40:02.025921 26812 layer_factory.hpp:77] Creating layer h_77_lstm1_unit_77_1_split
I0505 14:40:02.025925 26812 net.cpp:86] Creating Layer h_77_lstm1_unit_77_1_split
I0505 14:40:02.025928 26812 net.cpp:408] h_77_lstm1_unit_77_1_split <- h_77
I0505 14:40:02.025931 26812 net.cpp:382] h_77_lstm1_unit_77_1_split -> h_77_lstm1_unit_77_1_split_0
I0505 14:40:02.025935 26812 net.cpp:382] h_77_lstm1_unit_77_1_split -> h_77_lstm1_unit_77_1_split_1
I0505 14:40:02.025954 26812 net.cpp:124] Setting up h_77_lstm1_unit_77_1_split
I0505 14:40:02.025956 26812 net.cpp:131] Top shape: 1 512 100 (51200)
I0505 14:40:02.025959 26812 net.cpp:131] Top shape: 1 512 100 (51200)
I0505 14:40:02.025971 26812 net.cpp:139] Memory required for data: 351887360
I0505 14:40:02.025974 26812 layer_factory.hpp:77] Creating layer lstm1_h_conted_77
I0505 14:40:02.025977 26812 net.cpp:86] Creating Layer lstm1_h_conted_77
I0505 14:40:02.025980 26812 net.cpp:408] lstm1_h_conted_77 <- h_77_lstm1_unit_77_1_split_0
I0505 14:40:02.025983 26812 net.cpp:408] lstm1_h_conted_77 <- cont_78_lstm1_cont_slice_77_split_0
I0505 14:40:02.025987 26812 net.cpp:382] lstm1_h_conted_77 -> h_conted_77
I0505 14:40:02.026028 26812 net.cpp:124] Setting up lstm1_h_conted_77
I0505 14:40:02.026031 26812 net.cpp:131] Top shape: 1 512 100 (51200)
I0505 14:40:02.026033 26812 net.cpp:139] Memory required for data: 352092160
I0505 14:40:02.026036 26812 layer_factory.hpp:77] Creating layer lstm1_transform_78
I0505 14:40:02.026041 26812 net.cpp:86] Creating Layer lstm1_transform_78
I0505 14:40:02.026042 26812 net.cpp:408] lstm1_transform_78 <- h_conted_77
I0505 14:40:02.026046 26812 net.cpp:382] lstm1_transform_78 -> W_hc_h_77
I0505 14:40:02.026217 26812 net.cpp:124] Setting up lstm1_transform_78
I0505 14:40:02.026221 26812 net.cpp:131] Top shape: 1 512 400 (204800)
I0505 14:40:02.026223 26812 net.cpp:139] Memory required for data: 352911360
I0505 14:40:02.026226 26812 net.cpp:467] Sharing parameters 'W_hc' owned by layer 'lstm1_transform_1', param index 0
I0505 14:40:02.026228 26812 layer_factory.hpp:77] Creating layer lstm1_gate_input_78
I0505 14:40:02.026232 26812 net.cpp:86] Creating Layer lstm1_gate_input_78
I0505 14:40:02.026234 26812 net.cpp:408] lstm1_gate_input_78 <- W_hc_h_77
I0505 14:40:02.026237 26812 net.cpp:408] lstm1_gate_input_78 <- W_xc_x_78
I0505 14:40:02.026240 26812 net.cpp:382] lstm1_gate_input_78 -> gate_input_78
I0505 14:40:02.026253 26812 net.cpp:124] Setting up lstm1_gate_input_78
I0505 14:40:02.026255 26812 net.cpp:131] Top shape: 1 512 400 (204800)
I0505 14:40:02.026258 26812 net.cpp:139] Memory required for data: 353730560
I0505 14:40:02.026260 26812 layer_factory.hpp:77] Creating layer lstm1_unit_78
I0505 14:40:02.026263 26812 net.cpp:86] Creating Layer lstm1_unit_78
I0505 14:40:02.026266 26812 net.cpp:408] lstm1_unit_78 <- c_77
I0505 14:40:02.026269 26812 net.cpp:408] lstm1_unit_78 <- gate_input_78
I0505 14:40:02.026273 26812 net.cpp:408] lstm1_unit_78 <- cont_78_lstm1_cont_slice_77_split_1
I0505 14:40:02.026275 26812 net.cpp:382] lstm1_unit_78 -> c_78
I0505 14:40:02.026278 26812 net.cpp:382] lstm1_unit_78 -> h_78
I0505 14:40:02.026305 26812 net.cpp:124] Setting up lstm1_unit_78
I0505 14:40:02.026309 26812 net.cpp:131] Top shape: 1 512 100 (51200)
I0505 14:40:02.026310 26812 net.cpp:131] Top shape: 1 512 100 (51200)
I0505 14:40:02.026314 26812 net.cpp:139] Memory required for data: 354140160
I0505 14:40:02.026315 26812 layer_factory.hpp:77] Creating layer h_78_lstm1_unit_78_1_split
I0505 14:40:02.026319 26812 net.cpp:86] Creating Layer h_78_lstm1_unit_78_1_split
I0505 14:40:02.026321 26812 net.cpp:408] h_78_lstm1_unit_78_1_split <- h_78
I0505 14:40:02.026324 26812 net.cpp:382] h_78_lstm1_unit_78_1_split -> h_78_lstm1_unit_78_1_split_0
I0505 14:40:02.026329 26812 net.cpp:382] h_78_lstm1_unit_78_1_split -> h_78_lstm1_unit_78_1_split_1
I0505 14:40:02.026348 26812 net.cpp:124] Setting up h_78_lstm1_unit_78_1_split
I0505 14:40:02.026350 26812 net.cpp:131] Top shape: 1 512 100 (51200)
I0505 14:40:02.026353 26812 net.cpp:131] Top shape: 1 512 100 (51200)
I0505 14:40:02.026355 26812 net.cpp:139] Memory required for data: 354549760
I0505 14:40:02.026357 26812 layer_factory.hpp:77] Creating layer lstm1_h_conted_78
I0505 14:40:02.026362 26812 net.cpp:86] Creating Layer lstm1_h_conted_78
I0505 14:40:02.026365 26812 net.cpp:408] lstm1_h_conted_78 <- h_78_lstm1_unit_78_1_split_0
I0505 14:40:02.026367 26812 net.cpp:408] lstm1_h_conted_78 <- cont_79_lstm1_cont_slice_78_split_0
I0505 14:40:02.026371 26812 net.cpp:382] lstm1_h_conted_78 -> h_conted_78
I0505 14:40:02.026407 26812 net.cpp:124] Setting up lstm1_h_conted_78
I0505 14:40:02.026409 26812 net.cpp:131] Top shape: 1 512 100 (51200)
I0505 14:40:02.026412 26812 net.cpp:139] Memory required for data: 354754560
I0505 14:40:02.026422 26812 layer_factory.hpp:77] Creating layer lstm1_transform_79
I0505 14:40:02.026425 26812 net.cpp:86] Creating Layer lstm1_transform_79
I0505 14:40:02.026428 26812 net.cpp:408] lstm1_transform_79 <- h_conted_78
I0505 14:40:02.026432 26812 net.cpp:382] lstm1_transform_79 -> W_hc_h_78
I0505 14:40:02.026602 26812 net.cpp:124] Setting up lstm1_transform_79
I0505 14:40:02.026605 26812 net.cpp:131] Top shape: 1 512 400 (204800)
I0505 14:40:02.026608 26812 net.cpp:139] Memory required for data: 355573760
I0505 14:40:02.026610 26812 net.cpp:467] Sharing parameters 'W_hc' owned by layer 'lstm1_transform_1', param index 0
I0505 14:40:02.026613 26812 layer_factory.hpp:77] Creating layer lstm1_gate_input_79
I0505 14:40:02.026616 26812 net.cpp:86] Creating Layer lstm1_gate_input_79
I0505 14:40:02.026619 26812 net.cpp:408] lstm1_gate_input_79 <- W_hc_h_78
I0505 14:40:02.026621 26812 net.cpp:408] lstm1_gate_input_79 <- W_xc_x_79
I0505 14:40:02.026624 26812 net.cpp:382] lstm1_gate_input_79 -> gate_input_79
I0505 14:40:02.026638 26812 net.cpp:124] Setting up lstm1_gate_input_79
I0505 14:40:02.026639 26812 net.cpp:131] Top shape: 1 512 400 (204800)
I0505 14:40:02.026643 26812 net.cpp:139] Memory required for data: 356392960
I0505 14:40:02.026644 26812 layer_factory.hpp:77] Creating layer lstm1_unit_79
I0505 14:40:02.026648 26812 net.cpp:86] Creating Layer lstm1_unit_79
I0505 14:40:02.026650 26812 net.cpp:408] lstm1_unit_79 <- c_78
I0505 14:40:02.026652 26812 net.cpp:408] lstm1_unit_79 <- gate_input_79
I0505 14:40:02.026655 26812 net.cpp:408] lstm1_unit_79 <- cont_79_lstm1_cont_slice_78_split_1
I0505 14:40:02.026659 26812 net.cpp:382] lstm1_unit_79 -> c_79
I0505 14:40:02.026662 26812 net.cpp:382] lstm1_unit_79 -> h_79
I0505 14:40:02.026688 26812 net.cpp:124] Setting up lstm1_unit_79
I0505 14:40:02.026691 26812 net.cpp:131] Top shape: 1 512 100 (51200)
I0505 14:40:02.026695 26812 net.cpp:131] Top shape: 1 512 100 (51200)
I0505 14:40:02.026697 26812 net.cpp:139] Memory required for data: 356802560
I0505 14:40:02.026700 26812 layer_factory.hpp:77] Creating layer h_79_lstm1_unit_79_1_split
I0505 14:40:02.026702 26812 net.cpp:86] Creating Layer h_79_lstm1_unit_79_1_split
I0505 14:40:02.026705 26812 net.cpp:408] h_79_lstm1_unit_79_1_split <- h_79
I0505 14:40:02.026710 26812 net.cpp:382] h_79_lstm1_unit_79_1_split -> h_79_lstm1_unit_79_1_split_0
I0505 14:40:02.026713 26812 net.cpp:382] h_79_lstm1_unit_79_1_split -> h_79_lstm1_unit_79_1_split_1
I0505 14:40:02.026732 26812 net.cpp:124] Setting up h_79_lstm1_unit_79_1_split
I0505 14:40:02.026734 26812 net.cpp:131] Top shape: 1 512 100 (51200)
I0505 14:40:02.026737 26812 net.cpp:131] Top shape: 1 512 100 (51200)
I0505 14:40:02.026741 26812 net.cpp:139] Memory required for data: 357212160
I0505 14:40:02.026742 26812 layer_factory.hpp:77] Creating layer lstm1_h_conted_79
I0505 14:40:02.026746 26812 net.cpp:86] Creating Layer lstm1_h_conted_79
I0505 14:40:02.026748 26812 net.cpp:408] lstm1_h_conted_79 <- h_79_lstm1_unit_79_1_split_0
I0505 14:40:02.026751 26812 net.cpp:408] lstm1_h_conted_79 <- cont_80_lstm1_cont_slice_79_split_0
I0505 14:40:02.026756 26812 net.cpp:382] lstm1_h_conted_79 -> h_conted_79
I0505 14:40:02.026789 26812 net.cpp:124] Setting up lstm1_h_conted_79
I0505 14:40:02.026793 26812 net.cpp:131] Top shape: 1 512 100 (51200)
I0505 14:40:02.026794 26812 net.cpp:139] Memory required for data: 357416960
I0505 14:40:02.026796 26812 layer_factory.hpp:77] Creating layer lstm1_transform_80
I0505 14:40:02.026800 26812 net.cpp:86] Creating Layer lstm1_transform_80
I0505 14:40:02.026803 26812 net.cpp:408] lstm1_transform_80 <- h_conted_79
I0505 14:40:02.026806 26812 net.cpp:382] lstm1_transform_80 -> W_hc_h_79
I0505 14:40:02.026973 26812 net.cpp:124] Setting up lstm1_transform_80
I0505 14:40:02.026976 26812 net.cpp:131] Top shape: 1 512 400 (204800)
I0505 14:40:02.026978 26812 net.cpp:139] Memory required for data: 358236160
I0505 14:40:02.026981 26812 net.cpp:467] Sharing parameters 'W_hc' owned by layer 'lstm1_transform_1', param index 0
I0505 14:40:02.026990 26812 layer_factory.hpp:77] Creating layer lstm1_gate_input_80
I0505 14:40:02.026994 26812 net.cpp:86] Creating Layer lstm1_gate_input_80
I0505 14:40:02.026996 26812 net.cpp:408] lstm1_gate_input_80 <- W_hc_h_79
I0505 14:40:02.026999 26812 net.cpp:408] lstm1_gate_input_80 <- W_xc_x_80
I0505 14:40:02.027002 26812 net.cpp:382] lstm1_gate_input_80 -> gate_input_80
I0505 14:40:02.027015 26812 net.cpp:124] Setting up lstm1_gate_input_80
I0505 14:40:02.027017 26812 net.cpp:131] Top shape: 1 512 400 (204800)
I0505 14:40:02.027020 26812 net.cpp:139] Memory required for data: 359055360
I0505 14:40:02.027022 26812 layer_factory.hpp:77] Creating layer lstm1_unit_80
I0505 14:40:02.027026 26812 net.cpp:86] Creating Layer lstm1_unit_80
I0505 14:40:02.027029 26812 net.cpp:408] lstm1_unit_80 <- c_79
I0505 14:40:02.027031 26812 net.cpp:408] lstm1_unit_80 <- gate_input_80
I0505 14:40:02.027034 26812 net.cpp:408] lstm1_unit_80 <- cont_80_lstm1_cont_slice_79_split_1
I0505 14:40:02.027037 26812 net.cpp:382] lstm1_unit_80 -> c_80
I0505 14:40:02.027041 26812 net.cpp:382] lstm1_unit_80 -> h_80
I0505 14:40:02.027067 26812 net.cpp:124] Setting up lstm1_unit_80
I0505 14:40:02.027070 26812 net.cpp:131] Top shape: 1 512 100 (51200)
I0505 14:40:02.027072 26812 net.cpp:131] Top shape: 1 512 100 (51200)
I0505 14:40:02.027074 26812 net.cpp:139] Memory required for data: 359464960
I0505 14:40:02.027076 26812 layer_factory.hpp:77] Creating layer lstm1_
I0505 14:40:02.027079 26812 net.cpp:86] Creating Layer lstm1_
I0505 14:40:02.027081 26812 net.cpp:408] lstm1_ <- c_80
I0505 14:40:02.027084 26812 net.cpp:382] lstm1_ -> c_T
I0505 14:40:02.027096 26812 net.cpp:124] Setting up lstm1_
I0505 14:40:02.027098 26812 net.cpp:131] Top shape: 1 512 100 (51200)
I0505 14:40:02.027101 26812 net.cpp:139] Memory required for data: 359669760
I0505 14:40:02.027103 26812 layer_factory.hpp:77] Creating layer lstm1_h_concat
I0505 14:40:02.027112 26812 net.cpp:86] Creating Layer lstm1_h_concat
I0505 14:40:02.027114 26812 net.cpp:408] lstm1_h_concat <- h_1_lstm1_unit_1_1_split_1
I0505 14:40:02.027119 26812 net.cpp:408] lstm1_h_concat <- h_2_lstm1_unit_2_1_split_1
…
  top: "W_xc_x_53"
  top: "W_xc_x_54"
  top: "W_xc_x_55"
  top: "W_xc_x_56"
  top: "W_xc_x_57"
  top: "W_xc_x_58"
  top: "W_xc_x_59"
  top: "W_xc_x_60"
  top: "W_xc_x_61"
  top: "W_xc_x_62"
  top: "W_xc_x_63"
  top: "W_xc_x_64"
  top: "W_xc_x_65"
  top: "W_xc_x_66"
  top: "W_xc_x_67"
  top: "W_xc_x_68"
  top: "W_xc_x_69"
  top: "W_xc_x_70"
  top: "W_xc_x_71"
  top: "W_xc_x_72"
  top: "W_xc_x_73"
  top: "W_xc_x_74"
  top: "W_xc_x_75"
  top: "W_xc_x_76"
  top: "W_xc_x_77"
  top: "W_xc_x_78"
  top: "W_xc_x_79"
  top: "W_xc_x_80"
  slice_param {
    axis: 0
  }
}
layer {
  name: "lstm2_h_conted_0"
  type: "Scale"
  bottom: "h_0"
  bottom: "cont_1"
  top: "h_conted_0"
  scale_param {
    axis: 0
  }
}
layer {
  name: "lstm2_transform_1"
  type: "InnerProduct"
  bottom: "h_conted_0"
  top: "W_hc_h_0"
  param {
    name: "W_hc"
  }
  inner_product_param {
    num_output: 400
    bias_term: false
    weight_filler {
      type: "xavier"
    }
    axis: 2
  }
}
layer {
  name: "lstm2_gate_input_1"
  type: "Eltwise"
  bottom: "W_hc_h_0"
  bottom: "W_xc_x_1"
  top: "gate_input_1"
  eltwise_param {
    operation: SUM
  }
}
layer {
  name: "lstm2_unit_1"
  type: "LSTMUnit"
  bottom: "c_0"
  bottom: "gate_input_1"
  bottom: "cont_1"
  top: "c_1"
  top: "h_1"
}
layer {
  name: "lstm2_h_conted_1"
  type: "Scale"
  bottom: "h_1"
  bottom: "cont_2"
  top: "h_conted_1"
  scale_param {
    axis: 0
  }
}
layer {
  name: "lstm2_transform_2"
  type: "InnerProduct"
  bottom: "h_conted_1"
  top: "W_hc_h_1"
  param {
    name: "W_hc"
  }
  inner_product_param {
    num_output: 400
    bias_term: false
    weight_filler {
      type: "xavier"
    }
    axis: 2
  }
}
layer {
  name: "lstm2_gate_input_2"
  type: "Eltwise"
  bottom: "W_hc_h_1"
  bottom: "W_xc_x_2"
  top: "gate_input_2"
  eltwise_param {
    operation: SUM
  }
}
layer {
  name: "lstm2_unit_2"
  type: "LSTMUnit"
  bottom: "c_1"
  bottom: "gate_input_2"
  bottom: "cont_2"
  top: "c_2"
  top: "h_2"
}
layer {
  name: "lstm2_h_conted_2"
  type: "Scale"
  bottom: "h_2"
  bottom: "cont_3"
  top: "h_conted_2"
  scale_param {
    axis: 0
  }
}
layer {
  name: "lstm2_transform_3"
  type: "InnerProduct"
  bottom: "h_conted_2"
  top: "W_hc_h_2"
  param {
    name: "W_hc"
  }
  inner_product_param {
    num_output: 400
    bias_term: false
    weight_filler {
      type: "xavier"
    }
    axis: 2
  }
}
layer {
  name: "lstm2_gate_input_3"
  type: "Eltwise"
  bottom: "W_hc_h_2"
  bottom: "W_xc_x_3"
  top: "gate_input_3"
  eltwise_param {
    operation: SUM
  }
}
layer {
  name: "lstm2_unit_3"
  type: "LSTMUnit"
  bottom: "c_2"
  bottom: "gate_input_3"
  bottom: "cont_3"
  top: "c_3"
  top: "h_3"
}
layer {
  name: "lstm2_h_conted_3"
  type: "Scale"
  bottom: "h_3"
  bottom: "cont_4"
  top: "h_conted_3"
  scale_param {
    axis: 0
  }
}
layer {
  name: "lstm2_transform_4"
  type: "InnerProduct"
  bottom: "h_conted_3"
  top: "W_hc_h_3"
  param {
    name: "W_hc"
  }
  inner_product_param {
    num_output: 400
    bias_term: false
    weight_filler {
      type: "xavier"
    }
    axis: 2
  }
}
layer {
  name: "lstm2_gate_input_4"
  type: "Eltwise"
  bottom: "W_hc_h_3"
  bottom: "W_xc_x_4"
  top: "gate_input_4"
  eltwise_param {
    operation: SUM
  }
}
layer {
  name: "lstm2_unit_4"
  type: "LSTMUnit"
  bottom: "c_3"
  bottom: "gate_input_4"
  bottom: "cont_4"
  top: "c_4"
  top: "h_4"
}
layer {
  name: "lstm2_h_conted_4"
  type: "Scale"
  bottom: "h_4"
  bottom: "cont_5"
  top: "h_conted_4"
  scale_param {
    axis: 0
  }
}
layer {
  name: "lstm2_transform_5"
  type: "InnerProduct"
  bottom: "h_conted_4"
  top: "W_hc_h_4"
  param {
    name: "W_hc"
  }
  inner_product_param {
    num_output: 400
    bias_term: false
    weight_filler {
      type: "xavier"
    }
    axis: 2
  }
}
layer {
  name: "lstm2_gate_input_5"
  type: "Eltwise"
  bottom: "W_hc_h_4"
  bottom: "W_xc_x_5"
  top: "gate_input_5"
  eltwise_param {
    operation: SUM
  }
}
layer {
  name: "lstm2_unit_5"
  type: "LSTMUnit"
  bottom: "c_4"
  bottom: "gate_input_5"
  bottom: "cont_5"
  top: "c_5"
  top: "h_5"
}
layer {
  name: "lstm2_h_conted_5"
  type: "Scale"
  bottom: "h_5"
  bottom: "cont_6"
  top: "h_conted_5"
  scale_param {
    axis: 0
  }
}
layer {
  name: "lstm2_transform_6"
  type: "InnerProduct"
  bottom: "h_conted_5"
  top: "W_hc_h_5"
  param {
    name: "W_hc"
  }
  inner_product_param {
    num_output: 400
    bias_term: false
    weight_filler {
      type: "xavier"
    }
    axis: 2
  }
}
layer {
  name: "lstm2_gate_input_6"
  type: "Eltwise"
  bottom: "W_hc_h_5"
  bottom: "W_xc_x_6"
  top: "gate_input_6"
  eltwise_param {
    operation: SUM
  }
}
layer {
  name: "lstm2_unit_6"
  type: "LSTMUnit"
  bottom: "c_5"
  bottom: "gate_input_6"
  bottom: "cont_6"
  top: "c_6"
  top: "h_6"
}
layer {
  name: "lstm2_h_conted_6"
  type: "Scale"
  bottom: "h_6"
  bottom: "cont_7"
  top: "h_conted_6"
  scale_param {
    axis: 0
  }
}
layer {
  name: "lstm2_transform_7"
  type: "InnerProduct"
  bottom: "h_conted_6"
  top: "W_hc_h_6"
  param {
    name: "W_hc"
  }
  inner_product_param {
    num_output: 400
    bias_term: false
    weight_filler {
      type: "xavier"
    }
    axis: 2
  }
}
layer {
  name: "lstm2_gate_input_7"
  type: "Eltwise"
  bottom: "W_hc_h_6"
  bottom: "W_xc_x_7"
  top: "gate_input_7"
  eltwise_param {
    operation: SUM
  }
}
layer {
  name: "lstm2_unit_7"
  type: "LSTMUnit"
  bottom: "c_6"
  bottom: "gate_input_7"
  bottom: "cont_7"
  top: "c_7"
  top: "h_7"
}
layer {
  name: "lstm2_h_conted_7"
  type: "Scale"
  bottom: "h_7"
  bottom: "cont_8"
  top: "h_conted_7"
  scale_param {
    axis: 0
  }
}
layer {
  name: "lstm2_transform_8"
  type: "InnerProduct"
  bottom: "h_conted_7"
  top: "W_hc_h_7"
  param {
    name: "W_hc"
  }
  inner_product_param {
    num_output: 400
    bias_term: false
    weight_filler {
      type: "xavier"
    }
    axis: 2
  }
}
layer {
  name: "lstm2_gate_input_8"
  type: "Eltwise"
  bottom: "W_hc_h_7"
  bottom: "W_xc_x_8"
  top: "gate_input_8"
  eltwise_param {
    operation: SUM
  }
}
layer {
  name: "lstm2_unit_8"
  type: "LSTMUnit"
  bottom: "c_7"
  bottom: "gate_input_8"
  bottom: "cont_8"
  top: "c_8"
  top: "h_8"
}
layer {
  name: "lstm2_h_conted_8"
  type: "Scale"
  bottom: "h_8"
  bottom: "cont_9"
  top: "h_conted_8"
  scale_param {
    axis: 0
  }
}
layer {
  name: "lstm2_transform_9"
  type: "InnerProduct"
  bottom: "h_conted_8"
  top: "W_hc_h_8"
  param {
    name: "W_hc"
  }
  inner_product_param {
    num_output: 400
    bias_term: false
    weight_filler {
      type: "xavier"
    }
    axis: 2
  }
}
layer {
  name: "lstm2_gate_input_9"
  type: "Eltwise"
  bottom: "W_hc_h_8"
  bottom: "W_xc_x_9"
  top: "gate_input_9"
  eltwise_param {
    operation: SUM
  }
}
layer {
  name: "lstm2_unit_9"
  type: "LSTMUnit"
  bottom: "c_8"
  bottom: "gate_input_9"
  bottom: "cont_9"
  top: "c_9"
  top: "h_9"
}
layer {
  name: "lstm2_h_conted_9"
  type: "Scale"
  bottom: "h_9"
  bottom: "cont_10"
  top: "h_conted_9"
  scale_param {
    axis: 0
  }
}
layer {
  name: "lstm2_transform_10"
  type: "InnerProduct"
  bottom: "h_conted_9"
  top: "W_hc_h_9"
  param {
    name: "W_hc"
  }
  inner_product_param {
    num_output: 400
    bias_term: false
    weight_filler {
      type: "xavier"
    }
    axis: 2
  }
}
layer {
  name: "lstm2_gate_input_10"
  type: "Eltwise"
  bottom: "W_hc_h_9"
  bottom: "W_xc_x_10"
  top: "gate_input_10"
  eltwise_param {
    operation: SUM
  }
}
layer {
  name: "lstm2_unit_10"
  type: "LSTMUnit"
  bottom: "c_9"
  bottom: "gate_input_10"
  bottom: "cont_10"
  top: "c_10"
  top: "h_10"
}
layer {
  name: "lstm2_h_conted_10"
  type: "Scale"
  bottom: "h_10"
  bottom: "cont_11"
  top: "h_conted_10"
  scale_param {
    axis: 0
  }
}
layer {
  name: "lstm2_transform_11"
  type: "InnerProduct"
  bottom: "h_conted_10"
  top: "W_hc_h_10"
  param {
    name: "W_hc"
  }
  inner_product_param {
    num_output: 400
    bias_term: false
    weight_filler {
      type: "xavier"
    }
    axis: 2
  }
}
layer {
  name: "lstm2_gate_input_11"
  type: "Eltwise"
  bottom: "W_hc_h_10"
  bottom: "W_xc_x_11"
  top: "gate_input_11"
  eltwise_param {
    operation: SUM
  }
}
layer {
  name: "lstm2_unit_11"
  type: "LSTMUnit"
  bottom: "c_10"
  bottom: "gate_input_11"
  bottom: "cont_11"
  top: "c_11"
  top: "h_11"
}
layer {
  name: "lstm2_h_conted_11"
  type: "Scale"
  bottom: "h_11"
  bottom: "cont_12"
  top: "h_conted_11"
  scale_param {
    axis: 0
  }
}
layer {
  name: "lstm2_transform_12"
  type: "InnerProduct"
  bottom: "h_conted_11"
  top: "W_hc_h_11"
  param {
    name: "W_hc"
  }
  inner_product_param {
    num_output: 400
    bias_term: false
    weight_filler {
      type: "xavier"
    }
    axis: 2
  }
}
layer {
  name: "lstm2_gate_input_12"
  type: "Eltwise"
  bottom: "W_hc_h_11"
  bottom: "W_xc_x_12"
  top: "gate_input_12"
  eltwise_param {
    operation: SUM
  }
}
layer {
  name: "lstm2_unit_12"
  type: "LSTMUnit"
  bottom: "c_11"
  bottom: "gate_input_12"
  bottom: "cont_12"
  top: "c_12"
  top: "h_12"
}
layer {
  name: "lstm2_h_conted_12"
  type: "Scale"
  bottom: "h_12"
  bottom: "cont_13"
  top: "h_conted_12"
  scale_param {
    axis: 0
  }
}
layer {
  name: "lstm2_transform_13"
  type: "InnerProduct"
  bottom: "h_conted_12"
  top: "W_hc_h_12"
  param {
    name: "W_hc"
  }
  inner_product_param {
    num_output: 400
    bias_term: false
    weight_filler {
      type: "xavier"
    }
    axis: 2
  }
}
layer {
  name: "lstm2_gate_input_13"
  type: "Eltwise"
  bottom: "W_hc_h_12"
  bottom: "W_xc_x_13"
  top: "gate_input_13"
  eltwise_param {
    operation: SUM
  }
}
layer {
  name: "lstm2_unit_13"
  type: "LSTMUnit"
  bottom: "c_12"
  bottom: "gate_input_13"
  bottom: "cont_13"
  top: "c_13"
  top: "h_13"
}
layer {
  name: "lstm2_h_conted_13"
  type: "Scale"
  bottom: "h_13"
  bottom: "cont_14"
  top: "h_conted_13"
  scale_param {
    axis: 0
  }
}
layer {
  name: "lstm2_transform_14"
  type: "InnerProduct"
  bottom: "h_conted_13"
  top: "W_hc_h_13"
  param {
    name: "W_hc"
  }
  inner_product_param {
    num_output: 400
    bias_term: false
    weight_filler {
      type: "xavier"
    }
    axis: 2
  }
}
layer {
  name: "lstm2_gate_input_14"
  type: "Eltwise"
  bottom: "W_hc_h_13"
  bottom: "W_xc_x_14"
  top: "gate_input_14"
  eltwise_param {
    operation: SUM
  }
}
layer {
  name: "lstm2_unit_14"
  type: "LSTMUnit"
  bottom: "c_13"
  bottom: "gate_input_14"
  bottom: "cont_14"
  top: "c_14"
  top: "h_14"
}
layer {
  name: "lstm2_h_conted_14"
  type: "Scale"
  bottom: "h_14"
  bottom: "cont_15"
  top: "h_conted_14"
  scale_param {
    axis: 0
  }
}
layer {
  name: "lstm2_transform_15"
  type: "InnerProduct"
  bottom: "h_conted_14"
  top: "W_hc_h_14"
  param {
    name: "W_hc"
  }
  inner_product_param {
    num_output: 400
    bias_term: false
    weight_filler {
      type: "xavier"
    }
    axis: 2
  }
}
layer {
  name: "lstm2_gate_input_15"
  type: "Eltwise"
  bottom: "W_hc_h_14"
  bottom: "W_xc_x_15"
  top: "gate_input_15"
  eltwise_param {
    operation: SUM
  }
}
layer {
  name: "lstm2_unit_15"
  type: "LSTMUnit"
  bottom: "c_14"
  bottom: "gate_input_15"
  bottom: "cont_15"
  top: "c_15"
  top: "h_15"
}
layer {
  name: "lstm2_h_conted_15"
  type: "Scale"
  bottom: "h_15"
  bottom: "cont_16"
  top: "h_conted_15"
  scale_param {
    axis: 0
  }
}
layer {
  name: "lstm2_transform_16"
  type: "InnerProduct"
  bottom: "h_conted_15"
  top: "W_hc_h_15"
  param {
    name: "W_hc"
  }
  inner_product_param {
    num_output: 400
    bias_term: false
    weight_filler {
      type: "xavier"
    }
    axis: 2
  }
}
layer {
  name: "lstm2_gate_input_16"
  type: "Eltwise"
  bottom: "W_hc_h_15"
  bottom: "W_xc_x_16"
  top: "gate_input_16"
  eltwise_param {
    operation: SUM
  }
}
layer {
  name: "lstm2_unit_16"
  type: "LSTMUnit"
  bottom: "c_15"
  bottom: "gate_input_16"
  bottom: "cont_16"
  top: "c_16"
  top: "h_16"
}
layer {
  name: "lstm2_h_conted_16"
  type: "Scale"
  bottom: "h_16"
  bottom: "cont_17"
  top: "h_conted_16"
  scale_param {
    axis: 0
  }
}
layer {
  name: "lstm2_transform_17"
  type: "InnerProduct"
  bottom: "h_conted_16"
  top: "W_hc_h_16"
  param {
    name: "W_hc"
  }
  inner_product_param {
    num_output: 400
    bias_term: false
    weight_filler {
      type: "xavier"
    }
    axis: 2
  }
}
layer {
  name: "lstm2_gate_input_17"
  type: "Eltwise"
  bottom: "W_hc_h_16"
  bottom: "W_xc_x_17"
  top: "gate_input_17"
  eltwise_param {
    operation: SUM
  }
}
layer {
  name: "lstm2_unit_17"
  type: "LSTMUnit"
  bottom: "c_16"
  bottom: "gate_input_17"
  bottom: "cont_17"
  top: "c_17"
  top: "h_17"
}
layer {
  name: "lstm2_h_conted_17"
  type: "Scale"
  bottom: "h_17"
  bottom: "cont_18"
  top: "h_conted_17"
  scale_param {
    axis: 0
  }
}
layer {
  name: "lstm2_transform_18"
  type: "InnerProduct"
  bottom: "h_conted_17"
  top: "W_hc_h_17"
  param {
    name: "W_hc"
  }
  inner_product_param {
    num_output: 400
    bias_term: false
    weight_filler {
      type: "xavier"
    }
    axis: 2
  }
}
layer {
  name: "lstm2_gate_input_18"
  type: "Eltwise"
  bottom: "W_hc_h_17"
  bottom: "W_xc_x_18"
  top: "gate_input_18"
  eltwise_param {
    operation: SUM
  }
}
layer {
  name: "lstm2_unit_18"
  type: "LSTMUnit"
  bottom: "c_17"
  bottom: "gate_input_18"
  bottom: "cont_18"
  top: "c_18"
  top: "h_18"
}
layer {
  name: "lstm2_h_conted_18"
  type: "Scale"
  bottom: "h_18"
  bottom: "cont_19"
  top: "h_conted_18"
  scale_param {
    axis: 0
  }
}
layer {
  name: "lstm2_transform_19"
  type: "InnerProduct"
  bottom: "h_conted_18"
  top: "W_hc_h_18"
  param {
    name: "W_hc"
  }
  inner_product_param {
    num_output: 400
    bias_term: false
    weight_filler {
      type: "xavier"
    }
    axis: 2
  }
}
layer {
  name: "lstm2_gate_input_19"
  type: "Eltwise"
  bottom: "W_hc_h_18"
  bottom: "W_xc_x_19"
  top: "gate_input_19"
  eltwise_param {
    operation: SUM
  }
}
layer {
  name: "lstm2_unit_19"
  type: "LSTMUnit"
  bottom: "c_18"
  bottom: "gate_input_19"
  bottom: "cont_19"
  top: "c_19"
  top: "h_19"
}
layer {
  name: "lstm2_h_conted_19"
  type: "Scale"
  bottom: "h_19"
  bottom: "cont_20"
  top: "h_conted_19"
  scale_param {
    axis: 0
  }
}
layer {
  name: "lstm2_transform_20"
  type: "InnerProduct"
  bottom: "h_conted_19"
  top: "W_hc_h_19"
  param {
    name: "W_hc"
  }
  inner_product_param {
    num_output: 400
    bias_term: false
    weight_filler {
      type: "xavier"
    }
    axis: 2
  }
}
layer {
  name: "lstm2_gate_input_20"
  type: "Eltwise"
  bottom: "W_hc_h_19"
  bottom: "W_xc_x_20"
  top: "gate_input_20"
  eltwise_param {
    operation: SUM
  }
}
layer {
  name: "lstm2_unit_20"
  type: "LSTMUnit"
  bottom: "c_19"
  bottom: "gate_input_20"
  bottom: "cont_20"
  top: "c_20"
  top: "h_20"
}
layer {
  name: "lstm2_h_conted_20"
  type: "Scale"
  bottom: "h_20"
  bottom: "cont_21"
  top: "h_conted_20"
  scale_param {
    axis: 0
  }
}
layer {
  name: "lstm2_transform_21"
  type: "InnerProduct"
  bottom: "h_conted_20"
  top: "W_hc_h_20"
  param {
    name: "W_hc"
  }
  inner_product_param {
    num_output: 400
    bias_term: false
    weight_filler {
      type: "xavier"
    }
    axis: 2
  }
}
layer {
  name: "lstm2_gate_input_21"
  type: "Eltwise"
  bottom: "W_hc_h_20"
  bottom: "W_xc_x_21"
  top: "gate_input_21"
  eltwise_param {
    operation: SUM
  }
}
layer {
  name: "lstm2_unit_21"
  type: "LSTMUnit"
  bottom: "c_20"
  bottom: "gate_input_21"
  bottom: "cont_21"
  top: "c_21"
  top: "h_21"
}
layer {
  name: "lstm2_h_conted_21"
  type: "Scale"
  bottom: "h_21"
  bottom: "cont_22"
  top: "h_conted_21"
  scale_param {
    axis: 0
  }
}
layer {
  name: "lstm2_transform_22"
  type: "InnerProduct"
  bottom: "h_conted_21"
  top: "W_hc_h_21"
  param {
    name: "W_hc"
  }
  inner_product_param {
    num_output: 400
    bias_term: false
    weight_filler {
      type: "xavier"
    }
    axis: 2
  }
}
layer {
  name: "lstm2_gate_input_22"
  type: "Eltwise"
  bottom: "W_hc_h_21"
  bottom: "W_xc_x_22"
  top: "gate_input_22"
  eltwise_param {
    operation: SUM
  }
}
layer {
  name: "lstm2_unit_22"
  type: "LSTMUnit"
  bottom: "c_21"
  bottom: "gate_input_22"
  bottom: "cont_22"
  top: "c_22"
  top: "h_22"
}
layer {
  name: "lstm2_h_conted_22"
  type: "Scale"
  bottom: "h_22"
  bottom: "cont_23"
  top: "h_conted_22"
  scale_param {
    axis: 0
  }
}
layer {
  name: "lstm2_transform_23"
  type: "InnerProduct"
  bottom: "h_conted_22"
  top: "W_hc_h_22"
  param {
    name: "W_hc"
  }
  inner_product_param {
    num_output: 400
    bias_term: false
    weight_filler {
      type: "xavier"
    }
    axis: 2
  }
}
layer {
  name: "lstm2_gate_input_23"
  type: "Eltwise"
  bottom: "W_hc_h_22"
  bottom: "W_xc_x_23"
  top: "gate_input_23"
  eltwise_param {
    operation: SUM
  }
}
layer {
  name: "lstm2_unit_23"
  type: "LSTMUnit"
  bottom: "c_22"
  bottom: "gate_input_23"
  bottom: "cont_23"
  top: "c_23"
  top: "h_23"
}
layer {
  name: "lstm2_h_conted_23"
  type: "Scale"
  bottom: "h_23"
  bottom: "cont_24"
  top: "h_conted_23"
  scale_param {
    axis: 0
  }
}
layer {
  name: "lstm2_transform_24"
  type: "InnerProduct"
  bottom: "h_conted_23"
  top: "W_hc_h_23"
  param {
    name: "W_hc"
  }
  inner_product_param {
    num_output: 400
    bias_term: false
    weight_filler {
      type: "xavier"
    }
    axis: 2
  }
}
layer {
  name: "lstm2_gate_input_24"
  type: "Eltwise"
  bottom: "W_hc_h_23"
  bottom: "W_xc_x_24"
  top: "gate_input_24"
  eltwise_param {
    operation: SUM
  }
}
layer {
  name: "lstm2_unit_24"
  type: "LSTMUnit"
  bottom: "c_23"
  bottom: "gate_input_24"
  bottom: "cont_24"
  top: "c_24"
  top: "h_24"
}
layer {
  name: "lstm2_h_conted_24"
  type: "Scale"
  bottom: "h_24"
  bottom: "cont_25"
  top: "h_conted_24"
  scale_param {
    axis: 0
  }
}
layer {
  name: "lstm2_transform_25"
  type: "InnerProduct"
  bottom: "h_conted_24"
  top: "W_hc_h_24"
  param {
    name: "W_hc"
  }
  inner_product_param {
    num_output: 400
    bias_term: false
    weight_filler {
      type: "xavier"
    }
    axis: 2
  }
}
layer {
  name: "lstm2_gate_input_25"
  type: "Eltwise"
  bottom: "W_hc_h_24"
  bottom: "W_xc_x_25"
  top: "gate_input_25"
  eltwise_param {
    operation: SUM
  }
}
layer {
  name: "lstm2_unit_25"
  type: "LSTMUnit"
  bottom: "c_24"
  bottom: "gate_input_25"
  bottom: "cont_25"
  top: "c_25"
  top: "h_25"
}
layer {
  name: "lstm2_h_conted_25"
  type: "Scale"
  bottom: "h_25"
  bottom: "cont_26"
  top: "h_conted_25"
  scale_param {
    axis: 0
  }
}
layer {
  name: "lstm2_transform_26"
  type: "InnerProduct"
  bottom: "h_conted_25"
  top: "W_hc_h_25"
  param {
    name: "W_hc"
  }
  inner_product_param {
    num_output: 400
    bias_term: false
    weight_filler {
      type: "xavier"
    }
    axis: 2
  }
}
layer {
  name: "lstm2_gate_input_26"
  type: "Eltwise"
  bottom: "W_hc_h_25"
  bottom: "W_xc_x_26"
  top: "gate_input_26"
  eltwise_param {
    operation: SUM
  }
}
layer {
  name: "lstm2_unit_26"
  type: "LSTMUnit"
  bottom: "c_25"
  bottom: "gate_input_26"
  bottom: "cont_26"
  top: "c_26"
  top: "h_26"
}
layer {
  name: "lstm2_h_conted_26"
  type: "Scale"
  bottom: "h_26"
  bottom: "cont_27"
  top: "h_conted_26"
  scale_param {
    axis: 0
  }
}
layer {
  name: "lstm2_transform_27"
  type: "InnerProduct"
  bottom: "h_conted_26"
  top: "W_hc_h_26"
  param {
    name: "W_hc"
  }
  inner_product_param {
    num_output: 400
    bias_term: false
    weight_filler {
      type: "xavier"
    }
    axis: 2
  }
}
layer {
  name: "lstm2_gate_input_27"
  type: "Eltwise"
  bottom: "W_hc_h_26"
  bottom: "W_xc_x_27"
  top: "gate_input_27"
  eltwise_param {
    operation: SUM
  }
}
layer {
  name: "lstm2_unit_27"
  type: "LSTMUnit"
  bottom: "c_26"
  bottom: "gate_input_27"
  bottom: "cont_27"
  top: "c_27"
  top: "h_27"
}
layer {
  name: "lstm2_h_conted_27"
  type: "Scale"
  bottom: "h_27"
  bottom: "cont_28"
  top: "h_conted_27"
  scale_param {
    axis: 0
  }
}
layer {
  name: "lstm2_transform_28"
  type: "InnerProduct"
  bottom: "h_conted_27"
  top: "W_hc_h_27"
  param {
    name: "W_hc"
  }
  inner_product_param {
    num_output: 400
    bias_term: false
    weight_filler {
      type: "xavier"
    }
    axis: 2
  }
}
layer {
  name: "lstm2_gate_input_28"
  type: "Eltwise"
  bottom: "W_hc_h_27"
  bottom: "W_xc_x_28"
  top: "gate_input_28"
  eltwise_param {
    operation: SUM
  }
}
layer {
  name: "lstm2_unit_28"
  type: "LSTMUnit"
  bottom: "c_27"
  bottom: "gate_input_28"
  bottom: "cont_28"
  top: "c_28"
  top: "h_28"
}
layer {
  name: "lstm2_h_conted_28"
  type: "Scale"
  bottom: "h_28"
  bottom: "cont_29"
  top: "h_conted_28"
  scale_param {
    axis: 0
  }
}
layer {
  name: "lstm2_transform_29"
  type: "InnerProduct"
  bottom: "h_conted_28"
  top: "W_hc_h_28"
  param {
    name: "W_hc"
  }
  inner_product_param {
    num_output: 400
    bias_term: false
    weight_filler {
      type: "xavier"
    }
    axis: 2
  }
}
layer {
  name: "lstm2_gate_input_29"
  type: "Eltwise"
  bottom: "W_hc_h_28"
  bottom: "W_xc_x_29"
  top: "gate_input_29"
  eltwise_param {
    operation: SUM
  }
}
layer {
  name: "lstm2_unit_29"
  type: "LSTMUnit"
  bottom: "c_28"
  bottom: "gate_input_29"
  bottom: "cont_29"
  top: "c_29"
  top: "h_29"
}
layer {
  name: "lstm2_h_conted_29"
  type: "Scale"
  bottom: "h_29"
  bottom: "cont_30"
  top: "h_conted_29"
  scale_param {
    axis: 0
  }
}
layer {
  name: "lstm2_transform_30"
  type: "InnerProduct"
  bottom: "h_conted_29"
  top: "W_hc_h_29"
  param {
    name: "W_hc"
  }
  inner_product_param {
    num_output: 400
    bias_term: false
    weight_filler {
      type: "xavier"
    }
    axis: 2
  }
}
layer {
  name: "lstm2_gate_input_30"
  type: "Eltwise"
  bottom: "W_hc_h_29"
  bottom: "W_xc_x_30"
  top: "gate_input_30"
  eltwise_param {
    operation: SUM
  }
}
layer {
  name: "lstm2_unit_30"
  type: "LSTMUnit"
  bottom: "c_29"
  bottom: "gate_input_30"
  bottom: "cont_30"
  top: "c_30"
  top: "h_30"
}
layer {
  name: "lstm2_h_conted_30"
  type: "Scale"
  bottom: "h_30"
  bottom: "cont_31"
  top: "h_conted_30"
  scale_param {
    axis: 0
  }
}
layer {
  name: "lstm2_transform_31"
  type: "InnerProduct"
  bottom: "h_conted_30"
  top: "W_hc_h_30"
  param {
    name: "W_hc"
  }
  inner_product_param {
    num_output: 400
    bias_term: false
    weight_filler {
      type: "xavier"
    }
    axis: 2
  }
}
layer {
  name: "lstm2_gate_input_31"
  type: "Eltwise"
  bottom: "W_hc_h_30"
  bottom: "W_xc_x_31"
  top: "gate_input_31"
  eltwise_param {
    operation: SUM
  }
}
layer {
  name: "lstm2_unit_31"
  type: "LSTMUnit"
  bottom: "c_30"
  bottom: "gate_input_31"
  bottom: "cont_31"
  top: "c_31"
  top: "h_31"
}
layer {
  name: "lstm2_h_conted_31"
  type: "Scale"
  bottom: "h_31"
  bottom: "cont_32"
  top: "h_conted_31"
  scale_param {
    axis: 0
  }
}
layer {
  name: "lstm2_transform_32"
  type: "InnerProduct"
  bottom: "h_conted_31"
  top: "W_hc_h_31"
  param {
    name: "W_hc"
  }
  inner_product_param {
    num_output: 400
    bias_term: false
    weight_filler {
      type: "xavier"
    }
    axis: 2
  }
}
layer {
  name: "lstm2_gate_input_32"
  type: "Eltwise"
  bottom: "W_hc_h_31"
  bottom: "W_xc_x_32"
  top: "gate_input_32"
  eltwise_param {
    operation: SUM
  }
}
layer {
  name: "lstm2_unit_32"
  type: "LSTMUnit"
  bottom: "c_31"
  bottom: "gate_input_32"
  bottom: "cont_32"
  top: "c_32"
  top: "h_32"
}
layer {
  name: "lstm2_h_conted_32"
  type: "Scale"
  bottom: "h_32"
  bottom: "cont_33"
  top: "h_conted_32"
  scale_param {
    axis: 0
  }
}
layer {
  name: "lstm2_transform_33"
  type: "InnerProduct"
  bottom: "h_conted_32"
  top: "W_hc_h_32"
  param {
    name: "W_hc"
  }
  inner_product_param {
    num_output: 400
    bias_term: false
    weight_filler {
      type: "xavier"
    }
    axis: 2
  }
}
layer {
  name: "lstm2_gate_input_33"
  type: "Eltwise"
  bottom: "W_hc_h_32"
  bottom: "W_xc_x_33"
  top: "gate_input_33"
  eltwise_param {
    operation: SUM
  }
}
layer {
  name: "lstm2_unit_33"
  type: "LSTMUnit"
  bottom: "c_32"
  bottom: "gate_input_33"
  bottom: "cont_33"
  top: "c_33"
  top: "h_33"
}
layer {
  name: "lstm2_h_conted_33"
  type: "Scale"
  bottom: "h_33"
  bottom: "cont_34"
  top: "h_conted_33"
  scale_param {
    axis: 0
  }
}
layer {
  name: "lstm2_transform_34"
  type: "InnerProduct"
  bottom: "h_conted_33"
  top: "W_hc_h_33"
  param {
    name: "W_hc"
  }
  inner_product_param {
    num_output: 400
    bias_term: false
    weight_filler {
      type: "xavier"
    }
    axis: 2
  }
}
layer {
  name: "lstm2_gate_input_34"
  type: "Eltwise"
  bottom: "W_hc_h_33"
  bottom: "W_xc_x_34"
  top: "gate_input_34"
  eltwise_param {
    operation: SUM
  }
}
layer {
  name: "lstm2_unit_34"
  type: "LSTMUnit"
  bottom: "c_33"
  bottom: "gate_input_34"
  bottom: "cont_34"
  top: "c_34"
  top: "h_34"
}
layer {
  name: "lstm2_h_conted_34"
  type: "Scale"
  bottom: "h_34"
  bottom: "cont_35"
  top: "h_conted_34"
  scale_param {
    axis: 0
  }
}
layer {
  name: "lstm2_transform_35"
  type: "InnerProduct"
  bottom: "h_conted_34"
  top: "W_hc_h_34"
  param {
    name: "W_hc"
  }
  inner_product_param {
    num_output: 400
    bias_term: false
    weight_filler {
      type: "xavier"
    }
    axis: 2
  }
}
layer {
  name: "lstm2_gate_input_35"
  type: "Eltwise"
  bottom: "W_hc_h_34"
  bottom: "W_xc_x_35"
  top: "gate_input_35"
  eltwise_param {
    operation: SUM
  }
}
layer {
  name: "lstm2_unit_35"
  type: "LSTMUnit"
  bottom: "c_34"
  bottom: "gate_input_35"
  bottom: "cont_35"
  top: "c_35"
  top: "h_35"
}
layer {
  name: "lstm2_h_conted_35"
  type: "Scale"
  bottom: "h_35"
  bottom: "cont_36"
  top: "h_conted_35"
  scale_param {
    axis: 0
  }
}
layer {
  name: "lstm2_transform_36"
  type: "InnerProduct"
  bottom: "h_conted_35"
  top: "W_hc_h_35"
  param {
    name: "W_hc"
  }
  inner_product_param {
    num_output: 400
    bias_term: false
    weight_filler {
      type: "xavier"
    }
    axis: 2
  }
}
layer {
  name: "lstm2_gate_input_36"
  type: "Eltwise"
  bottom: "W_hc_h_35"
  bottom: "W_xc_x_36"
  top: "gate_input_36"
  eltwise_param {
    operation: SUM
  }
}
layer {
  name: "lstm2_unit_36"
  type: "LSTMUnit"
  bottom: "c_35"
  bottom: "gate_input_36"
  bottom: "cont_36"
  top: "c_36"
  top: "h_36"
}
layer {
  name: "lstm2_h_conted_36"
  type: "Scale"
  bottom: "h_36"
  bottom: "cont_37"
  top: "h_conted_36"
  scale_param {
    axis: 0
  }
}
layer {
  name: "lstm2_transform_37"
  type: "InnerProduct"
  bottom: "h_conted_36"
  top: "W_hc_h_36"
  param {
    name: "W_hc"
  }
  inner_product_param {
    num_output: 400
    bias_term: false
    weight_filler {
      type: "xavier"
    }
   
I0505 14:40:02.050901 26812 layer_factory.hpp:77] Creating layer lstm2_
I0505 14:40:02.050909 26812 net.cpp:86] Creating Layer lstm2_
I0505 14:40:02.050912 26812 net.cpp:382] lstm2_ -> x
I0505 14:40:02.050917 26812 net.cpp:382] lstm2_ -> cont
I0505 14:40:02.050962 26812 net.cpp:124] Setting up lstm2_
I0505 14:40:02.050966 26812 net.cpp:131] Top shape: 80 512 100 (4096000)
I0505 14:40:02.050968 26812 net.cpp:131] Top shape: 80 512 (40960)
I0505 14:40:02.050971 26812 net.cpp:139] Memory required for data: 16547840
I0505 14:40:02.050973 26812 layer_factory.hpp:77] Creating layer lstm2_
I0505 14:40:02.050977 26812 net.cpp:86] Creating Layer lstm2_
I0505 14:40:02.050979 26812 net.cpp:382] lstm2_ -> c_0
I0505 14:40:02.050984 26812 net.cpp:382] lstm2_ -> h_0
I0505 14:40:02.051009 26812 net.cpp:124] Setting up lstm2_
I0505 14:40:02.051012 26812 net.cpp:131] Top shape: 1 512 100 (51200)
I0505 14:40:02.051014 26812 net.cpp:131] Top shape: 1 512 100 (51200)
I0505 14:40:02.051017 26812 net.cpp:139] Memory required for data: 16957440
I0505 14:40:02.051019 26812 layer_factory.hpp:77] Creating layer lstm2_cont_slice
I0505 14:40:02.051025 26812 net.cpp:86] Creating Layer lstm2_cont_slice
I0505 14:40:02.051028 26812 net.cpp:408] lstm2_cont_slice <- cont
I0505 14:40:02.051033 26812 net.cpp:382] lstm2_cont_slice -> cont_1
I0505 14:40:02.051039 26812 net.cpp:382] lstm2_cont_slice -> cont_2
…
