…
I0506 10:14:53.392413  9060 net.cpp:53] Initializing net from parameters: 
name: "vehicle_captcha_train"
state {
  phase: TRAIN
  level: 0
  stage: ""
}
layer {
  name: "data"
  type: "Python"
  top: "data"
  top: "label"
  python_param {
    module: "pythonLayer"
    layer: "WarpctcDataLayer"
    param_str: "{\'width\': 80, \'label_txt\': \'data/captcha/trainval.txt\', \'train\': True, \'batch_size\': 512, \'height\': 30}"
  }
}
layer {
  name: "indicator"
  type: "ContinuationIndicator"
  top: "indicator"
  continuation_indicator_param {
    time_step: 80
    batch_size: 512
  }
}
layer {
  name: "permuted_data"
  type: "Permute"
  bottom: "data"
  top: "permuted_data"
  permute_param {
    order: 3
    order: 0
    order: 1
    order: 2
  }
}
layer {
  name: "lstm1"
  type: "LSTM"
  bottom: "permuted_data"
  bottom: "indicator"
  top: "lstm1"
  recurrent_param {
    num_output: 100
    weight_filler {
      type: "xavier"
    }
    bias_filler {
      type: "constant"
      value: 0
    }
  }
}
layer {
  name: "lstm2"
  type: "LSTM"
  bottom: "lstm1"
  bottom: "indicator"
  top: "lstm2"
  recurrent_param {
    num_output: 100
    weight_filler {
      type: "xavier"
    }
    bias_filler {
      type: "constant"
      value: 0
    }
  }
}
layer {
  name: "fc1"
  type: "InnerProduct"
  bottom: "lstm2"
  top: "fc1"
  param {
    lr_mult: 1
    decay_mult: 1
  }
  param {
    lr_mult: 2
    decay_mult: 0
  }
  inner_product_param {
    num_output: 11
    weight_filler {
      type: "xavier"
    }
    bias_filler {
      type: "constant"
      value: 0
    }
    axis: 2
  }
}
layer {
  name: "ctc_loss"
  type: "CtcLoss"
  bottom: "fc1"
  bottom: "label"
  top: "ctc_loss"
  loss_weight: 1
  ctc_loss_param {
    alphabet_size: 11
    time_step: 80
    blank_label: 10
  }
}
I0506 10:14:53.392530  9060 layer_factory.hpp:77] Creating layer data
I0506 10:14:54.133549  9060 net.cpp:86] Creating Layer data
I0506 10:14:54.133581  9060 net.cpp:382] data -> data
I0506 10:14:54.133605  9060 net.cpp:382] data -> label
I0506 10:14:54.195367  9060 net.cpp:124] Setting up data
I0506 10:14:54.195390  9060 net.cpp:131] Top shape: 512 3 30 80 (3686400)
I0506 10:14:54.195399  9060 net.cpp:131] Top shape: 512 5 (2560)
I0506 10:14:54.195402  9060 net.cpp:139] Memory required for data: 14755840
I0506 10:14:54.195411  9060 layer_factory.hpp:77] Creating layer indicator
I0506 10:14:54.195425  9060 net.cpp:86] Creating Layer indicator
I0506 10:14:54.195431  9060 net.cpp:382] indicator -> indicator
I0506 10:14:54.195464  9060 net.cpp:124] Setting up indicator
I0506 10:14:54.195467  9060 net.cpp:131] Top shape: 80 512 (40960)
I0506 10:14:54.195471  9060 net.cpp:139] Memory required for data: 14919680
I0506 10:14:54.195473  9060 layer_factory.hpp:77] Creating layer indicator_indicator_0_split
I0506 10:14:54.195482  9060 net.cpp:86] Creating Layer indicator_indicator_0_split
I0506 10:14:54.195488  9060 net.cpp:408] indicator_indicator_0_split <- indicator
I0506 10:14:54.195500  9060 net.cpp:382] indicator_indicator_0_split -> indicator_indicator_0_split_0
I0506 10:14:54.195506  9060 net.cpp:382] indicator_indicator_0_split -> indicator_indicator_0_split_1
I0506 10:14:54.195535  9060 net.cpp:124] Setting up indicator_indicator_0_split
I0506 10:14:54.195539  9060 net.cpp:131] Top shape: 80 512 (40960)
I0506 10:14:54.195541  9060 net.cpp:131] Top shape: 80 512 (40960)
I0506 10:14:54.195544  9060 net.cpp:139] Memory required for data: 15247360
I0506 10:14:54.195565  9060 layer_factory.hpp:77] Creating layer permuted_data
I0506 10:14:54.195574  9060 net.cpp:86] Creating Layer permuted_data
I0506 10:14:54.195578  9060 net.cpp:408] permuted_data <- data
I0506 10:14:54.195582  9060 net.cpp:382] permuted_data -> permuted_data
I0506 10:14:54.195660  9060 net.cpp:124] Setting up permuted_data
I0506 10:14:54.195664  9060 net.cpp:131] Top shape: 80 512 3 30 (3686400)
I0506 10:14:54.195669  9060 net.cpp:139] Memory required for data: 29992960
I0506 10:14:54.195672  9060 layer_factory.hpp:77] Creating layer lstm1
I0506 10:14:54.195684  9060 net.cpp:86] Creating Layer lstm1
I0506 10:14:54.195688  9060 net.cpp:408] lstm1 <- permuted_data
I0506 10:14:54.195690  9060 net.cpp:408] lstm1 <- indicator_indicator_0_split_0
I0506 10:14:54.195695  9060 net.cpp:382] lstm1 -> lstm1
I0506 10:14:54.195705  9060 recurrent_layer.cpp:20] Initializing recurrent layer: assuming input batch contains 80 timesteps of 512 independent streams.
I0506 10:14:54.196321  9060 net.cpp:53] Initializing net from parameters: 
layer {
  name: "lstm1_"
  type: "Input"
  top: "x"
  top: "cont"
  input_param {
    shape {
      dim: 80
      dim: 512
      dim: 3
      dim: 30
    }
    shape {
      dim: 80
      dim: 512
    }
  }
}
layer {
  name: "lstm1_"
  type: "Input"
  top: "c_0"
  top: "h_0"
  input_param {
    shape {
      dim: 1
      dim: 512
      dim: 100
    }
    shape {
      dim: 1
      dim: 512
      dim: 100
    }
  }
}
layer {
  name: "lstm1_cont_slice"
  type: "Slice"
  bottom: "cont"
  top: "cont_1"
  top: "cont_2"
  top: "cont_3"
  top: "cont_4"
  top: "cont_5"
  top: "cont_6"
  top: "cont_7"
  top: "cont_8"
  top: "cont_9"
  top: "cont_10"
  top: "cont_11"
  top: "cont_12"
  top: "cont_13"
  top: "cont_14"
  top: "cont_15"
  top: "cont_16"
  top: "cont_17"
  top: "cont_18"
  top: "cont_19"
  top: "cont_20"
  top: "cont_21"
  top: "cont_22"
  top: "cont_23"
  top: "cont_24"
  top: "cont_25"
  top: "cont_26"
  top: "cont_27"
  top: "cont_28"
  top: "cont_29"
  top: "cont_30"
  top: "cont_31"
  top: "cont_32"
  top: "cont_33"
  top: "cont_34"
  top: "cont_35"
  top: "cont_36"
  top: "cont_37"
  top: "cont_38"
  top: "cont_39"
  top: "cont_40"
  top: "cont_41"
  top: "cont_42"
  top: "cont_43"
  top: "cont_44"
  top: "cont_45"
  top: "cont_46"
  top: "cont_47"
  top: "cont_48"
  top: "cont_49"
  top: "cont_50"
  top: "cont_51"
  top: "cont_52"
  top: "cont_53"
  top: "cont_54"
  top: "cont_55"
  top: "cont_56"
  top: "cont_57"
  top: "cont_58"
  top: "cont_59"
  top: "cont_60"
  top: "cont_61"
  top: "cont_62"
  top: "cont_63"
  top: "cont_64"
  top: "cont_65"
  top: "cont_66"
  top: "cont_67"
  top: "cont_68"
  top: "cont_69"
  top: "cont_70"
  top: "cont_71"
  top: "cont_72"
  top: "cont_73"
  top: "cont_74"
  top: "cont_75"
  top: "cont_76"
  top: "cont_77"
  top: "cont_78"
  top: "cont_79"
  top: "cont_80"
  slice_param {
    axis: 0
  }
}
layer {
  name: "lstm1_x_transform"
  type: "InnerProduct"
  bottom: "x"
  top: "W_xc_x"
  param {
    name: "W_xc"
  }
  param {
    name: "b_c"
  }
  propagate_down: true
  inner_product_param {
    num_output: 400
    bias_term: true
    weight_filler {
      type: "xavier"
    }
    bias_filler {
      type: "constant"
      value: 0
    }
    axis: 2
  }
}
layer {
  name: "lstm1_W_xc_x_slice"
  type: "Slice"
  bottom: "W_xc_x"
  top: "W_xc_x_1"
  top: "W_xc_x_2"
  top: "W_xc_x_3"
  top: "W_xc_x_4"
  top: "W_xc_x_5"
  top: "W_xc_x_6"
  top: "W_xc_x_7"
  top: "W_xc_x_8"
  top: "W_xc_x_9"
  top: "W_xc_x_10"
  top: "W_xc_x_11"
  top: "W_xc_x_12"
  top: "W_xc_x_13"
  top: "W_xc_x_14"
  top: "W_xc_x_15"
  top: "W_xc_x_16"
  top: "W_xc_x_17"
  top: "W_xc_x_18"
  top: "W_xc_x_19"
  top: "W_xc_x_20"
  top: "W_xc_x_21"
  top: "W_xc_x_22"
…
  top: "W_xc_x_53"
  top: "W_xc_x_54"
  top: "W_xc_x_55"
  top: "W_xc_x_56"
  top: "W_xc_x_57"
  top: "W_xc_x_58"
  top: "W_xc_x_59"
  top: "W_xc_x_60"
  top: "W_xc_x_61"
  top: "W_xc_x_62"
  top: "W_xc_x_63"
  top: "W_xc_x_64"
  top: "W_xc_x_65"
  top: "W_xc_x_66"
  top: "W_xc_x_67"
  top: "W_xc_x_68"
  top: "W_xc_x_69"
  top: "W_xc_x_70"
  top: "W_xc_x_71"
  top: "W_xc_x_72"
  top: "W_xc_x_73"
  top: "W_xc_x_74"
  top: "W_xc_x_75"
  top: "W_xc_x_76"
  top: "W_xc_x_77"
  top: "W_xc_x_78"
  top: "W_xc_x_79"
  top: "W_xc_x_80"
  slice_param {
    axis: 0
  }
}
layer {
  name: "lstm1_h_conted_0"
  type: "Scale"
  bottom: "h_0"
  bottom: "cont_1"
  top: "h_conted_0"
  scale_param {
    axis: 0
  }
}
layer {
  name: "lstm1_transform_1"
  type: "InnerProduct"
  bottom: "h_conted_0"
  top: "W_hc_h_0"
  param {
    name: "W_hc"
  }
  inner_product_param {
    num_output: 400
    bias_term: false
    weight_filler {
      type: "xavier"
    }
    axis: 2
  }
}
layer {
  name: "lstm1_gate_input_1"
  type: "Eltwise"
  bottom: "W_hc_h_0"
  bottom: "W_xc_x_1"
  top: "gate_input_1"
  eltwise_param {
    operation: SUM
  }
}
layer {
  name: "lstm1_unit_1"
  type: "LSTMUnit"
  bottom: "c_0"
  bottom: "gate_input_1"
  bottom: "cont_1"
  top: "c_1"
  top: "h_1"
}
layer {
  name: "lstm1_h_conted_1"
  type: "Scale"
  bottom: "h_1"
  bottom: "cont_2"
  top: "h_conted_1"
  scale_param {
    axis: 0
  }
}
layer {
  name: "lstm1_transform_2"
  type: "InnerProduct"
  bottom: "h_conted_1"
  top: "W_hc_h_1"
  param {
    name: "W_hc"
  }
  inner_product_param {
    num_output: 400
    bias_term: false
    weight_filler {
      type: "xavier"
    }
    axis: 2
  }
}
layer {
  name: "lstm1_gate_input_2"
  type: "Eltwise"
  bottom: "W_hc_h_1"
  bottom: "W_xc_x_2"
  top: "gate_input_2"
  eltwise_param {
    operation: SUM
  }
}
layer {
  name: "lstm1_unit_2"
  type: "LSTMUnit"
  bottom: "c_1"
  bottom: "gate_input_2"
  bottom: "cont_2"
  top: "c_2"
  top: "h_2"
}
layer {
  name: "lstm1_h_conted_2"
  type: "Scale"
  bottom: "h_2"
  bottom: "cont_3"
  top: "h_conted_2"
  scale_param {
    axis: 0
  }
}
layer {
  name: "lstm1_transform_3"
  type: "InnerProduct"
  bottom: "h_conted_2"
  top: "W_hc_h_2"
  param {
    name: "W_hc"
  }
  inner_product_param {
    num_output: 400
    bias_term: false
    weight_filler {
      type: "xavier"
    }
    axis: 2
  }
}
layer {
  name: "lstm1_gate_input_3"
  type: "Eltwise"
  bottom: "W_hc_h_2"
  bottom: "W_xc_x_3"
  top: "gate_input_3"
  eltwise_param {
    operation: SUM
  }
}
layer {
  name: "lstm1_unit_3"
  type: "LSTMUnit"
  bottom: "c_2"
  bottom: "gate_input_3"
  bottom: "cont_3"
  top: "c_3"
  top: "h_3"
}
layer {
  name: "lstm1_h_conted_3"
  type: "Scale"
  bottom: "h_3"
  bottom: "cont_4"
  top: "h_conted_3"
  scale_param {
    axis: 0
  }
}
layer {
  name: "lstm1_transform_4"
  type: "InnerProduct"
  bottom: "h_conted_3"
  top: "W_hc_h_3"
  param {
    name: "W_hc"
  }
  inner_product_param {
    num_output: 400
    bias_term: false
    weight_filler {
      type: "xavier"
    }
    axis: 2
  }
}
layer {
  name: "lstm1_gate_input_4"
  type: "Eltwise"
  bottom: "W_hc_h_3"
  bottom: "W_xc_x_4"
  top: "gate_input_4"
  eltwise_param {
    operation: SUM
  }
}
layer {
  name: "lstm1_unit_4"
  type: "LSTMUnit"
  bottom: "c_3"
  bottom: "gate_input_4"
  bottom: "cont_4"
  top: "c_4"
  top: "h_4"
}
layer {
  name: "lstm1_h_conted_4"
  type: "Scale"
  bottom: "h_4"
  bottom: "cont_5"
  top: "h_conted_4"
  scale_param {
    axis: 0
  }
}
layer {
  name: "lstm1_transform_5"
  type: "InnerProduct"
  bottom: "h_conted_4"
  top: "W_hc_h_4"
  param {
    name: "W_hc"
  }
  inner_product_param {
    num_output: 400
    bias_term: false
    weight_filler {
      type: "xavier"
    }
    axis: 2
  }
}
layer {
  name: "lstm1_gate_input_5"
  type: "Eltwise"
  bottom: "W_hc_h_4"
  bottom: "W_xc_x_5"
  top: "gate_input_5"
  eltwise_param {
    operation: SUM
  }
}
layer {
  name: "lstm1_unit_5"
  type: "LSTMUnit"
  bottom: "c_4"
  bottom: "gate_input_5"
  bottom: "cont_5"
  top: "c_5"
  top: "h_5"
}
layer {
  name: "lstm1_h_conted_5"
  type: "Scale"
  bottom: "h_5"
  bottom: "cont_6"
  top: "h_conted_5"
  scale_param {
    axis: 0
  }
}
layer {
  name: "lstm1_transform_6"
  type: "InnerProduct"
  bottom: "h_conted_5"
  top: "W_hc_h_5"
  param {
    name: "W_hc"
  }
  inner_product_param {
    num_output: 400
    bias_term: false
    weight_filler {
      type: "xavier"
    }
    axis: 2
  }
}
layer {
  name: "lstm1_gate_input_6"
  type: "Eltwise"
  bottom: "W_hc_h_5"
  bottom: "W_xc_x_6"
  top: "gate_input_6"
  eltwise_param {
    operation: SUM
  }
}
layer {
  name: "lstm1_unit_6"
  type: "LSTMUnit"
  bottom: "c_5"
  bottom: "gate_input_6"
  bottom: "cont_6"
  top: "c_6"
  top: "h_6"
}
layer {
  name: "lstm1_h_conted_6"
  type: "Scale"
  bottom: "h_6"
  bottom: "cont_7"
  top: "h_conted_6"
  scale_param {
    axis: 0
  }
}
layer {
  name: "lstm1_transform_7"
  type: "InnerProduct"
  bottom: "h_conted_6"
  top: "W_hc_h_6"
  param {
    name: "W_hc"
  }
  inner_product_param {
    num_output: 400
    bias_term: false
    weight_filler {
      type: "xavier"
    }
    axis: 2
  }
}
layer {
  name: "lstm1_gate_input_7"
  type: "Eltwise"
  bottom: "W_hc_h_6"
  bottom: "W_xc_x_7"
  top: "gate_input_7"
  eltwise_param {
    operation: SUM
  }
}
layer {
  name: "lstm1_unit_7"
  type: "LSTMUnit"
  bottom: "c_6"
  bottom: "gate_input_7"
  bottom: "cont_7"
  top: "c_7"
  top: "h_7"
}
layer {
  name: "lstm1_h_conted_7"
  type: "Scale"
  bottom: "h_7"
  bottom: "cont_8"
  top: "h_conted_7"
  scale_param {
    axis: 0
  }
}
layer {
  name: "lstm1_transform_8"
  type: "InnerProduct"
  bottom: "h_conted_7"
  top: "W_hc_h_7"
  param {
    name: "W_hc"
  }
  inner_product_param {
    num_output: 400
    bias_term: false
    weight_filler {
      type: "xavier"
    }
    axis: 2
  }
}
layer {
  name: "lstm1_gate_input_8"
  type: "Eltwise"
  bottom: "W_hc_h_7"
  bottom: "W_xc_x_8"
  top: "gate_input_8"
  eltwise_param {
    operation: SUM
  }
}
layer {
  name: "lstm1_unit_8"
  type: "LSTMUnit"
  bottom: "c_7"
  bottom: "gate_input_8"
  bottom: "cont_8"
  top: "c_8"
  top: "h_8"
}
layer {
  name: "lstm1_h_conted_8"
  type: "Scale"
  bottom: "h_8"
  bottom: "cont_9"
  top: "h_conted_8"
  scale_param {
    axis: 0
  }
}
layer {
  name: "lstm1_transform_9"
  type: "InnerProduct"
  bottom: "h_conted_8"
  top: "W_hc_h_8"
  param {
    name: "W_hc"
  }
  inner_product_param {
    num_output: 400
    bias_term: false
    weight_filler {
      type: "xavier"
    }
    axis: 2
  }
}
layer {
  name: "lstm1_gate_input_9"
  type: "Eltwise"
  bottom: "W_hc_h_8"
  bottom: "W_xc_x_9"
  top: "gate_input_9"
  eltwise_param {
    operation: SUM
  }
}
layer {
  name: "lstm1_unit_9"
  type: "LSTMUnit"
  bottom: "c_8"
  bottom: "gate_input_9"
  bottom: "cont_9"
  top: "c_9"
  top: "h_9"
}
layer {
  name: "lstm1_h_conted_9"
  type: "Scale"
  bottom: "h_9"
  bottom: "cont_10"
  top: "h_conted_9"
  scale_param {
    axis: 0
  }
}
layer {
  name: "lstm1_transform_10"
  type: "InnerProduct"
  bottom: "h_conted_9"
  top: "W_hc_h_9"
  param {
    name: "W_hc"
  }
  inner_product_param {
    num_output: 400
    bias_term: false
    weight_filler {
      type: "xavier"
    }
    axis: 2
  }
}
layer {
  name: "lstm1_gate_input_10"
  type: "Eltwise"
  bottom: "W_hc_h_9"
  bottom: "W_xc_x_10"
  top: "gate_input_10"
  eltwise_param {
    operation: SUM
  }
}
layer {
  name: "lstm1_unit_10"
  type: "LSTMUnit"
  bottom: "c_9"
  bottom: "gate_input_10"
  bottom: "cont_10"
  top: "c_10"
  top: "h_10"
}
layer {
  name: "lstm1_h_conted_10"
  type: "Scale"
  bottom: "h_10"
  bottom: "cont_11"
  top: "h_conted_10"
  scale_param {
    axis: 0
  }
}
layer {
  name: "lstm1_transform_11"
  type: "InnerProduct"
  bottom: "h_conted_10"
  top: "W_hc_h_10"
  param {
    name: "W_hc"
  }
  inner_product_param {
    num_output: 400
    bias_term: false
    weight_filler {
      type: "xavier"
    }
    axis: 2
  }
}
layer {
  name: "lstm1_gate_input_11"
  type: "Eltwise"
  bottom: "W_hc_h_10"
  bottom: "W_xc_x_11"
  top: "gate_input_11"
  eltwise_param {
    operation: SUM
  }
}
layer {
  name: "lstm1_unit_11"
  type: "LSTMUnit"
  bottom: "c_10"
  bottom: "gate_input_11"
  bottom: "cont_11"
  top: "c_11"
  top: "h_11"
}
layer {
  name: "lstm1_h_conted_11"
  type: "Scale"
  bottom: "h_11"
  bottom: "cont_12"
  top: "h_conted_11"
  scale_param {
    axis: 0
  }
}
layer {
  name: "lstm1_transform_12"
  type: "InnerProduct"
  bottom: "h_conted_11"
  top: "W_hc_h_11"
  param {
    name: "W_hc"
  }
  inner_product_param {
    num_output: 400
    bias_term: false
    weight_filler {
      type: "xavier"
    }
    axis: 2
  }
}
layer {
  name: "lstm1_gate_input_12"
  type: "Eltwise"
  bottom: "W_hc_h_11"
  bottom: "W_xc_x_12"
  top: "gate_input_12"
  eltwise_param {
    operation: SUM
  }
}
layer {
  name: "lstm1_unit_12"
  type: "LSTMUnit"
  bottom: "c_11"
  bottom: "gate_input_12"
  bottom: "cont_12"
  top: "c_12"
  top: "h_12"
}
layer {
  name: "lstm1_h_conted_12"
  type: "Scale"
  bottom: "h_12"
  bottom: "cont_13"
  top: "h_conted_12"
  scale_param {
    axis: 0
  }
}
layer {
  name: "lstm1_transform_13"
  type: "InnerProduct"
  bottom: "h_conted_12"
  top: "W_hc_h_12"
  param {
    name: "W_hc"
  }
  inner_product_param {
    num_output: 400
    bias_term: false
    weight_filler {
      type: "xavier"
    }
    axis: 2
  }
}
layer {
  name: "lstm1_gate_input_13"
  type: "Eltwise"
  bottom: "W_hc_h_12"
  bottom: "W_xc_x_13"
  top: "gate_input_13"
  eltwise_param {
    operation: SUM
  }
}
layer {
  name: "lstm1_unit_13"
  type: "LSTMUnit"
  bottom: "c_12"
  bottom: "gate_input_13"
  bottom: "cont_13"
  top: "c_13"
  top: "h_13"
}
layer {
  name: "lstm1_h_conted_13"
  type: "Scale"
  bottom: "h_13"
  bottom: "cont_14"
  top: "h_conted_13"
  scale_param {
    axis: 0
  }
}
layer {
  name: "lstm1_transform_14"
  type: "InnerProduct"
  bottom: "h_conted_13"
  top: "W_hc_h_13"
  param {
    name: "W_hc"
  }
  inner_product_param {
    num_output: 400
    bias_term: false
    weight_filler {
      type: "xavier"
    }
    axis: 2
  }
}
layer {
  name: "lstm1_gate_input_14"
  type: "Eltwise"
  bottom: "W_hc_h_13"
  bottom: "W_xc_x_14"
  top: "gate_input_14"
  eltwise_param {
    operation: SUM
  }
}
layer {
  name: "lstm1_unit_14"
  type: "LSTMUnit"
  bottom: "c_13"
  bottom: "gate_input_14"
  bottom: "cont_14"
  top: "c_14"
  top: "h_14"
}
layer {
  name: "lstm1_h_conted_14"
  type: "Scale"
  bottom: "h_14"
  bottom: "cont_15"
  top: "h_conted_14"
  scale_param {
    axis: 0
  }
}
layer {
  name: "lstm1_transform_15"
  type: "InnerProduct"
  bottom: "h_conted_14"
  top: "W_hc_h_14"
  param {
    name: "W_hc"
  }
  inner_product_param {
    num_output: 400
    bias_term: false
    weight_filler {
      type: "xavier"
    }
    axis: 2
  }
}
layer {
  name: "lstm1_gate_input_15"
  type: "Eltwise"
  bottom: "W_hc_h_14"
  bottom: "W_xc_x_15"
  top: "gate_input_15"
  eltwise_param {
    operation: SUM
  }
}
layer {
  name: "lstm1_unit_15"
  type: "LSTMUnit"
  bottom: "c_14"
  bottom: "gate_input_15"
  bottom: "cont_15"
  top: "c_15"
  top: "h_15"
}
layer {
  name: "lstm1_h_conted_15"
  type: "Scale"
  bottom: "h_15"
  bottom: "cont_16"
  top: "h_conted_15"
  scale_param {
    axis: 0
  }
}
layer {
  name: "lstm1_transform_16"
  type: "InnerProduct"
  bottom: "h_conted_15"
  top: "W_hc_h_15"
  param {
    name: "W_hc"
  }
  inner_product_param {
    num_output: 400
    bias_term: false
    weight_filler {
      type: "xavier"
    }
    axis: 2
  }
}
layer {
  name: "lstm1_gate_input_16"
  type: "Eltwise"
  bottom: "W_hc_h_15"
  bottom: "W_xc_x_16"
  top: "gate_input_16"
  eltwise_param {
    operation: SUM
  }
}
layer {
  name: "lstm1_unit_16"
  type: "LSTMUnit"
  bottom: "c_15"
  bottom: "gate_input_16"
  bottom: "cont_16"
  top: "c_16"
  top: "h_16"
}
layer {
  name: "lstm1_h_conted_16"
  type: "Scale"
  bottom: "h_16"
  bottom: "cont_17"
  top: "h_conted_16"
  scale_param {
    axis: 0
  }
}
layer {
  name: "lstm1_transform_17"
  type: "InnerProduct"
  bottom: "h_conted_16"
  top: "W_hc_h_16"
  param {
    name: "W_hc"
  }
  inner_product_param {
    num_output: 400
    bias_term: false
    weight_filler {
      type: "xavier"
    }
    axis: 2
  }
}
layer {
  name: "lstm1_gate_input_17"
  type: "Eltwise"
  bottom: "W_hc_h_16"
  bottom: "W_xc_x_17"
  top: "gate_input_17"
  eltwise_param {
    operation: SUM
  }
}
layer {
  name: "lstm1_unit_17"
  type: "LSTMUnit"
  bottom: "c_16"
  bottom: "gate_input_17"
  bottom: "cont_17"
  top: "c_17"
  top: "h_17"
}
layer {
  name: "lstm1_h_conted_17"
  type: "Scale"
  bottom: "h_17"
  bottom: "cont_18"
  top: "h_conted_17"
  scale_param {
    axis: 0
  }
}
layer {
  name: "lstm1_transform_18"
  type: "InnerProduct"
  bottom: "h_conted_17"
  top: "W_hc_h_17"
  param {
    name: "W_hc"
  }
  inner_product_param {
    num_output: 400
    bias_term: false
    weight_filler {
      type: "xavier"
    }
    axis: 2
  }
}
layer {
  name: "lstm1_gate_input_18"
  type: "Eltwise"
  bottom: "W_hc_h_17"
  bottom: "W_xc_x_18"
  top: "gate_input_18"
  eltwise_param {
    operation: SUM
  }
}
layer {
  name: "lstm1_unit_18"
  type: "LSTMUnit"
  bottom: "c_17"
  bottom: "gate_input_18"
  bottom: "cont_18"
  top: "c_18"
  top: "h_18"
}
layer {
  name: "lstm1_h_conted_18"
  type: "Scale"
  bottom: "h_18"
  bottom: "cont_19"
  top: "h_conted_18"
  scale_param {
    axis: 0
  }
}
layer {
  name: "lstm1_transform_19"
  type: "InnerProduct"
  bottom: "h_conted_18"
  top: "W_hc_h_18"
  param {
    name: "W_hc"
  }
  inner_product_param {
    num_output: 400
    bias_term: false
    weight_filler {
      type: "xavier"
    }
    axis: 2
  }
}
layer {
  name: "lstm1_gate_input_19"
  type: "Eltwise"
  bottom: "W_hc_h_18"
  bottom: "W_xc_x_19"
  top: "gate_input_19"
  eltwise_param {
    operation: SUM
  }
}
layer {
  name: "lstm1_unit_19"
  type: "LSTMUnit"
  bottom: "c_18"
  bottom: "gate_input_19"
  bottom: "cont_19"
  top: "c_19"
  top: "h_19"
}
layer {
  name: "lstm1_h_conted_19"
  type: "Scale"
  bottom: "h_19"
  bottom: "cont_20"
  top: "h_conted_19"
  scale_param {
    axis: 0
  }
}
layer {
  name: "lstm1_transform_20"
  type: "InnerProduct"
  bottom: "h_conted_19"
  top: "W_hc_h_19"
  param {
    name: "W_hc"
  }
  inner_product_param {
    num_output: 400
    bias_term: false
    weight_filler {
      type: "xavier"
    }
    axis: 2
  }
}
layer {
  name: "lstm1_gate_input_20"
  type: "Eltwise"
  bottom: "W_hc_h_19"
  bottom: "W_xc_x_20"
  top: "gate_input_20"
  eltwise_param {
    operation: SUM
  }
}
layer {
  name: "lstm1_unit_20"
  type: "LSTMUnit"
  bottom: "c_19"
  bottom: "gate_input_20"
  bottom: "cont_20"
  top: "c_20"
  top: "h_20"
}
layer {
  name: "lstm1_h_conted_20"
  type: "Scale"
  bottom: "h_20"
  bottom: "cont_21"
  top: "h_conted_20"
  scale_param {
    axis: 0
  }
}
layer {
  name: "lstm1_transform_21"
  type: "InnerProduct"
  bottom: "h_conted_20"
  top: "W_hc_h_20"
  param {
    name: "W_hc"
  }
  inner_product_param {
    num_output: 400
    bias_term: false
    weight_filler {
      type: "xavier"
    }
    axis: 2
  }
}
layer {
  name: "lstm1_gate_input_21"
  type: "Eltwise"
  bottom: "W_hc_h_20"
  bottom: "W_xc_x_21"
  top: "gate_input_21"
  eltwise_param {
    operation: SUM
  }
}
layer {
  name: "lstm1_unit_21"
  type: "LSTMUnit"
  bottom: "c_20"
  bottom: "gate_input_21"
  bottom: "cont_21"
  top: "c_21"
  top: "h_21"
}
layer {
  name: "lstm1_h_conted_21"
  type: "Scale"
  bottom: "h_21"
  bottom: "cont_22"
  top: "h_conted_21"
  scale_param {
    axis: 0
  }
}
layer {
  name: "lstm1_transform_22"
  type: "InnerProduct"
  bottom: "h_conted_21"
  top: "W_hc_h_21"
  param {
    name: "W_hc"
  }
  inner_product_param {
    num_output: 400
    bias_term: false
    weight_filler {
      type: "xavier"
    }
    axis: 2
  }
}
layer {
  name: "lstm1_gate_input_22"
  type: "Eltwise"
  bottom: "W_hc_h_21"
  bottom: "W_xc_x_22"
  top: "gate_input_22"
  eltwise_param {
    operation: SUM
  }
}
layer {
  name: "lstm1_unit_22"
  type: "LSTMUnit"
  bottom: "c_21"
  bottom: "gate_input_22"
  bottom: "cont_22"
  top: "c_22"
  top: "h_22"
}
layer {
  name: "lstm1_h_conted_22"
  type: "Scale"
  bottom: "h_22"
  bottom: "cont_23"
  top: "h_conted_22"
  scale_param {
    axis: 0
  }
}
layer {
  name: "lstm1_transform_23"
  type: "InnerProduct"
  bottom: "h_conted_22"
  top: "W_hc_h_22"
  param {
    name: "W_hc"
  }
  inner_product_param {
    num_output: 400
    bias_term: false
    weight_filler {
      type: "xavier"
    }
    axis: 2
  }
}
layer {
  name: "lstm1_gate_input_23"
  type: "Eltwise"
  bottom: "W_hc_h_22"
  bottom: "W_xc_x_23"
  top: "gate_input_23"
  eltwise_param {
    operation: SUM
  }
}
layer {
  name: "lstm1_unit_23"
  type: "LSTMUnit"
  bottom: "c_22"
  bottom: "gate_input_23"
  bottom: "cont_23"
  top: "c_23"
  top: "h_23"
}
layer {
  name: "lstm1_h_conted_23"
  type: "Scale"
  bottom: "h_23"
  bottom: "cont_24"
  top: "h_conted_23"
  scale_param {
    axis: 0
  }
}
layer {
  name: "lstm1_transform_24"
  type: "InnerProduct"
  bottom: "h_conted_23"
  top: "W_hc_h_23"
  param {
    name: "W_hc"
  }
  inner_product_param {
    num_output: 400
    bias_term: false
    weight_filler {
      type: "xavier"
    }
    axis: 2
  }
}
layer {
  name: "lstm1_gate_input_24"
  type: "Eltwise"
  bottom: "W_hc_h_23"
  bottom: "W_xc_x_24"
  top: "gate_input_24"
  eltwise_param {
    operation: SUM
  }
}
layer {
  name: "lstm1_unit_24"
  type: "LSTMUnit"
  bottom: "c_23"
  bottom: "gate_input_24"
  bottom: "cont_24"
  top: "c_24"
  top: "h_24"
}
layer {
  name: "lstm1_h_conted_24"
  type: "Scale"
  bottom: "h_24"
  bottom: "cont_25"
  top: "h_conted_24"
  scale_param {
    axis: 0
  }
}
layer {
  name: "lstm1_transform_25"
  type: "InnerProduct"
  bottom: "h_conted_24"
  top: "W_hc_h_24"
  param {
    name: "W_hc"
  }
  inner_product_param {
    num_output: 400
    bias_term: false
    weight_filler {
      type: "xavier"
    }
    axis: 2
  }
}
layer {
  name: "lstm1_gate_input_25"
  type: "Eltwise"
  bottom: "W_hc_h_24"
  bottom: "W_xc_x_25"
  top: "gate_input_25"
  eltwise_param {
    operation: SUM
  }
}
layer {
  name: "lstm1_unit_25"
  type: "LSTMUnit"
  bottom: "c_24"
  bottom: "gate_input_25"
  bottom: "cont_25"
  top: "c_25"
  top: "h_25"
}
layer {
  name: "lstm1_h_conted_25"
  type: "Scale"
  bottom: "h_25"
  bottom: "cont_26"
  top: "h_conted_25"
  scale_param {
    axis: 0
  }
}
layer {
  name: "lstm1_transform_26"
  type: "InnerProduct"
  bottom: "h_conted_25"
  top: "W_hc_h_25"
  param {
    name: "W_hc"
  }
  inner_product_param {
    num_output: 400
    bias_term: false
    weight_filler {
      type: "xavier"
    }
    axis: 2
  }
}
layer {
  name: "lstm1_gate_input_26"
  type: "Eltwise"
  bottom: "W_hc_h_25"
  bottom: "W_xc_x_26"
  top: "gate_input_26"
  eltwise_param {
    operation: SUM
  }
}
layer {
  name: "lstm1_unit_26"
  type: "LSTMUnit"
  bottom: "c_25"
  bottom: "gate_input_26"
  bottom: "cont_26"
  top: "c_26"
  top: "h_26"
}
layer {
  name: "lstm1_h_conted_26"
  type: "Scale"
  bottom: "h_26"
  bottom: "cont_27"
  top: "h_conted_26"
  scale_param {
    axis: 0
  }
}
layer {
  name: "lstm1_transform_27"
  type: "InnerProduct"
  bottom: "h_conted_26"
  top: "W_hc_h_26"
  param {
    name: "W_hc"
  }
  inner_product_param {
    num_output: 400
    bias_term: false
    weight_filler {
      type: "xavier"
    }
    axis: 2
  }
}
layer {
  name: "lstm1_gate_input_27"
  type: "Eltwise"
  bottom: "W_hc_h_26"
  bottom: "W_xc_x_27"
  top: "gate_input_27"
  eltwise_param {
    operation: SUM
  }
}
layer {
  name: "lstm1_unit_27"
  type: "LSTMUnit"
  bottom: "c_26"
  bottom: "gate_input_27"
  bottom: "cont_27"
  top: "c_27"
  top: "h_27"
}
layer {
  name: "lstm1_h_conted_27"
  type: "Scale"
  bottom: "h_27"
  bottom: "cont_28"
  top: "h_conted_27"
  scale_param {
    axis: 0
  }
}
layer {
  name: "lstm1_transform_28"
  type: "InnerProduct"
  bottom: "h_conted_27"
  top: "W_hc_h_27"
  param {
    name: "W_hc"
  }
  inner_product_param {
    num_output: 400
    bias_term: false
    weight_filler {
      type: "xavier"
    }
    axis: 2
  }
}
layer {
  name: "lstm1_gate_input_28"
  type: "Eltwise"
  bottom: "W_hc_h_27"
  bottom: "W_xc_x_28"
  top: "gate_input_28"
  eltwise_param {
    operation: SUM
  }
}
layer {
  name: "lstm1_unit_28"
  type: "LSTMUnit"
  bottom: "c_27"
  bottom: "gate_input_28"
  bottom: "cont_28"
  top: "c_28"
  top: "h_28"
}
layer {
  name: "lstm1_h_conted_28"
  type: "Scale"
  bottom: "h_28"
  bottom: "cont_29"
  top: "h_conted_28"
  scale_param {
    axis: 0
  }
}
layer {
  name: "lstm1_transform_29"
  type: "InnerProduct"
  bottom: "h_conted_28"
  top: "W_hc_h_28"
  param {
    name: "W_hc"
  }
  inner_product_param {
    num_output: 400
    bias_term: false
    weight_filler {
      type: "xavier"
    }
    axis: 2
  }
}
layer {
  name: "lstm1_gate_input_29"
  type: "Eltwise"
  bottom: "W_hc_h_28"
  bottom: "W_xc_x_29"
  top: "gate_input_29"
  eltwise_param {
    operation: SUM
  }
}
layer {
  name: "lstm1_unit_29"
  type: "LSTMUnit"
  bottom: "c_28"
  bottom: "gate_input_29"
  bottom: "cont_29"
  top: "c_29"
  top: "h_29"
}
layer {
  name: "lstm1_h_conted_29"
  type: "Scale"
  bottom: "h_29"
  bottom: "cont_30"
  top: "h_conted_29"
  scale_param {
    axis: 0
  }
}
layer {
  name: "lstm1_transform_30"
  type: "InnerProduct"
  bottom: "h_conted_29"
  top: "W_hc_h_29"
  param {
    name: "W_hc"
  }
  inner_product_param {
    num_output: 400
    bias_term: false
    weight_filler {
      type: "xavier"
    }
    axis: 2
  }
}
layer {
  name: "lstm1_gate_input_30"
  type: "Eltwise"
  bottom: "W_hc_h_29"
  bottom: "W_xc_x_30"
  top: "gate_input_30"
  eltwise_param {
    operation: SUM
  }
}
layer {
  name: "lstm1_unit_30"
  type: "LSTMUnit"
  bottom: "c_29"
  bottom: "gate_input_30"
  bottom: "cont_30"
  top: "c_30"
  top: "h_30"
}
layer {
  name: "lstm1_h_conted_30"
  type: "Scale"
  bottom: "h_30"
  bottom: "cont_31"
  top: "h_conted_30"
  scale_param {
    axis: 0
  }
}
layer {
  name: "lstm1_transform_31"
  type: "InnerProduct"
  bottom: "h_conted_30"
  top: "W_hc_h_30"
  param {
    name: "W_hc"
  }
  inner_product_param {
    num_output: 400
    bias_term: false
    weight_filler {
      type: "xavier"
    }
    axis: 2
  }
}
layer {
  name: "lstm1_gate_input_31"
  type: "Eltwise"
  bottom: "W_hc_h_30"
  bottom: "W_xc_x_31"
  top: "gate_input_31"
  eltwise_param {
    operation: SUM
  }
}
layer {
  name: "lstm1_unit_31"
  type: "LSTMUnit"
  bottom: "c_30"
  bottom: "gate_input_31"
  bottom: "cont_31"
  top: "c_31"
  top: "h_31"
}
layer {
  name: "lstm1_h_conted_31"
  type: "Scale"
  bottom: "h_31"
  bottom: "cont_32"
  top: "h_conted_31"
  scale_param {
    axis: 0
  }
}
layer {
  name: "lstm1_transform_32"
  type: "InnerProduct"
  bottom: "h_conted_31"
  top: "W_hc_h_31"
  param {
    name: "W_hc"
  }
  inner_product_param {
    num_output: 400
    bias_term: false
    weight_filler {
      type: "xavier"
    }
    axis: 2
  }
}
layer {
  name: "lstm1_gate_input_32"
  type: "Eltwise"
  bottom: "W_hc_h_31"
  bottom: "W_xc_x_32"
  top: "gate_input_32"
  eltwise_param {
    operation: SUM
  }
}
layer {
  name: "lstm1_unit_32"
  type: "LSTMUnit"
  bottom: "c_31"
  bottom: "gate_input_32"
  bottom: "cont_32"
  top: "c_32"
  top: "h_32"
}
layer {
  name: "lstm1_h_conted_32"
  type: "Scale"
  bottom: "h_32"
  bottom: "cont_33"
  top: "h_conted_32"
  scale_param {
    axis: 0
  }
}
layer {
  name: "lstm1_transform_33"
  type: "InnerProduct"
  bottom: "h_conted_32"
  top: "W_hc_h_32"
  param {
    name: "W_hc"
  }
  inner_product_param {
    num_output: 400
    bias_term: false
    weight_filler {
      type: "xavier"
    }
    axis: 2
  }
}
layer {
  name: "lstm1_gate_input_33"
  type: "Eltwise"
  bottom: "W_hc_h_32"
  bottom: "W_xc_x_33"
  top: "gate_input_33"
  eltwise_param {
    operation: SUM
  }
}
layer {
  name: "lstm1_unit_33"
  type: "LSTMUnit"
  bottom: "c_32"
  bottom: "gate_input_33"
  bottom: "cont_33"
  top: "c_33"
  top: "h_33"
}
layer {
  name: "lstm1_h_conted_33"
  type: "Scale"
  bottom: "h_33"
  bottom: "cont_34"
  top: "h_conted_33"
  scale_param {
    axis: 0
  }
}
layer {
  name: "lstm1_transform_34"
  type: "InnerProduct"
  bottom: "h_conted_33"
  top: "W_hc_h_33"
  param {
    name: "W_hc"
  }
  inner_product_param {
    num_output: 400
    bias_term: false
    weight_filler {
      type: "xavier"
    }
    axis: 2
  }
}
layer {
  name: "lstm1_gate_input_34"
  type: "Eltwise"
  bottom: "W_hc_h_33"
  bottom: "W_xc_x_34"
  top: "gate_input_34"
  eltwise_param {
    operation: SUM
  }
}
layer {
  name: "lstm1_unit_34"
  type: "LSTMUnit"
  bottom: "c_33"
  bottom: "gate_input_34"
  bottom: "cont_34"
  top: "c_34"
  top: "h_34"
}
layer {
  name: "lstm1_h_conted_34"
  type: "Scale"
  bottom: "h_34"
  bottom: "cont_35"
  top: "h_conted_34"
  scale_param {
    axis: 0
  }
}
layer {
  name: "lstm1_transform_35"
  type: "InnerProduct"
  bottom: "h_conted_34"
  top: "W_hc_h_34"
  param {
    name: "W_hc"
  }
  inner_product_param {
    num_output: 400
    bias_term: false
    weight_filler {
      type: "xavier"
    }
    axis: 2
  }
}
layer {
  name: "lstm1_gate_input_35"
  type: "Eltwise"
  bottom: "W_hc_h_34"
  bottom: "W_xc_x_35"
  top: "gate_input_35"
  eltwise_param {
    operation: SUM
  }
}
layer {
  name: "lstm1_unit_35"
  type: "LSTMUnit"
  bottom: "c_34"
  bottom: "gate_input_35"
  bottom: "cont_35"
  top: "c_35"
  top: "h_35"
}
layer {
  name: "lstm1_h_conted_35"
  type: "Scale"
  bottom: "h_35"
  bottom: "cont_36"
  top: "h_conted_35"
  scale_param {
    axis: 0
  }
}
layer {
  name: "lstm1_transform_36"
  type: "InnerProduct"
  bottom: "h_conted_35"
  top: "W_hc_h_35"
  param {
    name: "W_hc"
  }
  inner_product_param {
    num_output: 400
    bias_term: false
    weight_filler {
      type: "xavier"
    }
    axis: 2
  }
}
layer {
  name: "lstm1_gate_input_36"
  type: "Eltwise"
  bottom: "W_hc_h_35"
  bottom: "W_xc_x_36"
  top: "gate_input_36"
  eltwise_param {
    operation: SUM
  }
}
layer {
  name: "lstm1_unit_36"
  type: "LSTMUnit"
  bottom: "c_35"
  bottom: "gate_input_36"
  bottom: "cont_36"
  top: "c_36"
  top: "h_36"
}
layer {
  name: "lstm1_h_conted_36"
  type: "Scale"
  bottom: "h_36"
  bottom: "cont_37"
  top: "h_conted_36"
  scale_param {
    axis: 0
  }
}
layer {
  name: "lstm1_transform_37"
  type: "InnerProduct"
  bottom: "h_conted_36"
  top: "W_hc_h_36"
  param {
    name: "W_hc"
  }
  inner_product_param {
    num_output: 400
    bias_term: false
    weight_filler {
      type: "xavie
I0506 10:14:54.198807  9060 layer_factory.hpp:77] Creating layer lstm1_
I0506 10:14:54.198815  9060 net.cpp:86] Creating Layer lstm1_
I0506 10:14:54.198819  9060 net.cpp:382] lstm1_ -> x
I0506 10:14:54.198827  9060 net.cpp:382] lstm1_ -> cont
I0506 10:14:54.198870  9060 net.cpp:124] Setting up lstm1_
I0506 10:14:54.198873  9060 net.cpp:131] Top shape: 80 512 3 30 (3686400)
I0506 10:14:54.198877  9060 net.cpp:131] Top shape: 80 512 (40960)
I0506 10:14:54.198880  9060 net.cpp:139] Memory required for data: 14909440
I0506 10:14:54.198884  9060 layer_factory.hpp:77] Creating layer lstm1_
I0506 10:14:54.198886  9060 net.cpp:86] Creating Layer lstm1_
I0506 10:14:54.198889  9060 net.cpp:382] lstm1_ -> c_0
I0506 10:14:54.198894  9060 net.cpp:382] lstm1_ -> h_0
I0506 10:14:54.198920  9060 net.cpp:124] Setting up lstm1_
I0506 10:14:54.198921  9060 net.cpp:131] Top shape: 1 512 100 (51200)
I0506 10:14:54.198925  9060 net.cpp:131] Top shape: 1 512 100 (51200)
I0506 10:14:54.198927  9060 net.cpp:139] Memory required for data: 15319040
I0506 10:14:54.198930  9060 layer_factory.hpp:77] Creating layer lstm1_cont_slice
I0506 10:14:54.198940  9060 net.cpp:86] Creating Layer lstm1_cont_slice
I0506 10:14:54.198943  9060 net.cpp:408] lstm1_cont_slice <- cont
I0506 10:14:54.198951  9060 net.cpp:382] lstm1_cont_slice -> cont_1
I0506 10:14:54.198957  9060 net.cpp:382] lstm1_cont_slice -> cont_2
…
I0506 10:14:54.199424  9060 net.cpp:382] lstm1_cont_slice -> cont_73
I0506 10:14:54.199429  9060 net.cpp:382] lstm1_cont_slice -> cont_74
I0506 10:14:54.199435  9060 net.cpp:382] lstm1_cont_slice -> cont_75
I0506 10:14:54.199442  9060 net.cpp:382] lstm1_cont_slice -> cont_76
I0506 10:14:54.199448  9060 net.cpp:382] lstm1_cont_slice -> cont_77
I0506 10:14:54.199455  9060 net.cpp:382] lstm1_cont_slice -> cont_78
I0506 10:14:54.199461  9060 net.cpp:382] lstm1_cont_slice -> cont_79
I0506 10:14:54.199467  9060 net.cpp:382] lstm1_cont_slice -> cont_80
I0506 10:14:54.200062  9060 net.cpp:124] Setting up lstm1_cont_slice
I0506 10:14:54.200065  9060 net.cpp:131] Top shape: 1 512 (512)
I0506 10:14:54.200068  9060 net.cpp:131] Top shape: 1 512 (512)
I0506 10:14:54.200071  9060 net.cpp:131] Top shape: 1 512 (512)
I0506 10:14:54.200074  9060 net.cpp:131] Top shape: 1 512 (512)
I0506 10:14:54.200078  9060 net.cpp:131] Top shape: 1 512 (512)
I0506 10:14:54.200080  9060 net.cpp:131] Top shape: 1 512 (512)
I0506 10:14:54.200083  9060 net.cpp:131] Top shape: 1 512 (512)
I0506 10:14:54.200085  9060 net.cpp:131] Top shape: 1 512 (512)
I0506 10:14:54.200088  9060 net.cpp:131] Top shape: 1 512 (512)
I0506 10:14:54.200090  9060 net.cpp:131] Top shape: 1 512 (512)
I0506 10:14:54.200093  9060 net.cpp:131] Top shape: 1 512 (512)
I0506 10:14:54.200096  9060 net.cpp:131] Top shape: 1 512 (512)
I0506 10:14:54.200098  9060 net.cpp:131] Top shape: 1 512 (512)
I0506 10:14:54.200101  9060 net.cpp:131] Top shape: 1 512 (512)
I0506 10:14:54.200104  9060 net.cpp:131] Top shape: 1 512 (512)
I0506 10:14:54.200106  9060 net.cpp:131] Top shape: 1 512 (512)
I0506 10:14:54.200109  9060 net.cpp:131] Top shape: 1 512 (512)
I0506 10:14:54.200112  9060 net.cpp:131] Top shape: 1 512 (512)
I0506 10:14:54.200114  9060 net.cpp:131] Top shape: 1 512 (512)
I0506 10:14:54.200117  9060 net.cpp:131] Top shape: 1 512 (512)
I0506 10:14:54.200120  9060 net.cpp:131] Top shape: 1 512 (512)
I0506 10:14:54.200122  9060 net.cpp:131] Top shape: 1 512 (512)
I0506 10:14:54.200125  9060 net.cpp:131] Top shape: 1 512 (512)
I0506 10:14:54.200129  9060 net.cpp:131] Top shape: 1 512 (512)
I0506 10:14:54.200130  9060 net.cpp:131] Top shape: 1 512 (512)
I0506 10:14:54.200134  9060 net.cpp:131] Top shape: 1 512 (512)
I0506 10:14:54.200136  9060 net.cpp:131] Top shape: 1 512 (512)
I0506 10:14:54.200139  9060 net.cpp:131] Top shape: 1 512 (512)
I0506 10:14:54.200141  9060 net.cpp:131] Top shape: 1 512 (512)
I0506 10:14:54.200145  9060 net.cpp:131] Top shape: 1 512 (512)
I0506 10:14:54.200146  9060 net.cpp:131] Top shape: 1 512 (512)
I0506 10:14:54.200150  9060 net.cpp:131] Top shape: 1 512 (512)
I0506 10:14:54.200152  9060 net.cpp:131] Top shape: 1 512 (512)
I0506 10:14:54.200155  9060 net.cpp:131] Top shape: 1 512 (512)
I0506 10:14:54.200157  9060 net.cpp:131] Top shape: 1 512 (512)
I0506 10:14:54.200160  9060 net.cpp:131] Top shape: 1 512 (512)
I0506 10:14:54.200162  9060 net.cpp:131] Top shape: 1 512 (512)
I0506 10:14:54.200165  9060 net.cpp:131] Top shape: 1 512 (512)
I0506 10:14:54.200168  9060 net.cpp:131] Top shape: 1 512 (512)
I0506 10:14:54.200170  9060 net.cpp:131] Top shape: 1 512 (512)
I0506 10:14:54.200173  9060 net.cpp:131] Top shape: 1 512 (512)
I0506 10:14:54.200176  9060 net.cpp:131] Top shape: 1 512 (512)
I0506 10:14:54.200178  9060 net.cpp:131] Top shape: 1 512 (512)
I0506 10:14:54.200181  9060 net.cpp:131] Top shape: 1 512 (512)
I0506 10:14:54.200184  9060 net.cpp:131] Top shape: 1 512 (512)
I0506 10:14:54.200186  9060 net.cpp:131] Top shape: 1 512 (512)
I0506 10:14:54.200189  9060 net.cpp:131] Top shape: 1 512 (512)
I0506 10:14:54.200192  9060 net.cpp:131] Top shape: 1 512 (512)
I0506 10:14:54.200194  9060 net.cpp:131] Top shape: 1 512 (512)
I0506 10:14:54.200203  9060 net.cpp:131] Top shape: 1 512 (512)
I0506 10:14:54.200206  9060 net.cpp:131] Top shape: 1 512 (512)
I0506 10:14:54.200209  9060 net.cpp:131] Top shape: 1 512 (512)
I0506 10:14:54.200212  9060 net.cpp:131] Top shape: 1 512 (512)
I0506 10:14:54.200214  9060 net.cpp:131] Top shape: 1 512 (512)
I0506 10:14:54.200217  9060 net.cpp:131] Top shape: 1 512 (512)
I0506 10:14:54.200219  9060 net.cpp:131] Top shape: 1 512 (512)
I0506 10:14:54.200222  9060 net.cpp:131] Top shape: 1 512 (512)
I0506 10:14:54.200225  9060 net.cpp:131] Top shape: 1 512 (512)
I0506 10:14:54.200227  9060 net.cpp:131] Top shape: 1 512 (512)
I0506 10:14:54.200230  9060 net.cpp:131] Top shape: 1 512 (512)
I0506 10:14:54.200233  9060 net.cpp:131] Top shape: 1 512 (512)
I0506 10:14:54.200237  9060 net.cpp:131] Top shape: 1 512 (512)
I0506 10:14:54.200238  9060 net.cpp:131] Top shape: 1 512 (512)
I0506 10:14:54.200242  9060 net.cpp:131] Top shape: 1 512 (512)
I0506 10:14:54.200244  9060 net.cpp:131] Top shape: 1 512 (512)
I0506 10:14:54.200248  9060 net.cpp:131] Top shape: 1 512 (512)
I0506 10:14:54.200249  9060 net.cpp:131] Top shape: 1 512 (512)
I0506 10:14:54.200253  9060 net.cpp:131] Top shape: 1 512 (512)
I0506 10:14:54.200255  9060 net.cpp:131] Top shape: 1 512 (512)
I0506 10:14:54.200258  9060 net.cpp:131] Top shape: 1 512 (512)
I0506 10:14:54.200260  9060 net.cpp:131] Top shape: 1 512 (512)
I0506 10:14:54.200263  9060 net.cpp:131] Top shape: 1 512 (512)
I0506 10:14:54.200265  9060 net.cpp:131] Top shape: 1 512 (512)
I0506 10:14:54.200268  9060 net.cpp:131] Top shape: 1 512 (512)
I0506 10:14:54.200271  9060 net.cpp:131] Top shape: 1 512 (512)
I0506 10:14:54.200273  9060 net.cpp:131] Top shape: 1 512 (512)
I0506 10:14:54.200276  9060 net.cpp:131] Top shape: 1 512 (512)
I0506 10:14:54.200279  9060 net.cpp:131] Top shape: 1 512 (512)
I0506 10:14:54.200281  9060 net.cpp:131] Top shape: 1 512 (512)
I0506 10:14:54.200284  9060 net.cpp:131] Top shape: 1 512 (512)
I0506 10:14:54.200287  9060 net.cpp:139] Memory required for data: 15482880
I0506 10:14:54.200289  9060 layer_factory.hpp:77] Creating layer cont_1_lstm1_cont_slice_0_split
I0506 10:14:54.200294  9060 net.cpp:86] Creating Layer cont_1_lstm1_cont_slice_0_split
I0506 10:14:54.200296  9060 net.cpp:408] cont_1_lstm1_cont_slice_0_split <- cont_1
I0506 10:14:54.200300  9060 net.cpp:382] cont_1_lstm1_cont_slice_0_split -> cont_1_lstm1_cont_slice_0_split_0
I0506 10:14:54.200304  9060 net.cpp:382] cont_1_lstm1_cont_slice_0_split -> cont_1_lstm1_cont_slice_0_split_1
I0506 10:14:54.200325  9060 net.cpp:124] Setting up cont_1_lstm1_cont_slice_0_split
I0506 10:14:54.200328  9060 net.cpp:131] Top shape: 1 512 (512)
I0506 10:14:54.200330  9060 net.cpp:131] Top shape: 1 512 (512)
I0506 10:14:54.200333  9060 net.cpp:139] Memory required for data: 15486976
I0506 10:14:54.200335  9060 layer_factory.hpp:77] Creating layer cont_2_lstm1_cont_slice_1_split
I0506 10:14:54.200340  9060 net.cpp:86] Creating Layer cont_2_lstm1_cont_slice_1_split
I0506 10:14:54.200342  9060 net.cpp:408] cont_2_lstm1_cont_slice_1_split <- cont_2
I0506 10:14:54.200345  9060 net.cpp:382] cont_2_lstm1_cont_slice_1_split -> cont_2_lstm1_cont_slice_1_split_0
I0506 10:14:54.200350  9060 net.cpp:382] cont_2_lstm1_cont_slice_1_split -> cont_2_lstm1_cont_slice_1_split_1
I0506 10:14:54.200368  9060 net.cpp:124] Setting up cont_2_lstm1_cont_slice_1_split
I0506 10:14:54.200371  9060 net.cpp:131] Top shape: 1 512 (512)
I0506 10:14:54.200373  9060 net.cpp:131] Top shape: 1 512 (512)
I0506 10:14:54.200376  9060 net.cpp:139] Memory required for data: 15491072
I0506 10:14:54.200378  9060 layer_factory.hpp:77] Creating layer cont_3_lstm1_cont_slice_2_split
I0506 10:14:54.200381  9060 net.cpp:86] Creating Layer cont_3_lstm1_cont_slice_2_split
I0506 10:14:54.200384  9060 net.cpp:408] cont_3_lstm1_cont_slice_2_split <- cont_3
I0506 10:14:54.200388  9060 net.cpp:382] cont_3_lstm1_cont_slice_2_split -> cont_3_lstm1_cont_slice_2_split_0
I0506 10:14:54.200392  9060 net.cpp:382] cont_3_lstm1_cont_slice_2_split -> cont_3_lstm1_cont_slice_2_split_1
I0506 10:14:54.200417  9060 net.cpp:124] Setting up cont_3_lstm1_cont_slice_2_split
I0506 10:14:54.200420  9060 net.cpp:131] Top shape: 1 512 (512)
I0506 10:14:54.200423  9060 net.cpp:131] Top shape: 1 512 (512)
I0506 10:14:54.200426  9060 net.cpp:139] Memory required for data: 15495168
I0506 10:14:54.200428  9060 layer_factory.hpp:77] Creating layer cont_4_lstm1_cont_slice_3_split
I0506 10:14:54.200433  9060 net.cpp:86] Creating Layer cont_4_lstm1_cont_slice_3_split
I0506 10:14:54.200434  9060 net.cpp:408] cont_4_lstm1_cont_slice_3_split <- cont_4
I0506 10:14:54.200438  9060 net.cpp:382] cont_4_lstm1_cont_slice_3_split -> cont_4_lstm1_cont_slice_3_split_0
I0506 10:14:54.200441  9060 net.cpp:382] cont_4_lstm1_cont_slice_3_split -> cont_4_lstm1_cont_slice_3_split_1
I0506 10:14:54.200460  9060 net.cpp:124] Setting up cont_4_lstm1_cont_slice_3_split
I0506 10:14:54.200464  9060 net.cpp:131] Top shape: 1 512 (512)
I0506 10:14:54.200466  9060 net.cpp:131] Top shape: 1 512 (512)
I0506 10:14:54.200469  9060 net.cpp:139] Memory required for data: 15499264
I0506 10:14:54.200471  9060 layer_factory.hpp:77] Creating layer cont_5_lstm1_cont_slice_4_split
I0506 10:14:54.200474  9060 net.cpp:86] Creating Layer cont_5_lstm1_cont_slice_4_split
I0506 10:14:54.200477  9060 net.cpp:408] cont_5_lstm1_cont_slice_4_split <- cont_5
I0506 10:14:54.200480  9060 net.cpp:382] cont_5_lstm1_cont_slice_4_split -> cont_5_lstm1_cont_slice_4_split_0
I0506 10:14:54.200485  9060 net.cpp:382] cont_5_lstm1_cont_slice_4_split -> cont_5_lstm1_cont_slice_4_split_1
I0506 10:14:54.200503  9060 net.cpp:124] Setting up cont_5_lstm1_cont_slice_4_split
I0506 10:14:54.200506  9060 net.cpp:131] Top shape: 1 512 (512)
I0506 10:14:54.200508  9060 net.cpp:131] Top shape: 1 512 (512)
I0506 10:14:54.200511  9060 net.cpp:139] Memory required for data: 15503360
I0506 10:14:54.200513  9060 layer_factory.hpp:77] Creating layer cont_6_lstm1_cont_slice_5_split
I0506 10:14:54.200517  9060 net.cpp:86] Creating Layer cont_6_lstm1_cont_slice_5_split
I0506 10:14:54.200520  9060 net.cpp:408] cont_6_lstm1_cont_slice_5_split <- cont_6
I0506 10:14:54.200523  9060 net.cpp:382] cont_6_lstm1_cont_slice_5_split -> cont_6_lstm1_cont_slice_5_split_0
I0506 10:14:54.200527  9060 net.cpp:382] cont_6_lstm1_cont_slice_5_split -> cont_6_lstm1_cont_slice_5_split_1
I0506 10:14:54.200546  9060 net.cpp:124] Setting up cont_6_lstm1_cont_slice_5_split
I0506 10:14:54.200548  9060 net.cpp:131] Top shape: 1 512 (512)
I0506 10:14:54.200551  9060 net.cpp:131] Top shape: 1 512 (512)
I0506 10:14:54.200553  9060 net.cpp:139] Memory required for data: 15507456
I0506 10:14:54.200556  9060 layer_factory.hpp:77] Creating layer cont_7_lstm1_cont_slice_6_split
I0506 10:14:54.200558  9060 net.cpp:86] Creating Layer cont_7_lstm1_cont_slice_6_split
I0506 10:14:54.200562  9060 net.cpp:408] cont_7_lstm1_cont_slice_6_split <- cont_7
I0506 10:14:54.200565  9060 net.cpp:382] cont_7_lstm1_cont_slice_6_split -> cont_7_lstm1_cont_slice_6_split_0
I0506 10:14:54.200568  9060 net.cpp:382] cont_7_lstm1_cont_slice_6_split -> cont_7_lstm1_cont_slice_6_split_1
I0506 10:14:54.200587  9060 net.cpp:124] Setting up cont_7_lstm1_cont_slice_6_split
I0506 10:14:54.200589  9060 net.cpp:131] Top shape: 1 512 (512)
I0506 10:14:54.200592  9060 net.cpp:131] Top shape: 1 512 (512)
I0506 10:14:54.200594  9060 net.cpp:139] Memory required for data: 15511552
I0506 10:14:54.200597  9060 layer_factory.hpp:77] Creating layer cont_8_lstm1_cont_slice_7_split
I0506 10:14:54.200600  9060 net.cpp:86] Creating Layer cont_8_lstm1_cont_slice_7_split
I0506 10:14:54.200603  9060 net.cpp:408] cont_8_lstm1_cont_slice_7_split <- cont_8
I0506 10:14:54.200606  9060 net.cpp:382] cont_8_lstm1_cont_slice_7_split -> cont_8_lstm1_cont_slice_7_split_0
I0506 10:14:54.200610  9060 net.cpp:382] cont_8_lstm1_cont_slice_7_split -> cont_8_lstm1_cont_slice_7_split_1
I0506 10:14:54.200628  9060 net.cpp:124] Setting up cont_8_lstm1_cont_slice_7_split
I0506 10:14:54.200630  9060 net.cpp:131] Top shape: 1 512 (512)
I0506 10:14:54.200634  9060 net.cpp:131] Top shape: 1 512 (512)
I0506 10:14:54.200644  9060 net.cpp:139] Memory required for data: 15515648
I0506 10:14:54.200646  9060 layer_factory.hpp:77] Creating layer cont_9_lstm1_cont_slice_8_split
I0506 10:14:54.200650  9060 net.cpp:86] Creating Layer cont_9_lstm1_cont_slice_8_split
I0506 10:14:54.200652  9060 net.cpp:408] cont_9_lstm1_cont_slice_8_split <- cont_9
I0506 10:14:54.200656  9060 net.cpp:382] cont_9_lstm1_cont_slice_8_split -> cont_9_lstm1_cont_slice_8_split_0
I0506 10:14:54.200660  9060 net.cpp:382] cont_9_lstm1_cont_slice_8_split -> cont_9_lstm1_cont_slice_8_split_1
I0506 10:14:54.200680  9060 net.cpp:124] Setting up cont_9_lstm1_cont_slice_8_split
I0506 10:14:54.200682  9060 net.cpp:131] Top shape: 1 512 (512)
I0506 10:14:54.200685  9060 net.cpp:131] Top shape: 1 512 (512)
I0506 10:14:54.200687  9060 net.cpp:139] Memory required for data: 15519744
I0506 10:14:54.200690  9060 layer_factory.hpp:77] Creating layer cont_10_lstm1_cont_slice_9_split
I0506 10:14:54.200693  9060 net.cpp:86] Creating Layer cont_10_lstm1_cont_slice_9_split
I0506 10:14:54.200696  9060 net.cpp:408] cont_10_lstm1_cont_slice_9_split <- cont_10
I0506 10:14:54.200700  9060 net.cpp:382] cont_10_lstm1_cont_slice_9_split -> cont_10_lstm1_cont_slice_9_split_0
I0506 10:14:54.200703  9060 net.cpp:382] cont_10_lstm1_cont_slice_9_split -> cont_10_lstm1_cont_slice_9_split_1
I0506 10:14:54.200721  9060 net.cpp:124] Setting up cont_10_lstm1_cont_slice_9_split
I0506 10:14:54.200724  9060 net.cpp:131] Top shape: 1 512 (512)
I0506 10:14:54.200726  9060 net.cpp:131] Top shape: 1 512 (512)
I0506 10:14:54.200729  9060 net.cpp:139] Memory required for data: 15523840
I0506 10:14:54.200731  9060 layer_factory.hpp:77] Creating layer cont_11_lstm1_cont_slice_10_split
I0506 10:14:54.200734  9060 net.cpp:86] Creating Layer cont_11_lstm1_cont_slice_10_split
I0506 10:14:54.200737  9060 net.cpp:408] cont_11_lstm1_cont_slice_10_split <- cont_11
I0506 10:14:54.200742  9060 net.cpp:382] cont_11_lstm1_cont_slice_10_split -> cont_11_lstm1_cont_slice_10_split_0
I0506 10:14:54.200745  9060 net.cpp:382] cont_11_lstm1_cont_slice_10_split -> cont_11_lstm1_cont_slice_10_split_1
I0506 10:14:54.200763  9060 net.cpp:124] Setting up cont_11_lstm1_cont_slice_10_split
I0506 10:14:54.200765  9060 net.cpp:131] Top shape: 1 512 (512)
I0506 10:14:54.200768  9060 net.cpp:131] Top shape: 1 512 (512)
I0506 10:14:54.200772  9060 net.cpp:139] Memory required for data: 15527936
I0506 10:14:54.200773  9060 layer_factory.hpp:77] Creating layer cont_12_lstm1_cont_slice_11_split
I0506 10:14:54.200778  9060 net.cpp:86] Creating Layer cont_12_lstm1_cont_slice_11_split
I0506 10:14:54.200779  9060 net.cpp:408] cont_12_lstm1_cont_slice_11_split <- cont_12
I0506 10:14:54.200783  9060 net.cpp:382] cont_12_lstm1_cont_slice_11_split -> cont_12_lstm1_cont_slice_11_split_0
I0506 10:14:54.200786  9060 net.cpp:382] cont_12_lstm1_cont_slice_11_split -> cont_12_lstm1_cont_slice_11_split_1
I0506 10:14:54.200805  9060 net.cpp:124] Setting up cont_12_lstm1_cont_slice_11_split
I0506 10:14:54.200808  9060 net.cpp:131] Top shape: 1 512 (512)
I0506 10:14:54.200810  9060 net.cpp:131] Top shape: 1 512 (512)
I0506 10:14:54.200814  9060 net.cpp:139] Memory required for data: 15532032
I0506 10:14:54.200815  9060 layer_factory.hpp:77] Creating layer cont_13_lstm1_cont_slice_12_split
I0506 10:14:54.200819  9060 net.cpp:86] Creating Layer cont_13_lstm1_cont_slice_12_split
I0506 10:14:54.200821  9060 net.cpp:408] cont_13_lstm1_cont_slice_12_split <- cont_13
I0506 10:14:54.200824  9060 net.cpp:382] cont_13_lstm1_cont_slice_12_split -> cont_13_lstm1_cont_slice_12_split_0
I0506 10:14:54.200829  9060 net.cpp:382] cont_13_lstm1_cont_slice_12_split -> cont_13_lstm1_cont_slice_12_split_1
I0506 10:14:54.200847  9060 net.cpp:124] Setting up cont_13_lstm1_cont_slice_12_split
I0506 10:14:54.200850  9060 net.cpp:131] Top shape: 1 512 (512)
I0506 10:14:54.200852  9060 net.cpp:131] Top shape: 1 512 (512)
I0506 10:14:54.200855  9060 net.cpp:139] Memory required for data: 15536128
I0506 10:14:54.200857  9060 layer_factory.hpp:77] Creating layer cont_14_lstm1_cont_slice_13_split
I0506 10:14:54.200867  9060 net.cpp:86] Creating Layer cont_14_lstm1_cont_slice_13_split
I0506 10:14:54.200870  9060 net.cpp:408] cont_14_lstm1_cont_slice_13_split <- cont_14
I0506 10:14:54.200873  9060 net.cpp:382] cont_14_lstm1_cont_slice_13_split -> cont_14_lstm1_cont_slice_13_split_0
I0506 10:14:54.200877  9060 net.cpp:382] cont_14_lstm1_cont_slice_13_split -> cont_14_lstm1_cont_slice_13_split_1
I0506 10:14:54.200897  9060 net.cpp:124] Setting up cont_14_lstm1_cont_slice_13_split
I0506 10:14:54.200901  9060 net.cpp:131] Top shape: 1 512 (512)
I0506 10:14:54.200903  9060 net.cpp:131] Top shape: 1 512 (512)
I0506 10:14:54.200906  9060 net.cpp:139] Memory required for data: 15540224
I0506 10:14:54.200908  9060 layer_factory.hpp:77] Creating layer cont_15_lstm1_cont_slice_14_split
I0506 10:14:54.200911  9060 net.cpp:86] Creating Layer cont_15_lstm1_cont_slice_14_split
I0506 10:14:54.200914  9060 net.cpp:408] cont_15_lstm1_cont_slice_14_split <- cont_15
I0506 10:14:54.200918  9060 net.cpp:382] cont_15_lstm1_cont_slice_14_split -> cont_15_lstm1_cont_slice_14_split_0
I0506 10:14:54.200922  9060 net.cpp:382] cont_15_lstm1_cont_slice_14_split -> cont_15_lstm1_cont_slice_14_split_1
I0506 10:14:54.200942  9060 net.cpp:124] Setting up cont_15_lstm1_cont_slice_14_split
I0506 10:14:54.200943  9060 net.cpp:131] Top shape: 1 512 (512)
I0506 10:14:54.200947  9060 net.cpp:131] Top shape: 1 512 (512)
I0506 10:14:54.200949  9060 net.cpp:139] Memory required for data: 15544320
I0506 10:14:54.200951  9060 layer_factory.hpp:77] Creating layer cont_16_lstm1_cont_slice_15_split
I0506 10:14:54.200954  9060 net.cpp:86] Creating Layer cont_16_lstm1_cont_slice_15_split
I0506 10:14:54.200958  9060 net.cpp:408] cont_16_lstm1_cont_slice_15_split <- cont_16
I0506 10:14:54.200960  9060 net.cpp:382] cont_16_lstm1_cont_slice_15_split -> cont_16_lstm1_cont_slice_15_split_0
I0506 10:14:54.200964  9060 net.cpp:382] cont_16_lstm1_cont_slice_15_split -> cont_16_lstm1_cont_slice_15_split_1
I0506 10:14:54.200983  9060 net.cpp:124] Setting up cont_16_lstm1_cont_slice_15_split
I0506 10:14:54.200985  9060 net.cpp:131] Top shape: 1 512 (512)
I0506 10:14:54.200989  9060 net.cpp:131] Top shape: 1 512 (512)
I0506 10:14:54.200990  9060 net.cpp:139] Memory required for data: 15548416
I0506 10:14:54.200994  9060 layer_factory.hpp:77] Creating layer cont_17_lstm1_cont_slice_16_split
I0506 10:14:54.200996  9060 net.cpp:86] Creating Layer cont_17_lstm1_cont_slice_16_split
I0506 10:14:54.200999  9060 net.cpp:408] cont_17_lstm1_cont_slice_16_split <- cont_17
I0506 10:14:54.201002  9060 net.cpp:382] cont_17_lstm1_cont_slice_16_split -> cont_17_lstm1_cont_slice_16_split_0
I0506 10:14:54.201006  9060 net.cpp:382] cont_17_lstm1_cont_slice_16_split -> cont_17_lstm1_cont_slice_16_split_1
I0506 10:14:54.201025  9060 net.cpp:124] Setting up cont_17_lstm1_cont_slice_16_split
I0506 10:14:54.201027  9060 net.cpp:131] Top shape: 1 512 (512)
I0506 10:14:54.201030  9060 net.cpp:131] Top shape: 1 512 (512)
I0506 10:14:54.201032  9060 net.cpp:139] Memory required for data: 15552512
I0506 10:14:54.201035  9060 layer_factory.hpp:77] Creating layer cont_18_lstm1_cont_slice_17_split
I0506 10:14:54.201037  9060 net.cpp:86] Creating Layer cont_18_lstm1_cont_slice_17_split
I0506 10:14:54.201040  9060 net.cpp:408] cont_18_lstm1_cont_slice_17_split <- cont_18
I0506 10:14:54.201043  9060 net.cpp:382] cont_18_lstm1_cont_slice_17_split -> cont_18_lstm1_cont_slice_17_split_0
I0506 10:14:54.201047  9060 net.cpp:382] cont_18_lstm1_cont_slice_17_split -> cont_18_lstm1_cont_slice_17_split_1
I0506 10:14:54.201066  9060 net.cpp:124] Setting up cont_18_lstm1_cont_slice_17_split
I0506 10:14:54.201068  9060 net.cpp:131] Top shape: 1 512 (512)
I0506 10:14:54.201071  9060 net.cpp:131] Top shape: 1 512 (512)
I0506 10:14:54.201073  9060 net.cpp:139] Memory required for data: 15556608
I0506 10:14:54.201076  9060 layer_factory.hpp:77] Creating layer cont_19_lstm1_cont_slice_18_split
I0506 10:14:54.201078  9060 net.cpp:86] Creating Layer cont_19_lstm1_cont_slice_18_split
I0506 10:14:54.201087  9060 net.cpp:408] cont_19_lstm1_cont_slice_18_split <- cont_19
I0506 10:14:54.201092  9060 net.cpp:382] cont_19_lstm1_cont_slice_18_split -> cont_19_lstm1_cont_slice_18_split_0
I0506 10:14:54.201095  9060 net.cpp:382] cont_19_lstm1_cont_slice_18_split -> cont_19_lstm1_cont_slice_18_split_1
I0506 10:14:54.201115  9060 net.cpp:124] Setting up cont_19_lstm1_cont_slice_18_split
I0506 10:14:54.201117  9060 net.cpp:131] Top shape: 1 512 (512)
I0506 10:14:54.201120  9060 net.cpp:131] Top shape: 1 512 (512)
I0506 10:14:54.201123  9060 net.cpp:139] Memory required for data: 15560704
I0506 10:14:54.201125  9060 layer_factory.hpp:77] Creating layer cont_20_lstm1_cont_slice_19_split
I0506 10:14:54.201129  9060 net.cpp:86] Creating Layer cont_20_lstm1_cont_slice_19_split
I0506 10:14:54.201131  9060 net.cpp:408] cont_20_lstm1_cont_slice_19_split <- cont_20
I0506 10:14:54.201135  9060 net.cpp:382] cont_20_lstm1_cont_slice_19_split -> cont_20_lstm1_cont_slice_19_split_0
I0506 10:14:54.201140  9060 net.cpp:382] cont_20_lstm1_cont_slice_19_split -> cont_20_lstm1_cont_slice_19_split_1
I0506 10:14:54.201159  9060 net.cpp:124] Setting up cont_20_lstm1_cont_slice_19_split
I0506 10:14:54.201161  9060 net.cpp:131] Top shape: 1 512 (512)
I0506 10:14:54.201164  9060 net.cpp:131] Top shape: 1 512 (512)
I0506 10:14:54.201166  9060 net.cpp:139] Memory required for data: 15564800
I0506 10:14:54.201169  9060 layer_factory.hpp:77] Creating layer cont_21_lstm1_cont_slice_20_split
I0506 10:14:54.201171  9060 net.cpp:86] Creating Layer cont_21_lstm1_cont_slice_20_split
I0506 10:14:54.201174  9060 net.cpp:408] cont_21_lstm1_cont_slice_20_split <- cont_21
I0506 10:14:54.201179  9060 net.cpp:382] cont_21_lstm1_cont_slice_20_split -> cont_21_lstm1_cont_slice_20_split_0
I0506 10:14:54.201181  9060 net.cpp:382] cont_21_lstm1_cont_slice_20_split -> cont_21_lstm1_cont_slice_20_split_1
I0506 10:14:54.201200  9060 net.cpp:124] Setting up cont_21_lstm1_cont_slice_20_split
I0506 10:14:54.201202  9060 net.cpp:131] Top shape: 1 512 (512)
I0506 10:14:54.201205  9060 net.cpp:131] Top shape: 1 512 (512)
I0506 10:14:54.201208  9060 net.cpp:139] Memory required for data: 15568896
I0506 10:14:54.201210  9060 layer_factory.hpp:77] Creating layer cont_22_lstm1_cont_slice_21_split
I0506 10:14:54.201213  9060 net.cpp:86] Creating Layer cont_22_lstm1_cont_slice_21_split
I0506 10:14:54.201215  9060 net.cpp:408] cont_22_lstm1_cont_slice_21_split <- cont_22
I0506 10:14:54.201220  9060 net.cpp:382] cont_22_lstm1_cont_slice_21_split -> cont_22_lstm1_cont_slice_21_split_0
I0506 10:14:54.201223  9060 net.cpp:382] cont_22_lstm1_cont_slice_21_split -> cont_22_lstm1_cont_slice_21_split_1
I0506 10:14:54.201242  9060 net.cpp:124] Setting up cont_22_lstm1_cont_slice_21_split
I0506 10:14:54.201244  9060 net.cpp:131] Top shape: 1 512 (512)
I0506 10:14:54.201247  9060 net.cpp:131] Top shape: 1 512 (512)
I0506 10:14:54.201251  9060 net.cpp:139] Memory required for data: 15572992
I0506 10:14:54.201252  9060 layer_factory.hpp:77] Creating layer cont_23_lstm1_cont_slice_22_split
I0506 10:14:54.201256  9060 net.cpp:86] Creating Layer cont_23_lstm1_cont_slice_22_split
I0506 10:14:54.201257  9060 net.cpp:408] cont_23_lstm1_cont_slice_22_split <- cont_23
I0506 10:14:54.201261  9060 net.cpp:382] cont_23_lstm1_cont_slice_22_split -> cont_23_lstm1_cont_slice_22_split_0
I0506 10:14:54.201267  9060 net.cpp:382] cont_23_lstm1_cont_slice_22_split -> cont_23_lstm1_cont_slice_22_split_1
I0506 10:14:54.201285  9060 net.cpp:124] Setting up cont_23_lstm1_cont_slice_22_split
I0506 10:14:54.201287  9060 net.cpp:131] Top shape: 1 512 (512)
I0506 10:14:54.201290  9060 net.cpp:131] Top shape: 1 512 (512)
I0506 10:14:54.201293  9060 net.cpp:139] Memory required for data: 15577088
I0506 10:14:54.201295  9060 layer_factory.hpp:77] Creating layer cont_24_lstm1_cont_slice_23_split
I0506 10:14:54.201298  9060 net.cpp:86] Creating Layer cont_24_lstm1_cont_slice_23_split
I0506 10:14:54.201301  9060 net.cpp:408] cont_24_lstm1_cont_slice_23_split <- cont_24
I0506 10:14:54.201305  9060 net.cpp:382] cont_24_lstm1_cont_slice_23_split -> cont_24_lstm1_cont_slice_23_split_0
I0506 10:14:54.201315  9060 net.cpp:382] cont_24_lstm1_cont_slice_23_split -> cont_24_lstm1_cont_slice_23_split_1
I0506 10:14:54.201335  9060 net.cpp:124] Setting up cont_24_lstm1_cont_slice_23_split
I0506 10:14:54.201339  9060 net.cpp:131] Top shape: 1 512 (512)
I0506 10:14:54.201341  9060 net.cpp:131] Top shape: 1 512 (512)
I0506 10:14:54.201344  9060 net.cpp:139] Memory required for data: 15581184
I0506 10:14:54.201346  9060 layer_factory.hpp:77] Creating layer cont_25_lstm1_cont_slice_24_split
I0506 10:14:54.201349  9060 net.cpp:86] Creating Layer cont_25_lstm1_cont_slice_24_split
I0506 10:14:54.201352  9060 net.cpp:408] cont_25_lstm1_cont_slice_24_split <- cont_25
I0506 10:14:54.201355  9060 net.cpp:382] cont_25_lstm1_cont_slice_24_split -> cont_25_lstm1_cont_slice_24_split_0
I0506 10:14:54.201375  9060 net.cpp:382] cont_25_lstm1_cont_slice_24_split -> cont_25_lstm1_cont_slice_24_split_1
I0506 10:14:54.201393  9060 net.cpp:124] Setting up cont_25_lstm1_cont_slice_24_split
I0506 10:14:54.201396  9060 net.cpp:131] Top shape: 1 512 (512)
I0506 10:14:54.201398  9060 net.cpp:131] Top shape: 1 512 (512)
I0506 10:14:54.201400  9060 net.cpp:139] Memory required for data: 15585280
I0506 10:14:54.201402  9060 layer_factory.hpp:77] Creating layer cont_26_lstm1_cont_slice_25_split
I0506 10:14:54.201406  9060 net.cpp:86] Creating Layer cont_26_lstm1_cont_slice_25_split
I0506 10:14:54.201408  9060 net.cpp:408] cont_26_lstm1_cont_slice_25_split <- cont_26
I0506 10:14:54.201411  9060 net.cpp:382] cont_26_lstm1_cont_slice_25_split -> cont_26_lstm1_cont_slice_25_split_0
I0506 10:14:54.201414  9060 net.cpp:382] cont_26_lstm1_cont_slice_25_split -> cont_26_lstm1_cont_slice_25_split_1
I0506 10:14:54.201431  9060 net.cpp:124] Setting up cont_26_lstm1_cont_slice_25_split
I0506 10:14:54.201434  9060 net.cpp:131] Top shape: 1 512 (512)
I0506 10:14:54.201436  9060 net.cpp:131] Top shape: 1 512 (512)
I0506 10:14:54.201438  9060 net.cpp:139] Memory required for data: 15589376
I0506 10:14:54.201440  9060 layer_factory.hpp:77] Creating layer cont_27_lstm1_cont_slice_26_split
I0506 10:14:54.201443  9060 net.cpp:86] Creating Layer cont_27_lstm1_cont_slice_26_split
I0506 10:14:54.201445  9060 net.cpp:408] cont_27_lstm1_cont_slice_26_split <- cont_27
I0506 10:14:54.201448  9060 net.cpp:382] cont_27_lstm1_cont_slice_26_split -> cont_27_lstm1_cont_slice_26_split_0
I0506 10:14:54.201452  9060 net.cpp:382] cont_27_lstm1_cont_slice_26_split -> cont_27_lstm1_cont_slice_26_split_1
I0506 10:14:54.201469  9060 net.cpp:124] Setting up cont_27_lstm1_cont_slice_26_split
I0506 10:14:54.201472  9060 net.cpp:131] Top shape: 1 512 (512)
I0506 10:14:54.201473  9060 net.cpp:131] Top shape: 1 512 (512)
I0506 10:14:54.201475  9060 net.cpp:139] Memory required for data: 15593472
I0506 10:14:54.201478  9060 layer_factory.hpp:77] Creating layer cont_28_lstm1_cont_slice_27_split
I0506 10:14:54.201480  9060 net.cpp:86] Creating Layer cont_28_lstm1_cont_slice_27_split
I0506 10:14:54.201483  9060 net.cpp:408] cont_28_lstm1_cont_slice_27_split <- cont_28
I0506 10:14:54.201485  9060 net.cpp:382] cont_28_lstm1_cont_slice_27_split -> cont_28_lstm1_cont_slice_27_split_0
I0506 10:14:54.201489  9060 net.cpp:382] cont_28_lstm1_cont_slice_27_split -> cont_28_lstm1_cont_slice_27_split_1
I0506 10:14:54.201508  9060 net.cpp:124] Setting up cont_28_lstm1_cont_slice_27_split
I0506 10:14:54.201509  9060 net.cpp:131] Top shape: 1 512 (512)
I0506 10:14:54.201511  9060 net.cpp:131] Top shape: 1 512 (512)
I0506 10:14:54.201514  9060 net.cpp:139] Memory required for data: 15597568
I0506 10:14:54.201516  9060 layer_factory.hpp:77] Creating layer cont_29_lstm1_cont_slice_28_split
I0506 10:14:54.201519  9060 net.cpp:86] Creating Layer cont_29_lstm1_cont_slice_28_split
I0506 10:14:54.201521  9060 net.cpp:408] cont_29_lstm1_cont_slice_28_split <- cont_29
I0506 10:14:54.201524  9060 net.cpp:382] cont_29_lstm1_cont_slice_28_split -> cont_29_lstm1_cont_slice_28_split_0
I0506 10:14:54.201527  9060 net.cpp:382] cont_29_lstm1_cont_slice_28_split -> cont_29_lstm1_cont_slice_28_split_1
I0506 10:14:54.201552  9060 net.cpp:124] Setting up cont_29_lstm1_cont_slice_28_split
I0506 10:14:54.201555  9060 net.cpp:131] Top shape: 1 512 (512)
I0506 10:14:54.201557  9060 net.cpp:131] Top shape: 1 512 (512)
I0506 10:14:54.201560  9060 net.cpp:139] Memory required for data: 15601664
I0506 10:14:54.201561  9060 layer_factory.hpp:77] Creating layer cont_30_lstm1_cont_slice_29_split
I0506 10:14:54.201565  9060 net.cpp:86] Creating Layer cont_30_lstm1_cont_slice_29_split
I0506 10:14:54.201567  9060 net.cpp:408] cont_30_lstm1_cont_slice_29_split <- cont_30
I0506 10:14:54.201570  9060 net.cpp:382] cont_30_lstm1_cont_slice_29_split -> cont_30_lstm1_cont_slice_29_split_0
I0506 10:14:54.201575  9060 net.cpp:382] cont_30_lstm1_cont_slice_29_split -> cont_30_lstm1_cont_slice_29_split_1
I0506 10:14:54.201592  9060 net.cpp:124] Setting up cont_30_lstm1_cont_slice_29_split
I0506 10:14:54.201594  9060 net.cpp:131] Top shape: 1 512 (512)
I0506 10:14:54.201597  9060 net.cpp:131] Top shape: 1 512 (512)
I0506 10:14:54.201599  9060 net.cpp:139] Memory required for data: 15605760
I0506 10:14:54.201601  9060 layer_factory.hpp:77] Creating layer cont_31_lstm1_cont_slice_30_split
I0506 10:14:54.201604  9060 net.cpp:86] Creating Layer cont_31_lstm1_cont_slice_30_split
I0506 10:14:54.201606  9060 net.cpp:408] cont_31_lstm1_cont_slice_30_split <- cont_31
I0506 10:14:54.201609  9060 net.cpp:382] cont_31_lstm1_cont_slice_30_split -> cont_31_lstm1_cont_slice_30_split_0
I0506 10:14:54.201613  9060 net.cpp:382] cont_31_lstm1_cont_slice_30_split -> cont_31_lstm1_cont_slice_30_split_1
I0506 10:14:54.201630  9060 net.cpp:124] Setting up cont_31_lstm1_cont_slice_30_split
I0506 10:14:54.201632  9060 net.cpp:131] Top shape: 1 512 (512)
I0506 10:14:54.201634  9060 net.cpp:131] Top shape: 1 512 (512)
I0506 10:14:54.201637  9060 net.cpp:139] Memory required for data: 15609856
I0506 10:14:54.201639  9060 layer_factory.hpp:77] Creating layer cont_32_lstm1_cont_slice_31_split
I0506 10:14:54.201642  9060 net.cpp:86] Creating Layer cont_32_lstm1_cont_slice_31_split
I0506 10:14:54.201644  9060 net.cpp:408] cont_32_lstm1_cont_slice_31_split <- cont_32
I0506 10:14:54.201647  9060 net.cpp:382] cont_32_lstm1_cont_slice_31_split -> cont_32_lstm1_cont_slice_31_split_0
I0506 10:14:54.201650  9060 net.cpp:382] cont_32_lstm1_cont_slice_31_split -> cont_32_lstm1_cont_slice_31_split_1
I0506 10:14:54.201666  9060 net.cpp:124] Setting up cont_32_lstm1_cont_slice_31_split
I0506 10:14:54.201669  9060 net.cpp:131] Top shape: 1 512 (512)
I0506 10:14:54.201671  9060 net.cpp:131] Top shape: 1 512 (512)
I0506 10:14:54.201673  9060 net.cpp:139] Memory required for data: 15613952
I0506 10:14:54.201675  9060 layer_factory.hpp:77] Creating layer cont_33_lstm1_cont_slice_32_split
I0506 10:14:54.201678  9060 net.cpp:86] Creating Layer cont_33_lstm1_cont_slice_32_split
I0506 10:14:54.201680  9060 net.cpp:408] cont_33_lstm1_cont_slice_32_split <- cont_33
I0506 10:14:54.201684  9060 net.cpp:382] cont_33_lstm1_cont_slice_32_split -> cont_33_lstm1_cont_slice_32_split_0
I0506 10:14:54.201687  9060 net.cpp:382] cont_33_lstm1_cont_slice_32_split -> cont_33_lstm1_cont_slice_32_split_1
I0506 10:14:54.201704  9060 net.cpp:124] Setting up cont_33_lstm1_cont_slice_32_split
I0506 10:14:54.201706  9060 net.cpp:131] Top shape: 1 512 (512)
I0506 10:14:54.201709  9060 net.cpp:131] Top shape: 1 512 (512)
I0506 10:14:54.201711  9060 net.cpp:139] Memory required for data: 15618048
I0506 10:14:54.201714  9060 layer_factory.hpp:77] Creating layer cont_34_lstm1_cont_slice_33_split
I0506 10:14:54.201716  9060 net.cpp:86] Creating Layer cont_34_lstm1_cont_slice_33_split
I0506 10:14:54.201719  9060 net.cpp:408] cont_34_lstm1_cont_slice_33_split <- cont_34
I0506 10:14:54.201721  9060 net.cpp:382] cont_34_lstm1_cont_slice_33_split -> cont_34_lstm1_cont_slice_33_split_0
I0506 10:14:54.201725  9060 net.cpp:382] cont_34_lstm1_cont_slice_33_split -> cont_34_lstm1_cont_slice_33_split_1
I0506 10:14:54.201741  9060 net.cpp:124] Setting up cont_34_lstm1_cont_slice_33_split
I0506 10:14:54.201750  9060 net.cpp:131] Top shape: 1 512 (512)
I0506 10:14:54.201751  9060 net.cpp:131] Top shape: 1 512 (512)
I0506 10:14:54.201753  9060 net.cpp:139] Memory required for data: 15622144
I0506 10:14:54.201756  9060 layer_factory.hpp:77] Creating layer cont_35_lstm1_cont_slice_34_split
I0506 10:14:54.201758  9060 net.cpp:86] Creating Layer cont_35_lstm1_cont_slice_34_split
I0506 10:14:54.201761  9060 net.cpp:408] cont_35_lstm1_cont_slice_34_split <- cont_35
I0506 10:14:54.201764  9060 net.cpp:382] cont_35_lstm1_cont_slice_34_split -> cont_35_lstm1_cont_slice_34_split_0
I0506 10:14:54.201768  9060 net.cpp:382] cont_35_lstm1_cont_slice_34_split -> cont_35_lstm1_cont_slice_34_split_1
I0506 10:14:54.201786  9060 net.cpp:124] Setting up cont_35_lstm1_cont_slice_34_split
I0506 10:14:54.201788  9060 net.cpp:131] Top shape: 1 512 (512)
I0506 10:14:54.201792  9060 net.cpp:131] Top shape: 1 512 (512)
I0506 10:14:54.201793  9060 net.cpp:139] Memory required for data: 15626240
I0506 10:14:54.201795  9060 layer_factory.hpp:77] Creating layer cont_36_lstm1_cont_slice_35_split
I0506 10:14:54.201798  9060 net.cpp:86] Creating Layer cont_36_lstm1_cont_slice_35_split
I0506 10:14:54.201800  9060 net.cpp:408] cont_36_lstm1_cont_slice_35_split <- cont_36
I0506 10:14:54.201803  9060 net.cpp:382] cont_36_lstm1_cont_slice_35_split -> cont_36_lstm1_cont_slice_35_split_0
I0506 10:14:54.201807  9060 net.cpp:382] cont_36_lstm1_cont_slice_35_split -> cont_36_lstm1_cont_slice_35_split_1
I0506 10:14:54.201823  9060 net.cpp:124] Setting up cont_36_lstm1_cont_slice_35_split
I0506 10:14:54.201825  9060 net.cpp:131] Top shape: 1 512 (512)
I0506 10:14:54.201828  9060 net.cpp:131] Top shape: 1 512 (512)
I0506 10:14:54.201830  9060 net.cpp:139] Memory required for data: 15630336
I0506 10:14:54.201833  9060 layer_factory.hpp:77] Creating layer cont_37_lstm1_cont_slice_36_split
I0506 10:14:54.201835  9060 net.cpp:86] Creating Layer cont_37_lstm1_cont_slice_36_split
I0506 10:14:54.201838  9060 net.cpp:408] cont_37_lstm1_cont_slice_36_split <- cont_37
I0506 10:14:54.201840  9060 net.cpp:382] cont_37_lstm1_cont_slice_36_split -> cont_37_lstm1_cont_slice_36_split_0
I0506 10:14:54.201844  9060 net.cpp:382] cont_37_lstm1_cont_slice_36_split -> cont_37_lstm1_cont_slice_36_split_1
I0506 10:14:54.201860  9060 net.cpp:124] Setting up cont_37_lstm1_cont_slice_36_split
I0506 10:14:54.201862  9060 net.cpp:131] Top shape: 1 512 (512)
I0506 10:14:54.201865  9060 net.cpp:131] Top shape: 1 512 (512)
I0506 10:14:54.201867  9060 net.cpp:139] Memory required for data: 15634432
I0506 10:14:54.201869  9060 layer_factory.hpp:77] Creating layer cont_38_lstm1_cont_slice_37_split
I0506 10:14:54.201872  9060 net.cpp:86] Creating Layer cont_38_lstm1_cont_slice_37_split
I0506 10:14:54.201874  9060 net.cpp:408] cont_38_lstm1_cont_slice_37_split <- cont_38
I0506 10:14:54.201877  9060 net.cpp:382] cont_38_lstm1_cont_slice_37_split -> cont_38_lstm1_cont_slice_37_split_0
I0506 10:14:54.201880  9060 net.cpp:382] cont_38_lstm1_cont_slice_37_split -> cont_38_lstm1_cont_slice_37_split_1
I0506 10:14:54.201897  9060 net.cpp:124] Setting up cont_38_lstm1_cont_slice_37_split
I0506 10:14:54.201900  9060 net.cpp:131] Top shape: 1 512 (512)
I0506 10:14:54.201902  9060 net.cpp:131] Top shape: 1 512 (512)
I0506 10:14:54.201905  9060 net.cpp:139] Memory required for data: 15638528
I0506 10:14:54.201906  9060 layer_factory.hpp:77] Creating layer cont_39_lstm1_cont_slice_38_split
I0506 10:14:54.201910  9060 net.cpp:86] Creating Layer cont_39_lstm1_cont_slice_38_split
I0506 10:14:54.201911  9060 net.cpp:408] cont_39_lstm1_cont_slice_38_split <- cont_39
I0506 10:14:54.201915  9060 net.cpp:382] cont_39_lstm1_cont_slice_38_split -> cont_39_lstm1_cont_slice_38_split_0
I0506 10:14:54.201918  9060 net.cpp:382] cont_39_lstm1_cont_slice_38_split -> cont_39_lstm1_cont_slice_38_split_1
I0506 10:14:54.201934  9060 net.cpp:124] Setting up cont_39_lstm1_cont_slice_38_split
I0506 10:14:54.201937  9060 net.cpp:131] Top shape: 1 512 (512)
I0506 10:14:54.201939  9060 net.cpp:131] Top shape: 1 512 (512)
I0506 10:14:54.201947  9060 net.cpp:139] Memory required for data: 15642624
I0506 10:14:54.201949  9060 layer_factory.hpp:77] Creating layer cont_40_lstm1_cont_slice_39_split
I0506 10:14:54.201952  9060 net.cpp:86] Creating Layer cont_40_lstm1_cont_slice_39_split
I0506 10:14:54.201954  9060 net.cpp:408] cont_40_lstm1_cont_slice_39_split <- cont_40
I0506 10:14:54.201957  9060 net.cpp:382] cont_40_lstm1_cont_slice_39_split -> cont_40_lstm1_cont_slice_39_split_0
I0506 10:14:54.201961  9060 net.cpp:382] cont_40_lstm1_cont_slice_39_split -> cont_40_lstm1_cont_slice_39_split_1
I0506 10:14:54.201979  9060 net.cpp:124] Setting up cont_40_lstm1_cont_slice_39_split
I0506 10:14:54.201982  9060 net.cpp:131] Top shape: 1 512 (512)
I0506 10:14:54.201983  9060 net.cpp:131] Top shape: 1 512 (512)
I0506 10:14:54.201987  9060 net.cpp:139] Memory required for data: 15646720
I0506 10:14:54.201988  9060 layer_factory.hpp:77] Creating layer cont_41_lstm1_cont_slice_40_split
I0506 10:14:54.201992  9060 net.cpp:86] Creating Layer cont_41_lstm1_cont_slice_40_split
I0506 10:14:54.201993  9060 net.cpp:408] cont_41_lstm1_cont_slice_40_split <- cont_41
I0506 10:14:54.201997  9060 net.cpp:382] cont_41_lstm1_cont_slice_40_split -> cont_41_lstm1_cont_slice_40_split_0
I0506 10:14:54.201999  9060 net.cpp:382] cont_41_lstm1_cont_slice_40_split -> cont_41_lstm1_cont_slice_40_split_1
I0506 10:14:54.202016  9060 net.cpp:124] Setting up cont_41_lstm1_cont_slice_40_split
I0506 10:14:54.202019  9060 net.cpp:131] Top shape: 1 512 (512)
I0506 10:14:54.202021  9060 net.cpp:131] Top shape: 1 512 (512)
I0506 10:14:54.202023  9060 net.cpp:139] Memory required for data: 15650816
I0506 10:14:54.202025  9060 layer_factory.hpp:77] Creating layer cont_42_lstm1_cont_slice_41_split
I0506 10:14:54.202028  9060 net.cpp:86] Creating Layer cont_42_lstm1_cont_slice_41_split
I0506 10:14:54.202030  9060 net.cpp:408] cont_42_lstm1_cont_slice_41_split <- cont_42
I0506 10:14:54.202033  9060 net.cpp:382] cont_42_lstm1_cont_slice_41_split -> cont_42_lstm1_cont_slice_41_split_0
I0506 10:14:54.202037  9060 net.cpp:382] cont_42_lstm1_cont_slice_41_split -> cont_42_lstm1_cont_slice_41_split_1
I0506 10:14:54.202054  9060 net.cpp:124] Setting up cont_42_lstm1_cont_slice_41_split
I0506 10:14:54.202055  9060 net.cpp:131] Top shape: 1 512 (512)
I0506 10:14:54.202059  9060 net.cpp:131] Top shape: 1 512 (512)
I0506 10:14:54.202060  9060 net.cpp:139] Memory required for data: 15654912
I0506 10:14:54.202062  9060 layer_factory.hpp:77] Creating layer cont_43_lstm1_cont_slice_42_split
I0506 10:14:54.202065  9060 net.cpp:86] Creating Layer cont_43_lstm1_cont_slice_42_split
I0506 10:14:54.202067  9060 net.cpp:408] cont_43_lstm1_cont_slice_42_split <- cont_43
I0506 10:14:54.202070  9060 net.cpp:382] cont_43_lstm1_cont_slice_42_split -> cont_43_lstm1_cont_slice_42_split_0
I0506 10:14:54.202075  9060 net.cpp:382] cont_43_lstm1_cont_slice_42_split -> cont_43_lstm1_cont_slice_42_split_1
I0506 10:14:54.202090  9060 net.cpp:124] Setting up cont_43_lstm1_cont_slice_42_split
I0506 10:14:54.202092  9060 net.cpp:131] Top shape: 1 512 (512)
I0506 10:14:54.202095  9060 net.cpp:131] Top shape: 1 512 (512)
I0506 10:14:54.202097  9060 net.cpp:139] Memory required for data: 15659008
I0506 10:14:54.202100  9060 layer_factory.hpp:77] Creating layer cont_44_lstm1_cont_slice_43_split
I0506 10:14:54.202102  9060 net.cpp:86] Creating Layer cont_44_lstm1_cont_slice_43_split
I0506 10:14:54.202105  9060 net.cpp:408] cont_44_lstm1_cont_slice_43_split <- cont_44
I0506 10:14:54.202107  9060 net.cpp:382] cont_44_lstm1_cont_slice_43_split -> cont_44_lstm1_cont_slice_43_split_0
I0506 10:14:54.202111  9060 net.cpp:382] cont_44_lstm1_cont_slice_43_split -> cont_44_lstm1_cont_slice_43_split_1
I0506 10:14:54.202127  9060 net.cpp:124] Setting up cont_44_lstm1_cont_slice_43_split
I0506 10:14:54.202129  9060 net.cpp:131] Top shape: 1 512 (512)
I0506 10:14:54.202131  9060 net.cpp:131] Top shape: 1 512 (512)
I0506 10:14:54.202134  9060 net.cpp:139] Memory required for data: 15663104
I0506 10:14:54.202136  9060 layer_factory.hpp:77] Creating layer cont_45_lstm1_cont_slice_44_split
I0506 10:14:54.202144  9060 net.cpp:86] Creating Layer cont_45_lstm1_cont_slice_44_split
I0506 10:14:54.202147  9060 net.cpp:408] cont_45_lstm1_cont_slice_44_split <- cont_45
I0506 10:14:54.202149  9060 net.cpp:382] cont_45_lstm1_cont_slice_44_split -> cont_45_lstm1_cont_slice_44_split_0
I0506 10:14:54.202153  9060 net.cpp:382] cont_45_lstm1_cont_slice_44_split -> cont_45_lstm1_cont_slice_44_split_1
I0506 10:14:54.202172  9060 net.cpp:124] Setting up cont_45_lstm1_cont_slice_44_split
I0506 10:14:54.202173  9060 net.cpp:131] Top shape: 1 512 (512)
I0506 10:14:54.202177  9060 net.cpp:131] Top shape: 1 512 (512)
I0506 10:14:54.202178  9060 net.cpp:139] Memory required for data: 15667200
I0506 10:14:54.202180  9060 layer_factory.hpp:77] Creating layer cont_46_lstm1_cont_slice_45_split
I0506 10:14:54.202183  9060 net.cpp:86] Creating Layer cont_46_lstm1_cont_slice_45_split
I0506 10:14:54.202185  9060 net.cpp:408] cont_46_lstm1_cont_slice_45_split <- cont_46
I0506 10:14:54.202189  9060 net.cpp:382] cont_46_lstm1_cont_slice_45_split -> cont_46_lstm1_cont_slice_45_split_0
I0506 10:14:54.202193  9060 net.cpp:382] cont_46_lstm1_cont_slice_45_split -> cont_46_lstm1_cont_slice_45_split_1
I0506 10:14:54.202210  9060 net.cpp:124] Setting up cont_46_lstm1_cont_slice_45_split
I0506 10:14:54.202212  9060 net.cpp:131] Top shape: 1 512 (512)
I0506 10:14:54.202214  9060 net.cpp:131] Top shape: 1 512 (512)
I0506 10:14:54.202216  9060 net.cpp:139] Memory required for data: 15671296
I0506 10:14:54.202219  9060 layer_factory.hpp:77] Creating layer cont_47_lstm1_cont_slice_46_split
I0506 10:14:54.202221  9060 net.cpp:86] Creating Layer cont_47_lstm1_cont_slice_46_split
I0506 10:14:54.202224  9060 net.cpp:408] cont_47_lstm1_cont_slice_46_split <- cont_47
I0506 10:14:54.202227  9060 net.cpp:382] cont_47_lstm1_cont_slice_46_split -> cont_47_lstm1_cont_slice_46_split_0
I0506 10:14:54.202230  9060 net.cpp:382] cont_47_lstm1_cont_slice_46_split -> cont_47_lstm1_cont_slice_46_split_1
I0506 10:14:54.202246  9060 net.cpp:124] Setting up cont_47_lstm1_cont_slice_46_split
I0506 10:14:54.202250  9060 net.cpp:131] Top shape: 1 512 (512)
I0506 10:14:54.202251  9060 net.cpp:131] Top shape: 1 512 (512)
I0506 10:14:54.202253  9060 net.cpp:139] Memory required for data: 15675392
I0506 10:14:54.202255  9060 layer_factory.hpp:77] Creating layer cont_48_lstm1_cont_slice_47_split
I0506 10:14:54.202258  9060 net.cpp:86] Creating Layer cont_48_lstm1_cont_slice_47_split
I0506 10:14:54.202260  9060 net.cpp:408] cont_48_lstm1_cont_slice_47_split <- cont_48
I0506 10:14:54.202263  9060 net.cpp:382] cont_48_lstm1_cont_slice_47_split -> cont_48_lstm1_cont_slice_47_split_0
I0506 10:14:54.202267  9060 net.cpp:382] cont_48_lstm1_cont_slice_47_split -> cont_48_lstm1_cont_slice_47_split_1
I0506 10:14:54.202283  9060 net.cpp:124] Setting up cont_48_lstm1_cont_slice_47_split
I0506 10:14:54.202286  9060 net.cpp:131] Top shape: 1 512 (512)
I0506 10:14:54.202288  9060 net.cpp:131] Top shape: 1 512 (512)
I0506 10:14:54.202291  9060 net.cpp:139] Memory required for data: 15679488
I0506 10:14:54.202292  9060 layer_factory.hpp:77] Creating layer cont_49_lstm1_cont_slice_48_split
I0506 10:14:54.202296  9060 net.cpp:86] Creating Layer cont_49_lstm1_cont_slice_48_split
I0506 10:14:54.202297  9060 net.cpp:408] cont_49_lstm1_cont_slice_48_split <- cont_49
I0506 10:14:54.202301  9060 net.cpp:382] cont_49_lstm1_cont_slice_48_split -> cont_49_lstm1_cont_slice_48_split_0
I0506 10:14:54.202303  9060 net.cpp:382] cont_49_lstm1_cont_slice_48_split -> cont_49_lstm1_cont_slice_48_split_1
I0506 10:14:54.202320  9060 net.cpp:124] Setting up cont_49_lstm1_cont_slice_48_split
I0506 10:14:54.202322  9060 net.cpp:131] Top shape: 1 512 (512)
I0506 10:14:54.202325  9060 net.cpp:131] Top shape: 1 512 (512)
I0506 10:14:54.202327  9060 net.cpp:139] Memory required for data: 15683584
I0506 10:14:54.202329  9060 layer_factory.hpp:77] Creating layer cont_50_lstm1_cont_slice_49_split
I0506 10:14:54.202332  9060 net.cpp:86] Creating Layer cont_50_lstm1_cont_slice_49_split
I0506 10:14:54.202334  9060 net.cpp:408] cont_50_lstm1_cont_slice_49_split <- cont_50
I0506 10:14:54.202343  9060 net.cpp:382] cont_50_lstm1_cont_slice_49_split -> cont_50_lstm1_cont_slice_49_split_0
I0506 10:14:54.202347  9060 net.cpp:382] cont_50_lstm1_cont_slice_49_split -> cont_50_lstm1_cont_slice_49_split_1
I0506 10:14:54.202366  9060 net.cpp:124] Setting up cont_50_lstm1_cont_slice_49_split
I0506 10:14:54.202368  9060 net.cpp:131] Top shape: 1 512 (512)
I0506 10:14:54.202371  9060 net.cpp:131] Top shape: 1 512 (512)
I0506 10:14:54.202373  9060 net.cpp:139] Memory required for data: 15687680
I0506 10:14:54.202375  9060 layer_factory.hpp:77] Creating layer cont_51_lstm1_cont_slice_50_split
I0506 10:14:54.354707  9060 net.cpp:86] Creating Layer cont_51_lstm1_cont_slice_50_split
I0506 10:14:54.354728  9060 net.cpp:408] cont_51_lstm1_cont_slice_50_split <- cont_51
I0506 10:14:54.354739  9060 net.cpp:382] cont_51_lstm1_cont_slice_50_split -> cont_51_lstm1_cont_slice_50_split_0
I0506 10:14:54.354750  9060 net.cpp:382] cont_51_lstm1_cont_slice_50_split -> cont_51_lstm1_cont_slice_50_split_1
I0506 10:14:54.354835  9060 net.cpp:124] Setting up cont_51_lstm1_cont_slice_50_split
I0506 10:14:54.354840  9060 net.cpp:131] Top shape: 1 512 (512)
I0506 10:14:54.354846  9060 net.cpp:131] Top shape: 1 512 (512)
I0506 10:14:54.354849  9060 net.cpp:139] Memory required for data: 15691776
I0506 10:14:54.354854  9060 layer_factory.hpp:77] Creating layer cont_52_lstm1_cont_slice_51_split
I0506 10:14:54.354859  9060 net.cpp:86] Creating Layer cont_52_lstm1_cont_slice_51_split
I0506 10:14:54.354863  9060 net.cpp:408] cont_52_lstm1_cont_slice_51_split <- cont_52
I0506 10:14:54.354867  9060 net.cpp:382] cont_52_lstm1_cont_slice_51_split -> cont_52_lstm1_cont_slice_51_split_0
I0506 10:14:54.354873  9060 net.cpp:382] cont_52_lstm1_cont_slice_51_split -> cont_52_lstm1_cont_slice_51_split_1
I0506 10:14:54.354903  9060 net.cpp:124] Setting up cont_52_lstm1_cont_slice_51_split
I0506 10:14:54.354907  9060 net.cpp:131] Top shape: 1 512 (512)
I0506 10:14:54.354910  9060 net.cpp:131] Top shape: 1 512 (512)
I0506 10:14:54.354914  9060 net.cpp:139] Memory required for data: 15695872
I0506 10:14:54.354918  9060 layer_factory.hpp:77] Creating layer cont_53_lstm1_cont_slice_52_split
I0506 10:14:54.354921  9060 net.cpp:86] Creating Layer cont_53_lstm1_cont_slice_52_split
I0506 10:14:54.354925  9060 net.cpp:408] cont_53_lstm1_cont_slice_52_split <- cont_53
I0506 10:14:54.354930  9060 net.cpp:382] cont_53_lstm1_cont_slice_52_split -> cont_53_lstm1_cont_slice_52_split_0
I0506 10:14:54.354935  9060 net.cpp:382] cont_53_lstm1_cont_slice_52_split -> cont_53_lstm1_cont_slice_52_split_1
I0506 10:14:54.354964  9060 net.cpp:124] Setting up cont_53_lstm1_cont_slice_52_split
I0506 10:14:54.354967  9060 net.cpp:131] Top shape: 1 512 (512)
I0506 10:14:54.354971  9060 net.cpp:131] Top shape: 1 512 (512)
I0506 10:14:54.354975  9060 net.cpp:139] Memory required for data: 15699968
I0506 10:14:54.354977  9060 layer_factory.hpp:77] Creating layer cont_54_lstm1_cont_slice_53_split
I0506 10:14:54.354984  9060 net.cpp:86] Creating Layer cont_54_lstm1_cont_slice_53_split
I0506 10:14:54.354986  9060 net.cpp:408] cont_54_lstm1_cont_slice_53_split <- cont_54
I0506 10:14:54.354991  9060 net.cpp:382] cont_54_lstm1_cont_slice_53_split -> cont_54_lstm1_cont_slice_53_split_0
I0506 10:14:54.354997  9060 net.cpp:382] cont_54_lstm1_cont_slice_53_split -> cont_54_lstm1_cont_slice_53_split_1
I0506 10:14:54.355024  9060 net.cpp:124] Setting up cont_54_lstm1_cont_slice_53_split
I0506 10:14:54.355028  9060 net.cpp:131] Top shape: 1 512 (512)
I0506 10:14:54.355032  9060 net.cpp:131] Top shape: 1 512 (512)
I0506 10:14:54.355036  9060 net.cpp:139] Memory required for data: 15704064
I0506 10:14:54.355038  9060 layer_factory.hpp:77] Creating layer cont_55_lstm1_cont_slice_54_split
I0506 10:14:54.355042  9060 net.cpp:86] Creating Layer cont_55_lstm1_cont_slice_54_split
I0506 10:14:54.355046  9060 net.cpp:408] cont_55_lstm1_cont_slice_54_split <- cont_55
I0506 10:14:54.355051  9060 net.cpp:382] cont_55_lstm1_cont_slice_54_split -> cont_55_lstm1_cont_slice_54_split_0
I0506 10:14:54.355079  9060 net.cpp:382] cont_55_lstm1_cont_slice_54_split -> cont_55_lstm1_cont_slice_54_split_1
I0506 10:14:54.355113  9060 net.cpp:124] Setting up cont_55_lstm1_cont_slice_54_split
I0506 10:14:54.355118  9060 net.cpp:131] Top shape: 1 512 (512)
I0506 10:14:54.355121  9060 net.cpp:131] Top shape: 1 512 (512)
I0506 10:14:54.355125  9060 net.cpp:139] Memory required for data: 15708160
I0506 10:14:54.355127  9060 layer_factory.hpp:77] Creating layer cont_56_lstm1_cont_slice_55_split
I0506 10:14:54.355131  9060 net.cpp:86] Creating Layer cont_56_lstm1_cont_slice_55_split
I0506 10:14:54.355134  9060 net.cpp:408] cont_56_lstm1_cont_slice_55_split <- cont_56
I0506 10:14:54.355137  9060 net.cpp:382] cont_56_lstm1_cont_slice_55_split -> cont_56_lstm1_cont_slice_55_split_0
I0506 10:14:54.355141  9060 net.cpp:382] cont_56_lstm1_cont_slice_55_split -> cont_56_lstm1_cont_slice_55_split_1
I0506 10:14:54.355160  9060 net.cpp:124] Setting up cont_56_lstm1_cont_slice_55_split
I0506 10:14:54.355163  9060 net.cpp:131] Top shape: 1 512 (512)
I0506 10:14:54.355165  9060 net.cpp:131] Top shape: 1 512 (512)
I0506 10:14:54.355167  9060 net.cpp:139] Memory required for data: 15712256
I0506 10:14:54.355170  9060 layer_factory.hpp:77] Creating layer cont_57_lstm1_cont_slice_56_split
I0506 10:14:54.355172  9060 net.cpp:86] Creating Layer cont_57_lstm1_cont_slice_56_split
I0506 10:14:54.355175  9060 net.cpp:408] cont_57_lstm1_cont_slice_56_split <- cont_57
I0506 10:14:54.355180  9060 net.cpp:382] cont_57_lstm1_cont_slice_56_split -> cont_57_lstm1_cont_slice_56_split_0
I0506 10:14:54.355182  9060 net.cpp:382] cont_57_lstm1_cont_slice_56_split -> cont_57_lstm1_cont_slice_56_split_1
I0506 10:14:54.355199  9060 net.cpp:124] Setting up cont_57_lstm1_cont_slice_56_split
I0506 10:14:54.355202  9060 net.cpp:131] Top shape: 1 512 (512)
I0506 10:14:54.355204  9060 net.cpp:131] Top shape: 1 512 (512)
I0506 10:14:54.355206  9060 net.cpp:139] Memory required for data: 15716352
I0506 10:14:54.355208  9060 layer_factory.hpp:77] Creating layer cont_58_lstm1_cont_slice_57_split
I0506 10:14:54.355212  9060 net.cpp:86] Creating Layer cont_58_lstm1_cont_slice_57_split
I0506 10:14:54.355214  9060 net.cpp:408] cont_58_lstm1_cont_slice_57_split <- cont_58
I0506 10:14:54.355218  9060 net.cpp:382] cont_58_lstm1_cont_slice_57_split -> cont_58_lstm1_cont_slice_57_split_0
I0506 10:14:54.355222  9060 net.cpp:382] cont_58_lstm1_cont_slice_57_split -> cont_58_lstm1_cont_slice_57_split_1
I0506 10:14:54.355239  9060 net.cpp:124] Setting up cont_58_lstm1_cont_slice_57_split
I0506 10:14:54.355242  9060 net.cpp:131] Top shape: 1 512 (512)
I0506 10:14:54.355243  9060 net.cpp:131] Top shape: 1 512 (512)
I0506 10:14:54.355247  9060 net.cpp:139] Memory required for data: 15720448
I0506 10:14:54.355248  9060 layer_factory.hpp:77] Creating layer cont_59_lstm1_cont_slice_58_split
I0506 10:14:54.355252  9060 net.cpp:86] Creating Layer cont_59_lstm1_cont_slice_58_split
I0506 10:14:54.355253  9060 net.cpp:408] cont_59_lstm1_cont_slice_58_split <- cont_59
I0506 10:14:54.355257  9060 net.cpp:382] cont_59_lstm1_cont_slice_58_split -> cont_59_lstm1_cont_slice_58_split_0
I0506 10:14:54.355260  9060 net.cpp:382] cont_59_lstm1_cont_slice_58_split -> cont_59_lstm1_cont_slice_58_split_1
I0506 10:14:54.355278  9060 net.cpp:124] Setting up cont_59_lstm1_cont_slice_58_split
I0506 10:14:54.355279  9060 net.cpp:131] Top shape: 1 512 (512)
I0506 10:14:54.355283  9060 net.cpp:131] Top shape: 1 512 (512)
I0506 10:14:54.355284  9060 net.cpp:139] Memory required for data: 15724544
I0506 10:14:54.355286  9060 layer_factory.hpp:77] Creating layer cont_60_lstm1_cont_slice_59_split
I0506 10:14:54.355289  9060 net.cpp:86] Creating Layer cont_60_lstm1_cont_slice_59_split
I0506 10:14:54.355291  9060 net.cpp:408] cont_60_lstm1_cont_slice_59_split <- cont_60
I0506 10:14:54.355294  9060 net.cpp:382] cont_60_lstm1_cont_slice_59_split -> cont_60_lstm1_cont_slice_59_split_0
I0506 10:14:54.355298  9060 net.cpp:382] cont_60_lstm1_cont_slice_59_split -> cont_60_lstm1_cont_slice_59_split_1
I0506 10:14:54.355324  9060 net.cpp:124] Setting up cont_60_lstm1_cont_slice_59_split
I0506 10:14:54.355326  9060 net.cpp:131] Top shape: 1 512 (512)
I0506 10:14:54.355329  9060 net.cpp:131] Top shape: 1 512 (512)
I0506 10:14:54.355330  9060 net.cpp:139] Memory required for data: 15728640
I0506 10:14:54.355332  9060 layer_factory.hpp:77] Creating layer cont_61_lstm1_cont_slice_60_split
I0506 10:14:54.355336  9060 net.cpp:86] Creating Layer cont_61_lstm1_cont_slice_60_split
I0506 10:14:54.355338  9060 net.cpp:408] cont_61_lstm1_cont_slice_60_split <- cont_61
I0506 10:14:54.367657  9060 net.cpp:382] cont_61_lstm1_cont_slice_60_split -> cont_61_lstm1_cont_slice_60_split_0
I0506 10:14:54.367688  9060 net.cpp:382] cont_61_lstm1_cont_slice_60_split -> cont_61_lstm1_cont_slice_60_split_1
I0506 10:14:54.367792  9060 net.cpp:124] Setting up cont_61_lstm1_cont_slice_60_split
I0506 10:14:54.367799  9060 net.cpp:131] Top shape: 1 512 (512)
I0506 10:14:54.367805  9060 net.cpp:131] Top shape: 1 512 (512)
I0506 10:14:54.367808  9060 net.cpp:139] Memory required for data: 15732736
I0506 10:14:54.367812  9060 layer_factory.hpp:77] Creating layer cont_62_lstm1_cont_slice_61_split
I0506 10:14:54.367823  9060 net.cpp:86] Creating Layer cont_62_lstm1_cont_slice_61_split
I0506 10:14:54.367828  9060 net.cpp:408] cont_62_lstm1_cont_slice_61_split <- cont_62
I0506 10:14:54.367836  9060 net.cpp:382] cont_62_lstm1_cont_slice_61_split -> cont_62_lstm1_cont_slice_61_split_0
I0506 10:14:54.367844  9060 net.cpp:382] cont_62_lstm1_cont_slice_61_split -> cont_62_lstm1_cont_slice_61_split_1
I0506 10:14:54.367887  9060 net.cpp:124] Setting up cont_62_lstm1_cont_slice_61_split
I0506 10:14:54.367892  9060 net.cpp:131] Top shape: 1 512 (512)
I0506 10:14:54.367897  9060 net.cpp:131] Top shape: 1 512 (512)
I0506 10:14:54.367899  9060 net.cpp:139] Memory required for data: 15736832
I0506 10:14:54.367903  9060 layer_factory.hpp:77] Creating layer cont_63_lstm1_cont_slice_62_split
I0506 10:14:54.367910  9060 net.cpp:86] Creating Layer cont_63_lstm1_cont_slice_62_split
I0506 10:14:54.367913  9060 net.cpp:408] cont_63_lstm1_cont_slice_62_split <- cont_63
I0506 10:14:54.367920  9060 net.cpp:382] cont_63_lstm1_cont_slice_62_split -> cont_63_lstm1_cont_slice_62_split_0
I0506 10:14:54.367926  9060 net.cpp:382] cont_63_lstm1_cont_slice_62_split -> cont_63_lstm1_cont_slice_62_split_1
I0506 10:14:54.367964  9060 net.cpp:124] Setting up cont_63_lstm1_cont_slice_62_split
I0506 10:14:54.367969  9060 net.cpp:131] Top shape: 1 512 (512)
I0506 10:14:54.367972  9060 net.cpp:131] Top shape: 1 512 (512)
I0506 10:14:54.367976  9060 net.cpp:139] Memory required for data: 15740928
I0506 10:14:54.367980  9060 layer_factory.hpp:77] Creating layer cont_64_lstm1_cont_slice_63_split
I0506 10:14:54.367986  9060 net.cpp:86] Creating Layer cont_64_lstm1_cont_slice_63_split
I0506 10:14:54.367990  9060 net.cpp:408] cont_64_lstm1_cont_slice_63_split <- cont_64
I0506 10:14:54.367996  9060 net.cpp:382] cont_64_lstm1_cont_slice_63_split -> cont_64_lstm1_cont_slice_63_split_0
I0506 10:14:54.368001  9060 net.cpp:382] cont_64_lstm1_cont_slice_63_split -> cont_64_lstm1_cont_slice_63_split_1
I0506 10:14:54.368038  9060 net.cpp:124] Setting up cont_64_lstm1_cont_slice_63_split
I0506 10:14:54.368041  9060 net.cpp:131] Top shape: 1 512 (512)
I0506 10:14:54.368046  9060 net.cpp:131] Top shape: 1 512 (512)
I0506 10:14:54.368050  9060 net.cpp:139] Memory required for data: 15745024
I0506 10:14:54.368053  9060 layer_factory.hpp:77] Creating layer cont_65_lstm1_cont_slice_64_split
I0506 10:14:54.368059  9060 net.cpp:86] Creating Layer cont_65_lstm1_cont_slice_64_split
I0506 10:14:54.368063  9060 net.cpp:408] cont_65_lstm1_cont_slice_64_split <- cont_65
I0506 10:14:54.368069  9060 net.cpp:382] cont_65_lstm1_cont_slice_64_split -> cont_65_lstm1_cont_slice_64_split_0
I0506 10:14:54.368074  9060 net.cpp:382] cont_65_lstm1_cont_slice_64_split -> cont_65_lstm1_cont_slice_64_split_1
I0506 10:14:54.368111  9060 net.cpp:124] Setting up cont_65_lstm1_cont_slice_64_split
I0506 10:14:54.368115  9060 net.cpp:131] Top shape: 1 512 (512)
I0506 10:14:54.368141  9060 net.cpp:131] Top shape: 1 512 (512)
I0506 10:14:54.368146  9060 net.cpp:139] Memory required for data: 15749120
I0506 10:14:54.368150  9060 layer_factory.hpp:77] Creating layer cont_66_lstm1_cont_slice_65_split
I0506 10:14:54.368155  9060 net.cpp:86] Creating Layer cont_66_lstm1_cont_slice_65_split
I0506 10:14:54.368160  9060 net.cpp:408] cont_66_lstm1_cont_slice_65_split <- cont_66
I0506 10:14:54.368165  9060 net.cpp:382] cont_66_lstm1_cont_slice_65_split -> cont_66_lstm1_cont_slice_65_split_0
I0506 10:14:54.368172  9060 net.cpp:382] cont_66_lstm1_cont_slice_65_split -> cont_66_lstm1_cont_slice_65_split_1
I0506 10:14:54.368207  9060 net.cpp:124] Setting up cont_66_lstm1_cont_slice_65_split
I0506 10:14:54.368211  9060 net.cpp:131] Top shape: 1 512 (512)
I0506 10:14:54.368216  9060 net.cpp:131] Top shape: 1 512 (512)
I0506 10:14:54.368218  9060 net.cpp:139] Memory required for data: 15753216
I0506 10:14:54.368222  9060 layer_factory.hpp:77] Creating layer cont_67_lstm1_cont_slice_66_split
I0506 10:14:54.368228  9060 net.cpp:86] Creating Layer cont_67_lstm1_cont_slice_66_split
I0506 10:14:54.368232  9060 net.cpp:408] cont_67_lstm1_cont_slice_66_split <- cont_67
I0506 10:14:54.368238  9060 net.cpp:382] cont_67_lstm1_cont_slice_66_split -> cont_67_lstm1_cont_slice_66_split_0
I0506 10:14:54.368245  9060 net.cpp:382] cont_67_lstm1_cont_slice_66_split -> cont_67_lstm1_cont_slice_66_split_1
I0506 10:14:54.368278  9060 net.cpp:124] Setting up cont_67_lstm1_cont_slice_66_split
I0506 10:14:54.368281  9060 net.cpp:131] Top shape: 1 512 (512)
I0506 10:14:54.368284  9060 net.cpp:131] Top shape: 1 512 (512)
I0506 10:14:54.368288  9060 net.cpp:139] Memory required for data: 15757312
I0506 10:14:54.368293  9060 layer_factory.hpp:77] Creating layer cont_68_lstm1_cont_slice_67_split
I0506 10:14:54.368297  9060 net.cpp:86] Creating Layer cont_68_lstm1_cont_slice_67_split
I0506 10:14:54.368300  9060 net.cpp:408] cont_68_lstm1_cont_slice_67_split <- cont_68
I0506 10:14:54.368305  9060 net.cpp:382] cont_68_lstm1_cont_slice_67_split -> cont_68_lstm1_cont_slice_67_split_0
I0506 10:14:54.368311  9060 net.cpp:382] cont_68_lstm1_cont_slice_67_split -> cont_68_lstm1_cont_slice_67_split_1
I0506 10:14:54.368346  9060 net.cpp:124] Setting up cont_68_lstm1_cont_slice_67_split
I0506 10:14:54.368350  9060 net.cpp:131] Top shape: 1 512 (512)
I0506 10:14:54.368355  9060 net.cpp:131] Top shape: 1 512 (512)
I0506 10:14:54.368358  9060 net.cpp:139] Memory required for data: 15761408
I0506 10:14:54.368362  9060 layer_factory.hpp:77] Creating layer cont_69_lstm1_cont_slice_68_split
I0506 10:14:54.368367  9060 net.cpp:86] Creating Layer cont_69_lstm1_cont_slice_68_split
I0506 10:14:54.368371  9060 net.cpp:408] cont_69_lstm1_cont_slice_68_split <- cont_69
I0506 10:14:54.368376  9060 net.cpp:382] cont_69_lstm1_cont_slice_68_split -> cont_69_lstm1_cont_slice_68_split_0
I0506 10:14:54.368381  9060 net.cpp:382] cont_69_lstm1_cont_slice_68_split -> cont_69_lstm1_cont_slice_68_split_1
I0506 10:14:54.368415  9060 net.cpp:124] Setting up cont_69_lstm1_cont_slice_68_split
I0506 10:14:54.368419  9060 net.cpp:131] Top shape: 1 512 (512)
I0506 10:14:54.368423  9060 net.cpp:131] Top shape: 1 512 (512)
I0506 10:14:54.368428  9060 net.cpp:139] Memory required for data: 15765504
I0506 10:14:54.368432  9060 layer_factory.hpp:77] Creating layer cont_70_lstm1_cont_slice_69_split
I0506 10:14:54.368436  9060 net.cpp:86] Creating Layer cont_70_lstm1_cont_slice_69_split
I0506 10:14:54.368439  9060 net.cpp:408] cont_70_lstm1_cont_slice_69_split <- cont_70
I0506 10:14:54.368445  9060 net.cpp:382] cont_70_lstm1_cont_slice_69_split -> cont_70_lstm1_cont_slice_69_split_0
I0506 10:14:54.368450  9060 net.cpp:382] cont_70_lstm1_cont_slice_69_split -> cont_70_lstm1_cont_slice_69_split_1
I0506 10:14:54.368484  9060 net.cpp:124] Setting up cont_70_lstm1_cont_slice_69_split
I0506 10:14:54.368489  9060 net.cpp:131] Top shape: 1 512 (512)
I0506 10:14:54.368492  9060 net.cpp:131] Top shape: 1 512 (512)
I0506 10:14:54.368496  9060 net.cpp:139] Memory required for data: 15769600
I0506 10:14:54.368510  9060 layer_factory.hpp:77] Creating layer cont_71_lstm1_cont_slice_70_split
I0506 10:14:54.368515  9060 net.cpp:86] Creating Layer cont_71_lstm1_cont_slice_70_split
I0506 10:14:54.368520  9060 net.cpp:408] cont_71_lstm1_cont_slice_70_split <- cont_71
I0506 10:14:54.368525  9060 net.cpp:382] cont_71_lstm1_cont_slice_70_split -> cont_71_lstm1_cont_slice_70_split_0
I0506 10:14:54.368530  9060 net.cpp:382] cont_71_lstm1_cont_slice_70_split -> cont_71_lstm1_cont_slice_70_split_1
I0506 10:14:54.422047  9060 net.cpp:124] Setting up cont_71_lstm1_cont_slice_70_split
I0506 10:14:54.422070  9060 net.cpp:131] Top shape: 1 512 (512)
I0506 10:14:54.422078  9060 net.cpp:131] Top shape: 1 512 (512)
I0506 10:14:54.422081  9060 net.cpp:139] Memory required for data: 15773696
I0506 10:14:54.422086  9060 layer_factory.hpp:77] Creating layer cont_72_lstm1_cont_slice_71_split
I0506 10:14:54.422099  9060 net.cpp:86] Creating Layer cont_72_lstm1_cont_slice_71_split
I0506 10:14:54.422103  9060 net.cpp:408] cont_72_lstm1_cont_slice_71_split <- cont_72
I0506 10:14:54.422111  9060 net.cpp:382] cont_72_lstm1_cont_slice_71_split -> cont_72_lstm1_cont_slice_71_split_0
I0506 10:14:54.422117  9060 net.cpp:382] cont_72_lstm1_cont_slice_71_split -> cont_72_lstm1_cont_slice_71_split_1
I0506 10:14:54.422148  9060 net.cpp:124] Setting up cont_72_lstm1_cont_slice_71_split
I0506 10:14:54.422152  9060 net.cpp:131] Top shape: 1 512 (512)
I0506 10:14:54.422156  9060 net.cpp:131] Top shape: 1 512 (512)
I0506 10:14:54.422159  9060 net.cpp:139] Memory required for data: 15777792
I0506 10:14:54.422163  9060 layer_factory.hpp:77] Creating layer cont_73_lstm1_cont_slice_72_split
I0506 10:14:54.422168  9060 net.cpp:86] Creating Layer cont_73_lstm1_cont_slice_72_split
I0506 10:14:54.422171  9060 net.cpp:408] cont_73_lstm1_cont_slice_72_split <- cont_73
I0506 10:14:54.422176  9060 net.cpp:382] cont_73_lstm1_cont_slice_72_split -> cont_73_lstm1_cont_slice_72_split_0
I0506 10:14:54.422183  9060 net.cpp:382] cont_73_lstm1_cont_slice_72_split -> cont_73_lstm1_cont_slice_72_split_1
I0506 10:14:54.422211  9060 net.cpp:124] Setting up cont_73_lstm1_cont_slice_72_split
I0506 10:14:54.422215  9060 net.cpp:131] Top shape: 1 512 (512)
I0506 10:14:54.422219  9060 net.cpp:131] Top shape: 1 512 (512)
I0506 10:14:54.422222  9060 net.cpp:139] Memory required for data: 15781888
I0506 10:14:54.422225  9060 layer_factory.hpp:77] Creating layer cont_74_lstm1_cont_slice_73_split
I0506 10:14:54.422230  9060 net.cpp:86] Creating Layer cont_74_lstm1_cont_slice_73_split
I0506 10:14:54.422233  9060 net.cpp:408] cont_74_lstm1_cont_slice_73_split <- cont_74
I0506 10:14:54.422238  9060 net.cpp:382] cont_74_lstm1_cont_slice_73_split -> cont_74_lstm1_cont_slice_73_split_0
I0506 10:14:54.422243  9060 net.cpp:382] cont_74_lstm1_cont_slice_73_split -> cont_74_lstm1_cont_slice_73_split_1
I0506 10:14:54.422283  9060 net.cpp:124] Setting up cont_74_lstm1_cont_slice_73_split
I0506 10:14:54.422289  9060 net.cpp:131] Top shape: 1 512 (512)
I0506 10:14:54.422294  9060 net.cpp:131] Top shape: 1 512 (512)
I0506 10:14:54.422299  9060 net.cpp:139] Memory required for data: 15785984
I0506 10:14:54.422303  9060 layer_factory.hpp:77] Creating layer cont_75_lstm1_cont_slice_74_split
I0506 10:14:54.422309  9060 net.cpp:86] Creating Layer cont_75_lstm1_cont_slice_74_split
I0506 10:14:54.422314  9060 net.cpp:408] cont_75_lstm1_cont_slice_74_split <- cont_75
I0506 10:14:54.422320  9060 net.cpp:382] cont_75_lstm1_cont_slice_74_split -> cont_75_lstm1_cont_slice_74_split_0
I0506 10:14:54.422327  9060 net.cpp:382] cont_75_lstm1_cont_slice_74_split -> cont_75_lstm1_cont_slice_74_split_1
I0506 10:14:54.422364  9060 net.cpp:124] Setting up cont_75_lstm1_cont_slice_74_split
I0506 10:14:54.422370  9060 net.cpp:131] Top shape: 1 512 (512)
I0506 10:14:54.422375  9060 net.cpp:131] Top shape: 1 512 (512)
I0506 10:14:54.422379  9060 net.cpp:139] Memory required for data: 15790080
I0506 10:14:54.422384  9060 layer_factory.hpp:77] Creating layer cont_76_lstm1_cont_slice_75_split
I0506 10:14:54.422413  9060 net.cpp:86] Creating Layer cont_76_lstm1_cont_slice_75_split
I0506 10:14:54.422418  9060 net.cpp:408] cont_76_lstm1_cont_slice_75_split <- cont_76
I0506 10:14:54.422425  9060 net.cpp:382] cont_76_lstm1_cont_slice_75_split -> cont_76_lstm1_cont_slice_75_split_0
I0506 10:14:54.422433  9060 net.cpp:382] cont_76_lstm1_cont_slice_75_split -> cont_76_lstm1_cont_slice_75_split_1
I0506 10:14:54.422472  9060 net.cpp:124] Setting up cont_76_lstm1_cont_slice_75_split
I0506 10:14:54.422477  9060 net.cpp:131] Top shape: 1 512 (512)
I0506 10:14:54.422482  9060 net.cpp:131] Top shape: 1 512 (512)
I0506 10:14:54.422487  9060 net.cpp:139] Memory required for data: 15794176
I0506 10:14:54.422492  9060 layer_factory.hpp:77] Creating layer cont_77_lstm1_cont_slice_76_split
I0506 10:14:54.422497  9060 net.cpp:86] Creating Layer cont_77_lstm1_cont_slice_76_split
I0506 10:14:54.422502  9060 net.cpp:408] cont_77_lstm1_cont_slice_76_split <- cont_77
I0506 10:14:54.422508  9060 net.cpp:382] cont_77_lstm1_cont_slice_76_split -> cont_77_lstm1_cont_slice_76_split_0
I0506 10:14:54.422515  9060 net.cpp:382] cont_77_lstm1_cont_slice_76_split -> cont_77_lstm1_cont_slice_76_split_1
I0506 10:14:54.422551  9060 net.cpp:124] Setting up cont_77_lstm1_cont_slice_76_split
I0506 10:14:54.422556  9060 net.cpp:131] Top shape: 1 512 (512)
I0506 10:14:54.422561  9060 net.cpp:131] Top shape: 1 512 (512)
I0506 10:14:54.422565  9060 net.cpp:139] Memory required for data: 15798272
I0506 10:14:54.422569  9060 layer_factory.hpp:77] Creating layer cont_78_lstm1_cont_slice_77_split
I0506 10:14:54.422575  9060 net.cpp:86] Creating Layer cont_78_lstm1_cont_slice_77_split
I0506 10:14:54.422580  9060 net.cpp:408] cont_78_lstm1_cont_slice_77_split <- cont_78
I0506 10:14:54.422586  9060 net.cpp:382] cont_78_lstm1_cont_slice_77_split -> cont_78_lstm1_cont_slice_77_split_0
I0506 10:14:54.422593  9060 net.cpp:382] cont_78_lstm1_cont_slice_77_split -> cont_78_lstm1_cont_slice_77_split_1
I0506 10:14:54.422627  9060 net.cpp:124] Setting up cont_78_lstm1_cont_slice_77_split
I0506 10:14:54.422632  9060 net.cpp:131] Top shape: 1 512 (512)
I0506 10:14:54.422637  9060 net.cpp:131] Top shape: 1 512 (512)
I0506 10:14:54.422641  9060 net.cpp:139] Memory required for data: 15802368
I0506 10:14:54.422646  9060 layer_factory.hpp:77] Creating layer cont_79_lstm1_cont_slice_78_split
I0506 10:14:54.422652  9060 net.cpp:86] Creating Layer cont_79_lstm1_cont_slice_78_split
I0506 10:14:54.422657  9060 net.cpp:408] cont_79_lstm1_cont_slice_78_split <- cont_79
I0506 10:14:54.422662  9060 net.cpp:382] cont_79_lstm1_cont_slice_78_split -> cont_79_lstm1_cont_slice_78_split_0
I0506 10:14:54.422668  9060 net.cpp:382] cont_79_lstm1_cont_slice_78_split -> cont_79_lstm1_cont_slice_78_split_1
I0506 10:14:54.422703  9060 net.cpp:124] Setting up cont_79_lstm1_cont_slice_78_split
I0506 10:14:54.422708  9060 net.cpp:131] Top shape: 1 512 (512)
I0506 10:14:54.422713  9060 net.cpp:131] Top shape: 1 512 (512)
I0506 10:14:54.422718  9060 net.cpp:139] Memory required for data: 15806464
I0506 10:14:54.422721  9060 layer_factory.hpp:77] Creating layer cont_80_lstm1_cont_slice_79_split
I0506 10:14:54.422727  9060 net.cpp:86] Creating Layer cont_80_lstm1_cont_slice_79_split
I0506 10:14:54.422731  9060 net.cpp:408] cont_80_lstm1_cont_slice_79_split <- cont_80
I0506 10:14:54.422739  9060 net.cpp:382] cont_80_lstm1_cont_slice_79_split -> cont_80_lstm1_cont_slice_79_split_0
I0506 10:14:54.422747  9060 net.cpp:382] cont_80_lstm1_cont_slice_79_split -> cont_80_lstm1_cont_slice_79_split_1
I0506 10:14:54.422793  9060 net.cpp:124] Setting up cont_80_lstm1_cont_slice_79_split
I0506 10:14:54.422798  9060 net.cpp:131] Top shape: 1 512 (512)
I0506 10:14:54.422806  9060 net.cpp:131] Top shape: 1 512 (512)
I0506 10:14:54.422809  9060 net.cpp:139] Memory required for data: 15810560
I0506 10:14:54.422814  9060 layer_factory.hpp:77] Creating layer lstm1_x_transform
I0506 10:14:54.422827  9060 net.cpp:86] Creating Layer lstm1_x_transform
I0506 10:14:54.422832  9060 net.cpp:408] lstm1_x_transform <- x
I0506 10:14:54.422857  9060 net.cpp:382] lstm1_x_transform -> W_xc_x
I0506 10:14:54.425922  9060 net.cpp:124] Setting up lstm1_x_transform
I0506 10:14:54.425951  9060 net.cpp:131] Top shape: 80 512 400 (16384000)
I0506 10:14:54.425961  9060 net.cpp:139] Memory required for data: 81346560
I0506 10:14:54.425990  9060 layer_factory.hpp:77] Creating layer lstm1_W_xc_x_slice
I0506 10:14:54.426012  9060 net.cpp:86] Creating Layer lstm1_W_xc_x_slice
I0506 10:14:54.434680  9060 net.cpp:408] lstm1_W_xc_x_slice <- W_xc_x
I0506 10:14:54.434721  9060 net.cpp:382] lstm1_W_xc_x_slice -> W_xc_x_1
I0506 10:14:54.434737  9060 net.cpp:382] lstm1_W_xc_x_slice -> W_xc_x_2
…
I0506 10:14:54.435377  9060 net.cpp:382] lstm1_W_xc_x_slice -> W_xc_x_74
I0506 10:14:54.435386  9060 net.cpp:382] lstm1_W_xc_x_slice -> W_xc_x_75
I0506 10:14:54.435395  9060 net.cpp:382] lstm1_W_xc_x_slice -> W_xc_x_76
I0506 10:14:54.435403  9060 net.cpp:382] lstm1_W_xc_x_slice -> W_xc_x_77
I0506 10:14:54.435411  9060 net.cpp:382] lstm1_W_xc_x_slice -> W_xc_x_78
I0506 10:14:54.435420  9060 net.cpp:382] lstm1_W_xc_x_slice -> W_xc_x_79
I0506 10:14:54.435428  9060 net.cpp:382] lstm1_W_xc_x_slice -> W_xc_x_80
I0506 10:14:54.436262  9060 net.cpp:124] Setting up lstm1_W_xc_x_slice
I0506 10:14:54.436270  9060 net.cpp:131] Top shape: 1 512 400 (204800)
I0506 10:14:54.436280  9060 net.cpp:131] Top shape: 1 512 400 (204800)
I0506 10:14:54.436282  9060 net.cpp:131] Top shape: 1 512 400 (204800)
I0506 10:14:54.436286  9060 net.cpp:131] Top shape: 1 512 400 (204800)
I0506 10:14:54.436290  9060 net.cpp:131] Top shape: 1 512 400 (204800)
I0506 10:14:54.436295  9060 net.cpp:131] Top shape: 1 512 400 (204800)
I0506 10:14:54.436297  9060 net.cpp:131] Top shape: 1 512 400 (204800)
I0506 10:14:54.436301  9060 net.cpp:131] Top shape: 1 512 400 (204800)
I0506 10:14:54.436305  9060 net.cpp:131] Top shape: 1 512 400 (204800)
I0506 10:14:54.436308  9060 net.cpp:131] Top shape: 1 512 400 (204800)
I0506 10:14:54.436312  9060 net.cpp:131] Top shape: 1 512 400 (204800)
I0506 10:14:54.436317  9060 net.cpp:131] Top shape: 1 512 400 (204800)
I0506 10:14:54.436321  9060 net.cpp:131] Top shape: 1 512 400 (204800)
I0506 10:14:54.436326  9060 net.cpp:131] Top shape: 1 512 400 (204800)
I0506 10:14:54.436328  9060 net.cpp:131] Top shape: 1 512 400 (204800)
I0506 10:14:54.436332  9060 net.cpp:131] Top shape: 1 512 400 (204800)
I0506 10:14:54.436336  9060 net.cpp:131] Top shape: 1 512 400 (204800)
I0506 10:14:54.436339  9060 net.cpp:131] Top shape: 1 512 400 (204800)
I0506 10:14:54.436343  9060 net.cpp:131] Top shape: 1 512 400 (204800)
I0506 10:14:54.436347  9060 net.cpp:131] Top shape: 1 512 400 (204800)
I0506 10:14:54.436350  9060 net.cpp:131] Top shape: 1 512 400 (204800)
I0506 10:14:54.436354  9060 net.cpp:131] Top shape: 1 512 400 (204800)
I0506 10:14:54.436358  9060 net.cpp:131] Top shape: 1 512 400 (204800)
I0506 10:14:54.436362  9060 net.cpp:131] Top shape: 1 512 400 (204800)
I0506 10:14:54.436365  9060 net.cpp:131] Top shape: 1 512 400 (204800)
I0506 10:14:54.436383  9060 net.cpp:131] Top shape: 1 512 400 (204800)
I0506 10:14:54.436388  9060 net.cpp:131] Top shape: 1 512 400 (204800)
I0506 10:14:54.436390  9060 net.cpp:131] Top shape: 1 512 400 (204800)
I0506 10:14:54.436394  9060 net.cpp:131] Top shape: 1 512 400 (204800)
I0506 10:14:54.436398  9060 net.cpp:131] Top shape: 1 512 400 (204800)
I0506 10:14:54.441792  9060 net.cpp:131] Top shape: 1 512 400 (204800)
I0506 10:14:54.441821  9060 net.cpp:131] Top shape: 1 512 400 (204800)
I0506 10:14:54.441826  9060 net.cpp:131] Top shape: 1 512 400 (204800)
I0506 10:14:54.441830  9060 net.cpp:131] Top shape: 1 512 400 (204800)
I0506 10:14:54.441834  9060 net.cpp:131] Top shape: 1 512 400 (204800)
I0506 10:14:54.441838  9060 net.cpp:131] Top shape: 1 512 400 (204800)
I0506 10:14:54.441843  9060 net.cpp:131] Top shape: 1 512 400 (204800)
I0506 10:14:54.441846  9060 net.cpp:131] Top shape: 1 512 400 (204800)
I0506 10:14:54.441850  9060 net.cpp:131] Top shape: 1 512 400 (204800)
I0506 10:14:54.441854  9060 net.cpp:131] Top shape: 1 512 400 (204800)
I0506 10:14:54.441859  9060 net.cpp:131] Top shape: 1 512 400 (204800)
I0506 10:14:54.441861  9060 net.cpp:131] Top shape: 1 512 400 (204800)
I0506 10:14:54.441865  9060 net.cpp:131] Top shape: 1 512 400 (204800)
I0506 10:14:54.441869  9060 net.cpp:131] Top shape: 1 512 400 (204800)
I0506 10:14:54.441874  9060 net.cpp:131] Top shape: 1 512 400 (204800)
I0506 10:14:54.441879  9060 net.cpp:131] Top shape: 1 512 400 (204800)
I0506 10:14:54.441881  9060 net.cpp:131] Top shape: 1 512 400 (204800)
I0506 10:14:54.441885  9060 net.cpp:131] Top shape: 1 512 400 (204800)
I0506 10:14:54.441890  9060 net.cpp:131] Top shape: 1 512 400 (204800)
I0506 10:14:54.441893  9060 net.cpp:131] Top shape: 1 512 400 (204800)
I0506 10:14:54.441897  9060 net.cpp:131] Top shape: 1 512 400 (204800)
I0506 10:14:54.441901  9060 net.cpp:131] Top shape: 1 512 400 (204800)
I0506 10:14:54.441905  9060 net.cpp:131] Top shape: 1 512 400 (204800)
I0506 10:14:54.441908  9060 net.cpp:131] Top shape: 1 512 400 (204800)
I0506 10:14:54.441912  9060 net.cpp:131] Top shape: 1 512 400 (204800)
I0506 10:14:54.441916  9060 net.cpp:131] Top shape: 1 512 400 (204800)
I0506 10:14:54.441920  9060 net.cpp:131] Top shape: 1 512 400 (204800)
I0506 10:14:54.441924  9060 net.cpp:131] Top shape: 1 512 400 (204800)
I0506 10:14:54.441928  9060 net.cpp:131] Top shape: 1 512 400 (204800)
I0506 10:14:54.441931  9060 net.cpp:131] Top shape: 1 512 400 (204800)
I0506 10:14:54.441936  9060 net.cpp:131] Top shape: 1 512 400 (204800)
I0506 10:14:54.441939  9060 net.cpp:131] Top shape: 1 512 400 (204800)
I0506 10:14:54.441943  9060 net.cpp:131] Top shape: 1 512 400 (204800)
I0506 10:14:54.441947  9060 net.cpp:131] Top shape: 1 512 400 (204800)
I0506 10:14:54.441951  9060 net.cpp:131] Top shape: 1 512 400 (204800)
I0506 10:14:54.441956  9060 net.cpp:131] Top shape: 1 512 400 (204800)
I0506 10:14:54.441959  9060 net.cpp:131] Top shape: 1 512 400 (204800)
I0506 10:14:54.441963  9060 net.cpp:131] Top shape: 1 512 400 (204800)
I0506 10:14:54.441967  9060 net.cpp:131] Top shape: 1 512 400 (204800)
I0506 10:14:54.441970  9060 net.cpp:131] Top shape: 1 512 400 (204800)
I0506 10:14:54.441974  9060 net.cpp:131] Top shape: 1 512 400 (204800)
I0506 10:14:54.441978  9060 net.cpp:131] Top shape: 1 512 400 (204800)
I0506 10:14:54.441982  9060 net.cpp:131] Top shape: 1 512 400 (204800)
I0506 10:14:54.441985  9060 net.cpp:131] Top shape: 1 512 400 (204800)
I0506 10:14:54.441989  9060 net.cpp:131] Top shape: 1 512 400 (204800)
I0506 10:14:54.441993  9060 net.cpp:131] Top shape: 1 512 400 (204800)
I0506 10:14:54.441998  9060 net.cpp:131] Top shape: 1 512 400 (204800)
I0506 10:14:54.442001  9060 net.cpp:131] Top shape: 1 512 400 (204800)
I0506 10:14:54.442005  9060 net.cpp:131] Top shape: 1 512 400 (204800)
I0506 10:14:54.442009  9060 net.cpp:131] Top shape: 1 512 400 (204800)
I0506 10:14:54.442013  9060 net.cpp:139] Memory required for data: 146882560
I0506 10:14:54.442018  9060 layer_factory.hpp:77] Creating layer lstm1_h_conted_0
I0506 10:14:54.442034  9060 net.cpp:86] Creating Layer lstm1_h_conted_0
I0506 10:14:54.442062  9060 net.cpp:408] lstm1_h_conted_0 <- h_0
I0506 10:14:54.442075  9060 net.cpp:408] lstm1_h_conted_0 <- cont_1_lstm1_cont_slice_0_split_0
I0506 10:14:54.442085  9060 net.cpp:382] lstm1_h_conted_0 -> h_conted_0
I0506 10:14:54.442209  9060 net.cpp:124] Setting up lstm1_h_conted_0
I0506 10:14:54.442214  9060 net.cpp:131] Top shape: 1 512 100 (51200)
I0506 10:14:54.442219  9060 net.cpp:139] Memory required for data: 147087360
I0506 10:14:54.442222  9060 layer_factory.hpp:77] Creating layer lstm1_transform_1
I0506 10:14:54.442232  9060 net.cpp:86] Creating Layer lstm1_transform_1
I0506 10:14:54.442236  9060 net.cpp:408] lstm1_transform_1 <- h_conted_0
I0506 10:14:54.442241  9060 net.cpp:382] lstm1_transform_1 -> W_hc_h_0
I0506 10:14:54.442574  9060 net.cpp:124] Setting up lstm1_transform_1
I0506 10:14:54.442579  9060 net.cpp:131] Top shape: 1 512 400 (204800)
I0506 10:14:54.442584  9060 net.cpp:139] Memory required for data: 147906560
I0506 10:14:54.442590  9060 layer_factory.hpp:77] Creating layer lstm1_gate_input_1
I0506 10:14:54.442597  9060 net.cpp:86] Creating Layer lstm1_gate_input_1
I0506 10:14:54.442601  9060 net.cpp:408] lstm1_gate_input_1 <- W_hc_h_0
I0506 10:14:54.442605  9060 net.cpp:408] lstm1_gate_input_1 <- W_xc_x_1
I0506 10:14:54.442610  9060 net.cpp:382] lstm1_gate_input_1 -> gate_input_1
I0506 10:14:54.442632  9060 net.cpp:124] Setting up lstm1_gate_input_1
I0506 10:14:54.442636  9060 net.cpp:131] Top shape: 1 512 400 (204800)
I0506 10:14:54.442641  9060 net.cpp:139] Memory required for data: 148725760
I0506 10:14:54.442643  9060 layer_factory.hpp:77] Creating layer lstm1_unit_1
I0506 10:14:54.442651  9060 net.cpp:86] Creating Layer lstm1_unit_1
I0506 10:14:54.442654  9060 net.cpp:408] lstm1_unit_1 <- c_0
I0506 10:14:54.442658  9060 net.cpp:408] lstm1_unit_1 <- gate_input_1
I0506 10:14:54.442663  9060 net.cpp:408] lstm1_unit_1 <- cont_1_lstm1_cont_slice_0_split_1
I0506 10:14:54.442669  9060 net.cpp:382] lstm1_unit_1 -> c_1
I0506 10:14:54.442675  9060 net.cpp:382] lstm1_unit_1 -> h_1
I0506 10:14:54.442713  9060 net.cpp:124] Setting up lstm1_unit_1
I0506 10:14:54.442718  9060 net.cpp:131] Top shape: 1 512 100 (51200)
I0506 10:14:54.442723  9060 net.cpp:131] Top shape: 1 512 100 (51200)
I0506 10:14:54.442726  9060 net.cpp:139] Memory required for data: 149135360
I0506 10:14:54.442729  9060 layer_factory.hpp:77] Creating layer h_1_lstm1_unit_1_1_split
I0506 10:14:54.442734  9060 net.cpp:86] Creating Layer h_1_lstm1_unit_1_1_split
I0506 10:14:54.442739  9060 net.cpp:408] h_1_lstm1_unit_1_1_split <- h_1
I0506 10:14:54.442742  9060 net.cpp:382] h_1_lstm1_unit_1_1_split -> h_1_lstm1_unit_1_1_split_0
I0506 10:14:54.442749  9060 net.cpp:382] h_1_lstm1_unit_1_1_split -> h_1_lstm1_unit_1_1_split_1
I0506 10:14:54.442776  9060 net.cpp:124] Setting up h_1_lstm1_unit_1_1_split
I0506 10:14:54.442781  9060 net.cpp:131] Top shape: 1 512 100 (51200)
I0506 10:14:54.442786  9060 net.cpp:131] Top shape: 1 512 100 (51200)
I0506 10:14:54.442790  9060 net.cpp:139] Memory required for data: 149544960
I0506 10:14:54.442792  9060 layer_factory.hpp:77] Creating layer lstm1_h_conted_1
I0506 10:14:54.442798  9060 net.cpp:86] Creating Layer lstm1_h_conted_1
I0506 10:14:54.442802  9060 net.cpp:408] lstm1_h_conted_1 <- h_1_lstm1_unit_1_1_split_0
I0506 10:14:54.442808  9060 net.cpp:408] lstm1_h_conted_1 <- cont_2_lstm1_cont_slice_1_split_0
I0506 10:14:54.442816  9060 net.cpp:382] lstm1_h_conted_1 -> h_conted_1
I0506 10:14:54.442867  9060 net.cpp:124] Setting up lstm1_h_conted_1
I0506 10:14:54.442873  9060 net.cpp:131] Top shape: 1 512 100 (51200)
I0506 10:14:54.442876  9060 net.cpp:139] Memory required for data: 149749760
I0506 10:14:54.442880  9060 layer_factory.hpp:77] Creating layer lstm1_transform_2
I0506 10:14:54.442886  9060 net.cpp:86] Creating Layer lstm1_transform_2
I0506 10:14:54.442889  9060 net.cpp:408] lstm1_transform_2 <- h_conted_1
I0506 10:14:54.442894  9060 net.cpp:382] lstm1_transform_2 -> W_hc_h_1
I0506 10:14:54.443212  9060 net.cpp:124] Setting up lstm1_transform_2
I0506 10:14:54.443230  9060 net.cpp:131] Top shape: 1 512 400 (204800)
I0506 10:14:54.443235  9060 net.cpp:139] Memory required for data: 150568960
I0506 10:14:54.443240  9060 net.cpp:467] Sharing parameters 'W_hc' owned by layer 'lstm1_transform_1', param index 0
I0506 10:14:54.443244  9060 layer_factory.hpp:77] Creating layer lstm1_gate_input_2
I0506 10:14:54.443250  9060 net.cpp:86] Creating Layer lstm1_gate_input_2
I0506 10:14:54.443253  9060 net.cpp:408] lstm1_gate_input_2 <- W_hc_h_1
I0506 10:14:54.443259  9060 net.cpp:408] lstm1_gate_input_2 <- W_xc_x_2
I0506 10:14:54.443262  9060 net.cpp:382] lstm1_gate_input_2 -> gate_input_2
I0506 10:14:54.443284  9060 net.cpp:124] Setting up lstm1_gate_input_2
I0506 10:14:54.443287  9060 net.cpp:131] Top shape: 1 512 400 (204800)
I0506 10:14:54.443291  9060 net.cpp:139] Memory required for data: 151388160
I0506 10:14:54.443295  9060 layer_factory.hpp:77] Creating layer lstm1_unit_2
I0506 10:14:54.443300  9060 net.cpp:86] Creating Layer lstm1_unit_2
I0506 10:14:54.443303  9060 net.cpp:408] lstm1_unit_2 <- c_1
I0506 10:14:54.443307  9060 net.cpp:408] lstm1_unit_2 <- gate_input_2
I0506 10:14:54.443311  9060 net.cpp:408] lstm1_unit_2 <- cont_2_lstm1_cont_slice_1_split_1
I0506 10:14:54.443317  9060 net.cpp:382] lstm1_unit_2 -> c_2
I0506 10:14:54.443323  9060 net.cpp:382] lstm1_unit_2 -> h_2
I0506 10:14:54.443364  9060 net.cpp:124] Setting up lstm1_unit_2
I0506 10:14:54.443368  9060 net.cpp:131] Top shape: 1 512 100 (51200)
I0506 10:14:54.443372  9060 net.cpp:131] Top shape: 1 512 100 (51200)
I0506 10:14:54.443377  9060 net.cpp:139] Memory required for data: 151797760
I0506 10:14:54.443379  9060 layer_factory.hpp:77] Creating layer h_2_lstm1_unit_2_1_split
I0506 10:14:54.443384  9060 net.cpp:86] Creating Layer h_2_lstm1_unit_2_1_split
I0506 10:14:54.443388  9060 net.cpp:408] h_2_lstm1_unit_2_1_split <- h_2
I0506 10:14:54.443393  9060 net.cpp:382] h_2_lstm1_unit_2_1_split -> h_2_lstm1_unit_2_1_split_0
I0506 10:14:54.443399  9060 net.cpp:382] h_2_lstm1_unit_2_1_split -> h_2_lstm1_unit_2_1_split_1
I0506 10:14:54.443428  9060 net.cpp:124] Setting up h_2_lstm1_unit_2_1_split
I0506 10:14:54.443433  9060 net.cpp:131] Top shape: 1 512 100 (51200)
I0506 10:14:54.443437  9060 net.cpp:131] Top shape: 1 512 100 (51200)
I0506 10:14:54.443441  9060 net.cpp:139] Memory required for data: 152207360
I0506 10:14:54.443444  9060 layer_factory.hpp:77] Creating layer lstm1_h_conted_2
I0506 10:14:54.443449  9060 net.cpp:86] Creating Layer lstm1_h_conted_2
I0506 10:14:54.443454  9060 net.cpp:408] lstm1_h_conted_2 <- h_2_lstm1_unit_2_1_split_0
I0506 10:14:54.443459  9060 net.cpp:408] lstm1_h_conted_2 <- cont_3_lstm1_cont_slice_2_split_0
I0506 10:14:54.443465  9060 net.cpp:382] lstm1_h_conted_2 -> h_conted_2
I0506 10:14:54.443518  9060 net.cpp:124] Setting up lstm1_h_conted_2
I0506 10:14:54.443523  9060 net.cpp:131] Top shape: 1 512 100 (51200)
I0506 10:14:54.443527  9060 net.cpp:139] Memory required for data: 152412160
I0506 10:14:54.443531  9060 layer_factory.hpp:77] Creating layer lstm1_transform_3
I0506 10:14:54.443536  9060 net.cpp:86] Creating Layer lstm1_transform_3
I0506 10:14:54.443539  9060 net.cpp:408] lstm1_transform_3 <- h_conted_2
I0506 10:14:54.443544  9060 net.cpp:382] lstm1_transform_3 -> W_hc_h_2
I0506 10:14:54.443858  9060 net.cpp:124] Setting up lstm1_transform_3
I0506 10:14:54.443864  9060 net.cpp:131] Top shape: 1 512 400 (204800)
I0506 10:14:54.443868  9060 net.cpp:139] Memory required for data: 153231360
I0506 10:14:54.443873  9060 net.cpp:467] Sharing parameters 'W_hc' owned by layer 'lstm1_transform_1', param index 0
I0506 10:14:54.443876  9060 layer_factory.hpp:77] Creating layer lstm1_gate_input_3
I0506 10:14:54.443881  9060 net.cpp:86] Creating Layer lstm1_gate_input_3
I0506 10:14:54.443886  9060 net.cpp:408] lstm1_gate_input_3 <- W_hc_h_2
I0506 10:14:54.443891  9060 net.cpp:408] lstm1_gate_input_3 <- W_xc_x_3
I0506 10:14:54.443894  9060 net.cpp:382] lstm1_gate_input_3 -> gate_input_3
I0506 10:14:54.443914  9060 net.cpp:124] Setting up lstm1_gate_input_3
I0506 10:14:54.443918  9060 net.cpp:131] Top shape: 1 512 400 (204800)
I0506 10:14:54.443933  9060 net.cpp:139] Memory required for data: 154050560
I0506 10:14:54.443938  9060 layer_factory.hpp:77] Creating layer lstm1_unit_3
I0506 10:14:54.443943  9060 net.cpp:86] Creating Layer lstm1_unit_3
I0506 10:14:54.443948  9060 net.cpp:408] lstm1_unit_3 <- c_2
I0506 10:14:54.443951  9060 net.cpp:408] lstm1_unit_3 <- gate_input_3
I0506 10:14:54.443955  9060 net.cpp:408] lstm1_unit_3 <- cont_3_lstm1_cont_slice_2_split_1
I0506 10:14:54.443962  9060 net.cpp:382] lstm1_unit_3 -> c_3
I0506 10:14:54.443969  9060 net.cpp:382] lstm1_unit_3 -> h_3
I0506 10:14:54.444008  9060 net.cpp:124] Setting up lstm1_unit_3
I0506 10:14:54.444013  9060 net.cpp:131] Top shape: 1 512 100 (51200)
I0506 10:14:54.444017  9060 net.cpp:131] Top shape: 1 512 100 (51200)
I0506 10:14:54.444020  9060 net.cpp:139] Memory required for data: 154460160
I0506 10:14:54.444025  9060 layer_factory.hpp:77] Creating layer h_3_lstm1_unit_3_1_split
I0506 10:14:54.444030  9060 net.cpp:86] Creating Layer h_3_lstm1_unit_3_1_split
I0506 10:14:54.444032  9060 net.cpp:408] h_3_lstm1_unit_3_1_split <- h_3
I0506 10:14:54.444038  9060 net.cpp:382] h_3_lstm1_unit_3_1_split -> h_3_lstm1_unit_3_1_split_0
I0506 10:14:54.444043  9060 net.cpp:382] h_3_lstm1_unit_3_1_split -> h_3_lstm1_unit_3_1_split_1
I0506 10:14:54.444072  9060 net.cpp:124] Setting up h_3_lstm1_unit_3_1_split
I0506 10:14:54.444077  9060 net.cpp:131] Top shape: 1 512 100 (51200)
I0506 10:14:54.444080  9060 net.cpp:131] Top shape: 1 512 100 (51200)
I0506 10:14:54.444084  9060 net.cpp:139] Memory required for data: 154869760
I0506 10:14:54.444087  9060 layer_factory.hpp:77] Creating layer lstm1_h_conted_3
I0506 10:14:54.444093  9060 net.cpp:86] Creating Layer lstm1_h_conted_3
I0506 10:14:54.444097  9060 net.cpp:408] lstm1_h_conted_3 <- h_3_lstm1_unit_3_1_split_0
I0506 10:14:54.444103  9060 net.cpp:408] lstm1_h_conted_3 <- cont_4_lstm1_cont_slice_3_split_0
I0506 10:14:54.444109  9060 net.cpp:382] lstm1_h_conted_3 -> h_conted_3
I0506 10:14:54.444161  9060 net.cpp:124] Setting up lstm1_h_conted_3
I0506 10:14:54.444165  9060 net.cpp:131] Top shape: 1 512 100 (51200)
I0506 10:14:54.444169  9060 net.cpp:139] Memory required for data: 155074560
I0506 10:14:54.444172  9060 layer_factory.hpp:77] Creating layer lstm1_transform_4
I0506 10:14:54.444180  9060 net.cpp:86] Creating Layer lstm1_transform_4
I0506 10:14:54.444182  9060 net.cpp:408] lstm1_transform_4 <- h_conted_3
I0506 10:14:54.444187  9060 net.cpp:382] lstm1_transform_4 -> W_hc_h_3
I0506 10:14:54.444507  9060 net.cpp:124] Setting up lstm1_transform_4
I0506 10:14:54.444514  9060 net.cpp:131] Top shape: 1 512 400 (204800)
I0506 10:14:54.444517  9060 net.cpp:139] Memory required for data: 155893760
I0506 10:14:54.444521  9060 net.cpp:467] Sharing parameters 'W_hc' owned by layer 'lstm1_transform_1', param index 0
I0506 10:14:54.444525  9060 layer_factory.hpp:77] Creating layer lstm1_gate_input_4
I0506 10:14:54.444530  9060 net.cpp:86] Creating Layer lstm1_gate_input_4
I0506 10:14:54.444533  9060 net.cpp:408] lstm1_gate_input_4 <- W_hc_h_3
I0506 10:14:54.444537  9060 net.cpp:408] lstm1_gate_input_4 <- W_xc_x_4
I0506 10:14:54.444542  9060 net.cpp:382] lstm1_gate_input_4 -> gate_input_4
I0506 10:14:54.444561  9060 net.cpp:124] Setting up lstm1_gate_input_4
I0506 10:14:54.444566  9060 net.cpp:131] Top shape: 1 512 400 (204800)
I0506 10:14:54.444569  9060 net.cpp:139] Memory required for data: 156712960
I0506 10:14:54.444572  9060 layer_factory.hpp:77] Creating layer lstm1_unit_4
I0506 10:14:54.444578  9060 net.cpp:86] Creating Layer lstm1_unit_4
I0506 10:14:54.444581  9060 net.cpp:408] lstm1_unit_4 <- c_3
I0506 10:14:54.444586  9060 net.cpp:408] lstm1_unit_4 <- gate_input_4
I0506 10:14:54.444589  9060 net.cpp:408] lstm1_unit_4 <- cont_4_lstm1_cont_slice_3_split_1
I0506 10:14:54.444594  9060 net.cpp:382] lstm1_unit_4 -> c_4
I0506 10:14:54.444600  9060 net.cpp:382] lstm1_unit_4 -> h_4
I0506 10:14:54.444639  9060 net.cpp:124] Setting up lstm1_unit_4
I0506 10:14:54.444643  9060 net.cpp:131] Top shape: 1 512 100 (51200)
I0506 10:14:54.444658  9060 net.cpp:131] Top shape: 1 512 100 (51200)
I0506 10:14:54.444661  9060 net.cpp:139] Memory required for data: 157122560
I0506 10:14:54.444664  9060 layer_factory.hpp:77] Creating layer h_4_lstm1_unit_4_1_split
I0506 10:14:54.445717  9060 net.cpp:86] Creating Layer h_4_lstm1_unit_4_1_split
I0506 10:14:54.445724  9060 net.cpp:408] h_4_lstm1_unit_4_1_split <- h_4
I0506 10:14:54.445730  9060 net.cpp:382] h_4_lstm1_unit_4_1_split -> h_4_lstm1_unit_4_1_split_0
I0506 10:14:54.445737  9060 net.cpp:382] h_4_lstm1_unit_4_1_split -> h_4_lstm1_unit_4_1_split_1
I0506 10:14:54.445775  9060 net.cpp:124] Setting up h_4_lstm1_unit_4_1_split
I0506 10:14:54.445778  9060 net.cpp:131] Top shape: 1 512 100 (51200)
I0506 10:14:54.445783  9060 net.cpp:131] Top shape: 1 512 100 (51200)
I0506 10:14:54.445787  9060 net.cpp:139] Memory required for data: 157532160
I0506 10:14:54.445791  9060 layer_factory.hpp:77] Creating layer lstm1_h_conted_4
I0506 10:14:54.445797  9060 net.cpp:86] Creating Layer lstm1_h_conted_4
I0506 10:14:54.445801  9060 net.cpp:408] lstm1_h_conted_4 <- h_4_lstm1_unit_4_1_split_0
I0506 10:14:54.445807  9060 net.cpp:408] lstm1_h_conted_4 <- cont_5_lstm1_cont_slice_4_split_0
I0506 10:14:54.445814  9060 net.cpp:382] lstm1_h_conted_4 -> h_conted_4
I0506 10:14:54.445870  9060 net.cpp:124] Setting up lstm1_h_conted_4
I0506 10:14:54.445875  9060 net.cpp:131] Top shape: 1 512 100 (51200)
I0506 10:14:54.445880  9060 net.cpp:139] Memory required for data: 157736960
I0506 10:14:54.445883  9060 layer_factory.hpp:77] Creating layer lstm1_transform_5
I0506 10:14:54.445889  9060 net.cpp:86] Creating Layer lstm1_transform_5
I0506 10:14:54.445894  9060 net.cpp:408] lstm1_transform_5 <- h_conted_4
I0506 10:14:54.445899  9060 net.cpp:382] lstm1_transform_5 -> W_hc_h_4
I0506 10:14:54.446218  9060 net.cpp:124] Setting up lstm1_transform_5
I0506 10:14:54.446223  9060 net.cpp:131] Top shape: 1 512 400 (204800)
I0506 10:14:54.446228  9060 net.cpp:139] Memory required for data: 158556160
I0506 10:14:54.446231  9060 net.cpp:467] Sharing parameters 'W_hc' owned by layer 'lstm1_transform_1', param index 0
I0506 10:14:54.446235  9060 layer_factory.hpp:77] Creating layer lstm1_gate_input_5
I0506 10:14:54.446240  9060 net.cpp:86] Creating Layer lstm1_gate_input_5
I0506 10:14:54.446244  9060 net.cpp:408] lstm1_gate_input_5 <- W_hc_h_4
I0506 10:14:54.446249  9060 net.cpp:408] lstm1_gate_input_5 <- W_xc_x_5
I0506 10:14:54.446254  9060 net.cpp:382] lstm1_gate_input_5 -> gate_input_5
I0506 10:14:54.446274  9060 net.cpp:124] Setting up lstm1_gate_input_5
I0506 10:14:54.446278  9060 net.cpp:131] Top shape: 1 512 400 (204800)
I0506 10:14:54.446282  9060 net.cpp:139] Memory required for data: 159375360
I0506 10:14:54.446285  9060 layer_factory.hpp:77] Creating layer lstm1_unit_5
I0506 10:14:54.446291  9060 net.cpp:86] Creating Layer lstm1_unit_5
I0506 10:14:54.446295  9060 net.cpp:408] lstm1_unit_5 <- c_4
I0506 10:14:54.446300  9060 net.cpp:408] lstm1_unit_5 <- gate_input_5
I0506 10:14:54.446303  9060 net.cpp:408] lstm1_unit_5 <- cont_5_lstm1_cont_slice_4_split_1
I0506 10:14:54.446307  9060 net.cpp:382] lstm1_unit_5 -> c_5
I0506 10:14:54.446313  9060 net.cpp:382] lstm1_unit_5 -> h_5
I0506 10:14:54.446352  9060 net.cpp:124] Setting up lstm1_unit_5
I0506 10:14:54.446355  9060 net.cpp:131] Top shape: 1 512 100 (51200)
I0506 10:14:54.446360  9060 net.cpp:131] Top shape: 1 512 100 (51200)
I0506 10:14:54.446363  9060 net.cpp:139] Memory required for data: 159784960
I0506 10:14:54.446367  9060 layer_factory.hpp:77] Creating layer h_5_lstm1_unit_5_1_split
I0506 10:14:54.446372  9060 net.cpp:86] Creating Layer h_5_lstm1_unit_5_1_split
I0506 10:14:54.446375  9060 net.cpp:408] h_5_lstm1_unit_5_1_split <- h_5
I0506 10:14:54.446379  9060 net.cpp:382] h_5_lstm1_unit_5_1_split -> h_5_lstm1_unit_5_1_split_0
I0506 10:14:54.446385  9060 net.cpp:382] h_5_lstm1_unit_5_1_split -> h_5_lstm1_unit_5_1_split_1
I0506 10:14:54.446413  9060 net.cpp:124] Setting up h_5_lstm1_unit_5_1_split
I0506 10:14:54.446418  9060 net.cpp:131] Top shape: 1 512 100 (51200)
I0506 10:14:54.446439  9060 net.cpp:131] Top shape: 1 512 100 (51200)
I0506 10:14:54.446445  9060 net.cpp:139] Memory required for data: 160194560
I0506 10:14:54.446449  9060 layer_factory.hpp:77] Creating layer lstm1_h_conted_5
I0506 10:14:54.446455  9060 net.cpp:86] Creating Layer lstm1_h_conted_5
I0506 10:14:54.446460  9060 net.cpp:408] lstm1_h_conted_5 <- h_5_lstm1_unit_5_1_split_0
I0506 10:14:54.446465  9060 net.cpp:408] lstm1_h_conted_5 <- cont_6_lstm1_cont_slice_5_split_0
I0506 10:14:54.446472  9060 net.cpp:382] lstm1_h_conted_5 -> h_conted_5
I0506 10:14:54.446523  9060 net.cpp:124] Setting up lstm1_h_conted_5
I0506 10:14:54.446528  9060 net.cpp:131] Top shape: 1 512 100 (51200)
I0506 10:14:54.446532  9060 net.cpp:139] Memory required for data: 160399360
I0506 10:14:54.446537  9060 layer_factory.hpp:77] Creating layer lstm1_transform_6
I0506 10:14:54.446542  9060 net.cpp:86] Creating Layer lstm1_transform_6
I0506 10:14:54.446547  9060 net.cpp:408] lstm1_transform_6 <- h_conted_5
I0506 10:14:54.446552  9060 net.cpp:382] lstm1_transform_6 -> W_hc_h_5
I0506 10:14:54.446864  9060 net.cpp:124] Setting up lstm1_transform_6
I0506 10:14:54.446869  9060 net.cpp:131] Top shape: 1 512 400 (204800)
I0506 10:14:54.446874  9060 net.cpp:139] Memory required for data: 161218560
I0506 10:14:54.446877  9060 net.cpp:467] Sharing parameters 'W_hc' owned by layer 'lstm1_transform_1', param index 0
I0506 10:14:54.446882  9060 layer_factory.hpp:77] Creating layer lstm1_gate_input_6
I0506 10:14:54.446887  9060 net.cpp:86] Creating Layer lstm1_gate_input_6
I0506 10:14:54.446890  9060 net.cpp:408] lstm1_gate_input_6 <- W_hc_h_5
I0506 10:14:54.446895  9060 net.cpp:408] lstm1_gate_input_6 <- W_xc_x_6
I0506 10:14:54.446900  9060 net.cpp:382] lstm1_gate_input_6 -> gate_input_6
I0506 10:14:54.446920  9060 net.cpp:124] Setting up lstm1_gate_input_6
I0506 10:14:54.446924  9060 net.cpp:131] Top shape: 1 512 400 (204800)
I0506 10:14:54.446929  9060 net.cpp:139] Memory required for data: 162037760
I0506 10:14:54.446933  9060 layer_factory.hpp:77] Creating layer lstm1_unit_6
I0506 10:14:54.446938  9060 net.cpp:86] Creating Layer lstm1_unit_6
I0506 10:14:54.446941  9060 net.cpp:408] lstm1_unit_6 <- c_5
I0506 10:14:54.446945  9060 net.cpp:408] lstm1_unit_6 <- gate_input_6
I0506 10:14:54.446949  9060 net.cpp:408] lstm1_unit_6 <- cont_6_lstm1_cont_slice_5_split_1
I0506 10:14:54.446954  9060 net.cpp:382] lstm1_unit_6 -> c_6
I0506 10:14:54.446959  9060 net.cpp:382] lstm1_unit_6 -> h_6
I0506 10:14:54.446998  9060 net.cpp:124] Setting up lstm1_unit_6
I0506 10:14:54.447002  9060 net.cpp:131] Top shape: 1 512 100 (51200)
I0506 10:14:54.447007  9060 net.cpp:131] Top shape: 1 512 100 (51200)
I0506 10:14:54.447010  9060 net.cpp:139] Memory required for data: 162447360
I0506 10:14:54.447013  9060 layer_factory.hpp:77] Creating layer h_6_lstm1_unit_6_1_split
I0506 10:14:54.447019  9060 net.cpp:86] Creating Layer h_6_lstm1_unit_6_1_split
I0506 10:14:54.447023  9060 net.cpp:408] h_6_lstm1_unit_6_1_split <- h_6
I0506 10:14:54.447028  9060 net.cpp:382] h_6_lstm1_unit_6_1_split -> h_6_lstm1_unit_6_1_split_0
I0506 10:14:54.447033  9060 net.cpp:382] h_6_lstm1_unit_6_1_split -> h_6_lstm1_unit_6_1_split_1
I0506 10:14:54.447062  9060 net.cpp:124] Setting up h_6_lstm1_unit_6_1_split
I0506 10:14:54.447067  9060 net.cpp:131] Top shape: 1 512 100 (51200)
I0506 10:14:54.447070  9060 net.cpp:131] Top shape: 1 512 100 (51200)
I0506 10:14:54.447074  9060 net.cpp:139] Memory required for data: 162856960
I0506 10:14:54.447077  9060 layer_factory.hpp:77] Creating layer lstm1_h_conted_6
I0506 10:14:54.447085  9060 net.cpp:86] Creating Layer lstm1_h_conted_6
I0506 10:14:54.447088  9060 net.cpp:408] lstm1_h_conted_6 <- h_6_lstm1_unit_6_1_split_0
I0506 10:14:54.447094  9060 net.cpp:408] lstm1_h_conted_6 <- cont_7_lstm1_cont_slice_6_split_0
I0506 10:14:54.447103  9060 net.cpp:382] lstm1_h_conted_6 -> h_conted_6
I0506 10:14:54.447156  9060 net.cpp:124] Setting up lstm1_h_conted_6
I0506 10:14:54.447161  9060 net.cpp:131] Top shape: 1 512 100 (51200)
I0506 10:14:54.447166  9060 net.cpp:139] Memory required for data: 163061760
I0506 10:14:54.447181  9060 layer_factory.hpp:77] Creating layer lstm1_transform_7
I0506 10:14:54.447188  9060 net.cpp:86] Creating Layer lstm1_transform_7
I0506 10:14:54.448580  9060 net.cpp:408] lstm1_transform_7 <- h_conted_6
I0506 10:14:54.448590  9060 net.cpp:382] lstm1_transform_7 -> W_hc_h_6
I0506 10:14:54.448916  9060 net.cpp:124] Setting up lstm1_transform_7
I0506 10:14:54.448922  9060 net.cpp:131] Top shape: 1 512 400 (204800)
I0506 10:14:54.448927  9060 net.cpp:139] Memory required for data: 163880960
I0506 10:14:54.448933  9060 net.cpp:467] Sharing parameters 'W_hc' owned by layer 'lstm1_transform_1', param index 0
I0506 10:14:54.448937  9060 layer_factory.hpp:77] Creating layer lstm1_gate_input_7
I0506 10:14:54.448943  9060 net.cpp:86] Creating Layer lstm1_gate_input_7
I0506 10:14:54.448946  9060 net.cpp:408] lstm1_gate_input_7 <- W_hc_h_6
I0506 10:14:54.448951  9060 net.cpp:408] lstm1_gate_input_7 <- W_xc_x_7
I0506 10:14:54.448957  9060 net.cpp:382] lstm1_gate_input_7 -> gate_input_7
I0506 10:14:54.448977  9060 net.cpp:124] Setting up lstm1_gate_input_7
I0506 10:14:54.448982  9060 net.cpp:131] Top shape: 1 512 400 (204800)
I0506 10:14:54.448985  9060 net.cpp:139] Memory required for data: 164700160
I0506 10:14:54.448989  9060 layer_factory.hpp:77] Creating layer lstm1_unit_7
I0506 10:14:54.448994  9060 net.cpp:86] Creating Layer lstm1_unit_7
I0506 10:14:54.448998  9060 net.cpp:408] lstm1_unit_7 <- c_6
I0506 10:14:54.449002  9060 net.cpp:408] lstm1_unit_7 <- gate_input_7
I0506 10:14:54.449007  9060 net.cpp:408] lstm1_unit_7 <- cont_7_lstm1_cont_slice_6_split_1
I0506 10:14:54.449012  9060 net.cpp:382] lstm1_unit_7 -> c_7
I0506 10:14:54.449018  9060 net.cpp:382] lstm1_unit_7 -> h_7
I0506 10:14:54.449055  9060 net.cpp:124] Setting up lstm1_unit_7
I0506 10:14:54.449059  9060 net.cpp:131] Top shape: 1 512 100 (51200)
I0506 10:14:54.449064  9060 net.cpp:131] Top shape: 1 512 100 (51200)
I0506 10:14:54.449067  9060 net.cpp:139] Memory required for data: 165109760
I0506 10:14:54.449070  9060 layer_factory.hpp:77] Creating layer h_7_lstm1_unit_7_1_split
I0506 10:14:54.449075  9060 net.cpp:86] Creating Layer h_7_lstm1_unit_7_1_split
I0506 10:14:54.449079  9060 net.cpp:408] h_7_lstm1_unit_7_1_split <- h_7
I0506 10:14:54.449084  9060 net.cpp:382] h_7_lstm1_unit_7_1_split -> h_7_lstm1_unit_7_1_split_0
I0506 10:14:54.449090  9060 net.cpp:382] h_7_lstm1_unit_7_1_split -> h_7_lstm1_unit_7_1_split_1
I0506 10:14:54.449117  9060 net.cpp:124] Setting up h_7_lstm1_unit_7_1_split
I0506 10:14:54.449121  9060 net.cpp:131] Top shape: 1 512 100 (51200)
I0506 10:14:54.449126  9060 net.cpp:131] Top shape: 1 512 100 (51200)
I0506 10:14:54.449131  9060 net.cpp:139] Memory required for data: 165519360
I0506 10:14:54.449132  9060 layer_factory.hpp:77] Creating layer lstm1_h_conted_7
I0506 10:14:54.449141  9060 net.cpp:86] Creating Layer lstm1_h_conted_7
I0506 10:14:54.449144  9060 net.cpp:408] lstm1_h_conted_7 <- h_7_lstm1_unit_7_1_split_0
I0506 10:14:54.449148  9060 net.cpp:408] lstm1_h_conted_7 <- cont_8_lstm1_cont_slice_7_split_0
I0506 10:14:54.449156  9060 net.cpp:382] lstm1_h_conted_7 -> h_conted_7
I0506 10:14:54.449208  9060 net.cpp:124] Setting up lstm1_h_conted_7
I0506 10:14:54.449213  9060 net.cpp:131] Top shape: 1 512 100 (51200)
I0506 10:14:54.449218  9060 net.cpp:139] Memory required for data: 165724160
I0506 10:14:54.449220  9060 layer_factory.hpp:77] Creating layer lstm1_transform_8
I0506 10:14:54.449226  9060 net.cpp:86] Creating Layer lstm1_transform_8
I0506 10:14:54.449230  9060 net.cpp:408] lstm1_transform_8 <- h_conted_7
I0506 10:14:54.449234  9060 net.cpp:382] lstm1_transform_8 -> W_hc_h_7
I0506 10:14:54.449568  9060 net.cpp:124] Setting up lstm1_transform_8
I0506 10:14:54.449575  9060 net.cpp:131] Top shape: 1 512 400 (204800)
I0506 10:14:54.449579  9060 net.cpp:139] Memory required for data: 166543360
I0506 10:14:54.449584  9060 net.cpp:467] Sharing parameters 'W_hc' owned by layer 'lstm1_transform_1', param index 0
I0506 10:14:54.449586  9060 layer_factory.hpp:77] Creating layer lstm1_gate_input_8
I0506 10:14:54.449607  9060 net.cpp:86] Creating Layer lstm1_gate_input_8
I0506 10:14:54.449611  9060 net.cpp:408] lstm1_gate_input_8 <- W_hc_h_7
I0506 10:14:54.449616  9060 net.cpp:408] lstm1_gate_input_8 <- W_xc_x_8
I0506 10:14:54.449622  9060 net.cpp:382] lstm1_gate_input_8 -> gate_input_8
I0506 10:14:54.449643  9060 net.cpp:124] Setting up lstm1_gate_input_8
I0506 10:14:54.449647  9060 net.cpp:131] Top shape: 1 512 400 (204800)
I0506 10:14:54.449651  9060 net.cpp:139] Memory required for data: 167362560
I0506 10:14:54.449654  9060 layer_factory.hpp:77] Creating layer lstm1_unit_8
I0506 10:14:54.449661  9060 net.cpp:86] Creating Layer lstm1_unit_8
I0506 10:14:54.449663  9060 net.cpp:408] lstm1_unit_8 <- c_7
I0506 10:14:54.449667  9060 net.cpp:408] lstm1_unit_8 <- gate_input_8
I0506 10:14:54.449671  9060 net.cpp:408] lstm1_unit_8 <- cont_8_lstm1_cont_slice_7_split_1
I0506 10:14:54.449676  9060 net.cpp:382] lstm1_unit_8 -> c_8
I0506 10:14:54.449681  9060 net.cpp:382] lstm1_unit_8 -> h_8
I0506 10:14:54.449718  9060 net.cpp:124] Setting up lstm1_unit_8
I0506 10:14:54.449723  9060 net.cpp:131] Top shape: 1 512 100 (51200)
I0506 10:14:54.449728  9060 net.cpp:131] Top shape: 1 512 100 (51200)
I0506 10:14:54.449730  9060 net.cpp:139] Memory required for data: 167772160
I0506 10:14:54.449733  9060 layer_factory.hpp:77] Creating layer h_8_lstm1_unit_8_1_split
I0506 10:14:54.449738  9060 net.cpp:86] Creating Layer h_8_lstm1_unit_8_1_split
I0506 10:14:54.449741  9060 net.cpp:408] h_8_lstm1_unit_8_1_split <- h_8
I0506 10:14:54.449746  9060 net.cpp:382] h_8_lstm1_unit_8_1_split -> h_8_lstm1_unit_8_1_split_0
I0506 10:14:54.449753  9060 net.cpp:382] h_8_lstm1_unit_8_1_split -> h_8_lstm1_unit_8_1_split_1
I0506 10:14:54.449779  9060 net.cpp:124] Setting up h_8_lstm1_unit_8_1_split
I0506 10:14:54.449784  9060 net.cpp:131] Top shape: 1 512 100 (51200)
I0506 10:14:54.449789  9060 net.cpp:131] Top shape: 1 512 100 (51200)
I0506 10:14:54.449792  9060 net.cpp:139] Memory required for data: 168181760
I0506 10:14:54.449795  9060 layer_factory.hpp:77] Creating layer lstm1_h_conted_8
I0506 10:14:54.449801  9060 net.cpp:86] Creating Layer lstm1_h_conted_8
I0506 10:14:54.449805  9060 net.cpp:408] lstm1_h_conted_8 <- h_8_lstm1_unit_8_1_split_0
I0506 10:14:54.449810  9060 net.cpp:408] lstm1_h_conted_8 <- cont_9_lstm1_cont_slice_8_split_0
I0506 10:14:54.449815  9060 net.cpp:382] lstm1_h_conted_8 -> h_conted_8
I0506 10:14:54.449864  9060 net.cpp:124] Setting up lstm1_h_conted_8
I0506 10:14:54.449868  9060 net.cpp:131] Top shape: 1 512 100 (51200)
I0506 10:14:54.449872  9060 net.cpp:139] Memory required for data: 168386560
I0506 10:14:54.449875  9060 layer_factory.hpp:77] Creating layer lstm1_transform_9
I0506 10:14:54.449883  9060 net.cpp:86] Creating Layer lstm1_transform_9
I0506 10:14:54.449887  9060 net.cpp:408] lstm1_transform_9 <- h_conted_8
I0506 10:14:54.449892  9060 net.cpp:382] lstm1_transform_9 -> W_hc_h_8
I0506 10:14:54.450209  9060 net.cpp:124] Setting up lstm1_transform_9
I0506 10:14:54.450214  9060 net.cpp:131] Top shape: 1 512 400 (204800)
I0506 10:14:54.450218  9060 net.cpp:139] Memory required for data: 169205760
I0506 10:14:54.450222  9060 net.cpp:467] Sharing parameters 'W_hc' owned by layer 'lstm1_transform_1', param index 0
I0506 10:14:54.450225  9060 layer_factory.hpp:77] Creating layer lstm1_gate_input_9
I0506 10:14:54.450232  9060 net.cpp:86] Creating Layer lstm1_gate_input_9
I0506 10:14:54.450234  9060 net.cpp:408] lstm1_gate_input_9 <- W_hc_h_8
I0506 10:14:54.450238  9060 net.cpp:408] lstm1_gate_input_9 <- W_xc_x_9
I0506 10:14:54.450243  9060 net.cpp:382] lstm1_gate_input_9 -> gate_input_9
I0506 10:14:54.450263  9060 net.cpp:124] Setting up lstm1_gate_input_9
I0506 10:14:54.450266  9060 net.cpp:131] Top shape: 1 512 400 (204800)
I0506 10:14:54.450270  9060 net.cpp:139] Memory required for data: 170024960
I0506 10:14:54.450273  9060 layer_factory.hpp:77] Creating layer lstm1_unit_9
I0506 10:14:54.450281  9060 net.cpp:86] Creating Layer lstm1_unit_9
I0506 10:14:54.450285  9060 net.cpp:408] lstm1_unit_9 <- c_8
I0506 10:14:54.450300  9060 net.cpp:408] lstm1_unit_9 <- gate_input_9
I0506 10:14:54.450304  9060 net.cpp:408] lstm1_unit_9 <- cont_9_lstm1_cont_slice_8_split_1
I0506 10:14:54.450311  9060 net.cpp:382] lstm1_unit_9 -> c_9
I0506 10:14:54.450317  9060 net.cpp:382] lstm1_unit_9 -> h_9
I0506 10:14:54.450361  9060 net.cpp:124] Setting up lstm1_unit_9
I0506 10:14:54.450366  9060 net.cpp:131] Top shape: 1 512 100 (51200)
I0506 10:14:54.450369  9060 net.cpp:131] Top shape: 1 512 100 (51200)
I0506 10:14:54.450373  9060 net.cpp:139] Memory required for data: 170434560
I0506 10:14:54.450376  9060 layer_factory.hpp:77] Creating layer h_9_lstm1_unit_9_1_split
I0506 10:14:54.450382  9060 net.cpp:86] Creating Layer h_9_lstm1_unit_9_1_split
I0506 10:14:54.450386  9060 net.cpp:408] h_9_lstm1_unit_9_1_split <- h_9
I0506 10:14:54.450390  9060 net.cpp:382] h_9_lstm1_unit_9_1_split -> h_9_lstm1_unit_9_1_split_0
I0506 10:14:54.450397  9060 net.cpp:382] h_9_lstm1_unit_9_1_split -> h_9_lstm1_unit_9_1_split_1
I0506 10:14:54.450425  9060 net.cpp:124] Setting up h_9_lstm1_unit_9_1_split
I0506 10:14:54.450429  9060 net.cpp:131] Top shape: 1 512 100 (51200)
I0506 10:14:54.450433  9060 net.cpp:131] Top shape: 1 512 100 (51200)
I0506 10:14:54.450438  9060 net.cpp:139] Memory required for data: 170844160
I0506 10:14:54.450440  9060 layer_factory.hpp:77] Creating layer lstm1_h_conted_9
I0506 10:14:54.450448  9060 net.cpp:86] Creating Layer lstm1_h_conted_9
I0506 10:14:54.450450  9060 net.cpp:408] lstm1_h_conted_9 <- h_9_lstm1_unit_9_1_split_0
I0506 10:14:54.450455  9060 net.cpp:408] lstm1_h_conted_9 <- cont_10_lstm1_cont_slice_9_split_0
I0506 10:14:54.450461  9060 net.cpp:382] lstm1_h_conted_9 -> h_conted_9
I0506 10:14:54.450515  9060 net.cpp:124] Setting up lstm1_h_conted_9
I0506 10:14:54.450520  9060 net.cpp:131] Top shape: 1 512 100 (51200)
I0506 10:14:54.450523  9060 net.cpp:139] Memory required for data: 171048960
I0506 10:14:54.450526  9060 layer_factory.hpp:77] Creating layer lstm1_transform_10
I0506 10:14:54.450532  9060 net.cpp:86] Creating Layer lstm1_transform_10
I0506 10:14:54.450536  9060 net.cpp:408] lstm1_transform_10 <- h_conted_9
I0506 10:14:54.450541  9060 net.cpp:382] lstm1_transform_10 -> W_hc_h_9
I0506 10:14:54.450853  9060 net.cpp:124] Setting up lstm1_transform_10
I0506 10:14:54.450860  9060 net.cpp:131] Top shape: 1 512 400 (204800)
I0506 10:14:54.450863  9060 net.cpp:139] Memory required for data: 171868160
I0506 10:14:54.450866  9060 net.cpp:467] Sharing parameters 'W_hc' owned by layer 'lstm1_transform_1', param index 0
I0506 10:14:54.450870  9060 layer_factory.hpp:77] Creating layer lstm1_gate_input_10
I0506 10:14:54.450876  9060 net.cpp:86] Creating Layer lstm1_gate_input_10
I0506 10:14:54.450881  9060 net.cpp:408] lstm1_gate_input_10 <- W_hc_h_9
I0506 10:14:54.450884  9060 net.cpp:408] lstm1_gate_input_10 <- W_xc_x_10
I0506 10:14:54.450889  9060 net.cpp:382] lstm1_gate_input_10 -> gate_input_10
I0506 10:14:54.450908  9060 net.cpp:124] Setting up lstm1_gate_input_10
I0506 10:14:54.450912  9060 net.cpp:131] Top shape: 1 512 400 (204800)
I0506 10:14:54.450917  9060 net.cpp:139] Memory required for data: 172687360
I0506 10:14:54.450919  9060 layer_factory.hpp:77] Creating layer lstm1_unit_10
I0506 10:14:54.450925  9060 net.cpp:86] Creating Layer lstm1_unit_10
I0506 10:14:54.450928  9060 net.cpp:408] lstm1_unit_10 <- c_9
I0506 10:14:54.450932  9060 net.cpp:408] lstm1_unit_10 <- gate_input_10
I0506 10:14:54.450937  9060 net.cpp:408] lstm1_unit_10 <- cont_10_lstm1_cont_slice_9_split_1
I0506 10:14:54.450942  9060 net.cpp:382] lstm1_unit_10 -> c_10
I0506 10:14:54.450947  9060 net.cpp:382] lstm1_unit_10 -> h_10
I0506 10:14:54.450984  9060 net.cpp:124] Setting up lstm1_unit_10
I0506 10:14:54.450989  9060 net.cpp:131] Top shape: 1 512 100 (51200)
I0506 10:14:54.450992  9060 net.cpp:131] Top shape: 1 512 100 (51200)
I0506 10:14:54.450996  9060 net.cpp:139] Memory required for data: 173096960
I0506 10:14:54.450999  9060 layer_factory.hpp:77] Creating layer h_10_lstm1_unit_10_1_split
I0506 10:14:54.451004  9060 net.cpp:86] Creating Layer h_10_lstm1_unit_10_1_split
I0506 10:14:54.451017  9060 net.cpp:408] h_10_lstm1_unit_10_1_split <- h_10
I0506 10:14:54.451025  9060 net.cpp:382] h_10_lstm1_unit_10_1_split -> h_10_lstm1_unit_10_1_split_0
I0506 10:14:54.451030  9060 net.cpp:382] h_10_lstm1_unit_10_1_split -> h_10_lstm1_unit_10_1_split_1
I0506 10:14:54.451059  9060 net.cpp:124] Setting up h_10_lstm1_unit_10_1_split
I0506 10:14:54.451063  9060 net.cpp:131] Top shape: 1 512 100 (51200)
I0506 10:14:54.451067  9060 net.cpp:131] Top shape: 1 512 100 (51200)
I0506 10:14:54.451071  9060 net.cpp:139] Memory required for data: 173506560
I0506 10:14:54.451074  9060 layer_factory.hpp:77] Creating layer lstm1_h_conted_10
I0506 10:14:54.451081  9060 net.cpp:86] Creating Layer lstm1_h_conted_10
I0506 10:14:54.451086  9060 net.cpp:408] lstm1_h_conted_10 <- h_10_lstm1_unit_10_1_split_0
I0506 10:14:54.451089  9060 net.cpp:408] lstm1_h_conted_10 <- cont_11_lstm1_cont_slice_10_split_0
I0506 10:14:54.451097  9060 net.cpp:382] lstm1_h_conted_10 -> h_conted_10
I0506 10:14:54.451148  9060 net.cpp:124] Setting up lstm1_h_conted_10
I0506 10:14:54.451151  9060 net.cpp:131] Top shape: 1 512 100 (51200)
I0506 10:14:54.451156  9060 net.cpp:139] Memory required for data: 173711360
I0506 10:14:54.451159  9060 layer_factory.hpp:77] Creating layer lstm1_transform_11
I0506 10:14:54.451165  9060 net.cpp:86] Creating Layer lstm1_transform_11
I0506 10:14:54.451169  9060 net.cpp:408] lstm1_transform_11 <- h_conted_10
I0506 10:14:54.451174  9060 net.cpp:382] lstm1_transform_11 -> W_hc_h_10
I0506 10:14:54.451499  9060 net.cpp:124] Setting up lstm1_transform_11
I0506 10:14:54.451505  9060 net.cpp:131] Top shape: 1 512 400 (204800)
I0506 10:14:54.451509  9060 net.cpp:139] Memory required for data: 174530560
I0506 10:14:54.451514  9060 net.cpp:467] Sharing parameters 'W_hc' owned by layer 'lstm1_transform_1', param index 0
I0506 10:14:54.451516  9060 layer_factory.hpp:77] Creating layer lstm1_gate_input_11
I0506 10:14:54.451522  9060 net.cpp:86] Creating Layer lstm1_gate_input_11
I0506 10:14:54.451526  9060 net.cpp:408] lstm1_gate_input_11 <- W_hc_h_10
I0506 10:14:54.451530  9060 net.cpp:408] lstm1_gate_input_11 <- W_xc_x_11
I0506 10:14:54.451535  9060 net.cpp:382] lstm1_gate_input_11 -> gate_input_11
I0506 10:14:54.451553  9060 net.cpp:124] Setting up lstm1_gate_input_11
I0506 10:14:54.451557  9060 net.cpp:131] Top shape: 1 512 400 (204800)
I0506 10:14:54.451562  9060 net.cpp:139] Memory required for data: 175349760
I0506 10:14:54.451565  9060 layer_factory.hpp:77] Creating layer lstm1_unit_11
I0506 10:14:54.451570  9060 net.cpp:86] Creating Layer lstm1_unit_11
I0506 10:14:54.451573  9060 net.cpp:408] lstm1_unit_11 <- c_10
I0506 10:14:54.451577  9060 net.cpp:408] lstm1_unit_11 <- gate_input_11
I0506 10:14:54.451582  9060 net.cpp:408] lstm1_unit_11 <- cont_11_lstm1_cont_slice_10_split_1
I0506 10:14:54.451587  9060 net.cpp:382] lstm1_unit_11 -> c_11
I0506 10:14:54.451592  9060 net.cpp:382] lstm1_unit_11 -> h_11
I0506 10:14:54.451629  9060 net.cpp:124] Setting up lstm1_unit_11
I0506 10:14:54.451634  9060 net.cpp:131] Top shape: 1 512 100 (51200)
I0506 10:14:54.451638  9060 net.cpp:131] Top shape: 1 512 100 (51200)
I0506 10:14:54.451642  9060 net.cpp:139] Memory required for data: 175759360
I0506 10:14:54.451645  9060 layer_factory.hpp:77] Creating layer h_11_lstm1_unit_11_1_split
I0506 10:14:54.451651  9060 net.cpp:86] Creating Layer h_11_lstm1_unit_11_1_split
I0506 10:14:54.451654  9060 net.cpp:408] h_11_lstm1_unit_11_1_split <- h_11
I0506 10:14:54.451659  9060 net.cpp:382] h_11_lstm1_unit_11_1_split -> h_11_lstm1_unit_11_1_split_0
I0506 10:14:54.451665  9060 net.cpp:382] h_11_lstm1_unit_11_1_split -> h_11_lstm1_unit_11_1_split_1
I0506 10:14:54.451694  9060 net.cpp:124] Setting up h_11_lstm1_unit_11_1_split
I0506 10:14:54.451699  9060 net.cpp:131] Top shape: 1 512 100 (51200)
I0506 10:14:54.451702  9060 net.cpp:131] Top shape: 1 512 100 (51200)
I0506 10:14:54.451706  9060 net.cpp:139] Memory required for data: 176168960
I0506 10:14:54.451709  9060 layer_factory.hpp:77] Creating layer lstm1_h_conted_11
I0506 10:14:54.451725  9060 net.cpp:86] Creating Layer lstm1_h_conted_11
I0506 10:14:54.452636  9060 net.cpp:408] lstm1_h_conted_11 <- h_11_lstm1_unit_11_1_split_0
I0506 10:14:54.452643  9060 net.cpp:408] lstm1_h_conted_11 <- cont_12_lstm1_cont_slice_11_split_0
I0506 10:14:54.452651  9060 net.cpp:382] lstm1_h_conted_11 -> h_conted_11
I0506 10:14:54.452715  9060 net.cpp:124] Setting up lstm1_h_conted_11
I0506 10:14:54.452720  9060 net.cpp:131] Top shape: 1 512 100 (51200)
I0506 10:14:54.452725  9060 net.cpp:139] Memory required for data: 176373760
I0506 10:14:54.452729  9060 layer_factory.hpp:77] Creating layer lstm1_transform_12
I0506 10:14:54.452738  9060 net.cpp:86] Creating Layer lstm1_transform_12
I0506 10:14:54.452740  9060 net.cpp:408] lstm1_transform_12 <- h_conted_11
I0506 10:14:54.452746  9060 net.cpp:382] lstm1_transform_12 -> W_hc_h_11
I0506 10:14:54.454285  9060 net.cpp:124] Setting up lstm1_transform_12
I0506 10:14:54.454305  9060 net.cpp:131] Top shape: 1 512 400 (204800)
I0506 10:14:54.454313  9060 net.cpp:139] Memory required for data: 177192960
I0506 10:14:54.454324  9060 net.cpp:467] Sharing parameters 'W_hc' owned by layer 'lstm1_transform_1', param index 0
I0506 10:14:54.454329  9060 layer_factory.hpp:77] Creating layer lstm1_gate_input_12
I0506 10:14:54.454344  9060 net.cpp:86] Creating Layer lstm1_gate_input_12
I0506 10:14:54.454349  9060 net.cpp:408] lstm1_gate_input_12 <- W_hc_h_11
…
I0506 10:14:54.556943  9060 net.cpp:131] Top shape: 1 512 100 (51200)
I0506 10:14:54.556947  9060 net.cpp:131] Top shape: 1 512 100 (51200)
I0506 10:14:54.556972  9060 net.cpp:139] Memory required for data: 351887360
I0506 10:14:54.556977  9060 layer_factory.hpp:77] Creating layer lstm1_h_conted_77
I0506 10:14:54.556984  9060 net.cpp:86] Creating Layer lstm1_h_conted_77
I0506 10:14:54.556988  9060 net.cpp:408] lstm1_h_conted_77 <- h_77_lstm1_unit_77_1_split_0
I0506 10:14:54.556993  9060 net.cpp:408] lstm1_h_conted_77 <- cont_78_lstm1_cont_slice_77_split_0
I0506 10:14:54.557000  9060 net.cpp:382] lstm1_h_conted_77 -> h_conted_77
I0506 10:14:54.557066  9060 net.cpp:124] Setting up lstm1_h_conted_77
I0506 10:14:54.557071  9060 net.cpp:131] Top shape: 1 512 100 (51200)
I0506 10:14:54.557075  9060 net.cpp:139] Memory required for data: 352092160
I0506 10:14:54.557078  9060 layer_factory.hpp:77] Creating layer lstm1_transform_78
I0506 10:14:54.557090  9060 net.cpp:86] Creating Layer lstm1_transform_78
I0506 10:14:54.557092  9060 net.cpp:408] lstm1_transform_78 <- h_conted_77
I0506 10:14:54.557097  9060 net.cpp:382] lstm1_transform_78 -> W_hc_h_77
I0506 10:14:54.557459  9060 net.cpp:124] Setting up lstm1_transform_78
I0506 10:14:54.557466  9060 net.cpp:131] Top shape: 1 512 400 (204800)
I0506 10:14:54.557471  9060 net.cpp:139] Memory required for data: 352911360
I0506 10:14:54.557476  9060 net.cpp:467] Sharing parameters 'W_hc' owned by layer 'lstm1_transform_1', param index 0
I0506 10:14:54.557479  9060 layer_factory.hpp:77] Creating layer lstm1_gate_input_78
I0506 10:14:54.557484  9060 net.cpp:86] Creating Layer lstm1_gate_input_78
I0506 10:14:54.557487  9060 net.cpp:408] lstm1_gate_input_78 <- W_hc_h_77
I0506 10:14:54.557492  9060 net.cpp:408] lstm1_gate_input_78 <- W_xc_x_78
I0506 10:14:54.557497  9060 net.cpp:382] lstm1_gate_input_78 -> gate_input_78
I0506 10:14:54.557518  9060 net.cpp:124] Setting up lstm1_gate_input_78
I0506 10:14:54.557521  9060 net.cpp:131] Top shape: 1 512 400 (204800)
I0506 10:14:54.557526  9060 net.cpp:139] Memory required for data: 353730560
I0506 10:14:54.557529  9060 layer_factory.hpp:77] Creating layer lstm1_unit_78
I0506 10:14:54.557535  9060 net.cpp:86] Creating Layer lstm1_unit_78
I0506 10:14:54.557538  9060 net.cpp:408] lstm1_unit_78 <- c_77
I0506 10:14:54.557543  9060 net.cpp:408] lstm1_unit_78 <- gate_input_78
I0506 10:14:54.557546  9060 net.cpp:408] lstm1_unit_78 <- cont_78_lstm1_cont_slice_77_split_1
I0506 10:14:54.557551  9060 net.cpp:382] lstm1_unit_78 -> c_78
I0506 10:14:54.557557  9060 net.cpp:382] lstm1_unit_78 -> h_78
I0506 10:14:54.557598  9060 net.cpp:124] Setting up lstm1_unit_78
I0506 10:14:54.557603  9060 net.cpp:131] Top shape: 1 512 100 (51200)
I0506 10:14:54.557607  9060 net.cpp:131] Top shape: 1 512 100 (51200)
I0506 10:14:54.557610  9060 net.cpp:139] Memory required for data: 354140160
I0506 10:14:54.557613  9060 layer_factory.hpp:77] Creating layer h_78_lstm1_unit_78_1_split
I0506 10:14:54.557618  9060 net.cpp:86] Creating Layer h_78_lstm1_unit_78_1_split
I0506 10:14:54.557622  9060 net.cpp:408] h_78_lstm1_unit_78_1_split <- h_78
I0506 10:14:54.557627  9060 net.cpp:382] h_78_lstm1_unit_78_1_split -> h_78_lstm1_unit_78_1_split_0
I0506 10:14:54.557632  9060 net.cpp:382] h_78_lstm1_unit_78_1_split -> h_78_lstm1_unit_78_1_split_1
I0506 10:14:54.557662  9060 net.cpp:124] Setting up h_78_lstm1_unit_78_1_split
I0506 10:14:54.557667  9060 net.cpp:131] Top shape: 1 512 100 (51200)
I0506 10:14:54.557672  9060 net.cpp:131] Top shape: 1 512 100 (51200)
I0506 10:14:54.557675  9060 net.cpp:139] Memory required for data: 354549760
I0506 10:14:54.557678  9060 layer_factory.hpp:77] Creating layer lstm1_h_conted_78
I0506 10:14:54.557683  9060 net.cpp:86] Creating Layer lstm1_h_conted_78
I0506 10:14:54.557687  9060 net.cpp:408] lstm1_h_conted_78 <- h_78_lstm1_unit_78_1_split_0
I0506 10:14:54.557693  9060 net.cpp:408] lstm1_h_conted_78 <- cont_79_lstm1_cont_slice_78_split_0
I0506 10:14:54.557698  9060 net.cpp:382] lstm1_h_conted_78 -> h_conted_78
I0506 10:14:54.557752  9060 net.cpp:124] Setting up lstm1_h_conted_78
I0506 10:14:54.557757  9060 net.cpp:131] Top shape: 1 512 100 (51200)
I0506 10:14:54.557761  9060 net.cpp:139] Memory required for data: 354754560
I0506 10:14:54.557780  9060 layer_factory.hpp:77] Creating layer lstm1_transform_79
I0506 10:14:54.557787  9060 net.cpp:86] Creating Layer lstm1_transform_79
I0506 10:14:54.557791  9060 net.cpp:408] lstm1_transform_79 <- h_conted_78
I0506 10:14:54.557796  9060 net.cpp:382] lstm1_transform_79 -> W_hc_h_78
I0506 10:14:54.558101  9060 net.cpp:124] Setting up lstm1_transform_79
I0506 10:14:54.558107  9060 net.cpp:131] Top shape: 1 512 400 (204800)
I0506 10:14:54.558110  9060 net.cpp:139] Memory required for data: 355573760
I0506 10:14:54.558113  9060 net.cpp:467] Sharing parameters 'W_hc' owned by layer 'lstm1_transform_1', param index 0
I0506 10:14:54.558115  9060 layer_factory.hpp:77] Creating layer lstm1_gate_input_79
I0506 10:14:54.558121  9060 net.cpp:86] Creating Layer lstm1_gate_input_79
I0506 10:14:54.558123  9060 net.cpp:408] lstm1_gate_input_79 <- W_hc_h_78
I0506 10:14:54.558126  9060 net.cpp:408] lstm1_gate_input_79 <- W_xc_x_79
I0506 10:14:54.558130  9060 net.cpp:382] lstm1_gate_input_79 -> gate_input_79
I0506 10:14:54.558145  9060 net.cpp:124] Setting up lstm1_gate_input_79
I0506 10:14:54.558147  9060 net.cpp:131] Top shape: 1 512 400 (204800)
I0506 10:14:54.558151  9060 net.cpp:139] Memory required for data: 356392960
I0506 10:14:54.558152  9060 layer_factory.hpp:77] Creating layer lstm1_unit_79
I0506 10:14:54.558157  9060 net.cpp:86] Creating Layer lstm1_unit_79
I0506 10:14:54.558159  9060 net.cpp:408] lstm1_unit_79 <- c_78
I0506 10:14:54.558162  9060 net.cpp:408] lstm1_unit_79 <- gate_input_79
I0506 10:14:54.558166  9060 net.cpp:408] lstm1_unit_79 <- cont_79_lstm1_cont_slice_78_split_1
I0506 10:14:54.558169  9060 net.cpp:382] lstm1_unit_79 -> c_79
I0506 10:14:54.558172  9060 net.cpp:382] lstm1_unit_79 -> h_79
I0506 10:14:54.558202  9060 net.cpp:124] Setting up lstm1_unit_79
I0506 10:14:54.558204  9060 net.cpp:131] Top shape: 1 512 100 (51200)
I0506 10:14:54.558207  9060 net.cpp:131] Top shape: 1 512 100 (51200)
I0506 10:14:54.558210  9060 net.cpp:139] Memory required for data: 356802560
I0506 10:14:54.558212  9060 layer_factory.hpp:77] Creating layer h_79_lstm1_unit_79_1_split
I0506 10:14:54.558217  9060 net.cpp:86] Creating Layer h_79_lstm1_unit_79_1_split
I0506 10:14:54.558219  9060 net.cpp:408] h_79_lstm1_unit_79_1_split <- h_79
I0506 10:14:54.558223  9060 net.cpp:382] h_79_lstm1_unit_79_1_split -> h_79_lstm1_unit_79_1_split_0
I0506 10:14:54.558228  9060 net.cpp:382] h_79_lstm1_unit_79_1_split -> h_79_lstm1_unit_79_1_split_1
I0506 10:14:54.558246  9060 net.cpp:124] Setting up h_79_lstm1_unit_79_1_split
I0506 10:14:54.558249  9060 net.cpp:131] Top shape: 1 512 100 (51200)
I0506 10:14:54.558252  9060 net.cpp:131] Top shape: 1 512 100 (51200)
I0506 10:14:54.558254  9060 net.cpp:139] Memory required for data: 357212160
I0506 10:14:54.558256  9060 layer_factory.hpp:77] Creating layer lstm1_h_conted_79
I0506 10:14:54.558261  9060 net.cpp:86] Creating Layer lstm1_h_conted_79
I0506 10:14:54.558264  9060 net.cpp:408] lstm1_h_conted_79 <- h_79_lstm1_unit_79_1_split_0
I0506 10:14:54.558267  9060 net.cpp:408] lstm1_h_conted_79 <- cont_80_lstm1_cont_slice_79_split_0
I0506 10:14:54.558270  9060 net.cpp:382] lstm1_h_conted_79 -> h_conted_79
I0506 10:14:54.558312  9060 net.cpp:124] Setting up lstm1_h_conted_79
I0506 10:14:54.558315  9060 net.cpp:131] Top shape: 1 512 100 (51200)
I0506 10:14:54.558317  9060 net.cpp:139] Memory required for data: 357416960
I0506 10:14:54.558320  9060 layer_factory.hpp:77] Creating layer lstm1_transform_80
I0506 10:14:54.558324  9060 net.cpp:86] Creating Layer lstm1_transform_80
I0506 10:14:54.558326  9060 net.cpp:408] lstm1_transform_80 <- h_conted_79
I0506 10:14:54.558331  9060 net.cpp:382] lstm1_transform_80 -> W_hc_h_79
I0506 10:14:54.558511  9060 net.cpp:124] Setting up lstm1_transform_80
I0506 10:14:54.558513  9060 net.cpp:131] Top shape: 1 512 400 (204800)
I0506 10:14:54.558516  9060 net.cpp:139] Memory required for data: 358236160
I0506 10:14:54.558518  9060 net.cpp:467] Sharing parameters 'W_hc' owned by layer 'lstm1_transform_1', param index 0
I0506 10:14:54.558531  9060 layer_factory.hpp:77] Creating layer lstm1_gate_input_80
I0506 10:14:54.558534  9060 net.cpp:86] Creating Layer lstm1_gate_input_80
I0506 10:14:54.558537  9060 net.cpp:408] lstm1_gate_input_80 <- W_hc_h_79
I0506 10:14:54.558539  9060 net.cpp:408] lstm1_gate_input_80 <- W_xc_x_80
I0506 10:14:54.558543  9060 net.cpp:382] lstm1_gate_input_80 -> gate_input_80
I0506 10:14:54.558557  9060 net.cpp:124] Setting up lstm1_gate_input_80
I0506 10:14:54.558558  9060 net.cpp:131] Top shape: 1 512 400 (204800)
I0506 10:14:54.558562  9060 net.cpp:139] Memory required for data: 359055360
I0506 10:14:54.558563  9060 layer_factory.hpp:77] Creating layer lstm1_unit_80
I0506 10:14:54.558568  9060 net.cpp:86] Creating Layer lstm1_unit_80
I0506 10:14:54.558570  9060 net.cpp:408] lstm1_unit_80 <- c_79
I0506 10:14:54.558573  9060 net.cpp:408] lstm1_unit_80 <- gate_input_80
I0506 10:14:54.558575  9060 net.cpp:408] lstm1_unit_80 <- cont_80_lstm1_cont_slice_79_split_1
I0506 10:14:54.558579  9060 net.cpp:382] lstm1_unit_80 -> c_80
I0506 10:14:54.558583  9060 net.cpp:382] lstm1_unit_80 -> h_80
I0506 10:14:54.558610  9060 net.cpp:124] Setting up lstm1_unit_80
I0506 10:14:54.558612  9060 net.cpp:131] Top shape: 1 512 100 (51200)
I0506 10:14:54.558615  9060 net.cpp:131] Top shape: 1 512 100 (51200)
I0506 10:14:54.558619  9060 net.cpp:139] Memory required for data: 359464960
I0506 10:14:54.558620  9060 layer_factory.hpp:77] Creating layer lstm1_
I0506 10:14:54.558624  9060 net.cpp:86] Creating Layer lstm1_
I0506 10:14:54.558625  9060 net.cpp:408] lstm1_ <- c_80
I0506 10:14:54.558629  9060 net.cpp:382] lstm1_ -> c_T
I0506 10:14:54.558640  9060 net.cpp:124] Setting up lstm1_
I0506 10:14:54.558642  9060 net.cpp:131] Top shape: 1 512 100 (51200)
I0506 10:14:54.558645  9060 net.cpp:139] Memory required for data: 359669760
I0506 10:14:54.558646  9060 layer_factory.hpp:77] Creating layer lstm1_h_concat
I0506 10:14:54.558655  9060 net.cpp:86] Creating Layer lstm1_h_concat
I0506 10:14:54.558660  9060 net.cpp:408] lstm1_h_concat <- h_1_lstm1_unit_1_1_split_1
I0506 10:14:54.558665  9060 net.cpp:408] lstm1_h_concat <- h_2_lstm1_unit_2_1_split_1
…
  top: "W_xc_x_53"
  top: "W_xc_x_54"
  top: "W_xc_x_55"
  top: "W_xc_x_56"
  top: "W_xc_x_57"
  top: "W_xc_x_58"
  top: "W_xc_x_59"
  top: "W_xc_x_60"
  top: "W_xc_x_61"
  top: "W_xc_x_62"
  top: "W_xc_x_63"
  top: "W_xc_x_64"
  top: "W_xc_x_65"
  top: "W_xc_x_66"
  top: "W_xc_x_67"
  top: "W_xc_x_68"
  top: "W_xc_x_69"
  top: "W_xc_x_70"
  top: "W_xc_x_71"
  top: "W_xc_x_72"
  top: "W_xc_x_73"
  top: "W_xc_x_74"
  top: "W_xc_x_75"
  top: "W_xc_x_76"
  top: "W_xc_x_77"
  top: "W_xc_x_78"
  top: "W_xc_x_79"
  top: "W_xc_x_80"
  slice_param {
    axis: 0
  }
}
layer {
  name: "lstm2_h_conted_0"
  type: "Scale"
  bottom: "h_0"
  bottom: "cont_1"
  top: "h_conted_0"
  scale_param {
    axis: 0
  }
}
layer {
  name: "lstm2_transform_1"
  type: "InnerProduct"
  bottom: "h_conted_0"
  top: "W_hc_h_0"
  param {
    name: "W_hc"
  }
  inner_product_param {
    num_output: 400
    bias_term: false
    weight_filler {
      type: "xavier"
    }
    axis: 2
  }
}
layer {
  name: "lstm2_gate_input_1"
  type: "Eltwise"
  bottom: "W_hc_h_0"
  bottom: "W_xc_x_1"
  top: "gate_input_1"
  eltwise_param {
    operation: SUM
  }
}
layer {
  name: "lstm2_unit_1"
  type: "LSTMUnit"
  bottom: "c_0"
  bottom: "gate_input_1"
  bottom: "cont_1"
  top: "c_1"
  top: "h_1"
}
layer {
  name: "lstm2_h_conted_1"
  type: "Scale"
  bottom: "h_1"
  bottom: "cont_2"
  top: "h_conted_1"
  scale_param {
    axis: 0
  }
}
layer {
  name: "lstm2_transform_2"
  type: "InnerProduct"
  bottom: "h_conted_1"
  top: "W_hc_h_1"
  param {
    name: "W_hc"
  }
  inner_product_param {
    num_output: 400
    bias_term: false
    weight_filler {
      type: "xavier"
    }
    axis: 2
  }
}
layer {
  name: "lstm2_gate_input_2"
  type: "Eltwise"
  bottom: "W_hc_h_1"
  bottom: "W_xc_x_2"
  top: "gate_input_2"
  eltwise_param {
    operation: SUM
  }
}
layer {
  name: "lstm2_unit_2"
  type: "LSTMUnit"
  bottom: "c_1"
  bottom: "gate_input_2"
  bottom: "cont_2"
  top: "c_2"
  top: "h_2"
}
layer {
  name: "lstm2_h_conted_2"
  type: "Scale"
  bottom: "h_2"
  bottom: "cont_3"
  top: "h_conted_2"
  scale_param {
    axis: 0
  }
}
layer {
  name: "lstm2_transform_3"
  type: "InnerProduct"
  bottom: "h_conted_2"
  top: "W_hc_h_2"
  param {
    name: "W_hc"
  }
  inner_product_param {
    num_output: 400
    bias_term: false
    weight_filler {
      type: "xavier"
    }
    axis: 2
  }
}
layer {
  name: "lstm2_gate_input_3"
  type: "Eltwise"
  bottom: "W_hc_h_2"
  bottom: "W_xc_x_3"
  top: "gate_input_3"
  eltwise_param {
    operation: SUM
  }
}
layer {
  name: "lstm2_unit_3"
  type: "LSTMUnit"
  bottom: "c_2"
  bottom: "gate_input_3"
  bottom: "cont_3"
  top: "c_3"
  top: "h_3"
}
layer {
  name: "lstm2_h_conted_3"
  type: "Scale"
  bottom: "h_3"
  bottom: "cont_4"
  top: "h_conted_3"
  scale_param {
    axis: 0
  }
}
layer {
  name: "lstm2_transform_4"
  type: "InnerProduct"
  bottom: "h_conted_3"
  top: "W_hc_h_3"
  param {
    name: "W_hc"
  }
  inner_product_param {
    num_output: 400
    bias_term: false
    weight_filler {
      type: "xavier"
    }
    axis: 2
  }
}
layer {
  name: "lstm2_gate_input_4"
  type: "Eltwise"
  bottom: "W_hc_h_3"
  bottom: "W_xc_x_4"
  top: "gate_input_4"
  eltwise_param {
    operation: SUM
  }
}
layer {
  name: "lstm2_unit_4"
  type: "LSTMUnit"
  bottom: "c_3"
  bottom: "gate_input_4"
  bottom: "cont_4"
  top: "c_4"
  top: "h_4"
}
layer {
  name: "lstm2_h_conted_4"
  type: "Scale"
  bottom: "h_4"
  bottom: "cont_5"
  top: "h_conted_4"
  scale_param {
    axis: 0
  }
}
layer {
  name: "lstm2_transform_5"
  type: "InnerProduct"
  bottom: "h_conted_4"
  top: "W_hc_h_4"
  param {
    name: "W_hc"
  }
  inner_product_param {
    num_output: 400
    bias_term: false
    weight_filler {
      type: "xavier"
    }
    axis: 2
  }
}
layer {
  name: "lstm2_gate_input_5"
  type: "Eltwise"
  bottom: "W_hc_h_4"
  bottom: "W_xc_x_5"
  top: "gate_input_5"
  eltwise_param {
    operation: SUM
  }
}
layer {
  name: "lstm2_unit_5"
  type: "LSTMUnit"
  bottom: "c_4"
  bottom: "gate_input_5"
  bottom: "cont_5"
  top: "c_5"
  top: "h_5"
}
layer {
  name: "lstm2_h_conted_5"
  type: "Scale"
  bottom: "h_5"
  bottom: "cont_6"
  top: "h_conted_5"
  scale_param {
    axis: 0
  }
}
layer {
  name: "lstm2_transform_6"
  type: "InnerProduct"
  bottom: "h_conted_5"
  top: "W_hc_h_5"
  param {
    name: "W_hc"
  }
  inner_product_param {
    num_output: 400
    bias_term: false
    weight_filler {
      type: "xavier"
    }
    axis: 2
  }
}
layer {
  name: "lstm2_gate_input_6"
  type: "Eltwise"
  bottom: "W_hc_h_5"
  bottom: "W_xc_x_6"
  top: "gate_input_6"
  eltwise_param {
    operation: SUM
  }
}
layer {
  name: "lstm2_unit_6"
  type: "LSTMUnit"
  bottom: "c_5"
  bottom: "gate_input_6"
  bottom: "cont_6"
  top: "c_6"
  top: "h_6"
}
layer {
  name: "lstm2_h_conted_6"
  type: "Scale"
  bottom: "h_6"
  bottom: "cont_7"
  top: "h_conted_6"
  scale_param {
    axis: 0
  }
}
layer {
  name: "lstm2_transform_7"
  type: "InnerProduct"
  bottom: "h_conted_6"
  top: "W_hc_h_6"
  param {
    name: "W_hc"
  }
  inner_product_param {
    num_output: 400
    bias_term: false
    weight_filler {
      type: "xavier"
    }
    axis: 2
  }
}
layer {
  name: "lstm2_gate_input_7"
  type: "Eltwise"
  bottom: "W_hc_h_6"
  bottom: "W_xc_x_7"
  top: "gate_input_7"
  eltwise_param {
    operation: SUM
  }
}
layer {
  name: "lstm2_unit_7"
  type: "LSTMUnit"
  bottom: "c_6"
  bottom: "gate_input_7"
  bottom: "cont_7"
  top: "c_7"
  top: "h_7"
}
layer {
  name: "lstm2_h_conted_7"
  type: "Scale"
  bottom: "h_7"
  bottom: "cont_8"
  top: "h_conted_7"
  scale_param {
    axis: 0
  }
}
layer {
  name: "lstm2_transform_8"
  type: "InnerProduct"
  bottom: "h_conted_7"
  top: "W_hc_h_7"
  param {
    name: "W_hc"
  }
  inner_product_param {
    num_output: 400
    bias_term: false
    weight_filler {
      type: "xavier"
    }
    axis: 2
  }
}
layer {
  name: "lstm2_gate_input_8"
  type: "Eltwise"
  bottom: "W_hc_h_7"
  bottom: "W_xc_x_8"
  top: "gate_input_8"
  eltwise_param {
    operation: SUM
  }
}
layer {
  name: "lstm2_unit_8"
  type: "LSTMUnit"
  bottom: "c_7"
  bottom: "gate_input_8"
  bottom: "cont_8"
  top: "c_8"
  top: "h_8"
}
layer {
  name: "lstm2_h_conted_8"
  type: "Scale"
  bottom: "h_8"
  bottom: "cont_9"
  top: "h_conted_8"
  scale_param {
    axis: 0
  }
}
layer {
  name: "lstm2_transform_9"
  type: "InnerProduct"
  bottom: "h_conted_8"
  top: "W_hc_h_8"
  param {
    name: "W_hc"
  }
  inner_product_param {
    num_output: 400
    bias_term: false
    weight_filler {
      type: "xavier"
    }
    axis: 2
  }
}
layer {
  name: "lstm2_gate_input_9"
  type: "Eltwise"
  bottom: "W_hc_h_8"
  bottom: "W_xc_x_9"
  top: "gate_input_9"
  eltwise_param {
    operation: SUM
  }
}
layer {
  name: "lstm2_unit_9"
  type: "LSTMUnit"
  bottom: "c_8"
  bottom: "gate_input_9"
  bottom: "cont_9"
  top: "c_9"
  top: "h_9"
}
layer {
  name: "lstm2_h_conted_9"
  type: "Scale"
  bottom: "h_9"
  bottom: "cont_10"
  top: "h_conted_9"
  scale_param {
    axis: 0
  }
}
layer {
  name: "lstm2_transform_10"
  type: "InnerProduct"
  bottom: "h_conted_9"
  top: "W_hc_h_9"
  param {
    name: "W_hc"
  }
  inner_product_param {
    num_output: 400
    bias_term: false
    weight_filler {
      type: "xavier"
    }
    axis: 2
  }
}
layer {
  name: "lstm2_gate_input_10"
  type: "Eltwise"
  bottom: "W_hc_h_9"
  bottom: "W_xc_x_10"
  top: "gate_input_10"
  eltwise_param {
    operation: SUM
  }
}
layer {
  name: "lstm2_unit_10"
  type: "LSTMUnit"
  bottom: "c_9"
  bottom: "gate_input_10"
  bottom: "cont_10"
  top: "c_10"
  top: "h_10"
}
layer {
  name: "lstm2_h_conted_10"
  type: "Scale"
  bottom: "h_10"
  bottom: "cont_11"
  top: "h_conted_10"
  scale_param {
    axis: 0
  }
}
layer {
  name: "lstm2_transform_11"
  type: "InnerProduct"
  bottom: "h_conted_10"
  top: "W_hc_h_10"
  param {
    name: "W_hc"
  }
  inner_product_param {
    num_output: 400
    bias_term: false
    weight_filler {
      type: "xavier"
    }
    axis: 2
  }
}
layer {
  name: "lstm2_gate_input_11"
  type: "Eltwise"
  bottom: "W_hc_h_10"
  bottom: "W_xc_x_11"
  top: "gate_input_11"
  eltwise_param {
    operation: SUM
  }
}
layer {
  name: "lstm2_unit_11"
  type: "LSTMUnit"
  bottom: "c_10"
  bottom: "gate_input_11"
  bottom: "cont_11"
  top: "c_11"
  top: "h_11"
}
layer {
  name: "lstm2_h_conted_11"
  type: "Scale"
  bottom: "h_11"
  bottom: "cont_12"
  top: "h_conted_11"
  scale_param {
    axis: 0
  }
}
layer {
  name: "lstm2_transform_12"
  type: "InnerProduct"
  bottom: "h_conted_11"
  top: "W_hc_h_11"
  param {
    name: "W_hc"
  }
  inner_product_param {
    num_output: 400
    bias_term: false
    weight_filler {
      type: "xavier"
    }
    axis: 2
  }
}
layer {
  name: "lstm2_gate_input_12"
  type: "Eltwise"
  bottom: "W_hc_h_11"
  bottom: "W_xc_x_12"
  top: "gate_input_12"
  eltwise_param {
    operation: SUM
  }
}
layer {
  name: "lstm2_unit_12"
  type: "LSTMUnit"
  bottom: "c_11"
  bottom: "gate_input_12"
  bottom: "cont_12"
  top: "c_12"
  top: "h_12"
}
layer {
  name: "lstm2_h_conted_12"
  type: "Scale"
  bottom: "h_12"
  bottom: "cont_13"
  top: "h_conted_12"
  scale_param {
    axis: 0
  }
}
layer {
  name: "lstm2_transform_13"
  type: "InnerProduct"
  bottom: "h_conted_12"
  top: "W_hc_h_12"
  param {
    name: "W_hc"
  }
  inner_product_param {
    num_output: 400
    bias_term: false
    weight_filler {
      type: "xavier"
    }
    axis: 2
  }
}
layer {
  name: "lstm2_gate_input_13"
  type: "Eltwise"
  bottom: "W_hc_h_12"
  bottom: "W_xc_x_13"
  top: "gate_input_13"
  eltwise_param {
    operation: SUM
  }
}
layer {
  name: "lstm2_unit_13"
  type: "LSTMUnit"
  bottom: "c_12"
  bottom: "gate_input_13"
  bottom: "cont_13"
  top: "c_13"
  top: "h_13"
}
layer {
  name: "lstm2_h_conted_13"
  type: "Scale"
  bottom: "h_13"
  bottom: "cont_14"
  top: "h_conted_13"
  scale_param {
    axis: 0
  }
}
layer {
  name: "lstm2_transform_14"
  type: "InnerProduct"
  bottom: "h_conted_13"
  top: "W_hc_h_13"
  param {
    name: "W_hc"
  }
  inner_product_param {
    num_output: 400
    bias_term: false
    weight_filler {
      type: "xavier"
    }
    axis: 2
  }
}
layer {
  name: "lstm2_gate_input_14"
  type: "Eltwise"
  bottom: "W_hc_h_13"
  bottom: "W_xc_x_14"
  top: "gate_input_14"
  eltwise_param {
    operation: SUM
  }
}
layer {
  name: "lstm2_unit_14"
  type: "LSTMUnit"
  bottom: "c_13"
  bottom: "gate_input_14"
  bottom: "cont_14"
  top: "c_14"
  top: "h_14"
}
layer {
  name: "lstm2_h_conted_14"
  type: "Scale"
  bottom: "h_14"
  bottom: "cont_15"
  top: "h_conted_14"
  scale_param {
    axis: 0
  }
}
layer {
  name: "lstm2_transform_15"
  type: "InnerProduct"
  bottom: "h_conted_14"
  top: "W_hc_h_14"
  param {
    name: "W_hc"
  }
  inner_product_param {
    num_output: 400
    bias_term: false
    weight_filler {
      type: "xavier"
    }
    axis: 2
  }
}
layer {
  name: "lstm2_gate_input_15"
  type: "Eltwise"
  bottom: "W_hc_h_14"
  bottom: "W_xc_x_15"
  top: "gate_input_15"
  eltwise_param {
    operation: SUM
  }
}
layer {
  name: "lstm2_unit_15"
  type: "LSTMUnit"
  bottom: "c_14"
  bottom: "gate_input_15"
  bottom: "cont_15"
  top: "c_15"
  top: "h_15"
}
layer {
  name: "lstm2_h_conted_15"
  type: "Scale"
  bottom: "h_15"
  bottom: "cont_16"
  top: "h_conted_15"
  scale_param {
    axis: 0
  }
}
layer {
  name: "lstm2_transform_16"
  type: "InnerProduct"
  bottom: "h_conted_15"
  top: "W_hc_h_15"
  param {
    name: "W_hc"
  }
  inner_product_param {
    num_output: 400
    bias_term: false
    weight_filler {
      type: "xavier"
    }
    axis: 2
  }
}
layer {
  name: "lstm2_gate_input_16"
  type: "Eltwise"
  bottom: "W_hc_h_15"
  bottom: "W_xc_x_16"
  top: "gate_input_16"
  eltwise_param {
    operation: SUM
  }
}
layer {
  name: "lstm2_unit_16"
  type: "LSTMUnit"
  bottom: "c_15"
  bottom: "gate_input_16"
  bottom: "cont_16"
  top: "c_16"
  top: "h_16"
}
layer {
  name: "lstm2_h_conted_16"
  type: "Scale"
  bottom: "h_16"
  bottom: "cont_17"
  top: "h_conted_16"
  scale_param {
    axis: 0
  }
}
layer {
  name: "lstm2_transform_17"
  type: "InnerProduct"
  bottom: "h_conted_16"
  top: "W_hc_h_16"
  param {
    name: "W_hc"
  }
  inner_product_param {
    num_output: 400
    bias_term: false
    weight_filler {
      type: "xavier"
    }
    axis: 2
  }
}
layer {
  name: "lstm2_gate_input_17"
  type: "Eltwise"
  bottom: "W_hc_h_16"
  bottom: "W_xc_x_17"
  top: "gate_input_17"
  eltwise_param {
    operation: SUM
  }
}
layer {
  name: "lstm2_unit_17"
  type: "LSTMUnit"
  bottom: "c_16"
  bottom: "gate_input_17"
  bottom: "cont_17"
  top: "c_17"
  top: "h_17"
}
layer {
  name: "lstm2_h_conted_17"
  type: "Scale"
  bottom: "h_17"
  bottom: "cont_18"
  top: "h_conted_17"
  scale_param {
    axis: 0
  }
}
layer {
  name: "lstm2_transform_18"
  type: "InnerProduct"
  bottom: "h_conted_17"
  top: "W_hc_h_17"
  param {
    name: "W_hc"
  }
  inner_product_param {
    num_output: 400
    bias_term: false
    weight_filler {
      type: "xavier"
    }
    axis: 2
  }
}
layer {
  name: "lstm2_gate_input_18"
  type: "Eltwise"
  bottom: "W_hc_h_17"
  bottom: "W_xc_x_18"
  top: "gate_input_18"
  eltwise_param {
    operation: SUM
  }
}
layer {
  name: "lstm2_unit_18"
  type: "LSTMUnit"
  bottom: "c_17"
  bottom: "gate_input_18"
  bottom: "cont_18"
  top: "c_18"
  top: "h_18"
}
layer {
  name: "lstm2_h_conted_18"
  type: "Scale"
  bottom: "h_18"
  bottom: "cont_19"
  top: "h_conted_18"
  scale_param {
    axis: 0
  }
}
layer {
  name: "lstm2_transform_19"
  type: "InnerProduct"
  bottom: "h_conted_18"
  top: "W_hc_h_18"
  param {
    name: "W_hc"
  }
  inner_product_param {
    num_output: 400
    bias_term: false
    weight_filler {
      type: "xavier"
    }
    axis: 2
  }
}
layer {
  name: "lstm2_gate_input_19"
  type: "Eltwise"
  bottom: "W_hc_h_18"
  bottom: "W_xc_x_19"
  top: "gate_input_19"
  eltwise_param {
    operation: SUM
  }
}
layer {
  name: "lstm2_unit_19"
  type: "LSTMUnit"
  bottom: "c_18"
  bottom: "gate_input_19"
  bottom: "cont_19"
  top: "c_19"
  top: "h_19"
}
layer {
  name: "lstm2_h_conted_19"
  type: "Scale"
  bottom: "h_19"
  bottom: "cont_20"
  top: "h_conted_19"
  scale_param {
    axis: 0
  }
}
layer {
  name: "lstm2_transform_20"
  type: "InnerProduct"
  bottom: "h_conted_19"
  top: "W_hc_h_19"
  param {
    name: "W_hc"
  }
  inner_product_param {
    num_output: 400
    bias_term: false
    weight_filler {
      type: "xavier"
    }
    axis: 2
  }
}
layer {
  name: "lstm2_gate_input_20"
  type: "Eltwise"
  bottom: "W_hc_h_19"
  bottom: "W_xc_x_20"
  top: "gate_input_20"
  eltwise_param {
    operation: SUM
  }
}
layer {
  name: "lstm2_unit_20"
  type: "LSTMUnit"
  bottom: "c_19"
  bottom: "gate_input_20"
  bottom: "cont_20"
  top: "c_20"
  top: "h_20"
}
layer {
  name: "lstm2_h_conted_20"
  type: "Scale"
  bottom: "h_20"
  bottom: "cont_21"
  top: "h_conted_20"
  scale_param {
    axis: 0
  }
}
layer {
  name: "lstm2_transform_21"
  type: "InnerProduct"
  bottom: "h_conted_20"
  top: "W_hc_h_20"
  param {
    name: "W_hc"
  }
  inner_product_param {
    num_output: 400
    bias_term: false
    weight_filler {
      type: "xavier"
    }
    axis: 2
  }
}
layer {
  name: "lstm2_gate_input_21"
  type: "Eltwise"
  bottom: "W_hc_h_20"
  bottom: "W_xc_x_21"
  top: "gate_input_21"
  eltwise_param {
    operation: SUM
  }
}
layer {
  name: "lstm2_unit_21"
  type: "LSTMUnit"
  bottom: "c_20"
  bottom: "gate_input_21"
  bottom: "cont_21"
  top: "c_21"
  top: "h_21"
}
layer {
  name: "lstm2_h_conted_21"
  type: "Scale"
  bottom: "h_21"
  bottom: "cont_22"
  top: "h_conted_21"
  scale_param {
    axis: 0
  }
}
layer {
  name: "lstm2_transform_22"
  type: "InnerProduct"
  bottom: "h_conted_21"
  top: "W_hc_h_21"
  param {
    name: "W_hc"
  }
  inner_product_param {
    num_output: 400
    bias_term: false
    weight_filler {
      type: "xavier"
    }
    axis: 2
  }
}
layer {
  name: "lstm2_gate_input_22"
  type: "Eltwise"
  bottom: "W_hc_h_21"
  bottom: "W_xc_x_22"
  top: "gate_input_22"
  eltwise_param {
    operation: SUM
  }
}
layer {
  name: "lstm2_unit_22"
  type: "LSTMUnit"
  bottom: "c_21"
  bottom: "gate_input_22"
  bottom: "cont_22"
  top: "c_22"
  top: "h_22"
}
layer {
  name: "lstm2_h_conted_22"
  type: "Scale"
  bottom: "h_22"
  bottom: "cont_23"
  top: "h_conted_22"
  scale_param {
    axis: 0
  }
}
layer {
  name: "lstm2_transform_23"
  type: "InnerProduct"
  bottom: "h_conted_22"
  top: "W_hc_h_22"
  param {
    name: "W_hc"
  }
  inner_product_param {
    num_output: 400
    bias_term: false
    weight_filler {
      type: "xavier"
    }
    axis: 2
  }
}
layer {
  name: "lstm2_gate_input_23"
  type: "Eltwise"
  bottom: "W_hc_h_22"
  bottom: "W_xc_x_23"
  top: "gate_input_23"
  eltwise_param {
    operation: SUM
  }
}
layer {
  name: "lstm2_unit_23"
  type: "LSTMUnit"
  bottom: "c_22"
  bottom: "gate_input_23"
  bottom: "cont_23"
  top: "c_23"
  top: "h_23"
}
layer {
  name: "lstm2_h_conted_23"
  type: "Scale"
  bottom: "h_23"
  bottom: "cont_24"
  top: "h_conted_23"
  scale_param {
    axis: 0
  }
}
layer {
  name: "lstm2_transform_24"
  type: "InnerProduct"
  bottom: "h_conted_23"
  top: "W_hc_h_23"
  param {
    name: "W_hc"
  }
  inner_product_param {
    num_output: 400
    bias_term: false
    weight_filler {
      type: "xavier"
    }
    axis: 2
  }
}
layer {
  name: "lstm2_gate_input_24"
  type: "Eltwise"
  bottom: "W_hc_h_23"
  bottom: "W_xc_x_24"
  top: "gate_input_24"
  eltwise_param {
    operation: SUM
  }
}
layer {
  name: "lstm2_unit_24"
  type: "LSTMUnit"
  bottom: "c_23"
  bottom: "gate_input_24"
  bottom: "cont_24"
  top: "c_24"
  top: "h_24"
}
layer {
  name: "lstm2_h_conted_24"
  type: "Scale"
  bottom: "h_24"
  bottom: "cont_25"
  top: "h_conted_24"
  scale_param {
    axis: 0
  }
}
layer {
  name: "lstm2_transform_25"
  type: "InnerProduct"
  bottom: "h_conted_24"
  top: "W_hc_h_24"
  param {
    name: "W_hc"
  }
  inner_product_param {
    num_output: 400
    bias_term: false
    weight_filler {
      type: "xavier"
    }
    axis: 2
  }
}
layer {
  name: "lstm2_gate_input_25"
  type: "Eltwise"
  bottom: "W_hc_h_24"
  bottom: "W_xc_x_25"
  top: "gate_input_25"
  eltwise_param {
    operation: SUM
  }
}
layer {
  name: "lstm2_unit_25"
  type: "LSTMUnit"
  bottom: "c_24"
  bottom: "gate_input_25"
  bottom: "cont_25"
  top: "c_25"
  top: "h_25"
}
layer {
  name: "lstm2_h_conted_25"
  type: "Scale"
  bottom: "h_25"
  bottom: "cont_26"
  top: "h_conted_25"
  scale_param {
    axis: 0
  }
}
layer {
  name: "lstm2_transform_26"
  type: "InnerProduct"
  bottom: "h_conted_25"
  top: "W_hc_h_25"
  param {
    name: "W_hc"
  }
  inner_product_param {
    num_output: 400
    bias_term: false
    weight_filler {
      type: "xavier"
    }
    axis: 2
  }
}
layer {
  name: "lstm2_gate_input_26"
  type: "Eltwise"
  bottom: "W_hc_h_25"
  bottom: "W_xc_x_26"
  top: "gate_input_26"
  eltwise_param {
    operation: SUM
  }
}
layer {
  name: "lstm2_unit_26"
  type: "LSTMUnit"
  bottom: "c_25"
  bottom: "gate_input_26"
  bottom: "cont_26"
  top: "c_26"
  top: "h_26"
}
layer {
  name: "lstm2_h_conted_26"
  type: "Scale"
  bottom: "h_26"
  bottom: "cont_27"
  top: "h_conted_26"
  scale_param {
    axis: 0
  }
}
layer {
  name: "lstm2_transform_27"
  type: "InnerProduct"
  bottom: "h_conted_26"
  top: "W_hc_h_26"
  param {
    name: "W_hc"
  }
  inner_product_param {
    num_output: 400
    bias_term: false
    weight_filler {
      type: "xavier"
    }
    axis: 2
  }
}
layer {
  name: "lstm2_gate_input_27"
  type: "Eltwise"
  bottom: "W_hc_h_26"
  bottom: "W_xc_x_27"
  top: "gate_input_27"
  eltwise_param {
    operation: SUM
  }
}
layer {
  name: "lstm2_unit_27"
  type: "LSTMUnit"
  bottom: "c_26"
  bottom: "gate_input_27"
  bottom: "cont_27"
  top: "c_27"
  top: "h_27"
}
layer {
  name: "lstm2_h_conted_27"
  type: "Scale"
  bottom: "h_27"
  bottom: "cont_28"
  top: "h_conted_27"
  scale_param {
    axis: 0
  }
}
layer {
  name: "lstm2_transform_28"
  type: "InnerProduct"
  bottom: "h_conted_27"
  top: "W_hc_h_27"
  param {
    name: "W_hc"
  }
  inner_product_param {
    num_output: 400
    bias_term: false
    weight_filler {
      type: "xavier"
    }
    axis: 2
  }
}
layer {
  name: "lstm2_gate_input_28"
  type: "Eltwise"
  bottom: "W_hc_h_27"
  bottom: "W_xc_x_28"
  top: "gate_input_28"
  eltwise_param {
    operation: SUM
  }
}
layer {
  name: "lstm2_unit_28"
  type: "LSTMUnit"
  bottom: "c_27"
  bottom: "gate_input_28"
  bottom: "cont_28"
  top: "c_28"
  top: "h_28"
}
layer {
  name: "lstm2_h_conted_28"
  type: "Scale"
  bottom: "h_28"
  bottom: "cont_29"
  top: "h_conted_28"
  scale_param {
    axis: 0
  }
}
layer {
  name: "lstm2_transform_29"
  type: "InnerProduct"
  bottom: "h_conted_28"
  top: "W_hc_h_28"
  param {
    name: "W_hc"
  }
  inner_product_param {
    num_output: 400
    bias_term: false
    weight_filler {
      type: "xavier"
    }
    axis: 2
  }
}
layer {
  name: "lstm2_gate_input_29"
  type: "Eltwise"
  bottom: "W_hc_h_28"
  bottom: "W_xc_x_29"
  top: "gate_input_29"
  eltwise_param {
    operation: SUM
  }
}
layer {
  name: "lstm2_unit_29"
  type: "LSTMUnit"
  bottom: "c_28"
  bottom: "gate_input_29"
  bottom: "cont_29"
  top: "c_29"
  top: "h_29"
}
layer {
  name: "lstm2_h_conted_29"
  type: "Scale"
  bottom: "h_29"
  bottom: "cont_30"
  top: "h_conted_29"
  scale_param {
    axis: 0
  }
}
layer {
  name: "lstm2_transform_30"
  type: "InnerProduct"
  bottom: "h_conted_29"
  top: "W_hc_h_29"
  param {
    name: "W_hc"
  }
  inner_product_param {
    num_output: 400
    bias_term: false
    weight_filler {
      type: "xavier"
    }
    axis: 2
  }
}
layer {
  name: "lstm2_gate_input_30"
  type: "Eltwise"
  bottom: "W_hc_h_29"
  bottom: "W_xc_x_30"
  top: "gate_input_30"
  eltwise_param {
    operation: SUM
  }
}
layer {
  name: "lstm2_unit_30"
  type: "LSTMUnit"
  bottom: "c_29"
  bottom: "gate_input_30"
  bottom: "cont_30"
  top: "c_30"
  top: "h_30"
}
layer {
  name: "lstm2_h_conted_30"
  type: "Scale"
  bottom: "h_30"
  bottom: "cont_31"
  top: "h_conted_30"
  scale_param {
    axis: 0
  }
}
layer {
  name: "lstm2_transform_31"
  type: "InnerProduct"
  bottom: "h_conted_30"
  top: "W_hc_h_30"
  param {
    name: "W_hc"
  }
  inner_product_param {
    num_output: 400
    bias_term: false
    weight_filler {
      type: "xavier"
    }
    axis: 2
  }
}
layer {
  name: "lstm2_gate_input_31"
  type: "Eltwise"
  bottom: "W_hc_h_30"
  bottom: "W_xc_x_31"
  top: "gate_input_31"
  eltwise_param {
    operation: SUM
  }
}
layer {
  name: "lstm2_unit_31"
  type: "LSTMUnit"
  bottom: "c_30"
  bottom: "gate_input_31"
  bottom: "cont_31"
  top: "c_31"
  top: "h_31"
}
layer {
  name: "lstm2_h_conted_31"
  type: "Scale"
  bottom: "h_31"
  bottom: "cont_32"
  top: "h_conted_31"
  scale_param {
    axis: 0
  }
}
layer {
  name: "lstm2_transform_32"
  type: "InnerProduct"
  bottom: "h_conted_31"
  top: "W_hc_h_31"
  param {
    name: "W_hc"
  }
  inner_product_param {
    num_output: 400
    bias_term: false
    weight_filler {
      type: "xavier"
    }
    axis: 2
  }
}
layer {
  name: "lstm2_gate_input_32"
  type: "Eltwise"
  bottom: "W_hc_h_31"
  bottom: "W_xc_x_32"
  top: "gate_input_32"
  eltwise_param {
    operation: SUM
  }
}
layer {
  name: "lstm2_unit_32"
  type: "LSTMUnit"
  bottom: "c_31"
  bottom: "gate_input_32"
  bottom: "cont_32"
  top: "c_32"
  top: "h_32"
}
layer {
  name: "lstm2_h_conted_32"
  type: "Scale"
  bottom: "h_32"
  bottom: "cont_33"
  top: "h_conted_32"
  scale_param {
    axis: 0
  }
}
layer {
  name: "lstm2_transform_33"
  type: "InnerProduct"
  bottom: "h_conted_32"
  top: "W_hc_h_32"
  param {
    name: "W_hc"
  }
  inner_product_param {
    num_output: 400
    bias_term: false
    weight_filler {
      type: "xavier"
    }
    axis: 2
  }
}
layer {
  name: "lstm2_gate_input_33"
  type: "Eltwise"
  bottom: "W_hc_h_32"
  bottom: "W_xc_x_33"
  top: "gate_input_33"
  eltwise_param {
    operation: SUM
  }
}
layer {
  name: "lstm2_unit_33"
  type: "LSTMUnit"
  bottom: "c_32"
  bottom: "gate_input_33"
  bottom: "cont_33"
  top: "c_33"
  top: "h_33"
}
layer {
  name: "lstm2_h_conted_33"
  type: "Scale"
  bottom: "h_33"
  bottom: "cont_34"
  top: "h_conted_33"
  scale_param {
    axis: 0
  }
}
layer {
  name: "lstm2_transform_34"
  type: "InnerProduct"
  bottom: "h_conted_33"
  top: "W_hc_h_33"
  param {
    name: "W_hc"
  }
  inner_product_param {
    num_output: 400
    bias_term: false
    weight_filler {
      type: "xavier"
    }
    axis: 2
  }
}
layer {
  name: "lstm2_gate_input_34"
  type: "Eltwise"
  bottom: "W_hc_h_33"
  bottom: "W_xc_x_34"
  top: "gate_input_34"
  eltwise_param {
    operation: SUM
  }
}
layer {
  name: "lstm2_unit_34"
  type: "LSTMUnit"
  bottom: "c_33"
  bottom: "gate_input_34"
  bottom: "cont_34"
  top: "c_34"
  top: "h_34"
}
layer {
  name: "lstm2_h_conted_34"
  type: "Scale"
  bottom: "h_34"
  bottom: "cont_35"
  top: "h_conted_34"
  scale_param {
    axis: 0
  }
}
layer {
  name: "lstm2_transform_35"
  type: "InnerProduct"
  bottom: "h_conted_34"
  top: "W_hc_h_34"
  param {
    name: "W_hc"
  }
  inner_product_param {
    num_output: 400
    bias_term: false
    weight_filler {
      type: "xavier"
    }
    axis: 2
  }
}
layer {
  name: "lstm2_gate_input_35"
  type: "Eltwise"
  bottom: "W_hc_h_34"
  bottom: "W_xc_x_35"
  top: "gate_input_35"
  eltwise_param {
    operation: SUM
  }
}
layer {
  name: "lstm2_unit_35"
  type: "LSTMUnit"
  bottom: "c_34"
  bottom: "gate_input_35"
  bottom: "cont_35"
  top: "c_35"
  top: "h_35"
}
layer {
  name: "lstm2_h_conted_35"
  type: "Scale"
  bottom: "h_35"
  bottom: "cont_36"
  top: "h_conted_35"
  scale_param {
    axis: 0
  }
}
layer {
  name: "lstm2_transform_36"
  type: "InnerProduct"
  bottom: "h_conted_35"
  top: "W_hc_h_35"
  param {
    name: "W_hc"
  }
  inner_product_param {
    num_output: 400
    bias_term: false
    weight_filler {
      type: "xavier"
    }
    axis: 2
  }
}
layer {
  name: "lstm2_gate_input_36"
  type: "Eltwise"
  bottom: "W_hc_h_35"
  bottom: "W_xc_x_36"
  top: "gate_input_36"
  eltwise_param {
    operation: SUM
  }
}
layer {
  name: "lstm2_unit_36"
  type: "LSTMUnit"
  bottom: "c_35"
  bottom: "gate_input_36"
  bottom: "cont_36"
  top: "c_36"
  top: "h_36"
}
layer {
  name: "lstm2_h_conted_36"
  type: "Scale"
  bottom: "h_36"
  bottom: "cont_37"
  top: "h_conted_36"
  scale_param {
    axis: 0
  }
}
layer {
  name: "lstm2_transform_37"
  type: "InnerProduct"
  bottom: "h_conted_36"
  top: "W_hc_h_36"
  param {
    name: "W_hc"
  }
  inner_product_param {
    num_output: 400
    bias_term: false
    weight_filler {
      type: "xavier"
    }
   
I0506 10:14:54.590617  9060 layer_factory.hpp:77] Creating layer lstm2_
I0506 10:14:54.590649  9060 net.cpp:86] Creating Layer lstm2_
I0506 10:14:54.590656  9060 net.cpp:382] lstm2_ -> x
I0506 10:14:54.590670  9060 net.cpp:382] lstm2_ -> cont
I0506 10:14:54.590811  9060 net.cpp:124] Setting up lstm2_
I0506 10:14:54.590817  9060 net.cpp:131] Top shape: 80 512 100 (4096000)
I0506 10:14:54.590824  9060 net.cpp:131] Top shape: 80 512 (40960)
I0506 10:14:54.590829  9060 net.cpp:139] Memory required for data: 16547840
I0506 10:14:54.590834  9060 layer_factory.hpp:77] Creating layer lstm2_
I0506 10:14:54.590842  9060 net.cpp:86] Creating Layer lstm2_
I0506 10:14:54.590847  9060 net.cpp:382] lstm2_ -> c_0
I0506 10:14:54.590855  9060 net.cpp:382] lstm2_ -> h_0
I0506 10:14:54.590903  9060 net.cpp:124] Setting up lstm2_
I0506 10:14:54.590907  9060 net.cpp:131] Top shape: 1 512 100 (51200)
I0506 10:14:54.590914  9060 net.cpp:131] Top shape: 1 512 100 (51200)
I0506 10:14:54.590919  9060 net.cpp:139] Memory required for data: 16957440
I0506 10:14:54.590921  9060 layer_factory.hpp:77] Creating layer lstm2_cont_slice
I0506 10:14:54.590934  9060 net.cpp:86] Creating Layer lstm2_cont_slice
I0506 10:14:54.590939  9060 net.cpp:408] lstm2_cont_slice <- cont
I0506 10:14:54.590948  9060 net.cpp:382] lstm2_cont_slice -> cont_1
I0506 10:14:54.590961  9060 net.cpp:382] lstm2_cont_slice -> cont_2
…
I0506 10:14:54.802803  9060 net.cpp:53] Initializing net from parameters: 
name: "vehicle_captcha_test"
state {
  phase: TEST
}
layer {
  name: "data"
  type: "Python"
  top: "data"
  top: "label"
  python_param {
    module: "pythonLayer"
    layer: "WarpctcDataLayer"
    param_str: "{\'width\': 80, \'label_txt\': \'data/captcha/test.txt\', \'train\': False, \'batch_size\': 512, \'height\': 30}"
  }
}
layer {
  name: "indicator"
  type: "ContinuationIndicator"
  top: "indicator"
  continuation_indicator_param {
    time_step: 80
    batch_size: 512
  }
}
layer {
  name: "permuted_data"
  type: "Permute"
  bottom: "data"
  top: "permuted_data"
  permute_param {
    order: 3
    order: 0
    order: 1
    order: 2
  }
}
layer {
  name: "lstm1"
  type: "LSTM"
  bottom: "permuted_data"
  bottom: "indicator"
  top: "lstm1"
  recurrent_param {
    num_output: 100
    weight_filler {
      type: "xavier"
    }
    bias_filler {
      type: "constant"
      value: 0
    }
  }
}
layer {
  name: "lstm2"
  type: "LSTM"
  bottom: "lstm1"
  bottom: "indicator"
  top: "lstm2"
  recurrent_param {
    num_output: 100
    weight_filler {
      type: "xavier"
    }
    bias_filler {
      type: "constant"
      value: 0
    }
  }
}
layer {
  name: "fc1"
  type: "InnerProduct"
  bottom: "lstm2"
  top: "fc1"
  param {
    lr_mult: 1
    decay_mult: 1
  }
  param {
    lr_mult: 2
    decay_mult: 0
  }
  inner_product_param {
    num_output: 11
    weight_filler {
      type: "xavier"
    }
    bias_filler {
      type: "constant"
      value: 0
    }
    axis: 2
  }
}
layer {
  name: "ctc_loss"
  type: "CtcLoss"
  bottom: "fc1"
  bottom: "label"
  top: "ctc_loss"
  loss_weight: 1
  ctc_loss_param {
    alphabet_size: 11
    time_step: 80
    blank_label: 10
  }
}
layer {
  name: "premuted_fc"
  type: "Permute"
  bottom: "fc1"
  top: "premuted_fc"
  permute_param {
    order: 1
    order: 0
    order: 2
  }
}
layer {
  name: "accuracy"
  type: "LabelsequenceAccuracy"
  bottom: "premuted_fc"
  bottom: "label"
  top: "accuracy"
  labelsequence_accuracy_param {
    blank_label: 10
  }
}
I0506 10:14:54.802944  9060 layer_factory.hpp:77] Creating layer data
I0506 10:14:54.803010  9060 net.cpp:86] Creating Layer data
I0506 10:14:54.803017  9060 net.cpp:382] data -> data
I0506 10:14:54.803025  9060 net.cpp:382] data -> label
I0506 10:14:54.818406  9060 net.cpp:124] Setting up data
I0506 10:14:54.818439  9060 net.cpp:131] Top shape: 512 3 30 80 (3686400)
I0506 10:14:54.818450  9060 net.cpp:131] Top shape: 512 5 (2560)
I0506 10:14:54.818455  9060 net.cpp:139] Memory required for data: 14755840
I0506 10:14:54.818462  9060 layer_factory.hpp:77] Creating layer label_data_1_split
I0506 10:14:54.818514  9060 net.cpp:86] Creating Layer label_data_1_split
I0506 10:14:54.818524  9060 net.cpp:408] label_data_1_split <- label
I0506 10:14:54.818537  9060 net.cpp:382] label_data_1_split -> label_data_1_split_0
I0506 10:14:54.818554  9060 net.cpp:382] label_data_1_split -> label_data_1_split_1
I0506 10:14:54.818621  9060 net.cpp:124] Setting up label_data_1_split
I0506 10:14:54.818631  9060 net.cpp:131] Top shape: 512 5 (2560)
I0506 10:14:54.818639  9060 net.cpp:131] Top shape: 512 5 (2560)
I0506 10:14:54.818645  9060 net.cpp:139] Memory required for data: 14776320
I0506 10:14:54.818650  9060 layer_factory.hpp:77] Creating layer indicator
I0506 10:14:54.818661  9060 net.cpp:86] Creating Layer indicator
I0506 10:14:54.818670  9060 net.cpp:382] indicator -> indicator
I0506 10:14:54.818706  9060 net.cpp:124] Setting up indicator
I0506 10:14:54.818715  9060 net.cpp:131] Top shape: 80 512 (40960)
I0506 10:14:54.818722  9060 net.cpp:139] Memory required for data: 14940160
I0506 10:14:54.818727  9060 layer_factory.hpp:77] Creating layer indicator_indicator_0_split
I0506 10:14:54.818737  9060 net.cpp:86] Creating Layer indicator_indicator_0_split
I0506 10:14:54.818742  9060 net.cpp:408] indicator_indicator_0_split <- indicator
I0506 10:14:54.818753  9060 net.cpp:382] indicator_indicator_0_split -> indicator_indicator_0_split_0
I0506 10:14:54.818768  9060 net.cpp:382] indicator_indicator_0_split -> indicator_indicator_0_split_1
I0506 10:14:54.818821  9060 net.cpp:124] Setting up indicator_indicator_0_split
I0506 10:14:54.818830  9060 net.cpp:131] Top shape: 80 512 (40960)
I0506 10:14:54.818837  9060 net.cpp:131] Top shape: 80 512 (40960)
I0506 10:14:54.818843  9060 net.cpp:139] Memory required for data: 15267840
I0506 10:14:54.818848  9060 layer_factory.hpp:77] Creating layer permuted_data
I0506 10:14:54.818861  9060 net.cpp:86] Creating Layer permuted_data
I0506 10:14:54.818866  9060 net.cpp:408] permuted_data <- data
I0506 10:14:54.818876  9060 net.cpp:382] permuted_data -> permuted_data
I0506 10:14:54.819022  9060 net.cpp:124] Setting up permuted_data
I0506 10:14:54.819032  9060 net.cpp:131] Top shape: 80 512 3 30 (3686400)
I0506 10:14:54.819041  9060 net.cpp:139] Memory required for data: 30013440
I0506 10:14:54.819046  9060 layer_factory.hpp:77] Creating layer lstm1
I0506 10:14:54.819057  9060 net.cpp:86] Creating Layer lstm1
I0506 10:14:54.819063  9060 net.cpp:408] lstm1 <- permuted_data
I0506 10:14:54.819070  9060 net.cpp:408] lstm1 <- indicator_indicator_0_split_0
I0506 10:14:54.819079  9060 net.cpp:382] lstm1 -> lstm1
I0506 10:14:54.819092  9060 recurrent_layer.cpp:20] Initializing recurrent layer: assuming input batch contains 80 timesteps of 512 independent streams.
I0506 10:14:54.820247  9060 net.cpp:53] Initializing net from parameters: 
layer {
  name: "lstm1_"
  type: "Input"
  top: "x"
  top: "cont"
  input_param {
    shape {
      dim: 80
      dim: 512
      dim: 3
      dim: 30
    }
    shape {
      dim: 80
      dim: 512
    }
  }
}
layer {
  name: "lstm1_"
  type: "Input"
  top: "c_0"
  top: "h_0"
  input_param {
    shape {
      dim: 1
      dim: 512
      dim: 100
    }
    shape {
      dim: 1
      dim: 512
      dim: 100
    }
  }
}
layer {
  name: "lstm1_cont_slice"
  type: "Slice"
  bottom: "cont"
  top: "cont_1"
  top: "cont_2"
  top: "cont_3"
  top: "cont_4"
  top: "cont_5"
  top: "cont_6"
  top: "cont_7"
  top: "cont_8"
  top: "cont_9"
  top: "cont_10"
  top: "cont_11"
  top: "cont_12"
  top: "cont_13"
  top: "cont_14"
  top: "cont_15"
  top: "cont_16"
  top: "cont_17"
  top: "cont_18"
  top: "cont_19"
  top: "cont_20"
  top: "cont_21"
  top: "cont_22"
  top: "cont_23"
  top: "cont_24"
  top: "cont_25"
  top: "cont_26"
  top: "cont_27"
  top: "cont_28"
  top: "cont_29"
  top: "cont_30"
  top: "cont_31"
  top: "cont_32"
  top: "cont_33"
  top: "cont_34"
  top: "cont_35"
  top: "cont_36"
  top: "cont_37"
  top: "cont_38"
  top: "cont_39"
  top: "cont_40"
  top: "cont_41"
  top: "cont_42"
  top: "cont_43"
  top: "cont_44"
  top: "cont_45"
  top: "cont_46"
  top: "cont_47"
  top: "cont_48"
  top: "cont_49"
  top: "cont_50"
  top: "cont_51"
  top: "cont_52"
  top: "cont_53"
  top: "cont_54"
  top: "cont_55"
  top: "cont_56"
  top: "cont_57"
  top: "cont_58"
  top: "cont_59"
  top: "cont_60"
  top: "cont_61"
  top: "cont_62"
  top: "cont_63"
  top: "cont_64"
  top: "cont_65"
  top: "cont_66"
  top: "cont_67"
  top: "cont_68"
  top: "cont_69"
  top: "cont_70"
  top: "cont_71"
  top: "cont_72"
  top: "cont_73"
  top: "cont_74"
  top: "cont_75"
  top: "cont_76"
  top: "cont_77"
  top: "cont_78"
  top: "cont_79"
  top: "cont_80"
  slice_param {
    axis: 0
  }
}
layer {
  name: "lstm1_x_transform"
  type: "InnerProduct"
  bottom: "x"
  top: "W_xc_x"
  param {
    name: "W_xc"
  }
  param {
    name: "b_c"
  }
  propagate_down: true
  inner_product_param {
    num_output: 400
    bias_term: true
    weight_filler {
      type: "xavier"
    }
    bias_filler {
      type: "constant"
      value: 0
    }
    axis: 2
  }
}
layer {
  name: "lstm1_W_xc_x_slice"
  type: "Slice"
  bottom: "W_xc_x"
  top: "W_xc_x_1"
  top: "W_xc_x_2"
  top: "W_xc_x_3"
  top: "W_xc_x_4"
  top: "W_xc_x_5"
  top: "W_xc_x_6"
  top: "W_xc_x_7"
  top: "W_xc_x_8"
  top: "W_xc_x_9"
  top: "W_xc_x_10"
  top: "W_xc_x_11"
  top: "W_xc_x_12"
  top: "W_xc_x_13"
  top: "W_xc_x_14"
  top: "W_xc_x_15"
  top: "W_xc_x_16"
  top: "W_xc_x_17"
  top: "W_xc_x_18"
  top: "W_xc_x_19"
  top: "W_xc_x_20"
  top: "W_xc_x_21"
  top: "W_xc_x_22"
…
I0506 10:14:55.135875  9060 net.cpp:202] lstm2_ does not need backward computation.
I0506 10:14:55.135885  9060 net.cpp:244] This network produces output c_T
I0506 10:14:55.135893  9060 net.cpp:244] This network produces output h_pseudoloss
I0506 10:14:55.138892  9060 net.cpp:257] Network initialization done.
I0506 10:14:55.139766  9060 recurrent_layer.cpp:150] Adding parameter 0: W_xc
I0506 10:14:55.139771  9060 recurrent_layer.cpp:150] Adding parameter 1: b_c
I0506 10:14:55.139775  9060 recurrent_layer.cpp:150] Adding parameter 2: W_hc
I0506 10:14:55.142526  9060 net.cpp:124] Setting up lstm2
I0506 10:14:55.142554  9060 net.cpp:131] Top shape: 80 512 100 (4096000)
I0506 10:14:55.142563  9060 net.cpp:139] Memory required for data: 62781440
I0506 10:14:55.142577  9060 layer_factory.hpp:77] Creating layer fc1
I0506 10:14:55.142593  9060 net.cpp:86] Creating Layer fc1
I0506 10:14:55.142598  9060 net.cpp:408] fc1 <- lstm2
I0506 10:14:55.142606  9060 net.cpp:382] fc1 -> fc1
I0506 10:14:55.142782  9060 net.cpp:124] Setting up fc1
I0506 10:14:55.142786  9060 net.cpp:131] Top shape: 80 512 11 (450560)
I0506 10:14:55.142789  9060 net.cpp:139] Memory required for data: 64583680
I0506 10:14:55.142794  9060 layer_factory.hpp:77] Creating layer fc1_fc1_0_split
I0506 10:14:55.142803  9060 net.cpp:86] Creating Layer fc1_fc1_0_split
I0506 10:14:55.142807  9060 net.cpp:408] fc1_fc1_0_split <- fc1
I0506 10:14:55.142812  9060 net.cpp:382] fc1_fc1_0_split -> fc1_fc1_0_split_0
I0506 10:14:55.142817  9060 net.cpp:382] fc1_fc1_0_split -> fc1_fc1_0_split_1
I0506 10:14:55.142843  9060 net.cpp:124] Setting up fc1_fc1_0_split
I0506 10:14:55.142846  9060 net.cpp:131] Top shape: 80 512 11 (450560)
I0506 10:14:55.142849  9060 net.cpp:131] Top shape: 80 512 11 (450560)
I0506 10:14:55.142851  9060 net.cpp:139] Memory required for data: 68188160
I0506 10:14:55.142854  9060 layer_factory.hpp:77] Creating layer ctc_loss
I0506 10:14:55.142861  9060 net.cpp:86] Creating Layer ctc_loss
I0506 10:14:55.142863  9060 net.cpp:408] ctc_loss <- fc1_fc1_0_split_0
I0506 10:14:55.142866  9060 net.cpp:408] ctc_loss <- label_data_1_split_0
I0506 10:14:55.142870  9060 net.cpp:382] ctc_loss -> ctc_loss
I0506 10:14:55.142889  9060 net.cpp:124] Setting up ctc_loss
I0506 10:14:55.142890  9060 net.cpp:131] Top shape: (1)
I0506 10:14:55.142894  9060 net.cpp:134]     with loss weight 1
I0506 10:14:55.142902  9060 net.cpp:139] Memory required for data: 68188164
I0506 10:14:55.142904  9060 layer_factory.hpp:77] Creating layer premuted_fc
I0506 10:14:55.142910  9060 net.cpp:86] Creating Layer premuted_fc
I0506 10:14:55.142912  9060 net.cpp:408] premuted_fc <- fc1_fc1_0_split_1
I0506 10:14:55.142916  9060 net.cpp:382] premuted_fc -> premuted_fc
I0506 10:14:55.142988  9060 net.cpp:124] Setting up premuted_fc
I0506 10:14:55.142990  9060 net.cpp:131] Top shape: 512 80 11 (450560)
I0506 10:14:55.142993  9060 net.cpp:139] Memory required for data: 69990404
I0506 10:14:55.142995  9060 layer_factory.hpp:77] Creating layer accuracy
I0506 10:14:55.143002  9060 net.cpp:86] Creating Layer accuracy
I0506 10:14:55.143004  9060 net.cpp:408] accuracy <- premuted_fc
I0506 10:14:55.143007  9060 net.cpp:408] accuracy <- label_data_1_split_1
I0506 10:14:55.143010  9060 net.cpp:382] accuracy -> accuracy
…
