…
I0505 16:08:16.357805 32309 net.cpp:53] Initializing net from parameters: 
name: "vehicle_plate_train"
state {
  phase: TRAIN
  level: 0
  stage: ""
}
layer {
  name: "data"
  type: "Python"
  top: "data"
  top: "label"
  python_param {
    module: "pythonLayer"
    layer: "PlateDataLayer"
    param_str: "{\'width\': 80, \'label_txt\': \'data/plate/trainval.txt\', \'train\': True, \'batch_size\': 512, \'height\': 30}"
  }
}
layer {
  name: "indicator"
  type: "ContinuationIndicator"
  top: "indicator"
  continuation_indicator_param {
    time_step: 80
    batch_size: 512
  }
}
layer {
  name: "permuted_data"
  type: "Permute"
  bottom: "data"
  top: "permuted_data"
  permute_param {
    order: 3
    order: 0
    order: 1
    order: 2
  }
}
layer {
  name: "lstm1"
  type: "LSTM"
  bottom: "permuted_data"
  bottom: "indicator"
  top: "lstm1"
  recurrent_param {
    num_output: 100
    weight_filler {
      type: "xavier"
    }
    bias_filler {
      type: "constant"
      value: 0
    }
  }
}
layer {
  name: "lstm2"
  type: "LSTM"
  bottom: "lstm1"
  bottom: "indicator"
  top: "lstm2"
  recurrent_param {
    num_output: 100
    weight_filler {
      type: "xavier"
    }
    bias_filler {
      type: "constant"
      value: 0
    }
  }
}
layer {
  name: "fc1"
  type: "InnerProduct"
  bottom: "lstm2"
  top: "fc1"
  param {
    lr_mult: 1
    decay_mult: 1
  }
  param {
    lr_mult: 2
    decay_mult: 0
  }
  inner_product_param {
    num_output: 34
    weight_filler {
      type: "xavier"
    }
    bias_filler {
      type: "constant"
      value: 0
    }
    axis: 2
  }
}
layer {
  name: "ctc_loss"
  type: "CtcLoss"
  bottom: "fc1"
  bottom: "label"
  top: "ctc_loss"
  loss_weight: 1
  ctc_loss_param {
    alphabet_size: 34
    time_step: 80
    blank_label: 10
  }
}
I0505 16:08:16.357908 32309 layer_factory.hpp:77] Creating layer data
I0505 16:08:17.173030 32309 net.cpp:86] Creating Layer data
I0505 16:08:17.173076 32309 net.cpp:382] data -> data
I0505 16:08:17.173111 32309 net.cpp:382] data -> label
I0505 16:08:17.291659 32309 net.cpp:124] Setting up data
I0505 16:08:17.291692 32309 net.cpp:131] Top shape: 512 3 30 80 (3686400)
I0505 16:08:17.291705 32309 net.cpp:131] Top shape: 512 7 (3584)
I0505 16:08:17.291710 32309 net.cpp:139] Memory required for data: 14759936
I0505 16:08:17.291729 32309 layer_factory.hpp:77] Creating layer indicator
I0505 16:08:17.291757 32309 net.cpp:86] Creating Layer indicator
I0505 16:08:17.291764 32309 net.cpp:382] indicator -> indicator
I0505 16:08:17.291808 32309 net.cpp:124] Setting up indicator
I0505 16:08:17.291813 32309 net.cpp:131] Top shape: 80 512 (40960)
I0505 16:08:17.291817 32309 net.cpp:139] Memory required for data: 14923776
I0505 16:08:17.291822 32309 layer_factory.hpp:77] Creating layer indicator_indicator_0_split
I0505 16:08:17.291834 32309 net.cpp:86] Creating Layer indicator_indicator_0_split
I0505 16:08:17.291841 32309 net.cpp:408] indicator_indicator_0_split <- indicator
I0505 16:08:17.291864 32309 net.cpp:382] indicator_indicator_0_split -> indicator_indicator_0_split_0
I0505 16:08:17.291873 32309 net.cpp:382] indicator_indicator_0_split -> indicator_indicator_0_split_1
I0505 16:08:17.291913 32309 net.cpp:124] Setting up indicator_indicator_0_split
I0505 16:08:17.291918 32309 net.cpp:131] Top shape: 80 512 (40960)
I0505 16:08:17.291923 32309 net.cpp:131] Top shape: 80 512 (40960)
I0505 16:08:17.291926 32309 net.cpp:139] Memory required for data: 15251456
I0505 16:08:17.291973 32309 layer_factory.hpp:77] Creating layer permuted_data
I0505 16:08:17.291991 32309 net.cpp:86] Creating Layer permuted_data
I0505 16:08:17.291998 32309 net.cpp:408] permuted_data <- data
I0505 16:08:17.292006 32309 net.cpp:382] permuted_data -> permuted_data
I0505 16:08:17.292109 32309 net.cpp:124] Setting up permuted_data
I0505 16:08:17.292112 32309 net.cpp:131] Top shape: 80 512 3 30 (3686400)
I0505 16:08:17.292116 32309 net.cpp:139] Memory required for data: 29997056
I0505 16:08:17.292120 32309 layer_factory.hpp:77] Creating layer lstm1
I0505 16:08:17.292131 32309 net.cpp:86] Creating Layer lstm1
I0505 16:08:17.292135 32309 net.cpp:408] lstm1 <- permuted_data
I0505 16:08:17.292140 32309 net.cpp:408] lstm1 <- indicator_indicator_0_split_0
I0505 16:08:17.292146 32309 net.cpp:382] lstm1 -> lstm1
I0505 16:08:17.292160 32309 recurrent_layer.cpp:20] Initializing recurrent layer: assuming input batch contains 80 timesteps of 512 independent streams.
I0505 16:08:17.292927 32309 net.cpp:53] Initializing net from parameters: 
layer {
  name: "lstm1_"
  type: "Input"
  top: "x"
  top: "cont"
  input_param {
    shape {
      dim: 80
      dim: 512
      dim: 3
      dim: 30
    }
    shape {
      dim: 80
      dim: 512
    }
  }
}
layer {
  name: "lstm1_"
  type: "Input"
  top: "c_0"
  top: "h_0"
  input_param {
    shape {
      dim: 1
      dim: 512
      dim: 100
    }
    shape {
      dim: 1
      dim: 512
      dim: 100
    }
  }
}
layer {
  name: "lstm1_cont_slice"
  type: "Slice"
  bottom: "cont"
  top: "cont_1"
  top: "cont_2"
  top: "cont_3"
  top: "cont_4"
  top: "cont_5"
  top: "cont_6"
  top: "cont_7"
  top: "cont_8"
  top: "cont_9"
  top: "cont_10"
  top: "cont_11"
  top: "cont_12"
  top: "cont_13"
  top: "cont_14"
  top: "cont_15"
  top: "cont_16"
  top: "cont_17"
  top: "cont_18"
  top: "cont_19"
  top: "cont_20"
  top: "cont_21"
  top: "cont_22"
  top: "cont_23"
  top: "cont_24"
  top: "cont_25"
  top: "cont_26"
  top: "cont_27"
  top: "cont_28"
  top: "cont_29"
  top: "cont_30"
  top: "cont_31"
  top: "cont_32"
  top: "cont_33"
  top: "cont_34"
  top: "cont_35"
  top: "cont_36"
  top: "cont_37"
  top: "cont_38"
  top: "cont_39"
  top: "cont_40"
  top: "cont_41"
  top: "cont_42"
  top: "cont_43"
  top: "cont_44"
  top: "cont_45"
  top: "cont_46"
  top: "cont_47"
  top: "cont_48"
  top: "cont_49"
  top: "cont_50"
  top: "cont_51"
  top: "cont_52"
  top: "cont_53"
  top: "cont_54"
  top: "cont_55"
  top: "cont_56"
  top: "cont_57"
  top: "cont_58"
  top: "cont_59"
  top: "cont_60"
  top: "cont_61"
  top: "cont_62"
  top: "cont_63"
  top: "cont_64"
  top: "cont_65"
  top: "cont_66"
  top: "cont_67"
  top: "cont_68"
  top: "cont_69"
  top: "cont_70"
  top: "cont_71"
  top: "cont_72"
  top: "cont_73"
  top: "cont_74"
  top: "cont_75"
  top: "cont_76"
  top: "cont_77"
  top: "cont_78"
  top: "cont_79"
  top: "cont_80"
  slice_param {
    axis: 0
  }
}
layer {
  name: "lstm1_x_transform"
  type: "InnerProduct"
  bottom: "x"
  top: "W_xc_x"
  param {
    name: "W_xc"
  }
  param {
    name: "b_c"
  }
  propagate_down: true
  inner_product_param {
    num_output: 400
    bias_term: true
    weight_filler {
      type: "xavier"
    }
    bias_filler {
      type: "constant"
      value: 0
    }
    axis: 2
  }
}
layer {
  name: "lstm1_W_xc_x_slice"
  type: "Slice"
  bottom: "W_xc_x"
  top: "W_xc_x_1"
  top: "W_xc_x_2"
  top: "W_xc_x_3"
  top: "W_xc_x_4"
  top: "W_xc_x_5"
  top: "W_xc_x_6"
  top: "W_xc_x_7"
  top: "W_xc_x_8"
  top: "W_xc_x_9"
  top: "W_xc_x_10"
  top: "W_xc_x_11"
  top: "W_xc_x_12"
  top: "W_xc_x_13"
  top: "W_xc_x_14"
  top: "W_xc_x_15"
  top: "W_xc_x_16"
  top: "W_xc_x_17"
  top: "W_xc_x_18"
  top: "W_xc_x_19"
  top: "W_xc_x_20"
  top: "W_xc_x_21"
  top: "W_xc_x_22"
…
  top: "W_xc_x_53"
  top: "W_xc_x_54"
  top: "W_xc_x_55"
  top: "W_xc_x_56"
  top: "W_xc_x_57"
  top: "W_xc_x_58"
  top: "W_xc_x_59"
  top: "W_xc_x_60"
  top: "W_xc_x_61"
  top: "W_xc_x_62"
  top: "W_xc_x_63"
  top: "W_xc_x_64"
  top: "W_xc_x_65"
  top: "W_xc_x_66"
  top: "W_xc_x_67"
  top: "W_xc_x_68"
  top: "W_xc_x_69"
  top: "W_xc_x_70"
  top: "W_xc_x_71"
  top: "W_xc_x_72"
  top: "W_xc_x_73"
  top: "W_xc_x_74"
  top: "W_xc_x_75"
  top: "W_xc_x_76"
  top: "W_xc_x_77"
  top: "W_xc_x_78"
  top: "W_xc_x_79"
  top: "W_xc_x_80"
  slice_param {
    axis: 0
  }
}
layer {
  name: "lstm1_h_conted_0"
  type: "Scale"
  bottom: "h_0"
  bottom: "cont_1"
  top: "h_conted_0"
  scale_param {
    axis: 0
  }
}
layer {
  name: "lstm1_transform_1"
  type: "InnerProduct"
  bottom: "h_conted_0"
  top: "W_hc_h_0"
  param {
    name: "W_hc"
  }
  inner_product_param {
    num_output: 400
    bias_term: false
    weight_filler {
      type: "xavier"
    }
    axis: 2
  }
}
layer {
  name: "lstm1_gate_input_1"
  type: "Eltwise"
  bottom: "W_hc_h_0"
  bottom: "W_xc_x_1"
  top: "gate_input_1"
  eltwise_param {
    operation: SUM
  }
}
layer {
  name: "lstm1_unit_1"
  type: "LSTMUnit"
  bottom: "c_0"
  bottom: "gate_input_1"
  bottom: "cont_1"
  top: "c_1"
  top: "h_1"
}
layer {
  name: "lstm1_h_conted_1"
  type: "Scale"
  bottom: "h_1"
  bottom: "cont_2"
  top: "h_conted_1"
  scale_param {
    axis: 0
  }
}
layer {
  name: "lstm1_transform_2"
  type: "InnerProduct"
  bottom: "h_conted_1"
  top: "W_hc_h_1"
  param {
    name: "W_hc"
  }
  inner_product_param {
    num_output: 400
    bias_term: false
    weight_filler {
      type: "xavier"
    }
    axis: 2
  }
}
layer {
  name: "lstm1_gate_input_2"
  type: "Eltwise"
  bottom: "W_hc_h_1"
  bottom: "W_xc_x_2"
  top: "gate_input_2"
  eltwise_param {
    operation: SUM
  }
}
layer {
  name: "lstm1_unit_2"
  type: "LSTMUnit"
  bottom: "c_1"
  bottom: "gate_input_2"
  bottom: "cont_2"
  top: "c_2"
  top: "h_2"
}
layer {
  name: "lstm1_h_conted_2"
  type: "Scale"
  bottom: "h_2"
  bottom: "cont_3"
  top: "h_conted_2"
  scale_param {
    axis: 0
  }
}
layer {
  name: "lstm1_transform_3"
  type: "InnerProduct"
  bottom: "h_conted_2"
  top: "W_hc_h_2"
  param {
    name: "W_hc"
  }
  inner_product_param {
    num_output: 400
    bias_term: false
    weight_filler {
      type: "xavier"
    }
    axis: 2
  }
}
layer {
  name: "lstm1_gate_input_3"
  type: "Eltwise"
  bottom: "W_hc_h_2"
  bottom: "W_xc_x_3"
  top: "gate_input_3"
  eltwise_param {
    operation: SUM
  }
}
layer {
  name: "lstm1_unit_3"
  type: "LSTMUnit"
  bottom: "c_2"
  bottom: "gate_input_3"
  bottom: "cont_3"
  top: "c_3"
  top: "h_3"
}
layer {
  name: "lstm1_h_conted_3"
  type: "Scale"
  bottom: "h_3"
  bottom: "cont_4"
  top: "h_conted_3"
  scale_param {
    axis: 0
  }
}
layer {
  name: "lstm1_transform_4"
  type: "InnerProduct"
  bottom: "h_conted_3"
  top: "W_hc_h_3"
  param {
    name: "W_hc"
  }
  inner_product_param {
    num_output: 400
    bias_term: false
    weight_filler {
      type: "xavier"
    }
    axis: 2
  }
}
layer {
  name: "lstm1_gate_input_4"
  type: "Eltwise"
  bottom: "W_hc_h_3"
  bottom: "W_xc_x_4"
  top: "gate_input_4"
  eltwise_param {
    operation: SUM
  }
}
layer {
  name: "lstm1_unit_4"
  type: "LSTMUnit"
  bottom: "c_3"
  bottom: "gate_input_4"
  bottom: "cont_4"
  top: "c_4"
  top: "h_4"
}
layer {
  name: "lstm1_h_conted_4"
  type: "Scale"
  bottom: "h_4"
  bottom: "cont_5"
  top: "h_conted_4"
  scale_param {
    axis: 0
  }
}
layer {
  name: "lstm1_transform_5"
  type: "InnerProduct"
  bottom: "h_conted_4"
  top: "W_hc_h_4"
  param {
    name: "W_hc"
  }
  inner_product_param {
    num_output: 400
    bias_term: false
    weight_filler {
      type: "xavier"
    }
    axis: 2
  }
}
layer {
  name: "lstm1_gate_input_5"
  type: "Eltwise"
  bottom: "W_hc_h_4"
  bottom: "W_xc_x_5"
  top: "gate_input_5"
  eltwise_param {
    operation: SUM
  }
}
layer {
  name: "lstm1_unit_5"
  type: "LSTMUnit"
  bottom: "c_4"
  bottom: "gate_input_5"
  bottom: "cont_5"
  top: "c_5"
  top: "h_5"
}
layer {
  name: "lstm1_h_conted_5"
  type: "Scale"
  bottom: "h_5"
  bottom: "cont_6"
  top: "h_conted_5"
  scale_param {
    axis: 0
  }
}
layer {
  name: "lstm1_transform_6"
  type: "InnerProduct"
  bottom: "h_conted_5"
  top: "W_hc_h_5"
  param {
    name: "W_hc"
  }
  inner_product_param {
    num_output: 400
    bias_term: false
    weight_filler {
      type: "xavier"
    }
    axis: 2
  }
}
layer {
  name: "lstm1_gate_input_6"
  type: "Eltwise"
  bottom: "W_hc_h_5"
  bottom: "W_xc_x_6"
  top: "gate_input_6"
  eltwise_param {
    operation: SUM
  }
}
layer {
  name: "lstm1_unit_6"
  type: "LSTMUnit"
  bottom: "c_5"
  bottom: "gate_input_6"
  bottom: "cont_6"
  top: "c_6"
  top: "h_6"
}
layer {
  name: "lstm1_h_conted_6"
  type: "Scale"
  bottom: "h_6"
  bottom: "cont_7"
  top: "h_conted_6"
  scale_param {
    axis: 0
  }
}
layer {
  name: "lstm1_transform_7"
  type: "InnerProduct"
  bottom: "h_conted_6"
  top: "W_hc_h_6"
  param {
    name: "W_hc"
  }
  inner_product_param {
    num_output: 400
    bias_term: false
    weight_filler {
      type: "xavier"
    }
    axis: 2
  }
}
layer {
  name: "lstm1_gate_input_7"
  type: "Eltwise"
  bottom: "W_hc_h_6"
  bottom: "W_xc_x_7"
  top: "gate_input_7"
  eltwise_param {
    operation: SUM
  }
}
layer {
  name: "lstm1_unit_7"
  type: "LSTMUnit"
  bottom: "c_6"
  bottom: "gate_input_7"
  bottom: "cont_7"
  top: "c_7"
  top: "h_7"
}
layer {
  name: "lstm1_h_conted_7"
  type: "Scale"
  bottom: "h_7"
  bottom: "cont_8"
  top: "h_conted_7"
  scale_param {
    axis: 0
  }
}
layer {
  name: "lstm1_transform_8"
  type: "InnerProduct"
  bottom: "h_conted_7"
  top: "W_hc_h_7"
  param {
    name: "W_hc"
  }
  inner_product_param {
    num_output: 400
    bias_term: false
    weight_filler {
      type: "xavier"
    }
    axis: 2
  }
}
layer {
  name: "lstm1_gate_input_8"
  type: "Eltwise"
  bottom: "W_hc_h_7"
  bottom: "W_xc_x_8"
  top: "gate_input_8"
  eltwise_param {
    operation: SUM
  }
}
layer {
  name: "lstm1_unit_8"
  type: "LSTMUnit"
  bottom: "c_7"
  bottom: "gate_input_8"
  bottom: "cont_8"
  top: "c_8"
  top: "h_8"
}
layer {
  name: "lstm1_h_conted_8"
  type: "Scale"
  bottom: "h_8"
  bottom: "cont_9"
  top: "h_conted_8"
  scale_param {
    axis: 0
  }
}
layer {
  name: "lstm1_transform_9"
  type: "InnerProduct"
  bottom: "h_conted_8"
  top: "W_hc_h_8"
  param {
    name: "W_hc"
  }
  inner_product_param {
    num_output: 400
    bias_term: false
    weight_filler {
      type: "xavier"
    }
    axis: 2
  }
}
layer {
  name: "lstm1_gate_input_9"
  type: "Eltwise"
  bottom: "W_hc_h_8"
  bottom: "W_xc_x_9"
  top: "gate_input_9"
  eltwise_param {
    operation: SUM
  }
}
layer {
  name: "lstm1_unit_9"
  type: "LSTMUnit"
  bottom: "c_8"
  bottom: "gate_input_9"
  bottom: "cont_9"
  top: "c_9"
  top: "h_9"
}
layer {
  name: "lstm1_h_conted_9"
  type: "Scale"
  bottom: "h_9"
  bottom: "cont_10"
  top: "h_conted_9"
  scale_param {
    axis: 0
  }
}
layer {
  name: "lstm1_transform_10"
  type: "InnerProduct"
  bottom: "h_conted_9"
  top: "W_hc_h_9"
  param {
    name: "W_hc"
  }
  inner_product_param {
    num_output: 400
    bias_term: false
    weight_filler {
      type: "xavier"
    }
    axis: 2
  }
}
layer {
  name: "lstm1_gate_input_10"
  type: "Eltwise"
  bottom: "W_hc_h_9"
  bottom: "W_xc_x_10"
  top: "gate_input_10"
  eltwise_param {
    operation: SUM
  }
}
layer {
  name: "lstm1_unit_10"
  type: "LSTMUnit"
  bottom: "c_9"
  bottom: "gate_input_10"
  bottom: "cont_10"
  top: "c_10"
  top: "h_10"
}
layer {
  name: "lstm1_h_conted_10"
  type: "Scale"
  bottom: "h_10"
  bottom: "cont_11"
  top: "h_conted_10"
  scale_param {
    axis: 0
  }
}
layer {
  name: "lstm1_transform_11"
  type: "InnerProduct"
  bottom: "h_conted_10"
  top: "W_hc_h_10"
  param {
    name: "W_hc"
  }
  inner_product_param {
    num_output: 400
    bias_term: false
    weight_filler {
      type: "xavier"
    }
    axis: 2
  }
}
layer {
  name: "lstm1_gate_input_11"
  type: "Eltwise"
  bottom: "W_hc_h_10"
  bottom: "W_xc_x_11"
  top: "gate_input_11"
  eltwise_param {
    operation: SUM
  }
}
layer {
  name: "lstm1_unit_11"
  type: "LSTMUnit"
  bottom: "c_10"
  bottom: "gate_input_11"
  bottom: "cont_11"
  top: "c_11"
  top: "h_11"
}
layer {
  name: "lstm1_h_conted_11"
  type: "Scale"
  bottom: "h_11"
  bottom: "cont_12"
  top: "h_conted_11"
  scale_param {
    axis: 0
  }
}
layer {
  name: "lstm1_transform_12"
  type: "InnerProduct"
  bottom: "h_conted_11"
  top: "W_hc_h_11"
  param {
    name: "W_hc"
  }
  inner_product_param {
    num_output: 400
    bias_term: false
    weight_filler {
      type: "xavier"
    }
    axis: 2
  }
}
layer {
  name: "lstm1_gate_input_12"
  type: "Eltwise"
  bottom: "W_hc_h_11"
  bottom: "W_xc_x_12"
  top: "gate_input_12"
  eltwise_param {
    operation: SUM
  }
}
layer {
  name: "lstm1_unit_12"
  type: "LSTMUnit"
  bottom: "c_11"
  bottom: "gate_input_12"
  bottom: "cont_12"
  top: "c_12"
  top: "h_12"
}
layer {
  name: "lstm1_h_conted_12"
  type: "Scale"
  bottom: "h_12"
  bottom: "cont_13"
  top: "h_conted_12"
  scale_param {
    axis: 0
  }
}
layer {
  name: "lstm1_transform_13"
  type: "InnerProduct"
  bottom: "h_conted_12"
  top: "W_hc_h_12"
  param {
    name: "W_hc"
  }
  inner_product_param {
    num_output: 400
    bias_term: false
    weight_filler {
      type: "xavier"
    }
    axis: 2
  }
}
layer {
  name: "lstm1_gate_input_13"
  type: "Eltwise"
  bottom: "W_hc_h_12"
  bottom: "W_xc_x_13"
  top: "gate_input_13"
  eltwise_param {
    operation: SUM
  }
}
layer {
  name: "lstm1_unit_13"
  type: "LSTMUnit"
  bottom: "c_12"
  bottom: "gate_input_13"
  bottom: "cont_13"
  top: "c_13"
  top: "h_13"
}
layer {
  name: "lstm1_h_conted_13"
  type: "Scale"
  bottom: "h_13"
  bottom: "cont_14"
  top: "h_conted_13"
  scale_param {
    axis: 0
  }
}
layer {
  name: "lstm1_transform_14"
  type: "InnerProduct"
  bottom: "h_conted_13"
  top: "W_hc_h_13"
  param {
    name: "W_hc"
  }
  inner_product_param {
    num_output: 400
    bias_term: false
    weight_filler {
      type: "xavier"
    }
    axis: 2
  }
}
layer {
  name: "lstm1_gate_input_14"
  type: "Eltwise"
  bottom: "W_hc_h_13"
  bottom: "W_xc_x_14"
  top: "gate_input_14"
  eltwise_param {
    operation: SUM
  }
}
layer {
  name: "lstm1_unit_14"
  type: "LSTMUnit"
  bottom: "c_13"
  bottom: "gate_input_14"
  bottom: "cont_14"
  top: "c_14"
  top: "h_14"
}
layer {
  name: "lstm1_h_conted_14"
  type: "Scale"
  bottom: "h_14"
  bottom: "cont_15"
  top: "h_conted_14"
  scale_param {
    axis: 0
  }
}
layer {
  name: "lstm1_transform_15"
  type: "InnerProduct"
  bottom: "h_conted_14"
  top: "W_hc_h_14"
  param {
    name: "W_hc"
  }
  inner_product_param {
    num_output: 400
    bias_term: false
    weight_filler {
      type: "xavier"
    }
    axis: 2
  }
}
layer {
  name: "lstm1_gate_input_15"
  type: "Eltwise"
  bottom: "W_hc_h_14"
  bottom: "W_xc_x_15"
  top: "gate_input_15"
  eltwise_param {
    operation: SUM
  }
}
layer {
  name: "lstm1_unit_15"
  type: "LSTMUnit"
  bottom: "c_14"
  bottom: "gate_input_15"
  bottom: "cont_15"
  top: "c_15"
  top: "h_15"
}
layer {
  name: "lstm1_h_conted_15"
  type: "Scale"
  bottom: "h_15"
  bottom: "cont_16"
  top: "h_conted_15"
  scale_param {
    axis: 0
  }
}
layer {
  name: "lstm1_transform_16"
  type: "InnerProduct"
  bottom: "h_conted_15"
  top: "W_hc_h_15"
  param {
    name: "W_hc"
  }
  inner_product_param {
    num_output: 400
    bias_term: false
    weight_filler {
      type: "xavier"
    }
    axis: 2
  }
}
layer {
  name: "lstm1_gate_input_16"
  type: "Eltwise"
  bottom: "W_hc_h_15"
  bottom: "W_xc_x_16"
  top: "gate_input_16"
  eltwise_param {
    operation: SUM
  }
}
layer {
  name: "lstm1_unit_16"
  type: "LSTMUnit"
  bottom: "c_15"
  bottom: "gate_input_16"
  bottom: "cont_16"
  top: "c_16"
  top: "h_16"
}
layer {
  name: "lstm1_h_conted_16"
  type: "Scale"
  bottom: "h_16"
  bottom: "cont_17"
  top: "h_conted_16"
  scale_param {
    axis: 0
  }
}
layer {
  name: "lstm1_transform_17"
  type: "InnerProduct"
  bottom: "h_conted_16"
  top: "W_hc_h_16"
  param {
    name: "W_hc"
  }
  inner_product_param {
    num_output: 400
    bias_term: false
    weight_filler {
      type: "xavier"
    }
    axis: 2
  }
}
layer {
  name: "lstm1_gate_input_17"
  type: "Eltwise"
  bottom: "W_hc_h_16"
  bottom: "W_xc_x_17"
  top: "gate_input_17"
  eltwise_param {
    operation: SUM
  }
}
layer {
  name: "lstm1_unit_17"
  type: "LSTMUnit"
  bottom: "c_16"
  bottom: "gate_input_17"
  bottom: "cont_17"
  top: "c_17"
  top: "h_17"
}
layer {
  name: "lstm1_h_conted_17"
  type: "Scale"
  bottom: "h_17"
  bottom: "cont_18"
  top: "h_conted_17"
  scale_param {
    axis: 0
  }
}
layer {
  name: "lstm1_transform_18"
  type: "InnerProduct"
  bottom: "h_conted_17"
  top: "W_hc_h_17"
  param {
    name: "W_hc"
  }
  inner_product_param {
    num_output: 400
    bias_term: false
    weight_filler {
      type: "xavier"
    }
    axis: 2
  }
}
layer {
  name: "lstm1_gate_input_18"
  type: "Eltwise"
  bottom: "W_hc_h_17"
  bottom: "W_xc_x_18"
  top: "gate_input_18"
  eltwise_param {
    operation: SUM
  }
}
layer {
  name: "lstm1_unit_18"
  type: "LSTMUnit"
  bottom: "c_17"
  bottom: "gate_input_18"
  bottom: "cont_18"
  top: "c_18"
  top: "h_18"
}
layer {
  name: "lstm1_h_conted_18"
  type: "Scale"
  bottom: "h_18"
  bottom: "cont_19"
  top: "h_conted_18"
  scale_param {
    axis: 0
  }
}
layer {
  name: "lstm1_transform_19"
  type: "InnerProduct"
  bottom: "h_conted_18"
  top: "W_hc_h_18"
  param {
    name: "W_hc"
  }
  inner_product_param {
    num_output: 400
    bias_term: false
    weight_filler {
      type: "xavier"
    }
    axis: 2
  }
}
layer {
  name: "lstm1_gate_input_19"
  type: "Eltwise"
  bottom: "W_hc_h_18"
  bottom: "W_xc_x_19"
  top: "gate_input_19"
  eltwise_param {
    operation: SUM
  }
}
layer {
  name: "lstm1_unit_19"
  type: "LSTMUnit"
  bottom: "c_18"
  bottom: "gate_input_19"
  bottom: "cont_19"
  top: "c_19"
  top: "h_19"
}
layer {
  name: "lstm1_h_conted_19"
  type: "Scale"
  bottom: "h_19"
  bottom: "cont_20"
  top: "h_conted_19"
  scale_param {
    axis: 0
  }
}
layer {
  name: "lstm1_transform_20"
  type: "InnerProduct"
  bottom: "h_conted_19"
  top: "W_hc_h_19"
  param {
    name: "W_hc"
  }
  inner_product_param {
    num_output: 400
    bias_term: false
    weight_filler {
      type: "xavier"
    }
    axis: 2
  }
}
layer {
  name: "lstm1_gate_input_20"
  type: "Eltwise"
  bottom: "W_hc_h_19"
  bottom: "W_xc_x_20"
  top: "gate_input_20"
  eltwise_param {
    operation: SUM
  }
}
layer {
  name: "lstm1_unit_20"
  type: "LSTMUnit"
  bottom: "c_19"
  bottom: "gate_input_20"
  bottom: "cont_20"
  top: "c_20"
  top: "h_20"
}
layer {
  name: "lstm1_h_conted_20"
  type: "Scale"
  bottom: "h_20"
  bottom: "cont_21"
  top: "h_conted_20"
  scale_param {
    axis: 0
  }
}
layer {
  name: "lstm1_transform_21"
  type: "InnerProduct"
  bottom: "h_conted_20"
  top: "W_hc_h_20"
  param {
    name: "W_hc"
  }
  inner_product_param {
    num_output: 400
    bias_term: false
    weight_filler {
      type: "xavier"
    }
    axis: 2
  }
}
layer {
  name: "lstm1_gate_input_21"
  type: "Eltwise"
  bottom: "W_hc_h_20"
  bottom: "W_xc_x_21"
  top: "gate_input_21"
  eltwise_param {
    operation: SUM
  }
}
layer {
  name: "lstm1_unit_21"
  type: "LSTMUnit"
  bottom: "c_20"
  bottom: "gate_input_21"
  bottom: "cont_21"
  top: "c_21"
  top: "h_21"
}
layer {
  name: "lstm1_h_conted_21"
  type: "Scale"
  bottom: "h_21"
  bottom: "cont_22"
  top: "h_conted_21"
  scale_param {
    axis: 0
  }
}
layer {
  name: "lstm1_transform_22"
  type: "InnerProduct"
  bottom: "h_conted_21"
  top: "W_hc_h_21"
  param {
    name: "W_hc"
  }
  inner_product_param {
    num_output: 400
    bias_term: false
    weight_filler {
      type: "xavier"
    }
    axis: 2
  }
}
layer {
  name: "lstm1_gate_input_22"
  type: "Eltwise"
  bottom: "W_hc_h_21"
  bottom: "W_xc_x_22"
  top: "gate_input_22"
  eltwise_param {
    operation: SUM
  }
}
layer {
  name: "lstm1_unit_22"
  type: "LSTMUnit"
  bottom: "c_21"
  bottom: "gate_input_22"
  bottom: "cont_22"
  top: "c_22"
  top: "h_22"
}
layer {
  name: "lstm1_h_conted_22"
  type: "Scale"
  bottom: "h_22"
  bottom: "cont_23"
  top: "h_conted_22"
  scale_param {
    axis: 0
  }
}
layer {
  name: "lstm1_transform_23"
  type: "InnerProduct"
  bottom: "h_conted_22"
  top: "W_hc_h_22"
  param {
    name: "W_hc"
  }
  inner_product_param {
    num_output: 400
    bias_term: false
    weight_filler {
      type: "xavier"
    }
    axis: 2
  }
}
layer {
  name: "lstm1_gate_input_23"
  type: "Eltwise"
  bottom: "W_hc_h_22"
  bottom: "W_xc_x_23"
  top: "gate_input_23"
  eltwise_param {
    operation: SUM
  }
}
layer {
  name: "lstm1_unit_23"
  type: "LSTMUnit"
  bottom: "c_22"
  bottom: "gate_input_23"
  bottom: "cont_23"
  top: "c_23"
  top: "h_23"
}
layer {
  name: "lstm1_h_conted_23"
  type: "Scale"
  bottom: "h_23"
  bottom: "cont_24"
  top: "h_conted_23"
  scale_param {
    axis: 0
  }
}
layer {
  name: "lstm1_transform_24"
  type: "InnerProduct"
  bottom: "h_conted_23"
  top: "W_hc_h_23"
  param {
    name: "W_hc"
  }
  inner_product_param {
    num_output: 400
    bias_term: false
    weight_filler {
      type: "xavier"
    }
    axis: 2
  }
}
layer {
  name: "lstm1_gate_input_24"
  type: "Eltwise"
  bottom: "W_hc_h_23"
  bottom: "W_xc_x_24"
  top: "gate_input_24"
  eltwise_param {
    operation: SUM
  }
}
layer {
  name: "lstm1_unit_24"
  type: "LSTMUnit"
  bottom: "c_23"
  bottom: "gate_input_24"
  bottom: "cont_24"
  top: "c_24"
  top: "h_24"
}
layer {
  name: "lstm1_h_conted_24"
  type: "Scale"
  bottom: "h_24"
  bottom: "cont_25"
  top: "h_conted_24"
  scale_param {
    axis: 0
  }
}
layer {
  name: "lstm1_transform_25"
  type: "InnerProduct"
  bottom: "h_conted_24"
  top: "W_hc_h_24"
  param {
    name: "W_hc"
  }
  inner_product_param {
    num_output: 400
    bias_term: false
    weight_filler {
      type: "xavier"
    }
    axis: 2
  }
}
layer {
  name: "lstm1_gate_input_25"
  type: "Eltwise"
  bottom: "W_hc_h_24"
  bottom: "W_xc_x_25"
  top: "gate_input_25"
  eltwise_param {
    operation: SUM
  }
}
layer {
  name: "lstm1_unit_25"
  type: "LSTMUnit"
  bottom: "c_24"
  bottom: "gate_input_25"
  bottom: "cont_25"
  top: "c_25"
  top: "h_25"
}
layer {
  name: "lstm1_h_conted_25"
  type: "Scale"
  bottom: "h_25"
  bottom: "cont_26"
  top: "h_conted_25"
  scale_param {
    axis: 0
  }
}
layer {
  name: "lstm1_transform_26"
  type: "InnerProduct"
  bottom: "h_conted_25"
  top: "W_hc_h_25"
  param {
    name: "W_hc"
  }
  inner_product_param {
    num_output: 400
    bias_term: false
    weight_filler {
      type: "xavier"
    }
    axis: 2
  }
}
layer {
  name: "lstm1_gate_input_26"
  type: "Eltwise"
  bottom: "W_hc_h_25"
  bottom: "W_xc_x_26"
  top: "gate_input_26"
  eltwise_param {
    operation: SUM
  }
}
layer {
  name: "lstm1_unit_26"
  type: "LSTMUnit"
  bottom: "c_25"
  bottom: "gate_input_26"
  bottom: "cont_26"
  top: "c_26"
  top: "h_26"
}
layer {
  name: "lstm1_h_conted_26"
  type: "Scale"
  bottom: "h_26"
  bottom: "cont_27"
  top: "h_conted_26"
  scale_param {
    axis: 0
  }
}
layer {
  name: "lstm1_transform_27"
  type: "InnerProduct"
  bottom: "h_conted_26"
  top: "W_hc_h_26"
  param {
    name: "W_hc"
  }
  inner_product_param {
    num_output: 400
    bias_term: false
    weight_filler {
      type: "xavier"
    }
    axis: 2
  }
}
layer {
  name: "lstm1_gate_input_27"
  type: "Eltwise"
  bottom: "W_hc_h_26"
  bottom: "W_xc_x_27"
  top: "gate_input_27"
  eltwise_param {
    operation: SUM
  }
}
layer {
  name: "lstm1_unit_27"
  type: "LSTMUnit"
  bottom: "c_26"
  bottom: "gate_input_27"
  bottom: "cont_27"
  top: "c_27"
  top: "h_27"
}
layer {
  name: "lstm1_h_conted_27"
  type: "Scale"
  bottom: "h_27"
  bottom: "cont_28"
  top: "h_conted_27"
  scale_param {
    axis: 0
  }
}
layer {
  name: "lstm1_transform_28"
  type: "InnerProduct"
  bottom: "h_conted_27"
  top: "W_hc_h_27"
  param {
    name: "W_hc"
  }
  inner_product_param {
    num_output: 400
    bias_term: false
    weight_filler {
      type: "xavier"
    }
    axis: 2
  }
}
layer {
  name: "lstm1_gate_input_28"
  type: "Eltwise"
  bottom: "W_hc_h_27"
  bottom: "W_xc_x_28"
  top: "gate_input_28"
  eltwise_param {
    operation: SUM
  }
}
layer {
  name: "lstm1_unit_28"
  type: "LSTMUnit"
  bottom: "c_27"
  bottom: "gate_input_28"
  bottom: "cont_28"
  top: "c_28"
  top: "h_28"
}
layer {
  name: "lstm1_h_conted_28"
  type: "Scale"
  bottom: "h_28"
  bottom: "cont_29"
  top: "h_conted_28"
  scale_param {
    axis: 0
  }
}
layer {
  name: "lstm1_transform_29"
  type: "InnerProduct"
  bottom: "h_conted_28"
  top: "W_hc_h_28"
  param {
    name: "W_hc"
  }
  inner_product_param {
    num_output: 400
    bias_term: false
    weight_filler {
      type: "xavier"
    }
    axis: 2
  }
}
layer {
  name: "lstm1_gate_input_29"
  type: "Eltwise"
  bottom: "W_hc_h_28"
  bottom: "W_xc_x_29"
  top: "gate_input_29"
  eltwise_param {
    operation: SUM
  }
}
layer {
  name: "lstm1_unit_29"
  type: "LSTMUnit"
  bottom: "c_28"
  bottom: "gate_input_29"
  bottom: "cont_29"
  top: "c_29"
  top: "h_29"
}
layer {
  name: "lstm1_h_conted_29"
  type: "Scale"
  bottom: "h_29"
  bottom: "cont_30"
  top: "h_conted_29"
  scale_param {
    axis: 0
  }
}
layer {
  name: "lstm1_transform_30"
  type: "InnerProduct"
  bottom: "h_conted_29"
  top: "W_hc_h_29"
  param {
    name: "W_hc"
  }
  inner_product_param {
    num_output: 400
    bias_term: false
    weight_filler {
      type: "xavier"
    }
    axis: 2
  }
}
layer {
  name: "lstm1_gate_input_30"
  type: "Eltwise"
  bottom: "W_hc_h_29"
  bottom: "W_xc_x_30"
  top: "gate_input_30"
  eltwise_param {
    operation: SUM
  }
}
layer {
  name: "lstm1_unit_30"
  type: "LSTMUnit"
  bottom: "c_29"
  bottom: "gate_input_30"
  bottom: "cont_30"
  top: "c_30"
  top: "h_30"
}
layer {
  name: "lstm1_h_conted_30"
  type: "Scale"
  bottom: "h_30"
  bottom: "cont_31"
  top: "h_conted_30"
  scale_param {
    axis: 0
  }
}
layer {
  name: "lstm1_transform_31"
  type: "InnerProduct"
  bottom: "h_conted_30"
  top: "W_hc_h_30"
  param {
    name: "W_hc"
  }
  inner_product_param {
    num_output: 400
    bias_term: false
    weight_filler {
      type: "xavier"
    }
    axis: 2
  }
}
layer {
  name: "lstm1_gate_input_31"
  type: "Eltwise"
  bottom: "W_hc_h_30"
  bottom: "W_xc_x_31"
  top: "gate_input_31"
  eltwise_param {
    operation: SUM
  }
}
layer {
  name: "lstm1_unit_31"
  type: "LSTMUnit"
  bottom: "c_30"
  bottom: "gate_input_31"
  bottom: "cont_31"
  top: "c_31"
  top: "h_31"
}
layer {
  name: "lstm1_h_conted_31"
  type: "Scale"
  bottom: "h_31"
  bottom: "cont_32"
  top: "h_conted_31"
  scale_param {
    axis: 0
  }
}
layer {
  name: "lstm1_transform_32"
  type: "InnerProduct"
  bottom: "h_conted_31"
  top: "W_hc_h_31"
  param {
    name: "W_hc"
  }
  inner_product_param {
    num_output: 400
    bias_term: false
    weight_filler {
      type: "xavier"
    }
    axis: 2
  }
}
layer {
  name: "lstm1_gate_input_32"
  type: "Eltwise"
  bottom: "W_hc_h_31"
  bottom: "W_xc_x_32"
  top: "gate_input_32"
  eltwise_param {
    operation: SUM
  }
}
layer {
  name: "lstm1_unit_32"
  type: "LSTMUnit"
  bottom: "c_31"
  bottom: "gate_input_32"
  bottom: "cont_32"
  top: "c_32"
  top: "h_32"
}
layer {
  name: "lstm1_h_conted_32"
  type: "Scale"
  bottom: "h_32"
  bottom: "cont_33"
  top: "h_conted_32"
  scale_param {
    axis: 0
  }
}
layer {
  name: "lstm1_transform_33"
  type: "InnerProduct"
  bottom: "h_conted_32"
  top: "W_hc_h_32"
  param {
    name: "W_hc"
  }
  inner_product_param {
    num_output: 400
    bias_term: false
    weight_filler {
      type: "xavier"
    }
    axis: 2
  }
}
layer {
  name: "lstm1_gate_input_33"
  type: "Eltwise"
  bottom: "W_hc_h_32"
  bottom: "W_xc_x_33"
  top: "gate_input_33"
  eltwise_param {
    operation: SUM
  }
}
layer {
  name: "lstm1_unit_33"
  type: "LSTMUnit"
  bottom: "c_32"
  bottom: "gate_input_33"
  bottom: "cont_33"
  top: "c_33"
  top: "h_33"
}
layer {
  name: "lstm1_h_conted_33"
  type: "Scale"
  bottom: "h_33"
  bottom: "cont_34"
  top: "h_conted_33"
  scale_param {
    axis: 0
  }
}
layer {
  name: "lstm1_transform_34"
  type: "InnerProduct"
  bottom: "h_conted_33"
  top: "W_hc_h_33"
  param {
    name: "W_hc"
  }
  inner_product_param {
    num_output: 400
    bias_term: false
    weight_filler {
      type: "xavier"
    }
    axis: 2
  }
}
layer {
  name: "lstm1_gate_input_34"
  type: "Eltwise"
  bottom: "W_hc_h_33"
  bottom: "W_xc_x_34"
  top: "gate_input_34"
  eltwise_param {
    operation: SUM
  }
}
layer {
  name: "lstm1_unit_34"
  type: "LSTMUnit"
  bottom: "c_33"
  bottom: "gate_input_34"
  bottom: "cont_34"
  top: "c_34"
  top: "h_34"
}
layer {
  name: "lstm1_h_conted_34"
  type: "Scale"
  bottom: "h_34"
  bottom: "cont_35"
  top: "h_conted_34"
  scale_param {
    axis: 0
  }
}
layer {
  name: "lstm1_transform_35"
  type: "InnerProduct"
  bottom: "h_conted_34"
  top: "W_hc_h_34"
  param {
    name: "W_hc"
  }
  inner_product_param {
    num_output: 400
    bias_term: false
    weight_filler {
      type: "xavier"
    }
    axis: 2
  }
}
layer {
  name: "lstm1_gate_input_35"
  type: "Eltwise"
  bottom: "W_hc_h_34"
  bottom: "W_xc_x_35"
  top: "gate_input_35"
  eltwise_param {
    operation: SUM
  }
}
layer {
  name: "lstm1_unit_35"
  type: "LSTMUnit"
  bottom: "c_34"
  bottom: "gate_input_35"
  bottom: "cont_35"
  top: "c_35"
  top: "h_35"
}
layer {
  name: "lstm1_h_conted_35"
  type: "Scale"
  bottom: "h_35"
  bottom: "cont_36"
  top: "h_conted_35"
  scale_param {
    axis: 0
  }
}
layer {
  name: "lstm1_transform_36"
  type: "InnerProduct"
  bottom: "h_conted_35"
  top: "W_hc_h_35"
  param {
    name: "W_hc"
  }
  inner_product_param {
    num_output: 400
    bias_term: false
    weight_filler {
      type: "xavier"
    }
    axis: 2
  }
}
layer {
  name: "lstm1_gate_input_36"
  type: "Eltwise"
  bottom: "W_hc_h_35"
  bottom: "W_xc_x_36"
  top: "gate_input_36"
  eltwise_param {
    operation: SUM
  }
}
layer {
  name: "lstm1_unit_36"
  type: "LSTMUnit"
  bottom: "c_35"
  bottom: "gate_input_36"
  bottom: "cont_36"
  top: "c_36"
  top: "h_36"
}
layer {
  name: "lstm1_h_conted_36"
  type: "Scale"
  bottom: "h_36"
  bottom: "cont_37"
  top: "h_conted_36"
  scale_param {
    axis: 0
  }
}
layer {
  name: "lstm1_transform_37"
  type: "InnerProduct"
  bottom: "h_conted_36"
  top: "W_hc_h_36"
  param {
    name: "W_hc"
  }
  inner_product_param {
    num_output: 400
    bias_term: false
    weight_filler {
      type: "xavie
I0505 16:08:17.295691 32309 layer_factory.hpp:77] Creating layer lstm1_
I0505 16:08:17.295711 32309 net.cpp:86] Creating Layer lstm1_
I0505 16:08:17.295716 32309 net.cpp:382] lstm1_ -> x
I0505 16:08:17.295730 32309 net.cpp:382] lstm1_ -> cont
I0505 16:08:17.295801 32309 net.cpp:124] Setting up lstm1_
I0505 16:08:17.295805 32309 net.cpp:131] Top shape: 80 512 3 30 (3686400)
I0505 16:08:17.295810 32309 net.cpp:131] Top shape: 80 512 (40960)
I0505 16:08:17.295814 32309 net.cpp:139] Memory required for data: 14909440
I0505 16:08:17.295816 32309 layer_factory.hpp:77] Creating layer lstm1_
I0505 16:08:17.295820 32309 net.cpp:86] Creating Layer lstm1_
I0505 16:08:17.295823 32309 net.cpp:382] lstm1_ -> c_0
I0505 16:08:17.295830 32309 net.cpp:382] lstm1_ -> h_0
I0505 16:08:17.295857 32309 net.cpp:124] Setting up lstm1_
I0505 16:08:17.295861 32309 net.cpp:131] Top shape: 1 512 100 (51200)
I0505 16:08:17.295864 32309 net.cpp:131] Top shape: 1 512 100 (51200)
I0505 16:08:17.295867 32309 net.cpp:139] Memory required for data: 15319040
I0505 16:08:17.295869 32309 layer_factory.hpp:77] Creating layer lstm1_cont_slice
I0505 16:08:17.295884 32309 net.cpp:86] Creating Layer lstm1_cont_slice
I0505 16:08:17.295887 32309 net.cpp:408] lstm1_cont_slice <- cont
I0505 16:08:17.295894 32309 net.cpp:382] lstm1_cont_slice -> cont_1
I0505 16:08:17.295904 32309 net.cpp:382] lstm1_cont_slice -> cont_2
…
I0505 16:08:17.296445 32309 net.cpp:382] lstm1_cont_slice -> cont_73
I0505 16:08:17.296452 32309 net.cpp:382] lstm1_cont_slice -> cont_74
I0505 16:08:17.296459 32309 net.cpp:382] lstm1_cont_slice -> cont_75
I0505 16:08:17.296466 32309 net.cpp:382] lstm1_cont_slice -> cont_76
I0505 16:08:17.296473 32309 net.cpp:382] lstm1_cont_slice -> cont_77
I0505 16:08:17.296480 32309 net.cpp:382] lstm1_cont_slice -> cont_78
I0505 16:08:17.296486 32309 net.cpp:382] lstm1_cont_slice -> cont_79
I0505 16:08:17.296494 32309 net.cpp:382] lstm1_cont_slice -> cont_80
I0505 16:08:17.297140 32309 net.cpp:124] Setting up lstm1_cont_slice
I0505 16:08:17.297147 32309 net.cpp:131] Top shape: 1 512 (512)
I0505 16:08:17.297154 32309 net.cpp:131] Top shape: 1 512 (512)
I0505 16:08:17.297158 32309 net.cpp:131] Top shape: 1 512 (512)
I0505 16:08:17.297160 32309 net.cpp:131] Top shape: 1 512 (512)
I0505 16:08:17.297163 32309 net.cpp:131] Top shape: 1 512 (512)
I0505 16:08:17.297166 32309 net.cpp:131] Top shape: 1 512 (512)
I0505 16:08:17.297169 32309 net.cpp:131] Top shape: 1 512 (512)
I0505 16:08:17.297171 32309 net.cpp:131] Top shape: 1 512 (512)
I0505 16:08:17.297174 32309 net.cpp:131] Top shape: 1 512 (512)
I0505 16:08:17.297178 32309 net.cpp:131] Top shape: 1 512 (512)
I0505 16:08:17.297180 32309 net.cpp:131] Top shape: 1 512 (512)
I0505 16:08:17.297183 32309 net.cpp:131] Top shape: 1 512 (512)
I0505 16:08:17.297186 32309 net.cpp:131] Top shape: 1 512 (512)
I0505 16:08:17.297189 32309 net.cpp:131] Top shape: 1 512 (512)
I0505 16:08:17.297192 32309 net.cpp:131] Top shape: 1 512 (512)
I0505 16:08:17.297194 32309 net.cpp:131] Top shape: 1 512 (512)
I0505 16:08:17.297197 32309 net.cpp:131] Top shape: 1 512 (512)
I0505 16:08:17.297200 32309 net.cpp:131] Top shape: 1 512 (512)
I0505 16:08:17.297204 32309 net.cpp:131] Top shape: 1 512 (512)
I0505 16:08:17.297206 32309 net.cpp:131] Top shape: 1 512 (512)
I0505 16:08:17.297209 32309 net.cpp:131] Top shape: 1 512 (512)
I0505 16:08:17.297211 32309 net.cpp:131] Top shape: 1 512 (512)
I0505 16:08:17.297214 32309 net.cpp:131] Top shape: 1 512 (512)
I0505 16:08:17.297217 32309 net.cpp:131] Top shape: 1 512 (512)
I0505 16:08:17.297220 32309 net.cpp:131] Top shape: 1 512 (512)
I0505 16:08:17.297224 32309 net.cpp:131] Top shape: 1 512 (512)
I0505 16:08:17.297225 32309 net.cpp:131] Top shape: 1 512 (512)
I0505 16:08:17.297228 32309 net.cpp:131] Top shape: 1 512 (512)
I0505 16:08:17.297231 32309 net.cpp:131] Top shape: 1 512 (512)
I0505 16:08:17.297235 32309 net.cpp:131] Top shape: 1 512 (512)
I0505 16:08:17.297237 32309 net.cpp:131] Top shape: 1 512 (512)
I0505 16:08:17.297240 32309 net.cpp:131] Top shape: 1 512 (512)
I0505 16:08:17.297243 32309 net.cpp:131] Top shape: 1 512 (512)
I0505 16:08:17.297245 32309 net.cpp:131] Top shape: 1 512 (512)
I0505 16:08:17.297248 32309 net.cpp:131] Top shape: 1 512 (512)
I0505 16:08:17.297251 32309 net.cpp:131] Top shape: 1 512 (512)
I0505 16:08:17.297255 32309 net.cpp:131] Top shape: 1 512 (512)
I0505 16:08:17.297257 32309 net.cpp:131] Top shape: 1 512 (512)
I0505 16:08:17.297260 32309 net.cpp:131] Top shape: 1 512 (512)
I0505 16:08:17.297262 32309 net.cpp:131] Top shape: 1 512 (512)
I0505 16:08:17.297266 32309 net.cpp:131] Top shape: 1 512 (512)
I0505 16:08:17.297268 32309 net.cpp:131] Top shape: 1 512 (512)
I0505 16:08:17.297271 32309 net.cpp:131] Top shape: 1 512 (512)
I0505 16:08:17.297274 32309 net.cpp:131] Top shape: 1 512 (512)
I0505 16:08:17.297277 32309 net.cpp:131] Top shape: 1 512 (512)
I0505 16:08:17.297279 32309 net.cpp:131] Top shape: 1 512 (512)
I0505 16:08:17.297282 32309 net.cpp:131] Top shape: 1 512 (512)
I0505 16:08:17.297286 32309 net.cpp:131] Top shape: 1 512 (512)
I0505 16:08:17.297288 32309 net.cpp:131] Top shape: 1 512 (512)
I0505 16:08:17.297299 32309 net.cpp:131] Top shape: 1 512 (512)
I0505 16:08:17.297302 32309 net.cpp:131] Top shape: 1 512 (512)
I0505 16:08:17.297305 32309 net.cpp:131] Top shape: 1 512 (512)
I0505 16:08:17.297307 32309 net.cpp:131] Top shape: 1 512 (512)
I0505 16:08:17.297310 32309 net.cpp:131] Top shape: 1 512 (512)
I0505 16:08:17.297313 32309 net.cpp:131] Top shape: 1 512 (512)
I0505 16:08:17.297317 32309 net.cpp:131] Top shape: 1 512 (512)
I0505 16:08:17.297319 32309 net.cpp:131] Top shape: 1 512 (512)
I0505 16:08:17.297322 32309 net.cpp:131] Top shape: 1 512 (512)
I0505 16:08:17.297324 32309 net.cpp:131] Top shape: 1 512 (512)
I0505 16:08:17.297327 32309 net.cpp:131] Top shape: 1 512 (512)
I0505 16:08:17.297330 32309 net.cpp:131] Top shape: 1 512 (512)
I0505 16:08:17.297333 32309 net.cpp:131] Top shape: 1 512 (512)
I0505 16:08:17.297336 32309 net.cpp:131] Top shape: 1 512 (512)
I0505 16:08:17.297339 32309 net.cpp:131] Top shape: 1 512 (512)
I0505 16:08:17.297343 32309 net.cpp:131] Top shape: 1 512 (512)
I0505 16:08:17.297345 32309 net.cpp:131] Top shape: 1 512 (512)
I0505 16:08:17.297348 32309 net.cpp:131] Top shape: 1 512 (512)
I0505 16:08:17.297351 32309 net.cpp:131] Top shape: 1 512 (512)
I0505 16:08:17.297354 32309 net.cpp:131] Top shape: 1 512 (512)
I0505 16:08:17.297358 32309 net.cpp:131] Top shape: 1 512 (512)
I0505 16:08:17.297360 32309 net.cpp:131] Top shape: 1 512 (512)
I0505 16:08:17.297363 32309 net.cpp:131] Top shape: 1 512 (512)
I0505 16:08:17.297365 32309 net.cpp:131] Top shape: 1 512 (512)
I0505 16:08:17.297369 32309 net.cpp:131] Top shape: 1 512 (512)
I0505 16:08:17.297371 32309 net.cpp:131] Top shape: 1 512 (512)
I0505 16:08:17.297374 32309 net.cpp:131] Top shape: 1 512 (512)
I0505 16:08:17.297377 32309 net.cpp:131] Top shape: 1 512 (512)
I0505 16:08:17.297380 32309 net.cpp:131] Top shape: 1 512 (512)
I0505 16:08:17.297384 32309 net.cpp:131] Top shape: 1 512 (512)
I0505 16:08:17.297386 32309 net.cpp:131] Top shape: 1 512 (512)
I0505 16:08:17.297389 32309 net.cpp:139] Memory required for data: 15482880
I0505 16:08:17.297391 32309 layer_factory.hpp:77] Creating layer cont_1_lstm1_cont_slice_0_split
I0505 16:08:17.297396 32309 net.cpp:86] Creating Layer cont_1_lstm1_cont_slice_0_split
I0505 16:08:17.297399 32309 net.cpp:408] cont_1_lstm1_cont_slice_0_split <- cont_1
I0505 16:08:17.297405 32309 net.cpp:382] cont_1_lstm1_cont_slice_0_split -> cont_1_lstm1_cont_slice_0_split_0
I0505 16:08:17.297410 32309 net.cpp:382] cont_1_lstm1_cont_slice_0_split -> cont_1_lstm1_cont_slice_0_split_1
I0505 16:08:17.297432 32309 net.cpp:124] Setting up cont_1_lstm1_cont_slice_0_split
I0505 16:08:17.297435 32309 net.cpp:131] Top shape: 1 512 (512)
I0505 16:08:17.297437 32309 net.cpp:131] Top shape: 1 512 (512)
I0505 16:08:17.297441 32309 net.cpp:139] Memory required for data: 15486976
I0505 16:08:17.297443 32309 layer_factory.hpp:77] Creating layer cont_2_lstm1_cont_slice_1_split
I0505 16:08:17.297447 32309 net.cpp:86] Creating Layer cont_2_lstm1_cont_slice_1_split
I0505 16:08:17.297451 32309 net.cpp:408] cont_2_lstm1_cont_slice_1_split <- cont_2
I0505 16:08:17.297454 32309 net.cpp:382] cont_2_lstm1_cont_slice_1_split -> cont_2_lstm1_cont_slice_1_split_0
I0505 16:08:17.297458 32309 net.cpp:382] cont_2_lstm1_cont_slice_1_split -> cont_2_lstm1_cont_slice_1_split_1
I0505 16:08:17.297478 32309 net.cpp:124] Setting up cont_2_lstm1_cont_slice_1_split
I0505 16:08:17.297480 32309 net.cpp:131] Top shape: 1 512 (512)
I0505 16:08:17.297483 32309 net.cpp:131] Top shape: 1 512 (512)
I0505 16:08:17.297487 32309 net.cpp:139] Memory required for data: 15491072
I0505 16:08:17.297489 32309 layer_factory.hpp:77] Creating layer cont_3_lstm1_cont_slice_2_split
I0505 16:08:17.297492 32309 net.cpp:86] Creating Layer cont_3_lstm1_cont_slice_2_split
I0505 16:08:17.297495 32309 net.cpp:408] cont_3_lstm1_cont_slice_2_split <- cont_3
I0505 16:08:17.297499 32309 net.cpp:382] cont_3_lstm1_cont_slice_2_split -> cont_3_lstm1_cont_slice_2_split_0
I0505 16:08:17.297503 32309 net.cpp:382] cont_3_lstm1_cont_slice_2_split -> cont_3_lstm1_cont_slice_2_split_1
I0505 16:08:17.297530 32309 net.cpp:124] Setting up cont_3_lstm1_cont_slice_2_split
I0505 16:08:17.297533 32309 net.cpp:131] Top shape: 1 512 (512)
I0505 16:08:17.297536 32309 net.cpp:131] Top shape: 1 512 (512)
I0505 16:08:17.297539 32309 net.cpp:139] Memory required for data: 15495168
I0505 16:08:17.297541 32309 layer_factory.hpp:77] Creating layer cont_4_lstm1_cont_slice_3_split
I0505 16:08:17.297545 32309 net.cpp:86] Creating Layer cont_4_lstm1_cont_slice_3_split
I0505 16:08:17.297547 32309 net.cpp:408] cont_4_lstm1_cont_slice_3_split <- cont_4
I0505 16:08:17.297551 32309 net.cpp:382] cont_4_lstm1_cont_slice_3_split -> cont_4_lstm1_cont_slice_3_split_0
I0505 16:08:17.297555 32309 net.cpp:382] cont_4_lstm1_cont_slice_3_split -> cont_4_lstm1_cont_slice_3_split_1
I0505 16:08:17.297574 32309 net.cpp:124] Setting up cont_4_lstm1_cont_slice_3_split
I0505 16:08:17.297577 32309 net.cpp:131] Top shape: 1 512 (512)
I0505 16:08:17.297580 32309 net.cpp:131] Top shape: 1 512 (512)
I0505 16:08:17.297583 32309 net.cpp:139] Memory required for data: 15499264
I0505 16:08:17.297586 32309 layer_factory.hpp:77] Creating layer cont_5_lstm1_cont_slice_4_split
I0505 16:08:17.297590 32309 net.cpp:86] Creating Layer cont_5_lstm1_cont_slice_4_split
I0505 16:08:17.297593 32309 net.cpp:408] cont_5_lstm1_cont_slice_4_split <- cont_5
I0505 16:08:17.297596 32309 net.cpp:382] cont_5_lstm1_cont_slice_4_split -> cont_5_lstm1_cont_slice_4_split_0
I0505 16:08:17.297601 32309 net.cpp:382] cont_5_lstm1_cont_slice_4_split -> cont_5_lstm1_cont_slice_4_split_1
I0505 16:08:17.297621 32309 net.cpp:124] Setting up cont_5_lstm1_cont_slice_4_split
I0505 16:08:17.297622 32309 net.cpp:131] Top shape: 1 512 (512)
I0505 16:08:17.297626 32309 net.cpp:131] Top shape: 1 512 (512)
I0505 16:08:17.297628 32309 net.cpp:139] Memory required for data: 15503360
I0505 16:08:17.297631 32309 layer_factory.hpp:77] Creating layer cont_6_lstm1_cont_slice_5_split
I0505 16:08:17.297634 32309 net.cpp:86] Creating Layer cont_6_lstm1_cont_slice_5_split
I0505 16:08:17.297637 32309 net.cpp:408] cont_6_lstm1_cont_slice_5_split <- cont_6
I0505 16:08:17.297641 32309 net.cpp:382] cont_6_lstm1_cont_slice_5_split -> cont_6_lstm1_cont_slice_5_split_0
I0505 16:08:17.297644 32309 net.cpp:382] cont_6_lstm1_cont_slice_5_split -> cont_6_lstm1_cont_slice_5_split_1
I0505 16:08:17.297663 32309 net.cpp:124] Setting up cont_6_lstm1_cont_slice_5_split
I0505 16:08:17.297665 32309 net.cpp:131] Top shape: 1 512 (512)
I0505 16:08:17.297668 32309 net.cpp:131] Top shape: 1 512 (512)
I0505 16:08:17.297672 32309 net.cpp:139] Memory required for data: 15507456
I0505 16:08:17.297673 32309 layer_factory.hpp:77] Creating layer cont_7_lstm1_cont_slice_6_split
I0505 16:08:17.297677 32309 net.cpp:86] Creating Layer cont_7_lstm1_cont_slice_6_split
I0505 16:08:17.297680 32309 net.cpp:408] cont_7_lstm1_cont_slice_6_split <- cont_7
I0505 16:08:17.297684 32309 net.cpp:382] cont_7_lstm1_cont_slice_6_split -> cont_7_lstm1_cont_slice_6_split_0
I0505 16:08:17.297688 32309 net.cpp:382] cont_7_lstm1_cont_slice_6_split -> cont_7_lstm1_cont_slice_6_split_1
I0505 16:08:17.297706 32309 net.cpp:124] Setting up cont_7_lstm1_cont_slice_6_split
I0505 16:08:17.297709 32309 net.cpp:131] Top shape: 1 512 (512)
I0505 16:08:17.297713 32309 net.cpp:131] Top shape: 1 512 (512)
I0505 16:08:17.297715 32309 net.cpp:139] Memory required for data: 15511552
I0505 16:08:17.297718 32309 layer_factory.hpp:77] Creating layer cont_8_lstm1_cont_slice_7_split
I0505 16:08:17.297721 32309 net.cpp:86] Creating Layer cont_8_lstm1_cont_slice_7_split
I0505 16:08:17.297724 32309 net.cpp:408] cont_8_lstm1_cont_slice_7_split <- cont_8
I0505 16:08:17.297727 32309 net.cpp:382] cont_8_lstm1_cont_slice_7_split -> cont_8_lstm1_cont_slice_7_split_0
I0505 16:08:17.297731 32309 net.cpp:382] cont_8_lstm1_cont_slice_7_split -> cont_8_lstm1_cont_slice_7_split_1
I0505 16:08:17.297750 32309 net.cpp:124] Setting up cont_8_lstm1_cont_slice_7_split
I0505 16:08:17.297752 32309 net.cpp:131] Top shape: 1 512 (512)
I0505 16:08:17.297755 32309 net.cpp:131] Top shape: 1 512 (512)
I0505 16:08:17.297768 32309 net.cpp:139] Memory required for data: 15515648
I0505 16:08:17.297771 32309 layer_factory.hpp:77] Creating layer cont_9_lstm1_cont_slice_8_split
I0505 16:08:17.297775 32309 net.cpp:86] Creating Layer cont_9_lstm1_cont_slice_8_split
I0505 16:08:17.297777 32309 net.cpp:408] cont_9_lstm1_cont_slice_8_split <- cont_9
I0505 16:08:17.297781 32309 net.cpp:382] cont_9_lstm1_cont_slice_8_split -> cont_9_lstm1_cont_slice_8_split_0
I0505 16:08:17.297786 32309 net.cpp:382] cont_9_lstm1_cont_slice_8_split -> cont_9_lstm1_cont_slice_8_split_1
I0505 16:08:17.297806 32309 net.cpp:124] Setting up cont_9_lstm1_cont_slice_8_split
I0505 16:08:17.297808 32309 net.cpp:131] Top shape: 1 512 (512)
I0505 16:08:17.297811 32309 net.cpp:131] Top shape: 1 512 (512)
I0505 16:08:17.297814 32309 net.cpp:139] Memory required for data: 15519744
I0505 16:08:17.297816 32309 layer_factory.hpp:77] Creating layer cont_10_lstm1_cont_slice_9_split
I0505 16:08:17.297821 32309 net.cpp:86] Creating Layer cont_10_lstm1_cont_slice_9_split
I0505 16:08:17.297823 32309 net.cpp:408] cont_10_lstm1_cont_slice_9_split <- cont_10
I0505 16:08:17.297827 32309 net.cpp:382] cont_10_lstm1_cont_slice_9_split -> cont_10_lstm1_cont_slice_9_split_0
I0505 16:08:17.297832 32309 net.cpp:382] cont_10_lstm1_cont_slice_9_split -> cont_10_lstm1_cont_slice_9_split_1
I0505 16:08:17.297849 32309 net.cpp:124] Setting up cont_10_lstm1_cont_slice_9_split
I0505 16:08:17.297852 32309 net.cpp:131] Top shape: 1 512 (512)
I0505 16:08:17.297854 32309 net.cpp:131] Top shape: 1 512 (512)
I0505 16:08:17.297857 32309 net.cpp:139] Memory required for data: 15523840
I0505 16:08:17.297860 32309 layer_factory.hpp:77] Creating layer cont_11_lstm1_cont_slice_10_split
I0505 16:08:17.297863 32309 net.cpp:86] Creating Layer cont_11_lstm1_cont_slice_10_split
I0505 16:08:17.297866 32309 net.cpp:408] cont_11_lstm1_cont_slice_10_split <- cont_11
I0505 16:08:17.297870 32309 net.cpp:382] cont_11_lstm1_cont_slice_10_split -> cont_11_lstm1_cont_slice_10_split_0
I0505 16:08:17.297874 32309 net.cpp:382] cont_11_lstm1_cont_slice_10_split -> cont_11_lstm1_cont_slice_10_split_1
I0505 16:08:17.297894 32309 net.cpp:124] Setting up cont_11_lstm1_cont_slice_10_split
I0505 16:08:17.297896 32309 net.cpp:131] Top shape: 1 512 (512)
I0505 16:08:17.297899 32309 net.cpp:131] Top shape: 1 512 (512)
I0505 16:08:17.297901 32309 net.cpp:139] Memory required for data: 15527936
I0505 16:08:17.297904 32309 layer_factory.hpp:77] Creating layer cont_12_lstm1_cont_slice_11_split
I0505 16:08:17.297909 32309 net.cpp:86] Creating Layer cont_12_lstm1_cont_slice_11_split
I0505 16:08:17.297910 32309 net.cpp:408] cont_12_lstm1_cont_slice_11_split <- cont_12
I0505 16:08:17.297914 32309 net.cpp:382] cont_12_lstm1_cont_slice_11_split -> cont_12_lstm1_cont_slice_11_split_0
I0505 16:08:17.297919 32309 net.cpp:382] cont_12_lstm1_cont_slice_11_split -> cont_12_lstm1_cont_slice_11_split_1
I0505 16:08:17.297937 32309 net.cpp:124] Setting up cont_12_lstm1_cont_slice_11_split
I0505 16:08:17.297940 32309 net.cpp:131] Top shape: 1 512 (512)
I0505 16:08:17.297942 32309 net.cpp:131] Top shape: 1 512 (512)
I0505 16:08:17.297945 32309 net.cpp:139] Memory required for data: 15532032
I0505 16:08:17.297947 32309 layer_factory.hpp:77] Creating layer cont_13_lstm1_cont_slice_12_split
I0505 16:08:17.297951 32309 net.cpp:86] Creating Layer cont_13_lstm1_cont_slice_12_split
I0505 16:08:17.297955 32309 net.cpp:408] cont_13_lstm1_cont_slice_12_split <- cont_13
I0505 16:08:17.297957 32309 net.cpp:382] cont_13_lstm1_cont_slice_12_split -> cont_13_lstm1_cont_slice_12_split_0
I0505 16:08:17.297961 32309 net.cpp:382] cont_13_lstm1_cont_slice_12_split -> cont_13_lstm1_cont_slice_12_split_1
I0505 16:08:17.297981 32309 net.cpp:124] Setting up cont_13_lstm1_cont_slice_12_split
I0505 16:08:17.297983 32309 net.cpp:131] Top shape: 1 512 (512)
I0505 16:08:17.297986 32309 net.cpp:131] Top shape: 1 512 (512)
I0505 16:08:17.297989 32309 net.cpp:139] Memory required for data: 15536128
I0505 16:08:17.297991 32309 layer_factory.hpp:77] Creating layer cont_14_lstm1_cont_slice_13_split
I0505 16:08:17.298002 32309 net.cpp:86] Creating Layer cont_14_lstm1_cont_slice_13_split
I0505 16:08:17.298005 32309 net.cpp:408] cont_14_lstm1_cont_slice_13_split <- cont_14
I0505 16:08:17.298009 32309 net.cpp:382] cont_14_lstm1_cont_slice_13_split -> cont_14_lstm1_cont_slice_13_split_0
I0505 16:08:17.298013 32309 net.cpp:382] cont_14_lstm1_cont_slice_13_split -> cont_14_lstm1_cont_slice_13_split_1
I0505 16:08:17.298033 32309 net.cpp:124] Setting up cont_14_lstm1_cont_slice_13_split
I0505 16:08:17.298035 32309 net.cpp:131] Top shape: 1 512 (512)
I0505 16:08:17.298039 32309 net.cpp:131] Top shape: 1 512 (512)
I0505 16:08:17.298043 32309 net.cpp:139] Memory required for data: 15540224
I0505 16:08:17.298044 32309 layer_factory.hpp:77] Creating layer cont_15_lstm1_cont_slice_14_split
I0505 16:08:17.298048 32309 net.cpp:86] Creating Layer cont_15_lstm1_cont_slice_14_split
I0505 16:08:17.298051 32309 net.cpp:408] cont_15_lstm1_cont_slice_14_split <- cont_15
I0505 16:08:17.298055 32309 net.cpp:382] cont_15_lstm1_cont_slice_14_split -> cont_15_lstm1_cont_slice_14_split_0
I0505 16:08:17.298059 32309 net.cpp:382] cont_15_lstm1_cont_slice_14_split -> cont_15_lstm1_cont_slice_14_split_1
I0505 16:08:17.298077 32309 net.cpp:124] Setting up cont_15_lstm1_cont_slice_14_split
I0505 16:08:17.298080 32309 net.cpp:131] Top shape: 1 512 (512)
I0505 16:08:17.298084 32309 net.cpp:131] Top shape: 1 512 (512)
I0505 16:08:17.298086 32309 net.cpp:139] Memory required for data: 15544320
I0505 16:08:17.298089 32309 layer_factory.hpp:77] Creating layer cont_16_lstm1_cont_slice_15_split
I0505 16:08:17.298092 32309 net.cpp:86] Creating Layer cont_16_lstm1_cont_slice_15_split
I0505 16:08:17.298094 32309 net.cpp:408] cont_16_lstm1_cont_slice_15_split <- cont_16
I0505 16:08:17.298099 32309 net.cpp:382] cont_16_lstm1_cont_slice_15_split -> cont_16_lstm1_cont_slice_15_split_0
I0505 16:08:17.298102 32309 net.cpp:382] cont_16_lstm1_cont_slice_15_split -> cont_16_lstm1_cont_slice_15_split_1
I0505 16:08:17.298121 32309 net.cpp:124] Setting up cont_16_lstm1_cont_slice_15_split
I0505 16:08:17.298125 32309 net.cpp:131] Top shape: 1 512 (512)
I0505 16:08:17.298127 32309 net.cpp:131] Top shape: 1 512 (512)
I0505 16:08:17.298130 32309 net.cpp:139] Memory required for data: 15548416
I0505 16:08:17.298132 32309 layer_factory.hpp:77] Creating layer cont_17_lstm1_cont_slice_16_split
I0505 16:08:17.298135 32309 net.cpp:86] Creating Layer cont_17_lstm1_cont_slice_16_split
I0505 16:08:17.298138 32309 net.cpp:408] cont_17_lstm1_cont_slice_16_split <- cont_17
I0505 16:08:17.298142 32309 net.cpp:382] cont_17_lstm1_cont_slice_16_split -> cont_17_lstm1_cont_slice_16_split_0
I0505 16:08:17.298146 32309 net.cpp:382] cont_17_lstm1_cont_slice_16_split -> cont_17_lstm1_cont_slice_16_split_1
I0505 16:08:17.298166 32309 net.cpp:124] Setting up cont_17_lstm1_cont_slice_16_split
I0505 16:08:17.298168 32309 net.cpp:131] Top shape: 1 512 (512)
I0505 16:08:17.298171 32309 net.cpp:131] Top shape: 1 512 (512)
I0505 16:08:17.298173 32309 net.cpp:139] Memory required for data: 15552512
I0505 16:08:17.298177 32309 layer_factory.hpp:77] Creating layer cont_18_lstm1_cont_slice_17_split
I0505 16:08:17.298179 32309 net.cpp:86] Creating Layer cont_18_lstm1_cont_slice_17_split
I0505 16:08:17.298182 32309 net.cpp:408] cont_18_lstm1_cont_slice_17_split <- cont_18
I0505 16:08:17.298185 32309 net.cpp:382] cont_18_lstm1_cont_slice_17_split -> cont_18_lstm1_cont_slice_17_split_0
I0505 16:08:17.298189 32309 net.cpp:382] cont_18_lstm1_cont_slice_17_split -> cont_18_lstm1_cont_slice_17_split_1
I0505 16:08:17.298208 32309 net.cpp:124] Setting up cont_18_lstm1_cont_slice_17_split
I0505 16:08:17.298211 32309 net.cpp:131] Top shape: 1 512 (512)
I0505 16:08:17.298214 32309 net.cpp:131] Top shape: 1 512 (512)
I0505 16:08:17.298218 32309 net.cpp:139] Memory required for data: 15556608
I0505 16:08:17.298219 32309 layer_factory.hpp:77] Creating layer cont_19_lstm1_cont_slice_18_split
I0505 16:08:17.298223 32309 net.cpp:86] Creating Layer cont_19_lstm1_cont_slice_18_split
I0505 16:08:17.298233 32309 net.cpp:408] cont_19_lstm1_cont_slice_18_split <- cont_19
I0505 16:08:17.298238 32309 net.cpp:382] cont_19_lstm1_cont_slice_18_split -> cont_19_lstm1_cont_slice_18_split_0
I0505 16:08:17.298241 32309 net.cpp:382] cont_19_lstm1_cont_slice_18_split -> cont_19_lstm1_cont_slice_18_split_1
I0505 16:08:17.298261 32309 net.cpp:124] Setting up cont_19_lstm1_cont_slice_18_split
I0505 16:08:17.298264 32309 net.cpp:131] Top shape: 1 512 (512)
I0505 16:08:17.298267 32309 net.cpp:131] Top shape: 1 512 (512)
I0505 16:08:17.298270 32309 net.cpp:139] Memory required for data: 15560704
I0505 16:08:17.298272 32309 layer_factory.hpp:77] Creating layer cont_20_lstm1_cont_slice_19_split
I0505 16:08:17.298276 32309 net.cpp:86] Creating Layer cont_20_lstm1_cont_slice_19_split
I0505 16:08:17.298280 32309 net.cpp:408] cont_20_lstm1_cont_slice_19_split <- cont_20
I0505 16:08:17.298283 32309 net.cpp:382] cont_20_lstm1_cont_slice_19_split -> cont_20_lstm1_cont_slice_19_split_0
I0505 16:08:17.298287 32309 net.cpp:382] cont_20_lstm1_cont_slice_19_split -> cont_20_lstm1_cont_slice_19_split_1
I0505 16:08:17.298306 32309 net.cpp:124] Setting up cont_20_lstm1_cont_slice_19_split
I0505 16:08:17.298310 32309 net.cpp:131] Top shape: 1 512 (512)
I0505 16:08:17.298312 32309 net.cpp:131] Top shape: 1 512 (512)
I0505 16:08:17.298316 32309 net.cpp:139] Memory required for data: 15564800
I0505 16:08:17.298317 32309 layer_factory.hpp:77] Creating layer cont_21_lstm1_cont_slice_20_split
I0505 16:08:17.298321 32309 net.cpp:86] Creating Layer cont_21_lstm1_cont_slice_20_split
I0505 16:08:17.298323 32309 net.cpp:408] cont_21_lstm1_cont_slice_20_split <- cont_21
I0505 16:08:17.298327 32309 net.cpp:382] cont_21_lstm1_cont_slice_20_split -> cont_21_lstm1_cont_slice_20_split_0
I0505 16:08:17.298331 32309 net.cpp:382] cont_21_lstm1_cont_slice_20_split -> cont_21_lstm1_cont_slice_20_split_1
I0505 16:08:17.298350 32309 net.cpp:124] Setting up cont_21_lstm1_cont_slice_20_split
I0505 16:08:17.298352 32309 net.cpp:131] Top shape: 1 512 (512)
I0505 16:08:17.298355 32309 net.cpp:131] Top shape: 1 512 (512)
I0505 16:08:17.298358 32309 net.cpp:139] Memory required for data: 15568896
I0505 16:08:17.298360 32309 layer_factory.hpp:77] Creating layer cont_22_lstm1_cont_slice_21_split
I0505 16:08:17.298365 32309 net.cpp:86] Creating Layer cont_22_lstm1_cont_slice_21_split
I0505 16:08:17.298367 32309 net.cpp:408] cont_22_lstm1_cont_slice_21_split <- cont_22
I0505 16:08:17.298372 32309 net.cpp:382] cont_22_lstm1_cont_slice_21_split -> cont_22_lstm1_cont_slice_21_split_0
I0505 16:08:17.298375 32309 net.cpp:382] cont_22_lstm1_cont_slice_21_split -> cont_22_lstm1_cont_slice_21_split_1
I0505 16:08:17.298394 32309 net.cpp:124] Setting up cont_22_lstm1_cont_slice_21_split
I0505 16:08:17.298398 32309 net.cpp:131] Top shape: 1 512 (512)
I0505 16:08:17.298400 32309 net.cpp:131] Top shape: 1 512 (512)
I0505 16:08:17.298403 32309 net.cpp:139] Memory required for data: 15572992
I0505 16:08:17.298405 32309 layer_factory.hpp:77] Creating layer cont_23_lstm1_cont_slice_22_split
I0505 16:08:17.298408 32309 net.cpp:86] Creating Layer cont_23_lstm1_cont_slice_22_split
I0505 16:08:17.298411 32309 net.cpp:408] cont_23_lstm1_cont_slice_22_split <- cont_23
I0505 16:08:17.298415 32309 net.cpp:382] cont_23_lstm1_cont_slice_22_split -> cont_23_lstm1_cont_slice_22_split_0
I0505 16:08:17.298421 32309 net.cpp:382] cont_23_lstm1_cont_slice_22_split -> cont_23_lstm1_cont_slice_22_split_1
I0505 16:08:17.298442 32309 net.cpp:124] Setting up cont_23_lstm1_cont_slice_22_split
I0505 16:08:17.298445 32309 net.cpp:131] Top shape: 1 512 (512)
I0505 16:08:17.298449 32309 net.cpp:131] Top shape: 1 512 (512)
I0505 16:08:17.298450 32309 net.cpp:139] Memory required for data: 15577088
I0505 16:08:17.298454 32309 layer_factory.hpp:77] Creating layer cont_24_lstm1_cont_slice_23_split
I0505 16:08:17.298456 32309 net.cpp:86] Creating Layer cont_24_lstm1_cont_slice_23_split
I0505 16:08:17.298460 32309 net.cpp:408] cont_24_lstm1_cont_slice_23_split <- cont_24
I0505 16:08:17.298465 32309 net.cpp:382] cont_24_lstm1_cont_slice_23_split -> cont_24_lstm1_cont_slice_23_split_0
I0505 16:08:17.298480 32309 net.cpp:382] cont_24_lstm1_cont_slice_23_split -> cont_24_lstm1_cont_slice_23_split_1
I0505 16:08:17.298502 32309 net.cpp:124] Setting up cont_24_lstm1_cont_slice_23_split
I0505 16:08:17.298506 32309 net.cpp:131] Top shape: 1 512 (512)
I0505 16:08:17.298508 32309 net.cpp:131] Top shape: 1 512 (512)
I0505 16:08:17.298511 32309 net.cpp:139] Memory required for data: 15581184
I0505 16:08:17.298514 32309 layer_factory.hpp:77] Creating layer cont_25_lstm1_cont_slice_24_split
I0505 16:08:17.298518 32309 net.cpp:86] Creating Layer cont_25_lstm1_cont_slice_24_split
I0505 16:08:17.298521 32309 net.cpp:408] cont_25_lstm1_cont_slice_24_split <- cont_25
I0505 16:08:17.298524 32309 net.cpp:382] cont_25_lstm1_cont_slice_24_split -> cont_25_lstm1_cont_slice_24_split_0
I0505 16:08:17.298529 32309 net.cpp:382] cont_25_lstm1_cont_slice_24_split -> cont_25_lstm1_cont_slice_24_split_1
I0505 16:08:17.298549 32309 net.cpp:124] Setting up cont_25_lstm1_cont_slice_24_split
I0505 16:08:17.298552 32309 net.cpp:131] Top shape: 1 512 (512)
I0505 16:08:17.298554 32309 net.cpp:131] Top shape: 1 512 (512)
I0505 16:08:17.298557 32309 net.cpp:139] Memory required for data: 15585280
I0505 16:08:17.298559 32309 layer_factory.hpp:77] Creating layer cont_26_lstm1_cont_slice_25_split
I0505 16:08:17.298563 32309 net.cpp:86] Creating Layer cont_26_lstm1_cont_slice_25_split
I0505 16:08:17.298566 32309 net.cpp:408] cont_26_lstm1_cont_slice_25_split <- cont_26
I0505 16:08:17.298570 32309 net.cpp:382] cont_26_lstm1_cont_slice_25_split -> cont_26_lstm1_cont_slice_25_split_0
I0505 16:08:17.298574 32309 net.cpp:382] cont_26_lstm1_cont_slice_25_split -> cont_26_lstm1_cont_slice_25_split_1
I0505 16:08:17.298594 32309 net.cpp:124] Setting up cont_26_lstm1_cont_slice_25_split
I0505 16:08:17.298596 32309 net.cpp:131] Top shape: 1 512 (512)
I0505 16:08:17.298599 32309 net.cpp:131] Top shape: 1 512 (512)
I0505 16:08:17.298602 32309 net.cpp:139] Memory required for data: 15589376
I0505 16:08:17.298604 32309 layer_factory.hpp:77] Creating layer cont_27_lstm1_cont_slice_26_split
I0505 16:08:17.298609 32309 net.cpp:86] Creating Layer cont_27_lstm1_cont_slice_26_split
I0505 16:08:17.298610 32309 net.cpp:408] cont_27_lstm1_cont_slice_26_split <- cont_27
I0505 16:08:17.298614 32309 net.cpp:382] cont_27_lstm1_cont_slice_26_split -> cont_27_lstm1_cont_slice_26_split_0
I0505 16:08:17.298619 32309 net.cpp:382] cont_27_lstm1_cont_slice_26_split -> cont_27_lstm1_cont_slice_26_split_1
I0505 16:08:17.298637 32309 net.cpp:124] Setting up cont_27_lstm1_cont_slice_26_split
I0505 16:08:17.298640 32309 net.cpp:131] Top shape: 1 512 (512)
I0505 16:08:17.298643 32309 net.cpp:131] Top shape: 1 512 (512)
I0505 16:08:17.298646 32309 net.cpp:139] Memory required for data: 15593472
I0505 16:08:17.298648 32309 layer_factory.hpp:77] Creating layer cont_28_lstm1_cont_slice_27_split
I0505 16:08:17.298651 32309 net.cpp:86] Creating Layer cont_28_lstm1_cont_slice_27_split
I0505 16:08:17.298655 32309 net.cpp:408] cont_28_lstm1_cont_slice_27_split <- cont_28
I0505 16:08:17.298657 32309 net.cpp:382] cont_28_lstm1_cont_slice_27_split -> cont_28_lstm1_cont_slice_27_split_0
I0505 16:08:17.298662 32309 net.cpp:382] cont_28_lstm1_cont_slice_27_split -> cont_28_lstm1_cont_slice_27_split_1
I0505 16:08:17.298682 32309 net.cpp:124] Setting up cont_28_lstm1_cont_slice_27_split
I0505 16:08:17.298686 32309 net.cpp:131] Top shape: 1 512 (512)
I0505 16:08:17.298688 32309 net.cpp:131] Top shape: 1 512 (512)
I0505 16:08:17.298691 32309 net.cpp:139] Memory required for data: 15597568
I0505 16:08:17.298693 32309 layer_factory.hpp:77] Creating layer cont_29_lstm1_cont_slice_28_split
I0505 16:08:17.298697 32309 net.cpp:86] Creating Layer cont_29_lstm1_cont_slice_28_split
I0505 16:08:17.298701 32309 net.cpp:408] cont_29_lstm1_cont_slice_28_split <- cont_29
I0505 16:08:17.298703 32309 net.cpp:382] cont_29_lstm1_cont_slice_28_split -> cont_29_lstm1_cont_slice_28_split_0
I0505 16:08:17.298708 32309 net.cpp:382] cont_29_lstm1_cont_slice_28_split -> cont_29_lstm1_cont_slice_28_split_1
I0505 16:08:17.298739 32309 net.cpp:124] Setting up cont_29_lstm1_cont_slice_28_split
I0505 16:08:17.298744 32309 net.cpp:131] Top shape: 1 512 (512)
I0505 16:08:17.298748 32309 net.cpp:131] Top shape: 1 512 (512)
I0505 16:08:17.298751 32309 net.cpp:139] Memory required for data: 15601664
I0505 16:08:17.298756 32309 layer_factory.hpp:77] Creating layer cont_30_lstm1_cont_slice_29_split
I0505 16:08:17.298763 32309 net.cpp:86] Creating Layer cont_30_lstm1_cont_slice_29_split
I0505 16:08:17.298765 32309 net.cpp:408] cont_30_lstm1_cont_slice_29_split <- cont_30
I0505 16:08:17.298770 32309 net.cpp:382] cont_30_lstm1_cont_slice_29_split -> cont_30_lstm1_cont_slice_29_split_0
I0505 16:08:17.298775 32309 net.cpp:382] cont_30_lstm1_cont_slice_29_split -> cont_30_lstm1_cont_slice_29_split_1
I0505 16:08:17.298797 32309 net.cpp:124] Setting up cont_30_lstm1_cont_slice_29_split
I0505 16:08:17.298799 32309 net.cpp:131] Top shape: 1 512 (512)
I0505 16:08:17.298802 32309 net.cpp:131] Top shape: 1 512 (512)
I0505 16:08:17.298805 32309 net.cpp:139] Memory required for data: 15605760
I0505 16:08:17.298808 32309 layer_factory.hpp:77] Creating layer cont_31_lstm1_cont_slice_30_split
I0505 16:08:17.298811 32309 net.cpp:86] Creating Layer cont_31_lstm1_cont_slice_30_split
I0505 16:08:17.298815 32309 net.cpp:408] cont_31_lstm1_cont_slice_30_split <- cont_31
I0505 16:08:17.298818 32309 net.cpp:382] cont_31_lstm1_cont_slice_30_split -> cont_31_lstm1_cont_slice_30_split_0
I0505 16:08:17.298822 32309 net.cpp:382] cont_31_lstm1_cont_slice_30_split -> cont_31_lstm1_cont_slice_30_split_1
I0505 16:08:17.298841 32309 net.cpp:124] Setting up cont_31_lstm1_cont_slice_30_split
I0505 16:08:17.298844 32309 net.cpp:131] Top shape: 1 512 (512)
I0505 16:08:17.298847 32309 net.cpp:131] Top shape: 1 512 (512)
I0505 16:08:17.298849 32309 net.cpp:139] Memory required for data: 15609856
I0505 16:08:17.298852 32309 layer_factory.hpp:77] Creating layer cont_32_lstm1_cont_slice_31_split
I0505 16:08:17.298856 32309 net.cpp:86] Creating Layer cont_32_lstm1_cont_slice_31_split
I0505 16:08:17.298858 32309 net.cpp:408] cont_32_lstm1_cont_slice_31_split <- cont_32
I0505 16:08:17.298861 32309 net.cpp:382] cont_32_lstm1_cont_slice_31_split -> cont_32_lstm1_cont_slice_31_split_0
I0505 16:08:17.298866 32309 net.cpp:382] cont_32_lstm1_cont_slice_31_split -> cont_32_lstm1_cont_slice_31_split_1
I0505 16:08:17.298885 32309 net.cpp:124] Setting up cont_32_lstm1_cont_slice_31_split
I0505 16:08:17.298887 32309 net.cpp:131] Top shape: 1 512 (512)
I0505 16:08:17.298890 32309 net.cpp:131] Top shape: 1 512 (512)
I0505 16:08:17.298893 32309 net.cpp:139] Memory required for data: 15613952
I0505 16:08:17.298895 32309 layer_factory.hpp:77] Creating layer cont_33_lstm1_cont_slice_32_split
I0505 16:08:17.298899 32309 net.cpp:86] Creating Layer cont_33_lstm1_cont_slice_32_split
I0505 16:08:17.298902 32309 net.cpp:408] cont_33_lstm1_cont_slice_32_split <- cont_33
I0505 16:08:17.298905 32309 net.cpp:382] cont_33_lstm1_cont_slice_32_split -> cont_33_lstm1_cont_slice_32_split_0
I0505 16:08:17.298909 32309 net.cpp:382] cont_33_lstm1_cont_slice_32_split -> cont_33_lstm1_cont_slice_32_split_1
I0505 16:08:17.298928 32309 net.cpp:124] Setting up cont_33_lstm1_cont_slice_32_split
I0505 16:08:17.298930 32309 net.cpp:131] Top shape: 1 512 (512)
I0505 16:08:17.298933 32309 net.cpp:131] Top shape: 1 512 (512)
I0505 16:08:17.298936 32309 net.cpp:139] Memory required for data: 15618048
I0505 16:08:17.298938 32309 layer_factory.hpp:77] Creating layer cont_34_lstm1_cont_slice_33_split
I0505 16:08:17.298943 32309 net.cpp:86] Creating Layer cont_34_lstm1_cont_slice_33_split
I0505 16:08:17.298944 32309 net.cpp:408] cont_34_lstm1_cont_slice_33_split <- cont_34
I0505 16:08:17.298949 32309 net.cpp:382] cont_34_lstm1_cont_slice_33_split -> cont_34_lstm1_cont_slice_33_split_0
I0505 16:08:17.298952 32309 net.cpp:382] cont_34_lstm1_cont_slice_33_split -> cont_34_lstm1_cont_slice_33_split_1
I0505 16:08:17.298971 32309 net.cpp:124] Setting up cont_34_lstm1_cont_slice_33_split
I0505 16:08:17.298974 32309 net.cpp:131] Top shape: 1 512 (512)
I0505 16:08:17.298985 32309 net.cpp:131] Top shape: 1 512 (512)
I0505 16:08:17.298988 32309 net.cpp:139] Memory required for data: 15622144
I0505 16:08:17.298990 32309 layer_factory.hpp:77] Creating layer cont_35_lstm1_cont_slice_34_split
I0505 16:08:17.298995 32309 net.cpp:86] Creating Layer cont_35_lstm1_cont_slice_34_split
I0505 16:08:17.298996 32309 net.cpp:408] cont_35_lstm1_cont_slice_34_split <- cont_35
I0505 16:08:17.299000 32309 net.cpp:382] cont_35_lstm1_cont_slice_34_split -> cont_35_lstm1_cont_slice_34_split_0
I0505 16:08:17.299005 32309 net.cpp:382] cont_35_lstm1_cont_slice_34_split -> cont_35_lstm1_cont_slice_34_split_1
I0505 16:08:17.299024 32309 net.cpp:124] Setting up cont_35_lstm1_cont_slice_34_split
I0505 16:08:17.299027 32309 net.cpp:131] Top shape: 1 512 (512)
I0505 16:08:17.299031 32309 net.cpp:131] Top shape: 1 512 (512)
I0505 16:08:17.299033 32309 net.cpp:139] Memory required for data: 15626240
I0505 16:08:17.299036 32309 layer_factory.hpp:77] Creating layer cont_36_lstm1_cont_slice_35_split
I0505 16:08:17.299039 32309 net.cpp:86] Creating Layer cont_36_lstm1_cont_slice_35_split
I0505 16:08:17.299041 32309 net.cpp:408] cont_36_lstm1_cont_slice_35_split <- cont_36
I0505 16:08:17.299046 32309 net.cpp:382] cont_36_lstm1_cont_slice_35_split -> cont_36_lstm1_cont_slice_35_split_0
I0505 16:08:17.299049 32309 net.cpp:382] cont_36_lstm1_cont_slice_35_split -> cont_36_lstm1_cont_slice_35_split_1
I0505 16:08:17.299067 32309 net.cpp:124] Setting up cont_36_lstm1_cont_slice_35_split
I0505 16:08:17.299070 32309 net.cpp:131] Top shape: 1 512 (512)
I0505 16:08:17.299073 32309 net.cpp:131] Top shape: 1 512 (512)
I0505 16:08:17.299077 32309 net.cpp:139] Memory required for data: 15630336
I0505 16:08:17.299078 32309 layer_factory.hpp:77] Creating layer cont_37_lstm1_cont_slice_36_split
I0505 16:08:17.299082 32309 net.cpp:86] Creating Layer cont_37_lstm1_cont_slice_36_split
I0505 16:08:17.299085 32309 net.cpp:408] cont_37_lstm1_cont_slice_36_split <- cont_37
I0505 16:08:17.299088 32309 net.cpp:382] cont_37_lstm1_cont_slice_36_split -> cont_37_lstm1_cont_slice_36_split_0
I0505 16:08:17.299093 32309 net.cpp:382] cont_37_lstm1_cont_slice_36_split -> cont_37_lstm1_cont_slice_36_split_1
I0505 16:08:17.299111 32309 net.cpp:124] Setting up cont_37_lstm1_cont_slice_36_split
I0505 16:08:17.299113 32309 net.cpp:131] Top shape: 1 512 (512)
I0505 16:08:17.299116 32309 net.cpp:131] Top shape: 1 512 (512)
I0505 16:08:17.299119 32309 net.cpp:139] Memory required for data: 15634432
I0505 16:08:17.299121 32309 layer_factory.hpp:77] Creating layer cont_38_lstm1_cont_slice_37_split
I0505 16:08:17.299125 32309 net.cpp:86] Creating Layer cont_38_lstm1_cont_slice_37_split
I0505 16:08:17.299129 32309 net.cpp:408] cont_38_lstm1_cont_slice_37_split <- cont_38
I0505 16:08:17.299131 32309 net.cpp:382] cont_38_lstm1_cont_slice_37_split -> cont_38_lstm1_cont_slice_37_split_0
I0505 16:08:17.299135 32309 net.cpp:382] cont_38_lstm1_cont_slice_37_split -> cont_38_lstm1_cont_slice_37_split_1
I0505 16:08:17.299154 32309 net.cpp:124] Setting up cont_38_lstm1_cont_slice_37_split
I0505 16:08:17.299157 32309 net.cpp:131] Top shape: 1 512 (512)
I0505 16:08:17.299161 32309 net.cpp:131] Top shape: 1 512 (512)
I0505 16:08:17.299165 32309 net.cpp:139] Memory required for data: 15638528
I0505 16:08:17.299167 32309 layer_factory.hpp:77] Creating layer cont_39_lstm1_cont_slice_38_split
I0505 16:08:17.299171 32309 net.cpp:86] Creating Layer cont_39_lstm1_cont_slice_38_split
I0505 16:08:17.299175 32309 net.cpp:408] cont_39_lstm1_cont_slice_38_split <- cont_39
I0505 16:08:17.299178 32309 net.cpp:382] cont_39_lstm1_cont_slice_38_split -> cont_39_lstm1_cont_slice_38_split_0
I0505 16:08:17.299183 32309 net.cpp:382] cont_39_lstm1_cont_slice_38_split -> cont_39_lstm1_cont_slice_38_split_1
I0505 16:08:17.299204 32309 net.cpp:124] Setting up cont_39_lstm1_cont_slice_38_split
I0505 16:08:17.299207 32309 net.cpp:131] Top shape: 1 512 (512)
I0505 16:08:17.299211 32309 net.cpp:131] Top shape: 1 512 (512)
I0505 16:08:17.299213 32309 net.cpp:139] Memory required for data: 15642624
I0505 16:08:17.299223 32309 layer_factory.hpp:77] Creating layer cont_40_lstm1_cont_slice_39_split
I0505 16:08:17.299227 32309 net.cpp:86] Creating Layer cont_40_lstm1_cont_slice_39_split
I0505 16:08:17.299230 32309 net.cpp:408] cont_40_lstm1_cont_slice_39_split <- cont_40
I0505 16:08:17.299234 32309 net.cpp:382] cont_40_lstm1_cont_slice_39_split -> cont_40_lstm1_cont_slice_39_split_0
I0505 16:08:17.299239 32309 net.cpp:382] cont_40_lstm1_cont_slice_39_split -> cont_40_lstm1_cont_slice_39_split_1
I0505 16:08:17.299259 32309 net.cpp:124] Setting up cont_40_lstm1_cont_slice_39_split
I0505 16:08:17.299263 32309 net.cpp:131] Top shape: 1 512 (512)
I0505 16:08:17.299266 32309 net.cpp:131] Top shape: 1 512 (512)
I0505 16:08:17.299269 32309 net.cpp:139] Memory required for data: 15646720
I0505 16:08:17.299271 32309 layer_factory.hpp:77] Creating layer cont_41_lstm1_cont_slice_40_split
I0505 16:08:17.299275 32309 net.cpp:86] Creating Layer cont_41_lstm1_cont_slice_40_split
I0505 16:08:17.299278 32309 net.cpp:408] cont_41_lstm1_cont_slice_40_split <- cont_41
I0505 16:08:17.299281 32309 net.cpp:382] cont_41_lstm1_cont_slice_40_split -> cont_41_lstm1_cont_slice_40_split_0
I0505 16:08:17.299299 32309 net.cpp:382] cont_41_lstm1_cont_slice_40_split -> cont_41_lstm1_cont_slice_40_split_1
I0505 16:08:17.299321 32309 net.cpp:124] Setting up cont_41_lstm1_cont_slice_40_split
I0505 16:08:17.299324 32309 net.cpp:131] Top shape: 1 512 (512)
I0505 16:08:17.299327 32309 net.cpp:131] Top shape: 1 512 (512)
I0505 16:08:17.299330 32309 net.cpp:139] Memory required for data: 15650816
I0505 16:08:17.299332 32309 layer_factory.hpp:77] Creating layer cont_42_lstm1_cont_slice_41_split
I0505 16:08:17.299335 32309 net.cpp:86] Creating Layer cont_42_lstm1_cont_slice_41_split
I0505 16:08:17.299338 32309 net.cpp:408] cont_42_lstm1_cont_slice_41_split <- cont_42
I0505 16:08:17.299342 32309 net.cpp:382] cont_42_lstm1_cont_slice_41_split -> cont_42_lstm1_cont_slice_41_split_0
I0505 16:08:17.299346 32309 net.cpp:382] cont_42_lstm1_cont_slice_41_split -> cont_42_lstm1_cont_slice_41_split_1
I0505 16:08:17.299365 32309 net.cpp:124] Setting up cont_42_lstm1_cont_slice_41_split
I0505 16:08:17.299368 32309 net.cpp:131] Top shape: 1 512 (512)
I0505 16:08:17.299371 32309 net.cpp:131] Top shape: 1 512 (512)
I0505 16:08:17.299374 32309 net.cpp:139] Memory required for data: 15654912
I0505 16:08:17.299376 32309 layer_factory.hpp:77] Creating layer cont_43_lstm1_cont_slice_42_split
I0505 16:08:17.299381 32309 net.cpp:86] Creating Layer cont_43_lstm1_cont_slice_42_split
I0505 16:08:17.299382 32309 net.cpp:408] cont_43_lstm1_cont_slice_42_split <- cont_43
I0505 16:08:17.299386 32309 net.cpp:382] cont_43_lstm1_cont_slice_42_split -> cont_43_lstm1_cont_slice_42_split_0
I0505 16:08:17.299391 32309 net.cpp:382] cont_43_lstm1_cont_slice_42_split -> cont_43_lstm1_cont_slice_42_split_1
I0505 16:08:17.299409 32309 net.cpp:124] Setting up cont_43_lstm1_cont_slice_42_split
I0505 16:08:17.299412 32309 net.cpp:131] Top shape: 1 512 (512)
I0505 16:08:17.299415 32309 net.cpp:131] Top shape: 1 512 (512)
I0505 16:08:17.299418 32309 net.cpp:139] Memory required for data: 15659008
I0505 16:08:17.299420 32309 layer_factory.hpp:77] Creating layer cont_44_lstm1_cont_slice_43_split
I0505 16:08:17.299424 32309 net.cpp:86] Creating Layer cont_44_lstm1_cont_slice_43_split
I0505 16:08:17.299427 32309 net.cpp:408] cont_44_lstm1_cont_slice_43_split <- cont_44
I0505 16:08:17.299430 32309 net.cpp:382] cont_44_lstm1_cont_slice_43_split -> cont_44_lstm1_cont_slice_43_split_0
I0505 16:08:17.299434 32309 net.cpp:382] cont_44_lstm1_cont_slice_43_split -> cont_44_lstm1_cont_slice_43_split_1
I0505 16:08:17.299454 32309 net.cpp:124] Setting up cont_44_lstm1_cont_slice_43_split
I0505 16:08:17.299458 32309 net.cpp:131] Top shape: 1 512 (512)
I0505 16:08:17.299460 32309 net.cpp:131] Top shape: 1 512 (512)
I0505 16:08:17.299463 32309 net.cpp:139] Memory required for data: 15663104
I0505 16:08:17.299465 32309 layer_factory.hpp:77] Creating layer cont_45_lstm1_cont_slice_44_split
I0505 16:08:17.299476 32309 net.cpp:86] Creating Layer cont_45_lstm1_cont_slice_44_split
I0505 16:08:17.299479 32309 net.cpp:408] cont_45_lstm1_cont_slice_44_split <- cont_45
I0505 16:08:17.299484 32309 net.cpp:382] cont_45_lstm1_cont_slice_44_split -> cont_45_lstm1_cont_slice_44_split_0
I0505 16:08:17.299487 32309 net.cpp:382] cont_45_lstm1_cont_slice_44_split -> cont_45_lstm1_cont_slice_44_split_1
I0505 16:08:17.299509 32309 net.cpp:124] Setting up cont_45_lstm1_cont_slice_44_split
I0505 16:08:17.299511 32309 net.cpp:131] Top shape: 1 512 (512)
I0505 16:08:17.299515 32309 net.cpp:131] Top shape: 1 512 (512)
I0505 16:08:17.299517 32309 net.cpp:139] Memory required for data: 15667200
I0505 16:08:17.299520 32309 layer_factory.hpp:77] Creating layer cont_46_lstm1_cont_slice_45_split
I0505 16:08:17.299525 32309 net.cpp:86] Creating Layer cont_46_lstm1_cont_slice_45_split
I0505 16:08:17.299527 32309 net.cpp:408] cont_46_lstm1_cont_slice_45_split <- cont_46
I0505 16:08:17.299531 32309 net.cpp:382] cont_46_lstm1_cont_slice_45_split -> cont_46_lstm1_cont_slice_45_split_0
I0505 16:08:17.299535 32309 net.cpp:382] cont_46_lstm1_cont_slice_45_split -> cont_46_lstm1_cont_slice_45_split_1
I0505 16:08:17.299554 32309 net.cpp:124] Setting up cont_46_lstm1_cont_slice_45_split
I0505 16:08:17.299557 32309 net.cpp:131] Top shape: 1 512 (512)
I0505 16:08:17.299561 32309 net.cpp:131] Top shape: 1 512 (512)
I0505 16:08:17.299562 32309 net.cpp:139] Memory required for data: 15671296
I0505 16:08:17.299566 32309 layer_factory.hpp:77] Creating layer cont_47_lstm1_cont_slice_46_split
I0505 16:08:17.299568 32309 net.cpp:86] Creating Layer cont_47_lstm1_cont_slice_46_split
I0505 16:08:17.299571 32309 net.cpp:408] cont_47_lstm1_cont_slice_46_split <- cont_47
I0505 16:08:17.299574 32309 net.cpp:382] cont_47_lstm1_cont_slice_46_split -> cont_47_lstm1_cont_slice_46_split_0
I0505 16:08:17.299578 32309 net.cpp:382] cont_47_lstm1_cont_slice_46_split -> cont_47_lstm1_cont_slice_46_split_1
I0505 16:08:17.299597 32309 net.cpp:124] Setting up cont_47_lstm1_cont_slice_46_split
I0505 16:08:17.299600 32309 net.cpp:131] Top shape: 1 512 (512)
I0505 16:08:17.299603 32309 net.cpp:131] Top shape: 1 512 (512)
I0505 16:08:17.299607 32309 net.cpp:139] Memory required for data: 15675392
I0505 16:08:17.299608 32309 layer_factory.hpp:77] Creating layer cont_48_lstm1_cont_slice_47_split
I0505 16:08:17.299612 32309 net.cpp:86] Creating Layer cont_48_lstm1_cont_slice_47_split
I0505 16:08:17.299615 32309 net.cpp:408] cont_48_lstm1_cont_slice_47_split <- cont_48
I0505 16:08:17.299618 32309 net.cpp:382] cont_48_lstm1_cont_slice_47_split -> cont_48_lstm1_cont_slice_47_split_0
I0505 16:08:17.299623 32309 net.cpp:382] cont_48_lstm1_cont_slice_47_split -> cont_48_lstm1_cont_slice_47_split_1
I0505 16:08:17.299641 32309 net.cpp:124] Setting up cont_48_lstm1_cont_slice_47_split
I0505 16:08:17.299644 32309 net.cpp:131] Top shape: 1 512 (512)
I0505 16:08:17.299648 32309 net.cpp:131] Top shape: 1 512 (512)
I0505 16:08:17.299650 32309 net.cpp:139] Memory required for data: 15679488
I0505 16:08:17.299652 32309 layer_factory.hpp:77] Creating layer cont_49_lstm1_cont_slice_48_split
I0505 16:08:17.299656 32309 net.cpp:86] Creating Layer cont_49_lstm1_cont_slice_48_split
I0505 16:08:17.299659 32309 net.cpp:408] cont_49_lstm1_cont_slice_48_split <- cont_49
I0505 16:08:17.299662 32309 net.cpp:382] cont_49_lstm1_cont_slice_48_split -> cont_49_lstm1_cont_slice_48_split_0
I0505 16:08:17.299666 32309 net.cpp:382] cont_49_lstm1_cont_slice_48_split -> cont_49_lstm1_cont_slice_48_split_1
I0505 16:08:17.299685 32309 net.cpp:124] Setting up cont_49_lstm1_cont_slice_48_split
I0505 16:08:17.299688 32309 net.cpp:131] Top shape: 1 512 (512)
I0505 16:08:17.299691 32309 net.cpp:131] Top shape: 1 512 (512)
I0505 16:08:17.299695 32309 net.cpp:139] Memory required for data: 15683584
I0505 16:08:17.299696 32309 layer_factory.hpp:77] Creating layer cont_50_lstm1_cont_slice_49_split
I0505 16:08:17.299700 32309 net.cpp:86] Creating Layer cont_50_lstm1_cont_slice_49_split
I0505 16:08:17.299703 32309 net.cpp:408] cont_50_lstm1_cont_slice_49_split <- cont_50
I0505 16:08:17.299713 32309 net.cpp:382] cont_50_lstm1_cont_slice_49_split -> cont_50_lstm1_cont_slice_49_split_0
I0505 16:08:17.299718 32309 net.cpp:382] cont_50_lstm1_cont_slice_49_split -> cont_50_lstm1_cont_slice_49_split_1
I0505 16:08:17.299742 32309 net.cpp:124] Setting up cont_50_lstm1_cont_slice_49_split
I0505 16:08:17.299746 32309 net.cpp:131] Top shape: 1 512 (512)
I0505 16:08:17.299751 32309 net.cpp:131] Top shape: 1 512 (512)
I0505 16:08:17.299754 32309 net.cpp:139] Memory required for data: 15687680
I0505 16:08:17.299757 32309 layer_factory.hpp:77] Creating layer cont_51_lstm1_cont_slice_50_split
I0505 16:08:17.299762 32309 net.cpp:86] Creating Layer cont_51_lstm1_cont_slice_50_split
I0505 16:08:17.299765 32309 net.cpp:408] cont_51_lstm1_cont_slice_50_split <- cont_51
I0505 16:08:17.299770 32309 net.cpp:382] cont_51_lstm1_cont_slice_50_split -> cont_51_lstm1_cont_slice_50_split_0
I0505 16:08:17.299777 32309 net.cpp:382] cont_51_lstm1_cont_slice_50_split -> cont_51_lstm1_cont_slice_50_split_1
I0505 16:08:17.299801 32309 net.cpp:124] Setting up cont_51_lstm1_cont_slice_50_split
I0505 16:08:17.299805 32309 net.cpp:131] Top shape: 1 512 (512)
I0505 16:08:17.299809 32309 net.cpp:131] Top shape: 1 512 (512)
I0505 16:08:17.299813 32309 net.cpp:139] Memory required for data: 15691776
I0505 16:08:17.299815 32309 layer_factory.hpp:77] Creating layer cont_52_lstm1_cont_slice_51_split
I0505 16:08:17.299819 32309 net.cpp:86] Creating Layer cont_52_lstm1_cont_slice_51_split
I0505 16:08:17.299823 32309 net.cpp:408] cont_52_lstm1_cont_slice_51_split <- cont_52
I0505 16:08:17.299827 32309 net.cpp:382] cont_52_lstm1_cont_slice_51_split -> cont_52_lstm1_cont_slice_51_split_0
I0505 16:08:17.299832 32309 net.cpp:382] cont_52_lstm1_cont_slice_51_split -> cont_52_lstm1_cont_slice_51_split_1
I0505 16:08:17.299862 32309 net.cpp:124] Setting up cont_52_lstm1_cont_slice_51_split
I0505 16:08:17.299866 32309 net.cpp:131] Top shape: 1 512 (512)
I0505 16:08:17.299870 32309 net.cpp:131] Top shape: 1 512 (512)
I0505 16:08:17.299873 32309 net.cpp:139] Memory required for data: 15695872
I0505 16:08:17.299876 32309 layer_factory.hpp:77] Creating layer cont_53_lstm1_cont_slice_52_split
I0505 16:08:17.299881 32309 net.cpp:86] Creating Layer cont_53_lstm1_cont_slice_52_split
I0505 16:08:17.299885 32309 net.cpp:408] cont_53_lstm1_cont_slice_52_split <- cont_53
I0505 16:08:17.299890 32309 net.cpp:382] cont_53_lstm1_cont_slice_52_split -> cont_53_lstm1_cont_slice_52_split_0
I0505 16:08:17.299896 32309 net.cpp:382] cont_53_lstm1_cont_slice_52_split -> cont_53_lstm1_cont_slice_52_split_1
I0505 16:08:17.299923 32309 net.cpp:124] Setting up cont_53_lstm1_cont_slice_52_split
I0505 16:08:17.299927 32309 net.cpp:131] Top shape: 1 512 (512)
I0505 16:08:17.299932 32309 net.cpp:131] Top shape: 1 512 (512)
I0505 16:08:17.299934 32309 net.cpp:139] Memory required for data: 15699968
I0505 16:08:17.299937 32309 layer_factory.hpp:77] Creating layer cont_54_lstm1_cont_slice_53_split
I0505 16:08:17.299942 32309 net.cpp:86] Creating Layer cont_54_lstm1_cont_slice_53_split
I0505 16:08:17.299945 32309 net.cpp:408] cont_54_lstm1_cont_slice_53_split <- cont_54
I0505 16:08:17.299950 32309 net.cpp:382] cont_54_lstm1_cont_slice_53_split -> cont_54_lstm1_cont_slice_53_split_0
I0505 16:08:17.299955 32309 net.cpp:382] cont_54_lstm1_cont_slice_53_split -> cont_54_lstm1_cont_slice_53_split_1
I0505 16:08:17.299980 32309 net.cpp:124] Setting up cont_54_lstm1_cont_slice_53_split
I0505 16:08:17.299984 32309 net.cpp:131] Top shape: 1 512 (512)
I0505 16:08:17.299988 32309 net.cpp:131] Top shape: 1 512 (512)
I0505 16:08:17.299993 32309 net.cpp:139] Memory required for data: 15704064
I0505 16:08:17.299995 32309 layer_factory.hpp:77] Creating layer cont_55_lstm1_cont_slice_54_split
I0505 16:08:17.299999 32309 net.cpp:86] Creating Layer cont_55_lstm1_cont_slice_54_split
I0505 16:08:17.300004 32309 net.cpp:408] cont_55_lstm1_cont_slice_54_split <- cont_55
I0505 16:08:17.300007 32309 net.cpp:382] cont_55_lstm1_cont_slice_54_split -> cont_55_lstm1_cont_slice_54_split_0
I0505 16:08:17.300021 32309 net.cpp:382] cont_55_lstm1_cont_slice_54_split -> cont_55_lstm1_cont_slice_54_split_1
I0505 16:08:17.300045 32309 net.cpp:124] Setting up cont_55_lstm1_cont_slice_54_split
I0505 16:08:17.300046 32309 net.cpp:131] Top shape: 1 512 (512)
I0505 16:08:17.300050 32309 net.cpp:131] Top shape: 1 512 (512)
I0505 16:08:17.300052 32309 net.cpp:139] Memory required for data: 15708160
I0505 16:08:17.300055 32309 layer_factory.hpp:77] Creating layer cont_56_lstm1_cont_slice_55_split
I0505 16:08:17.300058 32309 net.cpp:86] Creating Layer cont_56_lstm1_cont_slice_55_split
I0505 16:08:17.300061 32309 net.cpp:408] cont_56_lstm1_cont_slice_55_split <- cont_56
I0505 16:08:17.300065 32309 net.cpp:382] cont_56_lstm1_cont_slice_55_split -> cont_56_lstm1_cont_slice_55_split_0
I0505 16:08:17.300071 32309 net.cpp:382] cont_56_lstm1_cont_slice_55_split -> cont_56_lstm1_cont_slice_55_split_1
I0505 16:08:17.300089 32309 net.cpp:124] Setting up cont_56_lstm1_cont_slice_55_split
I0505 16:08:17.300092 32309 net.cpp:131] Top shape: 1 512 (512)
I0505 16:08:17.300096 32309 net.cpp:131] Top shape: 1 512 (512)
I0505 16:08:17.300097 32309 net.cpp:139] Memory required for data: 15712256
I0505 16:08:17.300101 32309 layer_factory.hpp:77] Creating layer cont_57_lstm1_cont_slice_56_split
I0505 16:08:17.300103 32309 net.cpp:86] Creating Layer cont_57_lstm1_cont_slice_56_split
I0505 16:08:17.300107 32309 net.cpp:408] cont_57_lstm1_cont_slice_56_split <- cont_57
I0505 16:08:17.300110 32309 net.cpp:382] cont_57_lstm1_cont_slice_56_split -> cont_57_lstm1_cont_slice_56_split_0
I0505 16:08:17.300114 32309 net.cpp:382] cont_57_lstm1_cont_slice_56_split -> cont_57_lstm1_cont_slice_56_split_1
I0505 16:08:17.300133 32309 net.cpp:124] Setting up cont_57_lstm1_cont_slice_56_split
I0505 16:08:17.300137 32309 net.cpp:131] Top shape: 1 512 (512)
I0505 16:08:17.300139 32309 net.cpp:131] Top shape: 1 512 (512)
I0505 16:08:17.300141 32309 net.cpp:139] Memory required for data: 15716352
I0505 16:08:17.300144 32309 layer_factory.hpp:77] Creating layer cont_58_lstm1_cont_slice_57_split
I0505 16:08:17.300148 32309 net.cpp:86] Creating Layer cont_58_lstm1_cont_slice_57_split
I0505 16:08:17.300150 32309 net.cpp:408] cont_58_lstm1_cont_slice_57_split <- cont_58
I0505 16:08:17.300154 32309 net.cpp:382] cont_58_lstm1_cont_slice_57_split -> cont_58_lstm1_cont_slice_57_split_0
I0505 16:08:17.300158 32309 net.cpp:382] cont_58_lstm1_cont_slice_57_split -> cont_58_lstm1_cont_slice_57_split_1
I0505 16:08:17.300177 32309 net.cpp:124] Setting up cont_58_lstm1_cont_slice_57_split
I0505 16:08:17.300180 32309 net.cpp:131] Top shape: 1 512 (512)
I0505 16:08:17.300184 32309 net.cpp:131] Top shape: 1 512 (512)
I0505 16:08:17.300185 32309 net.cpp:139] Memory required for data: 15720448
I0505 16:08:17.300189 32309 layer_factory.hpp:77] Creating layer cont_59_lstm1_cont_slice_58_split
I0505 16:08:17.300191 32309 net.cpp:86] Creating Layer cont_59_lstm1_cont_slice_58_split
I0505 16:08:17.300194 32309 net.cpp:408] cont_59_lstm1_cont_slice_58_split <- cont_59
I0505 16:08:17.300199 32309 net.cpp:382] cont_59_lstm1_cont_slice_58_split -> cont_59_lstm1_cont_slice_58_split_0
I0505 16:08:17.300202 32309 net.cpp:382] cont_59_lstm1_cont_slice_58_split -> cont_59_lstm1_cont_slice_58_split_1
I0505 16:08:17.300221 32309 net.cpp:124] Setting up cont_59_lstm1_cont_slice_58_split
I0505 16:08:17.300225 32309 net.cpp:131] Top shape: 1 512 (512)
I0505 16:08:17.300227 32309 net.cpp:131] Top shape: 1 512 (512)
I0505 16:08:17.300230 32309 net.cpp:139] Memory required for data: 15724544
I0505 16:08:17.300232 32309 layer_factory.hpp:77] Creating layer cont_60_lstm1_cont_slice_59_split
I0505 16:08:17.300235 32309 net.cpp:86] Creating Layer cont_60_lstm1_cont_slice_59_split
I0505 16:08:17.300238 32309 net.cpp:408] cont_60_lstm1_cont_slice_59_split <- cont_60
I0505 16:08:17.300242 32309 net.cpp:382] cont_60_lstm1_cont_slice_59_split -> cont_60_lstm1_cont_slice_59_split_0
I0505 16:08:17.300246 32309 net.cpp:382] cont_60_lstm1_cont_slice_59_split -> cont_60_lstm1_cont_slice_59_split_1
I0505 16:08:17.300273 32309 net.cpp:124] Setting up cont_60_lstm1_cont_slice_59_split
I0505 16:08:17.300276 32309 net.cpp:131] Top shape: 1 512 (512)
I0505 16:08:17.300279 32309 net.cpp:131] Top shape: 1 512 (512)
I0505 16:08:17.300282 32309 net.cpp:139] Memory required for data: 15728640
I0505 16:08:17.300285 32309 layer_factory.hpp:77] Creating layer cont_61_lstm1_cont_slice_60_split
I0505 16:08:17.300289 32309 net.cpp:86] Creating Layer cont_61_lstm1_cont_slice_60_split
I0505 16:08:17.300292 32309 net.cpp:408] cont_61_lstm1_cont_slice_60_split <- cont_61
I0505 16:08:17.300297 32309 net.cpp:382] cont_61_lstm1_cont_slice_60_split -> cont_61_lstm1_cont_slice_60_split_0
I0505 16:08:17.300300 32309 net.cpp:382] cont_61_lstm1_cont_slice_60_split -> cont_61_lstm1_cont_slice_60_split_1
I0505 16:08:17.300323 32309 net.cpp:124] Setting up cont_61_lstm1_cont_slice_60_split
I0505 16:08:17.300326 32309 net.cpp:131] Top shape: 1 512 (512)
I0505 16:08:17.300330 32309 net.cpp:131] Top shape: 1 512 (512)
I0505 16:08:17.300333 32309 net.cpp:139] Memory required for data: 15732736
I0505 16:08:17.300336 32309 layer_factory.hpp:77] Creating layer cont_62_lstm1_cont_slice_61_split
I0505 16:08:17.300343 32309 net.cpp:86] Creating Layer cont_62_lstm1_cont_slice_61_split
I0505 16:08:17.300345 32309 net.cpp:408] cont_62_lstm1_cont_slice_61_split <- cont_62
I0505 16:08:17.300351 32309 net.cpp:382] cont_62_lstm1_cont_slice_61_split -> cont_62_lstm1_cont_slice_61_split_0
I0505 16:08:17.300359 32309 net.cpp:382] cont_62_lstm1_cont_slice_61_split -> cont_62_lstm1_cont_slice_61_split_1
I0505 16:08:17.300384 32309 net.cpp:124] Setting up cont_62_lstm1_cont_slice_61_split
I0505 16:08:17.300390 32309 net.cpp:131] Top shape: 1 512 (512)
I0505 16:08:17.300392 32309 net.cpp:131] Top shape: 1 512 (512)
I0505 16:08:17.300396 32309 net.cpp:139] Memory required for data: 15736832
I0505 16:08:17.300400 32309 layer_factory.hpp:77] Creating layer cont_63_lstm1_cont_slice_62_split
I0505 16:08:17.300405 32309 net.cpp:86] Creating Layer cont_63_lstm1_cont_slice_62_split
I0505 16:08:17.300408 32309 net.cpp:408] cont_63_lstm1_cont_slice_62_split <- cont_63
I0505 16:08:17.300413 32309 net.cpp:382] cont_63_lstm1_cont_slice_62_split -> cont_63_lstm1_cont_slice_62_split_0
I0505 16:08:17.300420 32309 net.cpp:382] cont_63_lstm1_cont_slice_62_split -> cont_63_lstm1_cont_slice_62_split_1
I0505 16:08:17.300447 32309 net.cpp:124] Setting up cont_63_lstm1_cont_slice_62_split
I0505 16:08:17.300451 32309 net.cpp:131] Top shape: 1 512 (512)
I0505 16:08:17.300456 32309 net.cpp:131] Top shape: 1 512 (512)
I0505 16:08:17.300458 32309 net.cpp:139] Memory required for data: 15740928
I0505 16:08:17.300462 32309 layer_factory.hpp:77] Creating layer cont_64_lstm1_cont_slice_63_split
I0505 16:08:17.300467 32309 net.cpp:86] Creating Layer cont_64_lstm1_cont_slice_63_split
I0505 16:08:17.300470 32309 net.cpp:408] cont_64_lstm1_cont_slice_63_split <- cont_64
I0505 16:08:17.300475 32309 net.cpp:382] cont_64_lstm1_cont_slice_63_split -> cont_64_lstm1_cont_slice_63_split_0
I0505 16:08:17.300480 32309 net.cpp:382] cont_64_lstm1_cont_slice_63_split -> cont_64_lstm1_cont_slice_63_split_1
I0505 16:08:17.300511 32309 net.cpp:124] Setting up cont_64_lstm1_cont_slice_63_split
I0505 16:08:17.300515 32309 net.cpp:131] Top shape: 1 512 (512)
I0505 16:08:17.300520 32309 net.cpp:131] Top shape: 1 512 (512)
I0505 16:08:17.300524 32309 net.cpp:139] Memory required for data: 15745024
I0505 16:08:17.300527 32309 layer_factory.hpp:77] Creating layer cont_65_lstm1_cont_slice_64_split
I0505 16:08:17.300532 32309 net.cpp:86] Creating Layer cont_65_lstm1_cont_slice_64_split
I0505 16:08:17.300541 32309 net.cpp:408] cont_65_lstm1_cont_slice_64_split <- cont_65
I0505 16:08:17.300546 32309 net.cpp:382] cont_65_lstm1_cont_slice_64_split -> cont_65_lstm1_cont_slice_64_split_0
I0505 16:08:17.300552 32309 net.cpp:382] cont_65_lstm1_cont_slice_64_split -> cont_65_lstm1_cont_slice_64_split_1
I0505 16:08:17.300578 32309 net.cpp:124] Setting up cont_65_lstm1_cont_slice_64_split
I0505 16:08:17.300582 32309 net.cpp:131] Top shape: 1 512 (512)
I0505 16:08:17.300599 32309 net.cpp:131] Top shape: 1 512 (512)
I0505 16:08:17.300603 32309 net.cpp:139] Memory required for data: 15749120
I0505 16:08:17.300607 32309 layer_factory.hpp:77] Creating layer cont_66_lstm1_cont_slice_65_split
I0505 16:08:17.300613 32309 net.cpp:86] Creating Layer cont_66_lstm1_cont_slice_65_split
I0505 16:08:17.300618 32309 net.cpp:408] cont_66_lstm1_cont_slice_65_split <- cont_66
I0505 16:08:17.300624 32309 net.cpp:382] cont_66_lstm1_cont_slice_65_split -> cont_66_lstm1_cont_slice_65_split_0
I0505 16:08:17.300632 32309 net.cpp:382] cont_66_lstm1_cont_slice_65_split -> cont_66_lstm1_cont_slice_65_split_1
I0505 16:08:17.300665 32309 net.cpp:124] Setting up cont_66_lstm1_cont_slice_65_split
I0505 16:08:17.300670 32309 net.cpp:131] Top shape: 1 512 (512)
I0505 16:08:17.300674 32309 net.cpp:131] Top shape: 1 512 (512)
I0505 16:08:17.300678 32309 net.cpp:139] Memory required for data: 15753216
I0505 16:08:17.300681 32309 layer_factory.hpp:77] Creating layer cont_67_lstm1_cont_slice_66_split
I0505 16:08:17.300688 32309 net.cpp:86] Creating Layer cont_67_lstm1_cont_slice_66_split
I0505 16:08:17.300691 32309 net.cpp:408] cont_67_lstm1_cont_slice_66_split <- cont_67
I0505 16:08:17.300698 32309 net.cpp:382] cont_67_lstm1_cont_slice_66_split -> cont_67_lstm1_cont_slice_66_split_0
I0505 16:08:17.300704 32309 net.cpp:382] cont_67_lstm1_cont_slice_66_split -> cont_67_lstm1_cont_slice_66_split_1
I0505 16:08:17.300738 32309 net.cpp:124] Setting up cont_67_lstm1_cont_slice_66_split
I0505 16:08:17.300743 32309 net.cpp:131] Top shape: 1 512 (512)
I0505 16:08:17.300748 32309 net.cpp:131] Top shape: 1 512 (512)
I0505 16:08:17.300751 32309 net.cpp:139] Memory required for data: 15757312
I0505 16:08:17.300755 32309 layer_factory.hpp:77] Creating layer cont_68_lstm1_cont_slice_67_split
I0505 16:08:17.300760 32309 net.cpp:86] Creating Layer cont_68_lstm1_cont_slice_67_split
I0505 16:08:17.300765 32309 net.cpp:408] cont_68_lstm1_cont_slice_67_split <- cont_68
I0505 16:08:17.300772 32309 net.cpp:382] cont_68_lstm1_cont_slice_67_split -> cont_68_lstm1_cont_slice_67_split_0
I0505 16:08:17.300778 32309 net.cpp:382] cont_68_lstm1_cont_slice_67_split -> cont_68_lstm1_cont_slice_67_split_1
I0505 16:08:17.300812 32309 net.cpp:124] Setting up cont_68_lstm1_cont_slice_67_split
I0505 16:08:17.300817 32309 net.cpp:131] Top shape: 1 512 (512)
I0505 16:08:17.300822 32309 net.cpp:131] Top shape: 1 512 (512)
I0505 16:08:17.300824 32309 net.cpp:139] Memory required for data: 15761408
I0505 16:08:17.300828 32309 layer_factory.hpp:77] Creating layer cont_69_lstm1_cont_slice_68_split
I0505 16:08:17.300834 32309 net.cpp:86] Creating Layer cont_69_lstm1_cont_slice_68_split
I0505 16:08:17.300839 32309 net.cpp:408] cont_69_lstm1_cont_slice_68_split <- cont_69
I0505 16:08:17.300845 32309 net.cpp:382] cont_69_lstm1_cont_slice_68_split -> cont_69_lstm1_cont_slice_68_split_0
I0505 16:08:17.300850 32309 net.cpp:382] cont_69_lstm1_cont_slice_68_split -> cont_69_lstm1_cont_slice_68_split_1
I0505 16:08:17.300881 32309 net.cpp:124] Setting up cont_69_lstm1_cont_slice_68_split
I0505 16:08:17.300886 32309 net.cpp:131] Top shape: 1 512 (512)
I0505 16:08:17.300889 32309 net.cpp:131] Top shape: 1 512 (512)
I0505 16:08:17.300892 32309 net.cpp:139] Memory required for data: 15765504
I0505 16:08:17.300895 32309 layer_factory.hpp:77] Creating layer cont_70_lstm1_cont_slice_69_split
I0505 16:08:17.300901 32309 net.cpp:86] Creating Layer cont_70_lstm1_cont_slice_69_split
I0505 16:08:17.300905 32309 net.cpp:408] cont_70_lstm1_cont_slice_69_split <- cont_70
I0505 16:08:17.300911 32309 net.cpp:382] cont_70_lstm1_cont_slice_69_split -> cont_70_lstm1_cont_slice_69_split_0
I0505 16:08:17.300916 32309 net.cpp:382] cont_70_lstm1_cont_slice_69_split -> cont_70_lstm1_cont_slice_69_split_1
I0505 16:08:17.300943 32309 net.cpp:124] Setting up cont_70_lstm1_cont_slice_69_split
I0505 16:08:17.300948 32309 net.cpp:131] Top shape: 1 512 (512)
I0505 16:08:17.300953 32309 net.cpp:131] Top shape: 1 512 (512)
I0505 16:08:17.300956 32309 net.cpp:139] Memory required for data: 15769600
I0505 16:08:17.300969 32309 layer_factory.hpp:77] Creating layer cont_71_lstm1_cont_slice_70_split
I0505 16:08:17.300976 32309 net.cpp:86] Creating Layer cont_71_lstm1_cont_slice_70_split
I0505 16:08:17.300979 32309 net.cpp:408] cont_71_lstm1_cont_slice_70_split <- cont_71
I0505 16:08:17.300985 32309 net.cpp:382] cont_71_lstm1_cont_slice_70_split -> cont_71_lstm1_cont_slice_70_split_0
I0505 16:08:17.300992 32309 net.cpp:382] cont_71_lstm1_cont_slice_70_split -> cont_71_lstm1_cont_slice_70_split_1
I0505 16:08:17.311183 32309 net.cpp:124] Setting up cont_71_lstm1_cont_slice_70_split
I0505 16:08:17.311201 32309 net.cpp:131] Top shape: 1 512 (512)
I0505 16:08:17.311208 32309 net.cpp:131] Top shape: 1 512 (512)
I0505 16:08:17.311210 32309 net.cpp:139] Memory required for data: 15773696
I0505 16:08:17.311213 32309 layer_factory.hpp:77] Creating layer cont_72_lstm1_cont_slice_71_split
I0505 16:08:17.311224 32309 net.cpp:86] Creating Layer cont_72_lstm1_cont_slice_71_split
I0505 16:08:17.311228 32309 net.cpp:408] cont_72_lstm1_cont_slice_71_split <- cont_72
I0505 16:08:17.311235 32309 net.cpp:382] cont_72_lstm1_cont_slice_71_split -> cont_72_lstm1_cont_slice_71_split_0
I0505 16:08:17.311240 32309 net.cpp:382] cont_72_lstm1_cont_slice_71_split -> cont_72_lstm1_cont_slice_71_split_1
I0505 16:08:17.311262 32309 net.cpp:124] Setting up cont_72_lstm1_cont_slice_71_split
I0505 16:08:17.311264 32309 net.cpp:131] Top shape: 1 512 (512)
I0505 16:08:17.311267 32309 net.cpp:131] Top shape: 1 512 (512)
I0505 16:08:17.311270 32309 net.cpp:139] Memory required for data: 15777792
I0505 16:08:17.311272 32309 layer_factory.hpp:77] Creating layer cont_73_lstm1_cont_slice_72_split
I0505 16:08:17.311276 32309 net.cpp:86] Creating Layer cont_73_lstm1_cont_slice_72_split
I0505 16:08:17.311280 32309 net.cpp:408] cont_73_lstm1_cont_slice_72_split <- cont_73
I0505 16:08:17.311300 32309 net.cpp:382] cont_73_lstm1_cont_slice_72_split -> cont_73_lstm1_cont_slice_72_split_0
I0505 16:08:17.311306 32309 net.cpp:382] cont_73_lstm1_cont_slice_72_split -> cont_73_lstm1_cont_slice_72_split_1
I0505 16:08:17.311328 32309 net.cpp:124] Setting up cont_73_lstm1_cont_slice_72_split
I0505 16:08:17.311331 32309 net.cpp:131] Top shape: 1 512 (512)
I0505 16:08:17.311334 32309 net.cpp:131] Top shape: 1 512 (512)
I0505 16:08:17.311337 32309 net.cpp:139] Memory required for data: 15781888
I0505 16:08:17.311339 32309 layer_factory.hpp:77] Creating layer cont_74_lstm1_cont_slice_73_split
I0505 16:08:17.311343 32309 net.cpp:86] Creating Layer cont_74_lstm1_cont_slice_73_split
I0505 16:08:17.311347 32309 net.cpp:408] cont_74_lstm1_cont_slice_73_split <- cont_74
I0505 16:08:17.311350 32309 net.cpp:382] cont_74_lstm1_cont_slice_73_split -> cont_74_lstm1_cont_slice_73_split_0
I0505 16:08:17.311354 32309 net.cpp:382] cont_74_lstm1_cont_slice_73_split -> cont_74_lstm1_cont_slice_73_split_1
I0505 16:08:17.311374 32309 net.cpp:124] Setting up cont_74_lstm1_cont_slice_73_split
I0505 16:08:17.311378 32309 net.cpp:131] Top shape: 1 512 (512)
I0505 16:08:17.311380 32309 net.cpp:131] Top shape: 1 512 (512)
I0505 16:08:17.311383 32309 net.cpp:139] Memory required for data: 15785984
I0505 16:08:17.311385 32309 layer_factory.hpp:77] Creating layer cont_75_lstm1_cont_slice_74_split
I0505 16:08:17.311389 32309 net.cpp:86] Creating Layer cont_75_lstm1_cont_slice_74_split
I0505 16:08:17.311391 32309 net.cpp:408] cont_75_lstm1_cont_slice_74_split <- cont_75
I0505 16:08:17.311395 32309 net.cpp:382] cont_75_lstm1_cont_slice_74_split -> cont_75_lstm1_cont_slice_74_split_0
I0505 16:08:17.311399 32309 net.cpp:382] cont_75_lstm1_cont_slice_74_split -> cont_75_lstm1_cont_slice_74_split_1
I0505 16:08:17.311419 32309 net.cpp:124] Setting up cont_75_lstm1_cont_slice_74_split
I0505 16:08:17.311421 32309 net.cpp:131] Top shape: 1 512 (512)
I0505 16:08:17.311424 32309 net.cpp:131] Top shape: 1 512 (512)
I0505 16:08:17.311427 32309 net.cpp:139] Memory required for data: 15790080
I0505 16:08:17.311429 32309 layer_factory.hpp:77] Creating layer cont_76_lstm1_cont_slice_75_split
I0505 16:08:17.311451 32309 net.cpp:86] Creating Layer cont_76_lstm1_cont_slice_75_split
I0505 16:08:17.311455 32309 net.cpp:408] cont_76_lstm1_cont_slice_75_split <- cont_76
I0505 16:08:17.311458 32309 net.cpp:382] cont_76_lstm1_cont_slice_75_split -> cont_76_lstm1_cont_slice_75_split_0
I0505 16:08:17.311462 32309 net.cpp:382] cont_76_lstm1_cont_slice_75_split -> cont_76_lstm1_cont_slice_75_split_1
I0505 16:08:17.311484 32309 net.cpp:124] Setting up cont_76_lstm1_cont_slice_75_split
I0505 16:08:17.311488 32309 net.cpp:131] Top shape: 1 512 (512)
I0505 16:08:17.311491 32309 net.cpp:131] Top shape: 1 512 (512)
I0505 16:08:17.311494 32309 net.cpp:139] Memory required for data: 15794176
I0505 16:08:17.311496 32309 layer_factory.hpp:77] Creating layer cont_77_lstm1_cont_slice_76_split
I0505 16:08:17.311501 32309 net.cpp:86] Creating Layer cont_77_lstm1_cont_slice_76_split
I0505 16:08:17.311503 32309 net.cpp:408] cont_77_lstm1_cont_slice_76_split <- cont_77
I0505 16:08:17.311506 32309 net.cpp:382] cont_77_lstm1_cont_slice_76_split -> cont_77_lstm1_cont_slice_76_split_0
I0505 16:08:17.311511 32309 net.cpp:382] cont_77_lstm1_cont_slice_76_split -> cont_77_lstm1_cont_slice_76_split_1
I0505 16:08:17.311532 32309 net.cpp:124] Setting up cont_77_lstm1_cont_slice_76_split
I0505 16:08:17.311534 32309 net.cpp:131] Top shape: 1 512 (512)
I0505 16:08:17.311537 32309 net.cpp:131] Top shape: 1 512 (512)
I0505 16:08:17.311540 32309 net.cpp:139] Memory required for data: 15798272
I0505 16:08:17.311542 32309 layer_factory.hpp:77] Creating layer cont_78_lstm1_cont_slice_77_split
I0505 16:08:17.311547 32309 net.cpp:86] Creating Layer cont_78_lstm1_cont_slice_77_split
I0505 16:08:17.311549 32309 net.cpp:408] cont_78_lstm1_cont_slice_77_split <- cont_78
I0505 16:08:17.311553 32309 net.cpp:382] cont_78_lstm1_cont_slice_77_split -> cont_78_lstm1_cont_slice_77_split_0
I0505 16:08:17.311558 32309 net.cpp:382] cont_78_lstm1_cont_slice_77_split -> cont_78_lstm1_cont_slice_77_split_1
I0505 16:08:17.311576 32309 net.cpp:124] Setting up cont_78_lstm1_cont_slice_77_split
I0505 16:08:17.311579 32309 net.cpp:131] Top shape: 1 512 (512)
I0505 16:08:17.311583 32309 net.cpp:131] Top shape: 1 512 (512)
I0505 16:08:17.311585 32309 net.cpp:139] Memory required for data: 15802368
I0505 16:08:17.311587 32309 layer_factory.hpp:77] Creating layer cont_79_lstm1_cont_slice_78_split
I0505 16:08:17.311591 32309 net.cpp:86] Creating Layer cont_79_lstm1_cont_slice_78_split
I0505 16:08:17.311594 32309 net.cpp:408] cont_79_lstm1_cont_slice_78_split <- cont_79
I0505 16:08:17.311599 32309 net.cpp:382] cont_79_lstm1_cont_slice_78_split -> cont_79_lstm1_cont_slice_78_split_0
I0505 16:08:17.311602 32309 net.cpp:382] cont_79_lstm1_cont_slice_78_split -> cont_79_lstm1_cont_slice_78_split_1
I0505 16:08:17.311621 32309 net.cpp:124] Setting up cont_79_lstm1_cont_slice_78_split
I0505 16:08:17.311625 32309 net.cpp:131] Top shape: 1 512 (512)
I0505 16:08:17.311627 32309 net.cpp:131] Top shape: 1 512 (512)
I0505 16:08:17.311630 32309 net.cpp:139] Memory required for data: 15806464
I0505 16:08:17.311632 32309 layer_factory.hpp:77] Creating layer cont_80_lstm1_cont_slice_79_split
I0505 16:08:17.311636 32309 net.cpp:86] Creating Layer cont_80_lstm1_cont_slice_79_split
I0505 16:08:17.311640 32309 net.cpp:408] cont_80_lstm1_cont_slice_79_split <- cont_80
I0505 16:08:17.311643 32309 net.cpp:382] cont_80_lstm1_cont_slice_79_split -> cont_80_lstm1_cont_slice_79_split_0
I0505 16:08:17.311647 32309 net.cpp:382] cont_80_lstm1_cont_slice_79_split -> cont_80_lstm1_cont_slice_79_split_1
I0505 16:08:17.311666 32309 net.cpp:124] Setting up cont_80_lstm1_cont_slice_79_split
I0505 16:08:17.311669 32309 net.cpp:131] Top shape: 1 512 (512)
I0505 16:08:17.311672 32309 net.cpp:131] Top shape: 1 512 (512)
I0505 16:08:17.311676 32309 net.cpp:139] Memory required for data: 15810560
I0505 16:08:17.311677 32309 layer_factory.hpp:77] Creating layer lstm1_x_transform
I0505 16:08:17.311686 32309 net.cpp:86] Creating Layer lstm1_x_transform
I0505 16:08:17.311688 32309 net.cpp:408] lstm1_x_transform <- x
I0505 16:08:17.311693 32309 net.cpp:382] lstm1_x_transform -> W_xc_x
I0505 16:08:17.315515 32309 net.cpp:124] Setting up lstm1_x_transform
I0505 16:08:17.315538 32309 net.cpp:131] Top shape: 80 512 400 (16384000)
I0505 16:08:17.315548 32309 net.cpp:139] Memory required for data: 81346560
I0505 16:08:17.315570 32309 layer_factory.hpp:77] Creating layer lstm1_W_xc_x_slice
I0505 16:08:17.315590 32309 net.cpp:86] Creating Layer lstm1_W_xc_x_slice
I0505 16:08:17.321656 32309 net.cpp:408] lstm1_W_xc_x_slice <- W_xc_x
I0505 16:08:17.321688 32309 net.cpp:382] lstm1_W_xc_x_slice -> W_xc_x_1
I0505 16:08:17.321704 32309 net.cpp:382] lstm1_W_xc_x_slice -> W_xc_x_2
…
I0505 16:08:17.322324 32309 net.cpp:382] lstm1_W_xc_x_slice -> W_xc_x_74
I0505 16:08:17.322331 32309 net.cpp:382] lstm1_W_xc_x_slice -> W_xc_x_75
I0505 16:08:17.322340 32309 net.cpp:382] lstm1_W_xc_x_slice -> W_xc_x_76
I0505 16:08:17.322352 32309 net.cpp:382] lstm1_W_xc_x_slice -> W_xc_x_77
I0505 16:08:17.322363 32309 net.cpp:382] lstm1_W_xc_x_slice -> W_xc_x_78
I0505 16:08:17.322374 32309 net.cpp:382] lstm1_W_xc_x_slice -> W_xc_x_79
I0505 16:08:17.322386 32309 net.cpp:382] lstm1_W_xc_x_slice -> W_xc_x_80
I0505 16:08:17.323395 32309 net.cpp:124] Setting up lstm1_W_xc_x_slice
I0505 16:08:17.323405 32309 net.cpp:131] Top shape: 1 512 400 (204800)
I0505 16:08:17.323413 32309 net.cpp:131] Top shape: 1 512 400 (204800)
I0505 16:08:17.323418 32309 net.cpp:131] Top shape: 1 512 400 (204800)
I0505 16:08:17.323423 32309 net.cpp:131] Top shape: 1 512 400 (204800)
I0505 16:08:17.323428 32309 net.cpp:131] Top shape: 1 512 400 (204800)
I0505 16:08:17.323432 32309 net.cpp:131] Top shape: 1 512 400 (204800)
I0505 16:08:17.323437 32309 net.cpp:131] Top shape: 1 512 400 (204800)
I0505 16:08:17.323442 32309 net.cpp:131] Top shape: 1 512 400 (204800)
I0505 16:08:17.323447 32309 net.cpp:131] Top shape: 1 512 400 (204800)
I0505 16:08:17.323451 32309 net.cpp:131] Top shape: 1 512 400 (204800)
I0505 16:08:17.323455 32309 net.cpp:131] Top shape: 1 512 400 (204800)
I0505 16:08:17.323460 32309 net.cpp:131] Top shape: 1 512 400 (204800)
I0505 16:08:17.323465 32309 net.cpp:131] Top shape: 1 512 400 (204800)
I0505 16:08:17.323472 32309 net.cpp:131] Top shape: 1 512 400 (204800)
I0505 16:08:17.323475 32309 net.cpp:131] Top shape: 1 512 400 (204800)
I0505 16:08:17.323478 32309 net.cpp:131] Top shape: 1 512 400 (204800)
I0505 16:08:17.323482 32309 net.cpp:131] Top shape: 1 512 400 (204800)
I0505 16:08:17.323487 32309 net.cpp:131] Top shape: 1 512 400 (204800)
I0505 16:08:17.323493 32309 net.cpp:131] Top shape: 1 512 400 (204800)
I0505 16:08:17.323498 32309 net.cpp:131] Top shape: 1 512 400 (204800)
I0505 16:08:17.323503 32309 net.cpp:131] Top shape: 1 512 400 (204800)
I0505 16:08:17.323508 32309 net.cpp:131] Top shape: 1 512 400 (204800)
I0505 16:08:17.323513 32309 net.cpp:131] Top shape: 1 512 400 (204800)
I0505 16:08:17.323518 32309 net.cpp:131] Top shape: 1 512 400 (204800)
I0505 16:08:17.323523 32309 net.cpp:131] Top shape: 1 512 400 (204800)
I0505 16:08:17.323527 32309 net.cpp:131] Top shape: 1 512 400 (204800)
I0505 16:08:17.323549 32309 net.cpp:131] Top shape: 1 512 400 (204800)
I0505 16:08:17.323555 32309 net.cpp:131] Top shape: 1 512 400 (204800)
I0505 16:08:17.323561 32309 net.cpp:131] Top shape: 1 512 400 (204800)
I0505 16:08:17.323566 32309 net.cpp:131] Top shape: 1 512 400 (204800)
I0505 16:08:17.331919 32309 net.cpp:131] Top shape: 1 512 400 (204800)
I0505 16:08:17.331964 32309 net.cpp:131] Top shape: 1 512 400 (204800)
I0505 16:08:17.331971 32309 net.cpp:131] Top shape: 1 512 400 (204800)
I0505 16:08:17.331979 32309 net.cpp:131] Top shape: 1 512 400 (204800)
I0505 16:08:17.331986 32309 net.cpp:131] Top shape: 1 512 400 (204800)
I0505 16:08:17.331995 32309 net.cpp:131] Top shape: 1 512 400 (204800)
I0505 16:08:17.332002 32309 net.cpp:131] Top shape: 1 512 400 (204800)
I0505 16:08:17.332010 32309 net.cpp:131] Top shape: 1 512 400 (204800)
I0505 16:08:17.332017 32309 net.cpp:131] Top shape: 1 512 400 (204800)
I0505 16:08:17.332026 32309 net.cpp:131] Top shape: 1 512 400 (204800)
I0505 16:08:17.332033 32309 net.cpp:131] Top shape: 1 512 400 (204800)
I0505 16:08:17.332041 32309 net.cpp:131] Top shape: 1 512 400 (204800)
I0505 16:08:17.332048 32309 net.cpp:131] Top shape: 1 512 400 (204800)
I0505 16:08:17.332056 32309 net.cpp:131] Top shape: 1 512 400 (204800)
I0505 16:08:17.332064 32309 net.cpp:131] Top shape: 1 512 400 (204800)
I0505 16:08:17.332072 32309 net.cpp:131] Top shape: 1 512 400 (204800)
I0505 16:08:17.332078 32309 net.cpp:131] Top shape: 1 512 400 (204800)
I0505 16:08:17.332087 32309 net.cpp:131] Top shape: 1 512 400 (204800)
I0505 16:08:17.332093 32309 net.cpp:131] Top shape: 1 512 400 (204800)
I0505 16:08:17.332100 32309 net.cpp:131] Top shape: 1 512 400 (204800)
I0505 16:08:17.332108 32309 net.cpp:131] Top shape: 1 512 400 (204800)
I0505 16:08:17.332115 32309 net.cpp:131] Top shape: 1 512 400 (204800)
I0505 16:08:17.332123 32309 net.cpp:131] Top shape: 1 512 400 (204800)
I0505 16:08:17.332130 32309 net.cpp:131] Top shape: 1 512 400 (204800)
I0505 16:08:17.332137 32309 net.cpp:131] Top shape: 1 512 400 (204800)
I0505 16:08:17.332144 32309 net.cpp:131] Top shape: 1 512 400 (204800)
I0505 16:08:17.332151 32309 net.cpp:131] Top shape: 1 512 400 (204800)
I0505 16:08:17.332159 32309 net.cpp:131] Top shape: 1 512 400 (204800)
I0505 16:08:17.332166 32309 net.cpp:131] Top shape: 1 512 400 (204800)
I0505 16:08:17.332173 32309 net.cpp:131] Top shape: 1 512 400 (204800)
I0505 16:08:17.332181 32309 net.cpp:131] Top shape: 1 512 400 (204800)
I0505 16:08:17.332190 32309 net.cpp:131] Top shape: 1 512 400 (204800)
I0505 16:08:17.332197 32309 net.cpp:131] Top shape: 1 512 400 (204800)
I0505 16:08:17.332204 32309 net.cpp:131] Top shape: 1 512 400 (204800)
I0505 16:08:17.332212 32309 net.cpp:131] Top shape: 1 512 400 (204800)
I0505 16:08:17.332219 32309 net.cpp:131] Top shape: 1 512 400 (204800)
I0505 16:08:17.332226 32309 net.cpp:131] Top shape: 1 512 400 (204800)
I0505 16:08:17.332234 32309 net.cpp:131] Top shape: 1 512 400 (204800)
I0505 16:08:17.332242 32309 net.cpp:131] Top shape: 1 512 400 (204800)
I0505 16:08:17.332249 32309 net.cpp:131] Top shape: 1 512 400 (204800)
I0505 16:08:17.332257 32309 net.cpp:131] Top shape: 1 512 400 (204800)
I0505 16:08:17.332264 32309 net.cpp:131] Top shape: 1 512 400 (204800)
I0505 16:08:17.332271 32309 net.cpp:131] Top shape: 1 512 400 (204800)
I0505 16:08:17.332278 32309 net.cpp:131] Top shape: 1 512 400 (204800)
I0505 16:08:17.332286 32309 net.cpp:131] Top shape: 1 512 400 (204800)
I0505 16:08:17.332293 32309 net.cpp:131] Top shape: 1 512 400 (204800)
I0505 16:08:17.332300 32309 net.cpp:131] Top shape: 1 512 400 (204800)
I0505 16:08:17.332309 32309 net.cpp:131] Top shape: 1 512 400 (204800)
I0505 16:08:17.332315 32309 net.cpp:131] Top shape: 1 512 400 (204800)
I0505 16:08:17.332322 32309 net.cpp:131] Top shape: 1 512 400 (204800)
I0505 16:08:17.332330 32309 net.cpp:139] Memory required for data: 146882560
I0505 16:08:17.332340 32309 layer_factory.hpp:77] Creating layer lstm1_h_conted_0
I0505 16:08:17.332363 32309 net.cpp:86] Creating Layer lstm1_h_conted_0
I0505 16:08:17.332406 32309 net.cpp:408] lstm1_h_conted_0 <- h_0
I0505 16:08:17.332423 32309 net.cpp:408] lstm1_h_conted_0 <- cont_1_lstm1_cont_slice_0_split_0
I0505 16:08:17.332437 32309 net.cpp:382] lstm1_h_conted_0 -> h_conted_0
I0505 16:08:17.332630 32309 net.cpp:124] Setting up lstm1_h_conted_0
I0505 16:08:17.332643 32309 net.cpp:131] Top shape: 1 512 100 (51200)
I0505 16:08:17.332654 32309 net.cpp:139] Memory required for data: 147087360
I0505 16:08:17.332660 32309 layer_factory.hpp:77] Creating layer lstm1_transform_1
I0505 16:08:17.332677 32309 net.cpp:86] Creating Layer lstm1_transform_1
I0505 16:08:17.332685 32309 net.cpp:408] lstm1_transform_1 <- h_conted_0
I0505 16:08:17.332696 32309 net.cpp:382] lstm1_transform_1 -> W_hc_h_0
I0505 16:08:17.333205 32309 net.cpp:124] Setting up lstm1_transform_1
I0505 16:08:17.333211 32309 net.cpp:131] Top shape: 1 512 400 (204800)
I0505 16:08:17.333216 32309 net.cpp:139] Memory required for data: 147906560
I0505 16:08:17.333226 32309 layer_factory.hpp:77] Creating layer lstm1_gate_input_1
I0505 16:08:17.333243 32309 net.cpp:86] Creating Layer lstm1_gate_input_1
I0505 16:08:17.333248 32309 net.cpp:408] lstm1_gate_input_1 <- W_hc_h_0
I0505 16:08:17.333254 32309 net.cpp:408] lstm1_gate_input_1 <- W_xc_x_1
I0505 16:08:17.333261 32309 net.cpp:382] lstm1_gate_input_1 -> gate_input_1
I0505 16:08:17.333287 32309 net.cpp:124] Setting up lstm1_gate_input_1
I0505 16:08:17.333292 32309 net.cpp:131] Top shape: 1 512 400 (204800)
I0505 16:08:17.333298 32309 net.cpp:139] Memory required for data: 148725760
I0505 16:08:17.333302 32309 layer_factory.hpp:77] Creating layer lstm1_unit_1
I0505 16:08:17.333309 32309 net.cpp:86] Creating Layer lstm1_unit_1
I0505 16:08:17.333314 32309 net.cpp:408] lstm1_unit_1 <- c_0
I0505 16:08:17.333320 32309 net.cpp:408] lstm1_unit_1 <- gate_input_1
I0505 16:08:17.333326 32309 net.cpp:408] lstm1_unit_1 <- cont_1_lstm1_cont_slice_0_split_1
I0505 16:08:17.333333 32309 net.cpp:382] lstm1_unit_1 -> c_1
I0505 16:08:17.333343 32309 net.cpp:382] lstm1_unit_1 -> h_1
I0505 16:08:17.333392 32309 net.cpp:124] Setting up lstm1_unit_1
I0505 16:08:17.333397 32309 net.cpp:131] Top shape: 1 512 100 (51200)
I0505 16:08:17.333403 32309 net.cpp:131] Top shape: 1 512 100 (51200)
I0505 16:08:17.333408 32309 net.cpp:139] Memory required for data: 149135360
I0505 16:08:17.333413 32309 layer_factory.hpp:77] Creating layer h_1_lstm1_unit_1_1_split
I0505 16:08:17.333420 32309 net.cpp:86] Creating Layer h_1_lstm1_unit_1_1_split
I0505 16:08:17.333425 32309 net.cpp:408] h_1_lstm1_unit_1_1_split <- h_1
I0505 16:08:17.333431 32309 net.cpp:382] h_1_lstm1_unit_1_1_split -> h_1_lstm1_unit_1_1_split_0
I0505 16:08:17.333439 32309 net.cpp:382] h_1_lstm1_unit_1_1_split -> h_1_lstm1_unit_1_1_split_1
I0505 16:08:17.333477 32309 net.cpp:124] Setting up h_1_lstm1_unit_1_1_split
I0505 16:08:17.333482 32309 net.cpp:131] Top shape: 1 512 100 (51200)
I0505 16:08:17.333488 32309 net.cpp:131] Top shape: 1 512 100 (51200)
I0505 16:08:17.333492 32309 net.cpp:139] Memory required for data: 149544960
I0505 16:08:17.333495 32309 layer_factory.hpp:77] Creating layer lstm1_h_conted_1
I0505 16:08:17.333504 32309 net.cpp:86] Creating Layer lstm1_h_conted_1
I0505 16:08:17.333509 32309 net.cpp:408] lstm1_h_conted_1 <- h_1_lstm1_unit_1_1_split_0
I0505 16:08:17.333516 32309 net.cpp:408] lstm1_h_conted_1 <- cont_2_lstm1_cont_slice_1_split_0
I0505 16:08:17.333525 32309 net.cpp:382] lstm1_h_conted_1 -> h_conted_1
I0505 16:08:17.333591 32309 net.cpp:124] Setting up lstm1_h_conted_1
I0505 16:08:17.333598 32309 net.cpp:131] Top shape: 1 512 100 (51200)
I0505 16:08:17.333606 32309 net.cpp:139] Memory required for data: 149749760
I0505 16:08:17.333609 32309 layer_factory.hpp:77] Creating layer lstm1_transform_2
I0505 16:08:17.333616 32309 net.cpp:86] Creating Layer lstm1_transform_2
I0505 16:08:17.333621 32309 net.cpp:408] lstm1_transform_2 <- h_conted_1
I0505 16:08:17.333627 32309 net.cpp:382] lstm1_transform_2 -> W_hc_h_1
I0505 16:08:17.333997 32309 net.cpp:124] Setting up lstm1_transform_2
I0505 16:08:17.334003 32309 net.cpp:131] Top shape: 1 512 400 (204800)
I0505 16:08:17.334024 32309 net.cpp:139] Memory required for data: 150568960
I0505 16:08:17.334033 32309 net.cpp:467] Sharing parameters 'W_hc' owned by layer 'lstm1_transform_1', param index 0
I0505 16:08:17.334038 32309 layer_factory.hpp:77] Creating layer lstm1_gate_input_2
I0505 16:08:17.337357 32309 net.cpp:86] Creating Layer lstm1_gate_input_2
I0505 16:08:17.337375 32309 net.cpp:408] lstm1_gate_input_2 <- W_hc_h_1
I0505 16:08:17.337384 32309 net.cpp:408] lstm1_gate_input_2 <- W_xc_x_2
I0505 16:08:17.337393 32309 net.cpp:382] lstm1_gate_input_2 -> gate_input_2
I0505 16:08:17.337460 32309 net.cpp:124] Setting up lstm1_gate_input_2
I0505 16:08:17.337465 32309 net.cpp:131] Top shape: 1 512 400 (204800)
I0505 16:08:17.337471 32309 net.cpp:139] Memory required for data: 151388160
I0505 16:08:17.337476 32309 layer_factory.hpp:77] Creating layer lstm1_unit_2
I0505 16:08:17.337483 32309 net.cpp:86] Creating Layer lstm1_unit_2
I0505 16:08:17.337488 32309 net.cpp:408] lstm1_unit_2 <- c_1
I0505 16:08:17.337493 32309 net.cpp:408] lstm1_unit_2 <- gate_input_2
I0505 16:08:17.337499 32309 net.cpp:408] lstm1_unit_2 <- cont_2_lstm1_cont_slice_1_split_1
I0505 16:08:17.337507 32309 net.cpp:382] lstm1_unit_2 -> c_2
I0505 16:08:17.337513 32309 net.cpp:382] lstm1_unit_2 -> h_2
I0505 16:08:17.337554 32309 net.cpp:124] Setting up lstm1_unit_2
I0505 16:08:17.337558 32309 net.cpp:131] Top shape: 1 512 100 (51200)
I0505 16:08:17.337563 32309 net.cpp:131] Top shape: 1 512 100 (51200)
I0505 16:08:17.337566 32309 net.cpp:139] Memory required for data: 151797760
I0505 16:08:17.337569 32309 layer_factory.hpp:77] Creating layer h_2_lstm1_unit_2_1_split
I0505 16:08:17.337575 32309 net.cpp:86] Creating Layer h_2_lstm1_unit_2_1_split
I0505 16:08:17.337579 32309 net.cpp:408] h_2_lstm1_unit_2_1_split <- h_2
I0505 16:08:17.337584 32309 net.cpp:382] h_2_lstm1_unit_2_1_split -> h_2_lstm1_unit_2_1_split_0
I0505 16:08:17.337590 32309 net.cpp:382] h_2_lstm1_unit_2_1_split -> h_2_lstm1_unit_2_1_split_1
I0505 16:08:17.337617 32309 net.cpp:124] Setting up h_2_lstm1_unit_2_1_split
I0505 16:08:17.337620 32309 net.cpp:131] Top shape: 1 512 100 (51200)
I0505 16:08:17.337625 32309 net.cpp:131] Top shape: 1 512 100 (51200)
I0505 16:08:17.337628 32309 net.cpp:139] Memory required for data: 152207360
I0505 16:08:17.337632 32309 layer_factory.hpp:77] Creating layer lstm1_h_conted_2
I0505 16:08:17.337641 32309 net.cpp:86] Creating Layer lstm1_h_conted_2
I0505 16:08:17.337643 32309 net.cpp:408] lstm1_h_conted_2 <- h_2_lstm1_unit_2_1_split_0
I0505 16:08:17.337651 32309 net.cpp:408] lstm1_h_conted_2 <- cont_3_lstm1_cont_slice_2_split_0
I0505 16:08:17.337657 32309 net.cpp:382] lstm1_h_conted_2 -> h_conted_2
I0505 16:08:17.337718 32309 net.cpp:124] Setting up lstm1_h_conted_2
I0505 16:08:17.337721 32309 net.cpp:131] Top shape: 1 512 100 (51200)
I0505 16:08:17.337725 32309 net.cpp:139] Memory required for data: 152412160
I0505 16:08:17.337729 32309 layer_factory.hpp:77] Creating layer lstm1_transform_3
I0505 16:08:17.337739 32309 net.cpp:86] Creating Layer lstm1_transform_3
I0505 16:08:17.337743 32309 net.cpp:408] lstm1_transform_3 <- h_conted_2
I0505 16:08:17.337749 32309 net.cpp:382] lstm1_transform_3 -> W_hc_h_2
I0505 16:08:17.338083 32309 net.cpp:124] Setting up lstm1_transform_3
I0505 16:08:17.338088 32309 net.cpp:131] Top shape: 1 512 400 (204800)
I0505 16:08:17.338093 32309 net.cpp:139] Memory required for data: 153231360
I0505 16:08:17.338099 32309 net.cpp:467] Sharing parameters 'W_hc' owned by layer 'lstm1_transform_1', param index 0
I0505 16:08:17.338102 32309 layer_factory.hpp:77] Creating layer lstm1_gate_input_3
I0505 16:08:17.338109 32309 net.cpp:86] Creating Layer lstm1_gate_input_3
I0505 16:08:17.338119 32309 net.cpp:408] lstm1_gate_input_3 <- W_hc_h_2
I0505 16:08:17.338129 32309 net.cpp:408] lstm1_gate_input_3 <- W_xc_x_3
I0505 16:08:17.338135 32309 net.cpp:382] lstm1_gate_input_3 -> gate_input_3
I0505 16:08:17.338160 32309 net.cpp:124] Setting up lstm1_gate_input_3
I0505 16:08:17.338165 32309 net.cpp:131] Top shape: 1 512 400 (204800)
I0505 16:08:17.338198 32309 net.cpp:139] Memory required for data: 154050560
I0505 16:08:17.338203 32309 layer_factory.hpp:77] Creating layer lstm1_unit_3
I0505 16:08:17.338213 32309 net.cpp:86] Creating Layer lstm1_unit_3
I0505 16:08:17.338219 32309 net.cpp:408] lstm1_unit_3 <- c_2
I0505 16:08:17.338224 32309 net.cpp:408] lstm1_unit_3 <- gate_input_3
I0505 16:08:17.338229 32309 net.cpp:408] lstm1_unit_3 <- cont_3_lstm1_cont_slice_2_split_1
I0505 16:08:17.338238 32309 net.cpp:382] lstm1_unit_3 -> c_3
I0505 16:08:17.338244 32309 net.cpp:382] lstm1_unit_3 -> h_3
I0505 16:08:17.338285 32309 net.cpp:124] Setting up lstm1_unit_3
I0505 16:08:17.338289 32309 net.cpp:131] Top shape: 1 512 100 (51200)
I0505 16:08:17.338294 32309 net.cpp:131] Top shape: 1 512 100 (51200)
I0505 16:08:17.338297 32309 net.cpp:139] Memory required for data: 154460160
I0505 16:08:17.338300 32309 layer_factory.hpp:77] Creating layer h_3_lstm1_unit_3_1_split
I0505 16:08:17.338306 32309 net.cpp:86] Creating Layer h_3_lstm1_unit_3_1_split
I0505 16:08:17.338310 32309 net.cpp:408] h_3_lstm1_unit_3_1_split <- h_3
I0505 16:08:17.338315 32309 net.cpp:382] h_3_lstm1_unit_3_1_split -> h_3_lstm1_unit_3_1_split_0
I0505 16:08:17.338321 32309 net.cpp:382] h_3_lstm1_unit_3_1_split -> h_3_lstm1_unit_3_1_split_1
I0505 16:08:17.338347 32309 net.cpp:124] Setting up h_3_lstm1_unit_3_1_split
I0505 16:08:17.338351 32309 net.cpp:131] Top shape: 1 512 100 (51200)
I0505 16:08:17.338356 32309 net.cpp:131] Top shape: 1 512 100 (51200)
I0505 16:08:17.338359 32309 net.cpp:139] Memory required for data: 154869760
I0505 16:08:17.338362 32309 layer_factory.hpp:77] Creating layer lstm1_h_conted_3
I0505 16:08:17.338368 32309 net.cpp:86] Creating Layer lstm1_h_conted_3
I0505 16:08:17.338372 32309 net.cpp:408] lstm1_h_conted_3 <- h_3_lstm1_unit_3_1_split_0
I0505 16:08:17.338378 32309 net.cpp:408] lstm1_h_conted_3 <- cont_4_lstm1_cont_slice_3_split_0
I0505 16:08:17.338387 32309 net.cpp:382] lstm1_h_conted_3 -> h_conted_3
I0505 16:08:17.338435 32309 net.cpp:124] Setting up lstm1_h_conted_3
I0505 16:08:17.338438 32309 net.cpp:131] Top shape: 1 512 100 (51200)
I0505 16:08:17.338443 32309 net.cpp:139] Memory required for data: 155074560
I0505 16:08:17.338446 32309 layer_factory.hpp:77] Creating layer lstm1_transform_4
I0505 16:08:17.338454 32309 net.cpp:86] Creating Layer lstm1_transform_4
I0505 16:08:17.338456 32309 net.cpp:408] lstm1_transform_4 <- h_conted_3
I0505 16:08:17.338461 32309 net.cpp:382] lstm1_transform_4 -> W_hc_h_3
I0505 16:08:17.338815 32309 net.cpp:124] Setting up lstm1_transform_4
I0505 16:08:17.338824 32309 net.cpp:131] Top shape: 1 512 400 (204800)
I0505 16:08:17.338829 32309 net.cpp:139] Memory required for data: 155893760
I0505 16:08:17.338835 32309 net.cpp:467] Sharing parameters 'W_hc' owned by layer 'lstm1_transform_1', param index 0
I0505 16:08:17.338838 32309 layer_factory.hpp:77] Creating layer lstm1_gate_input_4
I0505 16:08:17.338846 32309 net.cpp:86] Creating Layer lstm1_gate_input_4
I0505 16:08:17.338850 32309 net.cpp:408] lstm1_gate_input_4 <- W_hc_h_3
I0505 16:08:17.338856 32309 net.cpp:408] lstm1_gate_input_4 <- W_xc_x_4
I0505 16:08:17.338865 32309 net.cpp:382] lstm1_gate_input_4 -> gate_input_4
I0505 16:08:17.338891 32309 net.cpp:124] Setting up lstm1_gate_input_4
I0505 16:08:17.338896 32309 net.cpp:131] Top shape: 1 512 400 (204800)
I0505 16:08:17.338902 32309 net.cpp:139] Memory required for data: 156712960
I0505 16:08:17.338907 32309 layer_factory.hpp:77] Creating layer lstm1_unit_4
I0505 16:08:17.338912 32309 net.cpp:86] Creating Layer lstm1_unit_4
I0505 16:08:17.338917 32309 net.cpp:408] lstm1_unit_4 <- c_3
I0505 16:08:17.338923 32309 net.cpp:408] lstm1_unit_4 <- gate_input_4
I0505 16:08:17.338929 32309 net.cpp:408] lstm1_unit_4 <- cont_4_lstm1_cont_slice_3_split_1
I0505 16:08:17.338935 32309 net.cpp:382] lstm1_unit_4 -> c_4
I0505 16:08:17.338943 32309 net.cpp:382] lstm1_unit_4 -> h_4
I0505 16:08:17.338994 32309 net.cpp:124] Setting up lstm1_unit_4
I0505 16:08:17.338999 32309 net.cpp:131] Top shape: 1 512 100 (51200)
I0505 16:08:17.339020 32309 net.cpp:131] Top shape: 1 512 100 (51200)
I0505 16:08:17.339025 32309 net.cpp:139] Memory required for data: 157122560
I0505 16:08:17.339028 32309 layer_factory.hpp:77] Creating layer h_4_lstm1_unit_4_1_split
I0505 16:08:17.340173 32309 net.cpp:86] Creating Layer h_4_lstm1_unit_4_1_split
I0505 16:08:17.340181 32309 net.cpp:408] h_4_lstm1_unit_4_1_split <- h_4
I0505 16:08:17.340188 32309 net.cpp:382] h_4_lstm1_unit_4_1_split -> h_4_lstm1_unit_4_1_split_0
I0505 16:08:17.340194 32309 net.cpp:382] h_4_lstm1_unit_4_1_split -> h_4_lstm1_unit_4_1_split_1
I0505 16:08:17.340232 32309 net.cpp:124] Setting up h_4_lstm1_unit_4_1_split
I0505 16:08:17.340236 32309 net.cpp:131] Top shape: 1 512 100 (51200)
I0505 16:08:17.340240 32309 net.cpp:131] Top shape: 1 512 100 (51200)
I0505 16:08:17.340245 32309 net.cpp:139] Memory required for data: 157532160
I0505 16:08:17.340248 32309 layer_factory.hpp:77] Creating layer lstm1_h_conted_4
I0505 16:08:17.340255 32309 net.cpp:86] Creating Layer lstm1_h_conted_4
I0505 16:08:17.340258 32309 net.cpp:408] lstm1_h_conted_4 <- h_4_lstm1_unit_4_1_split_0
I0505 16:08:17.340265 32309 net.cpp:408] lstm1_h_conted_4 <- cont_5_lstm1_cont_slice_4_split_0
I0505 16:08:17.340271 32309 net.cpp:382] lstm1_h_conted_4 -> h_conted_4
I0505 16:08:17.340320 32309 net.cpp:124] Setting up lstm1_h_conted_4
I0505 16:08:17.340324 32309 net.cpp:131] Top shape: 1 512 100 (51200)
I0505 16:08:17.340328 32309 net.cpp:139] Memory required for data: 157736960
I0505 16:08:17.340332 32309 layer_factory.hpp:77] Creating layer lstm1_transform_5
I0505 16:08:17.340337 32309 net.cpp:86] Creating Layer lstm1_transform_5
I0505 16:08:17.340340 32309 net.cpp:408] lstm1_transform_5 <- h_conted_4
I0505 16:08:17.340345 32309 net.cpp:382] lstm1_transform_5 -> W_hc_h_4
I0505 16:08:17.340663 32309 net.cpp:124] Setting up lstm1_transform_5
I0505 16:08:17.340667 32309 net.cpp:131] Top shape: 1 512 400 (204800)
I0505 16:08:17.340672 32309 net.cpp:139] Memory required for data: 158556160
I0505 16:08:17.340675 32309 net.cpp:467] Sharing parameters 'W_hc' owned by layer 'lstm1_transform_1', param index 0
I0505 16:08:17.340678 32309 layer_factory.hpp:77] Creating layer lstm1_gate_input_5
I0505 16:08:17.340683 32309 net.cpp:86] Creating Layer lstm1_gate_input_5
I0505 16:08:17.340687 32309 net.cpp:408] lstm1_gate_input_5 <- W_hc_h_4
I0505 16:08:17.340692 32309 net.cpp:408] lstm1_gate_input_5 <- W_xc_x_5
I0505 16:08:17.340696 32309 net.cpp:382] lstm1_gate_input_5 -> gate_input_5
I0505 16:08:17.340713 32309 net.cpp:124] Setting up lstm1_gate_input_5
I0505 16:08:17.340716 32309 net.cpp:131] Top shape: 1 512 400 (204800)
I0505 16:08:17.340720 32309 net.cpp:139] Memory required for data: 159375360
I0505 16:08:17.340723 32309 layer_factory.hpp:77] Creating layer lstm1_unit_5
I0505 16:08:17.340728 32309 net.cpp:86] Creating Layer lstm1_unit_5
I0505 16:08:17.340732 32309 net.cpp:408] lstm1_unit_5 <- c_4
I0505 16:08:17.340736 32309 net.cpp:408] lstm1_unit_5 <- gate_input_5
I0505 16:08:17.340740 32309 net.cpp:408] lstm1_unit_5 <- cont_5_lstm1_cont_slice_4_split_1
I0505 16:08:17.340744 32309 net.cpp:382] lstm1_unit_5 -> c_5
I0505 16:08:17.340750 32309 net.cpp:382] lstm1_unit_5 -> h_5
I0505 16:08:17.340785 32309 net.cpp:124] Setting up lstm1_unit_5
I0505 16:08:17.340788 32309 net.cpp:131] Top shape: 1 512 100 (51200)
I0505 16:08:17.340792 32309 net.cpp:131] Top shape: 1 512 100 (51200)
I0505 16:08:17.340796 32309 net.cpp:139] Memory required for data: 159784960
I0505 16:08:17.340800 32309 layer_factory.hpp:77] Creating layer h_5_lstm1_unit_5_1_split
I0505 16:08:17.340804 32309 net.cpp:86] Creating Layer h_5_lstm1_unit_5_1_split
I0505 16:08:17.340807 32309 net.cpp:408] h_5_lstm1_unit_5_1_split <- h_5
I0505 16:08:17.340812 32309 net.cpp:382] h_5_lstm1_unit_5_1_split -> h_5_lstm1_unit_5_1_split_0
I0505 16:08:17.340817 32309 net.cpp:382] h_5_lstm1_unit_5_1_split -> h_5_lstm1_unit_5_1_split_1
I0505 16:08:17.340843 32309 net.cpp:124] Setting up h_5_lstm1_unit_5_1_split
I0505 16:08:17.340847 32309 net.cpp:131] Top shape: 1 512 100 (51200)
I0505 16:08:17.340850 32309 net.cpp:131] Top shape: 1 512 100 (51200)
I0505 16:08:17.340868 32309 net.cpp:139] Memory required for data: 160194560
I0505 16:08:17.340871 32309 layer_factory.hpp:77] Creating layer lstm1_h_conted_5
I0505 16:08:17.340878 32309 net.cpp:86] Creating Layer lstm1_h_conted_5
I0505 16:08:17.340883 32309 net.cpp:408] lstm1_h_conted_5 <- h_5_lstm1_unit_5_1_split_0
I0505 16:08:17.340888 32309 net.cpp:408] lstm1_h_conted_5 <- cont_6_lstm1_cont_slice_5_split_0
I0505 16:08:17.340894 32309 net.cpp:382] lstm1_h_conted_5 -> h_conted_5
I0505 16:08:17.340943 32309 net.cpp:124] Setting up lstm1_h_conted_5
I0505 16:08:17.340947 32309 net.cpp:131] Top shape: 1 512 100 (51200)
I0505 16:08:17.340951 32309 net.cpp:139] Memory required for data: 160399360
I0505 16:08:17.340955 32309 layer_factory.hpp:77] Creating layer lstm1_transform_6
I0505 16:08:17.340960 32309 net.cpp:86] Creating Layer lstm1_transform_6
I0505 16:08:17.340965 32309 net.cpp:408] lstm1_transform_6 <- h_conted_5
I0505 16:08:17.340968 32309 net.cpp:382] lstm1_transform_6 -> W_hc_h_5
I0505 16:08:17.341295 32309 net.cpp:124] Setting up lstm1_transform_6
I0505 16:08:17.341300 32309 net.cpp:131] Top shape: 1 512 400 (204800)
I0505 16:08:17.341305 32309 net.cpp:139] Memory required for data: 161218560
I0505 16:08:17.341308 32309 net.cpp:467] Sharing parameters 'W_hc' owned by layer 'lstm1_transform_1', param index 0
I0505 16:08:17.341311 32309 layer_factory.hpp:77] Creating layer lstm1_gate_input_6
I0505 16:08:17.341317 32309 net.cpp:86] Creating Layer lstm1_gate_input_6
I0505 16:08:17.341320 32309 net.cpp:408] lstm1_gate_input_6 <- W_hc_h_5
I0505 16:08:17.341325 32309 net.cpp:408] lstm1_gate_input_6 <- W_xc_x_6
I0505 16:08:17.341331 32309 net.cpp:382] lstm1_gate_input_6 -> gate_input_6
I0505 16:08:17.341348 32309 net.cpp:124] Setting up lstm1_gate_input_6
I0505 16:08:17.341352 32309 net.cpp:131] Top shape: 1 512 400 (204800)
I0505 16:08:17.341356 32309 net.cpp:139] Memory required for data: 162037760
I0505 16:08:17.341359 32309 layer_factory.hpp:77] Creating layer lstm1_unit_6
I0505 16:08:17.341364 32309 net.cpp:86] Creating Layer lstm1_unit_6
I0505 16:08:17.341367 32309 net.cpp:408] lstm1_unit_6 <- c_5
I0505 16:08:17.341372 32309 net.cpp:408] lstm1_unit_6 <- gate_input_6
I0505 16:08:17.341375 32309 net.cpp:408] lstm1_unit_6 <- cont_6_lstm1_cont_slice_5_split_1
I0505 16:08:17.341380 32309 net.cpp:382] lstm1_unit_6 -> c_6
I0505 16:08:17.341385 32309 net.cpp:382] lstm1_unit_6 -> h_6
I0505 16:08:17.341420 32309 net.cpp:124] Setting up lstm1_unit_6
I0505 16:08:17.341424 32309 net.cpp:131] Top shape: 1 512 100 (51200)
I0505 16:08:17.341428 32309 net.cpp:131] Top shape: 1 512 100 (51200)
I0505 16:08:17.341433 32309 net.cpp:139] Memory required for data: 162447360
I0505 16:08:17.341435 32309 layer_factory.hpp:77] Creating layer h_6_lstm1_unit_6_1_split
I0505 16:08:17.341440 32309 net.cpp:86] Creating Layer h_6_lstm1_unit_6_1_split
I0505 16:08:17.341444 32309 net.cpp:408] h_6_lstm1_unit_6_1_split <- h_6
I0505 16:08:17.341449 32309 net.cpp:382] h_6_lstm1_unit_6_1_split -> h_6_lstm1_unit_6_1_split_0
I0505 16:08:17.341454 32309 net.cpp:382] h_6_lstm1_unit_6_1_split -> h_6_lstm1_unit_6_1_split_1
I0505 16:08:17.341480 32309 net.cpp:124] Setting up h_6_lstm1_unit_6_1_split
I0505 16:08:17.341483 32309 net.cpp:131] Top shape: 1 512 100 (51200)
I0505 16:08:17.341487 32309 net.cpp:131] Top shape: 1 512 100 (51200)
I0505 16:08:17.341491 32309 net.cpp:139] Memory required for data: 162856960
I0505 16:08:17.341495 32309 layer_factory.hpp:77] Creating layer lstm1_h_conted_6
I0505 16:08:17.341501 32309 net.cpp:86] Creating Layer lstm1_h_conted_6
I0505 16:08:17.341506 32309 net.cpp:408] lstm1_h_conted_6 <- h_6_lstm1_unit_6_1_split_0
I0505 16:08:17.341511 32309 net.cpp:408] lstm1_h_conted_6 <- cont_7_lstm1_cont_slice_6_split_0
I0505 16:08:17.341516 32309 net.cpp:382] lstm1_h_conted_6 -> h_conted_6
I0505 16:08:17.341564 32309 net.cpp:124] Setting up lstm1_h_conted_6
I0505 16:08:17.341567 32309 net.cpp:131] Top shape: 1 512 100 (51200)
I0505 16:08:17.341572 32309 net.cpp:139] Memory required for data: 163061760
I0505 16:08:17.341584 32309 layer_factory.hpp:77] Creating layer lstm1_transform_7
I0505 16:08:17.341590 32309 net.cpp:86] Creating Layer lstm1_transform_7
I0505 16:08:17.342327 32309 net.cpp:408] lstm1_transform_7 <- h_conted_6
I0505 16:08:17.342336 32309 net.cpp:382] lstm1_transform_7 -> W_hc_h_6
I0505 16:08:17.342669 32309 net.cpp:124] Setting up lstm1_transform_7
I0505 16:08:17.342675 32309 net.cpp:131] Top shape: 1 512 400 (204800)
I0505 16:08:17.342681 32309 net.cpp:139] Memory required for data: 163880960
I0505 16:08:17.342689 32309 net.cpp:467] Sharing parameters 'W_hc' owned by layer 'lstm1_transform_1', param index 0
I0505 16:08:17.342694 32309 layer_factory.hpp:77] Creating layer lstm1_gate_input_7
I0505 16:08:17.342700 32309 net.cpp:86] Creating Layer lstm1_gate_input_7
I0505 16:08:17.342705 32309 net.cpp:408] lstm1_gate_input_7 <- W_hc_h_6
I0505 16:08:17.342710 32309 net.cpp:408] lstm1_gate_input_7 <- W_xc_x_7
I0505 16:08:17.342717 32309 net.cpp:382] lstm1_gate_input_7 -> gate_input_7
I0505 16:08:17.342743 32309 net.cpp:124] Setting up lstm1_gate_input_7
I0505 16:08:17.342749 32309 net.cpp:131] Top shape: 1 512 400 (204800)
I0505 16:08:17.342756 32309 net.cpp:139] Memory required for data: 164700160
I0505 16:08:17.342759 32309 layer_factory.hpp:77] Creating layer lstm1_unit_7
I0505 16:08:17.342767 32309 net.cpp:86] Creating Layer lstm1_unit_7
I0505 16:08:17.342772 32309 net.cpp:408] lstm1_unit_7 <- c_6
I0505 16:08:17.342777 32309 net.cpp:408] lstm1_unit_7 <- gate_input_7
I0505 16:08:17.342782 32309 net.cpp:408] lstm1_unit_7 <- cont_7_lstm1_cont_slice_6_split_1
I0505 16:08:17.342787 32309 net.cpp:382] lstm1_unit_7 -> c_7
I0505 16:08:17.342794 32309 net.cpp:382] lstm1_unit_7 -> h_7
I0505 16:08:17.342845 32309 net.cpp:124] Setting up lstm1_unit_7
I0505 16:08:17.342851 32309 net.cpp:131] Top shape: 1 512 100 (51200)
I0505 16:08:17.342857 32309 net.cpp:131] Top shape: 1 512 100 (51200)
I0505 16:08:17.342861 32309 net.cpp:139] Memory required for data: 165109760
I0505 16:08:17.342864 32309 layer_factory.hpp:77] Creating layer h_7_lstm1_unit_7_1_split
I0505 16:08:17.342871 32309 net.cpp:86] Creating Layer h_7_lstm1_unit_7_1_split
I0505 16:08:17.342875 32309 net.cpp:408] h_7_lstm1_unit_7_1_split <- h_7
I0505 16:08:17.342881 32309 net.cpp:382] h_7_lstm1_unit_7_1_split -> h_7_lstm1_unit_7_1_split_0
I0505 16:08:17.342888 32309 net.cpp:382] h_7_lstm1_unit_7_1_split -> h_7_lstm1_unit_7_1_split_1
I0505 16:08:17.342924 32309 net.cpp:124] Setting up h_7_lstm1_unit_7_1_split
I0505 16:08:17.342929 32309 net.cpp:131] Top shape: 1 512 100 (51200)
I0505 16:08:17.342936 32309 net.cpp:131] Top shape: 1 512 100 (51200)
I0505 16:08:17.342941 32309 net.cpp:139] Memory required for data: 165519360
I0505 16:08:17.342944 32309 layer_factory.hpp:77] Creating layer lstm1_h_conted_7
I0505 16:08:17.342952 32309 net.cpp:86] Creating Layer lstm1_h_conted_7
I0505 16:08:17.342955 32309 net.cpp:408] lstm1_h_conted_7 <- h_7_lstm1_unit_7_1_split_0
I0505 16:08:17.342962 32309 net.cpp:408] lstm1_h_conted_7 <- cont_8_lstm1_cont_slice_7_split_0
I0505 16:08:17.342969 32309 net.cpp:382] lstm1_h_conted_7 -> h_conted_7
I0505 16:08:17.343034 32309 net.cpp:124] Setting up lstm1_h_conted_7
I0505 16:08:17.343040 32309 net.cpp:131] Top shape: 1 512 100 (51200)
I0505 16:08:17.343047 32309 net.cpp:139] Memory required for data: 165724160
I0505 16:08:17.343051 32309 layer_factory.hpp:77] Creating layer lstm1_transform_8
I0505 16:08:17.343058 32309 net.cpp:86] Creating Layer lstm1_transform_8
I0505 16:08:17.343062 32309 net.cpp:408] lstm1_transform_8 <- h_conted_7
I0505 16:08:17.343070 32309 net.cpp:382] lstm1_transform_8 -> W_hc_h_7
I0505 16:08:17.343432 32309 net.cpp:124] Setting up lstm1_transform_8
I0505 16:08:17.343438 32309 net.cpp:131] Top shape: 1 512 400 (204800)
I0505 16:08:17.343443 32309 net.cpp:139] Memory required for data: 166543360
I0505 16:08:17.343447 32309 net.cpp:467] Sharing parameters 'W_hc' owned by layer 'lstm1_transform_1', param index 0
I0505 16:08:17.343451 32309 layer_factory.hpp:77] Creating layer lstm1_gate_input_8
I0505 16:08:17.343470 32309 net.cpp:86] Creating Layer lstm1_gate_input_8
I0505 16:08:17.343474 32309 net.cpp:408] lstm1_gate_input_8 <- W_hc_h_7
I0505 16:08:17.343480 32309 net.cpp:408] lstm1_gate_input_8 <- W_xc_x_8
I0505 16:08:17.343487 32309 net.cpp:382] lstm1_gate_input_8 -> gate_input_8
I0505 16:08:17.343510 32309 net.cpp:124] Setting up lstm1_gate_input_8
I0505 16:08:17.343515 32309 net.cpp:131] Top shape: 1 512 400 (204800)
I0505 16:08:17.343521 32309 net.cpp:139] Memory required for data: 167362560
I0505 16:08:17.343525 32309 layer_factory.hpp:77] Creating layer lstm1_unit_8
I0505 16:08:17.343531 32309 net.cpp:86] Creating Layer lstm1_unit_8
I0505 16:08:17.343536 32309 net.cpp:408] lstm1_unit_8 <- c_7
I0505 16:08:17.343541 32309 net.cpp:408] lstm1_unit_8 <- gate_input_8
I0505 16:08:17.343546 32309 net.cpp:408] lstm1_unit_8 <- cont_8_lstm1_cont_slice_7_split_1
I0505 16:08:17.343552 32309 net.cpp:382] lstm1_unit_8 -> c_8
I0505 16:08:17.343559 32309 net.cpp:382] lstm1_unit_8 -> h_8
I0505 16:08:17.343605 32309 net.cpp:124] Setting up lstm1_unit_8
I0505 16:08:17.343611 32309 net.cpp:131] Top shape: 1 512 100 (51200)
I0505 16:08:17.343616 32309 net.cpp:131] Top shape: 1 512 100 (51200)
I0505 16:08:17.343621 32309 net.cpp:139] Memory required for data: 167772160
I0505 16:08:17.343626 32309 layer_factory.hpp:77] Creating layer h_8_lstm1_unit_8_1_split
I0505 16:08:17.343631 32309 net.cpp:86] Creating Layer h_8_lstm1_unit_8_1_split
I0505 16:08:17.343636 32309 net.cpp:408] h_8_lstm1_unit_8_1_split <- h_8
I0505 16:08:17.343641 32309 net.cpp:382] h_8_lstm1_unit_8_1_split -> h_8_lstm1_unit_8_1_split_0
I0505 16:08:17.343648 32309 net.cpp:382] h_8_lstm1_unit_8_1_split -> h_8_lstm1_unit_8_1_split_1
I0505 16:08:17.343683 32309 net.cpp:124] Setting up h_8_lstm1_unit_8_1_split
I0505 16:08:17.343688 32309 net.cpp:131] Top shape: 1 512 100 (51200)
I0505 16:08:17.343693 32309 net.cpp:131] Top shape: 1 512 100 (51200)
I0505 16:08:17.343698 32309 net.cpp:139] Memory required for data: 168181760
I0505 16:08:17.343703 32309 layer_factory.hpp:77] Creating layer lstm1_h_conted_8
I0505 16:08:17.343709 32309 net.cpp:86] Creating Layer lstm1_h_conted_8
I0505 16:08:17.343713 32309 net.cpp:408] lstm1_h_conted_8 <- h_8_lstm1_unit_8_1_split_0
I0505 16:08:17.343719 32309 net.cpp:408] lstm1_h_conted_8 <- cont_9_lstm1_cont_slice_8_split_0
I0505 16:08:17.343725 32309 net.cpp:382] lstm1_h_conted_8 -> h_conted_8
I0505 16:08:17.343772 32309 net.cpp:124] Setting up lstm1_h_conted_8
I0505 16:08:17.343776 32309 net.cpp:131] Top shape: 1 512 100 (51200)
I0505 16:08:17.343781 32309 net.cpp:139] Memory required for data: 168386560
I0505 16:08:17.343785 32309 layer_factory.hpp:77] Creating layer lstm1_transform_9
I0505 16:08:17.343791 32309 net.cpp:86] Creating Layer lstm1_transform_9
I0505 16:08:17.343794 32309 net.cpp:408] lstm1_transform_9 <- h_conted_8
I0505 16:08:17.343801 32309 net.cpp:382] lstm1_transform_9 -> W_hc_h_8
I0505 16:08:17.344158 32309 net.cpp:124] Setting up lstm1_transform_9
I0505 16:08:17.344166 32309 net.cpp:131] Top shape: 1 512 400 (204800)
I0505 16:08:17.344172 32309 net.cpp:139] Memory required for data: 169205760
I0505 16:08:17.344177 32309 net.cpp:467] Sharing parameters 'W_hc' owned by layer 'lstm1_transform_1', param index 0
I0505 16:08:17.344182 32309 layer_factory.hpp:77] Creating layer lstm1_gate_input_9
I0505 16:08:17.344188 32309 net.cpp:86] Creating Layer lstm1_gate_input_9
I0505 16:08:17.344193 32309 net.cpp:408] lstm1_gate_input_9 <- W_hc_h_8
I0505 16:08:17.344198 32309 net.cpp:408] lstm1_gate_input_9 <- W_xc_x_9
I0505 16:08:17.344205 32309 net.cpp:382] lstm1_gate_input_9 -> gate_input_9
I0505 16:08:17.344229 32309 net.cpp:124] Setting up lstm1_gate_input_9
I0505 16:08:17.344235 32309 net.cpp:131] Top shape: 1 512 400 (204800)
I0505 16:08:17.344242 32309 net.cpp:139] Memory required for data: 170024960
I0505 16:08:17.344249 32309 layer_factory.hpp:77] Creating layer lstm1_unit_9
I0505 16:08:17.344261 32309 net.cpp:86] Creating Layer lstm1_unit_9
I0505 16:08:17.344269 32309 net.cpp:408] lstm1_unit_9 <- c_8
I0505 16:08:17.344277 32309 net.cpp:408] lstm1_unit_9 <- gate_input_9
I0505 16:08:17.344306 32309 net.cpp:408] lstm1_unit_9 <- cont_9_lstm1_cont_slice_8_split_1
I0505 16:08:17.344645 32309 net.cpp:382] lstm1_unit_9 -> c_9
I0505 16:08:17.344661 32309 net.cpp:382] lstm1_unit_9 -> h_9
I0505 16:08:17.344728 32309 net.cpp:124] Setting up lstm1_unit_9
I0505 16:08:17.344736 32309 net.cpp:131] Top shape: 1 512 100 (51200)
I0505 16:08:17.344744 32309 net.cpp:131] Top shape: 1 512 100 (51200)
I0505 16:08:17.344750 32309 net.cpp:139] Memory required for data: 170434560
I0505 16:08:17.344756 32309 layer_factory.hpp:77] Creating layer h_9_lstm1_unit_9_1_split
I0505 16:08:17.344764 32309 net.cpp:86] Creating Layer h_9_lstm1_unit_9_1_split
I0505 16:08:17.344769 32309 net.cpp:408] h_9_lstm1_unit_9_1_split <- h_9
I0505 16:08:17.344777 32309 net.cpp:382] h_9_lstm1_unit_9_1_split -> h_9_lstm1_unit_9_1_split_0
I0505 16:08:17.344787 32309 net.cpp:382] h_9_lstm1_unit_9_1_split -> h_9_lstm1_unit_9_1_split_1
I0505 16:08:17.344833 32309 net.cpp:124] Setting up h_9_lstm1_unit_9_1_split
I0505 16:08:17.344841 32309 net.cpp:131] Top shape: 1 512 100 (51200)
I0505 16:08:17.344848 32309 net.cpp:131] Top shape: 1 512 100 (51200)
I0505 16:08:17.344854 32309 net.cpp:139] Memory required for data: 170844160
I0505 16:08:17.344859 32309 layer_factory.hpp:77] Creating layer lstm1_h_conted_9
I0505 16:08:17.344868 32309 net.cpp:86] Creating Layer lstm1_h_conted_9
I0505 16:08:17.344874 32309 net.cpp:408] lstm1_h_conted_9 <- h_9_lstm1_unit_9_1_split_0
I0505 16:08:17.344882 32309 net.cpp:408] lstm1_h_conted_9 <- cont_10_lstm1_cont_slice_9_split_0
I0505 16:08:17.344893 32309 net.cpp:382] lstm1_h_conted_9 -> h_conted_9
I0505 16:08:17.344975 32309 net.cpp:124] Setting up lstm1_h_conted_9
I0505 16:08:17.344983 32309 net.cpp:131] Top shape: 1 512 100 (51200)
I0505 16:08:17.344990 32309 net.cpp:139] Memory required for data: 171048960
I0505 16:08:17.344996 32309 layer_factory.hpp:77] Creating layer lstm1_transform_10
I0505 16:08:17.345005 32309 net.cpp:86] Creating Layer lstm1_transform_10
I0505 16:08:17.345016 32309 net.cpp:408] lstm1_transform_10 <- h_conted_9
I0505 16:08:17.345029 32309 net.cpp:382] lstm1_transform_10 -> W_hc_h_9
I0505 16:08:17.345479 32309 net.cpp:124] Setting up lstm1_transform_10
I0505 16:08:17.345489 32309 net.cpp:131] Top shape: 1 512 400 (204800)
I0505 16:08:17.345495 32309 net.cpp:139] Memory required for data: 171868160
I0505 16:08:17.345501 32309 net.cpp:467] Sharing parameters 'W_hc' owned by layer 'lstm1_transform_1', param index 0
I0505 16:08:17.345507 32309 layer_factory.hpp:77] Creating layer lstm1_gate_input_10
I0505 16:08:17.345516 32309 net.cpp:86] Creating Layer lstm1_gate_input_10
I0505 16:08:17.345522 32309 net.cpp:408] lstm1_gate_input_10 <- W_hc_h_9
I0505 16:08:17.345528 32309 net.cpp:408] lstm1_gate_input_10 <- W_xc_x_10
I0505 16:08:17.345536 32309 net.cpp:382] lstm1_gate_input_10 -> gate_input_10
I0505 16:08:17.345566 32309 net.cpp:124] Setting up lstm1_gate_input_10
I0505 16:08:17.345571 32309 net.cpp:131] Top shape: 1 512 400 (204800)
I0505 16:08:17.345578 32309 net.cpp:139] Memory required for data: 172687360
I0505 16:08:17.345583 32309 layer_factory.hpp:77] Creating layer lstm1_unit_10
I0505 16:08:17.345592 32309 net.cpp:86] Creating Layer lstm1_unit_10
I0505 16:08:17.345597 32309 net.cpp:408] lstm1_unit_10 <- c_9
I0505 16:08:17.345603 32309 net.cpp:408] lstm1_unit_10 <- gate_input_10
I0505 16:08:17.345610 32309 net.cpp:408] lstm1_unit_10 <- cont_10_lstm1_cont_slice_9_split_1
I0505 16:08:17.345618 32309 net.cpp:382] lstm1_unit_10 -> c_10
I0505 16:08:17.345626 32309 net.cpp:382] lstm1_unit_10 -> h_10
I0505 16:08:17.345685 32309 net.cpp:124] Setting up lstm1_unit_10
I0505 16:08:17.345693 32309 net.cpp:131] Top shape: 1 512 100 (51200)
I0505 16:08:17.345700 32309 net.cpp:131] Top shape: 1 512 100 (51200)
I0505 16:08:17.345706 32309 net.cpp:139] Memory required for data: 173096960
I0505 16:08:17.345710 32309 layer_factory.hpp:77] Creating layer h_10_lstm1_unit_10_1_split
I0505 16:08:17.345718 32309 net.cpp:86] Creating Layer h_10_lstm1_unit_10_1_split
I0505 16:08:17.345743 32309 net.cpp:408] h_10_lstm1_unit_10_1_split <- h_10
I0505 16:08:17.345752 32309 net.cpp:382] h_10_lstm1_unit_10_1_split -> h_10_lstm1_unit_10_1_split_0
I0505 16:08:17.345762 32309 net.cpp:382] h_10_lstm1_unit_10_1_split -> h_10_lstm1_unit_10_1_split_1
I0505 16:08:17.345805 32309 net.cpp:124] Setting up h_10_lstm1_unit_10_1_split
I0505 16:08:17.345811 32309 net.cpp:131] Top shape: 1 512 100 (51200)
I0505 16:08:17.345818 32309 net.cpp:131] Top shape: 1 512 100 (51200)
I0505 16:08:17.345825 32309 net.cpp:139] Memory required for data: 173506560
I0505 16:08:17.345829 32309 layer_factory.hpp:77] Creating layer lstm1_h_conted_10
I0505 16:08:17.345839 32309 net.cpp:86] Creating Layer lstm1_h_conted_10
I0505 16:08:17.345844 32309 net.cpp:408] lstm1_h_conted_10 <- h_10_lstm1_unit_10_1_split_0
I0505 16:08:17.345851 32309 net.cpp:408] lstm1_h_conted_10 <- cont_11_lstm1_cont_slice_10_split_0
I0505 16:08:17.345860 32309 net.cpp:382] lstm1_h_conted_10 -> h_conted_10
I0505 16:08:17.345934 32309 net.cpp:124] Setting up lstm1_h_conted_10
I0505 16:08:17.345942 32309 net.cpp:131] Top shape: 1 512 100 (51200)
I0505 16:08:17.345948 32309 net.cpp:139] Memory required for data: 173711360
I0505 16:08:17.345953 32309 layer_factory.hpp:77] Creating layer lstm1_transform_11
I0505 16:08:17.345963 32309 net.cpp:86] Creating Layer lstm1_transform_11
I0505 16:08:17.345968 32309 net.cpp:408] lstm1_transform_11 <- h_conted_10
I0505 16:08:17.345976 32309 net.cpp:382] lstm1_transform_11 -> W_hc_h_10
I0505 16:08:17.346439 32309 net.cpp:124] Setting up lstm1_transform_11
I0505 16:08:17.346449 32309 net.cpp:131] Top shape: 1 512 400 (204800)
I0505 16:08:17.346457 32309 net.cpp:139] Memory required for data: 174530560
I0505 16:08:17.346462 32309 net.cpp:467] Sharing parameters 'W_hc' owned by layer 'lstm1_transform_1', param index 0
I0505 16:08:17.346467 32309 layer_factory.hpp:77] Creating layer lstm1_gate_input_11
I0505 16:08:17.346475 32309 net.cpp:86] Creating Layer lstm1_gate_input_11
I0505 16:08:17.346480 32309 net.cpp:408] lstm1_gate_input_11 <- W_hc_h_10
I0505 16:08:17.346487 32309 net.cpp:408] lstm1_gate_input_11 <- W_xc_x_11
I0505 16:08:17.346495 32309 net.cpp:382] lstm1_gate_input_11 -> gate_input_11
I0505 16:08:17.346525 32309 net.cpp:124] Setting up lstm1_gate_input_11
I0505 16:08:17.346534 32309 net.cpp:131] Top shape: 1 512 400 (204800)
I0505 16:08:17.346540 32309 net.cpp:139] Memory required for data: 175349760
I0505 16:08:17.346545 32309 layer_factory.hpp:77] Creating layer lstm1_unit_11
I0505 16:08:17.346554 32309 net.cpp:86] Creating Layer lstm1_unit_11
I0505 16:08:17.346559 32309 net.cpp:408] lstm1_unit_11 <- c_10
I0505 16:08:17.346565 32309 net.cpp:408] lstm1_unit_11 <- gate_input_11
I0505 16:08:17.346572 32309 net.cpp:408] lstm1_unit_11 <- cont_11_lstm1_cont_slice_10_split_1
I0505 16:08:17.346580 32309 net.cpp:382] lstm1_unit_11 -> c_11
I0505 16:08:17.346590 32309 net.cpp:382] lstm1_unit_11 -> h_11
I0505 16:08:17.346642 32309 net.cpp:124] Setting up lstm1_unit_11
I0505 16:08:17.346647 32309 net.cpp:131] Top shape: 1 512 100 (51200)
I0505 16:08:17.346652 32309 net.cpp:131] Top shape: 1 512 100 (51200)
I0505 16:08:17.346657 32309 net.cpp:139] Memory required for data: 175759360
I0505 16:08:17.346660 32309 layer_factory.hpp:77] Creating layer h_11_lstm1_unit_11_1_split
I0505 16:08:17.346666 32309 net.cpp:86] Creating Layer h_11_lstm1_unit_11_1_split
I0505 16:08:17.346670 32309 net.cpp:408] h_11_lstm1_unit_11_1_split <- h_11
I0505 16:08:17.346676 32309 net.cpp:382] h_11_lstm1_unit_11_1_split -> h_11_lstm1_unit_11_1_split_0
I0505 16:08:17.346683 32309 net.cpp:382] h_11_lstm1_unit_11_1_split -> h_11_lstm1_unit_11_1_split_1
I0505 16:08:17.346712 32309 net.cpp:124] Setting up h_11_lstm1_unit_11_1_split
I0505 16:08:17.346716 32309 net.cpp:131] Top shape: 1 512 100 (51200)
I0505 16:08:17.346721 32309 net.cpp:131] Top shape: 1 512 100 (51200)
I0505 16:08:17.346726 32309 net.cpp:139] Memory required for data: 176168960
I0505 16:08:17.346729 32309 layer_factory.hpp:77] Creating layer lstm1_h_conted_11
I0505 16:08:17.346737 32309 net.cpp:86] Creating Layer lstm1_h_conted_11
I0505 16:08:17.347586 32309 net.cpp:408] lstm1_h_conted_11 <- h_11_lstm1_unit_11_1_split_0
I0505 16:08:17.347595 32309 net.cpp:408] lstm1_h_conted_11 <- cont_12_lstm1_cont_slice_11_split_0
I0505 16:08:17.347604 32309 net.cpp:382] lstm1_h_conted_11 -> h_conted_11
I0505 16:08:17.347666 32309 net.cpp:124] Setting up lstm1_h_conted_11
I0505 16:08:17.347671 32309 net.cpp:131] Top shape: 1 512 100 (51200)
I0505 16:08:17.347676 32309 net.cpp:139] Memory required for data: 176373760
I0505 16:08:17.347681 32309 layer_factory.hpp:77] Creating layer lstm1_transform_12
I0505 16:08:17.347687 32309 net.cpp:86] Creating Layer lstm1_transform_12
I0505 16:08:17.347692 32309 net.cpp:408] lstm1_transform_12 <- h_conted_11
I0505 16:08:17.347697 32309 net.cpp:382] lstm1_transform_12 -> W_hc_h_11
I0505 16:08:17.349408 32309 net.cpp:124] Setting up lstm1_transform_12
I0505 16:08:17.349426 32309 net.cpp:131] Top shape: 1 512 400 (204800)
I0505 16:08:17.349436 32309 net.cpp:139] Memory required for data: 177192960
I0505 16:08:17.349449 32309 net.cpp:467] Sharing parameters 'W_hc' owned by layer 'lstm1_transform_1', param index 0
I0505 16:08:17.349457 32309 layer_factory.hpp:77] Creating layer lstm1_gate_input_12
I0505 16:08:17.349472 32309 net.cpp:86] Creating Layer lstm1_gate_input_12
I0505 16:08:17.349478 32309 net.cpp:408] lstm1_gate_input_12 <- W_hc_h_11
…
I0505 16:08:17.448166 32309 net.cpp:131] Top shape: 1 512 100 (51200)
I0505 16:08:17.448170 32309 net.cpp:131] Top shape: 1 512 100 (51200)
I0505 16:08:17.448195 32309 net.cpp:139] Memory required for data: 351887360
I0505 16:08:17.448199 32309 layer_factory.hpp:77] Creating layer lstm1_h_conted_77
I0505 16:08:17.448206 32309 net.cpp:86] Creating Layer lstm1_h_conted_77
I0505 16:08:17.448210 32309 net.cpp:408] lstm1_h_conted_77 <- h_77_lstm1_unit_77_1_split_0
I0505 16:08:17.448215 32309 net.cpp:408] lstm1_h_conted_77 <- cont_78_lstm1_cont_slice_77_split_0
I0505 16:08:17.448220 32309 net.cpp:382] lstm1_h_conted_77 -> h_conted_77
I0505 16:08:17.448280 32309 net.cpp:124] Setting up lstm1_h_conted_77
I0505 16:08:17.448284 32309 net.cpp:131] Top shape: 1 512 100 (51200)
I0505 16:08:17.448288 32309 net.cpp:139] Memory required for data: 352092160
I0505 16:08:17.448292 32309 layer_factory.hpp:77] Creating layer lstm1_transform_78
I0505 16:08:17.448299 32309 net.cpp:86] Creating Layer lstm1_transform_78
I0505 16:08:17.448302 32309 net.cpp:408] lstm1_transform_78 <- h_conted_77
I0505 16:08:17.448307 32309 net.cpp:382] lstm1_transform_78 -> W_hc_h_77
I0505 16:08:17.448619 32309 net.cpp:124] Setting up lstm1_transform_78
I0505 16:08:17.448623 32309 net.cpp:131] Top shape: 1 512 400 (204800)
I0505 16:08:17.448627 32309 net.cpp:139] Memory required for data: 352911360
I0505 16:08:17.448632 32309 net.cpp:467] Sharing parameters 'W_hc' owned by layer 'lstm1_transform_1', param index 0
I0505 16:08:17.448634 32309 layer_factory.hpp:77] Creating layer lstm1_gate_input_78
I0505 16:08:17.448639 32309 net.cpp:86] Creating Layer lstm1_gate_input_78
I0505 16:08:17.448642 32309 net.cpp:408] lstm1_gate_input_78 <- W_hc_h_77
I0505 16:08:17.448647 32309 net.cpp:408] lstm1_gate_input_78 <- W_xc_x_78
I0505 16:08:17.448652 32309 net.cpp:382] lstm1_gate_input_78 -> gate_input_78
I0505 16:08:17.448669 32309 net.cpp:124] Setting up lstm1_gate_input_78
I0505 16:08:17.448673 32309 net.cpp:131] Top shape: 1 512 400 (204800)
I0505 16:08:17.448676 32309 net.cpp:139] Memory required for data: 353730560
I0505 16:08:17.448679 32309 layer_factory.hpp:77] Creating layer lstm1_unit_78
I0505 16:08:17.448684 32309 net.cpp:86] Creating Layer lstm1_unit_78
I0505 16:08:17.448688 32309 net.cpp:408] lstm1_unit_78 <- c_77
I0505 16:08:17.448691 32309 net.cpp:408] lstm1_unit_78 <- gate_input_78
I0505 16:08:17.448696 32309 net.cpp:408] lstm1_unit_78 <- cont_78_lstm1_cont_slice_77_split_1
I0505 16:08:17.448701 32309 net.cpp:382] lstm1_unit_78 -> c_78
I0505 16:08:17.448706 32309 net.cpp:382] lstm1_unit_78 -> h_78
I0505 16:08:17.448743 32309 net.cpp:124] Setting up lstm1_unit_78
I0505 16:08:17.448747 32309 net.cpp:131] Top shape: 1 512 100 (51200)
I0505 16:08:17.448751 32309 net.cpp:131] Top shape: 1 512 100 (51200)
I0505 16:08:17.448755 32309 net.cpp:139] Memory required for data: 354140160
I0505 16:08:17.448757 32309 layer_factory.hpp:77] Creating layer h_78_lstm1_unit_78_1_split
I0505 16:08:17.448762 32309 net.cpp:86] Creating Layer h_78_lstm1_unit_78_1_split
I0505 16:08:17.448765 32309 net.cpp:408] h_78_lstm1_unit_78_1_split <- h_78
I0505 16:08:17.448770 32309 net.cpp:382] h_78_lstm1_unit_78_1_split -> h_78_lstm1_unit_78_1_split_0
I0505 16:08:17.448776 32309 net.cpp:382] h_78_lstm1_unit_78_1_split -> h_78_lstm1_unit_78_1_split_1
I0505 16:08:17.448803 32309 net.cpp:124] Setting up h_78_lstm1_unit_78_1_split
I0505 16:08:17.448807 32309 net.cpp:131] Top shape: 1 512 100 (51200)
I0505 16:08:17.448812 32309 net.cpp:131] Top shape: 1 512 100 (51200)
I0505 16:08:17.448814 32309 net.cpp:139] Memory required for data: 354549760
I0505 16:08:17.448817 32309 layer_factory.hpp:77] Creating layer lstm1_h_conted_78
I0505 16:08:17.448822 32309 net.cpp:86] Creating Layer lstm1_h_conted_78
I0505 16:08:17.448827 32309 net.cpp:408] lstm1_h_conted_78 <- h_78_lstm1_unit_78_1_split_0
I0505 16:08:17.448830 32309 net.cpp:408] lstm1_h_conted_78 <- cont_79_lstm1_cont_slice_78_split_0
I0505 16:08:17.448835 32309 net.cpp:382] lstm1_h_conted_78 -> h_conted_78
I0505 16:08:17.448885 32309 net.cpp:124] Setting up lstm1_h_conted_78
I0505 16:08:17.448889 32309 net.cpp:131] Top shape: 1 512 100 (51200)
I0505 16:08:17.448892 32309 net.cpp:139] Memory required for data: 354754560
I0505 16:08:17.448909 32309 layer_factory.hpp:77] Creating layer lstm1_transform_79
I0505 16:08:17.448915 32309 net.cpp:86] Creating Layer lstm1_transform_79
I0505 16:08:17.448918 32309 net.cpp:408] lstm1_transform_79 <- h_conted_78
I0505 16:08:17.448923 32309 net.cpp:382] lstm1_transform_79 -> W_hc_h_78
I0505 16:08:17.449234 32309 net.cpp:124] Setting up lstm1_transform_79
I0505 16:08:17.449237 32309 net.cpp:131] Top shape: 1 512 400 (204800)
I0505 16:08:17.449242 32309 net.cpp:139] Memory required for data: 355573760
I0505 16:08:17.449245 32309 net.cpp:467] Sharing parameters 'W_hc' owned by layer 'lstm1_transform_1', param index 0
I0505 16:08:17.449249 32309 layer_factory.hpp:77] Creating layer lstm1_gate_input_79
I0505 16:08:17.449254 32309 net.cpp:86] Creating Layer lstm1_gate_input_79
I0505 16:08:17.449256 32309 net.cpp:408] lstm1_gate_input_79 <- W_hc_h_78
I0505 16:08:17.449260 32309 net.cpp:408] lstm1_gate_input_79 <- W_xc_x_79
I0505 16:08:17.449265 32309 net.cpp:382] lstm1_gate_input_79 -> gate_input_79
I0505 16:08:17.449283 32309 net.cpp:124] Setting up lstm1_gate_input_79
I0505 16:08:17.449286 32309 net.cpp:131] Top shape: 1 512 400 (204800)
I0505 16:08:17.449290 32309 net.cpp:139] Memory required for data: 356392960
I0505 16:08:17.449293 32309 layer_factory.hpp:77] Creating layer lstm1_unit_79
I0505 16:08:17.449298 32309 net.cpp:86] Creating Layer lstm1_unit_79
I0505 16:08:17.449301 32309 net.cpp:408] lstm1_unit_79 <- c_78
I0505 16:08:17.449306 32309 net.cpp:408] lstm1_unit_79 <- gate_input_79
I0505 16:08:17.449309 32309 net.cpp:408] lstm1_unit_79 <- cont_79_lstm1_cont_slice_78_split_1
I0505 16:08:17.449314 32309 net.cpp:382] lstm1_unit_79 -> c_79
I0505 16:08:17.449319 32309 net.cpp:382] lstm1_unit_79 -> h_79
I0505 16:08:17.449357 32309 net.cpp:124] Setting up lstm1_unit_79
I0505 16:08:17.449360 32309 net.cpp:131] Top shape: 1 512 100 (51200)
I0505 16:08:17.449364 32309 net.cpp:131] Top shape: 1 512 100 (51200)
I0505 16:08:17.449368 32309 net.cpp:139] Memory required for data: 356802560
I0505 16:08:17.449371 32309 layer_factory.hpp:77] Creating layer h_79_lstm1_unit_79_1_split
I0505 16:08:17.449375 32309 net.cpp:86] Creating Layer h_79_lstm1_unit_79_1_split
I0505 16:08:17.449379 32309 net.cpp:408] h_79_lstm1_unit_79_1_split <- h_79
I0505 16:08:17.449384 32309 net.cpp:382] h_79_lstm1_unit_79_1_split -> h_79_lstm1_unit_79_1_split_0
I0505 16:08:17.449390 32309 net.cpp:382] h_79_lstm1_unit_79_1_split -> h_79_lstm1_unit_79_1_split_1
I0505 16:08:17.449417 32309 net.cpp:124] Setting up h_79_lstm1_unit_79_1_split
I0505 16:08:17.449420 32309 net.cpp:131] Top shape: 1 512 100 (51200)
I0505 16:08:17.449424 32309 net.cpp:131] Top shape: 1 512 100 (51200)
I0505 16:08:17.449429 32309 net.cpp:139] Memory required for data: 357212160
I0505 16:08:17.449431 32309 layer_factory.hpp:77] Creating layer lstm1_h_conted_79
I0505 16:08:17.449436 32309 net.cpp:86] Creating Layer lstm1_h_conted_79
I0505 16:08:17.449440 32309 net.cpp:408] lstm1_h_conted_79 <- h_79_lstm1_unit_79_1_split_0
I0505 16:08:17.449445 32309 net.cpp:408] lstm1_h_conted_79 <- cont_80_lstm1_cont_slice_79_split_0
I0505 16:08:17.449450 32309 net.cpp:382] lstm1_h_conted_79 -> h_conted_79
I0505 16:08:17.449498 32309 net.cpp:124] Setting up lstm1_h_conted_79
I0505 16:08:17.449501 32309 net.cpp:131] Top shape: 1 512 100 (51200)
I0505 16:08:17.449506 32309 net.cpp:139] Memory required for data: 357416960
I0505 16:08:17.449508 32309 layer_factory.hpp:77] Creating layer lstm1_transform_80
I0505 16:08:17.449514 32309 net.cpp:86] Creating Layer lstm1_transform_80
I0505 16:08:17.449517 32309 net.cpp:408] lstm1_transform_80 <- h_conted_79
I0505 16:08:17.449522 32309 net.cpp:382] lstm1_transform_80 -> W_hc_h_79
I0505 16:08:17.449825 32309 net.cpp:124] Setting up lstm1_transform_80
I0505 16:08:17.449828 32309 net.cpp:131] Top shape: 1 512 400 (204800)
I0505 16:08:17.449832 32309 net.cpp:139] Memory required for data: 358236160
I0505 16:08:17.449836 32309 net.cpp:467] Sharing parameters 'W_hc' owned by layer 'lstm1_transform_1', param index 0
I0505 16:08:17.449851 32309 layer_factory.hpp:77] Creating layer lstm1_gate_input_80
I0505 16:08:17.449856 32309 net.cpp:86] Creating Layer lstm1_gate_input_80
I0505 16:08:17.449858 32309 net.cpp:408] lstm1_gate_input_80 <- W_hc_h_79
I0505 16:08:17.449862 32309 net.cpp:408] lstm1_gate_input_80 <- W_xc_x_80
I0505 16:08:17.449867 32309 net.cpp:382] lstm1_gate_input_80 -> gate_input_80
I0505 16:08:17.449885 32309 net.cpp:124] Setting up lstm1_gate_input_80
I0505 16:08:17.449888 32309 net.cpp:131] Top shape: 1 512 400 (204800)
I0505 16:08:17.449892 32309 net.cpp:139] Memory required for data: 359055360
I0505 16:08:17.449895 32309 layer_factory.hpp:77] Creating layer lstm1_unit_80
I0505 16:08:17.449900 32309 net.cpp:86] Creating Layer lstm1_unit_80
I0505 16:08:17.449903 32309 net.cpp:408] lstm1_unit_80 <- c_79
I0505 16:08:17.449908 32309 net.cpp:408] lstm1_unit_80 <- gate_input_80
I0505 16:08:17.449911 32309 net.cpp:408] lstm1_unit_80 <- cont_80_lstm1_cont_slice_79_split_1
I0505 16:08:17.449916 32309 net.cpp:382] lstm1_unit_80 -> c_80
I0505 16:08:17.449921 32309 net.cpp:382] lstm1_unit_80 -> h_80
I0505 16:08:17.449959 32309 net.cpp:124] Setting up lstm1_unit_80
I0505 16:08:17.449961 32309 net.cpp:131] Top shape: 1 512 100 (51200)
I0505 16:08:17.449966 32309 net.cpp:131] Top shape: 1 512 100 (51200)
I0505 16:08:17.449970 32309 net.cpp:139] Memory required for data: 359464960
I0505 16:08:17.449972 32309 layer_factory.hpp:77] Creating layer lstm1_
I0505 16:08:17.449976 32309 net.cpp:86] Creating Layer lstm1_
I0505 16:08:17.449980 32309 net.cpp:408] lstm1_ <- c_80
I0505 16:08:17.449985 32309 net.cpp:382] lstm1_ -> c_T
I0505 16:08:17.450000 32309 net.cpp:124] Setting up lstm1_
I0505 16:08:17.450002 32309 net.cpp:131] Top shape: 1 512 100 (51200)
I0505 16:08:17.450006 32309 net.cpp:139] Memory required for data: 359669760
I0505 16:08:17.450009 32309 layer_factory.hpp:77] Creating layer lstm1_h_concat
I0505 16:08:17.450022 32309 net.cpp:86] Creating Layer lstm1_h_concat
I0505 16:08:17.450026 32309 net.cpp:408] lstm1_h_concat <- h_1_lstm1_unit_1_1_split_1
I0505 16:08:17.450032 32309 net.cpp:408] lstm1_h_concat <- h_2_lstm1_unit_2_1_split_1
…
  top: "W_xc_x_53"
  top: "W_xc_x_54"
  top: "W_xc_x_55"
  top: "W_xc_x_56"
  top: "W_xc_x_57"
  top: "W_xc_x_58"
  top: "W_xc_x_59"
  top: "W_xc_x_60"
  top: "W_xc_x_61"
  top: "W_xc_x_62"
  top: "W_xc_x_63"
  top: "W_xc_x_64"
  top: "W_xc_x_65"
  top: "W_xc_x_66"
  top: "W_xc_x_67"
  top: "W_xc_x_68"
  top: "W_xc_x_69"
  top: "W_xc_x_70"
  top: "W_xc_x_71"
  top: "W_xc_x_72"
  top: "W_xc_x_73"
  top: "W_xc_x_74"
  top: "W_xc_x_75"
  top: "W_xc_x_76"
  top: "W_xc_x_77"
  top: "W_xc_x_78"
  top: "W_xc_x_79"
  top: "W_xc_x_80"
  slice_param {
    axis: 0
  }
}
layer {
  name: "lstm2_h_conted_0"
  type: "Scale"
  bottom: "h_0"
  bottom: "cont_1"
  top: "h_conted_0"
  scale_param {
    axis: 0
  }
}
layer {
  name: "lstm2_transform_1"
  type: "InnerProduct"
  bottom: "h_conted_0"
  top: "W_hc_h_0"
  param {
    name: "W_hc"
  }
  inner_product_param {
    num_output: 400
    bias_term: false
    weight_filler {
      type: "xavier"
    }
    axis: 2
  }
}
layer {
  name: "lstm2_gate_input_1"
  type: "Eltwise"
  bottom: "W_hc_h_0"
  bottom: "W_xc_x_1"
  top: "gate_input_1"
  eltwise_param {
    operation: SUM
  }
}
layer {
  name: "lstm2_unit_1"
  type: "LSTMUnit"
  bottom: "c_0"
  bottom: "gate_input_1"
  bottom: "cont_1"
  top: "c_1"
  top: "h_1"
}
layer {
  name: "lstm2_h_conted_1"
  type: "Scale"
  bottom: "h_1"
  bottom: "cont_2"
  top: "h_conted_1"
  scale_param {
    axis: 0
  }
}
layer {
  name: "lstm2_transform_2"
  type: "InnerProduct"
  bottom: "h_conted_1"
  top: "W_hc_h_1"
  param {
    name: "W_hc"
  }
  inner_product_param {
    num_output: 400
    bias_term: false
    weight_filler {
      type: "xavier"
    }
    axis: 2
  }
}
layer {
  name: "lstm2_gate_input_2"
  type: "Eltwise"
  bottom: "W_hc_h_1"
  bottom: "W_xc_x_2"
  top: "gate_input_2"
  eltwise_param {
    operation: SUM
  }
}
layer {
  name: "lstm2_unit_2"
  type: "LSTMUnit"
  bottom: "c_1"
  bottom: "gate_input_2"
  bottom: "cont_2"
  top: "c_2"
  top: "h_2"
}
layer {
  name: "lstm2_h_conted_2"
  type: "Scale"
  bottom: "h_2"
  bottom: "cont_3"
  top: "h_conted_2"
  scale_param {
    axis: 0
  }
}
layer {
  name: "lstm2_transform_3"
  type: "InnerProduct"
  bottom: "h_conted_2"
  top: "W_hc_h_2"
  param {
    name: "W_hc"
  }
  inner_product_param {
    num_output: 400
    bias_term: false
    weight_filler {
      type: "xavier"
    }
    axis: 2
  }
}
layer {
  name: "lstm2_gate_input_3"
  type: "Eltwise"
  bottom: "W_hc_h_2"
  bottom: "W_xc_x_3"
  top: "gate_input_3"
  eltwise_param {
    operation: SUM
  }
}
layer {
  name: "lstm2_unit_3"
  type: "LSTMUnit"
  bottom: "c_2"
  bottom: "gate_input_3"
  bottom: "cont_3"
  top: "c_3"
  top: "h_3"
}
layer {
  name: "lstm2_h_conted_3"
  type: "Scale"
  bottom: "h_3"
  bottom: "cont_4"
  top: "h_conted_3"
  scale_param {
    axis: 0
  }
}
layer {
  name: "lstm2_transform_4"
  type: "InnerProduct"
  bottom: "h_conted_3"
  top: "W_hc_h_3"
  param {
    name: "W_hc"
  }
  inner_product_param {
    num_output: 400
    bias_term: false
    weight_filler {
      type: "xavier"
    }
    axis: 2
  }
}
layer {
  name: "lstm2_gate_input_4"
  type: "Eltwise"
  bottom: "W_hc_h_3"
  bottom: "W_xc_x_4"
  top: "gate_input_4"
  eltwise_param {
    operation: SUM
  }
}
layer {
  name: "lstm2_unit_4"
  type: "LSTMUnit"
  bottom: "c_3"
  bottom: "gate_input_4"
  bottom: "cont_4"
  top: "c_4"
  top: "h_4"
}
layer {
  name: "lstm2_h_conted_4"
  type: "Scale"
  bottom: "h_4"
  bottom: "cont_5"
  top: "h_conted_4"
  scale_param {
    axis: 0
  }
}
layer {
  name: "lstm2_transform_5"
  type: "InnerProduct"
  bottom: "h_conted_4"
  top: "W_hc_h_4"
  param {
    name: "W_hc"
  }
  inner_product_param {
    num_output: 400
    bias_term: false
    weight_filler {
      type: "xavier"
    }
    axis: 2
  }
}
layer {
  name: "lstm2_gate_input_5"
  type: "Eltwise"
  bottom: "W_hc_h_4"
  bottom: "W_xc_x_5"
  top: "gate_input_5"
  eltwise_param {
    operation: SUM
  }
}
layer {
  name: "lstm2_unit_5"
  type: "LSTMUnit"
  bottom: "c_4"
  bottom: "gate_input_5"
  bottom: "cont_5"
  top: "c_5"
  top: "h_5"
}
layer {
  name: "lstm2_h_conted_5"
  type: "Scale"
  bottom: "h_5"
  bottom: "cont_6"
  top: "h_conted_5"
  scale_param {
    axis: 0
  }
}
layer {
  name: "lstm2_transform_6"
  type: "InnerProduct"
  bottom: "h_conted_5"
  top: "W_hc_h_5"
  param {
    name: "W_hc"
  }
  inner_product_param {
    num_output: 400
    bias_term: false
    weight_filler {
      type: "xavier"
    }
    axis: 2
  }
}
layer {
  name: "lstm2_gate_input_6"
  type: "Eltwise"
  bottom: "W_hc_h_5"
  bottom: "W_xc_x_6"
  top: "gate_input_6"
  eltwise_param {
    operation: SUM
  }
}
layer {
  name: "lstm2_unit_6"
  type: "LSTMUnit"
  bottom: "c_5"
  bottom: "gate_input_6"
  bottom: "cont_6"
  top: "c_6"
  top: "h_6"
}
layer {
  name: "lstm2_h_conted_6"
  type: "Scale"
  bottom: "h_6"
  bottom: "cont_7"
  top: "h_conted_6"
  scale_param {
    axis: 0
  }
}
layer {
  name: "lstm2_transform_7"
  type: "InnerProduct"
  bottom: "h_conted_6"
  top: "W_hc_h_6"
  param {
    name: "W_hc"
  }
  inner_product_param {
    num_output: 400
    bias_term: false
    weight_filler {
      type: "xavier"
    }
    axis: 2
  }
}
layer {
  name: "lstm2_gate_input_7"
  type: "Eltwise"
  bottom: "W_hc_h_6"
  bottom: "W_xc_x_7"
  top: "gate_input_7"
  eltwise_param {
    operation: SUM
  }
}
layer {
  name: "lstm2_unit_7"
  type: "LSTMUnit"
  bottom: "c_6"
  bottom: "gate_input_7"
  bottom: "cont_7"
  top: "c_7"
  top: "h_7"
}
layer {
  name: "lstm2_h_conted_7"
  type: "Scale"
  bottom: "h_7"
  bottom: "cont_8"
  top: "h_conted_7"
  scale_param {
    axis: 0
  }
}
layer {
  name: "lstm2_transform_8"
  type: "InnerProduct"
  bottom: "h_conted_7"
  top: "W_hc_h_7"
  param {
    name: "W_hc"
  }
  inner_product_param {
    num_output: 400
    bias_term: false
    weight_filler {
      type: "xavier"
    }
    axis: 2
  }
}
layer {
  name: "lstm2_gate_input_8"
  type: "Eltwise"
  bottom: "W_hc_h_7"
  bottom: "W_xc_x_8"
  top: "gate_input_8"
  eltwise_param {
    operation: SUM
  }
}
layer {
  name: "lstm2_unit_8"
  type: "LSTMUnit"
  bottom: "c_7"
  bottom: "gate_input_8"
  bottom: "cont_8"
  top: "c_8"
  top: "h_8"
}
layer {
  name: "lstm2_h_conted_8"
  type: "Scale"
  bottom: "h_8"
  bottom: "cont_9"
  top: "h_conted_8"
  scale_param {
    axis: 0
  }
}
layer {
  name: "lstm2_transform_9"
  type: "InnerProduct"
  bottom: "h_conted_8"
  top: "W_hc_h_8"
  param {
    name: "W_hc"
  }
  inner_product_param {
    num_output: 400
    bias_term: false
    weight_filler {
      type: "xavier"
    }
    axis: 2
  }
}
layer {
  name: "lstm2_gate_input_9"
  type: "Eltwise"
  bottom: "W_hc_h_8"
  bottom: "W_xc_x_9"
  top: "gate_input_9"
  eltwise_param {
    operation: SUM
  }
}
layer {
  name: "lstm2_unit_9"
  type: "LSTMUnit"
  bottom: "c_8"
  bottom: "gate_input_9"
  bottom: "cont_9"
  top: "c_9"
  top: "h_9"
}
layer {
  name: "lstm2_h_conted_9"
  type: "Scale"
  bottom: "h_9"
  bottom: "cont_10"
  top: "h_conted_9"
  scale_param {
    axis: 0
  }
}
layer {
  name: "lstm2_transform_10"
  type: "InnerProduct"
  bottom: "h_conted_9"
  top: "W_hc_h_9"
  param {
    name: "W_hc"
  }
  inner_product_param {
    num_output: 400
    bias_term: false
    weight_filler {
      type: "xavier"
    }
    axis: 2
  }
}
layer {
  name: "lstm2_gate_input_10"
  type: "Eltwise"
  bottom: "W_hc_h_9"
  bottom: "W_xc_x_10"
  top: "gate_input_10"
  eltwise_param {
    operation: SUM
  }
}
layer {
  name: "lstm2_unit_10"
  type: "LSTMUnit"
  bottom: "c_9"
  bottom: "gate_input_10"
  bottom: "cont_10"
  top: "c_10"
  top: "h_10"
}
layer {
  name: "lstm2_h_conted_10"
  type: "Scale"
  bottom: "h_10"
  bottom: "cont_11"
  top: "h_conted_10"
  scale_param {
    axis: 0
  }
}
layer {
  name: "lstm2_transform_11"
  type: "InnerProduct"
  bottom: "h_conted_10"
  top: "W_hc_h_10"
  param {
    name: "W_hc"
  }
  inner_product_param {
    num_output: 400
    bias_term: false
    weight_filler {
      type: "xavier"
    }
    axis: 2
  }
}
layer {
  name: "lstm2_gate_input_11"
  type: "Eltwise"
  bottom: "W_hc_h_10"
  bottom: "W_xc_x_11"
  top: "gate_input_11"
  eltwise_param {
    operation: SUM
  }
}
layer {
  name: "lstm2_unit_11"
  type: "LSTMUnit"
  bottom: "c_10"
  bottom: "gate_input_11"
  bottom: "cont_11"
  top: "c_11"
  top: "h_11"
}
layer {
  name: "lstm2_h_conted_11"
  type: "Scale"
  bottom: "h_11"
  bottom: "cont_12"
  top: "h_conted_11"
  scale_param {
    axis: 0
  }
}
layer {
  name: "lstm2_transform_12"
  type: "InnerProduct"
  bottom: "h_conted_11"
  top: "W_hc_h_11"
  param {
    name: "W_hc"
  }
  inner_product_param {
    num_output: 400
    bias_term: false
    weight_filler {
      type: "xavier"
    }
    axis: 2
  }
}
layer {
  name: "lstm2_gate_input_12"
  type: "Eltwise"
  bottom: "W_hc_h_11"
  bottom: "W_xc_x_12"
  top: "gate_input_12"
  eltwise_param {
    operation: SUM
  }
}
layer {
  name: "lstm2_unit_12"
  type: "LSTMUnit"
  bottom: "c_11"
  bottom: "gate_input_12"
  bottom: "cont_12"
  top: "c_12"
  top: "h_12"
}
layer {
  name: "lstm2_h_conted_12"
  type: "Scale"
  bottom: "h_12"
  bottom: "cont_13"
  top: "h_conted_12"
  scale_param {
    axis: 0
  }
}
layer {
  name: "lstm2_transform_13"
  type: "InnerProduct"
  bottom: "h_conted_12"
  top: "W_hc_h_12"
  param {
    name: "W_hc"
  }
  inner_product_param {
    num_output: 400
    bias_term: false
    weight_filler {
      type: "xavier"
    }
    axis: 2
  }
}
layer {
  name: "lstm2_gate_input_13"
  type: "Eltwise"
  bottom: "W_hc_h_12"
  bottom: "W_xc_x_13"
  top: "gate_input_13"
  eltwise_param {
    operation: SUM
  }
}
layer {
  name: "lstm2_unit_13"
  type: "LSTMUnit"
  bottom: "c_12"
  bottom: "gate_input_13"
  bottom: "cont_13"
  top: "c_13"
  top: "h_13"
}
layer {
  name: "lstm2_h_conted_13"
  type: "Scale"
  bottom: "h_13"
  bottom: "cont_14"
  top: "h_conted_13"
  scale_param {
    axis: 0
  }
}
layer {
  name: "lstm2_transform_14"
  type: "InnerProduct"
  bottom: "h_conted_13"
  top: "W_hc_h_13"
  param {
    name: "W_hc"
  }
  inner_product_param {
    num_output: 400
    bias_term: false
    weight_filler {
      type: "xavier"
    }
    axis: 2
  }
}
layer {
  name: "lstm2_gate_input_14"
  type: "Eltwise"
  bottom: "W_hc_h_13"
  bottom: "W_xc_x_14"
  top: "gate_input_14"
  eltwise_param {
    operation: SUM
  }
}
layer {
  name: "lstm2_unit_14"
  type: "LSTMUnit"
  bottom: "c_13"
  bottom: "gate_input_14"
  bottom: "cont_14"
  top: "c_14"
  top: "h_14"
}
layer {
  name: "lstm2_h_conted_14"
  type: "Scale"
  bottom: "h_14"
  bottom: "cont_15"
  top: "h_conted_14"
  scale_param {
    axis: 0
  }
}
layer {
  name: "lstm2_transform_15"
  type: "InnerProduct"
  bottom: "h_conted_14"
  top: "W_hc_h_14"
  param {
    name: "W_hc"
  }
  inner_product_param {
    num_output: 400
    bias_term: false
    weight_filler {
      type: "xavier"
    }
    axis: 2
  }
}
layer {
  name: "lstm2_gate_input_15"
  type: "Eltwise"
  bottom: "W_hc_h_14"
  bottom: "W_xc_x_15"
  top: "gate_input_15"
  eltwise_param {
    operation: SUM
  }
}
layer {
  name: "lstm2_unit_15"
  type: "LSTMUnit"
  bottom: "c_14"
  bottom: "gate_input_15"
  bottom: "cont_15"
  top: "c_15"
  top: "h_15"
}
layer {
  name: "lstm2_h_conted_15"
  type: "Scale"
  bottom: "h_15"
  bottom: "cont_16"
  top: "h_conted_15"
  scale_param {
    axis: 0
  }
}
layer {
  name: "lstm2_transform_16"
  type: "InnerProduct"
  bottom: "h_conted_15"
  top: "W_hc_h_15"
  param {
    name: "W_hc"
  }
  inner_product_param {
    num_output: 400
    bias_term: false
    weight_filler {
      type: "xavier"
    }
    axis: 2
  }
}
layer {
  name: "lstm2_gate_input_16"
  type: "Eltwise"
  bottom: "W_hc_h_15"
  bottom: "W_xc_x_16"
  top: "gate_input_16"
  eltwise_param {
    operation: SUM
  }
}
layer {
  name: "lstm2_unit_16"
  type: "LSTMUnit"
  bottom: "c_15"
  bottom: "gate_input_16"
  bottom: "cont_16"
  top: "c_16"
  top: "h_16"
}
layer {
  name: "lstm2_h_conted_16"
  type: "Scale"
  bottom: "h_16"
  bottom: "cont_17"
  top: "h_conted_16"
  scale_param {
    axis: 0
  }
}
layer {
  name: "lstm2_transform_17"
  type: "InnerProduct"
  bottom: "h_conted_16"
  top: "W_hc_h_16"
  param {
    name: "W_hc"
  }
  inner_product_param {
    num_output: 400
    bias_term: false
    weight_filler {
      type: "xavier"
    }
    axis: 2
  }
}
layer {
  name: "lstm2_gate_input_17"
  type: "Eltwise"
  bottom: "W_hc_h_16"
  bottom: "W_xc_x_17"
  top: "gate_input_17"
  eltwise_param {
    operation: SUM
  }
}
layer {
  name: "lstm2_unit_17"
  type: "LSTMUnit"
  bottom: "c_16"
  bottom: "gate_input_17"
  bottom: "cont_17"
  top: "c_17"
  top: "h_17"
}
layer {
  name: "lstm2_h_conted_17"
  type: "Scale"
  bottom: "h_17"
  bottom: "cont_18"
  top: "h_conted_17"
  scale_param {
    axis: 0
  }
}
layer {
  name: "lstm2_transform_18"
  type: "InnerProduct"
  bottom: "h_conted_17"
  top: "W_hc_h_17"
  param {
    name: "W_hc"
  }
  inner_product_param {
    num_output: 400
    bias_term: false
    weight_filler {
      type: "xavier"
    }
    axis: 2
  }
}
layer {
  name: "lstm2_gate_input_18"
  type: "Eltwise"
  bottom: "W_hc_h_17"
  bottom: "W_xc_x_18"
  top: "gate_input_18"
  eltwise_param {
    operation: SUM
  }
}
layer {
  name: "lstm2_unit_18"
  type: "LSTMUnit"
  bottom: "c_17"
  bottom: "gate_input_18"
  bottom: "cont_18"
  top: "c_18"
  top: "h_18"
}
layer {
  name: "lstm2_h_conted_18"
  type: "Scale"
  bottom: "h_18"
  bottom: "cont_19"
  top: "h_conted_18"
  scale_param {
    axis: 0
  }
}
layer {
  name: "lstm2_transform_19"
  type: "InnerProduct"
  bottom: "h_conted_18"
  top: "W_hc_h_18"
  param {
    name: "W_hc"
  }
  inner_product_param {
    num_output: 400
    bias_term: false
    weight_filler {
      type: "xavier"
    }
    axis: 2
  }
}
layer {
  name: "lstm2_gate_input_19"
  type: "Eltwise"
  bottom: "W_hc_h_18"
  bottom: "W_xc_x_19"
  top: "gate_input_19"
  eltwise_param {
    operation: SUM
  }
}
layer {
  name: "lstm2_unit_19"
  type: "LSTMUnit"
  bottom: "c_18"
  bottom: "gate_input_19"
  bottom: "cont_19"
  top: "c_19"
  top: "h_19"
}
layer {
  name: "lstm2_h_conted_19"
  type: "Scale"
  bottom: "h_19"
  bottom: "cont_20"
  top: "h_conted_19"
  scale_param {
    axis: 0
  }
}
layer {
  name: "lstm2_transform_20"
  type: "InnerProduct"
  bottom: "h_conted_19"
  top: "W_hc_h_19"
  param {
    name: "W_hc"
  }
  inner_product_param {
    num_output: 400
    bias_term: false
    weight_filler {
      type: "xavier"
    }
    axis: 2
  }
}
layer {
  name: "lstm2_gate_input_20"
  type: "Eltwise"
  bottom: "W_hc_h_19"
  bottom: "W_xc_x_20"
  top: "gate_input_20"
  eltwise_param {
    operation: SUM
  }
}
layer {
  name: "lstm2_unit_20"
  type: "LSTMUnit"
  bottom: "c_19"
  bottom: "gate_input_20"
  bottom: "cont_20"
  top: "c_20"
  top: "h_20"
}
layer {
  name: "lstm2_h_conted_20"
  type: "Scale"
  bottom: "h_20"
  bottom: "cont_21"
  top: "h_conted_20"
  scale_param {
    axis: 0
  }
}
layer {
  name: "lstm2_transform_21"
  type: "InnerProduct"
  bottom: "h_conted_20"
  top: "W_hc_h_20"
  param {
    name: "W_hc"
  }
  inner_product_param {
    num_output: 400
    bias_term: false
    weight_filler {
      type: "xavier"
    }
    axis: 2
  }
}
layer {
  name: "lstm2_gate_input_21"
  type: "Eltwise"
  bottom: "W_hc_h_20"
  bottom: "W_xc_x_21"
  top: "gate_input_21"
  eltwise_param {
    operation: SUM
  }
}
layer {
  name: "lstm2_unit_21"
  type: "LSTMUnit"
  bottom: "c_20"
  bottom: "gate_input_21"
  bottom: "cont_21"
  top: "c_21"
  top: "h_21"
}
layer {
  name: "lstm2_h_conted_21"
  type: "Scale"
  bottom: "h_21"
  bottom: "cont_22"
  top: "h_conted_21"
  scale_param {
    axis: 0
  }
}
layer {
  name: "lstm2_transform_22"
  type: "InnerProduct"
  bottom: "h_conted_21"
  top: "W_hc_h_21"
  param {
    name: "W_hc"
  }
  inner_product_param {
    num_output: 400
    bias_term: false
    weight_filler {
      type: "xavier"
    }
    axis: 2
  }
}
layer {
  name: "lstm2_gate_input_22"
  type: "Eltwise"
  bottom: "W_hc_h_21"
  bottom: "W_xc_x_22"
  top: "gate_input_22"
  eltwise_param {
    operation: SUM
  }
}
layer {
  name: "lstm2_unit_22"
  type: "LSTMUnit"
  bottom: "c_21"
  bottom: "gate_input_22"
  bottom: "cont_22"
  top: "c_22"
  top: "h_22"
}
layer {
  name: "lstm2_h_conted_22"
  type: "Scale"
  bottom: "h_22"
  bottom: "cont_23"
  top: "h_conted_22"
  scale_param {
    axis: 0
  }
}
layer {
  name: "lstm2_transform_23"
  type: "InnerProduct"
  bottom: "h_conted_22"
  top: "W_hc_h_22"
  param {
    name: "W_hc"
  }
  inner_product_param {
    num_output: 400
    bias_term: false
    weight_filler {
      type: "xavier"
    }
    axis: 2
  }
}
layer {
  name: "lstm2_gate_input_23"
  type: "Eltwise"
  bottom: "W_hc_h_22"
  bottom: "W_xc_x_23"
  top: "gate_input_23"
  eltwise_param {
    operation: SUM
  }
}
layer {
  name: "lstm2_unit_23"
  type: "LSTMUnit"
  bottom: "c_22"
  bottom: "gate_input_23"
  bottom: "cont_23"
  top: "c_23"
  top: "h_23"
}
layer {
  name: "lstm2_h_conted_23"
  type: "Scale"
  bottom: "h_23"
  bottom: "cont_24"
  top: "h_conted_23"
  scale_param {
    axis: 0
  }
}
layer {
  name: "lstm2_transform_24"
  type: "InnerProduct"
  bottom: "h_conted_23"
  top: "W_hc_h_23"
  param {
    name: "W_hc"
  }
  inner_product_param {
    num_output: 400
    bias_term: false
    weight_filler {
      type: "xavier"
    }
    axis: 2
  }
}
layer {
  name: "lstm2_gate_input_24"
  type: "Eltwise"
  bottom: "W_hc_h_23"
  bottom: "W_xc_x_24"
  top: "gate_input_24"
  eltwise_param {
    operation: SUM
  }
}
layer {
  name: "lstm2_unit_24"
  type: "LSTMUnit"
  bottom: "c_23"
  bottom: "gate_input_24"
  bottom: "cont_24"
  top: "c_24"
  top: "h_24"
}
layer {
  name: "lstm2_h_conted_24"
  type: "Scale"
  bottom: "h_24"
  bottom: "cont_25"
  top: "h_conted_24"
  scale_param {
    axis: 0
  }
}
layer {
  name: "lstm2_transform_25"
  type: "InnerProduct"
  bottom: "h_conted_24"
  top: "W_hc_h_24"
  param {
    name: "W_hc"
  }
  inner_product_param {
    num_output: 400
    bias_term: false
    weight_filler {
      type: "xavier"
    }
    axis: 2
  }
}
layer {
  name: "lstm2_gate_input_25"
  type: "Eltwise"
  bottom: "W_hc_h_24"
  bottom: "W_xc_x_25"
  top: "gate_input_25"
  eltwise_param {
    operation: SUM
  }
}
layer {
  name: "lstm2_unit_25"
  type: "LSTMUnit"
  bottom: "c_24"
  bottom: "gate_input_25"
  bottom: "cont_25"
  top: "c_25"
  top: "h_25"
}
layer {
  name: "lstm2_h_conted_25"
  type: "Scale"
  bottom: "h_25"
  bottom: "cont_26"
  top: "h_conted_25"
  scale_param {
    axis: 0
  }
}
layer {
  name: "lstm2_transform_26"
  type: "InnerProduct"
  bottom: "h_conted_25"
  top: "W_hc_h_25"
  param {
    name: "W_hc"
  }
  inner_product_param {
    num_output: 400
    bias_term: false
    weight_filler {
      type: "xavier"
    }
    axis: 2
  }
}
layer {
  name: "lstm2_gate_input_26"
  type: "Eltwise"
  bottom: "W_hc_h_25"
  bottom: "W_xc_x_26"
  top: "gate_input_26"
  eltwise_param {
    operation: SUM
  }
}
layer {
  name: "lstm2_unit_26"
  type: "LSTMUnit"
  bottom: "c_25"
  bottom: "gate_input_26"
  bottom: "cont_26"
  top: "c_26"
  top: "h_26"
}
layer {
  name: "lstm2_h_conted_26"
  type: "Scale"
  bottom: "h_26"
  bottom: "cont_27"
  top: "h_conted_26"
  scale_param {
    axis: 0
  }
}
layer {
  name: "lstm2_transform_27"
  type: "InnerProduct"
  bottom: "h_conted_26"
  top: "W_hc_h_26"
  param {
    name: "W_hc"
  }
  inner_product_param {
    num_output: 400
    bias_term: false
    weight_filler {
      type: "xavier"
    }
    axis: 2
  }
}
layer {
  name: "lstm2_gate_input_27"
  type: "Eltwise"
  bottom: "W_hc_h_26"
  bottom: "W_xc_x_27"
  top: "gate_input_27"
  eltwise_param {
    operation: SUM
  }
}
layer {
  name: "lstm2_unit_27"
  type: "LSTMUnit"
  bottom: "c_26"
  bottom: "gate_input_27"
  bottom: "cont_27"
  top: "c_27"
  top: "h_27"
}
layer {
  name: "lstm2_h_conted_27"
  type: "Scale"
  bottom: "h_27"
  bottom: "cont_28"
  top: "h_conted_27"
  scale_param {
    axis: 0
  }
}
layer {
  name: "lstm2_transform_28"
  type: "InnerProduct"
  bottom: "h_conted_27"
  top: "W_hc_h_27"
  param {
    name: "W_hc"
  }
  inner_product_param {
    num_output: 400
    bias_term: false
    weight_filler {
      type: "xavier"
    }
    axis: 2
  }
}
layer {
  name: "lstm2_gate_input_28"
  type: "Eltwise"
  bottom: "W_hc_h_27"
  bottom: "W_xc_x_28"
  top: "gate_input_28"
  eltwise_param {
    operation: SUM
  }
}
layer {
  name: "lstm2_unit_28"
  type: "LSTMUnit"
  bottom: "c_27"
  bottom: "gate_input_28"
  bottom: "cont_28"
  top: "c_28"
  top: "h_28"
}
layer {
  name: "lstm2_h_conted_28"
  type: "Scale"
  bottom: "h_28"
  bottom: "cont_29"
  top: "h_conted_28"
  scale_param {
    axis: 0
  }
}
layer {
  name: "lstm2_transform_29"
  type: "InnerProduct"
  bottom: "h_conted_28"
  top: "W_hc_h_28"
  param {
    name: "W_hc"
  }
  inner_product_param {
    num_output: 400
    bias_term: false
    weight_filler {
      type: "xavier"
    }
    axis: 2
  }
}
layer {
  name: "lstm2_gate_input_29"
  type: "Eltwise"
  bottom: "W_hc_h_28"
  bottom: "W_xc_x_29"
  top: "gate_input_29"
  eltwise_param {
    operation: SUM
  }
}
layer {
  name: "lstm2_unit_29"
  type: "LSTMUnit"
  bottom: "c_28"
  bottom: "gate_input_29"
  bottom: "cont_29"
  top: "c_29"
  top: "h_29"
}
layer {
  name: "lstm2_h_conted_29"
  type: "Scale"
  bottom: "h_29"
  bottom: "cont_30"
  top: "h_conted_29"
  scale_param {
    axis: 0
  }
}
layer {
  name: "lstm2_transform_30"
  type: "InnerProduct"
  bottom: "h_conted_29"
  top: "W_hc_h_29"
  param {
    name: "W_hc"
  }
  inner_product_param {
    num_output: 400
    bias_term: false
    weight_filler {
      type: "xavier"
    }
    axis: 2
  }
}
layer {
  name: "lstm2_gate_input_30"
  type: "Eltwise"
  bottom: "W_hc_h_29"
  bottom: "W_xc_x_30"
  top: "gate_input_30"
  eltwise_param {
    operation: SUM
  }
}
layer {
  name: "lstm2_unit_30"
  type: "LSTMUnit"
  bottom: "c_29"
  bottom: "gate_input_30"
  bottom: "cont_30"
  top: "c_30"
  top: "h_30"
}
layer {
  name: "lstm2_h_conted_30"
  type: "Scale"
  bottom: "h_30"
  bottom: "cont_31"
  top: "h_conted_30"
  scale_param {
    axis: 0
  }
}
layer {
  name: "lstm2_transform_31"
  type: "InnerProduct"
  bottom: "h_conted_30"
  top: "W_hc_h_30"
  param {
    name: "W_hc"
  }
  inner_product_param {
    num_output: 400
    bias_term: false
    weight_filler {
      type: "xavier"
    }
    axis: 2
  }
}
layer {
  name: "lstm2_gate_input_31"
  type: "Eltwise"
  bottom: "W_hc_h_30"
  bottom: "W_xc_x_31"
  top: "gate_input_31"
  eltwise_param {
    operation: SUM
  }
}
layer {
  name: "lstm2_unit_31"
  type: "LSTMUnit"
  bottom: "c_30"
  bottom: "gate_input_31"
  bottom: "cont_31"
  top: "c_31"
  top: "h_31"
}
layer {
  name: "lstm2_h_conted_31"
  type: "Scale"
  bottom: "h_31"
  bottom: "cont_32"
  top: "h_conted_31"
  scale_param {
    axis: 0
  }
}
layer {
  name: "lstm2_transform_32"
  type: "InnerProduct"
  bottom: "h_conted_31"
  top: "W_hc_h_31"
  param {
    name: "W_hc"
  }
  inner_product_param {
    num_output: 400
    bias_term: false
    weight_filler {
      type: "xavier"
    }
    axis: 2
  }
}
layer {
  name: "lstm2_gate_input_32"
  type: "Eltwise"
  bottom: "W_hc_h_31"
  bottom: "W_xc_x_32"
  top: "gate_input_32"
  eltwise_param {
    operation: SUM
  }
}
layer {
  name: "lstm2_unit_32"
  type: "LSTMUnit"
  bottom: "c_31"
  bottom: "gate_input_32"
  bottom: "cont_32"
  top: "c_32"
  top: "h_32"
}
layer {
  name: "lstm2_h_conted_32"
  type: "Scale"
  bottom: "h_32"
  bottom: "cont_33"
  top: "h_conted_32"
  scale_param {
    axis: 0
  }
}
layer {
  name: "lstm2_transform_33"
  type: "InnerProduct"
  bottom: "h_conted_32"
  top: "W_hc_h_32"
  param {
    name: "W_hc"
  }
  inner_product_param {
    num_output: 400
    bias_term: false
    weight_filler {
      type: "xavier"
    }
    axis: 2
  }
}
layer {
  name: "lstm2_gate_input_33"
  type: "Eltwise"
  bottom: "W_hc_h_32"
  bottom: "W_xc_x_33"
  top: "gate_input_33"
  eltwise_param {
    operation: SUM
  }
}
layer {
  name: "lstm2_unit_33"
  type: "LSTMUnit"
  bottom: "c_32"
  bottom: "gate_input_33"
  bottom: "cont_33"
  top: "c_33"
  top: "h_33"
}
layer {
  name: "lstm2_h_conted_33"
  type: "Scale"
  bottom: "h_33"
  bottom: "cont_34"
  top: "h_conted_33"
  scale_param {
    axis: 0
  }
}
layer {
  name: "lstm2_transform_34"
  type: "InnerProduct"
  bottom: "h_conted_33"
  top: "W_hc_h_33"
  param {
    name: "W_hc"
  }
  inner_product_param {
    num_output: 400
    bias_term: false
    weight_filler {
      type: "xavier"
    }
    axis: 2
  }
}
layer {
  name: "lstm2_gate_input_34"
  type: "Eltwise"
  bottom: "W_hc_h_33"
  bottom: "W_xc_x_34"
  top: "gate_input_34"
  eltwise_param {
    operation: SUM
  }
}
layer {
  name: "lstm2_unit_34"
  type: "LSTMUnit"
  bottom: "c_33"
  bottom: "gate_input_34"
  bottom: "cont_34"
  top: "c_34"
  top: "h_34"
}
layer {
  name: "lstm2_h_conted_34"
  type: "Scale"
  bottom: "h_34"
  bottom: "cont_35"
  top: "h_conted_34"
  scale_param {
    axis: 0
  }
}
layer {
  name: "lstm2_transform_35"
  type: "InnerProduct"
  bottom: "h_conted_34"
  top: "W_hc_h_34"
  param {
    name: "W_hc"
  }
  inner_product_param {
    num_output: 400
    bias_term: false
    weight_filler {
      type: "xavier"
    }
    axis: 2
  }
}
layer {
  name: "lstm2_gate_input_35"
  type: "Eltwise"
  bottom: "W_hc_h_34"
  bottom: "W_xc_x_35"
  top: "gate_input_35"
  eltwise_param {
    operation: SUM
  }
}
layer {
  name: "lstm2_unit_35"
  type: "LSTMUnit"
  bottom: "c_34"
  bottom: "gate_input_35"
  bottom: "cont_35"
  top: "c_35"
  top: "h_35"
}
layer {
  name: "lstm2_h_conted_35"
  type: "Scale"
  bottom: "h_35"
  bottom: "cont_36"
  top: "h_conted_35"
  scale_param {
    axis: 0
  }
}
layer {
  name: "lstm2_transform_36"
  type: "InnerProduct"
  bottom: "h_conted_35"
  top: "W_hc_h_35"
  param {
    name: "W_hc"
  }
  inner_product_param {
    num_output: 400
    bias_term: false
    weight_filler {
      type: "xavier"
    }
    axis: 2
  }
}
layer {
  name: "lstm2_gate_input_36"
  type: "Eltwise"
  bottom: "W_hc_h_35"
  bottom: "W_xc_x_36"
  top: "gate_input_36"
  eltwise_param {
    operation: SUM
  }
}
layer {
  name: "lstm2_unit_36"
  type: "LSTMUnit"
  bottom: "c_35"
  bottom: "gate_input_36"
  bottom: "cont_36"
  top: "c_36"
  top: "h_36"
}
layer {
  name: "lstm2_h_conted_36"
  type: "Scale"
  bottom: "h_36"
  bottom: "cont_37"
  top: "h_conted_36"
  scale_param {
    axis: 0
  }
}
layer {
  name: "lstm2_transform_37"
  type: "InnerProduct"
  bottom: "h_conted_36"
  top: "W_hc_h_36"
  param {
    name: "W_hc"
  }
  inner_product_param {
    num_output: 400
    bias_term: false
    weight_filler {
      type: "xavier"
    }
   
I0505 16:08:17.504679 32309 layer_factory.hpp:77] Creating layer lstm2_
I0505 16:08:17.504709 32309 net.cpp:86] Creating Layer lstm2_
I0505 16:08:17.504715 32309 net.cpp:382] lstm2_ -> x
I0505 16:08:17.504726 32309 net.cpp:382] lstm2_ -> cont
I0505 16:08:17.504861 32309 net.cpp:124] Setting up lstm2_
I0505 16:08:17.504868 32309 net.cpp:131] Top shape: 80 512 100 (4096000)
I0505 16:08:17.504874 32309 net.cpp:131] Top shape: 80 512 (40960)
I0505 16:08:17.504878 32309 net.cpp:139] Memory required for data: 16547840
I0505 16:08:17.504881 32309 layer_factory.hpp:77] Creating layer lstm2_
I0505 16:08:17.504889 32309 net.cpp:86] Creating Layer lstm2_
I0505 16:08:17.504894 32309 net.cpp:382] lstm2_ -> c_0
I0505 16:08:17.504901 32309 net.cpp:382] lstm2_ -> h_0
I0505 16:08:17.504947 32309 net.cpp:124] Setting up lstm2_
I0505 16:08:17.504952 32309 net.cpp:131] Top shape: 1 512 100 (51200)
I0505 16:08:17.504957 32309 net.cpp:131] Top shape: 1 512 100 (51200)
I0505 16:08:17.504962 32309 net.cpp:139] Memory required for data: 16957440
I0505 16:08:17.504966 32309 layer_factory.hpp:77] Creating layer lstm2_cont_slice
I0505 16:08:17.504978 32309 net.cpp:86] Creating Layer lstm2_cont_slice
I0505 16:08:17.504981 32309 net.cpp:408] lstm2_cont_slice <- cont
I0505 16:08:17.504992 32309 net.cpp:382] lstm2_cont_slice -> cont_1
I0505 16:08:17.505003 32309 net.cpp:382] lstm2_cont_slice -> cont_2
…
I0505 16:08:17.666680 32309 net.cpp:53] Initializing net from parameters: 
name: "vehicle_plate_test"
state {
  phase: TEST
}
layer {
  name: "data"
  type: "Python"
  top: "data"
  top: "label"
  python_param {
    module: "pythonLayer"
    layer: "PlateDataLayer"
    param_str: "{\'width\': 80, \'label_txt\': \'data/plate/test.txt\', \'train\': False, \'batch_size\': 512, \'height\': 30}"
  }
}
layer {
  name: "indicator"
  type: "ContinuationIndicator"
  top: "indicator"
  continuation_indicator_param {
    time_step: 80
    batch_size: 512
  }
}
layer {
  name: "permuted_data"
  type: "Permute"
  bottom: "data"
  top: "permuted_data"
  permute_param {
    order: 3
    order: 0
    order: 1
    order: 2
  }
}
layer {
  name: "lstm1"
  type: "LSTM"
  bottom: "permuted_data"
  bottom: "indicator"
  top: "lstm1"
  recurrent_param {
    num_output: 100
    weight_filler {
      type: "xavier"
    }
    bias_filler {
      type: "constant"
      value: 0
    }
  }
}
layer {
  name: "lstm2"
  type: "LSTM"
  bottom: "lstm1"
  bottom: "indicator"
  top: "lstm2"
  recurrent_param {
    num_output: 100
    weight_filler {
      type: "xavier"
    }
    bias_filler {
      type: "constant"
      value: 0
    }
  }
}
layer {
  name: "fc1"
  type: "InnerProduct"
  bottom: "lstm2"
  top: "fc1"
  param {
    lr_mult: 1
    decay_mult: 1
  }
  param {
    lr_mult: 2
    decay_mult: 0
  }
  inner_product_param {
    num_output: 34
    weight_filler {
      type: "xavier"
    }
    bias_filler {
      type: "constant"
      value: 0
    }
    axis: 2
  }
}
layer {
  name: "ctc_loss"
  type: "CtcLoss"
  bottom: "fc1"
  bottom: "label"
  top: "ctc_loss"
  loss_weight: 1
  ctc_loss_param {
    alphabet_size: 34
    time_step: 80
    blank_label: 10
  }
}
layer {
  name: "premuted_fc"
  type: "Permute"
  bottom: "fc1"
  top: "premuted_fc"
  permute_param {
    order: 1
    order: 0
    order: 2
  }
}
layer {
  name: "accuracy"
  type: "LabelsequenceAccuracy"
  bottom: "premuted_fc"
  bottom: "label"
  top: "accuracy"
  labelsequence_accuracy_param {
    blank_label: 10
  }
}
I0505 16:08:17.666831 32309 layer_factory.hpp:77] Creating layer data
I0505 16:08:17.666887 32309 net.cpp:86] Creating Layer data
I0505 16:08:17.666895 32309 net.cpp:382] data -> data
I0505 16:08:17.666903 32309 net.cpp:382] data -> label
I0505 16:08:17.681874 32309 net.cpp:124] Setting up data
I0505 16:08:17.681906 32309 net.cpp:131] Top shape: 512 3 30 80 (3686400)
I0505 16:08:17.681921 32309 net.cpp:131] Top shape: 512 7 (3584)
I0505 16:08:17.681927 32309 net.cpp:139] Memory required for data: 14759936
I0505 16:08:17.681936 32309 layer_factory.hpp:77] Creating layer label_data_1_split
I0505 16:08:17.681989 32309 net.cpp:86] Creating Layer label_data_1_split
I0505 16:08:17.681998 32309 net.cpp:408] label_data_1_split <- label
I0505 16:08:17.682014 32309 net.cpp:382] label_data_1_split -> label_data_1_split_0
I0505 16:08:17.682032 32309 net.cpp:382] label_data_1_split -> label_data_1_split_1
I0505 16:08:17.682111 32309 net.cpp:124] Setting up label_data_1_split
I0505 16:08:17.682118 32309 net.cpp:131] Top shape: 512 7 (3584)
I0505 16:08:17.682124 32309 net.cpp:131] Top shape: 512 7 (3584)
I0505 16:08:17.682130 32309 net.cpp:139] Memory required for data: 14788608
I0505 16:08:17.682134 32309 layer_factory.hpp:77] Creating layer indicator
I0505 16:08:17.682143 32309 net.cpp:86] Creating Layer indicator
I0505 16:08:17.682149 32309 net.cpp:382] indicator -> indicator
I0505 16:08:17.682179 32309 net.cpp:124] Setting up indicator
I0505 16:08:17.682185 32309 net.cpp:131] Top shape: 80 512 (40960)
I0505 16:08:17.682190 32309 net.cpp:139] Memory required for data: 14952448
I0505 16:08:17.682194 32309 layer_factory.hpp:77] Creating layer indicator_indicator_0_split
I0505 16:08:17.682202 32309 net.cpp:86] Creating Layer indicator_indicator_0_split
I0505 16:08:17.682206 32309 net.cpp:408] indicator_indicator_0_split <- indicator
I0505 16:08:17.682214 32309 net.cpp:382] indicator_indicator_0_split -> indicator_indicator_0_split_0
I0505 16:08:17.682224 32309 net.cpp:382] indicator_indicator_0_split -> indicator_indicator_0_split_1
I0505 16:08:17.682263 32309 net.cpp:124] Setting up indicator_indicator_0_split
I0505 16:08:17.682268 32309 net.cpp:131] Top shape: 80 512 (40960)
I0505 16:08:17.682272 32309 net.cpp:131] Top shape: 80 512 (40960)
I0505 16:08:17.682276 32309 net.cpp:139] Memory required for data: 15280128
I0505 16:08:17.682278 32309 layer_factory.hpp:77] Creating layer permuted_data
I0505 16:08:17.682289 32309 net.cpp:86] Creating Layer permuted_data
I0505 16:08:17.682293 32309 net.cpp:408] permuted_data <- data
I0505 16:08:17.682301 32309 net.cpp:382] permuted_data -> permuted_data
I0505 16:08:17.682404 32309 net.cpp:124] Setting up permuted_data
I0505 16:08:17.682409 32309 net.cpp:131] Top shape: 80 512 3 30 (3686400)
I0505 16:08:17.682413 32309 net.cpp:139] Memory required for data: 30025728
I0505 16:08:17.682416 32309 layer_factory.hpp:77] Creating layer lstm1
I0505 16:08:17.682426 32309 net.cpp:86] Creating Layer lstm1
I0505 16:08:17.682430 32309 net.cpp:408] lstm1 <- permuted_data
I0505 16:08:17.682435 32309 net.cpp:408] lstm1 <- indicator_indicator_0_split_0
I0505 16:08:17.682440 32309 net.cpp:382] lstm1 -> lstm1
I0505 16:08:17.682449 32309 recurrent_layer.cpp:20] Initializing recurrent layer: assuming input batch contains 80 timesteps of 512 independent streams.
I0505 16:08:17.683771 32309 net.cpp:53] Initializing net from parameters: 
layer {
  name: "lstm1_"
  type: "Input"
  top: "x"
  top: "cont"
  input_param {
    shape {
      dim: 80
      dim: 512
      dim: 3
      dim: 30
    }
    shape {
      dim: 80
      dim: 512
    }
  }
}
layer {
  name: "lstm1_"
  type: "Input"
  top: "c_0"
  top: "h_0"
  input_param {
    shape {
      dim: 1
      dim: 512
      dim: 100
    }
    shape {
      dim: 1
      dim: 512
      dim: 100
    }
  }
}
layer {
  name: "lstm1_cont_slice"
  type: "Slice"
  bottom: "cont"
  top: "cont_1"
  top: "cont_2"
  top: "cont_3"
  top: "cont_4"
  top: "cont_5"
  top: "cont_6"
  top: "cont_7"
  top: "cont_8"
  top: "cont_9"
  top: "cont_10"
  top: "cont_11"
  top: "cont_12"
  top: "cont_13"
  top: "cont_14"
  top: "cont_15"
  top: "cont_16"
  top: "cont_17"
  top: "cont_18"
  top: "cont_19"
  top: "cont_20"
  top: "cont_21"
  top: "cont_22"
  top: "cont_23"
  top: "cont_24"
  top: "cont_25"
  top: "cont_26"
  top: "cont_27"
  top: "cont_28"
  top: "cont_29"
  top: "cont_30"
  top: "cont_31"
  top: "cont_32"
  top: "cont_33"
  top: "cont_34"
  top: "cont_35"
  top: "cont_36"
  top: "cont_37"
  top: "cont_38"
  top: "cont_39"
  top: "cont_40"
  top: "cont_41"
  top: "cont_42"
  top: "cont_43"
  top: "cont_44"
  top: "cont_45"
  top: "cont_46"
  top: "cont_47"
  top: "cont_48"
  top: "cont_49"
  top: "cont_50"
  top: "cont_51"
  top: "cont_52"
  top: "cont_53"
  top: "cont_54"
  top: "cont_55"
  top: "cont_56"
  top: "cont_57"
  top: "cont_58"
  top: "cont_59"
  top: "cont_60"
  top: "cont_61"
  top: "cont_62"
  top: "cont_63"
  top: "cont_64"
  top: "cont_65"
  top: "cont_66"
  top: "cont_67"
  top: "cont_68"
  top: "cont_69"
  top: "cont_70"
  top: "cont_71"
  top: "cont_72"
  top: "cont_73"
  top: "cont_74"
  top: "cont_75"
  top: "cont_76"
  top: "cont_77"
  top: "cont_78"
  top: "cont_79"
  top: "cont_80"
  slice_param {
    axis: 0
  }
}
layer {
  name: "lstm1_x_transform"
  type: "InnerProduct"
  bottom: "x"
  top: "W_xc_x"
  param {
    name: "W_xc"
  }
  param {
    name: "b_c"
  }
  propagate_down: true
  inner_product_param {
    num_output: 400
    bias_term: true
    weight_filler {
      type: "xavier"
    }
    bias_filler {
      type: "constant"
      value: 0
    }
    axis: 2
  }
}
layer {
  name: "lstm1_W_xc_x_slice"
  type: "Slice"
  bottom: "W_xc_x"
  top: "W_xc_x_1"
  top: "W_xc_x_2"
  top: "W_xc_x_3"
  top: "W_xc_x_4"
  top: "W_xc_x_5"
  top: "W_xc_x_6"
  top: "W_xc_x_7"
  top: "W_xc_x_8"
  top: "W_xc_x_9"
  top: "W_xc_x_10"
  top: "W_xc_x_11"
  top: "W_xc_x_12"
  top: "W_xc_x_13"
  top: "W_xc_x_14"
  top: "W_xc_x_15"
  top: "W_xc_x_16"
  top: "W_xc_x_17"
  top: "W_xc_x_18"
  top: "W_xc_x_19"
  top: "W_xc_x_20"
  top: "W_xc_x_21"
  top: "W_xc_x_22"
…
I0505 16:08:18.056485 32309 net.cpp:202] lstm2_ does not need backward computation.
I0505 16:08:18.056488 32309 net.cpp:244] This network produces output c_T
I0505 16:08:18.056494 32309 net.cpp:244] This network produces output h_pseudoloss
I0505 16:08:18.060847 32309 net.cpp:257] Network initialization done.
I0505 16:08:18.062466 32309 recurrent_layer.cpp:150] Adding parameter 0: W_xc
I0505 16:08:18.062482 32309 recurrent_layer.cpp:150] Adding parameter 1: b_c
I0505 16:08:18.062485 32309 recurrent_layer.cpp:150] Adding parameter 2: W_hc
I0505 16:08:18.066356 32309 net.cpp:124] Setting up lstm2
I0505 16:08:18.066395 32309 net.cpp:131] Top shape: 80 512 100 (4096000)
I0505 16:08:18.066408 32309 net.cpp:139] Memory required for data: 62793728
I0505 16:08:18.066426 32309 layer_factory.hpp:77] Creating layer fc1
I0505 16:08:18.066445 32309 net.cpp:86] Creating Layer fc1
I0505 16:08:18.066452 32309 net.cpp:408] fc1 <- lstm2
I0505 16:08:18.066462 32309 net.cpp:382] fc1 -> fc1
I0505 16:08:18.066731 32309 net.cpp:124] Setting up fc1
I0505 16:08:18.066740 32309 net.cpp:131] Top shape: 80 512 34 (1392640)
I0505 16:08:18.066746 32309 net.cpp:139] Memory required for data: 68364288
I0505 16:08:18.066753 32309 layer_factory.hpp:77] Creating layer fc1_fc1_0_split
I0505 16:08:18.066768 32309 net.cpp:86] Creating Layer fc1_fc1_0_split
I0505 16:08:18.066772 32309 net.cpp:408] fc1_fc1_0_split <- fc1
I0505 16:08:18.066777 32309 net.cpp:382] fc1_fc1_0_split -> fc1_fc1_0_split_0
I0505 16:08:18.066785 32309 net.cpp:382] fc1_fc1_0_split -> fc1_fc1_0_split_1
I0505 16:08:18.066823 32309 net.cpp:124] Setting up fc1_fc1_0_split
I0505 16:08:18.066828 32309 net.cpp:131] Top shape: 80 512 34 (1392640)
I0505 16:08:18.066833 32309 net.cpp:131] Top shape: 80 512 34 (1392640)
I0505 16:08:18.066838 32309 net.cpp:139] Memory required for data: 79505408
I0505 16:08:18.066841 32309 layer_factory.hpp:77] Creating layer ctc_loss
I0505 16:08:18.066850 32309 net.cpp:86] Creating Layer ctc_loss
I0505 16:08:18.066854 32309 net.cpp:408] ctc_loss <- fc1_fc1_0_split_0
I0505 16:08:18.066859 32309 net.cpp:408] ctc_loss <- label_data_1_split_0
I0505 16:08:18.066864 32309 net.cpp:382] ctc_loss -> ctc_loss
I0505 16:08:18.066887 32309 net.cpp:124] Setting up ctc_loss
I0505 16:08:18.066891 32309 net.cpp:131] Top shape: (1)
I0505 16:08:18.066895 32309 net.cpp:134]     with loss weight 1
I0505 16:08:18.066905 32309 net.cpp:139] Memory required for data: 79505412
I0505 16:08:18.066908 32309 layer_factory.hpp:77] Creating layer premuted_fc
I0505 16:08:18.066916 32309 net.cpp:86] Creating Layer premuted_fc
I0505 16:08:18.066920 32309 net.cpp:408] premuted_fc <- fc1_fc1_0_split_1
I0505 16:08:18.066926 32309 net.cpp:382] premuted_fc -> premuted_fc
I0505 16:08:18.067023 32309 net.cpp:124] Setting up premuted_fc
I0505 16:08:18.067028 32309 net.cpp:131] Top shape: 512 80 34 (1392640)
I0505 16:08:18.067034 32309 net.cpp:139] Memory required for data: 85075972
I0505 16:08:18.067039 32309 layer_factory.hpp:77] Creating layer accuracy
I0505 16:08:18.067047 32309 net.cpp:86] Creating Layer accuracy
I0505 16:08:18.067052 32309 net.cpp:408] accuracy <- premuted_fc
I0505 16:08:18.067056 32309 net.cpp:408] accuracy <- label_data_1_split_1
I0505 16:08:18.067064 32309 net.cpp:382] accuracy -> accuracy
…
