…
I0506 10:14:39.640213  8964 net.cpp:53] Initializing net from parameters: 
name: "vehicle_plate_train"
state {
  phase: TRAIN
  level: 0
  stage: ""
}
layer {
  name: "data"
  type: "Python"
  top: "data"
  top: "label"
  python_param {
    module: "pythonLayer"
    layer: "PlateDataLayer"
    param_str: "{\'width\': 80, \'label_txt\': \'data/plate/trainval.txt\', \'train\': True, \'batch_size\': 512, \'height\': 30}"
  }
}
layer {
  name: "indicator"
  type: "ContinuationIndicator"
  top: "indicator"
  continuation_indicator_param {
    time_step: 80
    batch_size: 512
  }
}
layer {
  name: "permuted_data"
  type: "Permute"
  bottom: "data"
  top: "permuted_data"
  permute_param {
    order: 3
    order: 0
    order: 1
    order: 2
  }
}
layer {
  name: "lstm1"
  type: "LSTM"
  bottom: "permuted_data"
  bottom: "indicator"
  top: "lstm1"
  recurrent_param {
    num_output: 100
    weight_filler {
      type: "xavier"
    }
    bias_filler {
      type: "constant"
      value: 0
    }
  }
}
layer {
  name: "lstm2"
  type: "LSTM"
  bottom: "lstm1"
  bottom: "indicator"
  top: "lstm2"
  recurrent_param {
    num_output: 100
    weight_filler {
      type: "xavier"
    }
    bias_filler {
      type: "constant"
      value: 0
    }
  }
}
layer {
  name: "fc1"
  type: "InnerProduct"
  bottom: "lstm2"
  top: "fc1"
  param {
    lr_mult: 1
    decay_mult: 1
  }
  param {
    lr_mult: 2
    decay_mult: 0
  }
  inner_product_param {
    num_output: 34
    weight_filler {
      type: "xavier"
    }
    bias_filler {
      type: "constant"
      value: 0
    }
    axis: 2
  }
}
layer {
  name: "ctc_loss"
  type: "CtcLoss"
  bottom: "fc1"
  bottom: "label"
  top: "ctc_loss"
  loss_weight: 1
  ctc_loss_param {
    alphabet_size: 34
    time_step: 80
    blank_label: 10
  }
}
I0506 10:14:39.640316  8964 layer_factory.hpp:77] Creating layer data
I0506 10:14:40.212366  8964 net.cpp:86] Creating Layer data
I0506 10:14:40.212671  8964 net.cpp:382] data -> data
I0506 10:14:40.213040  8964 net.cpp:382] data -> label
I0506 10:14:40.334516  8964 net.cpp:124] Setting up data
I0506 10:14:40.334537  8964 net.cpp:131] Top shape: 512 3 30 80 (3686400)
I0506 10:14:40.334543  8964 net.cpp:131] Top shape: 512 7 (3584)
I0506 10:14:40.334547  8964 net.cpp:139] Memory required for data: 14759936
I0506 10:14:40.334555  8964 layer_factory.hpp:77] Creating layer indicator
I0506 10:14:40.337066  8964 net.cpp:86] Creating Layer indicator
I0506 10:14:40.337074  8964 net.cpp:382] indicator -> indicator
I0506 10:14:40.337100  8964 net.cpp:124] Setting up indicator
I0506 10:14:40.337102  8964 net.cpp:131] Top shape: 80 512 (40960)
I0506 10:14:40.337105  8964 net.cpp:139] Memory required for data: 14923776
I0506 10:14:40.337108  8964 layer_factory.hpp:77] Creating layer indicator_indicator_0_split
I0506 10:14:40.337446  8964 net.cpp:86] Creating Layer indicator_indicator_0_split
I0506 10:14:40.337455  8964 net.cpp:408] indicator_indicator_0_split <- indicator
I0506 10:14:40.337465  8964 net.cpp:382] indicator_indicator_0_split -> indicator_indicator_0_split_0
I0506 10:14:40.337468  8964 net.cpp:382] indicator_indicator_0_split -> indicator_indicator_0_split_1
I0506 10:14:40.337494  8964 net.cpp:124] Setting up indicator_indicator_0_split
I0506 10:14:40.337498  8964 net.cpp:131] Top shape: 80 512 (40960)
I0506 10:14:40.337502  8964 net.cpp:131] Top shape: 80 512 (40960)
I0506 10:14:40.337503  8964 net.cpp:139] Memory required for data: 15251456
I0506 10:14:40.337528  8964 layer_factory.hpp:77] Creating layer permuted_data
I0506 10:14:40.337534  8964 net.cpp:86] Creating Layer permuted_data
I0506 10:14:40.337536  8964 net.cpp:408] permuted_data <- data
I0506 10:14:40.337540  8964 net.cpp:382] permuted_data -> permuted_data
I0506 10:14:40.337915  8964 net.cpp:124] Setting up permuted_data
I0506 10:14:40.337920  8964 net.cpp:131] Top shape: 80 512 3 30 (3686400)
I0506 10:14:40.337924  8964 net.cpp:139] Memory required for data: 29997056
I0506 10:14:40.337925  8964 layer_factory.hpp:77] Creating layer lstm1
I0506 10:14:40.337934  8964 net.cpp:86] Creating Layer lstm1
I0506 10:14:40.337935  8964 net.cpp:408] lstm1 <- permuted_data
I0506 10:14:40.337939  8964 net.cpp:408] lstm1 <- indicator_indicator_0_split_0
I0506 10:14:40.337942  8964 net.cpp:382] lstm1 -> lstm1
I0506 10:14:40.337952  8964 recurrent_layer.cpp:20] Initializing recurrent layer: assuming input batch contains 80 timesteps of 512 independent streams.
I0506 10:14:40.338974  8964 net.cpp:53] Initializing net from parameters: 
layer {
  name: "lstm1_"
  type: "Input"
  top: "x"
  top: "cont"
  input_param {
    shape {
      dim: 80
      dim: 512
      dim: 3
      dim: 30
    }
    shape {
      dim: 80
      dim: 512
    }
  }
}
layer {
  name: "lstm1_"
  type: "Input"
  top: "c_0"
  top: "h_0"
  input_param {
    shape {
      dim: 1
      dim: 512
      dim: 100
    }
    shape {
      dim: 1
      dim: 512
      dim: 100
    }
  }
}
layer {
  name: "lstm1_cont_slice"
  type: "Slice"
  bottom: "cont"
  top: "cont_1"
  top: "cont_2"
  top: "cont_3"
  top: "cont_4"
  top: "cont_5"
  top: "cont_6"
  top: "cont_7"
  top: "cont_8"
  top: "cont_9"
  top: "cont_10"
  top: "cont_11"
  top: "cont_12"
  top: "cont_13"
  top: "cont_14"
  top: "cont_15"
  top: "cont_16"
  top: "cont_17"
  top: "cont_18"
  top: "cont_19"
  top: "cont_20"
  top: "cont_21"
  top: "cont_22"
  top: "cont_23"
  top: "cont_24"
  top: "cont_25"
  top: "cont_26"
  top: "cont_27"
  top: "cont_28"
  top: "cont_29"
  top: "cont_30"
  top: "cont_31"
  top: "cont_32"
  top: "cont_33"
  top: "cont_34"
  top: "cont_35"
  top: "cont_36"
  top: "cont_37"
  top: "cont_38"
  top: "cont_39"
  top: "cont_40"
  top: "cont_41"
  top: "cont_42"
  top: "cont_43"
  top: "cont_44"
  top: "cont_45"
  top: "cont_46"
  top: "cont_47"
  top: "cont_48"
  top: "cont_49"
  top: "cont_50"
  top: "cont_51"
  top: "cont_52"
  top: "cont_53"
  top: "cont_54"
  top: "cont_55"
  top: "cont_56"
  top: "cont_57"
  top: "cont_58"
  top: "cont_59"
  top: "cont_60"
  top: "cont_61"
  top: "cont_62"
  top: "cont_63"
  top: "cont_64"
  top: "cont_65"
  top: "cont_66"
  top: "cont_67"
  top: "cont_68"
  top: "cont_69"
  top: "cont_70"
  top: "cont_71"
  top: "cont_72"
  top: "cont_73"
  top: "cont_74"
  top: "cont_75"
  top: "cont_76"
  top: "cont_77"
  top: "cont_78"
  top: "cont_79"
  top: "cont_80"
  slice_param {
    axis: 0
  }
}
layer {
  name: "lstm1_x_transform"
  type: "InnerProduct"
  bottom: "x"
  top: "W_xc_x"
  param {
    name: "W_xc"
  }
  param {
    name: "b_c"
  }
  propagate_down: true
  inner_product_param {
    num_output: 400
    bias_term: true
    weight_filler {
      type: "xavier"
    }
    bias_filler {
      type: "constant"
      value: 0
    }
    axis: 2
  }
}
layer {
  name: "lstm1_W_xc_x_slice"
  type: "Slice"
  bottom: "W_xc_x"
  top: "W_xc_x_1"
  top: "W_xc_x_2"
  top: "W_xc_x_3"
  top: "W_xc_x_4"
  top: "W_xc_x_5"
  top: "W_xc_x_6"
  top: "W_xc_x_7"
  top: "W_xc_x_8"
  top: "W_xc_x_9"
  top: "W_xc_x_10"
  top: "W_xc_x_11"
  top: "W_xc_x_12"
  top: "W_xc_x_13"
  top: "W_xc_x_14"
  top: "W_xc_x_15"
  top: "W_xc_x_16"
  top: "W_xc_x_17"
  top: "W_xc_x_18"
  top: "W_xc_x_19"
  top: "W_xc_x_20"
  top: "W_xc_x_21"
  top: "W_xc_x_22"
…
  top: "W_xc_x_53"
  top: "W_xc_x_54"
  top: "W_xc_x_55"
  top: "W_xc_x_56"
  top: "W_xc_x_57"
  top: "W_xc_x_58"
  top: "W_xc_x_59"
  top: "W_xc_x_60"
  top: "W_xc_x_61"
  top: "W_xc_x_62"
  top: "W_xc_x_63"
  top: "W_xc_x_64"
  top: "W_xc_x_65"
  top: "W_xc_x_66"
  top: "W_xc_x_67"
  top: "W_xc_x_68"
  top: "W_xc_x_69"
  top: "W_xc_x_70"
  top: "W_xc_x_71"
  top: "W_xc_x_72"
  top: "W_xc_x_73"
  top: "W_xc_x_74"
  top: "W_xc_x_75"
  top: "W_xc_x_76"
  top: "W_xc_x_77"
  top: "W_xc_x_78"
  top: "W_xc_x_79"
  top: "W_xc_x_80"
  slice_param {
    axis: 0
  }
}
layer {
  name: "lstm1_h_conted_0"
  type: "Scale"
  bottom: "h_0"
  bottom: "cont_1"
  top: "h_conted_0"
  scale_param {
    axis: 0
  }
}
layer {
  name: "lstm1_transform_1"
  type: "InnerProduct"
  bottom: "h_conted_0"
  top: "W_hc_h_0"
  param {
    name: "W_hc"
  }
  inner_product_param {
    num_output: 400
    bias_term: false
    weight_filler {
      type: "xavier"
    }
    axis: 2
  }
}
layer {
  name: "lstm1_gate_input_1"
  type: "Eltwise"
  bottom: "W_hc_h_0"
  bottom: "W_xc_x_1"
  top: "gate_input_1"
  eltwise_param {
    operation: SUM
  }
}
layer {
  name: "lstm1_unit_1"
  type: "LSTMUnit"
  bottom: "c_0"
  bottom: "gate_input_1"
  bottom: "cont_1"
  top: "c_1"
  top: "h_1"
}
layer {
  name: "lstm1_h_conted_1"
  type: "Scale"
  bottom: "h_1"
  bottom: "cont_2"
  top: "h_conted_1"
  scale_param {
    axis: 0
  }
}
layer {
  name: "lstm1_transform_2"
  type: "InnerProduct"
  bottom: "h_conted_1"
  top: "W_hc_h_1"
  param {
    name: "W_hc"
  }
  inner_product_param {
    num_output: 400
    bias_term: false
    weight_filler {
      type: "xavier"
    }
    axis: 2
  }
}
layer {
  name: "lstm1_gate_input_2"
  type: "Eltwise"
  bottom: "W_hc_h_1"
  bottom: "W_xc_x_2"
  top: "gate_input_2"
  eltwise_param {
    operation: SUM
  }
}
layer {
  name: "lstm1_unit_2"
  type: "LSTMUnit"
  bottom: "c_1"
  bottom: "gate_input_2"
  bottom: "cont_2"
  top: "c_2"
  top: "h_2"
}
layer {
  name: "lstm1_h_conted_2"
  type: "Scale"
  bottom: "h_2"
  bottom: "cont_3"
  top: "h_conted_2"
  scale_param {
    axis: 0
  }
}
layer {
  name: "lstm1_transform_3"
  type: "InnerProduct"
  bottom: "h_conted_2"
  top: "W_hc_h_2"
  param {
    name: "W_hc"
  }
  inner_product_param {
    num_output: 400
    bias_term: false
    weight_filler {
      type: "xavier"
    }
    axis: 2
  }
}
layer {
  name: "lstm1_gate_input_3"
  type: "Eltwise"
  bottom: "W_hc_h_2"
  bottom: "W_xc_x_3"
  top: "gate_input_3"
  eltwise_param {
    operation: SUM
  }
}
layer {
  name: "lstm1_unit_3"
  type: "LSTMUnit"
  bottom: "c_2"
  bottom: "gate_input_3"
  bottom: "cont_3"
  top: "c_3"
  top: "h_3"
}
layer {
  name: "lstm1_h_conted_3"
  type: "Scale"
  bottom: "h_3"
  bottom: "cont_4"
  top: "h_conted_3"
  scale_param {
    axis: 0
  }
}
layer {
  name: "lstm1_transform_4"
  type: "InnerProduct"
  bottom: "h_conted_3"
  top: "W_hc_h_3"
  param {
    name: "W_hc"
  }
  inner_product_param {
    num_output: 400
    bias_term: false
    weight_filler {
      type: "xavier"
    }
    axis: 2
  }
}
layer {
  name: "lstm1_gate_input_4"
  type: "Eltwise"
  bottom: "W_hc_h_3"
  bottom: "W_xc_x_4"
  top: "gate_input_4"
  eltwise_param {
    operation: SUM
  }
}
layer {
  name: "lstm1_unit_4"
  type: "LSTMUnit"
  bottom: "c_3"
  bottom: "gate_input_4"
  bottom: "cont_4"
  top: "c_4"
  top: "h_4"
}
layer {
  name: "lstm1_h_conted_4"
  type: "Scale"
  bottom: "h_4"
  bottom: "cont_5"
  top: "h_conted_4"
  scale_param {
    axis: 0
  }
}
layer {
  name: "lstm1_transform_5"
  type: "InnerProduct"
  bottom: "h_conted_4"
  top: "W_hc_h_4"
  param {
    name: "W_hc"
  }
  inner_product_param {
    num_output: 400
    bias_term: false
    weight_filler {
      type: "xavier"
    }
    axis: 2
  }
}
layer {
  name: "lstm1_gate_input_5"
  type: "Eltwise"
  bottom: "W_hc_h_4"
  bottom: "W_xc_x_5"
  top: "gate_input_5"
  eltwise_param {
    operation: SUM
  }
}
layer {
  name: "lstm1_unit_5"
  type: "LSTMUnit"
  bottom: "c_4"
  bottom: "gate_input_5"
  bottom: "cont_5"
  top: "c_5"
  top: "h_5"
}
layer {
  name: "lstm1_h_conted_5"
  type: "Scale"
  bottom: "h_5"
  bottom: "cont_6"
  top: "h_conted_5"
  scale_param {
    axis: 0
  }
}
layer {
  name: "lstm1_transform_6"
  type: "InnerProduct"
  bottom: "h_conted_5"
  top: "W_hc_h_5"
  param {
    name: "W_hc"
  }
  inner_product_param {
    num_output: 400
    bias_term: false
    weight_filler {
      type: "xavier"
    }
    axis: 2
  }
}
layer {
  name: "lstm1_gate_input_6"
  type: "Eltwise"
  bottom: "W_hc_h_5"
  bottom: "W_xc_x_6"
  top: "gate_input_6"
  eltwise_param {
    operation: SUM
  }
}
layer {
  name: "lstm1_unit_6"
  type: "LSTMUnit"
  bottom: "c_5"
  bottom: "gate_input_6"
  bottom: "cont_6"
  top: "c_6"
  top: "h_6"
}
layer {
  name: "lstm1_h_conted_6"
  type: "Scale"
  bottom: "h_6"
  bottom: "cont_7"
  top: "h_conted_6"
  scale_param {
    axis: 0
  }
}
layer {
  name: "lstm1_transform_7"
  type: "InnerProduct"
  bottom: "h_conted_6"
  top: "W_hc_h_6"
  param {
    name: "W_hc"
  }
  inner_product_param {
    num_output: 400
    bias_term: false
    weight_filler {
      type: "xavier"
    }
    axis: 2
  }
}
layer {
  name: "lstm1_gate_input_7"
  type: "Eltwise"
  bottom: "W_hc_h_6"
  bottom: "W_xc_x_7"
  top: "gate_input_7"
  eltwise_param {
    operation: SUM
  }
}
layer {
  name: "lstm1_unit_7"
  type: "LSTMUnit"
  bottom: "c_6"
  bottom: "gate_input_7"
  bottom: "cont_7"
  top: "c_7"
  top: "h_7"
}
layer {
  name: "lstm1_h_conted_7"
  type: "Scale"
  bottom: "h_7"
  bottom: "cont_8"
  top: "h_conted_7"
  scale_param {
    axis: 0
  }
}
layer {
  name: "lstm1_transform_8"
  type: "InnerProduct"
  bottom: "h_conted_7"
  top: "W_hc_h_7"
  param {
    name: "W_hc"
  }
  inner_product_param {
    num_output: 400
    bias_term: false
    weight_filler {
      type: "xavier"
    }
    axis: 2
  }
}
layer {
  name: "lstm1_gate_input_8"
  type: "Eltwise"
  bottom: "W_hc_h_7"
  bottom: "W_xc_x_8"
  top: "gate_input_8"
  eltwise_param {
    operation: SUM
  }
}
layer {
  name: "lstm1_unit_8"
  type: "LSTMUnit"
  bottom: "c_7"
  bottom: "gate_input_8"
  bottom: "cont_8"
  top: "c_8"
  top: "h_8"
}
layer {
  name: "lstm1_h_conted_8"
  type: "Scale"
  bottom: "h_8"
  bottom: "cont_9"
  top: "h_conted_8"
  scale_param {
    axis: 0
  }
}
layer {
  name: "lstm1_transform_9"
  type: "InnerProduct"
  bottom: "h_conted_8"
  top: "W_hc_h_8"
  param {
    name: "W_hc"
  }
  inner_product_param {
    num_output: 400
    bias_term: false
    weight_filler {
      type: "xavier"
    }
    axis: 2
  }
}
layer {
  name: "lstm1_gate_input_9"
  type: "Eltwise"
  bottom: "W_hc_h_8"
  bottom: "W_xc_x_9"
  top: "gate_input_9"
  eltwise_param {
    operation: SUM
  }
}
layer {
  name: "lstm1_unit_9"
  type: "LSTMUnit"
  bottom: "c_8"
  bottom: "gate_input_9"
  bottom: "cont_9"
  top: "c_9"
  top: "h_9"
}
layer {
  name: "lstm1_h_conted_9"
  type: "Scale"
  bottom: "h_9"
  bottom: "cont_10"
  top: "h_conted_9"
  scale_param {
    axis: 0
  }
}
layer {
  name: "lstm1_transform_10"
  type: "InnerProduct"
  bottom: "h_conted_9"
  top: "W_hc_h_9"
  param {
    name: "W_hc"
  }
  inner_product_param {
    num_output: 400
    bias_term: false
    weight_filler {
      type: "xavier"
    }
    axis: 2
  }
}
layer {
  name: "lstm1_gate_input_10"
  type: "Eltwise"
  bottom: "W_hc_h_9"
  bottom: "W_xc_x_10"
  top: "gate_input_10"
  eltwise_param {
    operation: SUM
  }
}
layer {
  name: "lstm1_unit_10"
  type: "LSTMUnit"
  bottom: "c_9"
  bottom: "gate_input_10"
  bottom: "cont_10"
  top: "c_10"
  top: "h_10"
}
layer {
  name: "lstm1_h_conted_10"
  type: "Scale"
  bottom: "h_10"
  bottom: "cont_11"
  top: "h_conted_10"
  scale_param {
    axis: 0
  }
}
layer {
  name: "lstm1_transform_11"
  type: "InnerProduct"
  bottom: "h_conted_10"
  top: "W_hc_h_10"
  param {
    name: "W_hc"
  }
  inner_product_param {
    num_output: 400
    bias_term: false
    weight_filler {
      type: "xavier"
    }
    axis: 2
  }
}
layer {
  name: "lstm1_gate_input_11"
  type: "Eltwise"
  bottom: "W_hc_h_10"
  bottom: "W_xc_x_11"
  top: "gate_input_11"
  eltwise_param {
    operation: SUM
  }
}
layer {
  name: "lstm1_unit_11"
  type: "LSTMUnit"
  bottom: "c_10"
  bottom: "gate_input_11"
  bottom: "cont_11"
  top: "c_11"
  top: "h_11"
}
layer {
  name: "lstm1_h_conted_11"
  type: "Scale"
  bottom: "h_11"
  bottom: "cont_12"
  top: "h_conted_11"
  scale_param {
    axis: 0
  }
}
layer {
  name: "lstm1_transform_12"
  type: "InnerProduct"
  bottom: "h_conted_11"
  top: "W_hc_h_11"
  param {
    name: "W_hc"
  }
  inner_product_param {
    num_output: 400
    bias_term: false
    weight_filler {
      type: "xavier"
    }
    axis: 2
  }
}
layer {
  name: "lstm1_gate_input_12"
  type: "Eltwise"
  bottom: "W_hc_h_11"
  bottom: "W_xc_x_12"
  top: "gate_input_12"
  eltwise_param {
    operation: SUM
  }
}
layer {
  name: "lstm1_unit_12"
  type: "LSTMUnit"
  bottom: "c_11"
  bottom: "gate_input_12"
  bottom: "cont_12"
  top: "c_12"
  top: "h_12"
}
layer {
  name: "lstm1_h_conted_12"
  type: "Scale"
  bottom: "h_12"
  bottom: "cont_13"
  top: "h_conted_12"
  scale_param {
    axis: 0
  }
}
layer {
  name: "lstm1_transform_13"
  type: "InnerProduct"
  bottom: "h_conted_12"
  top: "W_hc_h_12"
  param {
    name: "W_hc"
  }
  inner_product_param {
    num_output: 400
    bias_term: false
    weight_filler {
      type: "xavier"
    }
    axis: 2
  }
}
layer {
  name: "lstm1_gate_input_13"
  type: "Eltwise"
  bottom: "W_hc_h_12"
  bottom: "W_xc_x_13"
  top: "gate_input_13"
  eltwise_param {
    operation: SUM
  }
}
layer {
  name: "lstm1_unit_13"
  type: "LSTMUnit"
  bottom: "c_12"
  bottom: "gate_input_13"
  bottom: "cont_13"
  top: "c_13"
  top: "h_13"
}
layer {
  name: "lstm1_h_conted_13"
  type: "Scale"
  bottom: "h_13"
  bottom: "cont_14"
  top: "h_conted_13"
  scale_param {
    axis: 0
  }
}
layer {
  name: "lstm1_transform_14"
  type: "InnerProduct"
  bottom: "h_conted_13"
  top: "W_hc_h_13"
  param {
    name: "W_hc"
  }
  inner_product_param {
    num_output: 400
    bias_term: false
    weight_filler {
      type: "xavier"
    }
    axis: 2
  }
}
layer {
  name: "lstm1_gate_input_14"
  type: "Eltwise"
  bottom: "W_hc_h_13"
  bottom: "W_xc_x_14"
  top: "gate_input_14"
  eltwise_param {
    operation: SUM
  }
}
layer {
  name: "lstm1_unit_14"
  type: "LSTMUnit"
  bottom: "c_13"
  bottom: "gate_input_14"
  bottom: "cont_14"
  top: "c_14"
  top: "h_14"
}
layer {
  name: "lstm1_h_conted_14"
  type: "Scale"
  bottom: "h_14"
  bottom: "cont_15"
  top: "h_conted_14"
  scale_param {
    axis: 0
  }
}
layer {
  name: "lstm1_transform_15"
  type: "InnerProduct"
  bottom: "h_conted_14"
  top: "W_hc_h_14"
  param {
    name: "W_hc"
  }
  inner_product_param {
    num_output: 400
    bias_term: false
    weight_filler {
      type: "xavier"
    }
    axis: 2
  }
}
layer {
  name: "lstm1_gate_input_15"
  type: "Eltwise"
  bottom: "W_hc_h_14"
  bottom: "W_xc_x_15"
  top: "gate_input_15"
  eltwise_param {
    operation: SUM
  }
}
layer {
  name: "lstm1_unit_15"
  type: "LSTMUnit"
  bottom: "c_14"
  bottom: "gate_input_15"
  bottom: "cont_15"
  top: "c_15"
  top: "h_15"
}
layer {
  name: "lstm1_h_conted_15"
  type: "Scale"
  bottom: "h_15"
  bottom: "cont_16"
  top: "h_conted_15"
  scale_param {
    axis: 0
  }
}
layer {
  name: "lstm1_transform_16"
  type: "InnerProduct"
  bottom: "h_conted_15"
  top: "W_hc_h_15"
  param {
    name: "W_hc"
  }
  inner_product_param {
    num_output: 400
    bias_term: false
    weight_filler {
      type: "xavier"
    }
    axis: 2
  }
}
layer {
  name: "lstm1_gate_input_16"
  type: "Eltwise"
  bottom: "W_hc_h_15"
  bottom: "W_xc_x_16"
  top: "gate_input_16"
  eltwise_param {
    operation: SUM
  }
}
layer {
  name: "lstm1_unit_16"
  type: "LSTMUnit"
  bottom: "c_15"
  bottom: "gate_input_16"
  bottom: "cont_16"
  top: "c_16"
  top: "h_16"
}
layer {
  name: "lstm1_h_conted_16"
  type: "Scale"
  bottom: "h_16"
  bottom: "cont_17"
  top: "h_conted_16"
  scale_param {
    axis: 0
  }
}
layer {
  name: "lstm1_transform_17"
  type: "InnerProduct"
  bottom: "h_conted_16"
  top: "W_hc_h_16"
  param {
    name: "W_hc"
  }
  inner_product_param {
    num_output: 400
    bias_term: false
    weight_filler {
      type: "xavier"
    }
    axis: 2
  }
}
layer {
  name: "lstm1_gate_input_17"
  type: "Eltwise"
  bottom: "W_hc_h_16"
  bottom: "W_xc_x_17"
  top: "gate_input_17"
  eltwise_param {
    operation: SUM
  }
}
layer {
  name: "lstm1_unit_17"
  type: "LSTMUnit"
  bottom: "c_16"
  bottom: "gate_input_17"
  bottom: "cont_17"
  top: "c_17"
  top: "h_17"
}
layer {
  name: "lstm1_h_conted_17"
  type: "Scale"
  bottom: "h_17"
  bottom: "cont_18"
  top: "h_conted_17"
  scale_param {
    axis: 0
  }
}
layer {
  name: "lstm1_transform_18"
  type: "InnerProduct"
  bottom: "h_conted_17"
  top: "W_hc_h_17"
  param {
    name: "W_hc"
  }
  inner_product_param {
    num_output: 400
    bias_term: false
    weight_filler {
      type: "xavier"
    }
    axis: 2
  }
}
layer {
  name: "lstm1_gate_input_18"
  type: "Eltwise"
  bottom: "W_hc_h_17"
  bottom: "W_xc_x_18"
  top: "gate_input_18"
  eltwise_param {
    operation: SUM
  }
}
layer {
  name: "lstm1_unit_18"
  type: "LSTMUnit"
  bottom: "c_17"
  bottom: "gate_input_18"
  bottom: "cont_18"
  top: "c_18"
  top: "h_18"
}
layer {
  name: "lstm1_h_conted_18"
  type: "Scale"
  bottom: "h_18"
  bottom: "cont_19"
  top: "h_conted_18"
  scale_param {
    axis: 0
  }
}
layer {
  name: "lstm1_transform_19"
  type: "InnerProduct"
  bottom: "h_conted_18"
  top: "W_hc_h_18"
  param {
    name: "W_hc"
  }
  inner_product_param {
    num_output: 400
    bias_term: false
    weight_filler {
      type: "xavier"
    }
    axis: 2
  }
}
layer {
  name: "lstm1_gate_input_19"
  type: "Eltwise"
  bottom: "W_hc_h_18"
  bottom: "W_xc_x_19"
  top: "gate_input_19"
  eltwise_param {
    operation: SUM
  }
}
layer {
  name: "lstm1_unit_19"
  type: "LSTMUnit"
  bottom: "c_18"
  bottom: "gate_input_19"
  bottom: "cont_19"
  top: "c_19"
  top: "h_19"
}
layer {
  name: "lstm1_h_conted_19"
  type: "Scale"
  bottom: "h_19"
  bottom: "cont_20"
  top: "h_conted_19"
  scale_param {
    axis: 0
  }
}
layer {
  name: "lstm1_transform_20"
  type: "InnerProduct"
  bottom: "h_conted_19"
  top: "W_hc_h_19"
  param {
    name: "W_hc"
  }
  inner_product_param {
    num_output: 400
    bias_term: false
    weight_filler {
      type: "xavier"
    }
    axis: 2
  }
}
layer {
  name: "lstm1_gate_input_20"
  type: "Eltwise"
  bottom: "W_hc_h_19"
  bottom: "W_xc_x_20"
  top: "gate_input_20"
  eltwise_param {
    operation: SUM
  }
}
layer {
  name: "lstm1_unit_20"
  type: "LSTMUnit"
  bottom: "c_19"
  bottom: "gate_input_20"
  bottom: "cont_20"
  top: "c_20"
  top: "h_20"
}
layer {
  name: "lstm1_h_conted_20"
  type: "Scale"
  bottom: "h_20"
  bottom: "cont_21"
  top: "h_conted_20"
  scale_param {
    axis: 0
  }
}
layer {
  name: "lstm1_transform_21"
  type: "InnerProduct"
  bottom: "h_conted_20"
  top: "W_hc_h_20"
  param {
    name: "W_hc"
  }
  inner_product_param {
    num_output: 400
    bias_term: false
    weight_filler {
      type: "xavier"
    }
    axis: 2
  }
}
layer {
  name: "lstm1_gate_input_21"
  type: "Eltwise"
  bottom: "W_hc_h_20"
  bottom: "W_xc_x_21"
  top: "gate_input_21"
  eltwise_param {
    operation: SUM
  }
}
layer {
  name: "lstm1_unit_21"
  type: "LSTMUnit"
  bottom: "c_20"
  bottom: "gate_input_21"
  bottom: "cont_21"
  top: "c_21"
  top: "h_21"
}
layer {
  name: "lstm1_h_conted_21"
  type: "Scale"
  bottom: "h_21"
  bottom: "cont_22"
  top: "h_conted_21"
  scale_param {
    axis: 0
  }
}
layer {
  name: "lstm1_transform_22"
  type: "InnerProduct"
  bottom: "h_conted_21"
  top: "W_hc_h_21"
  param {
    name: "W_hc"
  }
  inner_product_param {
    num_output: 400
    bias_term: false
    weight_filler {
      type: "xavier"
    }
    axis: 2
  }
}
layer {
  name: "lstm1_gate_input_22"
  type: "Eltwise"
  bottom: "W_hc_h_21"
  bottom: "W_xc_x_22"
  top: "gate_input_22"
  eltwise_param {
    operation: SUM
  }
}
layer {
  name: "lstm1_unit_22"
  type: "LSTMUnit"
  bottom: "c_21"
  bottom: "gate_input_22"
  bottom: "cont_22"
  top: "c_22"
  top: "h_22"
}
layer {
  name: "lstm1_h_conted_22"
  type: "Scale"
  bottom: "h_22"
  bottom: "cont_23"
  top: "h_conted_22"
  scale_param {
    axis: 0
  }
}
layer {
  name: "lstm1_transform_23"
  type: "InnerProduct"
  bottom: "h_conted_22"
  top: "W_hc_h_22"
  param {
    name: "W_hc"
  }
  inner_product_param {
    num_output: 400
    bias_term: false
    weight_filler {
      type: "xavier"
    }
    axis: 2
  }
}
layer {
  name: "lstm1_gate_input_23"
  type: "Eltwise"
  bottom: "W_hc_h_22"
  bottom: "W_xc_x_23"
  top: "gate_input_23"
  eltwise_param {
    operation: SUM
  }
}
layer {
  name: "lstm1_unit_23"
  type: "LSTMUnit"
  bottom: "c_22"
  bottom: "gate_input_23"
  bottom: "cont_23"
  top: "c_23"
  top: "h_23"
}
layer {
  name: "lstm1_h_conted_23"
  type: "Scale"
  bottom: "h_23"
  bottom: "cont_24"
  top: "h_conted_23"
  scale_param {
    axis: 0
  }
}
layer {
  name: "lstm1_transform_24"
  type: "InnerProduct"
  bottom: "h_conted_23"
  top: "W_hc_h_23"
  param {
    name: "W_hc"
  }
  inner_product_param {
    num_output: 400
    bias_term: false
    weight_filler {
      type: "xavier"
    }
    axis: 2
  }
}
layer {
  name: "lstm1_gate_input_24"
  type: "Eltwise"
  bottom: "W_hc_h_23"
  bottom: "W_xc_x_24"
  top: "gate_input_24"
  eltwise_param {
    operation: SUM
  }
}
layer {
  name: "lstm1_unit_24"
  type: "LSTMUnit"
  bottom: "c_23"
  bottom: "gate_input_24"
  bottom: "cont_24"
  top: "c_24"
  top: "h_24"
}
layer {
  name: "lstm1_h_conted_24"
  type: "Scale"
  bottom: "h_24"
  bottom: "cont_25"
  top: "h_conted_24"
  scale_param {
    axis: 0
  }
}
layer {
  name: "lstm1_transform_25"
  type: "InnerProduct"
  bottom: "h_conted_24"
  top: "W_hc_h_24"
  param {
    name: "W_hc"
  }
  inner_product_param {
    num_output: 400
    bias_term: false
    weight_filler {
      type: "xavier"
    }
    axis: 2
  }
}
layer {
  name: "lstm1_gate_input_25"
  type: "Eltwise"
  bottom: "W_hc_h_24"
  bottom: "W_xc_x_25"
  top: "gate_input_25"
  eltwise_param {
    operation: SUM
  }
}
layer {
  name: "lstm1_unit_25"
  type: "LSTMUnit"
  bottom: "c_24"
  bottom: "gate_input_25"
  bottom: "cont_25"
  top: "c_25"
  top: "h_25"
}
layer {
  name: "lstm1_h_conted_25"
  type: "Scale"
  bottom: "h_25"
  bottom: "cont_26"
  top: "h_conted_25"
  scale_param {
    axis: 0
  }
}
layer {
  name: "lstm1_transform_26"
  type: "InnerProduct"
  bottom: "h_conted_25"
  top: "W_hc_h_25"
  param {
    name: "W_hc"
  }
  inner_product_param {
    num_output: 400
    bias_term: false
    weight_filler {
      type: "xavier"
    }
    axis: 2
  }
}
layer {
  name: "lstm1_gate_input_26"
  type: "Eltwise"
  bottom: "W_hc_h_25"
  bottom: "W_xc_x_26"
  top: "gate_input_26"
  eltwise_param {
    operation: SUM
  }
}
layer {
  name: "lstm1_unit_26"
  type: "LSTMUnit"
  bottom: "c_25"
  bottom: "gate_input_26"
  bottom: "cont_26"
  top: "c_26"
  top: "h_26"
}
layer {
  name: "lstm1_h_conted_26"
  type: "Scale"
  bottom: "h_26"
  bottom: "cont_27"
  top: "h_conted_26"
  scale_param {
    axis: 0
  }
}
layer {
  name: "lstm1_transform_27"
  type: "InnerProduct"
  bottom: "h_conted_26"
  top: "W_hc_h_26"
  param {
    name: "W_hc"
  }
  inner_product_param {
    num_output: 400
    bias_term: false
    weight_filler {
      type: "xavier"
    }
    axis: 2
  }
}
layer {
  name: "lstm1_gate_input_27"
  type: "Eltwise"
  bottom: "W_hc_h_26"
  bottom: "W_xc_x_27"
  top: "gate_input_27"
  eltwise_param {
    operation: SUM
  }
}
layer {
  name: "lstm1_unit_27"
  type: "LSTMUnit"
  bottom: "c_26"
  bottom: "gate_input_27"
  bottom: "cont_27"
  top: "c_27"
  top: "h_27"
}
layer {
  name: "lstm1_h_conted_27"
  type: "Scale"
  bottom: "h_27"
  bottom: "cont_28"
  top: "h_conted_27"
  scale_param {
    axis: 0
  }
}
layer {
  name: "lstm1_transform_28"
  type: "InnerProduct"
  bottom: "h_conted_27"
  top: "W_hc_h_27"
  param {
    name: "W_hc"
  }
  inner_product_param {
    num_output: 400
    bias_term: false
    weight_filler {
      type: "xavier"
    }
    axis: 2
  }
}
layer {
  name: "lstm1_gate_input_28"
  type: "Eltwise"
  bottom: "W_hc_h_27"
  bottom: "W_xc_x_28"
  top: "gate_input_28"
  eltwise_param {
    operation: SUM
  }
}
layer {
  name: "lstm1_unit_28"
  type: "LSTMUnit"
  bottom: "c_27"
  bottom: "gate_input_28"
  bottom: "cont_28"
  top: "c_28"
  top: "h_28"
}
layer {
  name: "lstm1_h_conted_28"
  type: "Scale"
  bottom: "h_28"
  bottom: "cont_29"
  top: "h_conted_28"
  scale_param {
    axis: 0
  }
}
layer {
  name: "lstm1_transform_29"
  type: "InnerProduct"
  bottom: "h_conted_28"
  top: "W_hc_h_28"
  param {
    name: "W_hc"
  }
  inner_product_param {
    num_output: 400
    bias_term: false
    weight_filler {
      type: "xavier"
    }
    axis: 2
  }
}
layer {
  name: "lstm1_gate_input_29"
  type: "Eltwise"
  bottom: "W_hc_h_28"
  bottom: "W_xc_x_29"
  top: "gate_input_29"
  eltwise_param {
    operation: SUM
  }
}
layer {
  name: "lstm1_unit_29"
  type: "LSTMUnit"
  bottom: "c_28"
  bottom: "gate_input_29"
  bottom: "cont_29"
  top: "c_29"
  top: "h_29"
}
layer {
  name: "lstm1_h_conted_29"
  type: "Scale"
  bottom: "h_29"
  bottom: "cont_30"
  top: "h_conted_29"
  scale_param {
    axis: 0
  }
}
layer {
  name: "lstm1_transform_30"
  type: "InnerProduct"
  bottom: "h_conted_29"
  top: "W_hc_h_29"
  param {
    name: "W_hc"
  }
  inner_product_param {
    num_output: 400
    bias_term: false
    weight_filler {
      type: "xavier"
    }
    axis: 2
  }
}
layer {
  name: "lstm1_gate_input_30"
  type: "Eltwise"
  bottom: "W_hc_h_29"
  bottom: "W_xc_x_30"
  top: "gate_input_30"
  eltwise_param {
    operation: SUM
  }
}
layer {
  name: "lstm1_unit_30"
  type: "LSTMUnit"
  bottom: "c_29"
  bottom: "gate_input_30"
  bottom: "cont_30"
  top: "c_30"
  top: "h_30"
}
layer {
  name: "lstm1_h_conted_30"
  type: "Scale"
  bottom: "h_30"
  bottom: "cont_31"
  top: "h_conted_30"
  scale_param {
    axis: 0
  }
}
layer {
  name: "lstm1_transform_31"
  type: "InnerProduct"
  bottom: "h_conted_30"
  top: "W_hc_h_30"
  param {
    name: "W_hc"
  }
  inner_product_param {
    num_output: 400
    bias_term: false
    weight_filler {
      type: "xavier"
    }
    axis: 2
  }
}
layer {
  name: "lstm1_gate_input_31"
  type: "Eltwise"
  bottom: "W_hc_h_30"
  bottom: "W_xc_x_31"
  top: "gate_input_31"
  eltwise_param {
    operation: SUM
  }
}
layer {
  name: "lstm1_unit_31"
  type: "LSTMUnit"
  bottom: "c_30"
  bottom: "gate_input_31"
  bottom: "cont_31"
  top: "c_31"
  top: "h_31"
}
layer {
  name: "lstm1_h_conted_31"
  type: "Scale"
  bottom: "h_31"
  bottom: "cont_32"
  top: "h_conted_31"
  scale_param {
    axis: 0
  }
}
layer {
  name: "lstm1_transform_32"
  type: "InnerProduct"
  bottom: "h_conted_31"
  top: "W_hc_h_31"
  param {
    name: "W_hc"
  }
  inner_product_param {
    num_output: 400
    bias_term: false
    weight_filler {
      type: "xavier"
    }
    axis: 2
  }
}
layer {
  name: "lstm1_gate_input_32"
  type: "Eltwise"
  bottom: "W_hc_h_31"
  bottom: "W_xc_x_32"
  top: "gate_input_32"
  eltwise_param {
    operation: SUM
  }
}
layer {
  name: "lstm1_unit_32"
  type: "LSTMUnit"
  bottom: "c_31"
  bottom: "gate_input_32"
  bottom: "cont_32"
  top: "c_32"
  top: "h_32"
}
layer {
  name: "lstm1_h_conted_32"
  type: "Scale"
  bottom: "h_32"
  bottom: "cont_33"
  top: "h_conted_32"
  scale_param {
    axis: 0
  }
}
layer {
  name: "lstm1_transform_33"
  type: "InnerProduct"
  bottom: "h_conted_32"
  top: "W_hc_h_32"
  param {
    name: "W_hc"
  }
  inner_product_param {
    num_output: 400
    bias_term: false
    weight_filler {
      type: "xavier"
    }
    axis: 2
  }
}
layer {
  name: "lstm1_gate_input_33"
  type: "Eltwise"
  bottom: "W_hc_h_32"
  bottom: "W_xc_x_33"
  top: "gate_input_33"
  eltwise_param {
    operation: SUM
  }
}
layer {
  name: "lstm1_unit_33"
  type: "LSTMUnit"
  bottom: "c_32"
  bottom: "gate_input_33"
  bottom: "cont_33"
  top: "c_33"
  top: "h_33"
}
layer {
  name: "lstm1_h_conted_33"
  type: "Scale"
  bottom: "h_33"
  bottom: "cont_34"
  top: "h_conted_33"
  scale_param {
    axis: 0
  }
}
layer {
  name: "lstm1_transform_34"
  type: "InnerProduct"
  bottom: "h_conted_33"
  top: "W_hc_h_33"
  param {
    name: "W_hc"
  }
  inner_product_param {
    num_output: 400
    bias_term: false
    weight_filler {
      type: "xavier"
    }
    axis: 2
  }
}
layer {
  name: "lstm1_gate_input_34"
  type: "Eltwise"
  bottom: "W_hc_h_33"
  bottom: "W_xc_x_34"
  top: "gate_input_34"
  eltwise_param {
    operation: SUM
  }
}
layer {
  name: "lstm1_unit_34"
  type: "LSTMUnit"
  bottom: "c_33"
  bottom: "gate_input_34"
  bottom: "cont_34"
  top: "c_34"
  top: "h_34"
}
layer {
  name: "lstm1_h_conted_34"
  type: "Scale"
  bottom: "h_34"
  bottom: "cont_35"
  top: "h_conted_34"
  scale_param {
    axis: 0
  }
}
layer {
  name: "lstm1_transform_35"
  type: "InnerProduct"
  bottom: "h_conted_34"
  top: "W_hc_h_34"
  param {
    name: "W_hc"
  }
  inner_product_param {
    num_output: 400
    bias_term: false
    weight_filler {
      type: "xavier"
    }
    axis: 2
  }
}
layer {
  name: "lstm1_gate_input_35"
  type: "Eltwise"
  bottom: "W_hc_h_34"
  bottom: "W_xc_x_35"
  top: "gate_input_35"
  eltwise_param {
    operation: SUM
  }
}
layer {
  name: "lstm1_unit_35"
  type: "LSTMUnit"
  bottom: "c_34"
  bottom: "gate_input_35"
  bottom: "cont_35"
  top: "c_35"
  top: "h_35"
}
layer {
  name: "lstm1_h_conted_35"
  type: "Scale"
  bottom: "h_35"
  bottom: "cont_36"
  top: "h_conted_35"
  scale_param {
    axis: 0
  }
}
layer {
  name: "lstm1_transform_36"
  type: "InnerProduct"
  bottom: "h_conted_35"
  top: "W_hc_h_35"
  param {
    name: "W_hc"
  }
  inner_product_param {
    num_output: 400
    bias_term: false
    weight_filler {
      type: "xavier"
    }
    axis: 2
  }
}
layer {
  name: "lstm1_gate_input_36"
  type: "Eltwise"
  bottom: "W_hc_h_35"
  bottom: "W_xc_x_36"
  top: "gate_input_36"
  eltwise_param {
    operation: SUM
  }
}
layer {
  name: "lstm1_unit_36"
  type: "LSTMUnit"
  bottom: "c_35"
  bottom: "gate_input_36"
  bottom: "cont_36"
  top: "c_36"
  top: "h_36"
}
layer {
  name: "lstm1_h_conted_36"
  type: "Scale"
  bottom: "h_36"
  bottom: "cont_37"
  top: "h_conted_36"
  scale_param {
    axis: 0
  }
}
layer {
  name: "lstm1_transform_37"
  type: "InnerProduct"
  bottom: "h_conted_36"
  top: "W_hc_h_36"
  param {
    name: "W_hc"
  }
  inner_product_param {
    num_output: 400
    bias_term: false
    weight_filler {
      type: "xavie
I0506 10:14:40.341765  8964 layer_factory.hpp:77] Creating layer lstm1_
I0506 10:14:40.341774  8964 net.cpp:86] Creating Layer lstm1_
I0506 10:14:40.341778  8964 net.cpp:382] lstm1_ -> x
I0506 10:14:40.341787  8964 net.cpp:382] lstm1_ -> cont
I0506 10:14:40.341827  8964 net.cpp:124] Setting up lstm1_
I0506 10:14:40.341830  8964 net.cpp:131] Top shape: 80 512 3 30 (3686400)
I0506 10:14:40.341835  8964 net.cpp:131] Top shape: 80 512 (40960)
I0506 10:14:40.341837  8964 net.cpp:139] Memory required for data: 14909440
I0506 10:14:40.341840  8964 layer_factory.hpp:77] Creating layer lstm1_
I0506 10:14:40.341845  8964 net.cpp:86] Creating Layer lstm1_
I0506 10:14:40.341848  8964 net.cpp:382] lstm1_ -> c_0
I0506 10:14:40.341854  8964 net.cpp:382] lstm1_ -> h_0
I0506 10:14:40.341881  8964 net.cpp:124] Setting up lstm1_
I0506 10:14:40.341883  8964 net.cpp:131] Top shape: 1 512 100 (51200)
I0506 10:14:40.341886  8964 net.cpp:131] Top shape: 1 512 100 (51200)
I0506 10:14:40.341890  8964 net.cpp:139] Memory required for data: 15319040
I0506 10:14:40.341892  8964 layer_factory.hpp:77] Creating layer lstm1_cont_slice
I0506 10:14:40.341903  8964 net.cpp:86] Creating Layer lstm1_cont_slice
I0506 10:14:40.341905  8964 net.cpp:408] lstm1_cont_slice <- cont
I0506 10:14:40.341913  8964 net.cpp:382] lstm1_cont_slice -> cont_1
I0506 10:14:40.341923  8964 net.cpp:382] lstm1_cont_slice -> cont_2
…
I0506 10:14:40.342427  8964 net.cpp:382] lstm1_cont_slice -> cont_73
I0506 10:14:40.342433  8964 net.cpp:382] lstm1_cont_slice -> cont_74
I0506 10:14:40.342440  8964 net.cpp:382] lstm1_cont_slice -> cont_75
I0506 10:14:40.342447  8964 net.cpp:382] lstm1_cont_slice -> cont_76
I0506 10:14:40.342454  8964 net.cpp:382] lstm1_cont_slice -> cont_77
I0506 10:14:40.342460  8964 net.cpp:382] lstm1_cont_slice -> cont_78
I0506 10:14:40.342468  8964 net.cpp:382] lstm1_cont_slice -> cont_79
I0506 10:14:40.342474  8964 net.cpp:382] lstm1_cont_slice -> cont_80
I0506 10:14:40.343251  8964 net.cpp:124] Setting up lstm1_cont_slice
I0506 10:14:40.343257  8964 net.cpp:131] Top shape: 1 512 (512)
I0506 10:14:40.343261  8964 net.cpp:131] Top shape: 1 512 (512)
I0506 10:14:40.343264  8964 net.cpp:131] Top shape: 1 512 (512)
I0506 10:14:40.343267  8964 net.cpp:131] Top shape: 1 512 (512)
I0506 10:14:40.343271  8964 net.cpp:131] Top shape: 1 512 (512)
I0506 10:14:40.343273  8964 net.cpp:131] Top shape: 1 512 (512)
I0506 10:14:40.343277  8964 net.cpp:131] Top shape: 1 512 (512)
I0506 10:14:40.343281  8964 net.cpp:131] Top shape: 1 512 (512)
I0506 10:14:40.343283  8964 net.cpp:131] Top shape: 1 512 (512)
I0506 10:14:40.343286  8964 net.cpp:131] Top shape: 1 512 (512)
I0506 10:14:40.343289  8964 net.cpp:131] Top shape: 1 512 (512)
I0506 10:14:40.343292  8964 net.cpp:131] Top shape: 1 512 (512)
I0506 10:14:40.343295  8964 net.cpp:131] Top shape: 1 512 (512)
I0506 10:14:40.343298  8964 net.cpp:131] Top shape: 1 512 (512)
I0506 10:14:40.343302  8964 net.cpp:131] Top shape: 1 512 (512)
I0506 10:14:40.343304  8964 net.cpp:131] Top shape: 1 512 (512)
I0506 10:14:40.343307  8964 net.cpp:131] Top shape: 1 512 (512)
I0506 10:14:40.343310  8964 net.cpp:131] Top shape: 1 512 (512)
I0506 10:14:40.343313  8964 net.cpp:131] Top shape: 1 512 (512)
I0506 10:14:40.343317  8964 net.cpp:131] Top shape: 1 512 (512)
I0506 10:14:40.343319  8964 net.cpp:131] Top shape: 1 512 (512)
I0506 10:14:40.343322  8964 net.cpp:131] Top shape: 1 512 (512)
I0506 10:14:40.343324  8964 net.cpp:131] Top shape: 1 512 (512)
I0506 10:14:40.343327  8964 net.cpp:131] Top shape: 1 512 (512)
I0506 10:14:40.343330  8964 net.cpp:131] Top shape: 1 512 (512)
I0506 10:14:40.343333  8964 net.cpp:131] Top shape: 1 512 (512)
I0506 10:14:40.343336  8964 net.cpp:131] Top shape: 1 512 (512)
I0506 10:14:40.343339  8964 net.cpp:131] Top shape: 1 512 (512)
I0506 10:14:40.343343  8964 net.cpp:131] Top shape: 1 512 (512)
I0506 10:14:40.343345  8964 net.cpp:131] Top shape: 1 512 (512)
I0506 10:14:40.343348  8964 net.cpp:131] Top shape: 1 512 (512)
I0506 10:14:40.343351  8964 net.cpp:131] Top shape: 1 512 (512)
I0506 10:14:40.343354  8964 net.cpp:131] Top shape: 1 512 (512)
I0506 10:14:40.343358  8964 net.cpp:131] Top shape: 1 512 (512)
I0506 10:14:40.343360  8964 net.cpp:131] Top shape: 1 512 (512)
I0506 10:14:40.343364  8964 net.cpp:131] Top shape: 1 512 (512)
I0506 10:14:40.343366  8964 net.cpp:131] Top shape: 1 512 (512)
I0506 10:14:40.343369  8964 net.cpp:131] Top shape: 1 512 (512)
I0506 10:14:40.343372  8964 net.cpp:131] Top shape: 1 512 (512)
I0506 10:14:40.343375  8964 net.cpp:131] Top shape: 1 512 (512)
I0506 10:14:40.343379  8964 net.cpp:131] Top shape: 1 512 (512)
I0506 10:14:40.343381  8964 net.cpp:131] Top shape: 1 512 (512)
I0506 10:14:40.343384  8964 net.cpp:131] Top shape: 1 512 (512)
I0506 10:14:40.343387  8964 net.cpp:131] Top shape: 1 512 (512)
I0506 10:14:40.343389  8964 net.cpp:131] Top shape: 1 512 (512)
I0506 10:14:40.343392  8964 net.cpp:131] Top shape: 1 512 (512)
I0506 10:14:40.343395  8964 net.cpp:131] Top shape: 1 512 (512)
I0506 10:14:40.343399  8964 net.cpp:131] Top shape: 1 512 (512)
I0506 10:14:40.343401  8964 net.cpp:131] Top shape: 1 512 (512)
I0506 10:14:40.343412  8964 net.cpp:131] Top shape: 1 512 (512)
I0506 10:14:40.343415  8964 net.cpp:131] Top shape: 1 512 (512)
I0506 10:14:40.343418  8964 net.cpp:131] Top shape: 1 512 (512)
I0506 10:14:40.343421  8964 net.cpp:131] Top shape: 1 512 (512)
I0506 10:14:40.343425  8964 net.cpp:131] Top shape: 1 512 (512)
I0506 10:14:40.343427  8964 net.cpp:131] Top shape: 1 512 (512)
I0506 10:14:40.343430  8964 net.cpp:131] Top shape: 1 512 (512)
I0506 10:14:40.343433  8964 net.cpp:131] Top shape: 1 512 (512)
I0506 10:14:40.343436  8964 net.cpp:131] Top shape: 1 512 (512)
I0506 10:14:40.343439  8964 net.cpp:131] Top shape: 1 512 (512)
I0506 10:14:40.343442  8964 net.cpp:131] Top shape: 1 512 (512)
I0506 10:14:40.343446  8964 net.cpp:131] Top shape: 1 512 (512)
I0506 10:14:40.343448  8964 net.cpp:131] Top shape: 1 512 (512)
I0506 10:14:40.343451  8964 net.cpp:131] Top shape: 1 512 (512)
I0506 10:14:40.343454  8964 net.cpp:131] Top shape: 1 512 (512)
I0506 10:14:40.343457  8964 net.cpp:131] Top shape: 1 512 (512)
I0506 10:14:40.343461  8964 net.cpp:131] Top shape: 1 512 (512)
I0506 10:14:40.343463  8964 net.cpp:131] Top shape: 1 512 (512)
I0506 10:14:40.343466  8964 net.cpp:131] Top shape: 1 512 (512)
I0506 10:14:40.343469  8964 net.cpp:131] Top shape: 1 512 (512)
I0506 10:14:40.343472  8964 net.cpp:131] Top shape: 1 512 (512)
I0506 10:14:40.343475  8964 net.cpp:131] Top shape: 1 512 (512)
I0506 10:14:40.343478  8964 net.cpp:131] Top shape: 1 512 (512)
I0506 10:14:40.343482  8964 net.cpp:131] Top shape: 1 512 (512)
I0506 10:14:40.343484  8964 net.cpp:131] Top shape: 1 512 (512)
I0506 10:14:40.343487  8964 net.cpp:131] Top shape: 1 512 (512)
I0506 10:14:40.343490  8964 net.cpp:131] Top shape: 1 512 (512)
I0506 10:14:40.343493  8964 net.cpp:131] Top shape: 1 512 (512)
I0506 10:14:40.343497  8964 net.cpp:131] Top shape: 1 512 (512)
I0506 10:14:40.343498  8964 net.cpp:131] Top shape: 1 512 (512)
I0506 10:14:40.343502  8964 net.cpp:131] Top shape: 1 512 (512)
I0506 10:14:40.343504  8964 net.cpp:139] Memory required for data: 15482880
I0506 10:14:40.343508  8964 layer_factory.hpp:77] Creating layer cont_1_lstm1_cont_slice_0_split
I0506 10:14:40.343513  8964 net.cpp:86] Creating Layer cont_1_lstm1_cont_slice_0_split
I0506 10:14:40.343515  8964 net.cpp:408] cont_1_lstm1_cont_slice_0_split <- cont_1
I0506 10:14:40.343520  8964 net.cpp:382] cont_1_lstm1_cont_slice_0_split -> cont_1_lstm1_cont_slice_0_split_0
I0506 10:14:40.343525  8964 net.cpp:382] cont_1_lstm1_cont_slice_0_split -> cont_1_lstm1_cont_slice_0_split_1
I0506 10:14:40.343549  8964 net.cpp:124] Setting up cont_1_lstm1_cont_slice_0_split
I0506 10:14:40.343551  8964 net.cpp:131] Top shape: 1 512 (512)
I0506 10:14:40.343554  8964 net.cpp:131] Top shape: 1 512 (512)
I0506 10:14:40.343557  8964 net.cpp:139] Memory required for data: 15486976
I0506 10:14:40.343560  8964 layer_factory.hpp:77] Creating layer cont_2_lstm1_cont_slice_1_split
I0506 10:14:40.343564  8964 net.cpp:86] Creating Layer cont_2_lstm1_cont_slice_1_split
I0506 10:14:40.343567  8964 net.cpp:408] cont_2_lstm1_cont_slice_1_split <- cont_2
I0506 10:14:40.343571  8964 net.cpp:382] cont_2_lstm1_cont_slice_1_split -> cont_2_lstm1_cont_slice_1_split_0
I0506 10:14:40.343575  8964 net.cpp:382] cont_2_lstm1_cont_slice_1_split -> cont_2_lstm1_cont_slice_1_split_1
I0506 10:14:40.343597  8964 net.cpp:124] Setting up cont_2_lstm1_cont_slice_1_split
I0506 10:14:40.343600  8964 net.cpp:131] Top shape: 1 512 (512)
I0506 10:14:40.343603  8964 net.cpp:131] Top shape: 1 512 (512)
I0506 10:14:40.343606  8964 net.cpp:139] Memory required for data: 15491072
I0506 10:14:40.343610  8964 layer_factory.hpp:77] Creating layer cont_3_lstm1_cont_slice_2_split
I0506 10:14:40.343612  8964 net.cpp:86] Creating Layer cont_3_lstm1_cont_slice_2_split
I0506 10:14:40.343616  8964 net.cpp:408] cont_3_lstm1_cont_slice_2_split <- cont_3
I0506 10:14:40.343619  8964 net.cpp:382] cont_3_lstm1_cont_slice_2_split -> cont_3_lstm1_cont_slice_2_split_0
I0506 10:14:40.343624  8964 net.cpp:382] cont_3_lstm1_cont_slice_2_split -> cont_3_lstm1_cont_slice_2_split_1
I0506 10:14:40.343653  8964 net.cpp:124] Setting up cont_3_lstm1_cont_slice_2_split
I0506 10:14:40.343657  8964 net.cpp:131] Top shape: 1 512 (512)
I0506 10:14:40.343660  8964 net.cpp:131] Top shape: 1 512 (512)
I0506 10:14:40.343663  8964 net.cpp:139] Memory required for data: 15495168
I0506 10:14:40.343665  8964 layer_factory.hpp:77] Creating layer cont_4_lstm1_cont_slice_3_split
I0506 10:14:40.343669  8964 net.cpp:86] Creating Layer cont_4_lstm1_cont_slice_3_split
I0506 10:14:40.343672  8964 net.cpp:408] cont_4_lstm1_cont_slice_3_split <- cont_4
I0506 10:14:40.343675  8964 net.cpp:382] cont_4_lstm1_cont_slice_3_split -> cont_4_lstm1_cont_slice_3_split_0
I0506 10:14:40.343680  8964 net.cpp:382] cont_4_lstm1_cont_slice_3_split -> cont_4_lstm1_cont_slice_3_split_1
I0506 10:14:40.343701  8964 net.cpp:124] Setting up cont_4_lstm1_cont_slice_3_split
I0506 10:14:40.343704  8964 net.cpp:131] Top shape: 1 512 (512)
I0506 10:14:40.343708  8964 net.cpp:131] Top shape: 1 512 (512)
I0506 10:14:40.343713  8964 net.cpp:139] Memory required for data: 15499264
I0506 10:14:40.343715  8964 layer_factory.hpp:77] Creating layer cont_5_lstm1_cont_slice_4_split
I0506 10:14:40.343719  8964 net.cpp:86] Creating Layer cont_5_lstm1_cont_slice_4_split
I0506 10:14:40.343722  8964 net.cpp:408] cont_5_lstm1_cont_slice_4_split <- cont_5
I0506 10:14:40.343726  8964 net.cpp:382] cont_5_lstm1_cont_slice_4_split -> cont_5_lstm1_cont_slice_4_split_0
I0506 10:14:40.343730  8964 net.cpp:382] cont_5_lstm1_cont_slice_4_split -> cont_5_lstm1_cont_slice_4_split_1
I0506 10:14:40.343751  8964 net.cpp:124] Setting up cont_5_lstm1_cont_slice_4_split
I0506 10:14:40.343755  8964 net.cpp:131] Top shape: 1 512 (512)
I0506 10:14:40.343757  8964 net.cpp:131] Top shape: 1 512 (512)
I0506 10:14:40.343760  8964 net.cpp:139] Memory required for data: 15503360
I0506 10:14:40.343763  8964 layer_factory.hpp:77] Creating layer cont_6_lstm1_cont_slice_5_split
I0506 10:14:40.343767  8964 net.cpp:86] Creating Layer cont_6_lstm1_cont_slice_5_split
I0506 10:14:40.343770  8964 net.cpp:408] cont_6_lstm1_cont_slice_5_split <- cont_6
I0506 10:14:40.343773  8964 net.cpp:382] cont_6_lstm1_cont_slice_5_split -> cont_6_lstm1_cont_slice_5_split_0
I0506 10:14:40.343778  8964 net.cpp:382] cont_6_lstm1_cont_slice_5_split -> cont_6_lstm1_cont_slice_5_split_1
I0506 10:14:40.343798  8964 net.cpp:124] Setting up cont_6_lstm1_cont_slice_5_split
I0506 10:14:40.343801  8964 net.cpp:131] Top shape: 1 512 (512)
I0506 10:14:40.343804  8964 net.cpp:131] Top shape: 1 512 (512)
I0506 10:14:40.343807  8964 net.cpp:139] Memory required for data: 15507456
I0506 10:14:40.343811  8964 layer_factory.hpp:77] Creating layer cont_7_lstm1_cont_slice_6_split
I0506 10:14:40.343813  8964 net.cpp:86] Creating Layer cont_7_lstm1_cont_slice_6_split
I0506 10:14:40.343816  8964 net.cpp:408] cont_7_lstm1_cont_slice_6_split <- cont_7
I0506 10:14:40.343821  8964 net.cpp:382] cont_7_lstm1_cont_slice_6_split -> cont_7_lstm1_cont_slice_6_split_0
I0506 10:14:40.343825  8964 net.cpp:382] cont_7_lstm1_cont_slice_6_split -> cont_7_lstm1_cont_slice_6_split_1
I0506 10:14:40.343847  8964 net.cpp:124] Setting up cont_7_lstm1_cont_slice_6_split
I0506 10:14:40.343849  8964 net.cpp:131] Top shape: 1 512 (512)
I0506 10:14:40.343852  8964 net.cpp:131] Top shape: 1 512 (512)
I0506 10:14:40.343855  8964 net.cpp:139] Memory required for data: 15511552
I0506 10:14:40.343858  8964 layer_factory.hpp:77] Creating layer cont_8_lstm1_cont_slice_7_split
I0506 10:14:40.343861  8964 net.cpp:86] Creating Layer cont_8_lstm1_cont_slice_7_split
I0506 10:14:40.343864  8964 net.cpp:408] cont_8_lstm1_cont_slice_7_split <- cont_8
I0506 10:14:40.343868  8964 net.cpp:382] cont_8_lstm1_cont_slice_7_split -> cont_8_lstm1_cont_slice_7_split_0
I0506 10:14:40.343873  8964 net.cpp:382] cont_8_lstm1_cont_slice_7_split -> cont_8_lstm1_cont_slice_7_split_1
I0506 10:14:40.343892  8964 net.cpp:124] Setting up cont_8_lstm1_cont_slice_7_split
I0506 10:14:40.343895  8964 net.cpp:131] Top shape: 1 512 (512)
I0506 10:14:40.343899  8964 net.cpp:131] Top shape: 1 512 (512)
I0506 10:14:40.343909  8964 net.cpp:139] Memory required for data: 15515648
I0506 10:14:40.343911  8964 layer_factory.hpp:77] Creating layer cont_9_lstm1_cont_slice_8_split
I0506 10:14:40.343915  8964 net.cpp:86] Creating Layer cont_9_lstm1_cont_slice_8_split
I0506 10:14:40.343917  8964 net.cpp:408] cont_9_lstm1_cont_slice_8_split <- cont_9
I0506 10:14:40.343921  8964 net.cpp:382] cont_9_lstm1_cont_slice_8_split -> cont_9_lstm1_cont_slice_8_split_0
I0506 10:14:40.343926  8964 net.cpp:382] cont_9_lstm1_cont_slice_8_split -> cont_9_lstm1_cont_slice_8_split_1
I0506 10:14:40.343948  8964 net.cpp:124] Setting up cont_9_lstm1_cont_slice_8_split
I0506 10:14:40.343951  8964 net.cpp:131] Top shape: 1 512 (512)
I0506 10:14:40.343955  8964 net.cpp:131] Top shape: 1 512 (512)
I0506 10:14:40.343957  8964 net.cpp:139] Memory required for data: 15519744
I0506 10:14:40.343961  8964 layer_factory.hpp:77] Creating layer cont_10_lstm1_cont_slice_9_split
I0506 10:14:40.343964  8964 net.cpp:86] Creating Layer cont_10_lstm1_cont_slice_9_split
I0506 10:14:40.343967  8964 net.cpp:408] cont_10_lstm1_cont_slice_9_split <- cont_10
I0506 10:14:40.343971  8964 net.cpp:382] cont_10_lstm1_cont_slice_9_split -> cont_10_lstm1_cont_slice_9_split_0
I0506 10:14:40.343976  8964 net.cpp:382] cont_10_lstm1_cont_slice_9_split -> cont_10_lstm1_cont_slice_9_split_1
I0506 10:14:40.343997  8964 net.cpp:124] Setting up cont_10_lstm1_cont_slice_9_split
I0506 10:14:40.344000  8964 net.cpp:131] Top shape: 1 512 (512)
I0506 10:14:40.344003  8964 net.cpp:131] Top shape: 1 512 (512)
I0506 10:14:40.344007  8964 net.cpp:139] Memory required for data: 15523840
I0506 10:14:40.344008  8964 layer_factory.hpp:77] Creating layer cont_11_lstm1_cont_slice_10_split
I0506 10:14:40.344012  8964 net.cpp:86] Creating Layer cont_11_lstm1_cont_slice_10_split
I0506 10:14:40.344015  8964 net.cpp:408] cont_11_lstm1_cont_slice_10_split <- cont_11
I0506 10:14:40.344018  8964 net.cpp:382] cont_11_lstm1_cont_slice_10_split -> cont_11_lstm1_cont_slice_10_split_0
I0506 10:14:40.344023  8964 net.cpp:382] cont_11_lstm1_cont_slice_10_split -> cont_11_lstm1_cont_slice_10_split_1
I0506 10:14:40.344044  8964 net.cpp:124] Setting up cont_11_lstm1_cont_slice_10_split
I0506 10:14:40.344048  8964 net.cpp:131] Top shape: 1 512 (512)
I0506 10:14:40.344050  8964 net.cpp:131] Top shape: 1 512 (512)
I0506 10:14:40.344053  8964 net.cpp:139] Memory required for data: 15527936
I0506 10:14:40.344056  8964 layer_factory.hpp:77] Creating layer cont_12_lstm1_cont_slice_11_split
I0506 10:14:40.344059  8964 net.cpp:86] Creating Layer cont_12_lstm1_cont_slice_11_split
I0506 10:14:40.344063  8964 net.cpp:408] cont_12_lstm1_cont_slice_11_split <- cont_12
I0506 10:14:40.344066  8964 net.cpp:382] cont_12_lstm1_cont_slice_11_split -> cont_12_lstm1_cont_slice_11_split_0
I0506 10:14:40.344070  8964 net.cpp:382] cont_12_lstm1_cont_slice_11_split -> cont_12_lstm1_cont_slice_11_split_1
I0506 10:14:40.344092  8964 net.cpp:124] Setting up cont_12_lstm1_cont_slice_11_split
I0506 10:14:40.344094  8964 net.cpp:131] Top shape: 1 512 (512)
I0506 10:14:40.344097  8964 net.cpp:131] Top shape: 1 512 (512)
I0506 10:14:40.344100  8964 net.cpp:139] Memory required for data: 15532032
I0506 10:14:40.344103  8964 layer_factory.hpp:77] Creating layer cont_13_lstm1_cont_slice_12_split
I0506 10:14:40.344106  8964 net.cpp:86] Creating Layer cont_13_lstm1_cont_slice_12_split
I0506 10:14:40.344110  8964 net.cpp:408] cont_13_lstm1_cont_slice_12_split <- cont_13
I0506 10:14:40.344113  8964 net.cpp:382] cont_13_lstm1_cont_slice_12_split -> cont_13_lstm1_cont_slice_12_split_0
I0506 10:14:40.344118  8964 net.cpp:382] cont_13_lstm1_cont_slice_12_split -> cont_13_lstm1_cont_slice_12_split_1
I0506 10:14:40.344139  8964 net.cpp:124] Setting up cont_13_lstm1_cont_slice_12_split
I0506 10:14:40.344142  8964 net.cpp:131] Top shape: 1 512 (512)
I0506 10:14:40.344146  8964 net.cpp:131] Top shape: 1 512 (512)
I0506 10:14:40.344148  8964 net.cpp:139] Memory required for data: 15536128
I0506 10:14:40.344151  8964 layer_factory.hpp:77] Creating layer cont_14_lstm1_cont_slice_13_split
I0506 10:14:40.344161  8964 net.cpp:86] Creating Layer cont_14_lstm1_cont_slice_13_split
I0506 10:14:40.344164  8964 net.cpp:408] cont_14_lstm1_cont_slice_13_split <- cont_14
I0506 10:14:40.344168  8964 net.cpp:382] cont_14_lstm1_cont_slice_13_split -> cont_14_lstm1_cont_slice_13_split_0
I0506 10:14:40.344173  8964 net.cpp:382] cont_14_lstm1_cont_slice_13_split -> cont_14_lstm1_cont_slice_13_split_1
I0506 10:14:40.344195  8964 net.cpp:124] Setting up cont_14_lstm1_cont_slice_13_split
I0506 10:14:40.344198  8964 net.cpp:131] Top shape: 1 512 (512)
I0506 10:14:40.344202  8964 net.cpp:131] Top shape: 1 512 (512)
I0506 10:14:40.344204  8964 net.cpp:139] Memory required for data: 15540224
I0506 10:14:40.344207  8964 layer_factory.hpp:77] Creating layer cont_15_lstm1_cont_slice_14_split
I0506 10:14:40.344210  8964 net.cpp:86] Creating Layer cont_15_lstm1_cont_slice_14_split
I0506 10:14:40.344213  8964 net.cpp:408] cont_15_lstm1_cont_slice_14_split <- cont_15
I0506 10:14:40.344218  8964 net.cpp:382] cont_15_lstm1_cont_slice_14_split -> cont_15_lstm1_cont_slice_14_split_0
I0506 10:14:40.344223  8964 net.cpp:382] cont_15_lstm1_cont_slice_14_split -> cont_15_lstm1_cont_slice_14_split_1
I0506 10:14:40.344244  8964 net.cpp:124] Setting up cont_15_lstm1_cont_slice_14_split
I0506 10:14:40.344247  8964 net.cpp:131] Top shape: 1 512 (512)
I0506 10:14:40.344250  8964 net.cpp:131] Top shape: 1 512 (512)
I0506 10:14:40.344254  8964 net.cpp:139] Memory required for data: 15544320
I0506 10:14:40.344257  8964 layer_factory.hpp:77] Creating layer cont_16_lstm1_cont_slice_15_split
I0506 10:14:40.344262  8964 net.cpp:86] Creating Layer cont_16_lstm1_cont_slice_15_split
I0506 10:14:40.344266  8964 net.cpp:408] cont_16_lstm1_cont_slice_15_split <- cont_16
I0506 10:14:40.344271  8964 net.cpp:382] cont_16_lstm1_cont_slice_15_split -> cont_16_lstm1_cont_slice_15_split_0
I0506 10:14:40.344276  8964 net.cpp:382] cont_16_lstm1_cont_slice_15_split -> cont_16_lstm1_cont_slice_15_split_1
I0506 10:14:40.344300  8964 net.cpp:124] Setting up cont_16_lstm1_cont_slice_15_split
I0506 10:14:40.344302  8964 net.cpp:131] Top shape: 1 512 (512)
I0506 10:14:40.344305  8964 net.cpp:131] Top shape: 1 512 (512)
I0506 10:14:40.344308  8964 net.cpp:139] Memory required for data: 15548416
I0506 10:14:40.344310  8964 layer_factory.hpp:77] Creating layer cont_17_lstm1_cont_slice_16_split
I0506 10:14:40.344314  8964 net.cpp:86] Creating Layer cont_17_lstm1_cont_slice_16_split
I0506 10:14:40.344317  8964 net.cpp:408] cont_17_lstm1_cont_slice_16_split <- cont_17
I0506 10:14:40.344321  8964 net.cpp:382] cont_17_lstm1_cont_slice_16_split -> cont_17_lstm1_cont_slice_16_split_0
I0506 10:14:40.344326  8964 net.cpp:382] cont_17_lstm1_cont_slice_16_split -> cont_17_lstm1_cont_slice_16_split_1
I0506 10:14:40.344347  8964 net.cpp:124] Setting up cont_17_lstm1_cont_slice_16_split
I0506 10:14:40.344349  8964 net.cpp:131] Top shape: 1 512 (512)
I0506 10:14:40.344352  8964 net.cpp:131] Top shape: 1 512 (512)
I0506 10:14:40.344357  8964 net.cpp:139] Memory required for data: 15552512
I0506 10:14:40.344358  8964 layer_factory.hpp:77] Creating layer cont_18_lstm1_cont_slice_17_split
I0506 10:14:40.344362  8964 net.cpp:86] Creating Layer cont_18_lstm1_cont_slice_17_split
I0506 10:14:40.344364  8964 net.cpp:408] cont_18_lstm1_cont_slice_17_split <- cont_18
I0506 10:14:40.344368  8964 net.cpp:382] cont_18_lstm1_cont_slice_17_split -> cont_18_lstm1_cont_slice_17_split_0
I0506 10:14:40.344373  8964 net.cpp:382] cont_18_lstm1_cont_slice_17_split -> cont_18_lstm1_cont_slice_17_split_1
I0506 10:14:40.344394  8964 net.cpp:124] Setting up cont_18_lstm1_cont_slice_17_split
I0506 10:14:40.344398  8964 net.cpp:131] Top shape: 1 512 (512)
I0506 10:14:40.344400  8964 net.cpp:131] Top shape: 1 512 (512)
I0506 10:14:40.344403  8964 net.cpp:139] Memory required for data: 15556608
I0506 10:14:40.344406  8964 layer_factory.hpp:77] Creating layer cont_19_lstm1_cont_slice_18_split
I0506 10:14:40.344409  8964 net.cpp:86] Creating Layer cont_19_lstm1_cont_slice_18_split
I0506 10:14:40.344420  8964 net.cpp:408] cont_19_lstm1_cont_slice_18_split <- cont_19
I0506 10:14:40.344424  8964 net.cpp:382] cont_19_lstm1_cont_slice_18_split -> cont_19_lstm1_cont_slice_18_split_0
I0506 10:14:40.344429  8964 net.cpp:382] cont_19_lstm1_cont_slice_18_split -> cont_19_lstm1_cont_slice_18_split_1
I0506 10:14:40.344452  8964 net.cpp:124] Setting up cont_19_lstm1_cont_slice_18_split
I0506 10:14:40.344455  8964 net.cpp:131] Top shape: 1 512 (512)
I0506 10:14:40.344460  8964 net.cpp:131] Top shape: 1 512 (512)
I0506 10:14:40.344461  8964 net.cpp:139] Memory required for data: 15560704
I0506 10:14:40.344465  8964 layer_factory.hpp:77] Creating layer cont_20_lstm1_cont_slice_19_split
I0506 10:14:40.344467  8964 net.cpp:86] Creating Layer cont_20_lstm1_cont_slice_19_split
I0506 10:14:40.344470  8964 net.cpp:408] cont_20_lstm1_cont_slice_19_split <- cont_20
I0506 10:14:40.344475  8964 net.cpp:382] cont_20_lstm1_cont_slice_19_split -> cont_20_lstm1_cont_slice_19_split_0
I0506 10:14:40.344480  8964 net.cpp:382] cont_20_lstm1_cont_slice_19_split -> cont_20_lstm1_cont_slice_19_split_1
I0506 10:14:40.344501  8964 net.cpp:124] Setting up cont_20_lstm1_cont_slice_19_split
I0506 10:14:40.344504  8964 net.cpp:131] Top shape: 1 512 (512)
I0506 10:14:40.344507  8964 net.cpp:131] Top shape: 1 512 (512)
I0506 10:14:40.344511  8964 net.cpp:139] Memory required for data: 15564800
I0506 10:14:40.344512  8964 layer_factory.hpp:77] Creating layer cont_21_lstm1_cont_slice_20_split
I0506 10:14:40.344516  8964 net.cpp:86] Creating Layer cont_21_lstm1_cont_slice_20_split
I0506 10:14:40.344518  8964 net.cpp:408] cont_21_lstm1_cont_slice_20_split <- cont_21
I0506 10:14:40.344522  8964 net.cpp:382] cont_21_lstm1_cont_slice_20_split -> cont_21_lstm1_cont_slice_20_split_0
I0506 10:14:40.344527  8964 net.cpp:382] cont_21_lstm1_cont_slice_20_split -> cont_21_lstm1_cont_slice_20_split_1
I0506 10:14:40.344548  8964 net.cpp:124] Setting up cont_21_lstm1_cont_slice_20_split
I0506 10:14:40.344552  8964 net.cpp:131] Top shape: 1 512 (512)
I0506 10:14:40.344554  8964 net.cpp:131] Top shape: 1 512 (512)
I0506 10:14:40.344558  8964 net.cpp:139] Memory required for data: 15568896
I0506 10:14:40.344560  8964 layer_factory.hpp:77] Creating layer cont_22_lstm1_cont_slice_21_split
I0506 10:14:40.344563  8964 net.cpp:86] Creating Layer cont_22_lstm1_cont_slice_21_split
I0506 10:14:40.344566  8964 net.cpp:408] cont_22_lstm1_cont_slice_21_split <- cont_22
I0506 10:14:40.344570  8964 net.cpp:382] cont_22_lstm1_cont_slice_21_split -> cont_22_lstm1_cont_slice_21_split_0
I0506 10:14:40.344574  8964 net.cpp:382] cont_22_lstm1_cont_slice_21_split -> cont_22_lstm1_cont_slice_21_split_1
I0506 10:14:40.344596  8964 net.cpp:124] Setting up cont_22_lstm1_cont_slice_21_split
I0506 10:14:40.344599  8964 net.cpp:131] Top shape: 1 512 (512)
I0506 10:14:40.344602  8964 net.cpp:131] Top shape: 1 512 (512)
I0506 10:14:40.344605  8964 net.cpp:139] Memory required for data: 15572992
I0506 10:14:40.344609  8964 layer_factory.hpp:77] Creating layer cont_23_lstm1_cont_slice_22_split
I0506 10:14:40.344611  8964 net.cpp:86] Creating Layer cont_23_lstm1_cont_slice_22_split
I0506 10:14:40.344614  8964 net.cpp:408] cont_23_lstm1_cont_slice_22_split <- cont_23
I0506 10:14:40.344619  8964 net.cpp:382] cont_23_lstm1_cont_slice_22_split -> cont_23_lstm1_cont_slice_22_split_0
I0506 10:14:40.344625  8964 net.cpp:382] cont_23_lstm1_cont_slice_22_split -> cont_23_lstm1_cont_slice_22_split_1
I0506 10:14:40.344647  8964 net.cpp:124] Setting up cont_23_lstm1_cont_slice_22_split
I0506 10:14:40.344650  8964 net.cpp:131] Top shape: 1 512 (512)
I0506 10:14:40.344653  8964 net.cpp:131] Top shape: 1 512 (512)
I0506 10:14:40.344656  8964 net.cpp:139] Memory required for data: 15577088
I0506 10:14:40.344658  8964 layer_factory.hpp:77] Creating layer cont_24_lstm1_cont_slice_23_split
I0506 10:14:40.344662  8964 net.cpp:86] Creating Layer cont_24_lstm1_cont_slice_23_split
I0506 10:14:40.344666  8964 net.cpp:408] cont_24_lstm1_cont_slice_23_split <- cont_24
I0506 10:14:40.344669  8964 net.cpp:382] cont_24_lstm1_cont_slice_23_split -> cont_24_lstm1_cont_slice_23_split_0
I0506 10:14:40.344682  8964 net.cpp:382] cont_24_lstm1_cont_slice_23_split -> cont_24_lstm1_cont_slice_23_split_1
I0506 10:14:40.344707  8964 net.cpp:124] Setting up cont_24_lstm1_cont_slice_23_split
I0506 10:14:40.344709  8964 net.cpp:131] Top shape: 1 512 (512)
I0506 10:14:40.344712  8964 net.cpp:131] Top shape: 1 512 (512)
I0506 10:14:40.344715  8964 net.cpp:139] Memory required for data: 15581184
I0506 10:14:40.344717  8964 layer_factory.hpp:77] Creating layer cont_25_lstm1_cont_slice_24_split
I0506 10:14:40.344722  8964 net.cpp:86] Creating Layer cont_25_lstm1_cont_slice_24_split
I0506 10:14:40.344724  8964 net.cpp:408] cont_25_lstm1_cont_slice_24_split <- cont_25
I0506 10:14:40.344728  8964 net.cpp:382] cont_25_lstm1_cont_slice_24_split -> cont_25_lstm1_cont_slice_24_split_0
I0506 10:14:40.344733  8964 net.cpp:382] cont_25_lstm1_cont_slice_24_split -> cont_25_lstm1_cont_slice_24_split_1
I0506 10:14:40.344754  8964 net.cpp:124] Setting up cont_25_lstm1_cont_slice_24_split
I0506 10:14:40.344758  8964 net.cpp:131] Top shape: 1 512 (512)
I0506 10:14:40.344760  8964 net.cpp:131] Top shape: 1 512 (512)
I0506 10:14:40.344763  8964 net.cpp:139] Memory required for data: 15585280
I0506 10:14:40.344765  8964 layer_factory.hpp:77] Creating layer cont_26_lstm1_cont_slice_25_split
I0506 10:14:40.344769  8964 net.cpp:86] Creating Layer cont_26_lstm1_cont_slice_25_split
I0506 10:14:40.344772  8964 net.cpp:408] cont_26_lstm1_cont_slice_25_split <- cont_26
I0506 10:14:40.344775  8964 net.cpp:382] cont_26_lstm1_cont_slice_25_split -> cont_26_lstm1_cont_slice_25_split_0
I0506 10:14:40.344780  8964 net.cpp:382] cont_26_lstm1_cont_slice_25_split -> cont_26_lstm1_cont_slice_25_split_1
I0506 10:14:40.344802  8964 net.cpp:124] Setting up cont_26_lstm1_cont_slice_25_split
I0506 10:14:40.344805  8964 net.cpp:131] Top shape: 1 512 (512)
I0506 10:14:40.344808  8964 net.cpp:131] Top shape: 1 512 (512)
I0506 10:14:40.344811  8964 net.cpp:139] Memory required for data: 15589376
I0506 10:14:40.344813  8964 layer_factory.hpp:77] Creating layer cont_27_lstm1_cont_slice_26_split
I0506 10:14:40.344817  8964 net.cpp:86] Creating Layer cont_27_lstm1_cont_slice_26_split
I0506 10:14:40.344820  8964 net.cpp:408] cont_27_lstm1_cont_slice_26_split <- cont_27
I0506 10:14:40.344823  8964 net.cpp:382] cont_27_lstm1_cont_slice_26_split -> cont_27_lstm1_cont_slice_26_split_0
I0506 10:14:40.344828  8964 net.cpp:382] cont_27_lstm1_cont_slice_26_split -> cont_27_lstm1_cont_slice_26_split_1
I0506 10:14:40.344849  8964 net.cpp:124] Setting up cont_27_lstm1_cont_slice_26_split
I0506 10:14:40.344852  8964 net.cpp:131] Top shape: 1 512 (512)
I0506 10:14:40.344856  8964 net.cpp:131] Top shape: 1 512 (512)
I0506 10:14:40.344858  8964 net.cpp:139] Memory required for data: 15593472
I0506 10:14:40.344861  8964 layer_factory.hpp:77] Creating layer cont_28_lstm1_cont_slice_27_split
I0506 10:14:40.344864  8964 net.cpp:86] Creating Layer cont_28_lstm1_cont_slice_27_split
I0506 10:14:40.344867  8964 net.cpp:408] cont_28_lstm1_cont_slice_27_split <- cont_28
I0506 10:14:40.344871  8964 net.cpp:382] cont_28_lstm1_cont_slice_27_split -> cont_28_lstm1_cont_slice_27_split_0
I0506 10:14:40.344875  8964 net.cpp:382] cont_28_lstm1_cont_slice_27_split -> cont_28_lstm1_cont_slice_27_split_1
I0506 10:14:40.344897  8964 net.cpp:124] Setting up cont_28_lstm1_cont_slice_27_split
I0506 10:14:40.344899  8964 net.cpp:131] Top shape: 1 512 (512)
I0506 10:14:40.344902  8964 net.cpp:131] Top shape: 1 512 (512)
I0506 10:14:40.344905  8964 net.cpp:139] Memory required for data: 15597568
I0506 10:14:40.344908  8964 layer_factory.hpp:77] Creating layer cont_29_lstm1_cont_slice_28_split
I0506 10:14:40.344911  8964 net.cpp:86] Creating Layer cont_29_lstm1_cont_slice_28_split
I0506 10:14:40.344914  8964 net.cpp:408] cont_29_lstm1_cont_slice_28_split <- cont_29
I0506 10:14:40.344918  8964 net.cpp:382] cont_29_lstm1_cont_slice_28_split -> cont_29_lstm1_cont_slice_28_split_0
I0506 10:14:40.344923  8964 net.cpp:382] cont_29_lstm1_cont_slice_28_split -> cont_29_lstm1_cont_slice_28_split_1
I0506 10:14:40.344952  8964 net.cpp:124] Setting up cont_29_lstm1_cont_slice_28_split
I0506 10:14:40.344955  8964 net.cpp:131] Top shape: 1 512 (512)
I0506 10:14:40.344959  8964 net.cpp:131] Top shape: 1 512 (512)
I0506 10:14:40.344961  8964 net.cpp:139] Memory required for data: 15601664
I0506 10:14:40.344964  8964 layer_factory.hpp:77] Creating layer cont_30_lstm1_cont_slice_29_split
I0506 10:14:40.344969  8964 net.cpp:86] Creating Layer cont_30_lstm1_cont_slice_29_split
I0506 10:14:40.344971  8964 net.cpp:408] cont_30_lstm1_cont_slice_29_split <- cont_30
I0506 10:14:40.344975  8964 net.cpp:382] cont_30_lstm1_cont_slice_29_split -> cont_30_lstm1_cont_slice_29_split_0
I0506 10:14:40.344981  8964 net.cpp:382] cont_30_lstm1_cont_slice_29_split -> cont_30_lstm1_cont_slice_29_split_1
I0506 10:14:40.345003  8964 net.cpp:124] Setting up cont_30_lstm1_cont_slice_29_split
I0506 10:14:40.345006  8964 net.cpp:131] Top shape: 1 512 (512)
I0506 10:14:40.345010  8964 net.cpp:131] Top shape: 1 512 (512)
I0506 10:14:40.345012  8964 net.cpp:139] Memory required for data: 15605760
I0506 10:14:40.345016  8964 layer_factory.hpp:77] Creating layer cont_31_lstm1_cont_slice_30_split
I0506 10:14:40.345018  8964 net.cpp:86] Creating Layer cont_31_lstm1_cont_slice_30_split
I0506 10:14:40.345021  8964 net.cpp:408] cont_31_lstm1_cont_slice_30_split <- cont_31
I0506 10:14:40.345026  8964 net.cpp:382] cont_31_lstm1_cont_slice_30_split -> cont_31_lstm1_cont_slice_30_split_0
I0506 10:14:40.345031  8964 net.cpp:382] cont_31_lstm1_cont_slice_30_split -> cont_31_lstm1_cont_slice_30_split_1
I0506 10:14:40.345052  8964 net.cpp:124] Setting up cont_31_lstm1_cont_slice_30_split
I0506 10:14:40.345054  8964 net.cpp:131] Top shape: 1 512 (512)
I0506 10:14:40.345057  8964 net.cpp:131] Top shape: 1 512 (512)
I0506 10:14:40.345060  8964 net.cpp:139] Memory required for data: 15609856
I0506 10:14:40.345063  8964 layer_factory.hpp:77] Creating layer cont_32_lstm1_cont_slice_31_split
I0506 10:14:40.345067  8964 net.cpp:86] Creating Layer cont_32_lstm1_cont_slice_31_split
I0506 10:14:40.345069  8964 net.cpp:408] cont_32_lstm1_cont_slice_31_split <- cont_32
I0506 10:14:40.345073  8964 net.cpp:382] cont_32_lstm1_cont_slice_31_split -> cont_32_lstm1_cont_slice_31_split_0
I0506 10:14:40.345077  8964 net.cpp:382] cont_32_lstm1_cont_slice_31_split -> cont_32_lstm1_cont_slice_31_split_1
I0506 10:14:40.345098  8964 net.cpp:124] Setting up cont_32_lstm1_cont_slice_31_split
I0506 10:14:40.345101  8964 net.cpp:131] Top shape: 1 512 (512)
I0506 10:14:40.345104  8964 net.cpp:131] Top shape: 1 512 (512)
I0506 10:14:40.345108  8964 net.cpp:139] Memory required for data: 15613952
I0506 10:14:40.345109  8964 layer_factory.hpp:77] Creating layer cont_33_lstm1_cont_slice_32_split
I0506 10:14:40.345113  8964 net.cpp:86] Creating Layer cont_33_lstm1_cont_slice_32_split
I0506 10:14:40.345115  8964 net.cpp:408] cont_33_lstm1_cont_slice_32_split <- cont_33
I0506 10:14:40.345119  8964 net.cpp:382] cont_33_lstm1_cont_slice_32_split -> cont_33_lstm1_cont_slice_32_split_0
I0506 10:14:40.345124  8964 net.cpp:382] cont_33_lstm1_cont_slice_32_split -> cont_33_lstm1_cont_slice_32_split_1
I0506 10:14:40.345145  8964 net.cpp:124] Setting up cont_33_lstm1_cont_slice_32_split
I0506 10:14:40.345147  8964 net.cpp:131] Top shape: 1 512 (512)
I0506 10:14:40.345151  8964 net.cpp:131] Top shape: 1 512 (512)
I0506 10:14:40.345155  8964 net.cpp:139] Memory required for data: 15618048
I0506 10:14:40.345156  8964 layer_factory.hpp:77] Creating layer cont_34_lstm1_cont_slice_33_split
I0506 10:14:40.345160  8964 net.cpp:86] Creating Layer cont_34_lstm1_cont_slice_33_split
I0506 10:14:40.345162  8964 net.cpp:408] cont_34_lstm1_cont_slice_33_split <- cont_34
I0506 10:14:40.345166  8964 net.cpp:382] cont_34_lstm1_cont_slice_33_split -> cont_34_lstm1_cont_slice_33_split_0
I0506 10:14:40.345171  8964 net.cpp:382] cont_34_lstm1_cont_slice_33_split -> cont_34_lstm1_cont_slice_33_split_1
I0506 10:14:40.345192  8964 net.cpp:124] Setting up cont_34_lstm1_cont_slice_33_split
I0506 10:14:40.345196  8964 net.cpp:131] Top shape: 1 512 (512)
I0506 10:14:40.345206  8964 net.cpp:131] Top shape: 1 512 (512)
I0506 10:14:40.345208  8964 net.cpp:139] Memory required for data: 15622144
I0506 10:14:40.345211  8964 layer_factory.hpp:77] Creating layer cont_35_lstm1_cont_slice_34_split
I0506 10:14:40.345214  8964 net.cpp:86] Creating Layer cont_35_lstm1_cont_slice_34_split
I0506 10:14:40.345217  8964 net.cpp:408] cont_35_lstm1_cont_slice_34_split <- cont_35
I0506 10:14:40.345221  8964 net.cpp:382] cont_35_lstm1_cont_slice_34_split -> cont_35_lstm1_cont_slice_34_split_0
I0506 10:14:40.345225  8964 net.cpp:382] cont_35_lstm1_cont_slice_34_split -> cont_35_lstm1_cont_slice_34_split_1
I0506 10:14:40.345247  8964 net.cpp:124] Setting up cont_35_lstm1_cont_slice_34_split
I0506 10:14:40.345252  8964 net.cpp:131] Top shape: 1 512 (512)
I0506 10:14:40.345254  8964 net.cpp:131] Top shape: 1 512 (512)
I0506 10:14:40.345257  8964 net.cpp:139] Memory required for data: 15626240
I0506 10:14:40.345259  8964 layer_factory.hpp:77] Creating layer cont_36_lstm1_cont_slice_35_split
I0506 10:14:40.345263  8964 net.cpp:86] Creating Layer cont_36_lstm1_cont_slice_35_split
I0506 10:14:40.345265  8964 net.cpp:408] cont_36_lstm1_cont_slice_35_split <- cont_36
I0506 10:14:40.345269  8964 net.cpp:382] cont_36_lstm1_cont_slice_35_split -> cont_36_lstm1_cont_slice_35_split_0
I0506 10:14:40.345274  8964 net.cpp:382] cont_36_lstm1_cont_slice_35_split -> cont_36_lstm1_cont_slice_35_split_1
I0506 10:14:40.345295  8964 net.cpp:124] Setting up cont_36_lstm1_cont_slice_35_split
I0506 10:14:40.345299  8964 net.cpp:131] Top shape: 1 512 (512)
I0506 10:14:40.345301  8964 net.cpp:131] Top shape: 1 512 (512)
I0506 10:14:40.345304  8964 net.cpp:139] Memory required for data: 15630336
I0506 10:14:40.345306  8964 layer_factory.hpp:77] Creating layer cont_37_lstm1_cont_slice_36_split
I0506 10:14:40.345310  8964 net.cpp:86] Creating Layer cont_37_lstm1_cont_slice_36_split
I0506 10:14:40.345312  8964 net.cpp:408] cont_37_lstm1_cont_slice_36_split <- cont_37
I0506 10:14:40.345316  8964 net.cpp:382] cont_37_lstm1_cont_slice_36_split -> cont_37_lstm1_cont_slice_36_split_0
I0506 10:14:40.345321  8964 net.cpp:382] cont_37_lstm1_cont_slice_36_split -> cont_37_lstm1_cont_slice_36_split_1
I0506 10:14:40.345341  8964 net.cpp:124] Setting up cont_37_lstm1_cont_slice_36_split
I0506 10:14:40.345345  8964 net.cpp:131] Top shape: 1 512 (512)
I0506 10:14:40.345347  8964 net.cpp:131] Top shape: 1 512 (512)
I0506 10:14:40.345350  8964 net.cpp:139] Memory required for data: 15634432
I0506 10:14:40.345353  8964 layer_factory.hpp:77] Creating layer cont_38_lstm1_cont_slice_37_split
I0506 10:14:40.345356  8964 net.cpp:86] Creating Layer cont_38_lstm1_cont_slice_37_split
I0506 10:14:40.345366  8964 net.cpp:408] cont_38_lstm1_cont_slice_37_split <- cont_38
I0506 10:14:40.345371  8964 net.cpp:382] cont_38_lstm1_cont_slice_37_split -> cont_38_lstm1_cont_slice_37_split_0
I0506 10:14:40.345376  8964 net.cpp:382] cont_38_lstm1_cont_slice_37_split -> cont_38_lstm1_cont_slice_37_split_1
I0506 10:14:40.345399  8964 net.cpp:124] Setting up cont_38_lstm1_cont_slice_37_split
I0506 10:14:40.345402  8964 net.cpp:131] Top shape: 1 512 (512)
I0506 10:14:40.345405  8964 net.cpp:131] Top shape: 1 512 (512)
I0506 10:14:40.345408  8964 net.cpp:139] Memory required for data: 15638528
I0506 10:14:40.345412  8964 layer_factory.hpp:77] Creating layer cont_39_lstm1_cont_slice_38_split
I0506 10:14:40.345414  8964 net.cpp:86] Creating Layer cont_39_lstm1_cont_slice_38_split
I0506 10:14:40.345417  8964 net.cpp:408] cont_39_lstm1_cont_slice_38_split <- cont_39
I0506 10:14:40.345422  8964 net.cpp:382] cont_39_lstm1_cont_slice_38_split -> cont_39_lstm1_cont_slice_38_split_0
I0506 10:14:40.345427  8964 net.cpp:382] cont_39_lstm1_cont_slice_38_split -> cont_39_lstm1_cont_slice_38_split_1
I0506 10:14:40.345448  8964 net.cpp:124] Setting up cont_39_lstm1_cont_slice_38_split
I0506 10:14:40.345450  8964 net.cpp:131] Top shape: 1 512 (512)
I0506 10:14:40.345453  8964 net.cpp:131] Top shape: 1 512 (512)
I0506 10:14:40.345456  8964 net.cpp:139] Memory required for data: 15642624
I0506 10:14:40.345468  8964 layer_factory.hpp:77] Creating layer cont_40_lstm1_cont_slice_39_split
I0506 10:14:40.345472  8964 net.cpp:86] Creating Layer cont_40_lstm1_cont_slice_39_split
I0506 10:14:40.345475  8964 net.cpp:408] cont_40_lstm1_cont_slice_39_split <- cont_40
I0506 10:14:40.345479  8964 net.cpp:382] cont_40_lstm1_cont_slice_39_split -> cont_40_lstm1_cont_slice_39_split_0
I0506 10:14:40.345484  8964 net.cpp:382] cont_40_lstm1_cont_slice_39_split -> cont_40_lstm1_cont_slice_39_split_1
I0506 10:14:40.345506  8964 net.cpp:124] Setting up cont_40_lstm1_cont_slice_39_split
I0506 10:14:40.345510  8964 net.cpp:131] Top shape: 1 512 (512)
I0506 10:14:40.345513  8964 net.cpp:131] Top shape: 1 512 (512)
I0506 10:14:40.345516  8964 net.cpp:139] Memory required for data: 15646720
I0506 10:14:40.345518  8964 layer_factory.hpp:77] Creating layer cont_41_lstm1_cont_slice_40_split
I0506 10:14:40.345522  8964 net.cpp:86] Creating Layer cont_41_lstm1_cont_slice_40_split
I0506 10:14:40.345525  8964 net.cpp:408] cont_41_lstm1_cont_slice_40_split <- cont_41
I0506 10:14:40.345528  8964 net.cpp:382] cont_41_lstm1_cont_slice_40_split -> cont_41_lstm1_cont_slice_40_split_0
I0506 10:14:40.345533  8964 net.cpp:382] cont_41_lstm1_cont_slice_40_split -> cont_41_lstm1_cont_slice_40_split_1
I0506 10:14:40.345554  8964 net.cpp:124] Setting up cont_41_lstm1_cont_slice_40_split
I0506 10:14:40.345557  8964 net.cpp:131] Top shape: 1 512 (512)
I0506 10:14:40.345561  8964 net.cpp:131] Top shape: 1 512 (512)
I0506 10:14:40.345563  8964 net.cpp:139] Memory required for data: 15650816
I0506 10:14:40.345566  8964 layer_factory.hpp:77] Creating layer cont_42_lstm1_cont_slice_41_split
I0506 10:14:40.345569  8964 net.cpp:86] Creating Layer cont_42_lstm1_cont_slice_41_split
I0506 10:14:40.345571  8964 net.cpp:408] cont_42_lstm1_cont_slice_41_split <- cont_42
I0506 10:14:40.345576  8964 net.cpp:382] cont_42_lstm1_cont_slice_41_split -> cont_42_lstm1_cont_slice_41_split_0
I0506 10:14:40.345580  8964 net.cpp:382] cont_42_lstm1_cont_slice_41_split -> cont_42_lstm1_cont_slice_41_split_1
I0506 10:14:40.345600  8964 net.cpp:124] Setting up cont_42_lstm1_cont_slice_41_split
I0506 10:14:40.345603  8964 net.cpp:131] Top shape: 1 512 (512)
I0506 10:14:40.345607  8964 net.cpp:131] Top shape: 1 512 (512)
I0506 10:14:40.345609  8964 net.cpp:139] Memory required for data: 15654912
I0506 10:14:40.345611  8964 layer_factory.hpp:77] Creating layer cont_43_lstm1_cont_slice_42_split
I0506 10:14:40.345615  8964 net.cpp:86] Creating Layer cont_43_lstm1_cont_slice_42_split
I0506 10:14:40.345618  8964 net.cpp:408] cont_43_lstm1_cont_slice_42_split <- cont_43
I0506 10:14:40.345621  8964 net.cpp:382] cont_43_lstm1_cont_slice_42_split -> cont_43_lstm1_cont_slice_42_split_0
I0506 10:14:40.345626  8964 net.cpp:382] cont_43_lstm1_cont_slice_42_split -> cont_43_lstm1_cont_slice_42_split_1
I0506 10:14:40.345647  8964 net.cpp:124] Setting up cont_43_lstm1_cont_slice_42_split
I0506 10:14:40.345650  8964 net.cpp:131] Top shape: 1 512 (512)
I0506 10:14:40.345654  8964 net.cpp:131] Top shape: 1 512 (512)
I0506 10:14:40.345656  8964 net.cpp:139] Memory required for data: 15659008
I0506 10:14:40.345659  8964 layer_factory.hpp:77] Creating layer cont_44_lstm1_cont_slice_43_split
I0506 10:14:40.345662  8964 net.cpp:86] Creating Layer cont_44_lstm1_cont_slice_43_split
I0506 10:14:40.345665  8964 net.cpp:408] cont_44_lstm1_cont_slice_43_split <- cont_44
I0506 10:14:40.345669  8964 net.cpp:382] cont_44_lstm1_cont_slice_43_split -> cont_44_lstm1_cont_slice_43_split_0
I0506 10:14:40.345674  8964 net.cpp:382] cont_44_lstm1_cont_slice_43_split -> cont_44_lstm1_cont_slice_43_split_1
I0506 10:14:40.345695  8964 net.cpp:124] Setting up cont_44_lstm1_cont_slice_43_split
I0506 10:14:40.345697  8964 net.cpp:131] Top shape: 1 512 (512)
I0506 10:14:40.345700  8964 net.cpp:131] Top shape: 1 512 (512)
I0506 10:14:40.345703  8964 net.cpp:139] Memory required for data: 15663104
I0506 10:14:40.345706  8964 layer_factory.hpp:77] Creating layer cont_45_lstm1_cont_slice_44_split
I0506 10:14:40.345716  8964 net.cpp:86] Creating Layer cont_45_lstm1_cont_slice_44_split
I0506 10:14:40.345719  8964 net.cpp:408] cont_45_lstm1_cont_slice_44_split <- cont_45
I0506 10:14:40.345723  8964 net.cpp:382] cont_45_lstm1_cont_slice_44_split -> cont_45_lstm1_cont_slice_44_split_0
I0506 10:14:40.345727  8964 net.cpp:382] cont_45_lstm1_cont_slice_44_split -> cont_45_lstm1_cont_slice_44_split_1
I0506 10:14:40.345751  8964 net.cpp:124] Setting up cont_45_lstm1_cont_slice_44_split
I0506 10:14:40.345753  8964 net.cpp:131] Top shape: 1 512 (512)
I0506 10:14:40.345757  8964 net.cpp:131] Top shape: 1 512 (512)
I0506 10:14:40.345759  8964 net.cpp:139] Memory required for data: 15667200
I0506 10:14:40.345762  8964 layer_factory.hpp:77] Creating layer cont_46_lstm1_cont_slice_45_split
I0506 10:14:40.345765  8964 net.cpp:86] Creating Layer cont_46_lstm1_cont_slice_45_split
I0506 10:14:40.345768  8964 net.cpp:408] cont_46_lstm1_cont_slice_45_split <- cont_46
I0506 10:14:40.345772  8964 net.cpp:382] cont_46_lstm1_cont_slice_45_split -> cont_46_lstm1_cont_slice_45_split_0
I0506 10:14:40.345777  8964 net.cpp:382] cont_46_lstm1_cont_slice_45_split -> cont_46_lstm1_cont_slice_45_split_1
I0506 10:14:40.345798  8964 net.cpp:124] Setting up cont_46_lstm1_cont_slice_45_split
I0506 10:14:40.345800  8964 net.cpp:131] Top shape: 1 512 (512)
I0506 10:14:40.345804  8964 net.cpp:131] Top shape: 1 512 (512)
I0506 10:14:40.345808  8964 net.cpp:139] Memory required for data: 15671296
I0506 10:14:40.345809  8964 layer_factory.hpp:77] Creating layer cont_47_lstm1_cont_slice_46_split
I0506 10:14:40.345813  8964 net.cpp:86] Creating Layer cont_47_lstm1_cont_slice_46_split
I0506 10:14:40.345815  8964 net.cpp:408] cont_47_lstm1_cont_slice_46_split <- cont_47
I0506 10:14:40.345819  8964 net.cpp:382] cont_47_lstm1_cont_slice_46_split -> cont_47_lstm1_cont_slice_46_split_0
I0506 10:14:40.345824  8964 net.cpp:382] cont_47_lstm1_cont_slice_46_split -> cont_47_lstm1_cont_slice_46_split_1
I0506 10:14:40.345844  8964 net.cpp:124] Setting up cont_47_lstm1_cont_slice_46_split
I0506 10:14:40.345847  8964 net.cpp:131] Top shape: 1 512 (512)
I0506 10:14:40.345850  8964 net.cpp:131] Top shape: 1 512 (512)
I0506 10:14:40.345854  8964 net.cpp:139] Memory required for data: 15675392
I0506 10:14:40.345856  8964 layer_factory.hpp:77] Creating layer cont_48_lstm1_cont_slice_47_split
I0506 10:14:40.345860  8964 net.cpp:86] Creating Layer cont_48_lstm1_cont_slice_47_split
I0506 10:14:40.345862  8964 net.cpp:408] cont_48_lstm1_cont_slice_47_split <- cont_48
I0506 10:14:40.345865  8964 net.cpp:382] cont_48_lstm1_cont_slice_47_split -> cont_48_lstm1_cont_slice_47_split_0
I0506 10:14:40.345871  8964 net.cpp:382] cont_48_lstm1_cont_slice_47_split -> cont_48_lstm1_cont_slice_47_split_1
I0506 10:14:40.345891  8964 net.cpp:124] Setting up cont_48_lstm1_cont_slice_47_split
I0506 10:14:40.345894  8964 net.cpp:131] Top shape: 1 512 (512)
I0506 10:14:40.345897  8964 net.cpp:131] Top shape: 1 512 (512)
I0506 10:14:40.345901  8964 net.cpp:139] Memory required for data: 15679488
I0506 10:14:40.345902  8964 layer_factory.hpp:77] Creating layer cont_49_lstm1_cont_slice_48_split
I0506 10:14:40.345906  8964 net.cpp:86] Creating Layer cont_49_lstm1_cont_slice_48_split
I0506 10:14:40.345909  8964 net.cpp:408] cont_49_lstm1_cont_slice_48_split <- cont_49
I0506 10:14:40.345913  8964 net.cpp:382] cont_49_lstm1_cont_slice_48_split -> cont_49_lstm1_cont_slice_48_split_0
I0506 10:14:40.345917  8964 net.cpp:382] cont_49_lstm1_cont_slice_48_split -> cont_49_lstm1_cont_slice_48_split_1
I0506 10:14:40.345938  8964 net.cpp:124] Setting up cont_49_lstm1_cont_slice_48_split
I0506 10:14:40.345942  8964 net.cpp:131] Top shape: 1 512 (512)
I0506 10:14:40.345944  8964 net.cpp:131] Top shape: 1 512 (512)
I0506 10:14:40.345947  8964 net.cpp:139] Memory required for data: 15683584
I0506 10:14:40.345949  8964 layer_factory.hpp:77] Creating layer cont_50_lstm1_cont_slice_49_split
I0506 10:14:40.345953  8964 net.cpp:86] Creating Layer cont_50_lstm1_cont_slice_49_split
I0506 10:14:40.345957  8964 net.cpp:408] cont_50_lstm1_cont_slice_49_split <- cont_50
I0506 10:14:40.345968  8964 net.cpp:382] cont_50_lstm1_cont_slice_49_split -> cont_50_lstm1_cont_slice_49_split_0
I0506 10:14:40.345973  8964 net.cpp:382] cont_50_lstm1_cont_slice_49_split -> cont_50_lstm1_cont_slice_49_split_1
I0506 10:14:40.345994  8964 net.cpp:124] Setting up cont_50_lstm1_cont_slice_49_split
I0506 10:14:40.345997  8964 net.cpp:131] Top shape: 1 512 (512)
I0506 10:14:40.346000  8964 net.cpp:131] Top shape: 1 512 (512)
I0506 10:14:40.346004  8964 net.cpp:139] Memory required for data: 15687680
I0506 10:14:40.346005  8964 layer_factory.hpp:77] Creating layer cont_51_lstm1_cont_slice_50_split
I0506 10:14:40.346009  8964 net.cpp:86] Creating Layer cont_51_lstm1_cont_slice_50_split
I0506 10:14:40.346012  8964 net.cpp:408] cont_51_lstm1_cont_slice_50_split <- cont_51
I0506 10:14:40.346016  8964 net.cpp:382] cont_51_lstm1_cont_slice_50_split -> cont_51_lstm1_cont_slice_50_split_0
I0506 10:14:40.346021  8964 net.cpp:382] cont_51_lstm1_cont_slice_50_split -> cont_51_lstm1_cont_slice_50_split_1
I0506 10:14:40.346042  8964 net.cpp:124] Setting up cont_51_lstm1_cont_slice_50_split
I0506 10:14:40.346045  8964 net.cpp:131] Top shape: 1 512 (512)
I0506 10:14:40.346048  8964 net.cpp:131] Top shape: 1 512 (512)
I0506 10:14:40.346051  8964 net.cpp:139] Memory required for data: 15691776
I0506 10:14:40.346053  8964 layer_factory.hpp:77] Creating layer cont_52_lstm1_cont_slice_51_split
I0506 10:14:40.346057  8964 net.cpp:86] Creating Layer cont_52_lstm1_cont_slice_51_split
I0506 10:14:40.346060  8964 net.cpp:408] cont_52_lstm1_cont_slice_51_split <- cont_52
I0506 10:14:40.346063  8964 net.cpp:382] cont_52_lstm1_cont_slice_51_split -> cont_52_lstm1_cont_slice_51_split_0
I0506 10:14:40.346068  8964 net.cpp:382] cont_52_lstm1_cont_slice_51_split -> cont_52_lstm1_cont_slice_51_split_1
I0506 10:14:40.346089  8964 net.cpp:124] Setting up cont_52_lstm1_cont_slice_51_split
I0506 10:14:40.346092  8964 net.cpp:131] Top shape: 1 512 (512)
I0506 10:14:40.346096  8964 net.cpp:131] Top shape: 1 512 (512)
I0506 10:14:40.346098  8964 net.cpp:139] Memory required for data: 15695872
I0506 10:14:40.346101  8964 layer_factory.hpp:77] Creating layer cont_53_lstm1_cont_slice_52_split
I0506 10:14:40.346104  8964 net.cpp:86] Creating Layer cont_53_lstm1_cont_slice_52_split
I0506 10:14:40.346107  8964 net.cpp:408] cont_53_lstm1_cont_slice_52_split <- cont_53
I0506 10:14:40.346110  8964 net.cpp:382] cont_53_lstm1_cont_slice_52_split -> cont_53_lstm1_cont_slice_52_split_0
I0506 10:14:40.346115  8964 net.cpp:382] cont_53_lstm1_cont_slice_52_split -> cont_53_lstm1_cont_slice_52_split_1
I0506 10:14:40.346135  8964 net.cpp:124] Setting up cont_53_lstm1_cont_slice_52_split
I0506 10:14:40.346138  8964 net.cpp:131] Top shape: 1 512 (512)
I0506 10:14:40.346141  8964 net.cpp:131] Top shape: 1 512 (512)
I0506 10:14:40.346144  8964 net.cpp:139] Memory required for data: 15699968
I0506 10:14:40.346148  8964 layer_factory.hpp:77] Creating layer cont_54_lstm1_cont_slice_53_split
I0506 10:14:40.346150  8964 net.cpp:86] Creating Layer cont_54_lstm1_cont_slice_53_split
I0506 10:14:40.346153  8964 net.cpp:408] cont_54_lstm1_cont_slice_53_split <- cont_54
I0506 10:14:40.346158  8964 net.cpp:382] cont_54_lstm1_cont_slice_53_split -> cont_54_lstm1_cont_slice_53_split_0
I0506 10:14:40.346163  8964 net.cpp:382] cont_54_lstm1_cont_slice_53_split -> cont_54_lstm1_cont_slice_53_split_1
I0506 10:14:40.346184  8964 net.cpp:124] Setting up cont_54_lstm1_cont_slice_53_split
I0506 10:14:40.346186  8964 net.cpp:131] Top shape: 1 512 (512)
I0506 10:14:40.346189  8964 net.cpp:131] Top shape: 1 512 (512)
I0506 10:14:40.346192  8964 net.cpp:139] Memory required for data: 15704064
I0506 10:14:40.346195  8964 layer_factory.hpp:77] Creating layer cont_55_lstm1_cont_slice_54_split
I0506 10:14:40.346199  8964 net.cpp:86] Creating Layer cont_55_lstm1_cont_slice_54_split
I0506 10:14:40.346201  8964 net.cpp:408] cont_55_lstm1_cont_slice_54_split <- cont_55
I0506 10:14:40.346205  8964 net.cpp:382] cont_55_lstm1_cont_slice_54_split -> cont_55_lstm1_cont_slice_54_split_0
I0506 10:14:40.346217  8964 net.cpp:382] cont_55_lstm1_cont_slice_54_split -> cont_55_lstm1_cont_slice_54_split_1
I0506 10:14:40.346240  8964 net.cpp:124] Setting up cont_55_lstm1_cont_slice_54_split
I0506 10:14:40.346243  8964 net.cpp:131] Top shape: 1 512 (512)
I0506 10:14:40.346246  8964 net.cpp:131] Top shape: 1 512 (512)
I0506 10:14:40.346249  8964 net.cpp:139] Memory required for data: 15708160
I0506 10:14:40.346252  8964 layer_factory.hpp:77] Creating layer cont_56_lstm1_cont_slice_55_split
I0506 10:14:40.346256  8964 net.cpp:86] Creating Layer cont_56_lstm1_cont_slice_55_split
I0506 10:14:40.346258  8964 net.cpp:408] cont_56_lstm1_cont_slice_55_split <- cont_56
I0506 10:14:40.346262  8964 net.cpp:382] cont_56_lstm1_cont_slice_55_split -> cont_56_lstm1_cont_slice_55_split_0
I0506 10:14:40.346267  8964 net.cpp:382] cont_56_lstm1_cont_slice_55_split -> cont_56_lstm1_cont_slice_55_split_1
I0506 10:14:40.346288  8964 net.cpp:124] Setting up cont_56_lstm1_cont_slice_55_split
I0506 10:14:40.346292  8964 net.cpp:131] Top shape: 1 512 (512)
I0506 10:14:40.346294  8964 net.cpp:131] Top shape: 1 512 (512)
I0506 10:14:40.346297  8964 net.cpp:139] Memory required for data: 15712256
I0506 10:14:40.346300  8964 layer_factory.hpp:77] Creating layer cont_57_lstm1_cont_slice_56_split
I0506 10:14:40.346303  8964 net.cpp:86] Creating Layer cont_57_lstm1_cont_slice_56_split
I0506 10:14:40.346307  8964 net.cpp:408] cont_57_lstm1_cont_slice_56_split <- cont_57
I0506 10:14:40.346310  8964 net.cpp:382] cont_57_lstm1_cont_slice_56_split -> cont_57_lstm1_cont_slice_56_split_0
I0506 10:14:40.346314  8964 net.cpp:382] cont_57_lstm1_cont_slice_56_split -> cont_57_lstm1_cont_slice_56_split_1
I0506 10:14:40.346336  8964 net.cpp:124] Setting up cont_57_lstm1_cont_slice_56_split
I0506 10:14:40.346339  8964 net.cpp:131] Top shape: 1 512 (512)
I0506 10:14:40.346343  8964 net.cpp:131] Top shape: 1 512 (512)
I0506 10:14:40.346345  8964 net.cpp:139] Memory required for data: 15716352
I0506 10:14:40.346348  8964 layer_factory.hpp:77] Creating layer cont_58_lstm1_cont_slice_57_split
I0506 10:14:40.346351  8964 net.cpp:86] Creating Layer cont_58_lstm1_cont_slice_57_split
I0506 10:14:40.346354  8964 net.cpp:408] cont_58_lstm1_cont_slice_57_split <- cont_58
I0506 10:14:40.346357  8964 net.cpp:382] cont_58_lstm1_cont_slice_57_split -> cont_58_lstm1_cont_slice_57_split_0
I0506 10:14:40.346362  8964 net.cpp:382] cont_58_lstm1_cont_slice_57_split -> cont_58_lstm1_cont_slice_57_split_1
I0506 10:14:40.346384  8964 net.cpp:124] Setting up cont_58_lstm1_cont_slice_57_split
I0506 10:14:40.346386  8964 net.cpp:131] Top shape: 1 512 (512)
I0506 10:14:40.346390  8964 net.cpp:131] Top shape: 1 512 (512)
I0506 10:14:40.346392  8964 net.cpp:139] Memory required for data: 15720448
I0506 10:14:40.346395  8964 layer_factory.hpp:77] Creating layer cont_59_lstm1_cont_slice_58_split
I0506 10:14:40.346398  8964 net.cpp:86] Creating Layer cont_59_lstm1_cont_slice_58_split
I0506 10:14:40.346401  8964 net.cpp:408] cont_59_lstm1_cont_slice_58_split <- cont_59
I0506 10:14:40.346405  8964 net.cpp:382] cont_59_lstm1_cont_slice_58_split -> cont_59_lstm1_cont_slice_58_split_0
I0506 10:14:40.346410  8964 net.cpp:382] cont_59_lstm1_cont_slice_58_split -> cont_59_lstm1_cont_slice_58_split_1
I0506 10:14:40.346431  8964 net.cpp:124] Setting up cont_59_lstm1_cont_slice_58_split
I0506 10:14:40.346433  8964 net.cpp:131] Top shape: 1 512 (512)
I0506 10:14:40.346436  8964 net.cpp:131] Top shape: 1 512 (512)
I0506 10:14:40.346439  8964 net.cpp:139] Memory required for data: 15724544
I0506 10:14:40.346441  8964 layer_factory.hpp:77] Creating layer cont_60_lstm1_cont_slice_59_split
I0506 10:14:40.346446  8964 net.cpp:86] Creating Layer cont_60_lstm1_cont_slice_59_split
I0506 10:14:40.346448  8964 net.cpp:408] cont_60_lstm1_cont_slice_59_split <- cont_60
I0506 10:14:40.346452  8964 net.cpp:382] cont_60_lstm1_cont_slice_59_split -> cont_60_lstm1_cont_slice_59_split_0
I0506 10:14:40.346457  8964 net.cpp:382] cont_60_lstm1_cont_slice_59_split -> cont_60_lstm1_cont_slice_59_split_1
I0506 10:14:40.346485  8964 net.cpp:124] Setting up cont_60_lstm1_cont_slice_59_split
I0506 10:14:40.346489  8964 net.cpp:131] Top shape: 1 512 (512)
I0506 10:14:40.346493  8964 net.cpp:131] Top shape: 1 512 (512)
I0506 10:14:40.346495  8964 net.cpp:139] Memory required for data: 15728640
I0506 10:14:40.346498  8964 layer_factory.hpp:77] Creating layer cont_61_lstm1_cont_slice_60_split
I0506 10:14:40.346501  8964 net.cpp:86] Creating Layer cont_61_lstm1_cont_slice_60_split
I0506 10:14:40.346504  8964 net.cpp:408] cont_61_lstm1_cont_slice_60_split <- cont_61
I0506 10:14:40.350877  8964 net.cpp:382] cont_61_lstm1_cont_slice_60_split -> cont_61_lstm1_cont_slice_60_split_0
I0506 10:14:40.350893  8964 net.cpp:382] cont_61_lstm1_cont_slice_60_split -> cont_61_lstm1_cont_slice_60_split_1
I0506 10:14:40.350934  8964 net.cpp:124] Setting up cont_61_lstm1_cont_slice_60_split
I0506 10:14:40.350936  8964 net.cpp:131] Top shape: 1 512 (512)
I0506 10:14:40.350939  8964 net.cpp:131] Top shape: 1 512 (512)
I0506 10:14:40.350942  8964 net.cpp:139] Memory required for data: 15732736
I0506 10:14:40.350944  8964 layer_factory.hpp:77] Creating layer cont_62_lstm1_cont_slice_61_split
I0506 10:14:40.350950  8964 net.cpp:86] Creating Layer cont_62_lstm1_cont_slice_61_split
I0506 10:14:40.350952  8964 net.cpp:408] cont_62_lstm1_cont_slice_61_split <- cont_62
I0506 10:14:40.350956  8964 net.cpp:382] cont_62_lstm1_cont_slice_61_split -> cont_62_lstm1_cont_slice_61_split_0
I0506 10:14:40.350961  8964 net.cpp:382] cont_62_lstm1_cont_slice_61_split -> cont_62_lstm1_cont_slice_61_split_1
I0506 10:14:40.350978  8964 net.cpp:124] Setting up cont_62_lstm1_cont_slice_61_split
I0506 10:14:40.350981  8964 net.cpp:131] Top shape: 1 512 (512)
I0506 10:14:40.350983  8964 net.cpp:131] Top shape: 1 512 (512)
I0506 10:14:40.350986  8964 net.cpp:139] Memory required for data: 15736832
I0506 10:14:40.350987  8964 layer_factory.hpp:77] Creating layer cont_63_lstm1_cont_slice_62_split
I0506 10:14:40.350991  8964 net.cpp:86] Creating Layer cont_63_lstm1_cont_slice_62_split
I0506 10:14:40.350992  8964 net.cpp:408] cont_63_lstm1_cont_slice_62_split <- cont_63
I0506 10:14:40.350996  8964 net.cpp:382] cont_63_lstm1_cont_slice_62_split -> cont_63_lstm1_cont_slice_62_split_0
I0506 10:14:40.350999  8964 net.cpp:382] cont_63_lstm1_cont_slice_62_split -> cont_63_lstm1_cont_slice_62_split_1
I0506 10:14:40.351016  8964 net.cpp:124] Setting up cont_63_lstm1_cont_slice_62_split
I0506 10:14:40.351018  8964 net.cpp:131] Top shape: 1 512 (512)
I0506 10:14:40.351020  8964 net.cpp:131] Top shape: 1 512 (512)
I0506 10:14:40.351022  8964 net.cpp:139] Memory required for data: 15740928
I0506 10:14:40.351024  8964 layer_factory.hpp:77] Creating layer cont_64_lstm1_cont_slice_63_split
I0506 10:14:40.351027  8964 net.cpp:86] Creating Layer cont_64_lstm1_cont_slice_63_split
I0506 10:14:40.351029  8964 net.cpp:408] cont_64_lstm1_cont_slice_63_split <- cont_64
I0506 10:14:40.351032  8964 net.cpp:382] cont_64_lstm1_cont_slice_63_split -> cont_64_lstm1_cont_slice_63_split_0
I0506 10:14:40.351037  8964 net.cpp:382] cont_64_lstm1_cont_slice_63_split -> cont_64_lstm1_cont_slice_63_split_1
I0506 10:14:40.351052  8964 net.cpp:124] Setting up cont_64_lstm1_cont_slice_63_split
I0506 10:14:40.351055  8964 net.cpp:131] Top shape: 1 512 (512)
I0506 10:14:40.351058  8964 net.cpp:131] Top shape: 1 512 (512)
I0506 10:14:40.351059  8964 net.cpp:139] Memory required for data: 15745024
I0506 10:14:40.351061  8964 layer_factory.hpp:77] Creating layer cont_65_lstm1_cont_slice_64_split
I0506 10:14:40.351064  8964 net.cpp:86] Creating Layer cont_65_lstm1_cont_slice_64_split
I0506 10:14:40.351066  8964 net.cpp:408] cont_65_lstm1_cont_slice_64_split <- cont_65
I0506 10:14:40.351069  8964 net.cpp:382] cont_65_lstm1_cont_slice_64_split -> cont_65_lstm1_cont_slice_64_split_0
I0506 10:14:40.351073  8964 net.cpp:382] cont_65_lstm1_cont_slice_64_split -> cont_65_lstm1_cont_slice_64_split_1
I0506 10:14:40.351089  8964 net.cpp:124] Setting up cont_65_lstm1_cont_slice_64_split
I0506 10:14:40.351091  8964 net.cpp:131] Top shape: 1 512 (512)
I0506 10:14:40.351105  8964 net.cpp:131] Top shape: 1 512 (512)
I0506 10:14:40.351107  8964 net.cpp:139] Memory required for data: 15749120
I0506 10:14:40.351109  8964 layer_factory.hpp:77] Creating layer cont_66_lstm1_cont_slice_65_split
I0506 10:14:40.351112  8964 net.cpp:86] Creating Layer cont_66_lstm1_cont_slice_65_split
I0506 10:14:40.351115  8964 net.cpp:408] cont_66_lstm1_cont_slice_65_split <- cont_66
I0506 10:14:40.351119  8964 net.cpp:382] cont_66_lstm1_cont_slice_65_split -> cont_66_lstm1_cont_slice_65_split_0
I0506 10:14:40.351122  8964 net.cpp:382] cont_66_lstm1_cont_slice_65_split -> cont_66_lstm1_cont_slice_65_split_1
I0506 10:14:40.351140  8964 net.cpp:124] Setting up cont_66_lstm1_cont_slice_65_split
I0506 10:14:40.351141  8964 net.cpp:131] Top shape: 1 512 (512)
I0506 10:14:40.351145  8964 net.cpp:131] Top shape: 1 512 (512)
I0506 10:14:40.351146  8964 net.cpp:139] Memory required for data: 15753216
I0506 10:14:40.351148  8964 layer_factory.hpp:77] Creating layer cont_67_lstm1_cont_slice_66_split
I0506 10:14:40.351150  8964 net.cpp:86] Creating Layer cont_67_lstm1_cont_slice_66_split
I0506 10:14:40.351152  8964 net.cpp:408] cont_67_lstm1_cont_slice_66_split <- cont_67
I0506 10:14:40.351155  8964 net.cpp:382] cont_67_lstm1_cont_slice_66_split -> cont_67_lstm1_cont_slice_66_split_0
I0506 10:14:40.351159  8964 net.cpp:382] cont_67_lstm1_cont_slice_66_split -> cont_67_lstm1_cont_slice_66_split_1
I0506 10:14:40.351176  8964 net.cpp:124] Setting up cont_67_lstm1_cont_slice_66_split
I0506 10:14:40.351177  8964 net.cpp:131] Top shape: 1 512 (512)
I0506 10:14:40.351181  8964 net.cpp:131] Top shape: 1 512 (512)
I0506 10:14:40.351182  8964 net.cpp:139] Memory required for data: 15757312
I0506 10:14:40.351184  8964 layer_factory.hpp:77] Creating layer cont_68_lstm1_cont_slice_67_split
I0506 10:14:40.351187  8964 net.cpp:86] Creating Layer cont_68_lstm1_cont_slice_67_split
I0506 10:14:40.351189  8964 net.cpp:408] cont_68_lstm1_cont_slice_67_split <- cont_68
I0506 10:14:40.351192  8964 net.cpp:382] cont_68_lstm1_cont_slice_67_split -> cont_68_lstm1_cont_slice_67_split_0
I0506 10:14:40.351195  8964 net.cpp:382] cont_68_lstm1_cont_slice_67_split -> cont_68_lstm1_cont_slice_67_split_1
I0506 10:14:40.351212  8964 net.cpp:124] Setting up cont_68_lstm1_cont_slice_67_split
I0506 10:14:40.351214  8964 net.cpp:131] Top shape: 1 512 (512)
I0506 10:14:40.351217  8964 net.cpp:131] Top shape: 1 512 (512)
I0506 10:14:40.351218  8964 net.cpp:139] Memory required for data: 15761408
I0506 10:14:40.351220  8964 layer_factory.hpp:77] Creating layer cont_69_lstm1_cont_slice_68_split
I0506 10:14:40.351223  8964 net.cpp:86] Creating Layer cont_69_lstm1_cont_slice_68_split
I0506 10:14:40.351225  8964 net.cpp:408] cont_69_lstm1_cont_slice_68_split <- cont_69
I0506 10:14:40.351228  8964 net.cpp:382] cont_69_lstm1_cont_slice_68_split -> cont_69_lstm1_cont_slice_68_split_0
I0506 10:14:40.351231  8964 net.cpp:382] cont_69_lstm1_cont_slice_68_split -> cont_69_lstm1_cont_slice_68_split_1
I0506 10:14:40.351248  8964 net.cpp:124] Setting up cont_69_lstm1_cont_slice_68_split
I0506 10:14:40.351250  8964 net.cpp:131] Top shape: 1 512 (512)
I0506 10:14:40.351253  8964 net.cpp:131] Top shape: 1 512 (512)
I0506 10:14:40.351255  8964 net.cpp:139] Memory required for data: 15765504
I0506 10:14:40.351258  8964 layer_factory.hpp:77] Creating layer cont_70_lstm1_cont_slice_69_split
I0506 10:14:40.351259  8964 net.cpp:86] Creating Layer cont_70_lstm1_cont_slice_69_split
I0506 10:14:40.351263  8964 net.cpp:408] cont_70_lstm1_cont_slice_69_split <- cont_70
I0506 10:14:40.351265  8964 net.cpp:382] cont_70_lstm1_cont_slice_69_split -> cont_70_lstm1_cont_slice_69_split_0
I0506 10:14:40.351269  8964 net.cpp:382] cont_70_lstm1_cont_slice_69_split -> cont_70_lstm1_cont_slice_69_split_1
I0506 10:14:40.351284  8964 net.cpp:124] Setting up cont_70_lstm1_cont_slice_69_split
I0506 10:14:40.351287  8964 net.cpp:131] Top shape: 1 512 (512)
I0506 10:14:40.351289  8964 net.cpp:131] Top shape: 1 512 (512)
I0506 10:14:40.351291  8964 net.cpp:139] Memory required for data: 15769600
I0506 10:14:40.351299  8964 layer_factory.hpp:77] Creating layer cont_71_lstm1_cont_slice_70_split
I0506 10:14:40.351301  8964 net.cpp:86] Creating Layer cont_71_lstm1_cont_slice_70_split
I0506 10:14:40.351305  8964 net.cpp:408] cont_71_lstm1_cont_slice_70_split <- cont_71
I0506 10:14:40.351307  8964 net.cpp:382] cont_71_lstm1_cont_slice_70_split -> cont_71_lstm1_cont_slice_70_split_0
I0506 10:14:40.351311  8964 net.cpp:382] cont_71_lstm1_cont_slice_70_split -> cont_71_lstm1_cont_slice_70_split_1
I0506 10:14:40.370482  8964 net.cpp:124] Setting up cont_71_lstm1_cont_slice_70_split
I0506 10:14:40.370498  8964 net.cpp:131] Top shape: 1 512 (512)
I0506 10:14:40.370503  8964 net.cpp:131] Top shape: 1 512 (512)
I0506 10:14:40.370507  8964 net.cpp:139] Memory required for data: 15773696
I0506 10:14:40.370509  8964 layer_factory.hpp:77] Creating layer cont_72_lstm1_cont_slice_71_split
I0506 10:14:40.370517  8964 net.cpp:86] Creating Layer cont_72_lstm1_cont_slice_71_split
I0506 10:14:40.370520  8964 net.cpp:408] cont_72_lstm1_cont_slice_71_split <- cont_72
I0506 10:14:40.370527  8964 net.cpp:382] cont_72_lstm1_cont_slice_71_split -> cont_72_lstm1_cont_slice_71_split_0
I0506 10:14:40.370532  8964 net.cpp:382] cont_72_lstm1_cont_slice_71_split -> cont_72_lstm1_cont_slice_71_split_1
I0506 10:14:40.370551  8964 net.cpp:124] Setting up cont_72_lstm1_cont_slice_71_split
I0506 10:14:40.370554  8964 net.cpp:131] Top shape: 1 512 (512)
I0506 10:14:40.370556  8964 net.cpp:131] Top shape: 1 512 (512)
I0506 10:14:40.370559  8964 net.cpp:139] Memory required for data: 15777792
I0506 10:14:40.370561  8964 layer_factory.hpp:77] Creating layer cont_73_lstm1_cont_slice_72_split
I0506 10:14:40.370564  8964 net.cpp:86] Creating Layer cont_73_lstm1_cont_slice_72_split
I0506 10:14:40.370566  8964 net.cpp:408] cont_73_lstm1_cont_slice_72_split <- cont_73
I0506 10:14:40.370569  8964 net.cpp:382] cont_73_lstm1_cont_slice_72_split -> cont_73_lstm1_cont_slice_72_split_0
I0506 10:14:40.370573  8964 net.cpp:382] cont_73_lstm1_cont_slice_72_split -> cont_73_lstm1_cont_slice_72_split_1
I0506 10:14:40.370592  8964 net.cpp:124] Setting up cont_73_lstm1_cont_slice_72_split
I0506 10:14:40.370594  8964 net.cpp:131] Top shape: 1 512 (512)
I0506 10:14:40.370596  8964 net.cpp:131] Top shape: 1 512 (512)
I0506 10:14:40.370599  8964 net.cpp:139] Memory required for data: 15781888
I0506 10:14:40.370601  8964 layer_factory.hpp:77] Creating layer cont_74_lstm1_cont_slice_73_split
I0506 10:14:40.370604  8964 net.cpp:86] Creating Layer cont_74_lstm1_cont_slice_73_split
I0506 10:14:40.370606  8964 net.cpp:408] cont_74_lstm1_cont_slice_73_split <- cont_74
I0506 10:14:40.370609  8964 net.cpp:382] cont_74_lstm1_cont_slice_73_split -> cont_74_lstm1_cont_slice_73_split_0
I0506 10:14:40.370612  8964 net.cpp:382] cont_74_lstm1_cont_slice_73_split -> cont_74_lstm1_cont_slice_73_split_1
I0506 10:14:40.370630  8964 net.cpp:124] Setting up cont_74_lstm1_cont_slice_73_split
I0506 10:14:40.370633  8964 net.cpp:131] Top shape: 1 512 (512)
I0506 10:14:40.370635  8964 net.cpp:131] Top shape: 1 512 (512)
I0506 10:14:40.370637  8964 net.cpp:139] Memory required for data: 15785984
I0506 10:14:40.370640  8964 layer_factory.hpp:77] Creating layer cont_75_lstm1_cont_slice_74_split
I0506 10:14:40.370642  8964 net.cpp:86] Creating Layer cont_75_lstm1_cont_slice_74_split
I0506 10:14:40.370645  8964 net.cpp:408] cont_75_lstm1_cont_slice_74_split <- cont_75
I0506 10:14:40.370647  8964 net.cpp:382] cont_75_lstm1_cont_slice_74_split -> cont_75_lstm1_cont_slice_74_split_0
I0506 10:14:40.370651  8964 net.cpp:382] cont_75_lstm1_cont_slice_74_split -> cont_75_lstm1_cont_slice_74_split_1
I0506 10:14:40.370669  8964 net.cpp:124] Setting up cont_75_lstm1_cont_slice_74_split
I0506 10:14:40.370671  8964 net.cpp:131] Top shape: 1 512 (512)
I0506 10:14:40.370673  8964 net.cpp:131] Top shape: 1 512 (512)
I0506 10:14:40.370676  8964 net.cpp:139] Memory required for data: 15790080
I0506 10:14:40.370678  8964 layer_factory.hpp:77] Creating layer cont_76_lstm1_cont_slice_75_split
I0506 10:14:40.370697  8964 net.cpp:86] Creating Layer cont_76_lstm1_cont_slice_75_split
I0506 10:14:40.370699  8964 net.cpp:408] cont_76_lstm1_cont_slice_75_split <- cont_76
I0506 10:14:40.370702  8964 net.cpp:382] cont_76_lstm1_cont_slice_75_split -> cont_76_lstm1_cont_slice_75_split_0
I0506 10:14:40.370707  8964 net.cpp:382] cont_76_lstm1_cont_slice_75_split -> cont_76_lstm1_cont_slice_75_split_1
I0506 10:14:40.370724  8964 net.cpp:124] Setting up cont_76_lstm1_cont_slice_75_split
I0506 10:14:40.370728  8964 net.cpp:131] Top shape: 1 512 (512)
I0506 10:14:40.370730  8964 net.cpp:131] Top shape: 1 512 (512)
I0506 10:14:40.370733  8964 net.cpp:139] Memory required for data: 15794176
I0506 10:14:40.370734  8964 layer_factory.hpp:77] Creating layer cont_77_lstm1_cont_slice_76_split
I0506 10:14:40.370738  8964 net.cpp:86] Creating Layer cont_77_lstm1_cont_slice_76_split
I0506 10:14:40.370739  8964 net.cpp:408] cont_77_lstm1_cont_slice_76_split <- cont_77
I0506 10:14:40.370743  8964 net.cpp:382] cont_77_lstm1_cont_slice_76_split -> cont_77_lstm1_cont_slice_76_split_0
I0506 10:14:40.370745  8964 net.cpp:382] cont_77_lstm1_cont_slice_76_split -> cont_77_lstm1_cont_slice_76_split_1
I0506 10:14:40.370764  8964 net.cpp:124] Setting up cont_77_lstm1_cont_slice_76_split
I0506 10:14:40.370765  8964 net.cpp:131] Top shape: 1 512 (512)
I0506 10:14:40.370767  8964 net.cpp:131] Top shape: 1 512 (512)
I0506 10:14:40.370770  8964 net.cpp:139] Memory required for data: 15798272
I0506 10:14:40.370771  8964 layer_factory.hpp:77] Creating layer cont_78_lstm1_cont_slice_77_split
I0506 10:14:40.370774  8964 net.cpp:86] Creating Layer cont_78_lstm1_cont_slice_77_split
I0506 10:14:40.370776  8964 net.cpp:408] cont_78_lstm1_cont_slice_77_split <- cont_78
I0506 10:14:40.370780  8964 net.cpp:382] cont_78_lstm1_cont_slice_77_split -> cont_78_lstm1_cont_slice_77_split_0
I0506 10:14:40.370784  8964 net.cpp:382] cont_78_lstm1_cont_slice_77_split -> cont_78_lstm1_cont_slice_77_split_1
I0506 10:14:40.370800  8964 net.cpp:124] Setting up cont_78_lstm1_cont_slice_77_split
I0506 10:14:40.370802  8964 net.cpp:131] Top shape: 1 512 (512)
I0506 10:14:40.370805  8964 net.cpp:131] Top shape: 1 512 (512)
I0506 10:14:40.370807  8964 net.cpp:139] Memory required for data: 15802368
I0506 10:14:40.370808  8964 layer_factory.hpp:77] Creating layer cont_79_lstm1_cont_slice_78_split
I0506 10:14:40.370811  8964 net.cpp:86] Creating Layer cont_79_lstm1_cont_slice_78_split
I0506 10:14:40.370813  8964 net.cpp:408] cont_79_lstm1_cont_slice_78_split <- cont_79
I0506 10:14:40.370816  8964 net.cpp:382] cont_79_lstm1_cont_slice_78_split -> cont_79_lstm1_cont_slice_78_split_0
I0506 10:14:40.370820  8964 net.cpp:382] cont_79_lstm1_cont_slice_78_split -> cont_79_lstm1_cont_slice_78_split_1
I0506 10:14:40.370837  8964 net.cpp:124] Setting up cont_79_lstm1_cont_slice_78_split
I0506 10:14:40.370839  8964 net.cpp:131] Top shape: 1 512 (512)
I0506 10:14:40.370842  8964 net.cpp:131] Top shape: 1 512 (512)
I0506 10:14:40.370844  8964 net.cpp:139] Memory required for data: 15806464
I0506 10:14:40.370846  8964 layer_factory.hpp:77] Creating layer cont_80_lstm1_cont_slice_79_split
I0506 10:14:40.370848  8964 net.cpp:86] Creating Layer cont_80_lstm1_cont_slice_79_split
I0506 10:14:40.370851  8964 net.cpp:408] cont_80_lstm1_cont_slice_79_split <- cont_80
I0506 10:14:40.370853  8964 net.cpp:382] cont_80_lstm1_cont_slice_79_split -> cont_80_lstm1_cont_slice_79_split_0
I0506 10:14:40.370857  8964 net.cpp:382] cont_80_lstm1_cont_slice_79_split -> cont_80_lstm1_cont_slice_79_split_1
I0506 10:14:40.370874  8964 net.cpp:124] Setting up cont_80_lstm1_cont_slice_79_split
I0506 10:14:40.370877  8964 net.cpp:131] Top shape: 1 512 (512)
I0506 10:14:40.370879  8964 net.cpp:131] Top shape: 1 512 (512)
I0506 10:14:40.370882  8964 net.cpp:139] Memory required for data: 15810560
I0506 10:14:40.370883  8964 layer_factory.hpp:77] Creating layer lstm1_x_transform
I0506 10:14:40.370889  8964 net.cpp:86] Creating Layer lstm1_x_transform
I0506 10:14:40.370892  8964 net.cpp:408] lstm1_x_transform <- x
I0506 10:14:40.370895  8964 net.cpp:382] lstm1_x_transform -> W_xc_x
I0506 10:14:40.372929  8964 net.cpp:124] Setting up lstm1_x_transform
I0506 10:14:40.372948  8964 net.cpp:131] Top shape: 80 512 400 (16384000)
I0506 10:14:40.372956  8964 net.cpp:139] Memory required for data: 81346560
I0506 10:14:40.372972  8964 layer_factory.hpp:77] Creating layer lstm1_W_xc_x_slice
I0506 10:14:40.372984  8964 net.cpp:86] Creating Layer lstm1_W_xc_x_slice
I0506 10:14:40.388797  8964 net.cpp:408] lstm1_W_xc_x_slice <- W_xc_x
I0506 10:14:40.388837  8964 net.cpp:382] lstm1_W_xc_x_slice -> W_xc_x_1
I0506 10:14:40.388855  8964 net.cpp:382] lstm1_W_xc_x_slice -> W_xc_x_2
…
I0506 10:14:40.389925  8964 net.cpp:382] lstm1_W_xc_x_slice -> W_xc_x_74
I0506 10:14:40.389932  8964 net.cpp:382] lstm1_W_xc_x_slice -> W_xc_x_75
I0506 10:14:40.389941  8964 net.cpp:382] lstm1_W_xc_x_slice -> W_xc_x_76
I0506 10:14:40.389951  8964 net.cpp:382] lstm1_W_xc_x_slice -> W_xc_x_77
I0506 10:14:40.389961  8964 net.cpp:382] lstm1_W_xc_x_slice -> W_xc_x_78
I0506 10:14:40.389969  8964 net.cpp:382] lstm1_W_xc_x_slice -> W_xc_x_79
I0506 10:14:40.389977  8964 net.cpp:382] lstm1_W_xc_x_slice -> W_xc_x_80
I0506 10:14:40.390887  8964 net.cpp:124] Setting up lstm1_W_xc_x_slice
I0506 10:14:40.390893  8964 net.cpp:131] Top shape: 1 512 400 (204800)
I0506 10:14:40.390900  8964 net.cpp:131] Top shape: 1 512 400 (204800)
I0506 10:14:40.390905  8964 net.cpp:131] Top shape: 1 512 400 (204800)
I0506 10:14:40.390909  8964 net.cpp:131] Top shape: 1 512 400 (204800)
I0506 10:14:40.390913  8964 net.cpp:131] Top shape: 1 512 400 (204800)
I0506 10:14:40.390918  8964 net.cpp:131] Top shape: 1 512 400 (204800)
I0506 10:14:40.390923  8964 net.cpp:131] Top shape: 1 512 400 (204800)
I0506 10:14:40.390926  8964 net.cpp:131] Top shape: 1 512 400 (204800)
I0506 10:14:40.390930  8964 net.cpp:131] Top shape: 1 512 400 (204800)
I0506 10:14:40.390934  8964 net.cpp:131] Top shape: 1 512 400 (204800)
I0506 10:14:40.390939  8964 net.cpp:131] Top shape: 1 512 400 (204800)
I0506 10:14:40.390944  8964 net.cpp:131] Top shape: 1 512 400 (204800)
I0506 10:14:40.390949  8964 net.cpp:131] Top shape: 1 512 400 (204800)
I0506 10:14:40.390952  8964 net.cpp:131] Top shape: 1 512 400 (204800)
I0506 10:14:40.390956  8964 net.cpp:131] Top shape: 1 512 400 (204800)
I0506 10:14:40.390961  8964 net.cpp:131] Top shape: 1 512 400 (204800)
I0506 10:14:40.390965  8964 net.cpp:131] Top shape: 1 512 400 (204800)
I0506 10:14:40.390969  8964 net.cpp:131] Top shape: 1 512 400 (204800)
I0506 10:14:40.390974  8964 net.cpp:131] Top shape: 1 512 400 (204800)
I0506 10:14:40.390977  8964 net.cpp:131] Top shape: 1 512 400 (204800)
I0506 10:14:40.390982  8964 net.cpp:131] Top shape: 1 512 400 (204800)
I0506 10:14:40.390986  8964 net.cpp:131] Top shape: 1 512 400 (204800)
I0506 10:14:40.390990  8964 net.cpp:131] Top shape: 1 512 400 (204800)
I0506 10:14:40.390995  8964 net.cpp:131] Top shape: 1 512 400 (204800)
I0506 10:14:40.391000  8964 net.cpp:131] Top shape: 1 512 400 (204800)
I0506 10:14:40.391003  8964 net.cpp:131] Top shape: 1 512 400 (204800)
I0506 10:14:40.391018  8964 net.cpp:131] Top shape: 1 512 400 (204800)
I0506 10:14:40.391023  8964 net.cpp:131] Top shape: 1 512 400 (204800)
I0506 10:14:40.391027  8964 net.cpp:131] Top shape: 1 512 400 (204800)
I0506 10:14:40.391031  8964 net.cpp:131] Top shape: 1 512 400 (204800)
I0506 10:14:40.403291  8964 net.cpp:131] Top shape: 1 512 400 (204800)
I0506 10:14:40.403321  8964 net.cpp:131] Top shape: 1 512 400 (204800)
I0506 10:14:40.403326  8964 net.cpp:131] Top shape: 1 512 400 (204800)
I0506 10:14:40.403331  8964 net.cpp:131] Top shape: 1 512 400 (204800)
I0506 10:14:40.403334  8964 net.cpp:131] Top shape: 1 512 400 (204800)
I0506 10:14:40.403338  8964 net.cpp:131] Top shape: 1 512 400 (204800)
I0506 10:14:40.403342  8964 net.cpp:131] Top shape: 1 512 400 (204800)
I0506 10:14:40.403347  8964 net.cpp:131] Top shape: 1 512 400 (204800)
I0506 10:14:40.403350  8964 net.cpp:131] Top shape: 1 512 400 (204800)
I0506 10:14:40.403353  8964 net.cpp:131] Top shape: 1 512 400 (204800)
I0506 10:14:40.403357  8964 net.cpp:131] Top shape: 1 512 400 (204800)
I0506 10:14:40.403360  8964 net.cpp:131] Top shape: 1 512 400 (204800)
I0506 10:14:40.403363  8964 net.cpp:131] Top shape: 1 512 400 (204800)
I0506 10:14:40.403367  8964 net.cpp:131] Top shape: 1 512 400 (204800)
I0506 10:14:40.403369  8964 net.cpp:131] Top shape: 1 512 400 (204800)
I0506 10:14:40.403373  8964 net.cpp:131] Top shape: 1 512 400 (204800)
I0506 10:14:40.403375  8964 net.cpp:131] Top shape: 1 512 400 (204800)
I0506 10:14:40.403378  8964 net.cpp:131] Top shape: 1 512 400 (204800)
I0506 10:14:40.403381  8964 net.cpp:131] Top shape: 1 512 400 (204800)
I0506 10:14:40.403384  8964 net.cpp:131] Top shape: 1 512 400 (204800)
I0506 10:14:40.403388  8964 net.cpp:131] Top shape: 1 512 400 (204800)
I0506 10:14:40.403390  8964 net.cpp:131] Top shape: 1 512 400 (204800)
I0506 10:14:40.403393  8964 net.cpp:131] Top shape: 1 512 400 (204800)
I0506 10:14:40.403396  8964 net.cpp:131] Top shape: 1 512 400 (204800)
I0506 10:14:40.403399  8964 net.cpp:131] Top shape: 1 512 400 (204800)
I0506 10:14:40.403403  8964 net.cpp:131] Top shape: 1 512 400 (204800)
I0506 10:14:40.403405  8964 net.cpp:131] Top shape: 1 512 400 (204800)
I0506 10:14:40.403409  8964 net.cpp:131] Top shape: 1 512 400 (204800)
I0506 10:14:40.403411  8964 net.cpp:131] Top shape: 1 512 400 (204800)
I0506 10:14:40.403414  8964 net.cpp:131] Top shape: 1 512 400 (204800)
I0506 10:14:40.403417  8964 net.cpp:131] Top shape: 1 512 400 (204800)
I0506 10:14:40.403420  8964 net.cpp:131] Top shape: 1 512 400 (204800)
I0506 10:14:40.403422  8964 net.cpp:131] Top shape: 1 512 400 (204800)
I0506 10:14:40.403425  8964 net.cpp:131] Top shape: 1 512 400 (204800)
I0506 10:14:40.403429  8964 net.cpp:131] Top shape: 1 512 400 (204800)
I0506 10:14:40.403431  8964 net.cpp:131] Top shape: 1 512 400 (204800)
I0506 10:14:40.403434  8964 net.cpp:131] Top shape: 1 512 400 (204800)
I0506 10:14:40.403437  8964 net.cpp:131] Top shape: 1 512 400 (204800)
I0506 10:14:40.403440  8964 net.cpp:131] Top shape: 1 512 400 (204800)
I0506 10:14:40.403443  8964 net.cpp:131] Top shape: 1 512 400 (204800)
I0506 10:14:40.403446  8964 net.cpp:131] Top shape: 1 512 400 (204800)
I0506 10:14:40.403450  8964 net.cpp:131] Top shape: 1 512 400 (204800)
I0506 10:14:40.403452  8964 net.cpp:131] Top shape: 1 512 400 (204800)
I0506 10:14:40.403455  8964 net.cpp:131] Top shape: 1 512 400 (204800)
I0506 10:14:40.403458  8964 net.cpp:131] Top shape: 1 512 400 (204800)
I0506 10:14:40.403461  8964 net.cpp:131] Top shape: 1 512 400 (204800)
I0506 10:14:40.403465  8964 net.cpp:131] Top shape: 1 512 400 (204800)
I0506 10:14:40.403467  8964 net.cpp:131] Top shape: 1 512 400 (204800)
I0506 10:14:40.403470  8964 net.cpp:131] Top shape: 1 512 400 (204800)
I0506 10:14:40.403473  8964 net.cpp:131] Top shape: 1 512 400 (204800)
I0506 10:14:40.403476  8964 net.cpp:139] Memory required for data: 146882560
I0506 10:14:40.403481  8964 layer_factory.hpp:77] Creating layer lstm1_h_conted_0
I0506 10:14:40.403496  8964 net.cpp:86] Creating Layer lstm1_h_conted_0
I0506 10:14:40.403517  8964 net.cpp:408] lstm1_h_conted_0 <- h_0
I0506 10:14:40.403528  8964 net.cpp:408] lstm1_h_conted_0 <- cont_1_lstm1_cont_slice_0_split_0
I0506 10:14:40.403537  8964 net.cpp:382] lstm1_h_conted_0 -> h_conted_0
I0506 10:14:40.403648  8964 net.cpp:124] Setting up lstm1_h_conted_0
I0506 10:14:40.403652  8964 net.cpp:131] Top shape: 1 512 100 (51200)
I0506 10:14:40.403656  8964 net.cpp:139] Memory required for data: 147087360
I0506 10:14:40.403658  8964 layer_factory.hpp:77] Creating layer lstm1_transform_1
I0506 10:14:40.403666  8964 net.cpp:86] Creating Layer lstm1_transform_1
I0506 10:14:40.403668  8964 net.cpp:408] lstm1_transform_1 <- h_conted_0
I0506 10:14:40.403672  8964 net.cpp:382] lstm1_transform_1 -> W_hc_h_0
I0506 10:14:40.403930  8964 net.cpp:124] Setting up lstm1_transform_1
I0506 10:14:40.403934  8964 net.cpp:131] Top shape: 1 512 400 (204800)
I0506 10:14:40.403937  8964 net.cpp:139] Memory required for data: 147906560
I0506 10:14:40.403944  8964 layer_factory.hpp:77] Creating layer lstm1_gate_input_1
I0506 10:14:40.403949  8964 net.cpp:86] Creating Layer lstm1_gate_input_1
I0506 10:14:40.403950  8964 net.cpp:408] lstm1_gate_input_1 <- W_hc_h_0
I0506 10:14:40.403954  8964 net.cpp:408] lstm1_gate_input_1 <- W_xc_x_1
I0506 10:14:40.403959  8964 net.cpp:382] lstm1_gate_input_1 -> gate_input_1
I0506 10:14:40.403973  8964 net.cpp:124] Setting up lstm1_gate_input_1
I0506 10:14:40.403975  8964 net.cpp:131] Top shape: 1 512 400 (204800)
I0506 10:14:40.403978  8964 net.cpp:139] Memory required for data: 148725760
I0506 10:14:40.403980  8964 layer_factory.hpp:77] Creating layer lstm1_unit_1
I0506 10:14:40.403986  8964 net.cpp:86] Creating Layer lstm1_unit_1
I0506 10:14:40.403990  8964 net.cpp:408] lstm1_unit_1 <- c_0
I0506 10:14:40.403992  8964 net.cpp:408] lstm1_unit_1 <- gate_input_1
I0506 10:14:40.403996  8964 net.cpp:408] lstm1_unit_1 <- cont_1_lstm1_cont_slice_0_split_1
I0506 10:14:40.404001  8964 net.cpp:382] lstm1_unit_1 -> c_1
I0506 10:14:40.404006  8964 net.cpp:382] lstm1_unit_1 -> h_1
I0506 10:14:40.404033  8964 net.cpp:124] Setting up lstm1_unit_1
I0506 10:14:40.404036  8964 net.cpp:131] Top shape: 1 512 100 (51200)
I0506 10:14:40.404039  8964 net.cpp:131] Top shape: 1 512 100 (51200)
I0506 10:14:40.404042  8964 net.cpp:139] Memory required for data: 149135360
I0506 10:14:40.404044  8964 layer_factory.hpp:77] Creating layer h_1_lstm1_unit_1_1_split
I0506 10:14:40.404048  8964 net.cpp:86] Creating Layer h_1_lstm1_unit_1_1_split
I0506 10:14:40.404052  8964 net.cpp:408] h_1_lstm1_unit_1_1_split <- h_1
I0506 10:14:40.404054  8964 net.cpp:382] h_1_lstm1_unit_1_1_split -> h_1_lstm1_unit_1_1_split_0
I0506 10:14:40.404059  8964 net.cpp:382] h_1_lstm1_unit_1_1_split -> h_1_lstm1_unit_1_1_split_1
I0506 10:14:40.404080  8964 net.cpp:124] Setting up h_1_lstm1_unit_1_1_split
I0506 10:14:40.404083  8964 net.cpp:131] Top shape: 1 512 100 (51200)
I0506 10:14:40.404085  8964 net.cpp:131] Top shape: 1 512 100 (51200)
I0506 10:14:40.404088  8964 net.cpp:139] Memory required for data: 149544960
I0506 10:14:40.404090  8964 layer_factory.hpp:77] Creating layer lstm1_h_conted_1
I0506 10:14:40.404095  8964 net.cpp:86] Creating Layer lstm1_h_conted_1
I0506 10:14:40.404098  8964 net.cpp:408] lstm1_h_conted_1 <- h_1_lstm1_unit_1_1_split_0
I0506 10:14:40.404103  8964 net.cpp:408] lstm1_h_conted_1 <- cont_2_lstm1_cont_slice_1_split_0
I0506 10:14:40.404109  8964 net.cpp:382] lstm1_h_conted_1 -> h_conted_1
I0506 10:14:40.404145  8964 net.cpp:124] Setting up lstm1_h_conted_1
I0506 10:14:40.404147  8964 net.cpp:131] Top shape: 1 512 100 (51200)
I0506 10:14:40.404150  8964 net.cpp:139] Memory required for data: 149749760
I0506 10:14:40.404152  8964 layer_factory.hpp:77] Creating layer lstm1_transform_2
I0506 10:14:40.404156  8964 net.cpp:86] Creating Layer lstm1_transform_2
I0506 10:14:40.404160  8964 net.cpp:408] lstm1_transform_2 <- h_conted_1
I0506 10:14:40.404162  8964 net.cpp:382] lstm1_transform_2 -> W_hc_h_1
I0506 10:14:40.404407  8964 net.cpp:124] Setting up lstm1_transform_2
I0506 10:14:40.404409  8964 net.cpp:131] Top shape: 1 512 400 (204800)
I0506 10:14:40.404422  8964 net.cpp:139] Memory required for data: 150568960
I0506 10:14:40.404426  8964 net.cpp:467] Sharing parameters 'W_hc' owned by layer 'lstm1_transform_1', param index 0
I0506 10:14:40.404429  8964 layer_factory.hpp:77] Creating layer lstm1_gate_input_2
I0506 10:14:40.405041  8964 net.cpp:86] Creating Layer lstm1_gate_input_2
I0506 10:14:40.405055  8964 net.cpp:408] lstm1_gate_input_2 <- W_hc_h_1
I0506 10:14:40.405063  8964 net.cpp:408] lstm1_gate_input_2 <- W_xc_x_2
I0506 10:14:40.405072  8964 net.cpp:382] lstm1_gate_input_2 -> gate_input_2
I0506 10:14:40.405128  8964 net.cpp:124] Setting up lstm1_gate_input_2
I0506 10:14:40.405133  8964 net.cpp:131] Top shape: 1 512 400 (204800)
I0506 10:14:40.405140  8964 net.cpp:139] Memory required for data: 151388160
I0506 10:14:40.405146  8964 layer_factory.hpp:77] Creating layer lstm1_unit_2
I0506 10:14:40.405153  8964 net.cpp:86] Creating Layer lstm1_unit_2
I0506 10:14:40.405158  8964 net.cpp:408] lstm1_unit_2 <- c_1
I0506 10:14:40.405164  8964 net.cpp:408] lstm1_unit_2 <- gate_input_2
I0506 10:14:40.405171  8964 net.cpp:408] lstm1_unit_2 <- cont_2_lstm1_cont_slice_1_split_1
I0506 10:14:40.405179  8964 net.cpp:382] lstm1_unit_2 -> c_2
I0506 10:14:40.405189  8964 net.cpp:382] lstm1_unit_2 -> h_2
I0506 10:14:40.405252  8964 net.cpp:124] Setting up lstm1_unit_2
I0506 10:14:40.405257  8964 net.cpp:131] Top shape: 1 512 100 (51200)
I0506 10:14:40.405263  8964 net.cpp:131] Top shape: 1 512 100 (51200)
I0506 10:14:40.405269  8964 net.cpp:139] Memory required for data: 151797760
I0506 10:14:40.405273  8964 layer_factory.hpp:77] Creating layer h_2_lstm1_unit_2_1_split
I0506 10:14:40.405280  8964 net.cpp:86] Creating Layer h_2_lstm1_unit_2_1_split
I0506 10:14:40.405285  8964 net.cpp:408] h_2_lstm1_unit_2_1_split <- h_2
I0506 10:14:40.405292  8964 net.cpp:382] h_2_lstm1_unit_2_1_split -> h_2_lstm1_unit_2_1_split_0
I0506 10:14:40.405300  8964 net.cpp:382] h_2_lstm1_unit_2_1_split -> h_2_lstm1_unit_2_1_split_1
I0506 10:14:40.405341  8964 net.cpp:124] Setting up h_2_lstm1_unit_2_1_split
I0506 10:14:40.405346  8964 net.cpp:131] Top shape: 1 512 100 (51200)
I0506 10:14:40.405352  8964 net.cpp:131] Top shape: 1 512 100 (51200)
I0506 10:14:40.405359  8964 net.cpp:139] Memory required for data: 152207360
I0506 10:14:40.405375  8964 layer_factory.hpp:77] Creating layer lstm1_h_conted_2
I0506 10:14:40.405385  8964 net.cpp:86] Creating Layer lstm1_h_conted_2
I0506 10:14:40.405390  8964 net.cpp:408] lstm1_h_conted_2 <- h_2_lstm1_unit_2_1_split_0
I0506 10:14:40.405397  8964 net.cpp:408] lstm1_h_conted_2 <- cont_3_lstm1_cont_slice_2_split_0
I0506 10:14:40.405406  8964 net.cpp:382] lstm1_h_conted_2 -> h_conted_2
I0506 10:14:40.405485  8964 net.cpp:124] Setting up lstm1_h_conted_2
I0506 10:14:40.405491  8964 net.cpp:131] Top shape: 1 512 100 (51200)
I0506 10:14:40.405498  8964 net.cpp:139] Memory required for data: 152412160
I0506 10:14:40.405501  8964 layer_factory.hpp:77] Creating layer lstm1_transform_3
I0506 10:14:40.405511  8964 net.cpp:86] Creating Layer lstm1_transform_3
I0506 10:14:40.405516  8964 net.cpp:408] lstm1_transform_3 <- h_conted_2
I0506 10:14:40.405524  8964 net.cpp:382] lstm1_transform_3 -> W_hc_h_2
I0506 10:14:40.405953  8964 net.cpp:124] Setting up lstm1_transform_3
I0506 10:14:40.405961  8964 net.cpp:131] Top shape: 1 512 400 (204800)
I0506 10:14:40.405967  8964 net.cpp:139] Memory required for data: 153231360
I0506 10:14:40.405975  8964 net.cpp:467] Sharing parameters 'W_hc' owned by layer 'lstm1_transform_1', param index 0
I0506 10:14:40.405980  8964 layer_factory.hpp:77] Creating layer lstm1_gate_input_3
I0506 10:14:40.405987  8964 net.cpp:86] Creating Layer lstm1_gate_input_3
I0506 10:14:40.405992  8964 net.cpp:408] lstm1_gate_input_3 <- W_hc_h_2
I0506 10:14:40.405999  8964 net.cpp:408] lstm1_gate_input_3 <- W_xc_x_3
I0506 10:14:40.406005  8964 net.cpp:382] lstm1_gate_input_3 -> gate_input_3
I0506 10:14:40.406035  8964 net.cpp:124] Setting up lstm1_gate_input_3
I0506 10:14:40.406041  8964 net.cpp:131] Top shape: 1 512 400 (204800)
I0506 10:14:40.406078  8964 net.cpp:139] Memory required for data: 154050560
I0506 10:14:40.406083  8964 layer_factory.hpp:77] Creating layer lstm1_unit_3
I0506 10:14:40.406091  8964 net.cpp:86] Creating Layer lstm1_unit_3
I0506 10:14:40.406098  8964 net.cpp:408] lstm1_unit_3 <- c_2
I0506 10:14:40.406105  8964 net.cpp:408] lstm1_unit_3 <- gate_input_3
I0506 10:14:40.406111  8964 net.cpp:408] lstm1_unit_3 <- cont_3_lstm1_cont_slice_2_split_1
I0506 10:14:40.406119  8964 net.cpp:382] lstm1_unit_3 -> c_3
I0506 10:14:40.406128  8964 net.cpp:382] lstm1_unit_3 -> h_3
I0506 10:14:40.406188  8964 net.cpp:124] Setting up lstm1_unit_3
I0506 10:14:40.406194  8964 net.cpp:131] Top shape: 1 512 100 (51200)
I0506 10:14:40.406200  8964 net.cpp:131] Top shape: 1 512 100 (51200)
I0506 10:14:40.406206  8964 net.cpp:139] Memory required for data: 154460160
I0506 10:14:40.406210  8964 layer_factory.hpp:77] Creating layer h_3_lstm1_unit_3_1_split
I0506 10:14:40.406219  8964 net.cpp:86] Creating Layer h_3_lstm1_unit_3_1_split
I0506 10:14:40.406224  8964 net.cpp:408] h_3_lstm1_unit_3_1_split <- h_3
I0506 10:14:40.406229  8964 net.cpp:382] h_3_lstm1_unit_3_1_split -> h_3_lstm1_unit_3_1_split_0
I0506 10:14:40.406239  8964 net.cpp:382] h_3_lstm1_unit_3_1_split -> h_3_lstm1_unit_3_1_split_1
I0506 10:14:40.406280  8964 net.cpp:124] Setting up h_3_lstm1_unit_3_1_split
I0506 10:14:40.406286  8964 net.cpp:131] Top shape: 1 512 100 (51200)
I0506 10:14:40.406291  8964 net.cpp:131] Top shape: 1 512 100 (51200)
I0506 10:14:40.406296  8964 net.cpp:139] Memory required for data: 154869760
I0506 10:14:40.406301  8964 layer_factory.hpp:77] Creating layer lstm1_h_conted_3
I0506 10:14:40.406309  8964 net.cpp:86] Creating Layer lstm1_h_conted_3
I0506 10:14:40.406314  8964 net.cpp:408] lstm1_h_conted_3 <- h_3_lstm1_unit_3_1_split_0
I0506 10:14:40.406322  8964 net.cpp:408] lstm1_h_conted_3 <- cont_4_lstm1_cont_slice_3_split_0
I0506 10:14:40.406332  8964 net.cpp:382] lstm1_h_conted_3 -> h_conted_3
I0506 10:14:40.406406  8964 net.cpp:124] Setting up lstm1_h_conted_3
I0506 10:14:40.406412  8964 net.cpp:131] Top shape: 1 512 100 (51200)
I0506 10:14:40.406419  8964 net.cpp:139] Memory required for data: 155074560
I0506 10:14:40.406422  8964 layer_factory.hpp:77] Creating layer lstm1_transform_4
I0506 10:14:40.406430  8964 net.cpp:86] Creating Layer lstm1_transform_4
I0506 10:14:40.406435  8964 net.cpp:408] lstm1_transform_4 <- h_conted_3
I0506 10:14:40.406443  8964 net.cpp:382] lstm1_transform_4 -> W_hc_h_3
I0506 10:14:40.406919  8964 net.cpp:124] Setting up lstm1_transform_4
I0506 10:14:40.406929  8964 net.cpp:131] Top shape: 1 512 400 (204800)
I0506 10:14:40.406936  8964 net.cpp:139] Memory required for data: 155893760
I0506 10:14:40.406942  8964 net.cpp:467] Sharing parameters 'W_hc' owned by layer 'lstm1_transform_1', param index 0
I0506 10:14:40.406947  8964 layer_factory.hpp:77] Creating layer lstm1_gate_input_4
I0506 10:14:40.406955  8964 net.cpp:86] Creating Layer lstm1_gate_input_4
I0506 10:14:40.406960  8964 net.cpp:408] lstm1_gate_input_4 <- W_hc_h_3
I0506 10:14:40.406965  8964 net.cpp:408] lstm1_gate_input_4 <- W_xc_x_4
I0506 10:14:40.406972  8964 net.cpp:382] lstm1_gate_input_4 -> gate_input_4
I0506 10:14:40.406996  8964 net.cpp:124] Setting up lstm1_gate_input_4
I0506 10:14:40.407001  8964 net.cpp:131] Top shape: 1 512 400 (204800)
I0506 10:14:40.407006  8964 net.cpp:139] Memory required for data: 156712960
I0506 10:14:40.407007  8964 layer_factory.hpp:77] Creating layer lstm1_unit_4
I0506 10:14:40.407013  8964 net.cpp:86] Creating Layer lstm1_unit_4
I0506 10:14:40.407017  8964 net.cpp:408] lstm1_unit_4 <- c_3
I0506 10:14:40.407021  8964 net.cpp:408] lstm1_unit_4 <- gate_input_4
I0506 10:14:40.407027  8964 net.cpp:408] lstm1_unit_4 <- cont_4_lstm1_cont_slice_3_split_1
I0506 10:14:40.407032  8964 net.cpp:382] lstm1_unit_4 -> c_4
I0506 10:14:40.407037  8964 net.cpp:382] lstm1_unit_4 -> h_4
I0506 10:14:40.407073  8964 net.cpp:124] Setting up lstm1_unit_4
I0506 10:14:40.407076  8964 net.cpp:131] Top shape: 1 512 100 (51200)
I0506 10:14:40.407104  8964 net.cpp:131] Top shape: 1 512 100 (51200)
I0506 10:14:40.407109  8964 net.cpp:139] Memory required for data: 157122560
I0506 10:14:40.407111  8964 layer_factory.hpp:77] Creating layer h_4_lstm1_unit_4_1_split
I0506 10:14:40.408735  8964 net.cpp:86] Creating Layer h_4_lstm1_unit_4_1_split
I0506 10:14:40.408802  8964 net.cpp:408] h_4_lstm1_unit_4_1_split <- h_4
I0506 10:14:40.408810  8964 net.cpp:382] h_4_lstm1_unit_4_1_split -> h_4_lstm1_unit_4_1_split_0
I0506 10:14:40.408820  8964 net.cpp:382] h_4_lstm1_unit_4_1_split -> h_4_lstm1_unit_4_1_split_1
I0506 10:14:40.409054  8964 net.cpp:124] Setting up h_4_lstm1_unit_4_1_split
I0506 10:14:40.409060  8964 net.cpp:131] Top shape: 1 512 100 (51200)
I0506 10:14:40.409067  8964 net.cpp:131] Top shape: 1 512 100 (51200)
I0506 10:14:40.409070  8964 net.cpp:139] Memory required for data: 157532160
I0506 10:14:40.409073  8964 layer_factory.hpp:77] Creating layer lstm1_h_conted_4
I0506 10:14:40.409082  8964 net.cpp:86] Creating Layer lstm1_h_conted_4
I0506 10:14:40.409085  8964 net.cpp:408] lstm1_h_conted_4 <- h_4_lstm1_unit_4_1_split_0
I0506 10:14:40.409091  8964 net.cpp:408] lstm1_h_conted_4 <- cont_5_lstm1_cont_slice_4_split_0
I0506 10:14:40.409097  8964 net.cpp:382] lstm1_h_conted_4 -> h_conted_4
I0506 10:14:40.409149  8964 net.cpp:124] Setting up lstm1_h_conted_4
I0506 10:14:40.409152  8964 net.cpp:131] Top shape: 1 512 100 (51200)
I0506 10:14:40.409155  8964 net.cpp:139] Memory required for data: 157736960
I0506 10:14:40.409158  8964 layer_factory.hpp:77] Creating layer lstm1_transform_5
I0506 10:14:40.409165  8964 net.cpp:86] Creating Layer lstm1_transform_5
I0506 10:14:40.409168  8964 net.cpp:408] lstm1_transform_5 <- h_conted_4
I0506 10:14:40.409173  8964 net.cpp:382] lstm1_transform_5 -> W_hc_h_4
I0506 10:14:40.409463  8964 net.cpp:124] Setting up lstm1_transform_5
I0506 10:14:40.409471  8964 net.cpp:131] Top shape: 1 512 400 (204800)
I0506 10:14:40.409476  8964 net.cpp:139] Memory required for data: 158556160
I0506 10:14:40.409479  8964 net.cpp:467] Sharing parameters 'W_hc' owned by layer 'lstm1_transform_1', param index 0
I0506 10:14:40.409483  8964 layer_factory.hpp:77] Creating layer lstm1_gate_input_5
I0506 10:14:40.409490  8964 net.cpp:86] Creating Layer lstm1_gate_input_5
I0506 10:14:40.409494  8964 net.cpp:408] lstm1_gate_input_5 <- W_hc_h_4
I0506 10:14:40.409500  8964 net.cpp:408] lstm1_gate_input_5 <- W_xc_x_5
I0506 10:14:40.409505  8964 net.cpp:382] lstm1_gate_input_5 -> gate_input_5
I0506 10:14:40.409528  8964 net.cpp:124] Setting up lstm1_gate_input_5
I0506 10:14:40.409531  8964 net.cpp:131] Top shape: 1 512 400 (204800)
I0506 10:14:40.409536  8964 net.cpp:139] Memory required for data: 159375360
I0506 10:14:40.409539  8964 layer_factory.hpp:77] Creating layer lstm1_unit_5
I0506 10:14:40.409546  8964 net.cpp:86] Creating Layer lstm1_unit_5
I0506 10:14:40.409550  8964 net.cpp:408] lstm1_unit_5 <- c_4
I0506 10:14:40.409554  8964 net.cpp:408] lstm1_unit_5 <- gate_input_5
I0506 10:14:40.409559  8964 net.cpp:408] lstm1_unit_5 <- cont_5_lstm1_cont_slice_4_split_1
I0506 10:14:40.409564  8964 net.cpp:382] lstm1_unit_5 -> c_5
I0506 10:14:40.409570  8964 net.cpp:382] lstm1_unit_5 -> h_5
I0506 10:14:40.409613  8964 net.cpp:124] Setting up lstm1_unit_5
I0506 10:14:40.409618  8964 net.cpp:131] Top shape: 1 512 100 (51200)
I0506 10:14:40.409623  8964 net.cpp:131] Top shape: 1 512 100 (51200)
I0506 10:14:40.409626  8964 net.cpp:139] Memory required for data: 159784960
I0506 10:14:40.409631  8964 layer_factory.hpp:77] Creating layer h_5_lstm1_unit_5_1_split
I0506 10:14:40.409636  8964 net.cpp:86] Creating Layer h_5_lstm1_unit_5_1_split
I0506 10:14:40.409639  8964 net.cpp:408] h_5_lstm1_unit_5_1_split <- h_5
I0506 10:14:40.409644  8964 net.cpp:382] h_5_lstm1_unit_5_1_split -> h_5_lstm1_unit_5_1_split_0
I0506 10:14:40.409651  8964 net.cpp:382] h_5_lstm1_unit_5_1_split -> h_5_lstm1_unit_5_1_split_1
I0506 10:14:40.409682  8964 net.cpp:124] Setting up h_5_lstm1_unit_5_1_split
I0506 10:14:40.409687  8964 net.cpp:131] Top shape: 1 512 100 (51200)
I0506 10:14:40.409691  8964 net.cpp:131] Top shape: 1 512 100 (51200)
I0506 10:14:40.409723  8964 net.cpp:139] Memory required for data: 160194560
I0506 10:14:40.409727  8964 layer_factory.hpp:77] Creating layer lstm1_h_conted_5
I0506 10:14:40.409734  8964 net.cpp:86] Creating Layer lstm1_h_conted_5
I0506 10:14:40.409739  8964 net.cpp:408] lstm1_h_conted_5 <- h_5_lstm1_unit_5_1_split_0
I0506 10:14:40.409745  8964 net.cpp:408] lstm1_h_conted_5 <- cont_6_lstm1_cont_slice_5_split_0
I0506 10:14:40.409751  8964 net.cpp:382] lstm1_h_conted_5 -> h_conted_5
I0506 10:14:40.409811  8964 net.cpp:124] Setting up lstm1_h_conted_5
I0506 10:14:40.409816  8964 net.cpp:131] Top shape: 1 512 100 (51200)
I0506 10:14:40.409821  8964 net.cpp:139] Memory required for data: 160399360
I0506 10:14:40.409824  8964 layer_factory.hpp:77] Creating layer lstm1_transform_6
I0506 10:14:40.409832  8964 net.cpp:86] Creating Layer lstm1_transform_6
I0506 10:14:40.409834  8964 net.cpp:408] lstm1_transform_6 <- h_conted_5
I0506 10:14:40.409840  8964 net.cpp:382] lstm1_transform_6 -> W_hc_h_5
I0506 10:14:40.410203  8964 net.cpp:124] Setting up lstm1_transform_6
I0506 10:14:40.410210  8964 net.cpp:131] Top shape: 1 512 400 (204800)
I0506 10:14:40.410215  8964 net.cpp:139] Memory required for data: 161218560
I0506 10:14:40.410219  8964 net.cpp:467] Sharing parameters 'W_hc' owned by layer 'lstm1_transform_1', param index 0
I0506 10:14:40.410223  8964 layer_factory.hpp:77] Creating layer lstm1_gate_input_6
I0506 10:14:40.410228  8964 net.cpp:86] Creating Layer lstm1_gate_input_6
I0506 10:14:40.410233  8964 net.cpp:408] lstm1_gate_input_6 <- W_hc_h_5
I0506 10:14:40.410238  8964 net.cpp:408] lstm1_gate_input_6 <- W_xc_x_6
I0506 10:14:40.410243  8964 net.cpp:382] lstm1_gate_input_6 -> gate_input_6
I0506 10:14:40.410264  8964 net.cpp:124] Setting up lstm1_gate_input_6
I0506 10:14:40.410269  8964 net.cpp:131] Top shape: 1 512 400 (204800)
I0506 10:14:40.410274  8964 net.cpp:139] Memory required for data: 162037760
I0506 10:14:40.410277  8964 layer_factory.hpp:77] Creating layer lstm1_unit_6
I0506 10:14:40.410282  8964 net.cpp:86] Creating Layer lstm1_unit_6
I0506 10:14:40.410286  8964 net.cpp:408] lstm1_unit_6 <- c_5
I0506 10:14:40.410290  8964 net.cpp:408] lstm1_unit_6 <- gate_input_6
I0506 10:14:40.410295  8964 net.cpp:408] lstm1_unit_6 <- cont_6_lstm1_cont_slice_5_split_1
I0506 10:14:40.410300  8964 net.cpp:382] lstm1_unit_6 -> c_6
I0506 10:14:40.410306  8964 net.cpp:382] lstm1_unit_6 -> h_6
I0506 10:14:40.410349  8964 net.cpp:124] Setting up lstm1_unit_6
I0506 10:14:40.410353  8964 net.cpp:131] Top shape: 1 512 100 (51200)
I0506 10:14:40.410358  8964 net.cpp:131] Top shape: 1 512 100 (51200)
I0506 10:14:40.410362  8964 net.cpp:139] Memory required for data: 162447360
I0506 10:14:40.410365  8964 layer_factory.hpp:77] Creating layer h_6_lstm1_unit_6_1_split
I0506 10:14:40.410370  8964 net.cpp:86] Creating Layer h_6_lstm1_unit_6_1_split
I0506 10:14:40.410374  8964 net.cpp:408] h_6_lstm1_unit_6_1_split <- h_6
I0506 10:14:40.410379  8964 net.cpp:382] h_6_lstm1_unit_6_1_split -> h_6_lstm1_unit_6_1_split_0
I0506 10:14:40.410385  8964 net.cpp:382] h_6_lstm1_unit_6_1_split -> h_6_lstm1_unit_6_1_split_1
I0506 10:14:40.410416  8964 net.cpp:124] Setting up h_6_lstm1_unit_6_1_split
I0506 10:14:40.410423  8964 net.cpp:131] Top shape: 1 512 100 (51200)
I0506 10:14:40.410426  8964 net.cpp:131] Top shape: 1 512 100 (51200)
I0506 10:14:40.410430  8964 net.cpp:139] Memory required for data: 162856960
I0506 10:14:40.410434  8964 layer_factory.hpp:77] Creating layer lstm1_h_conted_6
I0506 10:14:40.410441  8964 net.cpp:86] Creating Layer lstm1_h_conted_6
I0506 10:14:40.410445  8964 net.cpp:408] lstm1_h_conted_6 <- h_6_lstm1_unit_6_1_split_0
I0506 10:14:40.410450  8964 net.cpp:408] lstm1_h_conted_6 <- cont_7_lstm1_cont_slice_6_split_0
I0506 10:14:40.410457  8964 net.cpp:382] lstm1_h_conted_6 -> h_conted_6
I0506 10:14:40.410509  8964 net.cpp:124] Setting up lstm1_h_conted_6
I0506 10:14:40.410514  8964 net.cpp:131] Top shape: 1 512 100 (51200)
I0506 10:14:40.410519  8964 net.cpp:139] Memory required for data: 163061760
I0506 10:14:40.410540  8964 layer_factory.hpp:77] Creating layer lstm1_transform_7
I0506 10:14:40.410549  8964 net.cpp:86] Creating Layer lstm1_transform_7
I0506 10:14:40.410553  8964 net.cpp:408] lstm1_transform_7 <- h_conted_6
I0506 10:14:40.410557  8964 net.cpp:382] lstm1_transform_7 -> W_hc_h_6
I0506 10:14:40.410738  8964 net.cpp:124] Setting up lstm1_transform_7
I0506 10:14:40.410742  8964 net.cpp:131] Top shape: 1 512 400 (204800)
I0506 10:14:40.410744  8964 net.cpp:139] Memory required for data: 163880960
I0506 10:14:40.410749  8964 net.cpp:467] Sharing parameters 'W_hc' owned by layer 'lstm1_transform_1', param index 0
I0506 10:14:40.410751  8964 layer_factory.hpp:77] Creating layer lstm1_gate_input_7
I0506 10:14:40.410754  8964 net.cpp:86] Creating Layer lstm1_gate_input_7
I0506 10:14:40.410758  8964 net.cpp:408] lstm1_gate_input_7 <- W_hc_h_6
I0506 10:14:40.410760  8964 net.cpp:408] lstm1_gate_input_7 <- W_xc_x_7
I0506 10:14:40.410764  8964 net.cpp:382] lstm1_gate_input_7 -> gate_input_7
I0506 10:14:40.410776  8964 net.cpp:124] Setting up lstm1_gate_input_7
I0506 10:14:40.410778  8964 net.cpp:131] Top shape: 1 512 400 (204800)
I0506 10:14:40.410781  8964 net.cpp:139] Memory required for data: 164700160
I0506 10:14:40.410784  8964 layer_factory.hpp:77] Creating layer lstm1_unit_7
I0506 10:14:40.410787  8964 net.cpp:86] Creating Layer lstm1_unit_7
I0506 10:14:40.410789  8964 net.cpp:408] lstm1_unit_7 <- c_6
I0506 10:14:40.410792  8964 net.cpp:408] lstm1_unit_7 <- gate_input_7
I0506 10:14:40.410795  8964 net.cpp:408] lstm1_unit_7 <- cont_7_lstm1_cont_slice_6_split_1
I0506 10:14:40.410799  8964 net.cpp:382] lstm1_unit_7 -> c_7
I0506 10:14:40.410802  8964 net.cpp:382] lstm1_unit_7 -> h_7
I0506 10:14:40.410826  8964 net.cpp:124] Setting up lstm1_unit_7
I0506 10:14:40.410828  8964 net.cpp:131] Top shape: 1 512 100 (51200)
I0506 10:14:40.410831  8964 net.cpp:131] Top shape: 1 512 100 (51200)
I0506 10:14:40.410835  8964 net.cpp:139] Memory required for data: 165109760
I0506 10:14:40.410836  8964 layer_factory.hpp:77] Creating layer h_7_lstm1_unit_7_1_split
I0506 10:14:40.410840  8964 net.cpp:86] Creating Layer h_7_lstm1_unit_7_1_split
I0506 10:14:40.410841  8964 net.cpp:408] h_7_lstm1_unit_7_1_split <- h_7
I0506 10:14:40.410845  8964 net.cpp:382] h_7_lstm1_unit_7_1_split -> h_7_lstm1_unit_7_1_split_0
I0506 10:14:40.410848  8964 net.cpp:382] h_7_lstm1_unit_7_1_split -> h_7_lstm1_unit_7_1_split_1
I0506 10:14:40.410866  8964 net.cpp:124] Setting up h_7_lstm1_unit_7_1_split
I0506 10:14:40.410868  8964 net.cpp:131] Top shape: 1 512 100 (51200)
I0506 10:14:40.410871  8964 net.cpp:131] Top shape: 1 512 100 (51200)
I0506 10:14:40.410873  8964 net.cpp:139] Memory required for data: 165519360
I0506 10:14:40.410876  8964 layer_factory.hpp:77] Creating layer lstm1_h_conted_7
I0506 10:14:40.410881  8964 net.cpp:86] Creating Layer lstm1_h_conted_7
I0506 10:14:40.410883  8964 net.cpp:408] lstm1_h_conted_7 <- h_7_lstm1_unit_7_1_split_0
I0506 10:14:40.410887  8964 net.cpp:408] lstm1_h_conted_7 <- cont_8_lstm1_cont_slice_7_split_0
I0506 10:14:40.410890  8964 net.cpp:382] lstm1_h_conted_7 -> h_conted_7
I0506 10:14:40.410926  8964 net.cpp:124] Setting up lstm1_h_conted_7
I0506 10:14:40.410929  8964 net.cpp:131] Top shape: 1 512 100 (51200)
I0506 10:14:40.410933  8964 net.cpp:139] Memory required for data: 165724160
I0506 10:14:40.410934  8964 layer_factory.hpp:77] Creating layer lstm1_transform_8
I0506 10:14:40.410938  8964 net.cpp:86] Creating Layer lstm1_transform_8
I0506 10:14:40.410940  8964 net.cpp:408] lstm1_transform_8 <- h_conted_7
I0506 10:14:40.410943  8964 net.cpp:382] lstm1_transform_8 -> W_hc_h_7
I0506 10:14:40.411118  8964 net.cpp:124] Setting up lstm1_transform_8
I0506 10:14:40.411121  8964 net.cpp:131] Top shape: 1 512 400 (204800)
I0506 10:14:40.411123  8964 net.cpp:139] Memory required for data: 166543360
I0506 10:14:40.411126  8964 net.cpp:467] Sharing parameters 'W_hc' owned by layer 'lstm1_transform_1', param index 0
I0506 10:14:40.411128  8964 layer_factory.hpp:77] Creating layer lstm1_gate_input_8
I0506 10:14:40.411144  8964 net.cpp:86] Creating Layer lstm1_gate_input_8
I0506 10:14:40.411145  8964 net.cpp:408] lstm1_gate_input_8 <- W_hc_h_7
I0506 10:14:40.411150  8964 net.cpp:408] lstm1_gate_input_8 <- W_xc_x_8
I0506 10:14:40.411154  8964 net.cpp:382] lstm1_gate_input_8 -> gate_input_8
I0506 10:14:40.411166  8964 net.cpp:124] Setting up lstm1_gate_input_8
I0506 10:14:40.411168  8964 net.cpp:131] Top shape: 1 512 400 (204800)
I0506 10:14:40.411171  8964 net.cpp:139] Memory required for data: 167362560
I0506 10:14:40.411173  8964 layer_factory.hpp:77] Creating layer lstm1_unit_8
I0506 10:14:40.411177  8964 net.cpp:86] Creating Layer lstm1_unit_8
I0506 10:14:40.411180  8964 net.cpp:408] lstm1_unit_8 <- c_7
I0506 10:14:40.411187  8964 net.cpp:408] lstm1_unit_8 <- gate_input_8
I0506 10:14:40.411191  8964 net.cpp:408] lstm1_unit_8 <- cont_8_lstm1_cont_slice_7_split_1
I0506 10:14:40.411195  8964 net.cpp:382] lstm1_unit_8 -> c_8
I0506 10:14:40.411201  8964 net.cpp:382] lstm1_unit_8 -> h_8
I0506 10:14:40.411234  8964 net.cpp:124] Setting up lstm1_unit_8
I0506 10:14:40.411238  8964 net.cpp:131] Top shape: 1 512 100 (51200)
I0506 10:14:40.411242  8964 net.cpp:131] Top shape: 1 512 100 (51200)
I0506 10:14:40.411245  8964 net.cpp:139] Memory required for data: 167772160
I0506 10:14:40.411249  8964 layer_factory.hpp:77] Creating layer h_8_lstm1_unit_8_1_split
I0506 10:14:40.411253  8964 net.cpp:86] Creating Layer h_8_lstm1_unit_8_1_split
I0506 10:14:40.411257  8964 net.cpp:408] h_8_lstm1_unit_8_1_split <- h_8
I0506 10:14:40.411262  8964 net.cpp:382] h_8_lstm1_unit_8_1_split -> h_8_lstm1_unit_8_1_split_0
I0506 10:14:40.411267  8964 net.cpp:382] h_8_lstm1_unit_8_1_split -> h_8_lstm1_unit_8_1_split_1
I0506 10:14:40.411295  8964 net.cpp:124] Setting up h_8_lstm1_unit_8_1_split
I0506 10:14:40.411299  8964 net.cpp:131] Top shape: 1 512 100 (51200)
I0506 10:14:40.411303  8964 net.cpp:131] Top shape: 1 512 100 (51200)
I0506 10:14:40.411305  8964 net.cpp:139] Memory required for data: 168181760
I0506 10:14:40.411307  8964 layer_factory.hpp:77] Creating layer lstm1_h_conted_8
I0506 10:14:40.411312  8964 net.cpp:86] Creating Layer lstm1_h_conted_8
I0506 10:14:40.411316  8964 net.cpp:408] lstm1_h_conted_8 <- h_8_lstm1_unit_8_1_split_0
I0506 10:14:40.411320  8964 net.cpp:408] lstm1_h_conted_8 <- cont_9_lstm1_cont_slice_8_split_0
I0506 10:14:40.411325  8964 net.cpp:382] lstm1_h_conted_8 -> h_conted_8
I0506 10:14:40.411381  8964 net.cpp:124] Setting up lstm1_h_conted_8
I0506 10:14:40.411386  8964 net.cpp:131] Top shape: 1 512 100 (51200)
I0506 10:14:40.411389  8964 net.cpp:139] Memory required for data: 168386560
I0506 10:14:40.411392  8964 layer_factory.hpp:77] Creating layer lstm1_transform_9
I0506 10:14:40.411398  8964 net.cpp:86] Creating Layer lstm1_transform_9
I0506 10:14:40.411401  8964 net.cpp:408] lstm1_transform_9 <- h_conted_8
I0506 10:14:40.411406  8964 net.cpp:382] lstm1_transform_9 -> W_hc_h_8
I0506 10:14:40.411643  8964 net.cpp:124] Setting up lstm1_transform_9
I0506 10:14:40.411648  8964 net.cpp:131] Top shape: 1 512 400 (204800)
I0506 10:14:40.411653  8964 net.cpp:139] Memory required for data: 169205760
I0506 10:14:40.411655  8964 net.cpp:467] Sharing parameters 'W_hc' owned by layer 'lstm1_transform_1', param index 0
I0506 10:14:40.411659  8964 layer_factory.hpp:77] Creating layer lstm1_gate_input_9
I0506 10:14:40.411662  8964 net.cpp:86] Creating Layer lstm1_gate_input_9
I0506 10:14:40.411665  8964 net.cpp:408] lstm1_gate_input_9 <- W_hc_h_8
I0506 10:14:40.411669  8964 net.cpp:408] lstm1_gate_input_9 <- W_xc_x_9
I0506 10:14:40.411672  8964 net.cpp:382] lstm1_gate_input_9 -> gate_input_9
I0506 10:14:40.411686  8964 net.cpp:124] Setting up lstm1_gate_input_9
I0506 10:14:40.411689  8964 net.cpp:131] Top shape: 1 512 400 (204800)
I0506 10:14:40.411692  8964 net.cpp:139] Memory required for data: 170024960
I0506 10:14:40.411695  8964 layer_factory.hpp:77] Creating layer lstm1_unit_9
I0506 10:14:40.411702  8964 net.cpp:86] Creating Layer lstm1_unit_9
I0506 10:14:40.411705  8964 net.cpp:408] lstm1_unit_9 <- c_8
I0506 10:14:40.411708  8964 net.cpp:408] lstm1_unit_9 <- gate_input_9
I0506 10:14:40.411727  8964 net.cpp:408] lstm1_unit_9 <- cont_9_lstm1_cont_slice_8_split_1
I0506 10:14:40.412544  8964 net.cpp:382] lstm1_unit_9 -> c_9
I0506 10:14:40.412554  8964 net.cpp:382] lstm1_unit_9 -> h_9
I0506 10:14:40.412591  8964 net.cpp:124] Setting up lstm1_unit_9
I0506 10:14:40.412595  8964 net.cpp:131] Top shape: 1 512 100 (51200)
I0506 10:14:40.412600  8964 net.cpp:131] Top shape: 1 512 100 (51200)
I0506 10:14:40.412602  8964 net.cpp:139] Memory required for data: 170434560
I0506 10:14:40.412605  8964 layer_factory.hpp:77] Creating layer h_9_lstm1_unit_9_1_split
I0506 10:14:40.412609  8964 net.cpp:86] Creating Layer h_9_lstm1_unit_9_1_split
I0506 10:14:40.412612  8964 net.cpp:408] h_9_lstm1_unit_9_1_split <- h_9
I0506 10:14:40.412616  8964 net.cpp:382] h_9_lstm1_unit_9_1_split -> h_9_lstm1_unit_9_1_split_0
I0506 10:14:40.412621  8964 net.cpp:382] h_9_lstm1_unit_9_1_split -> h_9_lstm1_unit_9_1_split_1
I0506 10:14:40.412641  8964 net.cpp:124] Setting up h_9_lstm1_unit_9_1_split
I0506 10:14:40.412643  8964 net.cpp:131] Top shape: 1 512 100 (51200)
I0506 10:14:40.412647  8964 net.cpp:131] Top shape: 1 512 100 (51200)
I0506 10:14:40.412649  8964 net.cpp:139] Memory required for data: 170844160
I0506 10:14:40.412652  8964 layer_factory.hpp:77] Creating layer lstm1_h_conted_9
I0506 10:14:40.412657  8964 net.cpp:86] Creating Layer lstm1_h_conted_9
I0506 10:14:40.412660  8964 net.cpp:408] lstm1_h_conted_9 <- h_9_lstm1_unit_9_1_split_0
I0506 10:14:40.412664  8964 net.cpp:408] lstm1_h_conted_9 <- cont_10_lstm1_cont_slice_9_split_0
I0506 10:14:40.412669  8964 net.cpp:382] lstm1_h_conted_9 -> h_conted_9
I0506 10:14:40.412712  8964 net.cpp:124] Setting up lstm1_h_conted_9
I0506 10:14:40.412715  8964 net.cpp:131] Top shape: 1 512 100 (51200)
I0506 10:14:40.412719  8964 net.cpp:139] Memory required for data: 171048960
I0506 10:14:40.412721  8964 layer_factory.hpp:77] Creating layer lstm1_transform_10
I0506 10:14:40.412727  8964 net.cpp:86] Creating Layer lstm1_transform_10
I0506 10:14:40.412730  8964 net.cpp:408] lstm1_transform_10 <- h_conted_9
I0506 10:14:40.412734  8964 net.cpp:382] lstm1_transform_10 -> W_hc_h_9
I0506 10:14:40.412988  8964 net.cpp:124] Setting up lstm1_transform_10
I0506 10:14:40.412992  8964 net.cpp:131] Top shape: 1 512 400 (204800)
I0506 10:14:40.412995  8964 net.cpp:139] Memory required for data: 171868160
I0506 10:14:40.412998  8964 net.cpp:467] Sharing parameters 'W_hc' owned by layer 'lstm1_transform_1', param index 0
I0506 10:14:40.413002  8964 layer_factory.hpp:77] Creating layer lstm1_gate_input_10
I0506 10:14:40.413007  8964 net.cpp:86] Creating Layer lstm1_gate_input_10
I0506 10:14:40.413009  8964 net.cpp:408] lstm1_gate_input_10 <- W_hc_h_9
I0506 10:14:40.413012  8964 net.cpp:408] lstm1_gate_input_10 <- W_xc_x_10
I0506 10:14:40.413015  8964 net.cpp:382] lstm1_gate_input_10 -> gate_input_10
I0506 10:14:40.413030  8964 net.cpp:124] Setting up lstm1_gate_input_10
I0506 10:14:40.413033  8964 net.cpp:131] Top shape: 1 512 400 (204800)
I0506 10:14:40.413036  8964 net.cpp:139] Memory required for data: 172687360
I0506 10:14:40.413038  8964 layer_factory.hpp:77] Creating layer lstm1_unit_10
I0506 10:14:40.413043  8964 net.cpp:86] Creating Layer lstm1_unit_10
I0506 10:14:40.413045  8964 net.cpp:408] lstm1_unit_10 <- c_9
I0506 10:14:40.413048  8964 net.cpp:408] lstm1_unit_10 <- gate_input_10
I0506 10:14:40.413051  8964 net.cpp:408] lstm1_unit_10 <- cont_10_lstm1_cont_slice_9_split_1
I0506 10:14:40.413055  8964 net.cpp:382] lstm1_unit_10 -> c_10
I0506 10:14:40.413060  8964 net.cpp:382] lstm1_unit_10 -> h_10
I0506 10:14:40.413087  8964 net.cpp:124] Setting up lstm1_unit_10
I0506 10:14:40.413090  8964 net.cpp:131] Top shape: 1 512 100 (51200)
I0506 10:14:40.413094  8964 net.cpp:131] Top shape: 1 512 100 (51200)
I0506 10:14:40.413096  8964 net.cpp:139] Memory required for data: 173096960
I0506 10:14:40.413098  8964 layer_factory.hpp:77] Creating layer h_10_lstm1_unit_10_1_split
I0506 10:14:40.413102  8964 net.cpp:86] Creating Layer h_10_lstm1_unit_10_1_split
I0506 10:14:40.413115  8964 net.cpp:408] h_10_lstm1_unit_10_1_split <- h_10
I0506 10:14:40.413118  8964 net.cpp:382] h_10_lstm1_unit_10_1_split -> h_10_lstm1_unit_10_1_split_0
I0506 10:14:40.413123  8964 net.cpp:382] h_10_lstm1_unit_10_1_split -> h_10_lstm1_unit_10_1_split_1
I0506 10:14:40.413143  8964 net.cpp:124] Setting up h_10_lstm1_unit_10_1_split
I0506 10:14:40.413146  8964 net.cpp:131] Top shape: 1 512 100 (51200)
I0506 10:14:40.413151  8964 net.cpp:131] Top shape: 1 512 100 (51200)
I0506 10:14:40.413153  8964 net.cpp:139] Memory required for data: 173506560
I0506 10:14:40.413156  8964 layer_factory.hpp:77] Creating layer lstm1_h_conted_10
I0506 10:14:40.413161  8964 net.cpp:86] Creating Layer lstm1_h_conted_10
I0506 10:14:40.413163  8964 net.cpp:408] lstm1_h_conted_10 <- h_10_lstm1_unit_10_1_split_0
I0506 10:14:40.413167  8964 net.cpp:408] lstm1_h_conted_10 <- cont_11_lstm1_cont_slice_10_split_0
I0506 10:14:40.413172  8964 net.cpp:382] lstm1_h_conted_10 -> h_conted_10
I0506 10:14:40.413209  8964 net.cpp:124] Setting up lstm1_h_conted_10
I0506 10:14:40.413213  8964 net.cpp:131] Top shape: 1 512 100 (51200)
I0506 10:14:40.413215  8964 net.cpp:139] Memory required for data: 173711360
I0506 10:14:40.413218  8964 layer_factory.hpp:77] Creating layer lstm1_transform_11
I0506 10:14:40.413221  8964 net.cpp:86] Creating Layer lstm1_transform_11
I0506 10:14:40.413224  8964 net.cpp:408] lstm1_transform_11 <- h_conted_10
I0506 10:14:40.413228  8964 net.cpp:382] lstm1_transform_11 -> W_hc_h_10
I0506 10:14:40.413457  8964 net.cpp:124] Setting up lstm1_transform_11
I0506 10:14:40.413461  8964 net.cpp:131] Top shape: 1 512 400 (204800)
I0506 10:14:40.413465  8964 net.cpp:139] Memory required for data: 174530560
I0506 10:14:40.413467  8964 net.cpp:467] Sharing parameters 'W_hc' owned by layer 'lstm1_transform_1', param index 0
I0506 10:14:40.413470  8964 layer_factory.hpp:77] Creating layer lstm1_gate_input_11
I0506 10:14:40.413473  8964 net.cpp:86] Creating Layer lstm1_gate_input_11
I0506 10:14:40.413475  8964 net.cpp:408] lstm1_gate_input_11 <- W_hc_h_10
I0506 10:14:40.413478  8964 net.cpp:408] lstm1_gate_input_11 <- W_xc_x_11
I0506 10:14:40.413482  8964 net.cpp:382] lstm1_gate_input_11 -> gate_input_11
I0506 10:14:40.413494  8964 net.cpp:124] Setting up lstm1_gate_input_11
I0506 10:14:40.413496  8964 net.cpp:131] Top shape: 1 512 400 (204800)
I0506 10:14:40.413499  8964 net.cpp:139] Memory required for data: 175349760
I0506 10:14:40.413501  8964 layer_factory.hpp:77] Creating layer lstm1_unit_11
I0506 10:14:40.413506  8964 net.cpp:86] Creating Layer lstm1_unit_11
I0506 10:14:40.413507  8964 net.cpp:408] lstm1_unit_11 <- c_10
I0506 10:14:40.413511  8964 net.cpp:408] lstm1_unit_11 <- gate_input_11
I0506 10:14:40.413513  8964 net.cpp:408] lstm1_unit_11 <- cont_11_lstm1_cont_slice_10_split_1
I0506 10:14:40.413516  8964 net.cpp:382] lstm1_unit_11 -> c_11
I0506 10:14:40.413520  8964 net.cpp:382] lstm1_unit_11 -> h_11
I0506 10:14:40.413545  8964 net.cpp:124] Setting up lstm1_unit_11
I0506 10:14:40.413547  8964 net.cpp:131] Top shape: 1 512 100 (51200)
I0506 10:14:40.413550  8964 net.cpp:131] Top shape: 1 512 100 (51200)
I0506 10:14:40.413552  8964 net.cpp:139] Memory required for data: 175759360
I0506 10:14:40.413554  8964 layer_factory.hpp:77] Creating layer h_11_lstm1_unit_11_1_split
I0506 10:14:40.413558  8964 net.cpp:86] Creating Layer h_11_lstm1_unit_11_1_split
I0506 10:14:40.413560  8964 net.cpp:408] h_11_lstm1_unit_11_1_split <- h_11
I0506 10:14:40.413563  8964 net.cpp:382] h_11_lstm1_unit_11_1_split -> h_11_lstm1_unit_11_1_split_0
I0506 10:14:40.413568  8964 net.cpp:382] h_11_lstm1_unit_11_1_split -> h_11_lstm1_unit_11_1_split_1
I0506 10:14:40.413585  8964 net.cpp:124] Setting up h_11_lstm1_unit_11_1_split
I0506 10:14:40.413588  8964 net.cpp:131] Top shape: 1 512 100 (51200)
I0506 10:14:40.413590  8964 net.cpp:131] Top shape: 1 512 100 (51200)
I0506 10:14:40.413594  8964 net.cpp:139] Memory required for data: 176168960
I0506 10:14:40.413594  8964 layer_factory.hpp:77] Creating layer lstm1_h_conted_11
I0506 10:14:40.413599  8964 net.cpp:86] Creating Layer lstm1_h_conted_11
I0506 10:14:40.415710  8964 net.cpp:408] lstm1_h_conted_11 <- h_11_lstm1_unit_11_1_split_0
I0506 10:14:40.415735  8964 net.cpp:408] lstm1_h_conted_11 <- cont_12_lstm1_cont_slice_11_split_0
I0506 10:14:40.415748  8964 net.cpp:382] lstm1_h_conted_11 -> h_conted_11
I0506 10:14:40.415854  8964 net.cpp:124] Setting up lstm1_h_conted_11
I0506 10:14:40.415860  8964 net.cpp:131] Top shape: 1 512 100 (51200)
I0506 10:14:40.415868  8964 net.cpp:139] Memory required for data: 176373760
I0506 10:14:40.415871  8964 layer_factory.hpp:77] Creating layer lstm1_transform_12
I0506 10:14:40.415881  8964 net.cpp:86] Creating Layer lstm1_transform_12
I0506 10:14:40.415884  8964 net.cpp:408] lstm1_transform_12 <- h_conted_11
I0506 10:14:40.415889  8964 net.cpp:382] lstm1_transform_12 -> W_hc_h_11
I0506 10:14:40.417353  8964 net.cpp:124] Setting up lstm1_transform_12
I0506 10:14:40.417392  8964 net.cpp:131] Top shape: 1 512 400 (204800)
I0506 10:14:40.417399  8964 net.cpp:139] Memory required for data: 177192960
I0506 10:14:40.417407  8964 net.cpp:467] Sharing parameters 'W_hc' owned by layer 'lstm1_transform_1', param index 0
I0506 10:14:40.417412  8964 layer_factory.hpp:77] Creating layer lstm1_gate_input_12
I0506 10:14:40.417423  8964 net.cpp:86] Creating Layer lstm1_gate_input_12
I0506 10:14:40.417429  8964 net.cpp:408] lstm1_gate_input_12 <- W_hc_h_11
…
I0506 10:14:40.485049  8964 net.cpp:131] Top shape: 1 512 100 (51200)
I0506 10:14:40.485054  8964 net.cpp:131] Top shape: 1 512 100 (51200)
I0506 10:14:40.485080  8964 net.cpp:139] Memory required for data: 351887360
I0506 10:14:40.485083  8964 layer_factory.hpp:77] Creating layer lstm1_h_conted_77
I0506 10:14:40.485091  8964 net.cpp:86] Creating Layer lstm1_h_conted_77
I0506 10:14:40.485095  8964 net.cpp:408] lstm1_h_conted_77 <- h_77_lstm1_unit_77_1_split_0
I0506 10:14:40.485103  8964 net.cpp:408] lstm1_h_conted_77 <- cont_78_lstm1_cont_slice_77_split_0
I0506 10:14:40.485111  8964 net.cpp:382] lstm1_h_conted_77 -> h_conted_77
I0506 10:14:40.485183  8964 net.cpp:124] Setting up lstm1_h_conted_77
I0506 10:14:40.485188  8964 net.cpp:131] Top shape: 1 512 100 (51200)
I0506 10:14:40.485193  8964 net.cpp:139] Memory required for data: 352092160
I0506 10:14:40.485196  8964 layer_factory.hpp:77] Creating layer lstm1_transform_78
I0506 10:14:40.485205  8964 net.cpp:86] Creating Layer lstm1_transform_78
I0506 10:14:40.485209  8964 net.cpp:408] lstm1_transform_78 <- h_conted_77
I0506 10:14:40.485216  8964 net.cpp:382] lstm1_transform_78 -> W_hc_h_77
I0506 10:14:40.485615  8964 net.cpp:124] Setting up lstm1_transform_78
I0506 10:14:40.485625  8964 net.cpp:131] Top shape: 1 512 400 (204800)
I0506 10:14:40.485630  8964 net.cpp:139] Memory required for data: 352911360
I0506 10:14:40.485635  8964 net.cpp:467] Sharing parameters 'W_hc' owned by layer 'lstm1_transform_1', param index 0
I0506 10:14:40.485641  8964 layer_factory.hpp:77] Creating layer lstm1_gate_input_78
I0506 10:14:40.485648  8964 net.cpp:86] Creating Layer lstm1_gate_input_78
I0506 10:14:40.485652  8964 net.cpp:408] lstm1_gate_input_78 <- W_hc_h_77
I0506 10:14:40.485657  8964 net.cpp:408] lstm1_gate_input_78 <- W_xc_x_78
I0506 10:14:40.485663  8964 net.cpp:382] lstm1_gate_input_78 -> gate_input_78
I0506 10:14:40.485692  8964 net.cpp:124] Setting up lstm1_gate_input_78
I0506 10:14:40.485695  8964 net.cpp:131] Top shape: 1 512 400 (204800)
I0506 10:14:40.485702  8964 net.cpp:139] Memory required for data: 353730560
I0506 10:14:40.485704  8964 layer_factory.hpp:77] Creating layer lstm1_unit_78
I0506 10:14:40.485711  8964 net.cpp:86] Creating Layer lstm1_unit_78
I0506 10:14:40.485715  8964 net.cpp:408] lstm1_unit_78 <- c_77
I0506 10:14:40.485720  8964 net.cpp:408] lstm1_unit_78 <- gate_input_78
I0506 10:14:40.485726  8964 net.cpp:408] lstm1_unit_78 <- cont_78_lstm1_cont_slice_77_split_1
I0506 10:14:40.485734  8964 net.cpp:382] lstm1_unit_78 -> c_78
I0506 10:14:40.485744  8964 net.cpp:382] lstm1_unit_78 -> h_78
I0506 10:14:40.485803  8964 net.cpp:124] Setting up lstm1_unit_78
I0506 10:14:40.485807  8964 net.cpp:131] Top shape: 1 512 100 (51200)
I0506 10:14:40.485811  8964 net.cpp:131] Top shape: 1 512 100 (51200)
I0506 10:14:40.485816  8964 net.cpp:139] Memory required for data: 354140160
I0506 10:14:40.485818  8964 layer_factory.hpp:77] Creating layer h_78_lstm1_unit_78_1_split
I0506 10:14:40.485824  8964 net.cpp:86] Creating Layer h_78_lstm1_unit_78_1_split
I0506 10:14:40.485828  8964 net.cpp:408] h_78_lstm1_unit_78_1_split <- h_78
I0506 10:14:40.485833  8964 net.cpp:382] h_78_lstm1_unit_78_1_split -> h_78_lstm1_unit_78_1_split_0
I0506 10:14:40.485838  8964 net.cpp:382] h_78_lstm1_unit_78_1_split -> h_78_lstm1_unit_78_1_split_1
I0506 10:14:40.485872  8964 net.cpp:124] Setting up h_78_lstm1_unit_78_1_split
I0506 10:14:40.485877  8964 net.cpp:131] Top shape: 1 512 100 (51200)
I0506 10:14:40.485880  8964 net.cpp:131] Top shape: 1 512 100 (51200)
I0506 10:14:40.485884  8964 net.cpp:139] Memory required for data: 354549760
I0506 10:14:40.485888  8964 layer_factory.hpp:77] Creating layer lstm1_h_conted_78
I0506 10:14:40.485894  8964 net.cpp:86] Creating Layer lstm1_h_conted_78
I0506 10:14:40.485898  8964 net.cpp:408] lstm1_h_conted_78 <- h_78_lstm1_unit_78_1_split_0
I0506 10:14:40.485903  8964 net.cpp:408] lstm1_h_conted_78 <- cont_79_lstm1_cont_slice_78_split_0
I0506 10:14:40.485908  8964 net.cpp:382] lstm1_h_conted_78 -> h_conted_78
I0506 10:14:40.485973  8964 net.cpp:124] Setting up lstm1_h_conted_78
I0506 10:14:40.485977  8964 net.cpp:131] Top shape: 1 512 100 (51200)
I0506 10:14:40.485982  8964 net.cpp:139] Memory required for data: 354754560
I0506 10:14:40.486013  8964 layer_factory.hpp:77] Creating layer lstm1_transform_79
I0506 10:14:40.486021  8964 net.cpp:86] Creating Layer lstm1_transform_79
I0506 10:14:40.486024  8964 net.cpp:408] lstm1_transform_79 <- h_conted_78
I0506 10:14:40.486030  8964 net.cpp:382] lstm1_transform_79 -> W_hc_h_78
I0506 10:14:40.486382  8964 net.cpp:124] Setting up lstm1_transform_79
I0506 10:14:40.486387  8964 net.cpp:131] Top shape: 1 512 400 (204800)
I0506 10:14:40.486392  8964 net.cpp:139] Memory required for data: 355573760
I0506 10:14:40.486397  8964 net.cpp:467] Sharing parameters 'W_hc' owned by layer 'lstm1_transform_1', param index 0
I0506 10:14:40.486400  8964 layer_factory.hpp:77] Creating layer lstm1_gate_input_79
I0506 10:14:40.486407  8964 net.cpp:86] Creating Layer lstm1_gate_input_79
I0506 10:14:40.486412  8964 net.cpp:408] lstm1_gate_input_79 <- W_hc_h_78
I0506 10:14:40.486416  8964 net.cpp:408] lstm1_gate_input_79 <- W_xc_x_79
I0506 10:14:40.486423  8964 net.cpp:382] lstm1_gate_input_79 -> gate_input_79
I0506 10:14:40.486446  8964 net.cpp:124] Setting up lstm1_gate_input_79
I0506 10:14:40.486449  8964 net.cpp:131] Top shape: 1 512 400 (204800)
I0506 10:14:40.486454  8964 net.cpp:139] Memory required for data: 356392960
I0506 10:14:40.486457  8964 layer_factory.hpp:77] Creating layer lstm1_unit_79
I0506 10:14:40.486462  8964 net.cpp:86] Creating Layer lstm1_unit_79
I0506 10:14:40.486467  8964 net.cpp:408] lstm1_unit_79 <- c_78
I0506 10:14:40.486472  8964 net.cpp:408] lstm1_unit_79 <- gate_input_79
I0506 10:14:40.486476  8964 net.cpp:408] lstm1_unit_79 <- cont_79_lstm1_cont_slice_78_split_1
I0506 10:14:40.486481  8964 net.cpp:382] lstm1_unit_79 -> c_79
I0506 10:14:40.486487  8964 net.cpp:382] lstm1_unit_79 -> h_79
I0506 10:14:40.486534  8964 net.cpp:124] Setting up lstm1_unit_79
I0506 10:14:40.486539  8964 net.cpp:131] Top shape: 1 512 100 (51200)
I0506 10:14:40.486543  8964 net.cpp:131] Top shape: 1 512 100 (51200)
I0506 10:14:40.486547  8964 net.cpp:139] Memory required for data: 356802560
I0506 10:14:40.486551  8964 layer_factory.hpp:77] Creating layer h_79_lstm1_unit_79_1_split
I0506 10:14:40.486557  8964 net.cpp:86] Creating Layer h_79_lstm1_unit_79_1_split
I0506 10:14:40.486562  8964 net.cpp:408] h_79_lstm1_unit_79_1_split <- h_79
I0506 10:14:40.486567  8964 net.cpp:382] h_79_lstm1_unit_79_1_split -> h_79_lstm1_unit_79_1_split_0
I0506 10:14:40.486572  8964 net.cpp:382] h_79_lstm1_unit_79_1_split -> h_79_lstm1_unit_79_1_split_1
I0506 10:14:40.486608  8964 net.cpp:124] Setting up h_79_lstm1_unit_79_1_split
I0506 10:14:40.486611  8964 net.cpp:131] Top shape: 1 512 100 (51200)
I0506 10:14:40.486615  8964 net.cpp:131] Top shape: 1 512 100 (51200)
I0506 10:14:40.486619  8964 net.cpp:139] Memory required for data: 357212160
I0506 10:14:40.486622  8964 layer_factory.hpp:77] Creating layer lstm1_h_conted_79
I0506 10:14:40.486629  8964 net.cpp:86] Creating Layer lstm1_h_conted_79
I0506 10:14:40.486634  8964 net.cpp:408] lstm1_h_conted_79 <- h_79_lstm1_unit_79_1_split_0
I0506 10:14:40.486637  8964 net.cpp:408] lstm1_h_conted_79 <- cont_80_lstm1_cont_slice_79_split_0
I0506 10:14:40.486642  8964 net.cpp:382] lstm1_h_conted_79 -> h_conted_79
I0506 10:14:40.486706  8964 net.cpp:124] Setting up lstm1_h_conted_79
I0506 10:14:40.486709  8964 net.cpp:131] Top shape: 1 512 100 (51200)
I0506 10:14:40.486714  8964 net.cpp:139] Memory required for data: 357416960
I0506 10:14:40.486717  8964 layer_factory.hpp:77] Creating layer lstm1_transform_80
I0506 10:14:40.486724  8964 net.cpp:86] Creating Layer lstm1_transform_80
I0506 10:14:40.486728  8964 net.cpp:408] lstm1_transform_80 <- h_conted_79
I0506 10:14:40.486734  8964 net.cpp:382] lstm1_transform_80 -> W_hc_h_79
I0506 10:14:40.487079  8964 net.cpp:124] Setting up lstm1_transform_80
I0506 10:14:40.487084  8964 net.cpp:131] Top shape: 1 512 400 (204800)
I0506 10:14:40.487089  8964 net.cpp:139] Memory required for data: 358236160
I0506 10:14:40.487093  8964 net.cpp:467] Sharing parameters 'W_hc' owned by layer 'lstm1_transform_1', param index 0
I0506 10:14:40.487121  8964 layer_factory.hpp:77] Creating layer lstm1_gate_input_80
I0506 10:14:40.487126  8964 net.cpp:86] Creating Layer lstm1_gate_input_80
I0506 10:14:40.487130  8964 net.cpp:408] lstm1_gate_input_80 <- W_hc_h_79
I0506 10:14:40.487134  8964 net.cpp:408] lstm1_gate_input_80 <- W_xc_x_80
I0506 10:14:40.487139  8964 net.cpp:382] lstm1_gate_input_80 -> gate_input_80
I0506 10:14:40.487161  8964 net.cpp:124] Setting up lstm1_gate_input_80
I0506 10:14:40.487164  8964 net.cpp:131] Top shape: 1 512 400 (204800)
I0506 10:14:40.487169  8964 net.cpp:139] Memory required for data: 359055360
I0506 10:14:40.487174  8964 layer_factory.hpp:77] Creating layer lstm1_unit_80
I0506 10:14:40.487179  8964 net.cpp:86] Creating Layer lstm1_unit_80
I0506 10:14:40.487182  8964 net.cpp:408] lstm1_unit_80 <- c_79
I0506 10:14:40.487186  8964 net.cpp:408] lstm1_unit_80 <- gate_input_80
I0506 10:14:40.487190  8964 net.cpp:408] lstm1_unit_80 <- cont_80_lstm1_cont_slice_79_split_1
I0506 10:14:40.487195  8964 net.cpp:382] lstm1_unit_80 -> c_80
I0506 10:14:40.487202  8964 net.cpp:382] lstm1_unit_80 -> h_80
I0506 10:14:40.487244  8964 net.cpp:124] Setting up lstm1_unit_80
I0506 10:14:40.487248  8964 net.cpp:131] Top shape: 1 512 100 (51200)
I0506 10:14:40.487252  8964 net.cpp:131] Top shape: 1 512 100 (51200)
I0506 10:14:40.487257  8964 net.cpp:139] Memory required for data: 359464960
I0506 10:14:40.487259  8964 layer_factory.hpp:77] Creating layer lstm1_
I0506 10:14:40.487264  8964 net.cpp:86] Creating Layer lstm1_
I0506 10:14:40.487268  8964 net.cpp:408] lstm1_ <- c_80
I0506 10:14:40.487272  8964 net.cpp:382] lstm1_ -> c_T
I0506 10:14:40.487293  8964 net.cpp:124] Setting up lstm1_
I0506 10:14:40.487296  8964 net.cpp:131] Top shape: 1 512 100 (51200)
I0506 10:14:40.487300  8964 net.cpp:139] Memory required for data: 359669760
I0506 10:14:40.487303  8964 layer_factory.hpp:77] Creating layer lstm1_h_concat
I0506 10:14:40.487318  8964 net.cpp:86] Creating Layer lstm1_h_concat
I0506 10:14:40.487323  8964 net.cpp:408] lstm1_h_concat <- h_1_lstm1_unit_1_1_split_1
I0506 10:14:40.487330  8964 net.cpp:408] lstm1_h_concat <- h_2_lstm1_unit_2_1_split_1
…
  top: "W_xc_x_53"
  top: "W_xc_x_54"
  top: "W_xc_x_55"
  top: "W_xc_x_56"
  top: "W_xc_x_57"
  top: "W_xc_x_58"
  top: "W_xc_x_59"
  top: "W_xc_x_60"
  top: "W_xc_x_61"
  top: "W_xc_x_62"
  top: "W_xc_x_63"
  top: "W_xc_x_64"
  top: "W_xc_x_65"
  top: "W_xc_x_66"
  top: "W_xc_x_67"
  top: "W_xc_x_68"
  top: "W_xc_x_69"
  top: "W_xc_x_70"
  top: "W_xc_x_71"
  top: "W_xc_x_72"
  top: "W_xc_x_73"
  top: "W_xc_x_74"
  top: "W_xc_x_75"
  top: "W_xc_x_76"
  top: "W_xc_x_77"
  top: "W_xc_x_78"
  top: "W_xc_x_79"
  top: "W_xc_x_80"
  slice_param {
    axis: 0
  }
}
layer {
  name: "lstm2_h_conted_0"
  type: "Scale"
  bottom: "h_0"
  bottom: "cont_1"
  top: "h_conted_0"
  scale_param {
    axis: 0
  }
}
layer {
  name: "lstm2_transform_1"
  type: "InnerProduct"
  bottom: "h_conted_0"
  top: "W_hc_h_0"
  param {
    name: "W_hc"
  }
  inner_product_param {
    num_output: 400
    bias_term: false
    weight_filler {
      type: "xavier"
    }
    axis: 2
  }
}
layer {
  name: "lstm2_gate_input_1"
  type: "Eltwise"
  bottom: "W_hc_h_0"
  bottom: "W_xc_x_1"
  top: "gate_input_1"
  eltwise_param {
    operation: SUM
  }
}
layer {
  name: "lstm2_unit_1"
  type: "LSTMUnit"
  bottom: "c_0"
  bottom: "gate_input_1"
  bottom: "cont_1"
  top: "c_1"
  top: "h_1"
}
layer {
  name: "lstm2_h_conted_1"
  type: "Scale"
  bottom: "h_1"
  bottom: "cont_2"
  top: "h_conted_1"
  scale_param {
    axis: 0
  }
}
layer {
  name: "lstm2_transform_2"
  type: "InnerProduct"
  bottom: "h_conted_1"
  top: "W_hc_h_1"
  param {
    name: "W_hc"
  }
  inner_product_param {
    num_output: 400
    bias_term: false
    weight_filler {
      type: "xavier"
    }
    axis: 2
  }
}
layer {
  name: "lstm2_gate_input_2"
  type: "Eltwise"
  bottom: "W_hc_h_1"
  bottom: "W_xc_x_2"
  top: "gate_input_2"
  eltwise_param {
    operation: SUM
  }
}
layer {
  name: "lstm2_unit_2"
  type: "LSTMUnit"
  bottom: "c_1"
  bottom: "gate_input_2"
  bottom: "cont_2"
  top: "c_2"
  top: "h_2"
}
layer {
  name: "lstm2_h_conted_2"
  type: "Scale"
  bottom: "h_2"
  bottom: "cont_3"
  top: "h_conted_2"
  scale_param {
    axis: 0
  }
}
layer {
  name: "lstm2_transform_3"
  type: "InnerProduct"
  bottom: "h_conted_2"
  top: "W_hc_h_2"
  param {
    name: "W_hc"
  }
  inner_product_param {
    num_output: 400
    bias_term: false
    weight_filler {
      type: "xavier"
    }
    axis: 2
  }
}
layer {
  name: "lstm2_gate_input_3"
  type: "Eltwise"
  bottom: "W_hc_h_2"
  bottom: "W_xc_x_3"
  top: "gate_input_3"
  eltwise_param {
    operation: SUM
  }
}
layer {
  name: "lstm2_unit_3"
  type: "LSTMUnit"
  bottom: "c_2"
  bottom: "gate_input_3"
  bottom: "cont_3"
  top: "c_3"
  top: "h_3"
}
layer {
  name: "lstm2_h_conted_3"
  type: "Scale"
  bottom: "h_3"
  bottom: "cont_4"
  top: "h_conted_3"
  scale_param {
    axis: 0
  }
}
layer {
  name: "lstm2_transform_4"
  type: "InnerProduct"
  bottom: "h_conted_3"
  top: "W_hc_h_3"
  param {
    name: "W_hc"
  }
  inner_product_param {
    num_output: 400
    bias_term: false
    weight_filler {
      type: "xavier"
    }
    axis: 2
  }
}
layer {
  name: "lstm2_gate_input_4"
  type: "Eltwise"
  bottom: "W_hc_h_3"
  bottom: "W_xc_x_4"
  top: "gate_input_4"
  eltwise_param {
    operation: SUM
  }
}
layer {
  name: "lstm2_unit_4"
  type: "LSTMUnit"
  bottom: "c_3"
  bottom: "gate_input_4"
  bottom: "cont_4"
  top: "c_4"
  top: "h_4"
}
layer {
  name: "lstm2_h_conted_4"
  type: "Scale"
  bottom: "h_4"
  bottom: "cont_5"
  top: "h_conted_4"
  scale_param {
    axis: 0
  }
}
layer {
  name: "lstm2_transform_5"
  type: "InnerProduct"
  bottom: "h_conted_4"
  top: "W_hc_h_4"
  param {
    name: "W_hc"
  }
  inner_product_param {
    num_output: 400
    bias_term: false
    weight_filler {
      type: "xavier"
    }
    axis: 2
  }
}
layer {
  name: "lstm2_gate_input_5"
  type: "Eltwise"
  bottom: "W_hc_h_4"
  bottom: "W_xc_x_5"
  top: "gate_input_5"
  eltwise_param {
    operation: SUM
  }
}
layer {
  name: "lstm2_unit_5"
  type: "LSTMUnit"
  bottom: "c_4"
  bottom: "gate_input_5"
  bottom: "cont_5"
  top: "c_5"
  top: "h_5"
}
layer {
  name: "lstm2_h_conted_5"
  type: "Scale"
  bottom: "h_5"
  bottom: "cont_6"
  top: "h_conted_5"
  scale_param {
    axis: 0
  }
}
layer {
  name: "lstm2_transform_6"
  type: "InnerProduct"
  bottom: "h_conted_5"
  top: "W_hc_h_5"
  param {
    name: "W_hc"
  }
  inner_product_param {
    num_output: 400
    bias_term: false
    weight_filler {
      type: "xavier"
    }
    axis: 2
  }
}
layer {
  name: "lstm2_gate_input_6"
  type: "Eltwise"
  bottom: "W_hc_h_5"
  bottom: "W_xc_x_6"
  top: "gate_input_6"
  eltwise_param {
    operation: SUM
  }
}
layer {
  name: "lstm2_unit_6"
  type: "LSTMUnit"
  bottom: "c_5"
  bottom: "gate_input_6"
  bottom: "cont_6"
  top: "c_6"
  top: "h_6"
}
layer {
  name: "lstm2_h_conted_6"
  type: "Scale"
  bottom: "h_6"
  bottom: "cont_7"
  top: "h_conted_6"
  scale_param {
    axis: 0
  }
}
layer {
  name: "lstm2_transform_7"
  type: "InnerProduct"
  bottom: "h_conted_6"
  top: "W_hc_h_6"
  param {
    name: "W_hc"
  }
  inner_product_param {
    num_output: 400
    bias_term: false
    weight_filler {
      type: "xavier"
    }
    axis: 2
  }
}
layer {
  name: "lstm2_gate_input_7"
  type: "Eltwise"
  bottom: "W_hc_h_6"
  bottom: "W_xc_x_7"
  top: "gate_input_7"
  eltwise_param {
    operation: SUM
  }
}
layer {
  name: "lstm2_unit_7"
  type: "LSTMUnit"
  bottom: "c_6"
  bottom: "gate_input_7"
  bottom: "cont_7"
  top: "c_7"
  top: "h_7"
}
layer {
  name: "lstm2_h_conted_7"
  type: "Scale"
  bottom: "h_7"
  bottom: "cont_8"
  top: "h_conted_7"
  scale_param {
    axis: 0
  }
}
layer {
  name: "lstm2_transform_8"
  type: "InnerProduct"
  bottom: "h_conted_7"
  top: "W_hc_h_7"
  param {
    name: "W_hc"
  }
  inner_product_param {
    num_output: 400
    bias_term: false
    weight_filler {
      type: "xavier"
    }
    axis: 2
  }
}
layer {
  name: "lstm2_gate_input_8"
  type: "Eltwise"
  bottom: "W_hc_h_7"
  bottom: "W_xc_x_8"
  top: "gate_input_8"
  eltwise_param {
    operation: SUM
  }
}
layer {
  name: "lstm2_unit_8"
  type: "LSTMUnit"
  bottom: "c_7"
  bottom: "gate_input_8"
  bottom: "cont_8"
  top: "c_8"
  top: "h_8"
}
layer {
  name: "lstm2_h_conted_8"
  type: "Scale"
  bottom: "h_8"
  bottom: "cont_9"
  top: "h_conted_8"
  scale_param {
    axis: 0
  }
}
layer {
  name: "lstm2_transform_9"
  type: "InnerProduct"
  bottom: "h_conted_8"
  top: "W_hc_h_8"
  param {
    name: "W_hc"
  }
  inner_product_param {
    num_output: 400
    bias_term: false
    weight_filler {
      type: "xavier"
    }
    axis: 2
  }
}
layer {
  name: "lstm2_gate_input_9"
  type: "Eltwise"
  bottom: "W_hc_h_8"
  bottom: "W_xc_x_9"
  top: "gate_input_9"
  eltwise_param {
    operation: SUM
  }
}
layer {
  name: "lstm2_unit_9"
  type: "LSTMUnit"
  bottom: "c_8"
  bottom: "gate_input_9"
  bottom: "cont_9"
  top: "c_9"
  top: "h_9"
}
layer {
  name: "lstm2_h_conted_9"
  type: "Scale"
  bottom: "h_9"
  bottom: "cont_10"
  top: "h_conted_9"
  scale_param {
    axis: 0
  }
}
layer {
  name: "lstm2_transform_10"
  type: "InnerProduct"
  bottom: "h_conted_9"
  top: "W_hc_h_9"
  param {
    name: "W_hc"
  }
  inner_product_param {
    num_output: 400
    bias_term: false
    weight_filler {
      type: "xavier"
    }
    axis: 2
  }
}
layer {
  name: "lstm2_gate_input_10"
  type: "Eltwise"
  bottom: "W_hc_h_9"
  bottom: "W_xc_x_10"
  top: "gate_input_10"
  eltwise_param {
    operation: SUM
  }
}
layer {
  name: "lstm2_unit_10"
  type: "LSTMUnit"
  bottom: "c_9"
  bottom: "gate_input_10"
  bottom: "cont_10"
  top: "c_10"
  top: "h_10"
}
layer {
  name: "lstm2_h_conted_10"
  type: "Scale"
  bottom: "h_10"
  bottom: "cont_11"
  top: "h_conted_10"
  scale_param {
    axis: 0
  }
}
layer {
  name: "lstm2_transform_11"
  type: "InnerProduct"
  bottom: "h_conted_10"
  top: "W_hc_h_10"
  param {
    name: "W_hc"
  }
  inner_product_param {
    num_output: 400
    bias_term: false
    weight_filler {
      type: "xavier"
    }
    axis: 2
  }
}
layer {
  name: "lstm2_gate_input_11"
  type: "Eltwise"
  bottom: "W_hc_h_10"
  bottom: "W_xc_x_11"
  top: "gate_input_11"
  eltwise_param {
    operation: SUM
  }
}
layer {
  name: "lstm2_unit_11"
  type: "LSTMUnit"
  bottom: "c_10"
  bottom: "gate_input_11"
  bottom: "cont_11"
  top: "c_11"
  top: "h_11"
}
layer {
  name: "lstm2_h_conted_11"
  type: "Scale"
  bottom: "h_11"
  bottom: "cont_12"
  top: "h_conted_11"
  scale_param {
    axis: 0
  }
}
layer {
  name: "lstm2_transform_12"
  type: "InnerProduct"
  bottom: "h_conted_11"
  top: "W_hc_h_11"
  param {
    name: "W_hc"
  }
  inner_product_param {
    num_output: 400
    bias_term: false
    weight_filler {
      type: "xavier"
    }
    axis: 2
  }
}
layer {
  name: "lstm2_gate_input_12"
  type: "Eltwise"
  bottom: "W_hc_h_11"
  bottom: "W_xc_x_12"
  top: "gate_input_12"
  eltwise_param {
    operation: SUM
  }
}
layer {
  name: "lstm2_unit_12"
  type: "LSTMUnit"
  bottom: "c_11"
  bottom: "gate_input_12"
  bottom: "cont_12"
  top: "c_12"
  top: "h_12"
}
layer {
  name: "lstm2_h_conted_12"
  type: "Scale"
  bottom: "h_12"
  bottom: "cont_13"
  top: "h_conted_12"
  scale_param {
    axis: 0
  }
}
layer {
  name: "lstm2_transform_13"
  type: "InnerProduct"
  bottom: "h_conted_12"
  top: "W_hc_h_12"
  param {
    name: "W_hc"
  }
  inner_product_param {
    num_output: 400
    bias_term: false
    weight_filler {
      type: "xavier"
    }
    axis: 2
  }
}
layer {
  name: "lstm2_gate_input_13"
  type: "Eltwise"
  bottom: "W_hc_h_12"
  bottom: "W_xc_x_13"
  top: "gate_input_13"
  eltwise_param {
    operation: SUM
  }
}
layer {
  name: "lstm2_unit_13"
  type: "LSTMUnit"
  bottom: "c_12"
  bottom: "gate_input_13"
  bottom: "cont_13"
  top: "c_13"
  top: "h_13"
}
layer {
  name: "lstm2_h_conted_13"
  type: "Scale"
  bottom: "h_13"
  bottom: "cont_14"
  top: "h_conted_13"
  scale_param {
    axis: 0
  }
}
layer {
  name: "lstm2_transform_14"
  type: "InnerProduct"
  bottom: "h_conted_13"
  top: "W_hc_h_13"
  param {
    name: "W_hc"
  }
  inner_product_param {
    num_output: 400
    bias_term: false
    weight_filler {
      type: "xavier"
    }
    axis: 2
  }
}
layer {
  name: "lstm2_gate_input_14"
  type: "Eltwise"
  bottom: "W_hc_h_13"
  bottom: "W_xc_x_14"
  top: "gate_input_14"
  eltwise_param {
    operation: SUM
  }
}
layer {
  name: "lstm2_unit_14"
  type: "LSTMUnit"
  bottom: "c_13"
  bottom: "gate_input_14"
  bottom: "cont_14"
  top: "c_14"
  top: "h_14"
}
layer {
  name: "lstm2_h_conted_14"
  type: "Scale"
  bottom: "h_14"
  bottom: "cont_15"
  top: "h_conted_14"
  scale_param {
    axis: 0
  }
}
layer {
  name: "lstm2_transform_15"
  type: "InnerProduct"
  bottom: "h_conted_14"
  top: "W_hc_h_14"
  param {
    name: "W_hc"
  }
  inner_product_param {
    num_output: 400
    bias_term: false
    weight_filler {
      type: "xavier"
    }
    axis: 2
  }
}
layer {
  name: "lstm2_gate_input_15"
  type: "Eltwise"
  bottom: "W_hc_h_14"
  bottom: "W_xc_x_15"
  top: "gate_input_15"
  eltwise_param {
    operation: SUM
  }
}
layer {
  name: "lstm2_unit_15"
  type: "LSTMUnit"
  bottom: "c_14"
  bottom: "gate_input_15"
  bottom: "cont_15"
  top: "c_15"
  top: "h_15"
}
layer {
  name: "lstm2_h_conted_15"
  type: "Scale"
  bottom: "h_15"
  bottom: "cont_16"
  top: "h_conted_15"
  scale_param {
    axis: 0
  }
}
layer {
  name: "lstm2_transform_16"
  type: "InnerProduct"
  bottom: "h_conted_15"
  top: "W_hc_h_15"
  param {
    name: "W_hc"
  }
  inner_product_param {
    num_output: 400
    bias_term: false
    weight_filler {
      type: "xavier"
    }
    axis: 2
  }
}
layer {
  name: "lstm2_gate_input_16"
  type: "Eltwise"
  bottom: "W_hc_h_15"
  bottom: "W_xc_x_16"
  top: "gate_input_16"
  eltwise_param {
    operation: SUM
  }
}
layer {
  name: "lstm2_unit_16"
  type: "LSTMUnit"
  bottom: "c_15"
  bottom: "gate_input_16"
  bottom: "cont_16"
  top: "c_16"
  top: "h_16"
}
layer {
  name: "lstm2_h_conted_16"
  type: "Scale"
  bottom: "h_16"
  bottom: "cont_17"
  top: "h_conted_16"
  scale_param {
    axis: 0
  }
}
layer {
  name: "lstm2_transform_17"
  type: "InnerProduct"
  bottom: "h_conted_16"
  top: "W_hc_h_16"
  param {
    name: "W_hc"
  }
  inner_product_param {
    num_output: 400
    bias_term: false
    weight_filler {
      type: "xavier"
    }
    axis: 2
  }
}
layer {
  name: "lstm2_gate_input_17"
  type: "Eltwise"
  bottom: "W_hc_h_16"
  bottom: "W_xc_x_17"
  top: "gate_input_17"
  eltwise_param {
    operation: SUM
  }
}
layer {
  name: "lstm2_unit_17"
  type: "LSTMUnit"
  bottom: "c_16"
  bottom: "gate_input_17"
  bottom: "cont_17"
  top: "c_17"
  top: "h_17"
}
layer {
  name: "lstm2_h_conted_17"
  type: "Scale"
  bottom: "h_17"
  bottom: "cont_18"
  top: "h_conted_17"
  scale_param {
    axis: 0
  }
}
layer {
  name: "lstm2_transform_18"
  type: "InnerProduct"
  bottom: "h_conted_17"
  top: "W_hc_h_17"
  param {
    name: "W_hc"
  }
  inner_product_param {
    num_output: 400
    bias_term: false
    weight_filler {
      type: "xavier"
    }
    axis: 2
  }
}
layer {
  name: "lstm2_gate_input_18"
  type: "Eltwise"
  bottom: "W_hc_h_17"
  bottom: "W_xc_x_18"
  top: "gate_input_18"
  eltwise_param {
    operation: SUM
  }
}
layer {
  name: "lstm2_unit_18"
  type: "LSTMUnit"
  bottom: "c_17"
  bottom: "gate_input_18"
  bottom: "cont_18"
  top: "c_18"
  top: "h_18"
}
layer {
  name: "lstm2_h_conted_18"
  type: "Scale"
  bottom: "h_18"
  bottom: "cont_19"
  top: "h_conted_18"
  scale_param {
    axis: 0
  }
}
layer {
  name: "lstm2_transform_19"
  type: "InnerProduct"
  bottom: "h_conted_18"
  top: "W_hc_h_18"
  param {
    name: "W_hc"
  }
  inner_product_param {
    num_output: 400
    bias_term: false
    weight_filler {
      type: "xavier"
    }
    axis: 2
  }
}
layer {
  name: "lstm2_gate_input_19"
  type: "Eltwise"
  bottom: "W_hc_h_18"
  bottom: "W_xc_x_19"
  top: "gate_input_19"
  eltwise_param {
    operation: SUM
  }
}
layer {
  name: "lstm2_unit_19"
  type: "LSTMUnit"
  bottom: "c_18"
  bottom: "gate_input_19"
  bottom: "cont_19"
  top: "c_19"
  top: "h_19"
}
layer {
  name: "lstm2_h_conted_19"
  type: "Scale"
  bottom: "h_19"
  bottom: "cont_20"
  top: "h_conted_19"
  scale_param {
    axis: 0
  }
}
layer {
  name: "lstm2_transform_20"
  type: "InnerProduct"
  bottom: "h_conted_19"
  top: "W_hc_h_19"
  param {
    name: "W_hc"
  }
  inner_product_param {
    num_output: 400
    bias_term: false
    weight_filler {
      type: "xavier"
    }
    axis: 2
  }
}
layer {
  name: "lstm2_gate_input_20"
  type: "Eltwise"
  bottom: "W_hc_h_19"
  bottom: "W_xc_x_20"
  top: "gate_input_20"
  eltwise_param {
    operation: SUM
  }
}
layer {
  name: "lstm2_unit_20"
  type: "LSTMUnit"
  bottom: "c_19"
  bottom: "gate_input_20"
  bottom: "cont_20"
  top: "c_20"
  top: "h_20"
}
layer {
  name: "lstm2_h_conted_20"
  type: "Scale"
  bottom: "h_20"
  bottom: "cont_21"
  top: "h_conted_20"
  scale_param {
    axis: 0
  }
}
layer {
  name: "lstm2_transform_21"
  type: "InnerProduct"
  bottom: "h_conted_20"
  top: "W_hc_h_20"
  param {
    name: "W_hc"
  }
  inner_product_param {
    num_output: 400
    bias_term: false
    weight_filler {
      type: "xavier"
    }
    axis: 2
  }
}
layer {
  name: "lstm2_gate_input_21"
  type: "Eltwise"
  bottom: "W_hc_h_20"
  bottom: "W_xc_x_21"
  top: "gate_input_21"
  eltwise_param {
    operation: SUM
  }
}
layer {
  name: "lstm2_unit_21"
  type: "LSTMUnit"
  bottom: "c_20"
  bottom: "gate_input_21"
  bottom: "cont_21"
  top: "c_21"
  top: "h_21"
}
layer {
  name: "lstm2_h_conted_21"
  type: "Scale"
  bottom: "h_21"
  bottom: "cont_22"
  top: "h_conted_21"
  scale_param {
    axis: 0
  }
}
layer {
  name: "lstm2_transform_22"
  type: "InnerProduct"
  bottom: "h_conted_21"
  top: "W_hc_h_21"
  param {
    name: "W_hc"
  }
  inner_product_param {
    num_output: 400
    bias_term: false
    weight_filler {
      type: "xavier"
    }
    axis: 2
  }
}
layer {
  name: "lstm2_gate_input_22"
  type: "Eltwise"
  bottom: "W_hc_h_21"
  bottom: "W_xc_x_22"
  top: "gate_input_22"
  eltwise_param {
    operation: SUM
  }
}
layer {
  name: "lstm2_unit_22"
  type: "LSTMUnit"
  bottom: "c_21"
  bottom: "gate_input_22"
  bottom: "cont_22"
  top: "c_22"
  top: "h_22"
}
layer {
  name: "lstm2_h_conted_22"
  type: "Scale"
  bottom: "h_22"
  bottom: "cont_23"
  top: "h_conted_22"
  scale_param {
    axis: 0
  }
}
layer {
  name: "lstm2_transform_23"
  type: "InnerProduct"
  bottom: "h_conted_22"
  top: "W_hc_h_22"
  param {
    name: "W_hc"
  }
  inner_product_param {
    num_output: 400
    bias_term: false
    weight_filler {
      type: "xavier"
    }
    axis: 2
  }
}
layer {
  name: "lstm2_gate_input_23"
  type: "Eltwise"
  bottom: "W_hc_h_22"
  bottom: "W_xc_x_23"
  top: "gate_input_23"
  eltwise_param {
    operation: SUM
  }
}
layer {
  name: "lstm2_unit_23"
  type: "LSTMUnit"
  bottom: "c_22"
  bottom: "gate_input_23"
  bottom: "cont_23"
  top: "c_23"
  top: "h_23"
}
layer {
  name: "lstm2_h_conted_23"
  type: "Scale"
  bottom: "h_23"
  bottom: "cont_24"
  top: "h_conted_23"
  scale_param {
    axis: 0
  }
}
layer {
  name: "lstm2_transform_24"
  type: "InnerProduct"
  bottom: "h_conted_23"
  top: "W_hc_h_23"
  param {
    name: "W_hc"
  }
  inner_product_param {
    num_output: 400
    bias_term: false
    weight_filler {
      type: "xavier"
    }
    axis: 2
  }
}
layer {
  name: "lstm2_gate_input_24"
  type: "Eltwise"
  bottom: "W_hc_h_23"
  bottom: "W_xc_x_24"
  top: "gate_input_24"
  eltwise_param {
    operation: SUM
  }
}
layer {
  name: "lstm2_unit_24"
  type: "LSTMUnit"
  bottom: "c_23"
  bottom: "gate_input_24"
  bottom: "cont_24"
  top: "c_24"
  top: "h_24"
}
layer {
  name: "lstm2_h_conted_24"
  type: "Scale"
  bottom: "h_24"
  bottom: "cont_25"
  top: "h_conted_24"
  scale_param {
    axis: 0
  }
}
layer {
  name: "lstm2_transform_25"
  type: "InnerProduct"
  bottom: "h_conted_24"
  top: "W_hc_h_24"
  param {
    name: "W_hc"
  }
  inner_product_param {
    num_output: 400
    bias_term: false
    weight_filler {
      type: "xavier"
    }
    axis: 2
  }
}
layer {
  name: "lstm2_gate_input_25"
  type: "Eltwise"
  bottom: "W_hc_h_24"
  bottom: "W_xc_x_25"
  top: "gate_input_25"
  eltwise_param {
    operation: SUM
  }
}
layer {
  name: "lstm2_unit_25"
  type: "LSTMUnit"
  bottom: "c_24"
  bottom: "gate_input_25"
  bottom: "cont_25"
  top: "c_25"
  top: "h_25"
}
layer {
  name: "lstm2_h_conted_25"
  type: "Scale"
  bottom: "h_25"
  bottom: "cont_26"
  top: "h_conted_25"
  scale_param {
    axis: 0
  }
}
layer {
  name: "lstm2_transform_26"
  type: "InnerProduct"
  bottom: "h_conted_25"
  top: "W_hc_h_25"
  param {
    name: "W_hc"
  }
  inner_product_param {
    num_output: 400
    bias_term: false
    weight_filler {
      type: "xavier"
    }
    axis: 2
  }
}
layer {
  name: "lstm2_gate_input_26"
  type: "Eltwise"
  bottom: "W_hc_h_25"
  bottom: "W_xc_x_26"
  top: "gate_input_26"
  eltwise_param {
    operation: SUM
  }
}
layer {
  name: "lstm2_unit_26"
  type: "LSTMUnit"
  bottom: "c_25"
  bottom: "gate_input_26"
  bottom: "cont_26"
  top: "c_26"
  top: "h_26"
}
layer {
  name: "lstm2_h_conted_26"
  type: "Scale"
  bottom: "h_26"
  bottom: "cont_27"
  top: "h_conted_26"
  scale_param {
    axis: 0
  }
}
layer {
  name: "lstm2_transform_27"
  type: "InnerProduct"
  bottom: "h_conted_26"
  top: "W_hc_h_26"
  param {
    name: "W_hc"
  }
  inner_product_param {
    num_output: 400
    bias_term: false
    weight_filler {
      type: "xavier"
    }
    axis: 2
  }
}
layer {
  name: "lstm2_gate_input_27"
  type: "Eltwise"
  bottom: "W_hc_h_26"
  bottom: "W_xc_x_27"
  top: "gate_input_27"
  eltwise_param {
    operation: SUM
  }
}
layer {
  name: "lstm2_unit_27"
  type: "LSTMUnit"
  bottom: "c_26"
  bottom: "gate_input_27"
  bottom: "cont_27"
  top: "c_27"
  top: "h_27"
}
layer {
  name: "lstm2_h_conted_27"
  type: "Scale"
  bottom: "h_27"
  bottom: "cont_28"
  top: "h_conted_27"
  scale_param {
    axis: 0
  }
}
layer {
  name: "lstm2_transform_28"
  type: "InnerProduct"
  bottom: "h_conted_27"
  top: "W_hc_h_27"
  param {
    name: "W_hc"
  }
  inner_product_param {
    num_output: 400
    bias_term: false
    weight_filler {
      type: "xavier"
    }
    axis: 2
  }
}
layer {
  name: "lstm2_gate_input_28"
  type: "Eltwise"
  bottom: "W_hc_h_27"
  bottom: "W_xc_x_28"
  top: "gate_input_28"
  eltwise_param {
    operation: SUM
  }
}
layer {
  name: "lstm2_unit_28"
  type: "LSTMUnit"
  bottom: "c_27"
  bottom: "gate_input_28"
  bottom: "cont_28"
  top: "c_28"
  top: "h_28"
}
layer {
  name: "lstm2_h_conted_28"
  type: "Scale"
  bottom: "h_28"
  bottom: "cont_29"
  top: "h_conted_28"
  scale_param {
    axis: 0
  }
}
layer {
  name: "lstm2_transform_29"
  type: "InnerProduct"
  bottom: "h_conted_28"
  top: "W_hc_h_28"
  param {
    name: "W_hc"
  }
  inner_product_param {
    num_output: 400
    bias_term: false
    weight_filler {
      type: "xavier"
    }
    axis: 2
  }
}
layer {
  name: "lstm2_gate_input_29"
  type: "Eltwise"
  bottom: "W_hc_h_28"
  bottom: "W_xc_x_29"
  top: "gate_input_29"
  eltwise_param {
    operation: SUM
  }
}
layer {
  name: "lstm2_unit_29"
  type: "LSTMUnit"
  bottom: "c_28"
  bottom: "gate_input_29"
  bottom: "cont_29"
  top: "c_29"
  top: "h_29"
}
layer {
  name: "lstm2_h_conted_29"
  type: "Scale"
  bottom: "h_29"
  bottom: "cont_30"
  top: "h_conted_29"
  scale_param {
    axis: 0
  }
}
layer {
  name: "lstm2_transform_30"
  type: "InnerProduct"
  bottom: "h_conted_29"
  top: "W_hc_h_29"
  param {
    name: "W_hc"
  }
  inner_product_param {
    num_output: 400
    bias_term: false
    weight_filler {
      type: "xavier"
    }
    axis: 2
  }
}
layer {
  name: "lstm2_gate_input_30"
  type: "Eltwise"
  bottom: "W_hc_h_29"
  bottom: "W_xc_x_30"
  top: "gate_input_30"
  eltwise_param {
    operation: SUM
  }
}
layer {
  name: "lstm2_unit_30"
  type: "LSTMUnit"
  bottom: "c_29"
  bottom: "gate_input_30"
  bottom: "cont_30"
  top: "c_30"
  top: "h_30"
}
layer {
  name: "lstm2_h_conted_30"
  type: "Scale"
  bottom: "h_30"
  bottom: "cont_31"
  top: "h_conted_30"
  scale_param {
    axis: 0
  }
}
layer {
  name: "lstm2_transform_31"
  type: "InnerProduct"
  bottom: "h_conted_30"
  top: "W_hc_h_30"
  param {
    name: "W_hc"
  }
  inner_product_param {
    num_output: 400
    bias_term: false
    weight_filler {
      type: "xavier"
    }
    axis: 2
  }
}
layer {
  name: "lstm2_gate_input_31"
  type: "Eltwise"
  bottom: "W_hc_h_30"
  bottom: "W_xc_x_31"
  top: "gate_input_31"
  eltwise_param {
    operation: SUM
  }
}
layer {
  name: "lstm2_unit_31"
  type: "LSTMUnit"
  bottom: "c_30"
  bottom: "gate_input_31"
  bottom: "cont_31"
  top: "c_31"
  top: "h_31"
}
layer {
  name: "lstm2_h_conted_31"
  type: "Scale"
  bottom: "h_31"
  bottom: "cont_32"
  top: "h_conted_31"
  scale_param {
    axis: 0
  }
}
layer {
  name: "lstm2_transform_32"
  type: "InnerProduct"
  bottom: "h_conted_31"
  top: "W_hc_h_31"
  param {
    name: "W_hc"
  }
  inner_product_param {
    num_output: 400
    bias_term: false
    weight_filler {
      type: "xavier"
    }
    axis: 2
  }
}
layer {
  name: "lstm2_gate_input_32"
  type: "Eltwise"
  bottom: "W_hc_h_31"
  bottom: "W_xc_x_32"
  top: "gate_input_32"
  eltwise_param {
    operation: SUM
  }
}
layer {
  name: "lstm2_unit_32"
  type: "LSTMUnit"
  bottom: "c_31"
  bottom: "gate_input_32"
  bottom: "cont_32"
  top: "c_32"
  top: "h_32"
}
layer {
  name: "lstm2_h_conted_32"
  type: "Scale"
  bottom: "h_32"
  bottom: "cont_33"
  top: "h_conted_32"
  scale_param {
    axis: 0
  }
}
layer {
  name: "lstm2_transform_33"
  type: "InnerProduct"
  bottom: "h_conted_32"
  top: "W_hc_h_32"
  param {
    name: "W_hc"
  }
  inner_product_param {
    num_output: 400
    bias_term: false
    weight_filler {
      type: "xavier"
    }
    axis: 2
  }
}
layer {
  name: "lstm2_gate_input_33"
  type: "Eltwise"
  bottom: "W_hc_h_32"
  bottom: "W_xc_x_33"
  top: "gate_input_33"
  eltwise_param {
    operation: SUM
  }
}
layer {
  name: "lstm2_unit_33"
  type: "LSTMUnit"
  bottom: "c_32"
  bottom: "gate_input_33"
  bottom: "cont_33"
  top: "c_33"
  top: "h_33"
}
layer {
  name: "lstm2_h_conted_33"
  type: "Scale"
  bottom: "h_33"
  bottom: "cont_34"
  top: "h_conted_33"
  scale_param {
    axis: 0
  }
}
layer {
  name: "lstm2_transform_34"
  type: "InnerProduct"
  bottom: "h_conted_33"
  top: "W_hc_h_33"
  param {
    name: "W_hc"
  }
  inner_product_param {
    num_output: 400
    bias_term: false
    weight_filler {
      type: "xavier"
    }
    axis: 2
  }
}
layer {
  name: "lstm2_gate_input_34"
  type: "Eltwise"
  bottom: "W_hc_h_33"
  bottom: "W_xc_x_34"
  top: "gate_input_34"
  eltwise_param {
    operation: SUM
  }
}
layer {
  name: "lstm2_unit_34"
  type: "LSTMUnit"
  bottom: "c_33"
  bottom: "gate_input_34"
  bottom: "cont_34"
  top: "c_34"
  top: "h_34"
}
layer {
  name: "lstm2_h_conted_34"
  type: "Scale"
  bottom: "h_34"
  bottom: "cont_35"
  top: "h_conted_34"
  scale_param {
    axis: 0
  }
}
layer {
  name: "lstm2_transform_35"
  type: "InnerProduct"
  bottom: "h_conted_34"
  top: "W_hc_h_34"
  param {
    name: "W_hc"
  }
  inner_product_param {
    num_output: 400
    bias_term: false
    weight_filler {
      type: "xavier"
    }
    axis: 2
  }
}
layer {
  name: "lstm2_gate_input_35"
  type: "Eltwise"
  bottom: "W_hc_h_34"
  bottom: "W_xc_x_35"
  top: "gate_input_35"
  eltwise_param {
    operation: SUM
  }
}
layer {
  name: "lstm2_unit_35"
  type: "LSTMUnit"
  bottom: "c_34"
  bottom: "gate_input_35"
  bottom: "cont_35"
  top: "c_35"
  top: "h_35"
}
layer {
  name: "lstm2_h_conted_35"
  type: "Scale"
  bottom: "h_35"
  bottom: "cont_36"
  top: "h_conted_35"
  scale_param {
    axis: 0
  }
}
layer {
  name: "lstm2_transform_36"
  type: "InnerProduct"
  bottom: "h_conted_35"
  top: "W_hc_h_35"
  param {
    name: "W_hc"
  }
  inner_product_param {
    num_output: 400
    bias_term: false
    weight_filler {
      type: "xavier"
    }
    axis: 2
  }
}
layer {
  name: "lstm2_gate_input_36"
  type: "Eltwise"
  bottom: "W_hc_h_35"
  bottom: "W_xc_x_36"
  top: "gate_input_36"
  eltwise_param {
    operation: SUM
  }
}
layer {
  name: "lstm2_unit_36"
  type: "LSTMUnit"
  bottom: "c_35"
  bottom: "gate_input_36"
  bottom: "cont_36"
  top: "c_36"
  top: "h_36"
}
layer {
  name: "lstm2_h_conted_36"
  type: "Scale"
  bottom: "h_36"
  bottom: "cont_37"
  top: "h_conted_36"
  scale_param {
    axis: 0
  }
}
layer {
  name: "lstm2_transform_37"
  type: "InnerProduct"
  bottom: "h_conted_36"
  top: "W_hc_h_36"
  param {
    name: "W_hc"
  }
  inner_product_param {
    num_output: 400
    bias_term: false
    weight_filler {
      type: "xavier"
    }
   
I0506 10:14:40.515897  8964 layer_factory.hpp:77] Creating layer lstm2_
I0506 10:14:40.515923  8964 net.cpp:86] Creating Layer lstm2_
I0506 10:14:40.515928  8964 net.cpp:382] lstm2_ -> x
I0506 10:14:40.515938  8964 net.cpp:382] lstm2_ -> cont
I0506 10:14:40.516031  8964 net.cpp:124] Setting up lstm2_
I0506 10:14:40.516036  8964 net.cpp:131] Top shape: 80 512 100 (4096000)
I0506 10:14:40.516039  8964 net.cpp:131] Top shape: 80 512 (40960)
I0506 10:14:40.516042  8964 net.cpp:139] Memory required for data: 16547840
I0506 10:14:40.516044  8964 layer_factory.hpp:77] Creating layer lstm2_
I0506 10:14:40.516048  8964 net.cpp:86] Creating Layer lstm2_
I0506 10:14:40.516052  8964 net.cpp:382] lstm2_ -> c_0
I0506 10:14:40.516057  8964 net.cpp:382] lstm2_ -> h_0
I0506 10:14:40.516085  8964 net.cpp:124] Setting up lstm2_
I0506 10:14:40.516088  8964 net.cpp:131] Top shape: 1 512 100 (51200)
I0506 10:14:40.516091  8964 net.cpp:131] Top shape: 1 512 100 (51200)
I0506 10:14:40.516095  8964 net.cpp:139] Memory required for data: 16957440
I0506 10:14:40.516098  8964 layer_factory.hpp:77] Creating layer lstm2_cont_slice
I0506 10:14:40.516106  8964 net.cpp:86] Creating Layer lstm2_cont_slice
I0506 10:14:40.516108  8964 net.cpp:408] lstm2_cont_slice <- cont
I0506 10:14:40.516115  8964 net.cpp:382] lstm2_cont_slice -> cont_1
I0506 10:14:40.516124  8964 net.cpp:382] lstm2_cont_slice -> cont_2
…
I0506 10:14:40.656867  8964 net.cpp:53] Initializing net from parameters: 
name: "vehicle_plate_test"
state {
  phase: TEST
}
layer {
  name: "data"
  type: "Python"
  top: "data"
  top: "label"
  python_param {
    module: "pythonLayer"
    layer: "PlateDataLayer"
    param_str: "{\'width\': 80, \'label_txt\': \'data/plate/test.txt\', \'train\': False, \'batch_size\': 512, \'height\': 30}"
  }
}
layer {
  name: "indicator"
  type: "ContinuationIndicator"
  top: "indicator"
  continuation_indicator_param {
    time_step: 80
    batch_size: 512
  }
}
layer {
  name: "permuted_data"
  type: "Permute"
  bottom: "data"
  top: "permuted_data"
  permute_param {
    order: 3
    order: 0
    order: 1
    order: 2
  }
}
layer {
  name: "lstm1"
  type: "LSTM"
  bottom: "permuted_data"
  bottom: "indicator"
  top: "lstm1"
  recurrent_param {
    num_output: 100
    weight_filler {
      type: "xavier"
    }
    bias_filler {
      type: "constant"
      value: 0
    }
  }
}
layer {
  name: "lstm2"
  type: "LSTM"
  bottom: "lstm1"
  bottom: "indicator"
  top: "lstm2"
  recurrent_param {
    num_output: 100
    weight_filler {
      type: "xavier"
    }
    bias_filler {
      type: "constant"
      value: 0
    }
  }
}
layer {
  name: "fc1"
  type: "InnerProduct"
  bottom: "lstm2"
  top: "fc1"
  param {
    lr_mult: 1
    decay_mult: 1
  }
  param {
    lr_mult: 2
    decay_mult: 0
  }
  inner_product_param {
    num_output: 34
    weight_filler {
      type: "xavier"
    }
    bias_filler {
      type: "constant"
      value: 0
    }
    axis: 2
  }
}
layer {
  name: "ctc_loss"
  type: "CtcLoss"
  bottom: "fc1"
  bottom: "label"
  top: "ctc_loss"
  loss_weight: 1
  ctc_loss_param {
    alphabet_size: 34
    time_step: 80
    blank_label: 10
  }
}
layer {
  name: "premuted_fc"
  type: "Permute"
  bottom: "fc1"
  top: "premuted_fc"
  permute_param {
    order: 1
    order: 0
    order: 2
  }
}
layer {
  name: "accuracy"
  type: "LabelsequenceAccuracy"
  bottom: "premuted_fc"
  bottom: "label"
  top: "accuracy"
  labelsequence_accuracy_param {
    blank_label: 10
  }
}
I0506 10:14:40.657002  8964 layer_factory.hpp:77] Creating layer data
I0506 10:14:40.657069  8964 net.cpp:86] Creating Layer data
I0506 10:14:40.657074  8964 net.cpp:382] data -> data
I0506 10:14:40.657079  8964 net.cpp:382] data -> label
I0506 10:14:40.671679  8964 net.cpp:124] Setting up data
I0506 10:14:40.671707  8964 net.cpp:131] Top shape: 512 3 30 80 (3686400)
I0506 10:14:40.671716  8964 net.cpp:131] Top shape: 512 7 (3584)
I0506 10:14:40.671720  8964 net.cpp:139] Memory required for data: 14759936
I0506 10:14:40.671727  8964 layer_factory.hpp:77] Creating layer label_data_1_split
I0506 10:14:40.671780  8964 net.cpp:86] Creating Layer label_data_1_split
I0506 10:14:40.671789  8964 net.cpp:408] label_data_1_split <- label
I0506 10:14:40.671800  8964 net.cpp:382] label_data_1_split -> label_data_1_split_0
I0506 10:14:40.671813  8964 net.cpp:382] label_data_1_split -> label_data_1_split_1
I0506 10:14:40.671859  8964 net.cpp:124] Setting up label_data_1_split
I0506 10:14:40.671864  8964 net.cpp:131] Top shape: 512 7 (3584)
I0506 10:14:40.671869  8964 net.cpp:131] Top shape: 512 7 (3584)
I0506 10:14:40.671872  8964 net.cpp:139] Memory required for data: 14788608
I0506 10:14:40.671875  8964 layer_factory.hpp:77] Creating layer indicator
I0506 10:14:40.671883  8964 net.cpp:86] Creating Layer indicator
I0506 10:14:40.671888  8964 net.cpp:382] indicator -> indicator
I0506 10:14:40.671910  8964 net.cpp:124] Setting up indicator
I0506 10:14:40.671913  8964 net.cpp:131] Top shape: 80 512 (40960)
I0506 10:14:40.671917  8964 net.cpp:139] Memory required for data: 14952448
I0506 10:14:40.671921  8964 layer_factory.hpp:77] Creating layer indicator_indicator_0_split
I0506 10:14:40.671926  8964 net.cpp:86] Creating Layer indicator_indicator_0_split
I0506 10:14:40.671931  8964 net.cpp:408] indicator_indicator_0_split <- indicator
I0506 10:14:40.671936  8964 net.cpp:382] indicator_indicator_0_split -> indicator_indicator_0_split_0
I0506 10:14:40.671946  8964 net.cpp:382] indicator_indicator_0_split -> indicator_indicator_0_split_1
I0506 10:14:40.671981  8964 net.cpp:124] Setting up indicator_indicator_0_split
I0506 10:14:40.671986  8964 net.cpp:131] Top shape: 80 512 (40960)
I0506 10:14:40.671990  8964 net.cpp:131] Top shape: 80 512 (40960)
I0506 10:14:40.671994  8964 net.cpp:139] Memory required for data: 15280128
I0506 10:14:40.671998  8964 layer_factory.hpp:77] Creating layer permuted_data
I0506 10:14:40.672008  8964 net.cpp:86] Creating Layer permuted_data
I0506 10:14:40.672011  8964 net.cpp:408] permuted_data <- data
I0506 10:14:40.672017  8964 net.cpp:382] permuted_data -> permuted_data
I0506 10:14:40.672114  8964 net.cpp:124] Setting up permuted_data
I0506 10:14:40.672119  8964 net.cpp:131] Top shape: 80 512 3 30 (3686400)
I0506 10:14:40.672123  8964 net.cpp:139] Memory required for data: 30025728
I0506 10:14:40.672127  8964 layer_factory.hpp:77] Creating layer lstm1
I0506 10:14:40.672137  8964 net.cpp:86] Creating Layer lstm1
I0506 10:14:40.672140  8964 net.cpp:408] lstm1 <- permuted_data
I0506 10:14:40.672144  8964 net.cpp:408] lstm1 <- indicator_indicator_0_split_0
I0506 10:14:40.672149  8964 net.cpp:382] lstm1 -> lstm1
I0506 10:14:40.672158  8964 recurrent_layer.cpp:20] Initializing recurrent layer: assuming input batch contains 80 timesteps of 512 independent streams.
I0506 10:14:40.673138  8964 net.cpp:53] Initializing net from parameters: 
layer {
  name: "lstm1_"
  type: "Input"
  top: "x"
  top: "cont"
  input_param {
    shape {
      dim: 80
      dim: 512
      dim: 3
      dim: 30
    }
    shape {
      dim: 80
      dim: 512
    }
  }
}
layer {
  name: "lstm1_"
  type: "Input"
  top: "c_0"
  top: "h_0"
  input_param {
    shape {
      dim: 1
      dim: 512
      dim: 100
    }
    shape {
      dim: 1
      dim: 512
      dim: 100
    }
  }
}
layer {
  name: "lstm1_cont_slice"
  type: "Slice"
  bottom: "cont"
  top: "cont_1"
  top: "cont_2"
  top: "cont_3"
  top: "cont_4"
  top: "cont_5"
  top: "cont_6"
  top: "cont_7"
  top: "cont_8"
  top: "cont_9"
  top: "cont_10"
  top: "cont_11"
  top: "cont_12"
  top: "cont_13"
  top: "cont_14"
  top: "cont_15"
  top: "cont_16"
  top: "cont_17"
  top: "cont_18"
  top: "cont_19"
  top: "cont_20"
  top: "cont_21"
  top: "cont_22"
  top: "cont_23"
  top: "cont_24"
  top: "cont_25"
  top: "cont_26"
  top: "cont_27"
  top: "cont_28"
  top: "cont_29"
  top: "cont_30"
  top: "cont_31"
  top: "cont_32"
  top: "cont_33"
  top: "cont_34"
  top: "cont_35"
  top: "cont_36"
  top: "cont_37"
  top: "cont_38"
  top: "cont_39"
  top: "cont_40"
  top: "cont_41"
  top: "cont_42"
  top: "cont_43"
  top: "cont_44"
  top: "cont_45"
  top: "cont_46"
  top: "cont_47"
  top: "cont_48"
  top: "cont_49"
  top: "cont_50"
  top: "cont_51"
  top: "cont_52"
  top: "cont_53"
  top: "cont_54"
  top: "cont_55"
  top: "cont_56"
  top: "cont_57"
  top: "cont_58"
  top: "cont_59"
  top: "cont_60"
  top: "cont_61"
  top: "cont_62"
  top: "cont_63"
  top: "cont_64"
  top: "cont_65"
  top: "cont_66"
  top: "cont_67"
  top: "cont_68"
  top: "cont_69"
  top: "cont_70"
  top: "cont_71"
  top: "cont_72"
  top: "cont_73"
  top: "cont_74"
  top: "cont_75"
  top: "cont_76"
  top: "cont_77"
  top: "cont_78"
  top: "cont_79"
  top: "cont_80"
  slice_param {
    axis: 0
  }
}
layer {
  name: "lstm1_x_transform"
  type: "InnerProduct"
  bottom: "x"
  top: "W_xc_x"
  param {
    name: "W_xc"
  }
  param {
    name: "b_c"
  }
  propagate_down: true
  inner_product_param {
    num_output: 400
    bias_term: true
    weight_filler {
      type: "xavier"
    }
    bias_filler {
      type: "constant"
      value: 0
    }
    axis: 2
  }
}
layer {
  name: "lstm1_W_xc_x_slice"
  type: "Slice"
  bottom: "W_xc_x"
  top: "W_xc_x_1"
  top: "W_xc_x_2"
  top: "W_xc_x_3"
  top: "W_xc_x_4"
  top: "W_xc_x_5"
  top: "W_xc_x_6"
  top: "W_xc_x_7"
  top: "W_xc_x_8"
  top: "W_xc_x_9"
  top: "W_xc_x_10"
  top: "W_xc_x_11"
  top: "W_xc_x_12"
  top: "W_xc_x_13"
  top: "W_xc_x_14"
  top: "W_xc_x_15"
  top: "W_xc_x_16"
  top: "W_xc_x_17"
  top: "W_xc_x_18"
  top: "W_xc_x_19"
  top: "W_xc_x_20"
  top: "W_xc_x_21"
  top: "W_xc_x_22"
…
I0506 10:14:40.932859  8964 net.cpp:202] lstm2_ does not need backward computation.
I0506 10:14:40.932862  8964 net.cpp:244] This network produces output c_T
I0506 10:14:40.932869  8964 net.cpp:244] This network produces output h_pseudoloss
I0506 10:14:40.936496  8964 net.cpp:257] Network initialization done.
I0506 10:14:40.937501  8964 recurrent_layer.cpp:150] Adding parameter 0: W_xc
I0506 10:14:40.937513  8964 recurrent_layer.cpp:150] Adding parameter 1: b_c
I0506 10:14:40.937517  8964 recurrent_layer.cpp:150] Adding parameter 2: W_hc
I0506 10:14:40.940413  8964 net.cpp:124] Setting up lstm2
I0506 10:14:40.940440  8964 net.cpp:131] Top shape: 80 512 100 (4096000)
I0506 10:14:40.940448  8964 net.cpp:139] Memory required for data: 62793728
I0506 10:14:40.940462  8964 layer_factory.hpp:77] Creating layer fc1
I0506 10:14:40.940475  8964 net.cpp:86] Creating Layer fc1
I0506 10:14:40.940479  8964 net.cpp:408] fc1 <- lstm2
I0506 10:14:40.940486  8964 net.cpp:382] fc1 -> fc1
I0506 10:14:40.940659  8964 net.cpp:124] Setting up fc1
I0506 10:14:40.940663  8964 net.cpp:131] Top shape: 80 512 34 (1392640)
I0506 10:14:40.940666  8964 net.cpp:139] Memory required for data: 68364288
I0506 10:14:40.940670  8964 layer_factory.hpp:77] Creating layer fc1_fc1_0_split
I0506 10:14:40.940680  8964 net.cpp:86] Creating Layer fc1_fc1_0_split
I0506 10:14:40.940681  8964 net.cpp:408] fc1_fc1_0_split <- fc1
I0506 10:14:40.940686  8964 net.cpp:382] fc1_fc1_0_split -> fc1_fc1_0_split_0
I0506 10:14:40.940691  8964 net.cpp:382] fc1_fc1_0_split -> fc1_fc1_0_split_1
I0506 10:14:40.940716  8964 net.cpp:124] Setting up fc1_fc1_0_split
I0506 10:14:40.940719  8964 net.cpp:131] Top shape: 80 512 34 (1392640)
I0506 10:14:40.940722  8964 net.cpp:131] Top shape: 80 512 34 (1392640)
I0506 10:14:40.940724  8964 net.cpp:139] Memory required for data: 79505408
I0506 10:14:40.940727  8964 layer_factory.hpp:77] Creating layer ctc_loss
I0506 10:14:40.940734  8964 net.cpp:86] Creating Layer ctc_loss
I0506 10:14:40.940737  8964 net.cpp:408] ctc_loss <- fc1_fc1_0_split_0
I0506 10:14:40.940739  8964 net.cpp:408] ctc_loss <- label_data_1_split_0
I0506 10:14:40.940743  8964 net.cpp:382] ctc_loss -> ctc_loss
I0506 10:14:40.940759  8964 net.cpp:124] Setting up ctc_loss
I0506 10:14:40.940762  8964 net.cpp:131] Top shape: (1)
I0506 10:14:40.940764  8964 net.cpp:134]     with loss weight 1
I0506 10:14:40.940773  8964 net.cpp:139] Memory required for data: 79505412
I0506 10:14:40.940776  8964 layer_factory.hpp:77] Creating layer premuted_fc
I0506 10:14:40.940781  8964 net.cpp:86] Creating Layer premuted_fc
I0506 10:14:40.940784  8964 net.cpp:408] premuted_fc <- fc1_fc1_0_split_1
I0506 10:14:40.940788  8964 net.cpp:382] premuted_fc -> premuted_fc
I0506 10:14:40.940855  8964 net.cpp:124] Setting up premuted_fc
I0506 10:14:40.940857  8964 net.cpp:131] Top shape: 512 80 34 (1392640)
I0506 10:14:40.940860  8964 net.cpp:139] Memory required for data: 85075972
I0506 10:14:40.940862  8964 layer_factory.hpp:77] Creating layer accuracy
I0506 10:14:40.940868  8964 net.cpp:86] Creating Layer accuracy
I0506 10:14:40.940871  8964 net.cpp:408] accuracy <- premuted_fc
I0506 10:14:40.940873  8964 net.cpp:408] accuracy <- label_data_1_split_1
I0506 10:14:40.940877  8964 net.cpp:382] accuracy -> accuracy
…
